output/models_cifar10_100.pth (torch_old, 248636 bytes, 10 tensors)

layer1.conv1.weight f4 [6, 1, 5, 5]
000000 bf 7b 22 bc 89 b7 1f be 2d b9 66 bc ef 0f ea bd
       -0.009917199 -0.15597357 -0.014082235 -0.1142882
000010 e9 cc ca bd 5f 26 99 3e 21 ea 33 be 4f 73 e2 3e
       -0.09902365 0.29912087 -0.17569782 0.44228598
000020 d4 b6 89 bd c3 a8 63 3e 09 86 fd 3d 0e ef 34 bf
       -0.06724325 0.22232346 0.12379081 -0.7067727
000030 87 37 fb 3e 69 4d d0 be ca ac 77 bd b6 a1 f9 3e
       0.49065802 -0.4068406 -0.06046752 0.48756188
000040 98 6c 55 bf 4a 66 69 3f 0b ec e0 be 5a 1f 43 3e
       -0.83368826 0.91171706 -0.43930086 0.19054928
000050 59 d3 84 3e f0 9d 34 bf 69 04 16 3f 6a 78 67 be
       0.25942495 -0.70553493 0.5860048 -0.22604528
000060 16 0a 3a bd 9f 72 3c 3c 65 96 91 bd 4c 92 17 bd
       -0.045419775 0.011501937 -0.071087636 -0.037004754
000070 53 74 f4 3d 4d 60 cd bc 73 97 77 3d cd 49 6b 3e
       0.119362496 -0.025070334 0.060447168 0.22977372
000080 ff 30 37 bf 64 39 50 3e c4 9a 6e 3e a8 37 ac bd
       -0.7155914 0.20334393 0.23301226 -0.08409053
000090 5a 3e d4 3e 95 14 03 3f ad 22 a8 bf c0 2c cf 3e
       0.4145382 0.5120328 -1.3135582 0.4046383
0000a0 bb 65 ad 3d f0 de 1a bf 3d f9 62 3f 24 aa 50 3e
       0.08466669 -0.60496426 0.8866156 0.20377403
0000b0 6f 5f 05 bf 6d 92 91 bc 21 c1 d9 3d 67 29 ef be
       -0.52098745 -0.017770017 0.106325395 -0.46711275
0000c0 f1 f2 f4 3e 97 ff bb bd 23 0f 42 bd 6a bc 44 bd
       0.478416 -0.09179609 -0.047377717 -0.04803125
0000d0 30 f1 90 bd 2a 84 08 3e 0d 6c a2 3d 31 c8 e8 bd
       -0.07077253 0.13331667 0.07930765 -0.113663085
0000e0 d7 d7 19 bd 3b e9 4d 3e 9b 75 98 3d c3 31 5e bd
       -0.037559357 0.20108502 0.074443065 -0.054246675
0000f0 12 a1 b1 be f9 d7 73 3c 51 82 86 3e 4a 10 9f bd
       -0.346932 0.014883035 0.262713 -0.07766779
000100 de b9 0e bd 6f 7c ca be 48 fc a1 3e 6c 70 6a 3e
       -0.034845226 -0.3954806 0.31637788 0.22894448
000110 22 b7 19 bc ef a4 02 bc 04 a6 0d bf 7d ec d2 3e
       -0.009382041 -0.007973894 -0.55331445 0.4119605
000120 8f b6 c8 bc a4 dd 85 3d 6e 38 c0 bd 37 67 fb bd
       -0.024501113 0.06536415 -0.09385763 -0.12275546
000130 2e e0 b1 be be 9a 66 be a4 c3 a7 bc fc cd 69 3d
       -0.34741348 -0.22519967 -0.02047903 0.057081208
000140 46 0f 98 3e 37 d6 57 3f 5d 93 23 3f c0 90 f0 3d
       0.29699153 0.8431124 0.63896734 0.11746359
000150 65 fa 93 3d b5 ee 05 be 39 30 fb be 52 00 b7 be
       0.07225493 -0.13079341 -0.49060228 -0.35742432
000160 85 74 88 bb 51 b0 02 be 16 b3 0d 3e 82 14 93 3c
       -0.004164281 -0.12762572 0.13837847 0.017954115
000170 bc 70 9b bd 99 41 b1 3d 05 36 4d 3e 90 fb 96 bd
       -0.07589862 0.0865509 0.20040138 -0.073722005
000180 de 46 73 bd 10 24 68 bc 76 b1 11 be 6f ab 87 bd
       -0.059393756 -0.014168754 -0.14227852 -0.06624495
000190 01 22 01 be 4d 83 62 3d b7 65 8b bc 8d 11 18 3e
       -0.12610628 0.055301 -0.017016275 0.14850445
0001a0 0d e1 c4 bd de aa 18 3d 13 f6 c5 3d da 9c a1 3d
       -0.096132375 0.037272327 0.096660756 0.07891245
0001b0 ce c2 1e be 60 3b 0e 3e 1a da 9d be 67 3a e0 be
       -0.15504 0.13889837 -0.3083046 -0.43794557
0001c0 c1 1f 21 be 8b ae 0a 3d 5a ce a1 be 77 27 81 3e
       -0.1573477 0.033857863 -0.31602746 0.25225422
0001d0 c0 2e 84 3e 65 6d 2b be 5e 1d 00 be 66 bf 4b 3e
       0.25816917 -0.1674095 -0.12511203 0.19897231
0001e0 60 5b bb bd 3b ec 3b 3d 87 b8 38 3e 1c ef 12 3d
       -0.09148288 0.045879584 0.18039142 0.035872564
0001f0 c4 89 f8 bd 64 32 3f 3d ba 7b 9d be 1e 1d c2 3e
       -0.12135652 0.046678916 -0.30758458 0.3791284
000200 22 e5 9e 3c cf d0 f4 bd 46 9a c4 bd d7 e0 a6 3e
       0.019396368 -0.119538896 -0.09599738 0.32593414
000210 98 3d 1d 3f 9e c3 65 bf d1 32 22 3d 9e 06 8c 3d
       0.6142211 -0.89751613 0.039599244 0.068372
000220 4e a5 0f 3f 1e 8a a9 bf 7b cb d9 3d 49 f1 d4 3e
       0.5611161 -1.3245275 0.10634514 0.41590336
000230 7c f6 9c bc ef fa 9f be 2e 30 86 bd ee 6f 3e 3f
       -0.019160502 -0.31246135 -0.06552158 0.7438954
000240 21 10 ac be e7 dc 1b 3e 34 4d f1 bd 39 1d 54 3e
       -0.33606055 0.15220986 -0.117823035 0.20714273
000250 29 2a 64 be f0 a5 2f 3d
       -0.22281708 0.04288286

layer1.conv1.bias f4 [6]
000000 66 38 c5 be 62 45 c4 be 9e 54 b0 be ef af 9f be
       -0.3851959 -0.38334185 -0.34439558 -0.31188914
000010 c8 6e a6 be e0 0b cc be
       -0.32506394 -0.3985281

layer2.conv2.weight f4 [16, 6, 5, 5]
000000 05 6b b2 3d b6 1d 4a bd d8 eb 87 3d 27 cf 16 3d
       0.087118186 -0.04934474 0.066367805 0.03681865
000010 4e 6b 73 3d 3f 2d 26 3d 56 de 51 bd 58 d9 17 3d
       0.059428506 0.040570494 -0.051237427 0.03707251
000020 25 95 b0 3b c0 f5 12 bd 25 f4 95 bc d7 6f 48 bd
       0.005388873 -0.035878897 -0.018304894 -0.048934784
000030 20 0e 04 bd a0 85 2b bd 78 a0 87 3d d4 32 07 bd
       -0.032240033 -0.04187548 0.06622404 -0.033007458
000040 6b 2c 34 be 77 fc 03 be fb 0c 03 3e a5 5d b7 bd
       -0.17595069 -0.12889276 0.1279792 -0.08953408
000050 82 43 61 be 03 87 8c be 0d 69 25 bf e9 7e 44 bf
       -0.21998408 -0.27446756 -0.6461342 -0.7675615
000060 54 33 94 be ad 37 9a 3e d0 26 48 3e 90 39 63 3d
       -0.2894541 0.30120602 0.19546056 0.055474818
000070 7d ce 9c 3d 54 ea 3d 3e 4f a2 a0 3e 9d 76 34 3e
       0.07656572 0.1854642 0.31373832 0.17623372
000080 83 71 7b 3e aa 69 a3 3d ce 0c 23 3e b9 59 cd 3e
       0.2455502 0.07979138 0.15922853 0.40107515
000090 ef b7 3d 3e 23 99 30 3e 16 3e fe 3d fc ae 29 3e
       0.18527196 0.17245917 0.12414186 0.16570657
0000a0 1a c3 ee 3e 3e 28 b8 3e a3 ef 9a 3e 2f 31 4a 3e
       0.46633226 0.35968202 0.30260953 0.19745325
0000b0 33 5d 30 bc 6d 64 de 3e 2a 2c 49 3e d1 d1 5e bd
       -0.010764408 0.43435994 0.19645754 -0.054399315
0000c0 84 9f 89 3b 9f b5 86 bd 8e 0f 30 3e 68 d2 a6 3d
       0.004199924 -0.0657761 0.17193434 0.081456006
0000d0 73 52 a0 bc e5 3b 49 3e af 27 29 bd d6 cb 16 bd
       -0.019570565 0.19651754 -0.04129761 -0.036815487
0000e0 e6 97 25 3e e1 65 4b 3d e3 8d 32 be 46 45 65 3d
       0.16171226 0.049657706 -0.17436938 0.055974267
0000f0 e4 24 02 be 25 f6 32 bc 2e e6 3d 3d e6 a2 2e 3e
       -0.12709385 -0.010922943 0.046362095 0.17054328
000100 b4 4c ff bb 9d fe 7b bd 92 14 21 be 5c ac 1d bd
       -0.007791126 -0.061522115 -0.15730503 -0.038494453
000110 c4 85 a6 3e 6a 9b 2a 3e 19 b5 0a be e0 1e 6d bd
       0.3252393 0.16660848 -0.13545646 -0.057890773
000120 a4 ea ab be 34 25 af be 5c 69 3f bd b0 88 72 3e
       -0.33577454 -0.3420807 -0.046731338 0.23684955
000130 51 57 c2 bd 53 6c 5b 3b cc a3 4c 3d f6 ac 1e 3e
       -0.094893105 0.0033481314 0.049960896 0.15495667
000140 86 5d 6c 3d 4d 7c 76 3d 81 7a 58 3e 16 bd 5c 3e
       0.05770638 0.060177136 0.21140482 0.21556506
000150 4d f1 e4 3d 86 04 66 bd 05 e6 83 3e 12 55 48 3e
       0.11178837 -0.056156658 0.25761428 0.19563702
000160 37 11 1f 3e d4 1c 4f 3e 36 31 56 be 4a 29 6a 3e
       0.1553391 0.20225841 -0.2091721 0.22867313
000170 ec 9c 8e 3e cb f4 18 3e 29 72 c2 3d 60 f5 09 be
       0.27854097 0.14937131 0.094944306 -0.1347251
000180 38 38 15 3d e8 e9 18 3e 9d 87 d2 3e 7b 4c 83 3e
       0.036430568 0.14932978 0.4111909 0.25644287
000190 6b 57 48 3e 11 ca a8 3d 79 89 b7 bd db 1c 8d 3e
       0.19564597 0.08241666 -0.08961768 0.27561077
0001a0 c1 f9 f8 3d fb ad b5 3e ae 16 0e 3e 2f 00 39 3e
       0.12157012 0.354843 0.13875839 0.18066476
0001b0 6f 6c f6 3d 08 28 d0 3e b4 f3 a0 3e c6 34 79 3e
       0.12032401 0.4065554 0.3143593 0.24336538
0001c0 a1 68 76 3d 5b 46 38 3e 5e bd f3 3e 20 a2 6b 3e
       0.060158376 0.17995588 0.47605413 0.23011065
0001d0 35 f4 17 bd 1d f7 f9 3e 48 a7 a0 3e 58 2d 2a 3e
       -0.03709813 0.48821345 0.31377625 0.1661886
0001e0 10 1a 02 bf e4 e5 b1 3e 88 2d 50 3f 60 b6 29 3e
       -0.5082102 0.34745705 0.81319475 0.16573477
0001f0 bc 75 10 be 82 e9 90 bc 62 32 14 be 67 1b 46 bd
       -0.14107412 -0.01768947 -0.14472345 -0.048365977
000200 b3 3a 93 3c c6 66 f2 ba 9f 20 1b bd 60 41 39 be
       0.017972326 -0.0018493764 -0.037872907 -0.18091345
000210 07 1d 42 39 df 7c ad bb 01 be 34 3d 27 f1 85 3d
       0.00018512095 -0.005294427 0.044126514 0.06540137
000220 88 7b 24 be c1 c5 46 3d 31 5d fd b9 0c ac 0f 3d
       -0.16062748 0.048528437 -0.00048325353 0.035076186
000230 d1 46 0a 3d a1 16 70 bd ad 09 60 bc 3e 94 34 3e
       0.033758942 -0.05861533 -0.013674182 0.17634675
000240 02 a5 fc 3d 97 2e 96 3d 26 14 18 3e af c7 5e bc
       0.1233616 0.07333105 0.14851436 -0.013597413
000250 d9 af 46 3e 84 4d 36 3e 4e 44 07 bd ee 85 f1 3c
       0.19403018 0.17803007 -0.033024125 0.029482808
000260 ce 1e 7c 3d 04 dd 2f 3e 42 88 1f be a2 01 67 3e
       0.061552815 0.17174155 -0.15579322 0.22559217
000270 fd 9e a1 3d 2c 69 cc 3d 95 94 65 be d8 4d 9f 3d
       0.07891653 0.099809974 -0.22419961 0.077785194
000280 d5 ad 9d bb 4e 07 ad 3e 77 54 05 be a7 b3 3b 3d
       -0.004811982 0.33794636 -0.13020502 0.045825627
000290 61 2b bd bd 58 f4 29 be 59 cc 87 be 7c 7f 35 bc
       -0.092367895 -0.16597116 -0.26523092 -0.011077758
0002a0 4d 36 31 3d bb 8c 2e be 66 63 56 bd 8f 73 17 3e
       0.043264676 -0.17045872 -0.052340887 0.14790176
0002b0 77 91 ca bd a7 e0 d6 be 97 78 3f be fa e7 43 3e
       -0.098910265 -0.4196827 -0.18698345 0.19131461
0002c0 a0 af 96 3d 95 d2 24 3d 24 bd 6e 3e f1 10 d4 3c
       0.073577166 0.04023989 0.23314339 0.025886985
0002d0 d1 5d b9 bc b2 c5 bb 3d 21 00 d6 be ae 62 a8 3e
       -0.022627743 0.09168567 -0.41796973 0.32887787
0002e0 6f 64 63 3e 86 66 8a be dd 68 91 3d 28 ad 98 be
       0.22206281 -0.27031344 0.07100079 -0.29819608
0002f0 1f 8b 9d 3e 72 c7 04 3e ba b5 54 3c b0 15 f7 bc
       0.30770203 0.12966707 0.01298278 -0.030161709
000300 6c 7c c0 be f1 c1 fe be 28 b8 26 3d bc 51 14 3e
       -0.37594926 -0.4975734 0.04070297 0.14484304
000310 34 c7 97 3e f7 97 fd 3e e4 ef 62 bc ee ea a1 be
       0.29644167 0.49530002 -0.01385114 -0.3162455
000320 16 ab 07 3c a1 01 19 3e dc 9a 87 3e 47 b6 67 bd
       0.008280536 0.14942028 0.26485336 -0.056570318
000330 a7 0e a9 3d 4d d4 06 3c f2 cb a4 be 6b e5 3c 3b
       0.08254748 0.008229327 -0.32186848 0.0028823267
000340 be 85 92 3e 70 2d ad be 42 7f 2f 3e 32 fb e5 3e
       0.28617662 -0.3382373 0.17138389 0.4491821
000350 dc 98 20 bd e6 0d 26 3f 9a c6 c5 3c 35 e2 a2 3d
       -0.039208278 0.6486496 0.024142552 0.07953302
000360 43 07 20 3e 0e ed 0f 3e d9 93 30 3e 76 ec 71 3e
       0.1562777 0.14055273 0.172439 0.23625359
000370 d5 1a 7d 3d e3 5c 59 be a7 5a 0b 3d d2 a5 31 ba
       0.061793167 -0.2122684 0.034022 -0.00067767233
000380 c9 ee ae 3e ed 81 17 3e fc 13 25 3e 20 30 10 be
       0.34166554 0.14795657 0.16120905 -0.14080858
000390 b5 fd f1 bd 52 83 af 3d e1 33 38 3e b0 e1 51 3d
       -0.11815969 0.08569969 0.1798854 0.051240623
0003a0 cf af ab be 85 9d a0 be b6 8c 08 3d 81 2e 6c bd
       -0.3353257 -0.31370178 0.033337317 -0.057661537
0003b0 f5 25 cd bd 0f 45 9a be 3c 86 d1 be 4e 14 22 be
       -0.10017005 -0.30130813 -0.40922725 -0.15828058
0003c0 88 02 5c 3e 07 35 bc be 51 11 83 be 1e b4 db be
       0.2148534 -0.36759207 -0.2559915 -0.42910856
0003d0 d5 ea 8a be 08 37 4c 3e e6 e0 13 be c3 aa da bd
       -0.27132288 0.19942868 -0.1444126 -0.106771015
0003e0 13 e8 32 3e b4 74 9c be 79 93 6f 3e 8e 2d 8d 3e
       0.17471342 -0.30557787 0.233961 0.27573818
0003f0 6f 06 e4 be b0 28 3c be 9e 90 6b 3c e0 7f 47 be
       -0.44536158 -0.18374896 0.014377741 -0.19482374

layer2.conv2.bias f4 [16]
000000 b9 95 41 bf f4 9a 7e bf 37 ce 46 bf 25 60 45 bf
       -0.75619084 -0.9945519 -0.7765841 -0.7709983
000010 6c fa 70 bf 5f c4 25 bf 6c 35 3c bf 6c 02 05 bf
       -0.94132113 -0.64752764 -0.73519015 -0.5195682
000020 82 de 72 bf d4 75 65 bf e4 04 1e bf 42 d9 f7 be
       -0.9487077 -0.89632916 -0.6172621 -0.48407942
000030 dd 30 02 bf fe 54 4a bf 1f db 48 bf 66 45 fd be
       -0.5085581 -0.7903594 -0.7845935 -0.4946701

layer3.fc1.weight f4 [120, 400]
000000 12 16 2b 3c d8 f7 06 bb 83 d0 47 bc 3a da e7 3b
       0.010442274 -0.0020594504 -0.012195709 0.007075575
000010 25 41 34 bc 73 30 96 3c 89 87 b2 ba 62 d0 11 bc
       -0.01100186 0.01833365 -0.0013620715 -0.00889978
000020 cc 24 80 bb 94 62 0a bc 82 bc bf bb de ff 20 bb
       -0.0039106365 -0.008446354 -0.0058513293 -0.0024566571
000030 e3 74 1f ba 4d 07 79 bb 79 00 f4 bb 68 0c 36 bc
       -0.0006082786 -0.0037998736 -0.0074463454 -0.011111356
000040 31 43 b9 bc 42 90 f9 3b 45 62 ed 3b 91 6a 2c bb
       -0.022615047 0.007616074 0.0072443807 -0.0026308636
000050 1e 5d 44 bb 2b de 4a 3a f2 dd fd 3b 01 dc 40 3c
       -0.0029962729 0.0007738794 0.007747405 0.011771203
000060 8e 15 87 3b dd c2 80 ba 20 8a ee 3c a0 64 85 bb
       0.0041224426 -0.0009823699 0.029118598 -0.0040708333
000070 53 0d b2 3c 61 d1 2d bc 77 97 0a bc e3 ed ba 3b
       0.02173487 -0.010609002 -0.008458964 0.005704628
000080 9a 30 b2 bb 14 6b 7c bc 3a 1d 0d 3b fd 74 2d bc
       -0.0054379227 -0.015406389 0.0021532313 -0.010586974
000090 87 08 9d 3b 01 cc ca 3c 75 cc c0 3b a7 e5 b3 3b
       0.0047922763 0.02475548 0.005883748 0.005490023
0000a0 6b d5 43 3c bf 45 14 3c 0d 20 80 3c af 49 7e 3c
       0.011952738 0.009049832 0.015640283 0.015520497
0000b0 ee 2a 96 3b 81 02 c9 bc 16 e2 bd bc 54 1b 48 3b
       0.0045827543 -0.024537327 -0.023179095 0.0030533867
0000c0 bb 76 c1 bc 38 b5 e5 3c 86 d6 88 3c f8 5f e1 ba
       -0.023616185 0.028040513 0.016703855 -0.0017194739
0000d0 cd 34 32 3b e6 a3 07 ba 4e 9b c1 3c bd a1 80 3c
       0.0027192116 -0.0005174264 0.023633625 0.015702123
0000e0 c8 53 de ba 09 c9 99 bb 53 93 0a 3c 58 54 24 3c
       -0.0016962225 -0.0046931547 0.008457976 0.010029875
0000f0 4a c7 6a b8 a7 d1 f4 bb de d3 41 3c 7d 18 1a bd
       -5.597555e-05 -0.0074712816 0.011830298 -0.03762101
000100 53 4c 4f bb c4 f1 23 3b 79 22 b7 bb 5c a6 ee ba
       -0.0031631186 0.002501593 -0.0055888263 -0.0018207538
000110 21 fd 44 bb 4a b0 b6 3b dd 75 8c 3c 03 9e f8 3b
       -0.0030058103 0.0055752145 0.017146045 0.007587196
000120 99 03 b3 ba 27 12 6e 3c 51 72 23 3c 3f 32 5c bc
       -0.0013657688 0.014530695 0.009975986 -0.013439714
000130 21 8a 13 bd a5 35 73 bc 57 21 b6 bc 11 6d 18 3c
       -0.036020402 -0.014844333 -0.022232695 0.009303347
000140 dc 31 1c bd fc 8f ad bc 8a 15 1e bb b4 9b 78 bc
       -0.038133487 -0.021186821 -0.0024121725 -0.015173841
000150 f9 fb 09 3c 89 9a 85 3c 69 c3 4d 3c d1 1f c5 3c
       0.008421891 0.01630904 0.012558796 0.024063023
000160 5e 34 a8 ba a6 09 38 3b 2a 9c da bb 2c 54 77 3c
       -0.001283299 0.0028081923 -0.0066714482 0.015095752
000170 9f 26 bc 3c 9f 54 5a 3b c6 91 92 bc 3b 26 93 3b
       0.022967635 0.0033314598 -0.017891776 0.0044906414
000180 60 a3 d4 bb 70 e5 d3 3a 49 42 d2 bc 2a 3f 8f 3b
       -0.0064892024 0.00161664 -0.025666373 0.0043715434
000190 47 41 12 3c a4 64 93 3c 45 3e 96 3c bb 77 6e 3c
       0.008926696 0.017992325 0.01834024 0.014554913
0001a0 2f 03 c5 bb b8 e3 2c 3c 0d 04 4c 3c 32 a9 88 3c
       -0.0060123424 0.010552339 0.012452138 0.016682241
0001b0 c6 f6 80 3c c7 be 86 bc cf e1 c3 3c 78 34 9d 3b
       0.01574267 -0.016448392 0.023911385 0.0047975145
0001c0 3a b1 3f bc c1 77 bd bb 43 da f6 ba fc eb df bb
       -0.011699969 -0.005782098 -0.0018833358 -0.0068335515
0001d0 22 94 d0 3c 43 99 e0 bb dd 95 5f 3b 26 5a bd 3b
       0.02546126 -0.0068542077 0.0034116425 0.005778569
0001e0 5c d9 a4 39 7c db 08 3d e0 40 92 3c 1a 03 c0 3c
       0.00031442463 0.03341244 0.0178532 0.023438979
0001f0 27 97 96 38 3a 26 33 3d ba 25 f3 39 5b 9c 3e ba
       7.180712e-05 0.043737628 0.0004637668 -0.00072712236
000200 98 96 bb 3c a0 6e 3e bc 7e c1 64 3b 8a 05 71 3c
       0.022898957 -0.011623055 0.003490537 0.014710793
000210 62 ad 9f 3c 70 7e 14 3c c5 03 82 bc b5 d0 1c bb
       0.019491855 0.009063348 -0.015870938 -0.002392811
000220 d6 e8 8e 39 26 d7 f9 3b a3 28 b9 bc f4 47 cf 3a
       0.00027257827 0.0076245246 -0.022602385 0.001581429
000230 37 f4 86 bc 32 ab 38 bc d3 b3 d5 bb 94 82 77 bc
       -0.016473873 -0.011271285 -0.006521681 -0.015106816
000240 db 5d fc 3c 44 ce 31 bb c6 36 25 3c 93 03 17 bc
       0.030806473 -0.0027131 0.01008386 -0.009217161
000250 8d 02 2b 3b 64 f8 ee 3b 12 7d 02 bc ad c3 0c bc
       0.002609405 0.007292794 -0.007964389 -0.008591575
000260 d2 bf fe 3b 0f 51 89 3c f2 ee 9d ba 85 69 04 3c
       0.0077743316 0.016762285 -0.0012049361 0.008081798
000270 5a 09 2b 3c 20 fc 8e b9 5a b0 87 3c ad 42 7e 3b
       0.010439241 -0.00027272198 0.016563583 0.0038797066
000280 c4 f3 69 3c 9f 58 cc 3b f0 54 93 39 c7 ff ae bb
       0.01427931 0.0062361504 0.00028101308 -0.0053405496
000290 07 36 35 3c 3e ca 98 bc 79 ed 6f 3c 5f bc 22 bb
       0.011060244 -0.018651124 0.01464402 -0.0024831516
0002a0 7d 3b 1a bc cc f7 c0 bb 71 8d 58 3b da 11 9b ba
       -0.009413597 -0.0058889147 0.003304329 -0.0011830882
0002b0 b9 14 e1 bb 0f 84 57 3b 0f 9c 43 3b 0c f3 0d 3d
       -0.0068689254 0.003288511 0.0029847657 0.034655616
0002c0 c8 b9 09 3d 79 1c 6e 3c 0f 56 f8 3b a5 53 89 3c
       0.03362444 0.014533156 0.0075786184 0.016763518
0002d0 23 bf 04 3d 2c 20 6c 3c e6 41 15 bc 65 78 00 bc
       0.032408845 0.014411967 -0.00910995 -0.007841204
0002e0 c3 e8 43 3c 9f 89 05 3c d0 98 ab 3b f1 79 5e 3c
       0.01195735 0.008150487 0.0052367225 0.013578878
0002f0 0f 56 da 3b bd 1d 1a bc dc b1 b8 3b 68 29 96 3a
       0.006663091 -0.009406504 0.005636437 0.0011456432
000300 80 14 eb bc 40 ef 04 bc 92 7d 48 bc 42 66 19 bb
       -0.028696299 -0.008113682 -0.01223697 -0.0023406898
000310 65 66 42 bb 53 14 92 bc 18 7d 6e bc d4 78 49 bb
       -0.0029663083 -0.017831957 -0.014556192 -0.0030742185
000320 fb 98 81 bb 4b 2a ff bb 58 48 7a 3a ca 85 19 3c
       -0.0039550043 -0.007787024 0.0009547523 0.009370277
000330 15 42 48 3c b7 de d8 3c 8c 54 36 3c 0e d9 66 bb
       0.012222786 0.026473386 0.011128556 -0.003522459
000340 d5 b3 db 3c a4 88 c5 3b 8a ff de 3c 48 23 18 3c
       0.026819149 0.0060282517 0.02722146 0.009285755
000350 ac 09 39 bb 64 c0 f6 bb 0a 58 36 3a 28 b2 a8 bb
       -0.0028234525 -0.007530259 0.0006955868 -0.005148191
000360 af 8b 9c bb 49 25 46 3c 1d bc c9 3a bd 30 10 39
       -0.004777394 0.01209385 0.0015391145 0.00013751067
000370 2d 6c 2a bb fd 7d e4 bb 5c 00 06 3c 80 70 9a bc
       -0.002600442 -0.006973027 0.008178797 -0.018852472
000380 61 eb 1a bc e7 3d 1e bc b4 e5 3e 3c d1 ba a6 3b
       -0.009455533 -0.009658313 0.011651445 0.005088188
000390 55 45 d2 bc 4a 79 59 bc 22 e5 d7 bc ee 01 97 bc
       -0.025667826 -0.0132735465 -0.026354376 -0.018433537
0003a0 0a ad 02 bc e1 d6 d0 3b cc 5f db 3b d6 45 e4 3c
       -0.007975826 0.006373272 0.0066947695 0.027865332
0003b0 e1 c5 65 3b 76 5b 49 bc 3c 82 39 3c 2a 72 d3 3c
       0.0035060572 -0.012289872 0.011322554 0.025811274
0003c0 f3 54 49 3b 1f d3 2a bc 64 0b 05 bc 7a ef 93 3c
       0.00307208 -0.010426312 -0.0081203915 0.018058527
0003d0 56 b5 81 bb 70 5e 1b 3c 6a 63 f1 bb b7 51 c6 3c
       -0.0039583845 0.009482965 -0.0073665874 0.024208887
0003e0 78 35 86 3c 34 10 5f bb ee 2e a6 3a ce 4d 54 3c
       0.016382918 -0.0034036757 0.0012678781 0.012958003
0003f0 7b 02 89 3a 56 fe 0d bc c6 35 d6 3c 90 30 6c bc
       0.001045301 -0.008666595 0.026148688 -0.014415875

layer3.fc1.bias f4 [120]
000000 5b 6a 6b bc 01 d7 08 3b b2 99 0d bc b5 d2 e1 bb
       -0.014368619 0.0020880105 -0.008642601 -0.0068915733
000010 5e 91 a8 38 81 db 48 bc 33 55 3b 3b 58 2d 7e 3a
       8.037941e-05 -0.012259365 0.0028584718 0.0009696088
000020 8a 5e 3a bc 68 39 7d 3b 84 1b 94 3a c8 b8 a9 bc
       -0.011375079 0.0038638953 0.0011299704 -0.020717993
000030 d4 0c 46 bc 58 a7 79 b8 0c ec b2 3c 18 c1 25 3b
       -0.012088019 -5.9522077e-05 0.021841072 0.0025292095
000040 15 23 75 3b c1 f4 9e 3c bf b9 0e bc 9b 1d ef bb
       0.0037404944 0.019403817 -0.0087112775 -0.0072972304
000050 ab 39 a3 b9 e8 93 1d bc 98 b4 78 bc ba 29 de 3b
       -0.0003113275 -0.009617783 -0.015179776 0.0067798765
000060 f8 be 1a bc 2d 67 a0 3c 60 fc 18 3c 1b a1 a4 3c
       -0.009444945 0.019580448 0.009337515 0.020096352
000070 93 3a a2 bc 4e a5 89 3c 34 cc 7e 3c 9c 75 a4 bc
       -0.019803321 0.016802456 0.0155516155 -0.020075612
000080 80 d6 8c 3b 60 2c a6 ba aa 23 e6 bb 51 5d 15 3c
       0.0042980313 -0.001267802 -0.0070232945 0.009116487
000090 2d 72 22 bd 42 ae 4b bc b4 30 d0 bb 9e a2 44 3c
       -0.039659668 -0.012431683 -0.006353462 0.012001662
0000a0 22 da 96 bc 96 c8 58 bc 4b d7 39 bc bb ce 14 3d
       -0.01841456 -0.013231417 -0.011342834 0.036329966
0000b0 9a 54 de 3a 5b 74 60 3c 28 08 3d bc b8 20 0d bb
       0.0016962469 0.013699616 -0.011537589 -0.0021534394
0000c0 4c 82 2e 3c 04 24 ac 3c af 0c 4e 3a 26 72 11 3a
       0.010651182 0.021013267 0.00078601664 0.00055483205
0000d0 47 9f 22 bc 81 0c d0 3b de 0f 3b bc b2 57 84 bb
       -0.00992567 0.006349147 -0.011417357 -0.0040387744
0000e0 6c 56 58 3c 63 2d 76 bc 0b e4 9e 3c c3 70 b2 bb
       0.013204198 -0.0150254695 0.019395849 -0.005445571
0000f0 7e 53 b4 3c e8 e1 75 bc 83 51 88 bc ad 42 9c 3d
       0.022012468 -0.0150074735 -0.01664043 0.07629905
000100 fa 5c 35 be 29 12 12 3b b5 50 17 bc c5 fe b1 bc
       -0.17711249 0.0022288656 -0.009235551 -0.021727929
000110 8d e8 03 bc d9 fb 06 3c 3f 0f 91 bb a6 69 9d 3c
       -0.00805105 0.008238756 -0.0044268663 0.019215416
000120 5c 56 68 bc 31 52 65 bc 4e d8 f1 b8 e4 1d 89 bc
       -0.014180746 -0.013996647 -0.000115320654 -0.016737886
000130 48 ca 36 3c 3c af 33 bb 81 46 e1 ba 01 b3 d0 3b
       0.011156626 -0.002741768 -0.001718715 0.006368995
000140 62 4b b2 3b f9 0a dc ba 23 e7 80 3c 7f 17 f9 bb
       0.0054411152 -0.0016787938 0.015735215 -0.007601678
000150 7e cc 20 bc 62 e9 ba bb 22 5e f9 39 40 5b 4d 3a
       -0.00981438 -0.005704091 0.00047563115 0.00078337267
000160 57 3c 3d 3c ba 96 8e 3c dc e9 9e bc 96 22 9c 3b
       0.011550031 0.017405856 -0.019398622 0.004764865
000170 c4 52 16 bc 42 f4 2e bc 51 41 a4 3b 08 85 81 3c
       -0.009175006 -0.010678353 0.005012669 0.015810505
000180 00 87 ee bb 3c fd f7 bb 9b ee 21 ba 6e 4b 61 bd
       -0.007279277 -0.0075680297 -0.00061772176 -0.055003576
000190 51 2f c1 3b 2b 27 4e bb e8 e7 e3 3b 89 f0 95 bb
       0.005895533 -0.0031456451 0.0069551356 -0.004575793
0001a0 a4 14 8d bb 18 6c 13 bc e0 b6 95 bb 6e f5 6e 3b
       -0.004305439 -0.0089979395 -0.0045689195 0.0036462205
0001b0 62 13 0c bc 76 a4 91 3c ae ea 99 ba 61 9f 70 bc
       -0.008549543 0.017778616 -0.0011742914 -0.014686436
0001c0 9f a2 8a 3e 3b 31 91 3a 39 63 c4 3c 5d 2d 20 bc
       0.27077195 0.0011077294 0.023973094 -0.00977644
0001d0 d1 8f b1 bb e7 76 cf 3c fa 77 20 bb f9 22 d8 3d
       -0.0054187556 0.025325252 -0.0024485574 0.105535455

layer3.fc2.weight f4 [84, 120]
000000 4d d1 87 bb 59 7b 3a 3a c8 d8 12 bb 2c f9 54 3b
       -0.0041448236 0.0007113717 -0.0022407044 0.003249715
000010 bc f5 16 ba e4 17 19 bb f2 08 85 3b b2 cb 83 bb
       -0.0005758663 -0.0023360187 0.0040599043 -0.004022085
000020 41 89 19 bb 3a 4a b4 3b b1 34 79 b9 de a0 2e 3b
       -0.0023427757 0.0055020126 -0.0002376612 0.0026646177
000030 17 95 c9 ba af 01 01 bb e4 75 85 bb 25 c6 e3 ba
       -0.0015379515 -0.0019684841 -0.0040728915 -0.0017377777
000040 80 0b c9 b9 41 b0 c4 bb fa 77 6e b9 d1 a1 80 bb
       -0.00038346276 -0.0060024564 -0.00022742143 -0.00392554
000050 39 c2 bd 3a b1 6f e0 3b 03 48 21 3b 91 fc a2 bb
       0.0014477439 0.006849252 0.0024609573 -0.004973956
000060 ce ee 81 3a d8 9d bb ba 85 c1 78 3a c8 45 91 3b
       0.0009913088 -0.0014314009 0.0009489286 0.0044333674
000070 0d 3f c1 3b 00 88 25 bb 7d c1 ac bb f4 32 cc ba
       0.005897409 -0.0025258064 -0.005272089 -0.001557915
000080 23 4a b2 bb e4 ff ea 3b 52 c1 6a 3b a2 12 f7 39
       -0.0054409667 0.007171618 0.0035820794 0.00047125394
000090 67 12 ad 3a 57 eb b8 bb 1f 30 c9 3a 4a 3e 69 ba
       0.0013204337 -0.005643289 0.0015349424 -0.00088975264
0000a0 b5 92 0a 3a d1 1e ee ba 4c f0 ea ba 7f 45 43 ba
       0.0005286143 -0.0018167143 -0.0017924397 -0.00074490154
0000b0 58 44 a4 3b e2 dc cd bb a8 58 ed 39 c8 04 10 3b
       0.00501303 -0.006282435 0.00045270217 0.0021975506
0000c0 6e 73 5b ba a9 b1 b7 3a 0c 80 07 bb 9b 54 93 3b
       -0.00083713874 0.0014014739 -0.0020675687 0.0044961697
0000d0 2d 03 57 3a 9b e6 ff 3a 8b a1 8d ba 42 7d d4 bb
       0.00082020723 0.0019523682 -0.001080559 -0.0064846585
0000e0 81 27 72 3a d0 de 0f bc 3f b3 4d 3b 87 b2 09 bb
       0.0009237454 -0.00878115 0.0031387357 -0.0021010952
0000f0 0e ac 78 bb 26 45 5f 3b d3 d6 35 b9 75 c5 0b 3c
       -0.003794435 0.0034068315 -0.00017341533 0.008530964
000100 90 61 25 3c 81 90 ae ba 68 16 26 3b 78 a8 57 3b
       0.0100940615 -0.0013318212 0.0025342945 0.0032906812
000110 28 b8 9d 3a 02 1f 27 ba 7a 0f bf 3b 63 60 cb ba
       0.0012033032 -0.0006375165 0.0058307024 -0.0015516396
000120 c6 a7 3d 3b 47 79 ac bb ba a5 83 ba 74 1f fb 3b
       0.0028939112 -0.005263481 -0.0010043897 0.0076636616
000130 39 4e d5 3b cd 21 99 3b 82 6c 02 3b fa 1d d1 3a
       0.006509569 0.004673219 0.0019901101 0.0015954368
000140 a7 4c 27 bb b0 8e cd 3b 04 8f 51 3b f3 d4 02 bb
       -0.0025527866 0.006273113 0.0031976113 -0.0019963353
000150 df 26 0c 3c 19 89 31 3b 57 61 db ba 49 3c 61 3b
       0.0085541895 0.0027089773 -0.0016737384 0.0034368208
000160 ed 77 8c 3b b1 63 c5 ba 30 96 7b bb 67 18 02 bb
       0.004286757 -0.0015059618 -0.003838908 -0.001985097
000170 f4 d5 e8 ba cb 00 3f 3a f3 b0 e8 ba fe 7f ab bb
       -0.0017763958 0.000728619 -0.001775293 -0.0052337637
000180 92 14 16 ba 95 94 10 3c cf 48 8b 3b d6 dc 21 bc
       -0.0005725111 0.008824487 0.004250623 -0.009879312
000190 4c 86 99 3b 6b ad 0a 3a a7 82 d7 3b 4b aa 0f bb
       0.004685199 0.00052901235 0.0065768543 -0.002192157
0001a0 7a 9b 4a bb e1 5c 36 bb 98 17 c4 bb ee da 5a 3b
       -0.0030915425 -0.0027826356 -0.005984258 0.0033394652
0001b0 c7 6d bf ba fa 08 27 ba 9d bf 9c bb 20 f6 0f 3c
       -0.001460486 -0.0006371882 -0.0047835843 0.008786708
0001c0 f0 52 a4 bb 08 eb 37 3b ba 66 2f bb db da 6b ba
       -0.0050147697 0.0028063674 -0.002676411 -0.00089971506
0001d0 1f 8f 6c 39 01 2b bc bb 3f 78 9e 3b f6 b6 06 bc
       0.0002256003 -0.005742431 0.004836112 -0.008222332
0001e0 4d 23 37 3c f7 8a c1 bb c4 4c f6 3b ed a1 ed 3a
       0.01117785 -0.0059064585 0.0075164754 0.0018129923
0001f0 f8 8c 1c 3b b0 f8 1f bc 0e e0 44 3b d3 0d 31 bc
       0.0023887735 -0.009763882 0.0030040774 -0.010806519
000200 90 2d 08 3b a0 e8 39 3b ba 4a b2 bb 4f ec 4e bb
       0.002077911 0.0028367415 -0.005441037 -0.0031573956
000210 09 4f c6 3b af 49 a5 bb ba e6 cf bb 41 d9 88 3b
       0.006051902 -0.005044184 -0.0063446434 0.0041762893
000220 a1 78 3f 3b ca 26 d3 bb db 27 17 3a a3 e1 3d bb
       0.0029216188 -0.006443833 0.0005766132 -0.0028973601
000230 f4 8b 08 bb b0 f2 67 b9 29 af 32 bc 59 9e bf 3b
       -0.0020835372 -0.00022120285 -0.010906019 0.005847734
000240 ff 01 a9 3b 5a 3b a5 3b f6 22 e1 ba 28 09 20 bb
       0.0051577087 0.0050424756 -0.0017176557 -0.002441952
000250 56 22 3e bb 28 c9 49 bc a8 0f be 3a da b7 bb 39
       -0.0029012165 -0.012316026 0.0014500516 0.000358044
000260 a7 5b 51 bb 81 2a a0 39 18 f1 33 3c 86 51 77 3b
       -0.0031945498 0.00030549246 0.010982774 0.00377378
000270 1e b1 ef 3b 3b 19 2f 39 cb d3 f0 3b 05 26 98 3b
       0.007314815 0.000166987 0.0073494664 0.004643204
000280 34 c4 60 bb d1 17 45 3a 3d a0 38 ba b1 f2 40 3b
       -0.0034296634 0.00075185025 -0.00070429203 0.002944153
000290 19 86 98 3a a9 89 b2 bb 30 e3 02 3c 2e 22 87 ba
       0.0011636644 -0.0054485393 0.007988736 -0.0010309869
0002a0 00 ff 1b ba a5 09 7f bb 2f 91 e8 38 7f e9 18 3b
       -0.0005950779 -0.003891566 0.000110896646 0.0023332534
0002b0 d9 7b 8b b9 ec 82 1d 3b 94 92 f0 bb 8c 48 7e bb
       -0.0002660442 0.0024034334 -0.007341692 -0.0038800566
0002c0 a1 95 84 3b 2d 45 d3 3a 10 08 67 3a 04 d2 4f ba
       0.0040461575 0.0016118638 0.0008813152 -0.0007927718
0002d0 2d 9c 05 bb 3c 8d 03 bc b7 d3 56 3b bc 1e 0b bb
       -0.0020387277 -0.008029278 0.003278 -0.0021228036
0002e0 49 a7 8d 3b 9c ef 95 3b 1d 36 f5 ba 00 8d 17 bb
       0.0043229205 0.004575683 -0.0018708144 -0.0023124814
0002f0 ad 69 9a 3a a3 3b 45 bc 01 97 0a bc be 30 b8 3b
       0.0011780761 -0.012038144 -0.008458854 0.005621045
000300 a3 21 db 3b 0d 48 a2 3b 68 3e 74 3a bc 23 1c bb
       0.0066873594 0.004952437 0.00093171606 -0.002382501
000310 3b 18 16 bb 22 bb e5 39 d5 3c 99 bb 44 b0 07 bb
       -0.0022902626 0.00043817709 -0.004676441 -0.0020704428
000320 e3 0e 8a ba 36 5f 9f bb 8c ac 20 3b f0 e4 c1 bb
       -0.0010533001 -0.004863645 0.0024516908 -0.005917184
000330 ee 3d 5f bb 01 9a c5 3b b3 2f 21 bb 6f 0f 16 bc
       -0.0034064013 0.0060303216 -0.0024595081 -0.009158953
000340 32 54 d4 ba b3 f8 2d bb e2 6d 80 3c 9b c8 ac ba
       -0.0016199409 -0.0026545941 0.015677396 -0.0013182344
000350 6f 68 e9 ba c5 ea fe 3a 2a f5 f8 ba 41 7a 8a b9
       -0.0017807613 0.0019448629 -0.0018993963 -0.00026412497
000360 1b 98 c8 3b 6e d8 b0 38 98 7d 2e bb a5 c0 c3 3b
       0.006121648 8.432647e-05 -0.0026625153 0.0059738928
000370 3c 3e 9f bb 40 7b 0d 3b 09 ca 92 3b 1f d2 07 ba
       -0.004859714 0.0021588355 0.004479651 -0.0005181152
000380 25 0a 7b 3b b8 a8 c5 ba 3d 80 3a 3b 72 bc 41 3b
       0.0038305607 -0.0015080189 0.0028457784 0.0029561785
000390 f8 42 ac ba f9 9c cb 3a 10 da 98 3a f5 18 b4 3b
       -0.0013142517 0.0015534452 0.0011661667 0.005496139
0003a0 d9 de c7 bb fc da 3e 3b 0b 50 24 3b a6 21 a9 bb
       -0.0060995636 0.0029122224 0.0025072123 -0.005161482
0003b0 9f fb 85 b7 1e ef 6a 3a ab 37 7f ba bf e3 84 3c
       -1.5972006e-05 0.0008962023 -0.0009735773 0.016221879
0003c0 4b 69 1e ba 1c 95 09 3c fa b3 ab bb 28 7e 0e 3b
       -0.00060429116 0.008397367 -0.0052399607 0.0021742675
0003d0 39 55 89 38 aa eb 18 bc 87 30 77 3b 90 f0 03 bb
       6.548543e-05 -0.00933353 0.0037718134 -0.00201324
0003e0 51 87 38 bc 3d 45 4c 3c 57 3e 87 bb eb 17 4a bc
       -0.011262731 0.01246768 -0.0041273045 -0.012334804
0003f0 44 00 04 bc 15 9b 4d bc 72 0c 8e 3b 72 ab 00 3b
       -0.008056704 -0.0125491815 0.0043349797 0.001963344

layer3.fc2.bias f4 [84]
000000 e6 1a 14 3b 7c 84 5e bc 65 1b 02 3c f9 91 a6 3c
       0.002259904 -0.013581391 0.007941102 0.020333277
000010 90 f3 05 3b 58 6f 07 3b ac 34 d0 3b eb 48 94 3b
       0.0020439364 0.0020665731 0.006353935 0.004525294
000020 26 df cb 39 3b 81 85 bc 70 d5 17 3e eb f4 ea 3a
       0.00038885436 -0.016296973 0.14827514 0.0017925774
000030 81 ee 90 bb 48 bd 03 3c a8 a3 23 3c 2f 3e 3c 3c
       -0.004422963 0.008040734 0.009987749 0.011489435
000040 01 06 b9 3b 28 7d 2a 3c 2f 00 38 ba 3f 1c 79 bc
       0.0056464677 0.010405816 -0.00070190703 -0.015204488
000050 9c c9 6e 3c 3d 68 11 3c 40 e1 80 bc cf 00 7f bc
       0.014574435 0.00887495 -0.015732408 -0.015564158
000060 47 fa b4 3c a6 30 2a bd 54 0c a7 ba b8 d3 31 bd
       0.022091998 -0.0415503 -0.0012744763 -0.0434148
000070 2e 5e 71 3b ab 43 8a 3b f4 42 7b ba bc b2 e6 b9
       0.0036829817 0.0042194924 -0.0009584867 -0.00044002186
000080 f0 8d 5c 3b e8 94 dc b9 07 a1 f3 3c 66 b6 5d 3c
       0.0033653937 -0.00042072614 0.02973987 0.013532257
000090 e7 39 4c 3b 83 12 6e bb ff 9f 50 3c 41 92 71 bc
       0.0031162442 -0.0036326952 0.012733459 -0.014744342
0000a0 54 ff 4e 3b e2 2f 59 3e 3e 0d c5 bc dd 3d ac 3b
       0.0031585293 0.21209672 -0.024054166 0.005256398
0000b0 58 c2 a7 b7 c4 33 ca 3c dc 04 33 3c 52 9c 0c 3c
       -1.999845e-05 0.024682887 0.0109264515 0.008582192
0000c0 f1 47 9f bb a9 e9 40 bb 4f 04 ed 3b f0 d5 69 3e
       -0.004860871 -0.0029436147 0.0072331796 0.22835517
0000d0 ee 39 f1 3a 8d 46 c6 3b 93 bb 94 3b 7e b0 4b 3c
       0.0018404105 0.006050891 0.004538962 0.012432216
0000e0 2e bb c4 3b 26 be 30 3b 71 d6 ef bb 0d 07 0a 3b
       0.006003759 0.0026968806 -0.0073192646 0.0021061331
0000f0 47 33 18 3c 80 6f ef 3b d4 d4 ce 3b af b0 5f bc
       0.009289569 0.007306993 0.006311992 -0.0136529645
000100 20 a0 68 3b b3 04 09 3b 6e 30 a8 bb 11 c3 17 bc
       0.0035495833 0.0020907342 -0.0051327264 -0.009262816
000110 fc a3 97 bb 7e 6b 31 bc 1d c3 99 3d 9b e3 e4 bb
       -0.0046277028 -0.010828851 0.07507918 -0.0069851405
000120 e3 b0 4f bc 28 1a 22 3c b0 26 74 bb 4e 16 64 bc
       -0.01267645 0.009893931 -0.0037254505 -0.0139213335
000130 40 3c c5 bc 97 4d 05 3c 6d 32 a6 bb 90 a3 3e bd
       -0.024076581 0.008136175 -0.005071929 -0.046542704
000140 25 3a 68 3b 4a f2 87 3b 9b 90 dc 3c 4a 00 45 bc
       0.0035435047 0.004148756 0.026924422 -0.012023995

layer3.fc3.weight f4 [10, 84]
000000 e7 42 42 3b e2 3a bc 3b 52 b0 59 3b 29 a6 47 bb
       0.0029641928 0.005744324 0.0033216667 -0.003046403
000010 fc f5 aa bb bb 0c 7a b8 29 b9 83 bb c6 73 a7 3a
       -0.005217312 -5.96165e-05 -0.0040198755 0.0012775592
000020 f9 8b f9 3a f7 e5 03 ba dd 80 08 be d4 b5 57 ba
       0.0019038907 -0.0005031521 -0.13330407 -0.00082286936
000030 2e a0 4e ba c4 75 db 3a c1 dc 1c bb 8a 47 61 b9
       -0.0007882145 0.0016743471 -0.002393529 -0.00021484322
000040 d9 6f 66 bb 55 8e 65 bb 29 ee 40 bb 85 0b 96 3a
       -0.0035161881 -0.0035027463 -0.002943883 0.0011447525
000050 3f 43 96 ba dc 53 ef 39 6c d8 91 bb 13 0f 11 bb
       -0.0011464133 0.00045648112 -0.0044508483 -0.002213423
000060 5b aa 59 3b 7b 44 eb 3b 57 bb 1a 3b 04 ea c6 3d
       0.0033213112 0.0071797944 0.0023610198 0.09712604
000070 7d 90 16 bb 6f ad 40 3b 46 16 32 bb e9 32 d3 bb
       -0.0022974305 0.002940025 -0.002717392 -0.006445278
000080 25 9d 33 ba 26 49 54 b9 50 02 43 3b 74 b4 c2 bb
       -0.00068517245 -0.00020245145 0.0029756017 -0.005941922
000090 f7 89 ca bb 7b 1f 4c b8 b2 7a 44 3b 9e 86 25 b8
       -0.0061809975 -4.866671e-05 0.0029980359 -3.9464438e-05
0000a0 b8 59 05 3c 10 4d b1 3a 0e d5 51 ba 43 fe 9a 3b
       0.008139066 0.0013526995 -0.0008004465 0.0047300174
0000b0 cf e8 7c bb 3d c5 62 3b b4 2b 98 3c 15 a8 19 bc
       -0.0038590913 0.0034602426 0.018575527 -0.009378453
0000c0 de 24 2b 3c af f0 bc 3a 09 78 a5 3a 1c 1a f2 3b
       0.010445802 0.0014414991 0.0012624274 0.0073883664
0000d0 79 d6 52 bb 4c f6 f2 3b 98 46 61 3a 29 10 1c 3a
       -0.0032171293 0.007414615 0.0008593588 0.0005953336
0000e0 16 b6 a3 b9 5e c9 75 be 75 53 69 bb 56 82 3d ba
       -0.00031225447 -0.24002597 -0.0035602723 -0.00072291994
0000f0 2f 28 43 3b 6a 59 e1 bb c5 e2 41 3a b8 bb d0 bb
       0.002977859 -0.006877114 0.0007396157 -0.006370034
000100 70 9b b0 3b b0 74 93 bb 45 36 74 38 51 7c 54 37
       0.0053896233 -0.004499994 5.8224676e-05 1.2665129e-05
000110 0d 62 33 bb 95 7d c9 3b 46 f5 d0 bd 01 f0 d8 ba
       -0.0027371675 0.0061490037 -0.10203032 -0.0016551019
000120 bf ed a4 ba 03 dc 63 3b 9e c2 37 3b 67 19 b2 3b
       -0.0012583061 0.0034768588 0.0028039585 0.005435157
000130 3c 6e 0a 3b 08 c3 74 3b 4b 04 fc 3a c2 35 04 3e
       0.0021122834 0.0037347693 0.0019227354 0.12911132
000140 33 47 30 bb 71 41 ee ba 61 35 6a ba 9d d0 12 3b
       -0.0026897907 -0.0018177462 -0.00089343457 0.0022402175
000150 68 5a 8f 3b 8c de d3 bb e7 b0 a3 3a 90 d1 b8 3a
       0.004374791 -0.0064657386 0.0012488634 0.001410054
000160 21 fa e8 3a aa ca 6f bb eb 4d 26 3b 9e bd 4a 3b
       0.001777474 -0.0036589303 0.0025376033 0.0030935775
000170 ab 41 c7 3b 09 f8 15 bc 17 2f f2 bc de 6a a9 3b
       0.0060808263 -0.0091533745 -0.02956347 0.0051702103
000180 d6 a4 e5 bb a3 d7 2b bb ab f6 2b ba eb d3 b0 bb
       -0.0070081754 -0.0026221059 -0.0006559889 -0.0053963563
000190 86 2a 81 bb d3 e3 d3 3a 97 b5 1d bb d2 76 84 ba
       -0.0039418368 0.0016165919 -0.0024064535 -0.0010106212
0001a0 20 c3 c1 3b 00 ea c0 3b ad b6 89 bb 94 b4 d3 bb
       0.0059131533 0.00588727 -0.004202685 -0.0064607356
0001b0 78 22 68 3b e2 4f 53 3e 86 15 cc 3b 63 0e 03 bd
       0.0035420936 0.20635942 0.0062281517 -0.031996142
0001c0 1e 20 43 ba f6 ba c8 3b 67 f1 11 bb e7 55 d4 39
       -0.00074434455 0.006125803 -0.002226913 0.00040499793
0001d0 95 5b 94 bb e3 ea ce b9 df 66 8e 3b 8f d4 a9 3b
       -0.004527519 -0.00039466386 0.0043457593 0.0051828097
0001e0 1e 98 fc 39 69 fe dd ba af c1 8b 3b 17 66 fe 39
       0.00048178522 -0.0016936782 0.0042650322 0.00048522718
0001f0 2e 80 9b 3b 32 76 1e be 71 70 c8 bb 8c 09 61 3b
       0.004745505 -0.15474775 -0.0061169197 0.0034337966
000200 06 cb 6c ba 8a eb a3 3b 9b 79 af 3d f5 e2 b9 bb
       -0.00090329384 0.0050024437 0.08568116 -0.0056728073
000210 f8 6c b3 3b c5 33 57 ba bf 3a 0b bb d6 c7 a4 be
       0.0054756366 -0.00082093134 -0.0021244732 -0.32183713
000220 d7 7e ea bb 48 2e 15 3b 37 83 c7 3b f1 36 c5 3b
       -0.007156234 0.0022763181 0.00608864 0.0060185124
000230 35 e5 91 3b 8d 15 9e 3c c1 73 08 bb ff e7 dc 3b
       0.0044523724 0.019297386 -0.0020820948 0.0067415233
000240 b5 a9 c1 3b c2 a8 6d bb 02 1e 05 3a 00 a4 bd bb
       0.005910123 -0.0036263918 0.0005078019 -0.0057873726
000250 77 3e 57 3b fa 51 bb bb bb 0a a7 3b ed 5e 80 bb
       0.0032843628 -0.0057165595 0.0050977147 -0.003917566
000260 1d 41 96 bb 17 70 8f ba 5c ea 7f bd e0 92 ab 3b
       -0.004585399 -0.001094344 -0.062479362 0.0052360147
000270 f5 80 c7 bb 2c d6 36 b8 aa cb 9c 3b 2f 3d 0c bb
       -0.006088371 -4.3591644e-05 0.004785021 -0.0021398773
000280 06 cf 90 bb 71 77 e9 3b f4 18 3e bb c4 27 c9 bd
       -0.0044192104 0.007124834 -0.0029006572 -0.09822038
000290 2d 4c 8b b9 ea 12 f5 3b ef a4 97 3b 56 40 b0 bb
       -0.000265689 0.0074790614 0.004627816 -0.005378763
0002a0 f2 10 61 3b 51 6e 16 bb ff 46 0e bb 7c d8 38 3b
       0.0034342376 -0.0022953937 -0.0021709797 0.0028205207
0002b0 48 98 2d 3b fb 10 90 bb d6 87 23 3b 53 8a 18 3c
       0.0026488472 -0.0043965555 0.002495279 0.009310323
0002c0 13 51 a3 3b ca 34 ba bb c5 e9 b1 bd 94 b7 2c 3b
       0.00498403 -0.0056825625 -0.08687166 0.0026354538
0002d0 20 cc c6 bb d8 70 b7 ba 25 49 40 bb 2f 54 79 3a
       -0.006066814 -0.0013995422 -0.0029340473 0.00095111405
0002e0 a9 7d 47 bb de 28 83 3a 2d 2b 2a 3b 32 71 ac bb
       -0.003043989 0.0010006686 0.0025965676 -0.0052625174
0002f0 f7 27 89 3b df 34 72 3b 2b 37 2b 3b 45 50 b3 bb
       0.0041856724 0.0036957783 0.0026125412 -0.0054722154
000300 78 40 ab 3a 39 6a 7b bd 83 7d b1 3b f1 bd 16 3e
       0.0013065478 -0.0613806 0.0054165735 0.14720894
000310 0e 22 1e 3b c4 9b 8d 3b dd d6 21 3a 2f 0b ea 3a
       0.0024129185 0.004321547 0.000617368 0.0017856116
000320 3e 84 aa bb 1d 2e 79 ba 0b df 5d 3b 08 1b 5b 3b
       -0.005203753 -0.00095054676 0.0033854868 0.003343286
000330 2d 17 5b 3b b4 48 b4 ba c0 07 e4 b9 af 23 2e 3b
       0.0033430562 -0.0013754577 -0.00043493323 0.0026571562
000340 f7 52 fa ba 74 a0 00 3e a7 ba a3 bb dd 78 89 3b
       -0.0019098212 0.12561208 -0.004996616 0.004195316
000350 0b 19 fd bb d0 b9 f1 39 85 5d e2 3c 51 99 b4 b8
       -0.0077239326 0.00046105543 0.027632484 -8.611626e-05
000360 fd a1 d6 ba bb 8e 28 bb ae 14 93 bb f7 4d 2a 3e
       -0.001637518 -0.002571984 -0.004488549 0.16631304
000370 20 2f d3 bb 59 c6 69 bb ae fa a5 3b 63 10 49 3b
       -0.0064448267 -0.0035671203 0.0050652837 0.0030679933
000380 99 d8 87 3b e5 d8 e2 3c 8e c1 dc ba 02 31 ad 3a
       0.0041456935 0.027691314 -0.0016842352 0.0013213458
000390 81 53 0e bb 32 98 db ba 95 b6 a8 3a 06 09 dd bb
       -0.0021717253 -0.0016753732 0.0012871796 -0.0067454604
0003a0 11 e8 3f ba 75 08 03 bb a4 cf db 3b df e2 1c bb
       -0.00073206524 -0.0019994054 0.0067081023 -0.0023938937
0003b0 b6 7f aa bb 2e f8 68 ba a4 31 88 bc 2a 00 c2 b9
       -0.0052032126 -0.00088870793 -0.016625233 -0.00037002686
0003c0 fa 53 86 bb 4a ae 8e ba cb cf d0 3b f3 9d 7a bb
       -0.0040993663 -0.0010885682 0.006372427 -0.0038241118
0003d0 cf 07 42 bb 4f 77 c1 3b db 6e 07 ba e9 39 2e be
       -0.0029606705 0.0059041153 -0.000516636 -0.17014278
0003e0 32 74 33 bb 0e 0f a6 3b 56 0a 57 3b 93 ea be bb
       -0.002738249 0.0050677126 0.0032812557 -0.0058263033
0003f0 75 1c d1 bb 52 5c ff 39 4d 6d 37 ba 0d c6 df bb
       -0.006381566 0.00048706174 -0.0006997183 -0.0068290294

layer3.fc3.bias f4 [10]
000000 97 e7 27 bd 18 5e 03 bf d7 3e d7 3e df e2 1c 3f
       -0.040992346 -0.5131545 0.4204013 0.6128368
000010 4c 00 95 3e f9 54 3c 3d 3b d9 14 be c0 ef 75 be
       0.2910179 0.045979474 -0.14535992 -0.24017239
000020 ae e3 cd be bb 83 d6 bd
       -0.40212768 -0.10474344
