output/models_cifar10_230.pth (torch_old, 248636 bytes, 10 tensors)

layer1.conv1.weight f4 [6, 1, 5, 5]
0	0x3bd6ca96	0.006554912
1	0xbe47b36a	-0.19502035
2	0x3d3321ab	0.04373328
3	0xbe024a3a	-0.12723628
4	0xbd854777	-0.065077715
5	0x3e93995d	0.28827944
6	0xbe5a59c8	-0.21323311
7	0x3ed7fd3f	0.421854
8	0xbdb340c2	-0.08752586
9	0x3e59fabb	0.21287052
10	0x3dc5ba78	0.09654707
11	0xbf0afbb4	-0.5429032
12	0x3ec13303	0.3773423
13	0xbeaa775c	-0.3329419
14	0xbd5f663e	-0.054540865
15	0x3ea5025c	0.32228363
16	0xbf0aa37f	-0.54155725
17	0x3f152f48	0.5827527
18	0xbe8757a5	-0.26434055
19	0x3de53ac3	0.111928485
20	0x3e5f0463	0.21779017
21	0xbf0acac9	-0.54215676
22	0x3eeb1d8b	0.45920977
23	0xbe393e24	-0.18090111
24	0xbcd7f5b7	-0.026362283
25	0x3af58f70	0.0018734764
26	0xbcedf340	-0.029046655
27	0xbd160127	-0.036622193
28	0x3da33447	0.079689555
29	0xbcd9ff9e	-0.026611146
30	0x3d31c186	0.04339745
31	0x3e112613	0.1417468
32	0xbef77e3d	-0.483385
33	0x3dc67db1	0.096919425
34	0x3e508a38	0.20365226
35	0xbd87c4c0	-0.06629324
36	0x3e955d0b	0.2917255
37	0x3ec8e040	0.3923359
38	0xbf748d0e	-0.9552773
39	0x3e8c83f5	0.27444425
40	0x3da7243a	0.081612065
41	0xbef3aa97	-0.47591087
42	0x3f2b4987	0.6690907
43	0x3e06667b	0.1312503
44	0xbeb5ed31	-0.35532525
45	0x3b9c2921	0.004765645
46	0x3d605486	0.054768108
47	0xbea959aa	-0.3307622
48	0x3eb1defe	0.34740442
49	0xbd8e4937	-0.069475584
50	0xbcdc4aae	-0.026891079
51	0xbb71cd8a	-0.0036896192
52	0xbd645f2e	-0.055754833
53	0x3e07f0d0	0.13275456
54	0x3d187b0b	0.037226718
55	0xbd401ebd	-0.046904314
56	0xbcb81e1a	-0.022475291
57	0x3e1b789f	0.15182732
58	0x3d3c49a7	0.045968678
59	0xbd6064d2	-0.05478365
60	0xbe97bcbc	-0.2963618
61	0x3c761ab1	0.015021012
62	0x3e88982e	0.26678604
63	0xbddfc0f7	-0.10925477
64	0xbd2c1f27	-0.042021897
65	0xbeaebcb2	-0.34128338
66	0x3ea0761a	0.31340104
67	0x3e488ed1	0.1958573
68	0xbd87229e	-0.065983996
69	0x3c830508	0.01599361
70	0xbee2273f	-0.44170567
71	0x3e96528e	0.2935986
72	0xbc8e072f	-0.01733741
73	0x3d38ae48	0.045088083
74	0xbdb7e540	-0.08979273
75	0xbdbb7710	-0.09153569
76	0xbe9f0640	-0.31059456
77	0xbdc5248c	-0.096261114
78	0xbd4a12b5	-0.049334247
79	0x3d809fce	0.0628048
80	0x3e8264c3	0.254675
81	0x3f3cadce	0.73702705
82	0x3ec9d3f7	0.3941953
83	0x3e480144	0.19531733
84	0xbc283f21	-0.010268957
85	0xbde56d46	-0.11202483
86	0xbecd783e	-0.401308
87	0xbe72d650	-0.23714566
88	0xbd55e6f8	-0.052222222
89	0xbd713e88	-0.058897525
90	0x3dc1daa4	0.094655305
91	0xbcb6db72	-0.022321437
92	0xbdb5563d	-0.08854339
93	0x3db44f8b	0.08804234
94	0x3e2a9421	0.16658069
95	0xbd8c96ce	-0.06864701
96	0xbc1e4e16	-0.009662172
97	0xbd17855d	-0.03699242
98	0xbdd0276b	-0.101637684
99	0xbd9d966b	-0.076947056
100	0xbda96a11	-0.08272184
101	0x3d1a36e9	0.037650023
102	0xbb150394	-0.0022737728
103	0x3db7b6cd	0.08970413
104	0xbd9d851d	-0.07691405
105	0x3b8c5816	0.0042829616
106	0x3d9c6392	0.07636179
107	0x3d4cd376	0.050006352
108	0xbdf54ce5	-0.11977557
109	0x3dee7d03	0.11644938
110	0xbe7c0982	-0.24613002
111	0xbeafa85f	-0.34308144
112	0xbdc6cde2	-0.09707238
113	0x3bc2bc5b	0.005942864
114	0xbe8c0943	-0.27350816
115	0x3e4eab6d	0.20182581
116	0x3e3684fe	0.1782417
117	0xbe21cbbe	-0.15800378
118	0xbdaece19	-0.08535404
119	0x3e2be47a	0.16786376
120	0xbd3f7da2	-0.046750672
121	0x3d1111c7	0.035417344
122	0x3e0cecdc	0.1376223
123	0x3d032a64	0.03202285
124	0xbdc4efc3	-0.096160434
125	0x3d28e705	0.041235942
126	0xbe5e7310	-0.2172358
127	0x3e943fe1	0.28954986
128	0xbc93da0e	-0.018048313
129	0xbd93936d	-0.072058536
130	0xbe05242f	-0.13002084
131	0x3eb5a7c8	0.3547957
132	0x3ea9deec	0.33177888
133	0xbf13bd12	-0.57710373
134	0x3be8e763	0.0071076616
135	0x3e047e95	0.12938912
136	0x3eb7db58	0.35909534
137	0xbf72440e	-0.94635093
138	0x3d31a16e	0.043366842
139	0x3e9371d9	0.28797796
140	0xbc307291	-0.010769502
141	0xbe905677	-0.28190967
142	0xbdd11db1	-0.10210741
143	0x3f124562	0.5713712
144	0xbe4a42b5	-0.19752009
145	0x3dcbde2e	0.09954487
146	0xbdfef1ff	-0.12448501
147	0x3e4c2fc3	0.19940095
148	0xbe0da6de	-0.13833186
149	0x3c2c5ed6	0.0105206575

layer1.conv1.bias f4 [6]
0	0xbe936cf3	-0.2879406
1	0xbe8b1023	-0.2716075
2	0xbe959586	-0.2921564
3	0xbe8a81b5	-0.27052084
4	0xbe8f69fd	-0.2801055
5	0xbe9f590c	-0.31122625

layer2.conv2.weight f4 [16, 6, 5, 5]
0	0x3d7ad189	0.061234985
1	0x3d24b960	0.04021585
2	0x3d21e128	0.039521366
3	0x3e0de8cc	0.13858336
4	0x3d726c63	0.059185397
5	0x3d20bb67	0.03924122
6	0xbda8be7f	-0.08239459
7	0x3db56122	0.08856417
8	0x3d27f9ff	0.0410099
9	0x3d95d8c5	0.07316736
10	0xbc3514a5	-0.011052285
11	0x3d2e3235	0.04252835
12	0xbd1f839b	-0.038943868
13	0x3c023ea2	0.007949503
14	0x3da312ef	0.07962596
15	0x3dcbead2	0.09956898
16	0xbe06c8fa	-0.13162604
17	0x3b9d9ebd	0.004810183
18	0x3de26a70	0.110554576
19	0xbd108893	-0.035286497
20	0xbe89bd09	-0.26902035
21	0xbea2fc3d	-0.31833068
22	0xbf2f13a0	-0.6838932
23	0xbf35d77c	-0.7103193
24	0xbebf9b25	-0.37423053
25	0x3e942c49	0.28940037
26	0x3e0cd2ab	0.13752238
27	0xbb6a958e	-0.0035794708
28	0xbcc11d8f	-0.023573665
29	0x3e10a7ac	0.14126462
30	0x3e2ea3d2	0.1705468
31	0x3e2b3b14	0.16721755
32	0x3e009941	0.12558462
33	0x3dfb5e49	0.12273843
34	0x3e2663b6	0.16248974
35	0x3ed484eb	0.41507658
36	0x3e0c4a39	0.13700189
37	0x3e1faa26	0.1559225
38	0x3dd5fd01	0.10448647
39	0x3e29bb11	0.16575266
40	0x3e9fe5d5	0.31230035
41	0x3e701a72	0.23447588
42	0x3e6864d2	0.2269471
43	0x3d96901e	0.07351707
44	0xbdc180d2	-0.09448399
45	0x3ec8c82b	0.39215216
46	0x3ca64118	0.020294711
47	0xbe257953	-0.16159563
48	0xbe1066dc	-0.14101738
49	0xbd17758e	-0.036977343
50	0x3e0c7257	0.13715492
51	0x3e2eef2c	0.17083424
52	0xbc46d9c1	-0.0121368775
53	0x3e2dc2d3	0.16968851
54	0xbd69e2d9	-0.057101104
55	0x3da2c2b7	0.07947295
56	0x3d0cce8d	0.03437667
57	0x3d756ccc	0.05991821
58	0xbdb05ba1	-0.08611227
59	0x3e55f27f	0.20893286
60	0xbde1b83b	-0.11021467
61	0xbca1e7ed	-0.019763911
62	0x3d8722c6	0.065984294
63	0x3e065347	0.13117705
64	0xbd730176	-0.059327565
65	0xbe3b464e	-0.18288538
66	0xbd93df72	-0.07220353
67	0xbda09b03	-0.07842066
68	0x3e1289ae	0.14310333
69	0x3e3b3293	0.18281011
70	0xbdfb127e	-0.122593865
71	0xbe8961c8	-0.26832414
72	0xbee29871	-0.4425693
73	0xbedb2147	-0.42798826
74	0xbe1fab0a	-0.1559259
75	0x3e9fceec	0.31212556
76	0xbe0dfa8a	-0.13865104
77	0xbd5cbdcc	-0.053891942
78	0xbd91f86f	-0.07127463
79	0x3e2c24cd	0.16810913
80	0x3e5f75c5	0.2182227
81	0x3cf30ba3	0.029668635
82	0x3e290b19	0.1650814
83	0x3d649723	0.055808198
84	0x3c5a2671	0.013314829
85	0x3d3a5f03	0.045500766
86	0x3e91a7e6	0.2844841
87	0x3e009ee4	0.12560612
88	0x3e6e100c	0.23248309
89	0x3bb19c4f	0.0054202448
90	0xbe36f84d	-0.17868157
91	0x3e4ff3e7	0.20307885
92	0x3e4177a0	0.1889329
93	0x3e774bc8	0.24150002
94	0xbd72323b	-0.059129935
95	0xbda72505	-0.08161358
96	0x3e3c493e	0.18387315
97	0x3e732680	0.23745155
98	0x3ea1ccc0	0.31601524
99	0x3e9a6627	0.3015606
100	0x3e7864e4	0.24257237
101	0xbd02a20c	-0.03189282
102	0x3d140a44	0.036142603
103	0x3e170dce	0.1475136
104	0x3e08d911	0.13364054
105	0x3ed220fc	0.4104079
106	0x3d822b6d	0.06355939
107	0x3e2d6449	0.16932787
108	0x3c09b53c	0.008405026
109	0x3e799ecc	0.24376982
110	0x3ea72128	0.32642484
111	0x3d88277c	0.06648156
112	0x3e84c9fc	0.25935352
113	0x3d7e0864	0.06201972
114	0x3eb15455	0.34634653
115	0x3e100e35	0.1406792
116	0x3e1d912a	0.15387407
117	0x3f06e631	0.52694994
118	0x3e9c4a15	0.3052527
119	0x3c986c98	0.018606469
120	0xbea0a873	-0.31378517
121	0x3f02ba33	0.5106537
122	0x3f1e8f8d	0.6193779
123	0x3e0866b5	0.1332043
124	0xbe7a34f0	-0.24434257
125	0xbd5dec58	-0.054180473
126	0xbdae4860	-0.08509898
127	0x3d06cfa8	0.03291288
128	0x3d862607	0.06550222
129	0x3d6b4073	0.05743451
130	0xbd8b4fd1	-0.06802333
131	0xbe3b76cb	-0.18307035
132	0x3c9e8171	0.019348832
133	0x3df61150	0.12015021
134	0x3e8adcfd	0.27121726
135	0x3c5f47cb	0.013627957
136	0xbdb3b7bd	-0.0877528
137	0x3c2a7403	0.010403636
138	0x3dbedaae	0.093190536
139	0x3e112837	0.14175497
140	0xbd550f5c	-0.0520166
141	0x3b422642	0.0029624854
142	0xbd9afca7	-0.07567721
143	0x3dc34b82	0.09535886
144	0x3e7bed58	0.24602258
145	0x3d76dfa7	0.060271885
146	0x3d7963c8	0.060886174
147	0xbe17652d	-0.14784689
148	0x3d1bec46	0.038067125
149	0x3e72022c	0.23633641
150	0xbdb52738	-0.08845371
151	0x3d785615	0.06062897
152	0x3d2952bc	0.041338667
153	0x3e094e33	0.13408737
154	0xbe052a72	-0.13004473
155	0x3e22a506	0.15883264
156	0xbd934cd6	-0.0719239
157	0x3de31586	0.1108809
158	0xbe32d6d4	-0.17464763
159	0xbbff09ba	-0.007783142
160	0x3e2099d1	0.15683676
161	0x3ea749ae	0.326734
162	0xbe3dda30	-0.18540263
163	0xbcc7cc76	-0.024389487
164	0x3c84690c	0.016163372
165	0xbe274de1	-0.16338302
166	0xbe984b57	-0.2974498
167	0x3d46e400	0.04855728
168	0xbd4d1280	-0.05006647
169	0xbe93d167	-0.288707
170	0xbdb29b72	-0.08721055
171	0x3e041e44	0.1290217
172	0xbe8827e1	-0.26592925
173	0xbecb531e	-0.3971185
174	0xbdef42a1	-0.1168263
175	0x3e434576	0.19069466
176	0x3e19dc7f	0.15025519
177	0x3dce83e3	0.10083749
178	0x3e8a5ec2	0.2702542
179	0x3dd5a78b	0.10432347
180	0x3dc22897	0.09480398
181	0x3d0f5ff8	0.035003632
182	0xbe90b347	-0.28261778
183	0x3e932cb4	0.28745043
184	0x3e36ea4c	0.17862815
185	0xbe941449	-0.28921726
186	0x3e62a787	0.22134219
187	0xbef5ae2e	-0.4798445
188	0x3e7616d5	0.24032147
189	0xb8ce03f1	-9.8235796e-05
190	0x3cc9454d	0.024569178
191	0xbe0b4d06	-0.13603601
192	0xbebf0f6c	-0.37316453
193	0xbf04285c	-0.51624084
194	0x3dd3a698	0.103345096
195	0x3e764f3e	0.24053666
196	0x3e974031	0.29541162
197	0x3f085af2	0.5326377
198	0xbc691fcb	-0.014228771
199	0xbee33ab7	-0.44380733
200	0xbd187926	-0.03722491
201	0x3dce6d9e	0.100795016
202	0x3e1aae6f	0.15105604
203	0xbd2e033d	-0.042483557
204	0x3da9f6db	0.08299037
205	0x3da1d756	0.079024
206	0xbea11a52	-0.31465393
207	0x3d5dbe41	0.05413652
208	0x3e442ad3	0.19156961
209	0xbeafffbc	-0.34374797
210	0x3e09a592	0.13442066
211	0x3ec2ef4a	0.38073188
212	0xbe3f9390	-0.18708634
213	0x3f29dde7	0.6635422
214	0x3d717e01	0.058958057
215	0xbb715461	-0.0036823975
216	0x3e3287f9	0.17434682
217	0x3e42144e	0.18953058
218	0x3e8225c4	0.25419438
219	0x3e7f1b85	0.24912842
220	0x3e09b5d3	0.13448267
221	0xbe06cad7	-0.13163315
222	0x3d9b669e	0.07587932
223	0x3c051719	0.008123183
224	0x3e96569b	0.2936295
225	0x3d6bf465	0.05760612
226	0x3dd12a00	0.10213089
227	0xbe112fc2	-0.14178374
228	0xbd946649	-0.07246072
229	0x3e06e9b3	0.13175087
230	0xbc743c9d	-0.014907029
231	0x3dd67297	0.10471075
232	0xbe731ef9	-0.23742284
233	0xbe8b98fe	-0.2726516
234	0x3e13ace8	0.14421427
235	0xbe6f9151	-0.23395278
236	0xbdc7e819	-0.09761066
237	0xbe15436c	-0.145765
238	0xbe9e38a4	-0.30902588
239	0xbddb2b49	-0.10701615
240	0x3dc8d45b	0.098061286
241	0xbe7b82b8	-0.24561584
242	0xbe0c7ec9	-0.1372024
243	0xbe600621	-0.21877338
244	0xbe81d277	-0.25355884
245	0x3e31c59d	0.1736054
246	0xbe0d5e57	-0.13805519
247	0xbd999bba	-0.075004056
248	0x3e543f27	0.20727216
249	0xbe8f9d2b	-0.28049597
250	0x3e193494	0.14961463
251	0x3e244115	0.16040452
252	0xbec5f127	-0.38660547
253	0xbde757f3	-0.11296072
254	0x3e13f5b8	0.14449203
255	0xbe748a66	-0.2388092

layer2.conv2.bias f4 [16]
0	0xbf11de62	-0.56979954
1	0xbf3e3e73	-0.7431404
2	0xbf1c79bb	-0.61123246
3	0xbefb3efb	-0.49071488
4	0xbf2bd767	-0.6712555
5	0xbef797d4	-0.48358023
6	0xbf02acdc	-0.5104501
7	0xbeac5849	-0.33661106
8	0xbf31090e	-0.6915444
9	0xbf18c8ad	-0.59681207
10	0xbee9029d	-0.45509806
11	0xbebe658e	-0.37186855
12	0xbea19788	-0.31560922
13	0xbf17ba81	-0.5926896
14	0xbf118266	-0.568396
15	0xbec98341	-0.3935795

layer3.fc1.weight f4 [120, 400]
0	0xbbe8e10e	-0.0071069067
1	0x3c4997c1	0.012304247
2	0x3b087cd1	0.002082635
3	0xbc61b54d	-0.013776136
4	0xbc7e3fad	-0.015518111
5	0x3bf7dfec	0.0075645354
6	0x3ba15131	0.004923009
7	0xbbc7e8db	-0.0061007566
8	0x3b38cd57	0.0028198564
9	0xbc6d4211	-0.0144810835
10	0x3c5c8cb4	0.013461281
11	0x3c96923e	0.01838028
12	0x3b9b6479	0.004742202
13	0xbc1f4c81	-0.00972283
14	0xbadfea89	-0.0017083447
15	0xbc68583e	-0.014181195
16	0xbb86505c	-0.004098935
17	0xbc5a4ec2	-0.013324441
18	0x3ad42fda	0.0016188577
19	0x3c59043c	0.013245638
20	0xbb967274	-0.0045912806
21	0x3c33c778	0.01097285
22	0x3ae3ac65	0.0017370103
23	0x3c5707df	0.013124435
24	0xbb7c03f6	-0.003845451
25	0xbbe509e3	-0.006989704
26	0x3c3394d6	0.010960778
27	0xbb245f4b	-0.0025081213
28	0xbc3d12ef	-0.011540159
29	0x3c567259	0.013088786
30	0xbbca1ab4	-0.006167734
31	0x3a9b9a4d	0.0011871547
32	0xbd022e54	-0.031782463
33	0x3cddcfb4	0.02707658
34	0xbb3b7956	-0.0028606257
35	0xbc47f07a	-0.01220333
36	0x3cd53495	0.02602605
37	0xbbc107db	-0.005890829
38	0x3b89c0e2	0.0042039016
39	0xba28a8af	-0.0006433827
40	0xbaecd67c	-0.0018069292
41	0xbc27caec	-0.010241251
42	0x3c8f1f17	0.01747088
43	0x3a8f0126	0.0010910376
44	0x3be67b01	0.007033706
45	0x3d05a39a	0.032626726
46	0x3bc8e99d	0.0061313645
47	0x3c7f8a21	0.015596897
48	0x3ced2ce5	0.028952071
49	0xbbe4ff57	-0.0069884467
50	0xbc789aad	-0.015173596
51	0x3bd315d0	0.0064418092
52	0x3c18637a	0.009301061
53	0xbc09f0ec	-0.008419257
54	0xba95ffc4	-0.0011444022
55	0xbcad032d	-0.021119678
56	0xbcadd061	-0.021217527
57	0x3c4043c1	0.011734904
58	0xbb176c7c	-0.0023105433
59	0xbd375f55	-0.04476865
60	0xbc46e6fa	-0.01214003
61	0x3b173be8	0.0023076478
62	0x3c945416	0.018106502
63	0xbbd452f9	-0.0064796177
64	0xbc31c370	-0.010849819
65	0xbd065842	-0.032799013
66	0xbcd6328b	-0.026147148
67	0x3cb7f9af	0.022457926
68	0x3c3e414f	0.0116122505
69	0x3ca6c45e	0.020357307
70	0xbba3c7c4	-0.004998179
71	0xbc27080c	-0.01019479
72	0x3bdd1286	0.006746593
73	0x3b7b8ec2	0.003838465
74	0xbc12370a	-0.008924255
75	0xbc1e55f3	-0.009664047
76	0x3b874c60	0.0041289777
77	0x3ca78b08	0.020452037
78	0x3c781d12	0.01514365
79	0xbc418d5c	-0.011813488
80	0x3c5aced0	0.013354972
81	0xba14156c	-0.0005648944
82	0x3bd843b6	0.0065998686
83	0xbc55b5f7	-0.013043872
84	0x3c146aa6	0.00905863
85	0x3c6b0846	0.014345234
86	0xbc83e001	-0.016098024
87	0xbc29b161	-0.010357232
88	0x3aa1c930	0.0012343284
89	0x3c8b4f1f	0.017005501
90	0x3c942aeb	0.018086871
91	0x3c003ff1	0.007827745
92	0x3b9c7466	0.004774618
93	0x3bf46bea	0.0074591534
94	0xb93e2a28	-0.00018135516
95	0xbc2932a1	-0.010327012
96	0x3c709d5d	0.014685956
97	0x3aee769f	0.0018193311
98	0x3b3147d8	0.002705088
99	0xbc27cf7c	-0.010242339
100	0xbcb8be0c	-0.022551559
101	0x3b0bf564	0.002135598
102	0xbc033ab8	-0.008009605
103	0xbc2ff682	-0.010739924
104	0x3bc6d428	0.0060677715
105	0xbc044072	-0.008072006
106	0x3cab7603	0.020930296
107	0xbb1ddfe8	-0.0024089757
108	0x3c5b9bb0	0.013403818
109	0x3c9e452c	0.019320093
110	0x3c05ec20	0.008173972
111	0x3ca7fd6d	0.020506585
112	0xbbb3012f	-0.0054627876
113	0xbb318f83	-0.0027093596
114	0xba1e6131	-0.00060417043
115	0xbc2f572f	-0.0107019385
116	0x3c8c0cd8	0.017095968
117	0xbc820a20	-0.015873969
118	0xbcc1cf31	-0.023658367
119	0xbc9cc175	-0.019135216
120	0xbc39a3ea	-0.011330584
121	0xbc276e88	-0.010219224
122	0xbc27628f	-0.010216369
123	0xbbc389bf	-0.0059673483
124	0x3d1ce4da	0.038304187
125	0x3ca4a646	0.020098817
126	0x3c5c4973	0.013445246
127	0xbcb713f5	-0.022348383
128	0xbb02c79c	-0.0019955402
129	0xbb9dcda0	-0.004815772
130	0x39a43859	0.000313225
131	0x3c0ba216	0.008522531
132	0xbc0f6443	-0.008751932
133	0x3c613498	0.0137454495
134	0x3a4076d4	0.00073419255
135	0xbc393a8c	-0.011305463
136	0x3c82581c	0.015911154
137	0x3bf37e70	0.007430844
138	0xba440de4	-0.00074788765
139	0x3b5f67da	0.0034089
140	0xbbb784fb	-0.0056005693
141	0x3ab25a57	0.0013607246
142	0xbc0420aa	-0.008064428
143	0xbb5eb451	-0.0033981989
144	0x39d728b2	0.00041038316
145	0x3cb485e3	0.022036498
146	0x3bebc7e2	0.0071954587
147	0x3c6d9eed	0.014503223
148	0x393f47b3	0.0001824189
149	0x3b9ec36a	0.0048450725
150	0xbbba0e66	-0.005677986
151	0xbc010ca3	-0.007876548
152	0xbc0073e5	-0.007840131
153	0x3ca0bb65	0.019620607
154	0x3c125724	0.008931909
155	0xbc8d837b	-0.017274609
156	0x3bd23030	0.006414436
157	0x3c59e6cd	0.013299656
158	0xbbfbefec	-0.007688513
159	0x3b3342a0	0.0027352944
160	0x3c5c4c95	0.013445993
161	0x3c08fe6c	0.00836144
162	0x3b80e241	0.0039332216
163	0x3af225a2	0.001847435
164	0xbc3dc200	-0.011581898
165	0x3a8aaf43	0.0010580797
166	0xbc94775a	-0.018123318
167	0xbbd8053b	-0.0065924204
168	0x3c0cbb57	0.008589587
169	0xbc35f0ce	-0.011104776
170	0x3b0cbab4	0.0021473588
171	0x3af05c7d	0.001833811
172	0x3c952b5b	0.01820915
173	0xbbac4670	-0.0052574202
174	0xbbadbbf4	-0.005301947
175	0xbc7990bf	-0.015232264
176	0xbacd058b	-0.0015641911
177	0xbc245f45	-0.01003248
178	0xbb80b01f	-0.0039272453
179	0xbce2786c	-0.027645312
180	0x3c940b7a	0.018071879
181	0x3bec61a1	0.0072137867
182	0x3c2985bb	0.010346825
183	0x3c3ad1d0	0.011402562
184	0x3b43295f	0.0029779298
185	0x3c38e421	0.011284859
186	0x3c59508d	0.013263834
187	0xbb8784ff	-0.0041357274
188	0x3b4a514e	0.0030871215
189	0xbc6a58d4	-0.014303405
190	0xbd0fb2de	-0.03508269
191	0xbcb1a3a5	-0.021684477
192	0x3c417652	0.011807995
193	0x3cb8136e	0.022470202
194	0x3cd7669a	0.026294041
195	0x3c0af037	0.008480123
196	0x3c283051	0.010265426
197	0x3c687310	0.014187589
198	0x3cc15480	0.023599863
199	0x3bc37455	0.0059647956
200	0xbcc3afe0	-0.023887575
201	0xbc50da7f	-0.012747406
202	0xbb83cb64	-0.004022049
203	0x3c69390d	0.014234793
204	0x3c8dbfd7	0.01730339
205	0xb854c1d9	-5.0725273e-05
206	0xbc648837	-0.013948492
207	0xbb96cff1	-0.0046024253
208	0x3ba14f42	0.0049227783
209	0xbc7ae500	-0.015313387
210	0x3ba11975	0.004916365
211	0x3be7d8aa	0.007075389
212	0xbbb7a934	-0.0056048874
213	0xbb08ca51	-0.0020872543
214	0x3c15b980	0.009138465
215	0x3b93ac77	0.0045066434
216	0xbc39f1fa	-0.011349196
217	0xb9a35c5b	-0.00031158593
218	0xbc902a5b	-0.017598322
219	0xbd097f55	-0.0335687
220	0x3bc66322	0.006054298
221	0x3ccc9b89	0.024976509
222	0x3cab5f58	0.020919487
223	0x3c8f535b	0.017495802
224	0xbca192a6	-0.019723248
225	0x3baf5029	0.005350132
226	0x3c982b5b	0.018575361
227	0x3a7778dc	0.00094403117
228	0x3b9dba64	0.0048134793
229	0x3cb5a666	0.022174072
230	0x3c55c865	0.013048266
231	0xbbe8b8ac	-0.0071020927
232	0x3a2abcde	0.0006513129
233	0x3b8022d2	0.003910401
234	0xbb52cb94	-0.00321648
235	0xbb555c84	-0.0032556364
236	0xbccca098	-0.02497892
237	0x3b8c0f0d	0.004274255
238	0xbbbcb2b9	-0.00575861
239	0x3bba4b3b	0.0056852377
240	0xbb151715	-0.0022749354
241	0xbc6ee928	-0.014581956
242	0x3bd48468	0.0064855106
243	0xbce1a623	-0.02754504
244	0xbd12329e	-0.035692804
245	0x3c0e8202	0.008697988
246	0x3b9ea853	0.004841843
247	0x3c9dcbe7	0.019262267
248	0xbbbe3f90	-0.005805917
249	0x3c29228b	0.010323177
250	0xbc6d9153	-0.01449998
251	0xbb17bd70	-0.0023153685
252	0x3bb02918	0.0053759925
253	0xbcb0a66c	-0.021563731
254	0xbcc57269	-0.024102407
255	0x3c5b4628	0.013383426

layer3.fc1.bias f4 [120]
0	0x3cb6237e	0.02223372
1	0xbbf81137	-0.0075704115
2	0x3b534e39	0.003224267
3	0x3af531df	0.0018706879
4	0xbac1b335	-0.0014778139
5	0x3c12ab45	0.008951967
6	0xbae64db4	-0.0017570765
7	0xbb2ceb8e	-0.0026385519
8	0x3c9340d8	0.017975256
9	0x3c7032d1	0.014660553
10	0x3a7c1275	0.00096157874
11	0xbc879f3c	-0.016555421
12	0xbc37c2b4	-0.011215854
13	0x3c55f748	0.013059445
14	0x3b2edc58	0.0026681628
15	0xbb4d4765	-0.0031323072
16	0xbc3dc82d	-0.01158337
17	0x3ca8837b	0.020570507
18	0x3c266cd3	0.010157782
19	0x3c302a8a	0.01075233
20	0xbcce116b	-0.02515479
21	0x3c225f32	0.009910392
22	0xb8b77d8a	-8.7495035e-05
23	0xbb83dd34	-0.004024172
24	0x3b91eb7a	0.00445312
25	0x3a7bcdae	0.0009605539
26	0x3af66782	0.0018799158
27	0xba35b8fc	-0.0006932167
28	0x3c558984	0.013033275
29	0xbb9eaacf	-0.0048421393
30	0xbbed91c5	-0.007250043
31	0xba249d82	-0.0006279574
32	0x3e629389	0.22126593
33	0xbbee78c5	-0.0072775804
34	0xba45f3a7	-0.00075512606
35	0xbc9bba76	-0.01900981
36	0xbd4e897b	-0.05042408
37	0xbe44d431	-0.1922157
38	0xbb21234d	-0.0024587691
39	0xbc23802d	-0.00997929
40	0xbcb3f747	-0.021968497
41	0xbc5d0e19	-0.013492131
42	0xbc930350	-0.017945915
43	0x3ded3deb	0.115840755
44	0xbc4eca36	-0.012621453
45	0x3c32ea69	0.010920146
46	0xbbf24e1a	-0.0073945643
47	0xbc2a83f3	-0.010407436
48	0x3c9c35d6	0.01906864
49	0xbb4ecbf2	-0.0031554666
50	0x3c901ed3	0.017592823
51	0x3b8e8364	0.004349159
52	0xbb412e1d	-0.0029476949
53	0x3c4c983a	0.0124874655
54	0x3c2eeb2b	0.010676186
55	0xbba10c07	-0.004914764
56	0xbb987d19	-0.0046535847
57	0x3c1dbeab	0.009627978
58	0x3bb3aa49	0.005482946
59	0xbc1b6c2f	-0.009486242
60	0x3c2a6df0	0.010402188
61	0xbb61ef54	-0.0034474926
62	0xbc8f2abe	-0.017476436
63	0x3e041474	0.12898427
64	0xbdc9e608	-0.09858328
65	0xbc42b51e	-0.011884002
66	0xbb8cad9b	-0.0042931563
67	0x3bc2a0d1	0.005939581
68	0x3ae953cc	0.0017801463
69	0x39abbb0d	0.00032755025
70	0xbb37e457	-0.0028059685
71	0xbc5c3e7a	-0.01344263
72	0xbc1cca46	-0.00956971
73	0x3c6c9874	0.0144406445
74	0x3cbb39fe	0.022854801
75	0xbb5fd9b3	-0.0034156858
76	0x3c1f3f95	0.009719749
77	0x3bb68d2a	0.0055710273
78	0xbc7225c0	-0.014779508
79	0xbc648dec	-0.013949852
80	0x3aa87a0f	0.0012853759
81	0xbcd998e5	-0.026562164
82	0xbb63f5da	-0.003478399
83	0x3c28db0a	0.010306129
84	0xbbedbc78	-0.0072551332
85	0x3b9fceee	0.004876963
86	0xbbbe965f	-0.0058162655
87	0x3a483d13	0.00076384953
88	0xbc412954	-0.011789639
89	0xbc00816a	-0.007843355
90	0xbc9734df	-0.018457828
91	0x3bdf2385	0.006809654
92	0xbc165ff9	-0.009178155
93	0xba0766b3	-0.00051651447
94	0x3c21e297	0.009880683
95	0xbcad5924	-0.02116067
96	0xbb0bfc3f	-0.0021360067
97	0x3c16688e	0.009180201
98	0x3de7682b	0.11299165
99	0x3a74f0b6	0.000934373
100	0x3b18eaec	0.0023333384
101	0x3cab5e28	0.02091892
102	0xba4d116b	-0.0007822725
103	0xbbd3d0ad	-0.006464085
104	0xbca018a3	-0.019542998
105	0xbba8645e	-0.005138918
106	0xbc9eec95	-0.01939992
107	0xbc8ef36d	-0.017450059
108	0xbc18650c	-0.009301435
109	0x3c880992	0.016606126
110	0xbcb483a1	-0.022035422
111	0xbba36cbe	-0.0049873283
112	0x3ec56a35	0.38557592
113	0x39c76dab	0.00038037947
114	0xbc0a6b62	-0.008448454
115	0xbb90c2fe	-0.004417776
116	0x3b0073c9	0.0019600263
117	0xbca430fb	-0.020042887
118	0xbbed1f67	-0.0072364095
119	0x3e81ade6	0.25327986

layer3.fc2.weight f4 [84, 120]
0	0x3ba67f8a	0.005081122
1	0xbc06fc53	-0.00823887
2	0x3c4dfa85	0.012571936
3	0xbbf174a3	-0.0073686405
4	0xbb7e3cd5	-0.0038793583
5	0xba9e0ea6	-0.0012058809
6	0x3bb2e059	0.005458873
7	0xbb2420a4	-0.002504387
8	0x3c8d36e1	0.017238082
9	0xbc207dc9	-0.0097956145
10	0x3c5b9815	0.013402958
11	0xbbe8919a	-0.007097435
12	0x3ca37361	0.019952478
13	0x3bf50e27	0.0074784937
14	0xbb94e96f	-0.004544429
15	0x3b5f35fb	0.0034059274
16	0xbc383301	-0.011242629
17	0x3b8e02f9	0.0043338505
18	0xbb6bbc22	-0.003597029
19	0x3c152545	0.009103124
20	0xbbe27996	-0.006911467
21	0xbb878c00	-0.0041365623
22	0x39db1be4	0.00041791715
23	0xbc4bf065	-0.012447451
24	0xbb8a10bd	-0.004213421
25	0x3ca7bce2	0.020475809
26	0xba58c211	-0.0008268664
27	0x3b99f741	0.0046986644
28	0x3bc4a313	0.0060008853
29	0x3b9bba83	0.0047524585
30	0x3b9c311e	0.0047665974
31	0xbb71fba6	-0.0036923676
32	0x3c1892ff	0.00931239
33	0xbc0cba84	-0.008589391
34	0x3ca989b0	0.020695537
35	0x39f51de1	0.00046752303
36	0x3986a1db	0.00025679063
37	0x3c1e8ce5	0.009677147
38	0xbba5ac3a	-0.0050559314
39	0x3b8bcc23	0.0042662784
40	0xbb9a4fd1	-0.004709222
41	0x3b285869	0.0025687462
42	0xbb9b5b1b	-0.004741085
43	0x3c53a6f4	0.012918223
44	0x380e6e56	3.3958197e-05
45	0xba9d7aa0	-0.0012014695
46	0x3bf2213a	0.007389215
47	0xbbcd21a9	-0.006260116
48	0xbc431bbb	-0.011908467
49	0x3bd72922	0.0065661827
50	0x3babb3fe	0.0052399626
51	0x3caf9d7c	0.0214374
52	0x3be714af	0.007052026
53	0x3c2a47de	0.010393111
54	0xbc537b28	-0.012907781
55	0xbc23ebf9	-0.010004991
56	0x398ec4c4	0.00027230952
57	0xbc3f213b	-0.011665638
58	0x3c32c5d9	0.010911428
59	0x3b539f7b	0.0032291103
60	0xbbbb567b	-0.0057170964
61	0x3c5f5d2b	0.013633053
62	0x3c69e054	0.014274675
63	0xbbb6040b	-0.005554681
64	0xbd0e05ee	-0.034673624
65	0xbc5622a1	-0.01306978
66	0xbbcef7d3	-0.006316164
67	0x3bae89ca	0.0053264843
68	0xbc8859ff	-0.016644476
69	0x3bee42a4	0.007271128
70	0x3c6dc040	0.014511168
71	0x3bea590e	0.0071517294
72	0xbbd0ad20	-0.0063682944
73	0x3c09fae1	0.008421631
74	0xbbe4f534	-0.0069872383
75	0x3b95dfd3	0.004573801
76	0x39e087c7	0.0004282577
77	0xbc12a071	-0.008949385
78	0xbc8ba90a	-0.017048378
79	0xbc94d0ed	-0.01816603
80	0x3b528f7a	0.0032128976
81	0xbab2ce8c	-0.0013641878
82	0xbc0c0f78	-0.00854861
83	0xba2e5e3f	-0.0006651617
84	0x3baacef0	0.005212657
85	0x3c68a4a1	0.014199407
86	0xbb71b7e4	-0.003688329
87	0x3bc71571	0.006075554
88	0xbbbdbb58	-0.0057901554
89	0x3c1a50e4	0.0094187
90	0xba3969f0	-0.0007072976
91	0xbc9726cb	-0.018451115
92	0x3c2c11db	0.010502304
93	0xbc486bfb	-0.012232776
94	0xbc776b88	-0.015101321
95	0xbc8c3452	-0.017114792
96	0x3ba88297	0.0051425206
97	0x3bd70f40	0.0065630972
98	0x3a4656e0	0.0007566046
99	0x3bffadd5	0.007802705
100	0xbc1a7957	-0.009428344
101	0x3c0ece88	0.008716233
102	0xbbbba7e0	-0.0057267994
103	0xbaabc0c6	-0.0013103716
104	0xbc75a242	-0.014992299
105	0xbc23de34	-0.010001708
106	0xbc00ebbb	-0.0078687025
107	0x3c38cfeb	0.01128004
108	0x3b963169	0.004583527
109	0xbc405a61	-0.011740298
110	0xbbbec6f4	-0.005822057
111	0xbc79d58d	-0.015248668
112	0x3982ce76	0.00024949358
113	0x3c2b0459	0.010438048
114	0x3b9c6061	0.0047722314
115	0xbc97327b	-0.018456688
116	0x3b46bc6f	0.0030324718
117	0x3ba4e6a4	0.0050323773
118	0xbc2e9a6d	-0.010656935
119	0x3c77a588	0.015115149
120	0xba803034	-0.0009779991
121	0x3c793342	0.015209975
122	0xbca54604	-0.020174988
123	0x3bc768d5	0.006085495
124	0x3be5f022	0.0070171515
125	0xb9b10220	-0.00033761654
126	0x3b20fd2c	0.0024564965
127	0x3b34d03b	0.0027589935
128	0xbcb93e9e	-0.022612866
129	0x3b8765d4	0.004132012
130	0x3b2bb24b	0.00261988
131	0x38341bbc	4.2941174e-05
132	0xba23feb1	-0.00062559085
133	0xbc3eb94c	-0.011640858
134	0x3b7d417e	0.0038643773
135	0xbc056219	-0.008141064
136	0x3cc8c3b9	0.02450739
137	0xbcb32d19	-0.02187209
138	0xbc20a936	-0.009805968
139	0xbb3dc8a1	-0.0028958695
140	0x3ba91327	0.005159754
141	0xbbcc7955	-0.00624005
142	0xbc8eea67	-0.017445756
143	0xb8439456	-4.662977e-05
144	0xb9841165	-0.00025189962
145	0xbbd919ff	-0.0066254134
146	0xbafb0230	-0.0019150432
147	0xbc13c5b5	-0.009019305
148	0xba57146c	-0.0008204642
149	0xbb826eaa	-0.0039804773
150	0xbbf740f7	-0.007545586
151	0xbbf61c20	-0.007510677
152	0x3b8991cf	0.00419829
153	0x3abaf51d	0.0014263723
154	0x3bb28a07	0.005448583
155	0x3c0aa56a	0.008462289
156	0x3b5f19d2	0.003404249
157	0x3b65636f	0.0035001894
158	0x3b99ae55	0.0046899715
159	0x3b9976c8	0.0046833493
160	0xbc0b2808	-0.008493431
161	0x3b908c15	0.0044112303
162	0x3c5afdf2	0.013366209
163	0xbc536484	-0.012902383
164	0x3c6a5f94	0.014305014
165	0xbbb6fdf1	-0.0055844714
166	0xbb9ee279	-0.004848775
167	0x3c29bdb9	0.010360175
168	0xbc0d4ed9	-0.008624756
169	0xbc3adb68	-0.01140485
170	0xbc4b2924	-0.012399945
171	0xbc806e2c	-0.015677534
172	0x3c344b17	0.011004231
173	0xbc63725d	-0.013882247
174	0x3b33ca59	0.002743384
175	0x3bf2cd4d	0.0074097277
176	0x3bed15ec	0.0072352793
177	0xbc3db703	-0.011579278
178	0xbc508f34	-0.012729455
179	0x3bfcb504	0.0077120084
180	0xbc070bde	-0.008242575
181	0x3b30dcd6	0.0026987097
182	0x3c0f291a	0.008737827
183	0x38c809a1	9.538537e-05
184	0xbbbb700c	-0.005720144
185	0x3c4533da	0.012036288
186	0x3c1b0cae	0.009463472
187	0x3c509b4d	0.012732339
188	0x3c98ef43	0.018668776
189	0xbc8253f5	-0.015909174
190	0xba874669	-0.0010320666
191	0x3c3bd116	0.011463424
192	0x3c94bc1f	0.01815611
193	0xbb9b7503	-0.0047441735
194	0xbc9003fb	-0.017580023
195	0xbc786bb7	-0.0151624
196	0x3bbf3494	0.005835125
197	0xbc99fc94	-0.018797196
198	0x3c9b52fc	0.018960468
199	0x3cadc781	0.021213295
200	0xbc13b352	-0.009014921
201	0x3c463b52	0.012099104
202	0x3bd39933	0.0064574718
203	0x3c19ec3b	0.009394701
204	0xbb8b64ed	-0.0042539747
205	0x3b171447	0.0023052858
206	0xbc0e77a6	-0.008695519
207	0xbb904532	-0.00440278
208	0xbc2bb755	-0.0104807215
209	0xbb125a3a	-0.0022331611
210	0x3c79c552	0.015244799
211	0x3c872762	0.016498271
212	0xb8691d09	-5.557857e-05
213	0x3b9c34bd	0.004767029
214	0xbaf3025b	-0.0018540131
215	0xbb00fe78	-0.0019682925
216	0x3a4a4956	0.00077166164
217	0xbc2b7e0a	-0.010467062
218	0xbb4c6fb6	-0.0031194515
219	0xbb3d8ac4	-0.0028921822
220	0x3c256f0d	0.010097277
221	0xbc8bf7f3	-0.017086005
222	0x3bf6b638	0.0075290464
223	0xbbe98c0a	-0.0071272897
224	0x3cc8cc76	0.024511557
225	0x3c500e01	0.012698651
226	0xb8c09360	-9.182724e-05
227	0xbb6692a5	-0.0035182622
228	0x3bbe046e	0.005798868
229	0xbc5df363	-0.013546797
230	0x3c80191b	0.015636971
231	0x3bea65c6	0.0071532456
232	0x3ab7edc5	0.0014032653
233	0xbc6977ac	-0.014249723
234	0xbc442270	-0.011971101
235	0x3c25f16a	0.010128358
236	0x3a8fb63d	0.0010964345
237	0x3bbd6c45	0.005780729
238	0x3b9280c5	0.004470917
239	0xbb99f3ed	-0.0046982677
240	0xba985d56	-0.0011624496
241	0xbbbd2946	-0.0057727424
242	0x3b7654df	0.0037587208
243	0x3af80387	0.001892195
244	0x3bf249bb	0.0073940433
245	0x3b2dd922	0.0026527126
246	0xba0f36ec	-0.0005463201
247	0xbb5ae55a	-0.0033400864
248	0x3bdfbb7d	0.0068277703
249	0xbb9ef165	-0.004850554
250	0x3bc9e074	0.00616079
251	0x3a2b074d	0.000652422
252	0xbcab8622	-0.020937983
253	0x39cc7dd9	0.00039003676
254	0xba29c792	-0.00064765767
255	0xbb987323	-0.0046523972

layer3.fc2.bias f4 [84]
0	0x39a4cf5d	0.00031435015
1	0xbb15ade2	-0.0022839238
2	0x3b147ee3	0.0022658638
3	0xbc030c03	-0.007998469
4	0xbd878df6	-0.06618874
5	0xbba93018	-0.005163204
6	0xbc9a1b9a	-0.01881199
7	0x3ac337a2	0.0014893899
8	0xbb92beb4	-0.0044783
9	0x3c30af9f	0.010784059
10	0x3e888bd1	0.2666917
11	0xbb9af1f0	-0.004728548
12	0xbb11894f	-0.0022207086
13	0x3c4ec005	0.012619023
14	0x3c8186f7	0.015811427
15	0xbc83fb0c	-0.01611092
16	0x3a9e18a1	0.0012061783
17	0x3a9d1927	0.0011985645
18	0x3c01a085	0.007911806
19	0x3b1595ce	0.0022824886
20	0x3b99e07a	0.004695949
21	0xbc15ec2d	-0.009150547
22	0xbb8ec80b	-0.004357343
23	0xba7f6e63	-0.0009743927
24	0x3b5c439a	0.003360963
25	0xbd0dacf1	-0.034588758
26	0x3b4660a6	0.003027001
27	0x3d669444	0.05629374
28	0xbad95f7d	-0.0016584244
29	0xbb29f8ae	-0.0025935578
30	0x3bfbb20e	0.007681138
31	0x3cb0675d	0.021533662
32	0xbc0298c2	-0.007970991
33	0x38777af2	5.900389e-05
34	0xbbbda2cf	-0.0057872306
35	0xbc1b5fad	-0.00948326
36	0xbbd919ce	-0.0066253906
37	0xbc91853b	-0.017763725
38	0x3b2dacfa	0.0026500807
39	0x3a5f3ce6	0.00085158495
40	0xbc7d02e3	-0.015442583
41	0x3e947008	0.28991723
42	0xbbb3e106	-0.0054894714
43	0xbafce070	-0.0019292962
44	0xbb820b10	-0.003968604
45	0x3a00b753	0.000491013
46	0xbce925ac	-0.028460346
47	0xbba454c5	-0.005014988
48	0xbc0d0d17	-0.008609078
49	0xbc8cb406	-0.017175686
50	0x3b1cf5f2	0.0023950306
51	0x3e561c6a	0.20909277
52	0x3a781bee	0.0009464611
53	0xbcec843a	-0.028871644
54	0x3c71864a	0.01474149
55	0xbba8d86e	-0.0051527536
56	0x39fbcfb9	0.00048029216
57	0xbc9a8328	-0.018861368
58	0x3cb3d47b	0.021951905
59	0xbb828d93	-0.003984162
60	0xbbaa2b15	-0.005193124
61	0x3c0f64eb	0.008752088
62	0x3c4eb34a	0.012615988
63	0xbc8fb6ae	-0.017543163
64	0xbc815af0	-0.015790433
65	0xbc372a7c	-0.011179563
66	0x3b7db3f5	0.0038712
67	0x3bd46789	0.006482069
68	0x3c21b178	0.009868972
69	0xbb19d95b	-0.0023475501
70	0x3e045264	0.12922055
71	0xbc5b97db	-0.013402904
72	0xbbb677df	-0.005568489
73	0x39e00422	0.0004272769
74	0xbaf90a39	-0.0019000239
75	0xb9ed66ec	-0.00045280845
76	0x3b4335c2	0.002978668
77	0xbcee5711	-0.02909425
78	0xbb1e79d9	-0.0024181514
79	0xbe10290e	-0.14078161
80	0x3b6c3dbf	0.0036047546
81	0xbbfa269f	-0.0076339985
82	0x3c43e3aa	0.011956135
83	0x3ba0884e	0.0048990613

layer3.fc3.weight f4 [10, 84]
0	0x3c0e3f5d	0.008682099
1	0x3b00f723	0.0019678555
2	0xbb05b036	-0.002039922
3	0xbb153eb8	-0.002277298
4	0x3d26ceaa	0.040724434
5	0xba354e59	-0.0006916277
6	0xbb83527b	-0.004007635
7	0xba587db8	-0.00082584796
8	0xbaaf38a2	-0.0013368318
9	0xba8a6be2	-0.0010560716
10	0xbe5274b7	-0.20552336
11	0xba03f3bb	-0.0005033572
12	0x3b11f179	0.0022269173
13	0x3ba34a42	0.0049832175
14	0x3b2d6691	0.002645884
15	0xba82e255	-0.0009985665
16	0xbba3e44f	-0.0050015817
17	0xbbbecbde	-0.0058226427
18	0xbadf8875	-0.0017054217
19	0xba5c31b8	-0.00083997427
20	0x3bd6383f	0.006537467
21	0xbb888cbd	-0.004167168
22	0xbb636e0b	-0.0034703042
23	0x3b21ca76	0.0024687327
24	0x3a8f9d96	0.0010956998
25	0x3c02e623	0.007989439
26	0x3ad3c32d	0.0016156189
27	0x3dcef3fe	0.101051316
28	0xbb458a4f	-0.0030142253
29	0xbbc45937	-0.0059920806
30	0x3b1e0f0d	0.0024117858
31	0x3c1a56fb	0.009420152
32	0x3b8f12b1	0.004366242
33	0x3b2723f9	0.002550362
34	0x3bc05569	0.0058695567
35	0x3c02e2e4	0.007988665
36	0x3bee36a4	0.0072696973
37	0xbb857d1e	-0.004073753
38	0x3a7e87a1	0.00097095413
39	0xbaf2ea3c	-0.0018532942
40	0x3b966b7e	0.004590451
41	0x3c45b9ca	0.012068221
42	0x3bccc1dd	0.0062486962
43	0x3b80db40	0.0039323866
44	0x3aa49411	0.0012556334
45	0x3baf662b	0.0053527555
46	0xbaca8ed1	-0.001545394
47	0x3a576559	0.0008216701
48	0xbbfd9322	-0.007738487
49	0xbbe6ee82	-0.0070474753
50	0x3b1366dd	0.0022491731
51	0x3d0256bd	0.031821
52	0x3bf0a8c7	0.0073443386
53	0xbc010e5d	-0.00787696
54	0x3be2dc4b	0.0069232336
55	0x3abd5ba2	0.0014446864
56	0xbb338fba	-0.00273989
57	0xbe81c417	-0.25344917
58	0x3b9249ae	0.0044643497
59	0xbb90e0e9	-0.0044213426
60	0x3a113d72	0.0005540467
61	0x3ba02fac	0.0048884954
62	0x3b88beec	0.0041731503
63	0xbb1f7f4b	-0.0024337347
64	0xbbaced0f	-0.005277283
65	0xbb39bec1	-0.0028342458
66	0xb92ec2f6	-0.00016666562
67	0x3b780d30	0.0037849657
68	0xbba46f8c	-0.0050181802
69	0x3a663669	0.00087819115
70	0xbe1a85a0	-0.15090036
71	0xba10cc81	-0.00055236375
72	0x3a6a2e07	0.000893325
73	0xbb0bb269	-0.0021316058
74	0x3ac97739	0.0015370614
75	0x3904db7d	0.00012670267
76	0x3bba0507	0.005676869
77	0x3cdeaf45	0.027183184
78	0x3ab162d7	0.0013533485
79	0x3e17b0ac	0.14813489
80	0xba2448b5	-0.00062669377
81	0xbb23aa9d	-0.002497352
82	0x3b9117ed	0.004427901
83	0x3b0afd2c	0.002120803
84	0xbbe97aef	-0.0071252505
85	0x3c4c92b8	0.012486152
86	0xbb8383b4	-0.004013503
87	0xba0eb625	-0.0005444012
88	0x3cf9b728	0.030482844
89	0x3bcd43a2	0.006264166
90	0xbc050e3a	-0.008121068
91	0xbc65ab12	-0.014017837
92	0xbab79b19	-0.0014008015
93	0x3a9d4be6	0.0012000769
94	0xbd040542	-0.032231577
95	0xbb82d59e	-0.0039927503
96	0xbb4ab6c8	-0.00309317
97	0x3c34d4fb	0.011037107
98	0x3beb7320	0.007185355
99	0xbc12b8db	-0.008955206
100	0xbc17bfa9	-0.009262004
101	0xbb24ed6b	-0.0025165926
102	0xbab56e32	-0.0013842045
103	0xbaea70c4	-0.001788639
104	0x3c3e45aa	0.011613289
105	0x3b83e192	0.004024693
106	0xbb3e56c7	-0.0029043423
107	0x3b18e967	0.0023332478
108	0x3b921afb	0.0044587827
109	0x3e812f2a	0.25231296
110	0x3bb8ef82	0.005643786
111	0xbe093ece	-0.13402864
112	0xbb0f6cf0	-0.0021885
113	0xbc004c15	-0.007830639
114	0x3b4c84c5	0.0031207066
115	0x389706fe	7.2015435e-05
116	0x3b444051	0.0029945562
117	0xb7e73bf8	-2.7565271e-05
118	0x3bb480ac	0.005508503
119	0xbb7ef23a	-0.0038901703
120	0x3c377be4	0.011198971
121	0xbb081087	-0.0020761804
122	0x3c78899b	0.015169526
123	0xbb3cfefc	-0.0028838506
124	0x3bd07cdf	0.006362542
125	0xbe3ab77f	-0.1823406
126	0x3ba61338	0.005068209
127	0xbb05a1d2	-0.0020390642
128	0x3a8aec4d	0.0010598988
129	0x399e2cf7	0.0003016961
130	0x3e06cf75	0.13165076
131	0x3bb04e37	0.0053804177
132	0x3bacf0cf	0.00527773
133	0xb95bdbc9	-0.00020967344
134	0xb95f0554	-0.00021268922
135	0xbeab85be	-0.33500475
136	0x3bf9d761	0.007624552
137	0xbb7191fa	-0.003686069
138	0x3c069be8	0.008215882
139	0xbb0487e7	-0.0020222606
140	0x3b588649	0.0033039025
141	0x3d07af75	0.033126313
142	0x3bc51c10	0.006015308
143	0xbc20452d	-0.009782118
144	0xbbbfea92	-0.0058568204
145	0x3bcaab79	0.006184992
146	0x3bfdd721	0.0077465926
147	0xbb19dff1	-0.0023479427
148	0xbb93fe4c	-0.0045163985
149	0xbb8b72f6	-0.004255648
150	0x3c1bca3a	0.009508664
151	0x39ef1ecf	0.00045608587
152	0xbb596cfb	-0.003317653
153	0xbbe56ed1	-0.0070017357
154	0xbe033c2f	-0.12815927
155	0x3abfdbac	0.0014637611
156	0x3bff87e6	0.007798183
157	0xbb8708fe	-0.004120945
158	0xbb55b3b1	-0.0032608325
159	0xbb34d8eb	-0.0027595113
160	0x3b2948a4	0.002583065
161	0xbbae272a	-0.0053147273
162	0x3bc554c8	0.0060220696
163	0xbd67a249	-0.05655125
164	0xbb7039c6	-0.003665553
165	0xbb286088	-0.0025692303
166	0x3b1e5c16	0.0024163774
167	0x3bee64cb	0.007275199
168	0x3ad65326	0.0016351684
169	0x3c1199b2	0.0088867415
170	0x3a8c8f0f	0.0010723787
171	0x3b0a7068	0.0021124128
172	0xbd72c930	-0.0592739
173	0x3ba84748	0.0051354505
174	0xbbe52caa	-0.0069938498
175	0xbc2412a5	-0.010014211
176	0x3ad67d9f	0.0016364342
177	0xbb47ca1a	-0.0030485452
178	0xbdac2a78	-0.08406538
179	0xbbbbda25	-0.005732792
180	0xbb8aba1a	-0.004233611
181	0x3c1b652b	0.00948457
182	0x3bdbe1c4	0.006710263
183	0xbbd38077	-0.006454523
184	0xbbc21575	-0.005922968
185	0xbb660762	-0.0035099615
186	0x3ad192b7	0.0015989159
187	0x3b36068f	0.0027774905
188	0x3bea61d4	0.0071527753
189	0x3b9b8893	0.0047465055
190	0xba3587aa	-0.00069248176
191	0xba9906a0	-0.0011674948
192	0xbaafbb71	-0.0013407302
193	0xbd4a10a7	-0.049332287
194	0x3b6141ad	0.0034371421
195	0x3e33e096	0.17566141
196	0xbb71d411	-0.0036900083
197	0xbb13fb9f	-0.0022580398
198	0x3b301b79	0.0026871844
199	0xb7f5e561	-2.9313089e-05
200	0x3a84ac59	0.0010122164
201	0x3b864051	0.0040970226
202	0x3ad58cf1	0.0016292614
203	0x3b36914e	0.0027857604
204	0x3c6d2533	0.014474201
205	0xba460a73	-0.00075546576
206	0x3c30a2d1	0.010781006
207	0x3a47eac3	0.000762623
208	0x3ba1dcad	0.0049396367
209	0x3e0aa567	0.13539658
210	0x3b0d1b78	0.0021531265
211	0xbb66d670	-0.003522303
212	0x395abfdc	0.00020861573
213	0xbb012e21	-0.0019711333
214	0x3d0baef0	0.03410238
215	0xbb0ef56f	-0.002181377
216	0x3ac09b03	0.0014694635
217	0x39ff88e3	0.0004873938
218	0x3b6ff40c	0.003661397
219	0x3e0f59d4	0.1399911
220	0x3b558691	0.0032581429
221	0xb98da8bf	-0.0002701934
222	0x3c121e34	0.008918334
223	0xbac8775d	-0.0015294362
224	0x3b5635aa	0.0032685795
225	0x3d39ad7f	0.045331474
226	0x3b6d0cd2	0.0036170972
227	0xbbc41a1a	-0.005984557
228	0xbb9fdf27	-0.0048788968
229	0x3c00ce0b	0.0078616245
230	0x3b346e61	0.0027531611
231	0xb9daff6b	-0.000417705
232	0xbb04db39	-0.0020272268
233	0xbb7a0320	-0.0038148835
234	0x3b11d3fc	0.0022251597
235	0xbb37b905	-0.0028033864
236	0xbaa75ecc	-0.001276934
237	0xbbe89a63	-0.0070984825
238	0xbc9893ac	-0.018625103
239	0x38d6efe9	0.00010249002
240	0x3bdbb512	0.006704935
241	0xbb9c86e4	-0.0047768224
242	0xbb7e7bd3	-0.003883113
243	0xbb71748e	-0.0036843154
244	0x3b8d96ed	0.0043209703
245	0x3d6be8dc	0.05759512
246	0x3b89af17	0.0042017805
247	0xbe691e23	-0.22765402
248	0x3aae7fa5	0.0013313188
249	0xb9872e74	-0.00025783817
250	0x3b445d9f	0.002996303
251	0x3c0da8f0	0.008646235
252	0x3b04feae	0.0020293402
253	0xbbf91665	-0.0076015466
254	0xb7e934ea	-2.7800404e-05
255	0x3b2da9b2	0.0026498851

layer3.fc3.bias f4 [10]
0	0xbe003fb5	-0.12524302
1	0xbec6648b	-0.38748583
2	0x3eaf57ce	0.34246677
3	0x3f0fc6a6	0.5616249
4	0x3ea79418	0.32730174
5	0xbcc9ea8d	-0.024647975
6	0xbdd810c0	-0.1055007
7	0xbe86e009	-0.263428
8	0xbead63ef	-0.33865306
9	0xbd537e73	-0.051634263
