output/models_cifar10_160.pth (torch_old, 248636 bytes, 10 tensors)

layer1.conv1.weight f4 [6, 1, 5, 5]
000000 6b bd 4d 3c de eb 49 be fe 50 52 3d 15 3f f7 bd
       0.012557368 -0.19718882 0.05134677 -0.12072579
000010 74 37 86 bd d5 db 8e 3e 56 7b 59 be a1 c9 d3 3e
       -0.065535456 0.27902094 -0.21238455 0.41364768
000020 b5 a4 b0 bd e0 7a 53 3e 12 d7 b2 3d 08 68 00 bf
       -0.086251654 0.20652342 0.08732428 -0.5015874
000030 2f 8d b7 3e f7 07 a3 be 65 f6 4b bd 9a 8a 8e 3e
       0.35849902 -0.31842014 -0.049795527 0.2784012
000040 08 12 f5 be f7 69 04 3f 65 88 74 be f2 d4 c3 3d
       -0.4786532 0.5172419 -0.23880155 0.095621005
000050 d2 29 52 3e e0 20 01 bf a4 1f de 3e 3f cf 3b be
       0.20523766 -0.5044079 0.43383515 -0.18340777
000060 a5 e3 29 bc e9 19 2d bb 9e 9b ce bc b0 39 2c bd
       -0.010369216 -0.0026413149 -0.025220688 -0.042047203
000070 20 ea a6 3d ac 33 e2 bc bd 4d 1a 3d d1 72 01 3e
       0.081501245 -0.02761253 0.037671793 0.12641455
000080 dc b2 de be 6a 4c 88 3d 6f f3 43 3e 58 b1 6a bd
       -0.43495834 0.066552 0.19135831 -0.057298034
000090 5d 4d 88 3e 96 95 bf 3e c8 b1 60 bf a8 85 7f 3e
       0.26621523 0.37418813 -0.8777127 0.2495333
0000a0 1b c6 91 3d b2 d1 e2 be 58 5e 20 3f 7a 6e e8 3d
       0.07117864 -0.4430061 0.6264396 0.11349197
0000b0 92 4b a7 be 8b 34 72 3c 8c 5f 06 3d cc 04 99 be
       -0.32674843 0.014783035 0.032805964 -0.29886472
0000c0 d3 15 a5 3e 27 dd 8f bd 4b 19 ce bc 9d cf 39 bb
       0.32243213 -0.07024603 -0.025158545 -0.0028352507
0000d0 2a 7f 29 bd 4a 17 d6 3d a1 0c 0e 3d 90 dd 43 bd
       -0.04138104 0.10453661 0.034680013 -0.04781872
0000e0 a0 52 5e bc 10 be fb 3d 71 b2 3a 3d a7 af 63 bd
       -0.013569504 0.12292111 0.04558033 -0.055587437
0000f0 25 6d 92 be ff 33 10 3d 38 88 73 3e 9d 92 b7 bd
       -0.28598896 0.035205837 0.23782432 -0.08963511
000100 c7 cf 16 bd 16 d8 b4 be 3b 02 a1 3e ad 92 38 3e
       -0.036819246 -0.3532111 0.31447014 0.18024702
000110 c5 d3 9c bd ef 19 35 3c 03 07 d0 be ac 85 86 3e
       -0.07657579 0.011053546 -0.4063035 0.2627386
000120 6e 2d 7f bb 89 27 16 3d f8 88 ab bd d1 4f c5 bd
       -0.003893699 0.036658797 -0.08375734 -0.096343644
000130 23 16 9a be 5d 1e a5 bd 9b c7 29 bd 33 50 72 3d
       -0.30095014 -0.08062432 -0.041450124 0.059158515
000140 2a cc 73 3e 4c 47 38 3f d8 78 ad 3e 36 0e 52 3e
       0.23808351 0.7198379 0.3388126 0.20513234
000150 8c 5a 82 bc 6a 3e d4 bd ea 55 bf be 5e da 48 be
       -0.015912317 -0.10363467 -0.37370235 -0.1961455
000160 bd 2a 9c bd c4 f1 06 bd 19 aa a7 3d 5a 07 55 bd
       -0.07625339 -0.03294541 0.081867404 -0.052008964
000170 f7 d3 c6 bd 09 da a2 3d 71 d0 1d 3e ae ba 94 bd
       -0.09708398 0.07951743 0.15411545 -0.07262169
000180 58 fb ce 3b 7d 89 5f bd 2f 8e ab bd 63 c7 a8 bd
       0.0063165836 -0.05457448 -0.08376729 -0.08241155
000190 d7 76 ac bd 14 a8 32 3d 60 f1 9f bc 56 04 9f 3d
       -0.084211044 0.043617323 -0.019524276 0.07764499
0001a0 b6 60 ae bd 5d cd 28 bc 63 df 89 3d a4 ae 65 3d
       -0.0851454 -0.010302869 0.06732061 0.056074753
0001b0 2f 57 e4 bd cb 73 de 3d 88 f7 5c be 54 0b a5 be
       -0.111494415 0.108619295 -0.215788 -0.32235205
0001c0 0d 0f af bd a1 8e 80 bc 43 b2 84 be 4a bf 3b 3e
       -0.085477926 -0.01569301 -0.25917253 0.1833469
0001d0 03 bb 09 3e 66 6b 21 be 89 e9 a1 bd dd 18 2a 3e
       0.13450246 -0.15763626 -0.079058714 0.16611047
0001e0 f5 30 06 bd c0 a9 5e 3d 4c 1b fc 3d d7 ae 29 3d
       -0.032761533 0.054361105 0.12309894 0.041426506
0001f0 29 6a b9 bd 80 45 ea 3c 55 f6 43 be f4 f9 89 3e
       -0.090534516 0.028597593 -0.19136937 0.26948512
000200 be 45 05 bd 0e c1 64 bd 3d d6 f9 bd 4d c4 b4 3e
       -0.032537214 -0.055848174 -0.12199066 0.35306016
000210 ae 9d 86 3e e3 3d 05 bf fd 4f 94 3b 4a 90 11 3e
       0.26292175 -0.52047557 0.004526137 0.14215198
000220 ce 1c 9e 3e 56 84 5e bf be f8 4c 3d cb 4c 86 3e
       0.3088135 -0.8692068 0.050041907 0.26230463
000230 ee f0 2e bb ee e9 88 be 0c 15 d8 bd ed 5d 07 3f
       -0.0026693898 -0.26740974 -0.105508894 0.52877694
000240 2f 37 36 be 03 6e c5 3d c8 9a fb bd 16 ea 51 3e
       -0.17794488 0.09640124 -0.122853816 0.20499453
000250 bc c7 07 be ed ed f3 3b
       -0.13259786 0.0074441344

layer1.conv1.bias f4 [6]
000000 94 e4 8b be d7 c9 81 be 5f 63 90 be e5 77 84 be
       -0.2732283 -0.25349304 -0.28200814 -0.25872722
000010 ad 8c 88 be 6c 9e 91 be
       -0.26669827 -0.2844118

layer2.conv2.weight f4 [16, 6, 5, 5]
000000 a8 0e 44 3d 0f 41 4e 3c 06 7e 1c 3d 7b 1c 21 3e
       0.04786554 0.012588753 0.038206123 0.1573352
000010 48 5e be 3c e8 b8 9a 3d 0c 06 32 bd 9f 31 9e 3d
       0.023238316 0.07554799 -0.043462798 0.07724308
000020 3e f2 1f 3d 26 83 01 3e 5b 89 0a bd 65 5e 3d ba
       0.03904938 0.12647685 -0.0338224 -0.0007223844
000030 45 7b 4e 3c fc 7d 3a 3d c3 a5 39 3d e7 43 02 3e
       0.012602632 0.045530304 0.0453241 0.12721215
000040 b5 f4 ac bd 4e a5 83 3d 73 71 d6 3d 49 dd 22 bd
       -0.08445112 0.06428014 0.104708575 -0.039761815
000050 a4 67 7c be 1a f6 8e be 20 db 2c bf 37 b5 2d bf
       -0.24648911 -0.27922136 -0.6752186 -0.67854637
000060 4a 54 c7 be 06 8a 76 3e 0e ee 10 3e 70 27 1e bc
       -0.38931495 0.2407609 0.1415331 -0.009652957
000070 2f 8f 7f bc 34 51 0e 3e c3 50 22 3e 58 77 44 3e
       -0.0155981025 0.13898164 0.1585112 0.19186151
000080 ea 0b a3 3d c9 82 18 3e 48 3f f6 3d d4 58 b9 3e
       0.07961257 0.1489364 0.12023789 0.36200583
000090 01 56 31 3e 4e 04 09 3e 71 82 c0 3d 08 fd 11 3e
       0.17317964 0.13380548 0.0939988 0.1425668
0000a0 9c e8 a3 3e 23 2c 1a 3e 19 71 54 3e 8e 08 66 3d
       0.32013404 0.150559 0.20746268 0.056160502
0000b0 b5 2d a4 bd 60 c5 c2 3e 7e be ea 3b 05 28 40 be
       -0.080165304 0.3804121 0.0071638217 -0.18765266
0000c0 1c be 10 be ad 8d c9 bc f8 99 bd 3d c0 f3 35 3e
       -0.14135021 -0.02460369 0.09257883 0.17768764
0000d0 95 6d 6a bb 46 46 1b 3e 29 1e 29 bc 19 87 8f 3d
       -0.0035770882 0.15163526 -0.010322132 0.0700819
0000e0 84 34 91 bb f4 c0 ab 3d cf 14 a7 bd ff d1 21 3e
       -0.004431309 0.08386412 -0.08158266 0.15802763
0000f0 2b 62 1a bd f9 8e f3 bc 82 34 4c 3d 6c e3 8d 3d
       -0.037691277 -0.02973126 0.049854763 0.06928143
000100 5e a5 c8 bc 1c c1 78 be 9b ce 07 bb 7e 88 d5 bd
       -0.024492916 -0.24292415 -0.0020722512 -0.104264244
000110 2a f6 e5 3d df 98 ce 3d 0d 3e 97 bd b9 db 8c be
       0.11228593 0.100877516 -0.07384882 -0.27511385
000120 f4 90 f0 be b9 e3 db be e1 7f 48 be ef 16 98 3e
       -0.4698559 -0.42947176 -0.19580032 0.29704997
000130 69 40 02 be 86 3f 87 bd 3b e4 85 bd 0e 06 33 3e
       -0.12719883 -0.06603913 -0.06537672 0.17482778
000140 f3 a8 5b 3e 92 66 cf 3c 85 1b 36 3e 6a be 0b 3d
       0.21451168 0.025317464 0.17783935 0.03411714
000150 88 9c a3 bc 1c 95 b0 3d f5 0c 85 3e 8d 09 f2 3d
       -0.0199721 0.0862219 0.25986448 0.11818228
000160 aa fb 66 3e b6 c7 0e bc 0f 37 26 be 07 40 66 3e
       0.2255694 -0.008714607 -0.1623194 0.22485362
000170 e6 05 21 3e a8 42 7a 3e da 8e 90 bd f9 ff 9d bd
       0.15724906 0.2443949 -0.07058497 -0.077148385
000180 f2 fa 55 3e b3 9e 81 3e 3c 30 8b 3e 61 aa ac 3e
       0.2089651 0.2531639 0.27185237 0.3372374
000190 fb 90 74 3e a5 3b 47 bd 6a 30 74 3c 3c f4 95 3d
       0.2388343 -0.048640866 0.014904121 0.07321975
0001a0 b3 b5 04 3e ad d2 c3 3e 44 00 7a 3d 0b a3 2a 3e
       0.12959938 0.3824667 0.06103541 0.16663758
0001b0 5d 7b 33 bc 36 d8 58 3e a7 78 b2 3e 7a b0 57 3d
       -0.010954705 0.21176228 0.34857675 0.052658536
0001c0 09 0b 7e 3e cd ca 49 3d a2 ba a0 3e e2 28 ee 3d
       0.24808897 0.04926567 0.3139239 0.116288915
0001d0 2c 94 22 3e c8 db 03 3f a4 7f 92 3e c0 58 02 3a
       0.15876836 0.51507235 0.28613007 0.0004972331
0001e0 d0 82 78 be a7 2e 0b 3f 1e c3 10 3f 8d b3 ed 3d
       -0.24268651 0.5436806 0.56547725 0.11606512
0001f0 1d 62 7a be d9 78 ea bc 37 46 a5 bd 0f 3d 71 3d
       -0.2445149 -0.028622078 -0.08070033 0.05889612
000200 34 4c 6e 3d 20 50 a9 3d a7 be 01 bd a9 fb 21 be
       0.05817814 0.08267236 -0.03167596 -0.15818657
000210 77 1e 1b 3a a0 2d 1e 3e e7 f7 99 3e 1a fa 49 3d
       0.00059173204 0.15447092 0.30071947 0.04931078
000220 af 03 a9 bd ae d7 7a 3d 41 a9 e6 3d 13 7f 3c 3e
       -0.08252656 0.061240844 0.11262751 0.1840785
000230 b2 10 9c bd 99 c2 fb 3c 31 69 91 bd b4 5f f9 3d
       -0.07620372 0.03073244 -0.07100142 0.12176457
000240 8d 5f 98 3e 05 85 1f 3d ce aa 8e 3d 05 14 11 be
       0.297604 0.038945217 0.06966172 -0.14167793
000250 f9 c2 fc 3c 54 cb 7f 3e 05 e3 12 bd 4c aa 6a 3d
       0.030854689 0.24979907 -0.035861034 0.057291314
000260 7b e7 08 3d e1 7d 10 3e 3f f4 ed bd d0 1d ea 3d
       0.033423882 0.14110519 -0.11618852 0.114314675
000270 17 23 ce bd 15 17 a9 3d 1d d8 43 be 25 0a 13 bd
       -0.100652866 0.08256356 -0.1912541 -0.035898346
000280 25 00 2b 3e 63 61 af 3e d4 c0 64 be db f8 27 bd
       0.16699274 0.34253988 -0.22339183 -0.04100881
000290 d9 10 2a 3d 48 77 51 be 28 ef a0 be 78 52 ba 3d
       0.041519973 -0.20455658 -0.31432462 0.09097761
0002a0 0c f7 ae bc c9 fd 46 be 4e ad b2 bd 2e 68 9e 3d
       -0.021358036 -0.19432749 -0.087244615 0.077347144
0002b0 1d af a9 be 51 91 c1 be 85 2b f5 bd 62 d3 23 3e
       -0.33141413 -0.3780618 -0.11971191 0.15998605
0002c0 9e 61 32 3e 64 fd 2a 3e 1b 89 8c 3e de 2b 93 3d
       0.1742005 0.16698223 0.27448353 0.071861014
0002d0 44 38 f4 3d f1 0f 04 3e 1a 6f 7a be 42 b0 ac 3e
       0.11924794 0.12896706 -0.24456444 0.33728224
0002e0 81 e8 27 3e 49 73 5a be 62 3f 8c 3e 9d e3 d5 be
       0.16397287 -0.2133304 0.27392107 -0.41775218
0002f0 ec 68 56 3e c1 e4 59 3c 53 e6 87 3c 58 eb fc bd
       0.20938462 0.013299168 0.01658932 -0.12349576
000300 7e 62 d2 be 69 70 fe be ea a0 a1 3d d7 83 94 3e
       -0.4109077 -0.49695137 0.0789202 0.29006836
000310 18 8a 96 3e 75 5a 0b 3f 3e 0e 2a bd 62 0f e4 be
       0.29402232 0.544349 -0.04151749 -0.44542986
000320 3f e7 1e bd f9 12 95 3d 83 f6 11 3e 5c 0c 75 bd
       -0.038794752 0.07279009 0.14254193 -0.05982624
000330 77 7e c4 3d be 4e be 3d 15 d0 97 be 90 b2 83 3d
       0.09594434 0.09292363 -0.29650941 0.064305425
000340 bb 6c 0a 3e f2 5e a0 be 4b 77 13 3e 4c ac b9 3e
       0.1351804 -0.31322438 0.14400975 0.36264265
000350 0c d2 75 be 16 fe 1f 3f 7b 26 b9 3c 94 a8 d3 39
       -0.24005908 0.6249708 0.022601357 0.00040370657
000360 c2 fc 34 3e b9 63 7a 3e 77 bd 83 3e 9e 8e 82 3e
       0.17674544 0.24452104 0.25730488 0.25499433
000370 54 db cf 3d 55 20 eb bd eb 18 30 3d ca 66 c7 3b
       0.101492554 -0.11480776 0.042992514 0.0060852515
000380 aa 41 8d 3e 16 c2 ab 3c 9f ed 84 3d 2b d3 d9 bd
       0.2758916 0.02096657 0.06490635 -0.1063598
000390 4a 7d cb bc 1d 92 07 3e 36 40 79 bd 14 38 9b 3d
       -0.024840016 0.13239332 -0.060852252 0.075790554
0003a0 f7 72 5d be 71 70 63 be 07 2b 29 3e 74 60 7b be
       -0.21625887 -0.22210862 0.1652032 -0.24548513
0003b0 9f 08 ec bd b4 d6 d2 bd ac 69 78 be 2d c7 99 bd
       -0.11525082 -0.102948576 -0.2425906 -0.07508693
0003c0 da 1c 89 3d 5c f7 5a be 27 af 07 be e9 42 57 be
       0.06694956 -0.21383423 -0.13250409 -0.21021618
0003d0 dd ee 8d be 50 24 11 3e e9 a8 c8 bd 5e 76 87 bd
       -0.277213 0.14174008 -0.09797842 -0.066143736
0003e0 13 18 4e 3e e8 6a 79 be 79 da 05 3e 35 0c 1f 3e
       0.20126371 -0.24357188 0.13071622 0.15532
0003f0 ba 2e c9 be 19 c6 cb bd 47 e3 24 3e ca f6 53 be
       -0.39293462 -0.099498935 0.16102324 -0.20699611

layer2.conv2.bias f4 [16]
000000 fc ac 04 bf 68 07 2d bf 1a e4 12 bf 3a 57 dc be
       -0.51826453 -0.67589426 -0.57379305 -0.430353
000010 db e1 1b bf 15 59 e8 be 4a 02 e3 be 05 f3 9d be
       -0.60891503 -0.45380464 -0.44337684 -0.30849472
000020 65 e8 23 bf 8a c9 09 bf dd 6f d4 be 2f b9 ae be
       -0.6402648 -0.5382315 -0.41491595 -0.3412566
000030 5a e6 8f be c0 c7 06 bf b6 41 05 bf 5a 7a bc be
       -0.28105432 -0.52648544 -0.5205339 -0.36812097

layer3.fc1.weight f4 [120, 400]
000000 2f ea 74 3c 1c 14 21 bb 42 b9 3d 3b 68 ed 7a bb
       0.014948412 -0.0024578637 0.0028949534 -0.0038288478
000010 44 1c 1a bc 6f 9c 2e bc 0d d9 16 3b 4a 0d a0 3a
       -0.009406153 -0.010657414 0.0023017556 0.0012210992
000020 c9 54 56 3c 42 e9 95 bc d3 81 88 3c 93 b7 a2 3b
       0.013081738 -0.018299703 0.016663468 0.0049657314
000030 77 f0 0f bc 5b a9 62 3b fb c3 34 bc 4e 78 1f 3c
       -0.008785359 0.0034585807 -0.0110330535 0.009733273
000040 e0 30 40 bc e6 e3 87 bc e2 91 24 3c 32 eb f7 3b
       -0.011730403 -0.016588163 0.010044547 0.0075658793
000050 63 30 57 3c dc 5f fd 3b ee 6b c1 ba 1d 02 58 bc
       0.013134095 0.0077323746 -0.0014756897 -0.013184098
000060 2f 31 9b bb cb af 4d 3c 6d 72 2d 3c 1e ff 99 ba
       -0.0047360878 0.012554119 0.010586363 -0.0011749004
000070 ad 8d 0c 3c 0a a3 10 bc fb e0 a2 3c 54 a3 0d 3c
       0.0085787 -0.008827934 0.01988267 0.0086448975
000080 ab 21 5f bc 10 5c 09 3d 1f 2f 15 3c 8c e0 d1 3a
       -0.013618867 0.033535063 0.009105473 0.0016012355
000090 6b 6a 0f 3c 6b 0c fe bc 10 72 ac 3c a9 84 9b bc
       0.008753399 -0.03101178 0.021050483 -0.018984156
0000a0 b4 48 2d bc 87 f6 23 bc 80 a3 15 bd 50 45 4c b9
       -0.010576416 -0.010007507 -0.03653288 -0.00019480777
0000b0 92 0d 88 bc c2 e8 5d 3c 5d a0 bf 3a 61 df be ba
       -0.016608033 0.013544263 0.0014619936 -0.0014562422
0000c0 8f 8e 15 bc af 48 b1 bc a4 17 09 bc 8b 0b aa bc
       -0.009128227 -0.021641104 -0.008367453 -0.020757457
0000d0 29 57 6e bc 24 84 f0 3c bb 52 f8 3c 92 aa 3d bc
       -0.014547148 0.029359885 0.030312886 -0.011576312
0000e0 99 d0 f6 bc 2a 28 18 3c b1 17 9f 3b ad 0d c0 bc
       -0.030128764 0.00928692 0.004855119 -0.023444021
0000f0 aa 28 6f bb db de 56 3c 3c f5 8d bc ad fc f9 bc
       -0.0036492744 0.013114656 -0.01732885 -0.030515993
000100 69 1c 88 bc ba bd a3 3b fb 37 73 bb 4f b9 b3 3c
       -0.01661511 0.0049969824 -0.0037112224 0.021938948
000110 34 34 4b 3c 01 ab 31 3c 05 f5 00 3a 2e d5 12 bb
       0.012402583 0.010843993 0.0004919323 -0.0022404897
000120 f5 45 b5 bc 6b 6d 50 bb 4b 58 33 bc dc b5 42 bc
       -0.022128085 -0.00318035 -0.010946344 -0.011884179
000130 a3 0a e6 3a 7a 99 51 3c 45 d9 70 bc e5 1d 22 bd
       0.0017550777 0.012792939 -0.014700239 -0.03957929
000140 32 29 63 bc 41 18 95 3b 5f 4c 27 3c 12 90 46 3c
       -0.013864802 0.0045500104 0.010211079 0.01211931
000150 b4 97 b9 bc 24 99 6c 3b 4d b7 90 3c fe 04 4f bb
       -0.022655345 0.003610202 0.01766553 -0.003158867
000160 5a df c5 3b cd 32 96 3b 1b 34 d6 bb 19 dd 89 bc
       0.0060385885 0.0045836926 -0.006536973 -0.01682906
000170 3a 0e b9 3a d1 13 f8 bb 9f c0 9b 3b 2c a3 32 3b
       0.001411862 -0.0075707217 0.004753187 0.0027257903
000180 f1 49 5d bb 2a 4c 19 bb d4 e6 ea ba e2 bb a3 3c
       -0.0033765996 -0.0023391345 -0.0017921575 0.01998705
000190 f8 5d bb 3c d4 2f e1 3c 07 b9 2c bc 82 5b f7 bc
       0.022871956 0.027488627 -0.010542161 -0.030195002
0001a0 4c fd 61 ba ef 1a 43 bc ec 59 97 3b 00 37 2b bc
       -0.0008620813 -0.011908277 0.004618874 -0.010450125
0001b0 38 39 e6 bc 27 e6 bd bb ce 3d a0 3c 02 fc ee bb
       -0.028103456 -0.0057952586 0.01956072 -0.0072932253
0001c0 3d 90 10 bc 48 fe 94 bb b5 d7 0a 3c a4 8a b2 3c
       -0.008823452 -0.0045469142 0.00847428 0.021794625
0001d0 22 95 e3 ba 5e c5 c8 3b ea a0 e5 bc 8d c5 51 bb
       -0.0017363171 0.0061270436 -0.028030831 -0.0032008619
0001e0 44 e5 9e 3c 5a 1c 76 bc eb 3e 1a bb 97 32 05 3b
       0.019396432 -0.015021408 -0.0023536037 0.0020324343
0001f0 8e 28 f0 ba 3d 44 78 3c bb ad 55 3c 8a 33 17 3c
       -0.0018322633 0.015152988 0.013041909 0.009228596
000200 7e 40 9e bc 4a 02 7f bb 3e a4 1d bc 81 03 bd 3b
       -0.019317862 -0.0038911276 -0.009621678 0.00576824
000210 76 c0 f1 3c 50 be 72 3b 4e a8 9f 3c 51 ed 8b bb
       0.029510718 0.0037039705 0.019489434 -0.0042702337
000220 01 b7 de 3b 75 a3 e8 3c b0 40 b4 bb 74 8e d9 bb
       0.006796718 0.028398255 -0.0055008754 -0.006639296
000230 21 64 ae ba a8 2c c9 bb d8 16 bb 3c b2 02 91 bb
       -0.0013304987 -0.0061393566 0.022838041 -0.00442537
000240 ee e1 43 3c 3c 72 c7 bb f7 6b 0c bc 7e 30 78 3b
       0.011955721 -0.006086616 -0.008570663 0.00378707
000250 20 b9 9b 38 0c de b4 bb 56 cb 13 bc bf a3 58 bb
       7.425458e-05 -0.005519634 -0.009020647 -0.0033056585
000260 f2 b8 62 3c 59 1b b3 bb 3a 6a 54 3b 2a b2 c9 3b
       0.01383804 -0.0054659066 0.0032411949 0.006155272
000270 05 b2 d2 bb 44 1a 09 3c ad 24 8b 3c 4b 42 95 ba
       -0.006429913 0.008368079 0.016985262 -0.0011387555
000280 2c 92 fb ba 24 f5 2e 3c 2b d2 10 3c 54 36 8c bc
       -0.0019193343 0.010678563 0.00883917 -0.01711575
000290 c1 da 83 bc 29 cc a2 bb 55 62 0a 3c ca 91 0a bc
       -0.01609552 -0.0049681854 0.008446296 -0.00845761
0002a0 16 4e 36 bc db 95 71 bc 50 c1 03 bb 21 9d 82 bc
       -0.011127016 -0.014745201 -0.0020104237 -0.015944066
0002b0 22 29 bf bb 09 cf ae 3c e0 41 15 bc 02 36 0d bc
       -0.005833761 0.021338956 -0.009109944 -0.0086188335
0002c0 d5 fb 17 bc fa 7a 0b bc e6 75 00 3c 32 2a bf bc
       -0.00927635 -0.008513207 0.007840609 -0.02333555
0002d0 d2 4c 85 bb 4f 58 54 3c 80 85 d7 bb ce 5c 22 bc
       -0.0040679956 0.012960508 -0.0065771937 -0.009909822
0002e0 d8 ab 18 bd fc 13 37 bb eb bf 01 3c 1e b6 27 3a
       -0.037273258 -0.0027935496 0.007919292 0.0006397682
0002f0 56 8a cb 3c b0 02 53 bc 6c 40 86 3c 92 da 4f b9
       0.024846237 -0.012879059 0.01638814 -0.00019822482
000300 a4 ac fa bc 58 c6 1b bc 36 3c 20 3c a9 e7 cd bc
       -0.0305999 -0.009507738 0.00977998 -0.025134878
000310 61 40 18 3c dc 63 81 3c fa 8b 9d 3b 8b dd 49 bc
       0.009292693 0.015794687 0.0048079463 -0.012320886
000320 17 da 10 3d 6f ec 2a 3c 40 7c ac bb 7b 5f 1c bc
       0.035364237 0.010432347 -0.005263835 -0.009544249
000330 51 17 bf 3b ae 52 67 3b e2 35 14 bc 19 25 12 3c
       0.005831637 0.0035297084 -0.00904605 0.008919978
000340 2d 0e 03 bc c0 2f 49 bc 75 e7 3e bc 0b 5f c2 3b
       -0.007998985 -0.012279451 -0.011651863 0.00593174
000350 60 8f a2 3b fe 4e 04 bc 4f cd 63 bb 78 59 ba bb
       0.0049609393 -0.008075474 -0.0034759825 -0.005686935
000360 64 f0 b8 3b 68 20 5e 3c be 3d bb 3c 0f 41 0d bc
       0.005643891 0.013557531 0.02285659 -0.008621468
000370 d3 f6 0f 3d 9c c5 c1 3b c9 fd d8 bb c1 c3 6c bc
       0.0351475 0.0059134495 -0.0066220504 -0.014450968
000380 f8 58 69 bb 76 b5 f9 3b ac e3 c7 bb 87 3d 3b 3b
       -0.0035606008 0.007620509 -0.0061001386 0.0028570609
000390 9b 17 a3 bc 87 06 0d 3b a2 a9 4c 3c 9d a7 4c 3c
       -0.019908717 0.0021518783 0.0124916155 0.012491134
0003a0 ff a4 8c 3c 2a 8b 7e 3a f6 4e 25 3c 65 d2 50 bb
       0.01716852 0.0009710068 0.010089627 -0.0031863686
0003b0 59 b0 17 bb 6c 0b bf 3a e7 a1 16 bc e2 81 ad bb
       -0.0023145883 0.0014575548 -0.009193874 -0.0052950243
0003c0 29 f2 92 bc f5 f8 6b bb f9 1f 63 bc 98 cc 86 3b
       -0.017937737 -0.0036006544 -0.013862603 0.004113745
0003d0 29 ff 70 bc ba d6 4c 3c b6 03 71 3c bf f5 8e 3c
       -0.014709272 0.012502367 0.014710357 0.017451165
0003e0 4e 48 b1 bb b5 49 5d bc 83 19 78 3b 80 8d d9 3c
       -0.0054102307 -0.013506343 0.0037857003 0.02655673
0003f0 93 31 66 bc 77 9e 64 bc 6b 68 f6 bc 79 4d 6a 3c
       -0.014049905 -0.013953797 -0.030079087 0.0143006975

layer3.fc1.bias f4 [120]
000000 e5 d0 37 3a 7c ff a9 3c ab 69 83 3c 3e eb 8a bb
       0.00070120237 0.020751707 0.016041597 -0.004239469
000010 c4 74 e3 3b a0 57 87 bc 28 9b a3 3b 98 50 76 bc
       0.00694141 -0.016521275 0.0049928613 -0.0150338635
000020 43 25 b4 bb 26 b2 a3 bb a7 ee 8e bc 6b 91 48 3c
       -0.005497606 -0.004995602 -0.017447783 0.012241702
000030 b0 4b ae 3d 62 e3 a9 3b 1b 9a a6 bb eb 65 32 3c
       0.0851053 0.005184577 -0.005084289 0.010888557
000040 37 61 08 bb f9 48 11 bc 81 37 1c bc 35 34 33 bc
       -0.0020809898 -0.008867496 -0.009534718 -0.01093774
000050 72 fd 56 3a a1 b4 fd 3b 11 f9 e1 3a 56 f0 58 3b
       0.00082012184 0.00774248 0.0017240365 0.0033102236
000060 93 a6 97 3c 1c c0 6c bb f3 18 2e bc 35 05 be 3c
       0.018512046 -0.0036125248 -0.010626066 0.023195842
000070 75 00 85 3c 86 b6 89 3c c7 46 9b ba 04 f8 44 3b
       0.01623557 0.016810667 -0.0011846655 0.0030055055
000080 6d 34 7b 3e 4d 07 f4 3b f4 9f 60 bc 71 f9 a2 3c
       0.24531718 0.0074471594 -0.013710011 0.019894334
000090 7b 56 53 bd c6 e3 87 be e5 1c 42 3c 64 a4 85 3b
       -0.051596146 -0.26540965 0.011847709 0.004078435
0000a0 2c 13 d2 bb 66 db 6a bc 5e ed 65 3b ea ac 02 3e
       -0.006410977 -0.014334535 0.0035084109 0.12761274
0000b0 06 10 6b bc 71 57 7f bb 6a 99 e6 3b 57 35 96 bb
       -0.014347082 -0.0038962031 0.0070373314 -0.0045839953
0000c0 fe 72 9b 3b 7d e3 4b 3c 5c 65 7f 3b b4 d0 17 bc
       0.0047439327 0.012444374 0.0038970327 -0.009266067
0000d0 97 02 09 bc df 3d d6 bc 63 4f 9f 3a cb fb 35 3c
       -0.008362434 -0.02615255 0.0012154396 0.011107395
0000e0 3d ec 6c 3b d8 2a 91 bc 7f 54 f8 3a 87 9c b4 ba
       0.0036151551 -0.017720625 0.001894608 -0.0013779559
0000f0 05 05 30 b9 34 14 ee 3a b2 62 e6 bd 3a 7d 11 3e
       -0.00016786538 0.001816398 -0.112492934 0.14207926
000100 66 c6 7b bd 39 59 5f bb 34 80 82 bb ec 4a 02 3b
       -0.061468504 -0.003408028 -0.003982568 0.0019881083
000110 95 04 31 bb fd a6 4f 3c 34 96 46 3b 47 2a c8 bb
       -0.0027010788 0.01267409 0.003030193 -0.0061085555
000120 65 61 79 bb 80 ef b0 bb 92 b4 a4 3b ea 9f 1c 3c
       -0.0038052436 -0.0053996444 0.0050264085 0.009559611
000130 b5 2c 15 bc 66 f4 de bb 1b 9f fe 3a 0c ef ae 3b
       -0.009104897 -0.006804037 0.0019426079 0.005338555
000140 e0 db 6b 3c 1e ca 43 bc 10 f1 cf bc 2b be 15 bc
       0.014395684 -0.011950044 -0.025383502 -0.009139578
000150 d0 55 a2 bc 79 ad 09 bb d1 bd ae 3b d6 44 38 bc
       -0.01981631 -0.0021007939 0.0053326865 -0.0112468805
000160 07 65 92 3b e1 ec 4d 3c af 0c e7 bb a1 2e 89 bc
       0.00446761 0.012568683 -0.0070510725 -0.016745867
000170 19 2f 0d bc 11 d0 87 bc 0c 8c c9 3c 1d 47 02 bd
       -0.008617186 -0.016578706 0.024602912 -0.0318061
000180 5b a7 44 bc 92 d8 52 3c 55 8c f9 3d f0 2f f0 3b
       -0.012002791 0.012869017 0.12184969 0.0073299333
000190 6a 51 69 3c 33 fe eb 3c 69 fd 47 bb dd d0 95 bc
       0.014240602 0.028807735 -0.0030516034 -0.01828807
0001a0 2f 76 89 3c c3 36 5f 3c 56 84 cb 3b e5 d4 bd 3b
       0.016779987 0.013623896 0.006210844 0.0057932013
0001b0 c3 43 38 bc 5d 11 4b bc 5c ff 57 bc 14 b8 13 bb
       -0.011246624 -0.012394276 -0.013183441 -0.002254014
0001c0 3d c2 d4 3e 03 70 b6 bc dd f1 06 bc 55 02 57 bc
       0.41554442 -0.022270208 -0.008236376 -0.013123115
0001d0 f2 e9 af 3b 18 6f 34 3c 36 8c 9d 3b d1 c3 8a 3e
       0.0053684646 0.011012815 0.004807974 0.2710252

layer3.fc2.weight f4 [84, 120]
000000 83 94 22 3b b0 05 2b 3a 0a 12 d8 bb 14 44 02 bb
       0.0024807758 0.000652398 -0.0065939473 -0.0019877004
000010 80 5f 5c 3b 79 ce 38 3b 77 3c ec 3a 65 f5 f0 3b
       0.0033626258 0.002819924 0.0018023391 0.007353472
000020 da b7 b3 ba e2 fd 09 3c 88 7a 36 3b a0 33 7c ba
       -0.0013711408 0.008422347 0.002784403 -0.000962073
000030 75 09 2a bb c5 28 26 bb db 3b 53 bb e8 05 80 3b
       -0.0025945578 -0.002535389 -0.0032231722 0.003906954
000040 8e 5e f4 ba 81 50 2a 3c e9 e4 8a bb d9 90 fa 3a
       -0.0018643902 0.01039517 -0.004238714 0.0019116654
000050 81 a6 20 3b 06 68 b6 bb 9e 54 da 3a e7 65 50 ba
       0.0024513307 -0.0055666 0.0016657298 -0.0007949755
000060 ba 2e 88 bb 74 45 56 bb 9c 2b 02 3c e5 72 fc bb
       -0.004155961 -0.0032695206 0.007944968 -0.007704126
000070 98 4d 96 bb 5c 36 28 bb ec 0f 86 3a 4e d5 80 ba
       -0.0045868866 -0.0025667166 0.0010228134 -0.0009829195
000080 86 17 89 3b 3b 11 1a bb 06 b9 8b bb 90 27 31 3b
       0.0041837124 -0.0023508805 -0.004264 0.0027031638
000090 7f 99 81 bb a8 69 f0 3b c6 4b b5 3b 39 8e 19 3a
       -0.0039550657 0.007336814 0.0055327145 0.00058576796
0000a0 01 cc 0a 3b 02 8b ba 3b 70 04 24 3b 79 f8 bb bb
       0.0021178725 0.0056928406 0.002502706 -0.0057364074
0000b0 a1 b8 52 3b aa 96 83 3b 41 aa b0 ba dc 3a 33 bb
       0.0032153504 0.0040157633 -0.0013478474 -0.0027348315
0000c0 53 be af ba 18 32 83 b9 eb b1 68 3a 15 e6 af 3b
       -0.0013408161 -0.0002502359 0.00088766095 0.005368004
0000d0 bc 18 b7 3b 53 30 84 3b 1f 99 26 3c 79 d2 a8 3a
       0.0055876654 0.004034081 0.010168343 0.0012880109
0000e0 b7 6a c7 3a f5 0d 1f 3c 16 ce cf 3a 44 fe 78 3a
       0.0015214299 0.009707917 0.0015854265 0.0009498338
0000f0 2f 5e a9 3b 0a 6f 98 3a 81 75 80 3a ee 8f 9e 3b
       0.0051686983 0.0011629772 0.0009800644 0.004838935
000100 de 86 04 3a c2 07 4c bb 7f 8c c9 3a 43 60 4d bb
       0.0005055497 -0.0031132554 0.0015376954 -0.0031337894
000110 cf 8e cb ba 47 4c bf bb f1 4e 9f 3b f5 85 43 3b
       -0.0015530231 -0.0058379504 0.0048617055 0.0029834483
000120 2d ed 24 ba 11 31 c2 3b 63 2c e7 ba 87 49 61 bb
       -0.00062914455 0.0059262593 -0.001763713 -0.00343761
000130 13 5b ad 3b 3d 91 4b 3b 9c 35 96 3b 6d ba 27 3b
       0.005290398 0.003106191 0.0045840275 0.0025593296
000140 d6 90 2a bb 3f d7 89 3b 4f f4 66 bb f9 c7 f8 b9
       -0.002602627 0.0042065675 -0.0035240834 -0.00047451237
000150 35 cd b0 3b 51 73 8f 3b 0b 60 a4 3a 07 b8 c2 bb
       0.0053955563 0.0043777605 0.001254083 -0.005942348
000160 7a 18 53 bb ca a3 e2 3b db 8a 2b 3c d9 05 34 3c
       -0.0032210634 0.006916498 0.010470117 0.010987722
000170 b6 e6 13 bc 1e 55 c2 3b eb 3b c3 bb 79 85 73 3b
       -0.009027174 0.005930557 -0.0059580705 0.0037158413
000180 96 de 1f bb 95 18 92 bb 9f 81 e0 bb 20 4c 8e 3b
       -0.0024394146 -0.004458497 -0.0068513895 0.004342571
000190 32 e9 33 3a 40 31 e8 bb 53 13 30 3b 28 7e 67 3b
       0.0006863057 -0.007085949 0.0026866987 0.0035322998
0001a0 84 a0 21 b8 26 ae 83 ba ec fc 98 bb 88 82 bb 3b
       -3.8534883e-05 -0.0010046407 -0.0046688225 0.0057223476
0001b0 fa 5b 84 3a 9e 6c 88 3a cc 10 2b 3b 7e bc 49 3b
       0.0010098212 0.0010408347 0.002610254 0.0030782516
0001c0 ce de a9 bb c8 ce 6b 3b fd 86 00 bb d7 fd 06 3c
       -0.005184031 0.0035981406 -0.001961171 0.008239231
0001d0 86 25 74 3b fa ac 23 bb 6e 78 10 bc ba b3 a1 bb
       0.003725381 -0.0024974928 -0.008817775 -0.004934755
0001e0 0c 10 9b bb f4 ed 7b 3a 63 0e 9b bb 14 11 91 3a
       -0.0047321375 0.0009610348 -0.0047319396 0.0011067712
0001f0 25 07 49 ba 50 3f a1 bb 48 46 85 bb 09 c7 32 bb
       -0.0007668606 -0.0049208775 -0.004067216 -0.0027279279
000200 54 ea 20 bc cb 7b 05 3a 7b 87 03 3c e1 b7 b8 3b
       -0.009821493 0.0005091994 0.0080279065 0.0056371544
000210 b0 67 a4 ba 46 e8 0f 3b 7a c9 c7 bb 90 bf d4 3b
       -0.0012543108 0.0021958514 -0.006097016 0.0064925626
000220 b8 9e 8a 3b 95 45 bc 3a 01 08 ea 3a 03 93 85 3b
       0.0042303465 0.0014363999 0.0017855169 0.004076363
000230 6f aa 53 3c 85 df 4f bb 81 e4 71 3c e0 15 41 ba
       0.0129190525 -0.0031718921 0.014763952 -0.00073656254
000240 9b 15 67 3b da e2 39 3b d9 48 6c 3b d6 25 2a bb
       0.003526068 0.0028363974 0.0036054163 -0.0025962493
000250 7d bf a8 ba 61 98 10 bb 22 93 85 ba ad 62 84 3a
       -0.0012874451 -0.002206348 -0.0010190944 0.0010100208
000260 b8 ee 23 3c 59 fc c5 bb e6 76 23 b9 e9 f1 66 ba
       0.010005645 -0.006042045 -0.00015589184 -0.0008809851
000270 be 3c 56 bc a7 3e 51 3b 46 74 a5 3b c6 75 52 bb
       -0.0130760055 0.0031928213 0.0050492613 -0.0032113655
000280 e0 e2 d2 3b 1d 6f c6 ba b2 b3 c3 bb 15 c3 c9 bb
       0.006435737 -0.0015139316 -0.005972349 -0.006157289
000290 4b 7e 50 39 07 41 93 3b a6 31 9a 3a 08 a5 47 3b
       0.00019883474 0.004493836 0.0011764064 0.0030463357
0002a0 55 a2 85 bb 05 44 40 3b ab 6c b0 3b 69 a1 ba bb
       -0.0040781894 0.0029337418 0.005384048 -0.005695511
0002b0 e0 a5 da 3b da 5a a6 3a b5 73 b0 ba 75 da a9 bb
       0.006672606 0.0012691871 -0.0013462218 -0.005183513
0002c0 83 3e b2 b8 fe c0 2a bb f7 a0 1c b8 74 05 e4 bb
       -8.499345e-05 -0.0026054974 -3.734321e-05 -0.006958658
0002d0 f0 74 9f bb 1b 0d 61 3a 13 52 db bb 5b b0 a9 ba
       -0.004866235 0.0008585022 -0.0066931336 -0.0012946235
0002e0 e8 a6 ad 3b f0 ce 8c ba c8 db 52 ba 23 be b6 3b
       0.005299438 -0.0010742825 -0.0008043614 0.0055768653
0002f0 02 bd 14 3a e9 31 ae 3b 18 a7 e1 3a 36 d1 0e bc
       0.00056739163 0.0053160083 0.0017215936 -0.008716872
000300 f3 07 91 39 21 32 a8 3a 2f f8 da 39 b3 73 86 bb
       0.00027662478 0.0012832322 0.0004176511 -0.004103148
000310 3b 65 4a 3b c6 8b be bb b2 0a c8 bb 55 49 65 3b
       0.0030883092 -0.005815002 -0.0061047906 0.0034986336
000320 f4 ba a6 3b 68 ef 78 bb 86 bd bc bb 4d dd c9 ba
       0.0050882045 -0.0037984494 -0.0057598976 -0.0015401036
000330 61 1e d0 ba f1 f3 00 bc 2a 8a 71 3b b8 91 2b 3c
       -0.0015878194 -0.00787066 0.0036856034 0.010471754
000340 08 a5 13 3c d7 d8 0f 3c 19 6a 1e bc 09 95 d3 bb
       0.0090115145 0.008779726 -0.00966885 -0.0064569754
000350 94 75 90 bb 92 fd 24 bb 39 17 84 3b b4 bc 49 bb
       -0.0044085477 -0.0025175554 0.0040310887 -0.0030782642
000360 01 c3 bc 3b c6 7a 48 3c 94 18 bd 3a d7 25 28 3c
       0.005760551 0.012236303 0.001442688 0.010262928
000370 da 4b 8b b9 39 dc 5a 3b 88 61 c6 ba af 7c 41 3a
       -0.0002656866 0.0033395423 -0.0015135268 0.0007380945
000380 33 22 3e b9 4a 53 42 bb a9 cd 2d 3b d2 e2 c4 bb
       -0.00018132552 -0.0029651695 0.0026520288 -0.0060084844
000390 f7 c4 82 3b ea 2b 8e ba c3 14 fd 3a 8d e0 8a 3a
       0.003990765 -0.0010846828 0.0019308556 0.0010595486
0003a0 e8 61 01 3a d3 6f 31 ba 42 42 87 3b e8 cb 90 39
       0.00049355486 -0.0006768677 0.0041277716 0.00027617742
0003b0 48 62 c6 3b 8c 82 22 3b 59 af dc 3a 52 5d 87 ba
       0.0060541965 0.002479705 0.0016836926 -0.0010327494
0003c0 b1 f1 21 3b 7b 38 07 bb ac bb ec bb d9 19 20 bc
       0.002471071 -0.002063303 -0.0072245207 -0.009771788
0003d0 d0 5d a4 ba 52 98 23 b9 0e 7b 86 3b 6a d9 ad 3a
       -0.0012540165 -0.00015601635 0.0041040247 0.0013263647
0003e0 ec 78 e5 b9 69 4f 18 3c 1c b8 de 3b 8b 2b 0c bc
       -0.00043768378 0.009296277 0.00679685 -0.008555303
0003f0 19 d0 65 3c 35 c4 c0 bb bb 24 9f ba 2d c3 b6 3a
       0.014026665 -0.0058827647 -0.0012141684 0.0013943665

layer3.fc2.bias f4 [84]
000000 7a 07 68 bc cd 81 9b bb 03 7b f4 bb 70 5e 04 bc
       -0.014161939 -0.004745698 -0.007460953 -0.008079156
000010 c4 25 6b bd 39 03 71 bc 6a 6d b9 3b b2 05 a4 bc
       -0.057409063 -0.014710241 0.005658795 -0.020022247
000020 b7 6f 52 bc c2 b8 56 3c 63 21 92 3e 4f d6 bf 39
       -0.012844018 0.013105573 0.28541097 0.0003659003
000030 10 50 fd 3b 05 c7 c5 ba cc b0 52 3b 71 af 13 3b
       0.0077304915 -0.001508922 0.0032148836 0.002253499
000040 d2 8b 7d 3c 9d e8 6c 3c 74 06 83 bb 74 86 54 3c
       0.01547523 0.014459756 -0.003998572 0.012971509
000050 59 5a 06 ba 07 08 e0 ba 59 d7 c3 3b 44 75 4e bb
       -0.0005125157 -0.0017092236 0.005976599 -0.0031503001
000060 95 58 79 bb b8 10 91 bc 5b 72 08 3b 31 cc 66 3d
       -0.0038047184 -0.017708167 0.0020820114 0.056347076
000070 77 d6 96 3b b6 64 40 3c a6 2b 63 bc 5b d2 5b bc
       0.004603203 0.011742761 -0.013865387 -0.013416852
000080 b3 39 6f 3c 43 1a 4b 3c b2 aa c1 bb 8a 55 17 3c
       0.014601159 0.012396398 -0.005910241 0.009236703
000090 63 e5 ab bd 9f f9 fa 3b 3c 53 34 bc c5 9f 23 be
       -0.083933614 0.0076591517 -0.011006173 -0.15978916
0000a0 93 eb a3 3c 47 f0 9d 3e 26 42 45 bc 6d 3c 4f 3b
       0.020009791 0.3084738 -0.012039697 0.003162171
0000b0 e6 4b 9e 3b e1 49 ac bc 38 dd 29 bd 19 50 0b bb
       0.004830825 -0.021031322 -0.041470736 -0.0021257459
0000c0 d8 f1 ad b6 d2 4e 49 bc 12 20 9c bc 22 b2 59 3e
       -5.183956e-06 -0.012286859 -0.019058261 0.21259359
0000d0 a8 28 3a bc 20 71 f0 3b 87 74 92 bb c1 77 b7 3b
       -0.011362232 0.0073377043 -0.0044694575 0.0055989926
0000e0 81 14 a9 b9 df f8 59 bc e2 cb 75 3a cb a4 79 bc
       -0.00032249468 -0.013303964 0.0009376389 -0.015237044
0000f0 99 bd 2c bc 57 91 f1 bb 10 14 71 3c 01 8d 01 3a
       -0.0105432505 -0.007372062 0.014714256 0.00049419707
000100 8b 91 25 3c 57 9e c3 3a 02 34 cc 3b ca 97 15 ba
       0.010105501 0.0014924508 0.0062317858 -0.0005706517
000110 33 e1 90 bc b8 9e 45 3c 3d 81 09 3e 4f c2 01 3a
       -0.017685508 0.012061767 0.13428207 0.0004949914
000120 e5 7d 8c 3c 14 13 c8 3a 8b 2f 09 bc 59 4a 46 3c
       0.017149875 0.0015264475 -0.0083731515 0.012102687
000130 3d ff cd 3a 1c e4 ea bd 64 22 89 3c e5 a2 23 be
       0.0015716326 -0.1146929 0.016740032 -0.15980108
000140 85 c3 30 3c 3a 8f 69 3c ec 9a 2b bc c6 7e 3e 3b
       0.010788803 0.014255339 -0.010473948 0.0029067262

layer3.fc3.weight f4 [10, 84]
000000 49 7d 80 ba 0b 2b ba ba d5 9b df 39 17 1c c3 ba
       -0.0009802963 -0.0014203502 0.00042649978 -0.0014885691
000010 7f 17 8d 3d 51 6d 39 3b 80 4d ce 3a 0b 50 a1 bb
       0.06889247 0.0028293917 0.001573965 -0.004922872
000020 24 8e 38 ba f9 fc c7 3b 00 f8 55 be 59 63 e0 39
       -0.00070402236 0.0061031547 -0.20895386 0.0004279863
000030 f1 36 97 3b cd 91 13 3b b0 0d 94 bb 60 63 14 3a
       0.004614704 0.0022517324 -0.0045182332 0.000566056
000040 e8 25 42 ba 5d 0c 01 3c c2 96 85 ba 5c dc cf 3b
       -0.0007406161 0.007876483 -0.0010192024 0.0063434076
000050 e4 a1 7a bb af fa ae ba 03 f2 47 bb a5 d5 7f ba
       -0.0038243467 -0.0013349856 -0.003050924 -0.00097593135
000060 9e df 25 bb 24 c3 ec 3b bb ab c4 3a ec 51 c1 3d
       -0.0025310288 0.007225411 0.0015004793 0.094394535
000070 57 4f 1e bb 94 ce 92 3b a9 9b e0 3a 6b 9f aa ba
       -0.0024156177 0.0044801924 0.0017136234 -0.0013017481
000080 24 b9 09 3c 22 55 7a 3a 95 5b b4 ba f6 93 b2 ba
       0.008405957 0.0009549429 -0.0013760204 -0.0013624418
000090 be f4 3e bc 80 4a 42 3b 1b af 12 bb 08 3b d1 3a
       -0.011655031 0.0029646456 -0.0022382203 0.0015963027
0000a0 ae 4b 46 3b 43 75 4a 3c 61 3f 95 3a 64 71 2d ba
       0.003025751 0.012357059 0.0011386686 -0.0006616323
0000b0 d5 0d 8a bb 52 dd 8e bb 63 0b 47 bb ea 02 0f bc
       -0.0042130747 -0.0043598795 -0.0030371777 -0.008728722
0000c0 91 8e 7c 39 ae 45 8d 3a fd 9d 26 b9 14 75 2b 3d
       0.00024085703 0.0010778212 -0.00015889849 0.0418597
0000d0 6a ff 83 3b 5a 2d c6 3b d3 8f 47 3b ad c9 da 3a
       0.0040282505 0.006047887 0.0030450716 0.0016692184
0000e0 2f 6e 75 bb a6 79 80 be 25 c8 c2 3a d2 c7 11 bb
       -0.0037449708 -0.2509281 0.0014860673 -0.0022244346
0000f0 ba b6 93 bb 06 69 8c bb 00 39 69 3b ba 72 8c 3b
       -0.0045078667 -0.0042849807 0.0035586953 0.0042861374
000100 c0 c1 23 ba 11 2d 0c ba 43 7b 6e ba df e2 46 3b
       -0.00062468275 -0.00053472916 -0.0009097347 0.0030347628
000110 f5 f2 77 bb e9 60 8a 3b 19 ca 26 be 88 f4 a7 ba
       -0.0037834023 0.0042229784 -0.16288032 -0.0012813965
000120 e6 18 08 3b c5 44 3a bb 46 4f f0 bb 05 7b 9d 3b
       0.0020766794 -0.0028422337 -0.007333669 0.004805925
000130 5e 91 39 3c b9 15 84 3d 9d 95 a6 3a 95 9d 0e 3e
       0.011326162 0.06449456 0.0012709383 0.139273
000140 0f e9 bf bb d6 de 04 3c 30 5a b4 b9 1d 42 29 3a
       -0.00585664 0.008109769 -0.0003439947 0.000645669
000150 3c af 49 3b aa d8 93 ba 46 a5 22 3b df ac 0d 3a
       0.0030774614 -0.0011279781 0.002481775 0.0005404483
000160 b0 a9 9c 3c d2 af 14 3b f3 83 e0 ba f1 50 78 3a
       0.019123882 0.0022687805 -0.0017129168 0.00094725104
000170 b7 a7 e6 3a 51 7f 10 bb 3e 8e 7a bd 14 69 77 3b
       0.001759759 -0.0022048543 -0.06117081 0.003775184
000180 f3 4b 98 3a 2e 4d c7 ba 36 e0 9c 3a b2 27 4f 3a
       0.0011619314 -0.0015205496 0.0011968676 0.00079023384
000190 dd 1e ef bb 0a f2 09 ba 0e 41 ee b9 a0 42 07 bb
       -0.0072973804 -0.0005262202 -0.00045443367 -0.0020639077
0001a0 dd d2 ea ba c5 62 12 bb 98 1d 84 bb c1 66 ec b9
       -0.0017915625 -0.0022336703 -0.004031848 -0.00045089985
0001b0 76 3a 1a 3b a0 36 81 3e 7f 53 ca ba 47 34 1e be
       0.002353338 0.25236988 -0.0015436261 -0.1544963
0001c0 63 0e 18 bb 53 4e 26 3b af c7 26 3b d9 37 c4 3a
       -0.0023201935 0.0025376275 0.002544861 0.0014970257
0001d0 82 1c 79 3a 18 37 80 3b 57 00 18 3b c0 2d a2 b9
       0.0009502844 0.0039128177 0.0023193562 -0.00030933134
0001e0 e3 22 c6 3d 50 fe ac 38 e2 10 05 3b 64 99 8a 3d
       0.09674623 8.2489685e-05 0.0020304252 0.06767538
0001f0 b0 ca dc ba 9d 8d 2c be 9a 3f 28 3b b1 51 22 3b
       -0.0016845074 -0.16850896 0.0025672675 0.002476793
000200 ab 1a 24 bb 53 3d 17 3a 13 9c 30 3e d6 d5 34 bb
       -0.002504031 0.0005769331 0.17247038 -0.0027593276
000210 dc 2d 3d ba 4b 85 4d b9 8c f2 31 bb da aa a1 be
       -0.00072166114 -0.00019599979 -0.0027152626 -0.31575662
000220 12 97 fe ba 5e dd c6 b9 4a 83 fd 3a 7a ce 2d ba
       -0.0019423685 -0.00037930434 0.0019341495 -0.00066301937
000230 c5 dc aa bb f9 bb 0e 3d 35 ad 75 3b 2d 29 34 3b
       -0.005214306 0.034847233 0.0037487273 0.0027490363
000240 a4 f4 05 ba 06 93 32 3b cb 25 27 bb e3 ab 5f 3b
       -0.00051100017 0.0027248277 -0.0025504704 0.0034129552
000250 33 78 57 bb 3e 0a 5c bb c2 05 58 3a 99 55 84 3a
       -0.003287804 -0.003357544 0.0008240604 0.0010096311
000260 8e d1 56 3b b4 c1 05 bb 63 3b 0c be b7 96 97 ba
       0.0032778713 -0.0020409646 -0.13694529 -0.0011565302
000270 ff cf 89 bb ec ce c7 ba e2 a2 3e ba 1e 2e ec ba
       -0.0042057033 -0.0015244163 -0.0007272196 -0.0018019115
000280 a4 05 46 3b d8 c3 9e bc de 10 2a ba a8 b7 e6 bc
       0.0030215764 -0.019380495 -0.0006487499 -0.028163746
000290 4f 92 71 bb 11 ff 82 ba c5 62 9c 3a 67 e7 ca 3a
       -0.0036860888 -0.0009994229 0.0011931291 0.001548034
0002a0 b2 13 7f 3b 4e 3e 8e ba 73 af a0 3b dc 20 79 3b
       0.0038921651 -0.0010852308 0.0049037277 0.003801397
0002b0 62 e1 95 bd 2b 58 cc bb 3b 68 3e bb a3 12 93 b8
       -0.07318379 -0.0062360964 -0.0029053825 -7.0129776e-05
0002c0 37 d6 d9 3b 72 56 92 bb 05 53 91 bd c7 a9 f2 ba
       0.006647851 -0.0044658715 -0.07095913 -0.0018513732
0002d0 c9 13 6a 3a a2 dd 20 bb 16 2c d9 3b 02 1f a0 bb
       0.000892934 -0.0024546166 0.00662757 -0.004886509
0002e0 88 e4 cc bb d7 9e cc 3a cd c0 89 3a 09 fb 77 ba
       -0.006252829 0.0015611303 0.001050973 -0.00094597094
0002f0 d4 e1 e4 ba 93 f0 a2 3a a2 56 9a bb f0 99 2c bb
       -0.0017462322 0.0012431316 -0.0047100345 -0.002633687
000300 41 d4 f1 3b 09 e2 59 bd cc 78 cb bb 74 72 40 3e
       0.007380039 -0.05319408 -0.0062094685 0.1879366
000310 19 84 a5 3b 47 c6 b6 3b 41 1a 6d bb 70 01 7a bb
       0.0050511477 0.0055778357 -0.0036178979 -0.003814783
000320 67 48 b4 3b a6 33 39 3b 2e 4a 15 3c 5a 7f a0 ba
       0.005501795 0.0028259545 0.009111924 -0.0012244985
000330 63 65 12 bd cd 15 77 bb b3 0f 94 3b 4c 98 94 bd
       -0.03574122 -0.0037702203 0.004518473 -0.07255611
000340 72 61 9e bb 9c 90 10 3e d9 d8 b7 39 de b2 c9 ba
       -0.0048333937 0.14117664 0.00035066044 -0.001538839
000350 f2 bc 48 bb 7a 0c 21 ba eb c6 51 3a f1 d9 ba 3b
       -0.0030630198 -0.0006143522 0.00080023584 0.00570225
000360 78 91 0e 3a b5 03 0d bb 7e 98 dc bb 00 ff fc 3d
       0.00054385467 -0.0021517102 -0.0067320457 0.12353325
000370 38 6d a8 bb f3 9e 8f bb d5 2c 9e 3b 20 f0 69 bb
       -0.005139973 -0.004382962 0.0048271217 -0.0035696104
000380 b5 34 d2 ba 54 b1 cf 3c d6 15 2a 3b 51 50 f5 3b
       -0.0016037436 0.025353111 0.0025952957 0.007486381
000390 ef a2 72 3b 24 af f9 3b de 97 72 ba 8d 1b cf 3b
       0.0037023386 0.0076197553 -0.00092541974 0.006320423
0003a0 9e 71 54 bb fa 3b 74 3b d7 0c 98 3b 2f 26 a3 ba
       -0.0032416354 0.0037267194 0.0046402025 -0.0012447293
0003b0 90 32 c7 3b 57 d7 3a ba 48 02 1c 3c 6d e5 3c ba
       0.0060790256 -0.0007127425 0.009522028 -0.0007205818
0003c0 a1 0e 07 bb ce 3d de 3a 98 24 4c 3b 1f 30 d4 ba
       -0.0020608085 0.0016955675 0.0031149741 -0.0016188658
0003d0 8e e3 f9 ba f1 33 38 3d 6d e6 09 3b 77 01 6e be
       -0.0019065009 0.04497141 0.0021041885 -0.23242746
0003e0 85 63 ed ba 79 f3 88 bb c3 39 40 3b d5 e7 be 3a
       -0.0018111324 -0.004179415 0.0029331304 0.0014564941
0003f0 92 47 5c 3b 33 6b 70 ba 0c 72 f2 b9 fc 08 76 3a
       0.0033611995 -0.00091712474 -0.00046242808 0.0009385494

layer3.fc3.bias f4 [10]
000000 9a 92 0f be e3 90 b4 be 1a d8 9f 3e 94 6a 07 3f
       -0.14020768 -0.3526679 0.3121956 0.52897
000010 c2 86 ab 3e 61 98 f2 bc b6 cd a1 bd 96 33 85 be
       0.3350125 -0.029613676 -0.079005644 -0.2601592
000020 2a 82 a6 be b3 51 2f bd
       -0.32521182 -0.042802524
