output/models_cifar10_210.pth (torch_old, 248636 bytes, 10 tensors)

layer1.conv1.weight f4 [6, 1, 5, 5]
0	0x3c558e4b	0.013034414
1	0xbe45d700	-0.19320297
2	0x3d33c22a	0.04388634
3	0xbe00add5	-0.12566312
4	0xbd82f721	-0.06394792
5	0x3e9068d1	0.2820497
6	0xbe59c062	-0.21264794
7	0x3ed72e6e	0.4202761
8	0xbdb3bc05	-0.08776096
9	0x3e5b4826	0.21414241
10	0x3db9ba3b	0.09068724
11	0xbf07e10b	-0.53077763
12	0x3ebf30d1	0.3734193
13	0xbea779a3	-0.3270999
14	0xbd4f991a	-0.05068312
15	0x3ea07686	0.31340426
16	0xbf05ede5	-0.52316123
17	0x3f10639e	0.56402004
18	0xbe830a33	-0.2559372
19	0x3dd93388	0.10605532
20	0x3e5e7be3	0.21726947
21	0xbf0801ff	-0.53128046
22	0x3ee62d56	0.44956464
23	0xbe3a0fac	-0.18170041
24	0xbcb69af4	-0.022290684
25	0xb8d37403	-0.00010082873
26	0xbcd6f5e7	-0.026240302
27	0xbd040966	-0.032235526
28	0x3da17db7	0.07885306
29	0xbce33a3c	-0.02773773
30	0x3d35152a	0.044209637
31	0x3e0baa00	0.13639069
32	0xbef009b4	-0.46882403
33	0x3dbdf622	0.09275462
34	0x3e4ab390	0.1979506
35	0xbd85e849	-0.065384455
36	0x3e93f8a2	0.2890063
37	0x3ec48a11	0.38386586
38	0xbf6f82cd	-0.9355896
39	0x3e89ac0f	0.26889083
40	0x3d9e0008	0.0771485
41	0xbeed838e	-0.4638943
42	0x3f27227b	0.6528699
43	0x3dfeb47d	0.12436769
44	0xbeb32890	-0.34991884
45	0x3bd54dc8	0.0065095164
46	0x3d5263b1	0.051364604
47	0xbea728af	-0.32648227
48	0x3ead0e1b	0.33799824
49	0xbd9484de	-0.07251905
50	0xbce8f7e1	-0.02843851
51	0xbb9c5f7e	-0.0047721257
52	0xbd449745	-0.047995824
53	0x3e013d72	0.12621096
54	0x3d0ed9ce	0.034875683
55	0xbd41bdf3	-0.04730029
56	0xbcceaa2a	-0.025227625
57	0x3e149439	0.14509667
58	0x3d429b5f	0.047511455
59	0xbd6fc73e	-0.05853962
60	0xbe95692a	-0.29181796
61	0x3c5c6c0a	0.013453493
62	0x3e8671b0	0.26258612
63	0xbdcb071f	-0.099134676
64	0xbd3588d6	-0.04431995
65	0xbeb09cb8	-0.34494567
66	0x3e9e0896	0.30865926
67	0x3e46735d	0.19379945
68	0xbd7ec60b	-0.062200587
69	0x3c6dc563	0.014512393
70	0xbedd8916	-0.4326865
71	0x3e91ce54	0.28477728
72	0xbc80c618	-0.015719458
73	0x3d35cdb4	0.044385627
74	0xbdb3728a	-0.08762081
75	0xbdb9f8a3	-0.09080627
76	0xbe9e52f5	-0.30922666
77	0xbdc18300	-0.094488144
78	0xbd51226c	-0.051058218
79	0x3d7b2b4c	0.061320588
80	0x3e7b31bd	0.24530692
81	0x3f3ad755	0.7298482
82	0x3ec2385b	0.3793362
83	0x3e48fba3	0.19627242
84	0xbba5ea8d	-0.005063361
85	0xbdd6e00c	-0.10491952
86	0xbeca36c3	-0.39494905
87	0xbe6b4656	-0.2297605
88	0xbd749ba9	-0.05971876
89	0xbd5251fe	-0.051347725
90	0x3dc2c55c	0.095102996
91	0xbd08405c	-0.033264503
92	0xbdc26ad1	-0.0949303
93	0x3db2022e	0.08691822
94	0x3e292375	0.16517432
95	0xbd8954b9	-0.06705613
96	0xbb2d4c31	-0.0026443119
97	0xbd2c1551	-0.042012516
98	0xbdcdc187	-0.10046678
99	0xbd9d4d7f	-0.07680797
100	0xbda559a2	-0.08073737
101	0x3d255dfd	0.040372837
102	0xbba9c330	-0.005180739
103	0x3dac05be	0.08399533
104	0xbda8ba95	-0.08238713
105	0x3b75e341	0.0037519487
106	0x3da21c19	0.079155155
107	0x3d581f29	0.05276409
108	0xbdf621de	-0.120181784
109	0x3dec9a48	0.11552864
110	0xbe73d208	-0.2381059
111	0xbeab5fab	-0.33471426
112	0xbdb7219c	-0.08941957
113	0x3ab54f7b	0.0013832891
114	0xbe8ad6b5	-0.27116933
115	0x3e4b1e1b	0.19835703
116	0x3e26c734	0.16286927
117	0xbe1fc657	-0.15603004
118	0xbda5058b	-0.08057698
119	0x3e2beade	0.16788813
120	0xbd14eae0	-0.036356807
121	0x3d204d31	0.039136115
122	0x3e093203	0.13397984
123	0x3d17c945	0.03705718
124	0xbdc1747f	-0.09446048
125	0x3d21bda5	0.0394875
126	0xbe537049	-0.20648302
127	0x3e928ddf	0.28623864
128	0xbc9b88c3	-0.018986112
129	0xbd871ce0	-0.06597304
130	0xbe023175	-0.12714179
131	0x3eb7e3e1	0.35916045
132	0x3ea2276a	0.31670696
133	0xbf0f8e6d	-0.560767
134	0x3bb5446b	0.0055318377
135	0x3e05e12a	0.13074175
136	0x3eb04cdd	0.34433642
137	0xbf6c1b60	-0.9222927
138	0x3d362968	0.04447308
139	0x3e8fa58e	0.28055996
140	0xbbc86ef1	-0.006116741
141	0xbe8d1a4b	-0.27559122
142	0xbdc9df52	-0.09857048
143	0x3f0f9d0a	0.56099
144	0xbe45e6f1	-0.19326378
145	0x3dd6304e	0.10458432
146	0xbdfbcc9b	-0.12294885
147	0x3e500d15	0.2031749
148	0xbe0d51fd	-0.13800807
149	0x3bed1dc6	0.0072362153

layer1.conv1.bias f4 [6]
0	0xbe90d5d4	-0.28288138
1	0xbe8b2f29	-0.27184418
2	0xbe9333a3	-0.28750333
3	0xbe8886ec	-0.26665437
4	0xbe8d66e3	-0.2761756
5	0xbe99bdba	-0.30027562

layer2.conv2.weight f4 [16, 6, 5, 5]
0	0x3d511837	0.051048484
1	0x3ca3cfdb	0.019996574
2	0x3c0d675c	0.0086306
3	0x3e15d708	0.14632809
4	0x3d157b7a	0.03649471
5	0x3d8aab68	0.067709744
6	0xbda174f2	-0.07883634
7	0x3db8234f	0.089911096
8	0x3c889013	0.016670262
9	0x3dcb0345	0.09912733
10	0xbb169271	-0.002297547
11	0x3d14b954	0.036309555
12	0xbd10b527	-0.03532901
13	0x3cb3f3e1	0.021966876
14	0x3daf6063	0.08563306
15	0x3ded7242	0.115940586
16	0xbe137b08	-0.14402401
17	0x3c92b384	0.017907865
18	0x3e00c7ce	0.1257622
19	0xbca2738f	-0.019830493
20	0xbe8dd01d	-0.2769784
21	0xbe9d9ed2	-0.30785233
22	0xbf2baec4	-0.67063546
23	0xbf310050	-0.691411
24	0xbec03606	-0.37541217
25	0x3e8f5401	0.27993777
26	0x3e064ad8	0.13114488
27	0x3c8b48fe	0.017002579
28	0xbd4cda4b	-0.050012868
29	0x3e0c9331	0.13728024
30	0x3e2e1804	0.17001349
31	0x3e259469	0.16169895
32	0x3deddc12	0.11614241
33	0x3de88f42	0.11355449
34	0x3e0bd386	0.13654909
35	0x3ec87beb	0.39157042
36	0x3e33a9ca	0.17545238
37	0x3e14112b	0.14459674
38	0x3dc7ee9d	0.09762309
39	0x3e355f65	0.17712171
40	0x3eaaf71f	0.33391663
41	0x3e65fdf2	0.22460154
42	0x3e425ea5	0.18981417
43	0x3d43d42e	0.047809772
44	0xbdc81c56	-0.0977103
45	0x3ed406d4	0.4141146
46	0x3d25b82a	0.040458836
47	0xbe0cedca	-0.13762584
48	0xbe0fa346	-0.14027128
49	0xbd0d1a4f	-0.034448918
50	0x3dd772c8	0.1051994
51	0x3e2aa5d0	0.16664815
52	0x3c906d02	0.017630104
53	0x3e23ff51	0.16015364
54	0xbd262820	-0.04056561
55	0x3d8a3869	0.06749041
56	0x3c1b1006	0.0094642695
57	0x3d8da357	0.0691592
58	0xbdb748ba	-0.08949418
59	0x3e3fd8fe	0.1873512
60	0xbda7d84d	-0.08195553
61	0xbc7a0078	-0.015258901
62	0x3d7856d3	0.060629677
63	0x3e00467b	0.12526886
64	0xbd5ff2b1	-0.054674808
65	0xbe39b015	-0.18133576
66	0xbd41a784	-0.047278896
67	0xbdbbc06e	-0.091675624
68	0x3e15c8c0	0.14627361
69	0x3e1d2a4a	0.15348163
70	0xbdf1676b	-0.117873035
71	0xbe8870a1	-0.2664843
72	0xbeee8ba6	-0.46590918
73	0xbed67daa	-0.4189275
74	0xbe262c1d	-0.16227765
75	0x3e9c2909	0.30500057
76	0xbe0d2cb1	-0.1378658
77	0xbd48a1e4	-0.048982516
78	0xbd92eb34	-0.07173768
79	0x3e28d0dc	0.16485924
80	0x3e703b5d	0.23460145
81	0x3c94d805	0.018169412
82	0x3e156686	0.14589891
83	0x3d2633f5	0.040576894
84	0x3c182b8f	0.009287729
85	0x3d7eb2fb	0.062182408
86	0x3e8231df	0.25428674
87	0x3e0c86d3	0.13723306
88	0x3e6e4b69	0.23270954
89	0x3c3dfd7f	0.011596083
90	0xbe31e882	-0.17373851
91	0x3e58eba1	0.21183635
92	0x3e368b5e	0.17826602
93	0x3e836c0d	0.25668374
94	0xbd9511b7	-0.072787695
95	0xbdaefd8d	-0.08544455
96	0x3e400bed	0.1875455
97	0x3e7103cd	0.23536606
98	0x3e9acda6	0.30235022
99	0x3ea53a33	0.32270965
100	0x3e758536	0.23976597
101	0xbceec160	-0.029144943
102	0x3c945a06	0.018109333
103	0x3df0093c	0.11720511
104	0x3df2a780	0.11848354
105	0x3ec87d6c	0.3915819
106	0x3d90e778	0.07075399
107	0x3e34ab14	0.17643386
108	0x3bbc206f	0.005741171
109	0x3e6fa39d	0.23402257
110	0x3ea59d7d	0.32346717
111	0x3d762af6	0.060099564
112	0x3e7e0186	0.24805269
113	0x3d47e4e8	0.048802286
114	0x3eaee9c8	0.34162736
115	0x3df1da43	0.11809208
116	0x3e20cd9c	0.15703434
117	0x3f06fa42	0.52725613
118	0x3e99b8db	0.30023846
119	0x3c15c6ce	0.009141637
120	0xbe9a31f4	-0.30116236
121	0x3f06dc80	0.52680206
122	0x3f1cde58	0.6127677
123	0x3e04e2df	0.1297717
124	0xbe7581d3	-0.23975305
125	0xbd52ab1c	-0.051432714
126	0xbdbede4f	-0.09319746
127	0x3d327c60	0.043575644
128	0x3d5cead4	0.053934887
129	0x3d3b2f10	0.04569918
130	0xbd779674	-0.060446218
131	0xbe1adc79	-0.15123166
132	0x39aff377	0.00033559997
133	0x3e12a7e4	0.14321858
134	0x3e8f36f7	0.27971622
135	0x3d1b7e11	0.037962023
136	0xbdd2ce8f	-0.10293304
137	0x3be456cc	0.006968355
138	0x3dd9af1c	0.106291026
139	0x3e350a58	0.17679727
140	0xbd7d070e	-0.061774306
141	0x3d50abfa	0.05094526
142	0xbd8cb814	-0.068710476
143	0x3ddb6e0f	0.107143514
144	0x3e7c569a	0.24642411
145	0x3d475b7e	0.048671238
146	0x3da59769	0.0808552
147	0xbe108ea7	-0.14116918
148	0x3c8dacb8	0.017294273
149	0x3e874b7d	0.2642478
150	0xbd8913eb	-0.06693252
151	0x3d9cccd2	0.07656254
152	0x3c94c2e7	0.018159343
153	0x3df324bd	0.11872242
154	0xbe0566da	-0.13027516
155	0x3df99637	0.12186854
156	0xbdb2de4a	-0.087338045
157	0x3dcba5a6	0.09943704
158	0xbe4187ad	-0.18899412
159	0x3bfd33c3	0.0077271177
160	0x3e304332	0.17213133
161	0x3ea9fc4a	0.33200294
162	0xbe449607	-0.19197856
163	0xbc375138	-0.011188798
164	0x3d03e751	0.032203022
165	0xbe34aac1	-0.17643262
166	0xbe9686bd	-0.29399672
167	0x3d966229	0.07342941
168	0xbce39503	-0.027781015
169	0xbe84ca5f	-0.25935647
170	0xbdb2732d	-0.08713374
171	0x3e0d6691	0.13808657
172	0xbe8962c9	-0.2683318
173	0xbec312ee	-0.3810038
174	0xbe0fade0	-0.14031172
175	0x3e35045b	0.17677443
176	0x3e31a010	0.17346215
177	0x3e0b83ca	0.13624492
178	0x3e8c1377	0.273586
179	0x3dc60383	0.096686386
180	0x3ddcf439	0.10788769
181	0x3d990c22	0.07473017
182	0xbe7c7e9a	-0.2465767
183	0x3e9c5057	0.30530044
184	0x3e4508d5	0.1924165
185	0xbe8395bf	-0.25700185
186	0x3e826cdd	0.2547368
187	0xbee86778	-0.4539144
188	0x3e640518	0.22267568
189	0xbc1c2f85	-0.009532814
190	0x3cd671f3	0.026177382
191	0xbe054590	-0.13014817
192	0xbec4bf9e	-0.38427442
193	0xbf08eb4d	-0.5348404
194	0x3de42645	0.11140112
195	0x3e7ecb73	0.24882297
196	0x3e9cd893	0.30633983
197	0x3f0aa56d	0.5415867
198	0xbd2ce181	-0.042207245
199	0xbee49c28	-0.44650388
200	0xbc9a7b7b	-0.018857708
201	0x3da9b3b2	0.08286227
202	0x3e060a7c	0.13089937
203	0xbd43fba6	-0.047847413
204	0x3dc41e35	0.09576074
205	0x3d8cf48a	0.068825796
206	0xbe9ef02b	-0.3104261
207	0x3d766308	0.060153037
208	0x3e30b906	0.17258081
209	0xbeaa0a9f	-0.33211228
210	0x3e0cf7c6	0.13766393
211	0x3ec26ca3	0.37973508
212	0xbe509f72	-0.20373324
213	0x3f27a7ed	0.6549061
214	0x3cff6d81	0.031180145
215	0xbc4be759	-0.012445294
216	0x3e33401a	0.17504922
217	0x3e5f5bd9	0.21812381
218	0x3e809cb2	0.2511955
219	0x3e6ac7ee	0.2292783
220	0x3de5c9ac	0.112201065
221	0xbdc65734	-0.096846014
222	0x3da0dfc4	0.0785518
223	0xbcdf3ade	-0.02724975
224	0x3e9bad5b	0.30405697
225	0x3d1d2b8f	0.03837162
226	0x3dbdfd0a	0.09276779
227	0xbe12d8d7	-0.1434053
228	0xbd96c8ff	-0.07362556
229	0x3e1ca972	0.15299013
230	0xbd4c8efa	-0.04994104
231	0x3dec35af	0.11533677
232	0xbe630c50	-0.22172666
233	0xbe85fda9	-0.2617009
234	0x3e191c3e	0.1495218
235	0xbe6fd694	-0.23421699
236	0xbdb75888	-0.08952433
237	0xbdf5999f	-0.119921915
238	0xbea7576b	-0.32683882
239	0xbdd374c3	-0.10325005
240	0x3db177f2	0.08665456
241	0xbe631fe9	-0.22180142
242	0xbe118276	-0.14209923
243	0xbe67560c	-0.22591418
244	0xbe84c07a	-0.25928098
245	0x3e19f223	0.15033774
246	0xbde4374e	-0.11143361
247	0xbd3a84ba	-0.045536734
248	0x3e5b178a	0.21395698
249	0xbe9a08d2	-0.30084854
250	0x3e1efd27	0.15526257
251	0x3e2174e2	0.15767244
252	0xbec61d2f	-0.3869414
253	0xbddeb2b1	-0.108739264
254	0x3e12562f	0.14290689
255	0xbe74f30d	-0.23920842

layer2.conv2.bias f4 [16]
0	0xbf0ec8e3	-0.5577528
1	0xbf399522	-0.72493184
2	0xbf189ece	-0.59617317
3	0xbef05a66	-0.4694397
4	0xbf260994	-0.64858365
5	0xbef544a7	-0.4790394
6	0xbefd57c6	-0.49481028
7	0xbea8a4be	-0.32938188
8	0xbf2d10fc	-0.6760404
9	0xbf1456af	-0.5794477
10	0xbee1b7ac	-0.44085443
11	0xbeb7a29b	-0.35866246
12	0xbe9df6d2	-0.3085237
13	0xbf125ac6	-0.5716976
14	0xbf0dd1d1	-0.5539828
15	0xbec6ed90	-0.3885312

layer3.fc1.weight f4 [120, 400]
0	0xbc8490a0	-0.016182244
1	0x3ab0c854	0.0013487437
2	0x3bfe7143	0.0077649667
3	0x3b30bf83	0.0026969619
4	0xbc6a4434	-0.014298487
5	0xbb80535c	-0.003916187
6	0xbbbc0f8c	-0.005739158
7	0x3bad8339	0.005295184
8	0xbc8c4903	-0.017124658
9	0xbc547680	-0.012967706
10	0x3c56a73a	0.013101393
11	0xbb479a03	-0.0030456788
12	0x3c1f636c	0.009728294
13	0x3d0d6652	0.03452141
14	0xbc47103a	-0.012149865
15	0xbabfc873	-0.0014631882
16	0x3c8a9d76	0.016920786
17	0xbb0f40c6	-0.0021858676
18	0x3c1d5bb5	0.009604384
19	0xbaf8adab	-0.0018972656
20	0x3b9b2616	0.004734765
21	0xbb872145	-0.004123839
22	0x3bdfe5cc	0.006832814
23	0x3cefbe7a	0.029265631
24	0xbb733279	-0.0037108941
25	0x3be09b07	0.006854418
26	0x3c47e026	0.012199437
27	0x3cb8c35d	0.022554094
28	0x3c1f1ed1	0.009711937
29	0x3c95ef71	0.018302651
30	0xbc33372b	-0.010938446
31	0xbcb0951c	-0.021555476
32	0xbc4321d6	-0.011909923
33	0xbd195e3c	-0.037443385
34	0x3caa77ea	0.020809133
35	0x3d029c43	0.031887304
36	0xbc21efe6	-0.009883856
37	0x3c844ce5	0.016149947
38	0xbad77d2f	-0.0016440506
39	0xbc954ee2	-0.01822609
40	0x3b4347ea	0.0029797503
41	0xbcecc2f7	-0.02890156
42	0x3cb183d9	0.021669315
43	0x3cb3601a	0.02189641
44	0x3c62074d	0.013795686
45	0xbc6f9f93	-0.014625448
46	0xbbd9fe69	-0.0066526425
47	0xbc9a2d5b	-0.018820455
48	0xbc2e4906	-0.010637527
49	0x3c105ac5	0.008810704
50	0xbcfe0209	-0.03100683
51	0x3c69bc5c	0.0142661
52	0xbc6cdfbe	-0.014457641
53	0xbc668c7e	-0.014071582
54	0xbbde86ce	-0.0067909723
55	0xbd0bb89e	-0.03411161
56	0x3ba0ccf2	0.004907244
57	0x3b8ae7d8	0.0042390637
58	0x3bfb980b	0.007678037
59	0x3b4c0587	0.0031131224
60	0x3c49c67a	0.012315387
61	0x3ca75a61	0.020428838
62	0xbce1db08	-0.027570263
63	0xbca4f4be	-0.020136233
64	0x3a23f8c5	0.0006255026
65	0xbc38cc28	-0.011279143
66	0xbb1c1307	-0.0023815052
67	0xbd0df2d2	-0.0346554
68	0x3bfa3f32	0.007636928
69	0xbb1904af	-0.002334874
70	0x3cd396b7	0.025828702
71	0xbcef673d	-0.029224033
72	0xbd08ac50	-0.033367455
73	0x399c4d58	0.00029812264
74	0x3d023239	0.031786177
75	0x3c20e39d	0.009819892
76	0xbc03d9e8	-0.008047558
77	0x3c2543dd	0.010086981
78	0x3c19e7e0	0.009393662
79	0xbd8aa353	-0.06769433
80	0x3c894dd5	0.016760746
81	0xbcd6d4d5	-0.026224533
82	0xbcd2f0e0	-0.025749624
83	0x3d279f4d	0.040923405
84	0xbc70dcf5	-0.014701118
85	0x3c32628c	0.010887753
86	0xbbac8f6d	-0.005266121
87	0xbba4f44e	-0.005034006
88	0x3c187464	0.009305093
89	0x3c0c930c	0.008579981
90	0xbbcfbe59	-0.00633983
91	0xbc2ea6a2	-0.010659846
92	0x3c809e44	0.015700467
93	0x3ce319d8	0.027722284
94	0xbb2e2450	-0.0026571937
95	0xbc3a97c4	-0.011388723
96	0xbc83ec41	-0.016103866
97	0x3c3d6299	0.011559152
98	0x3cbcf18a	0.023064394
99	0x3c31d6da	0.010854447
100	0x3d3b2991	0.045693938
101	0xb9b21022	-0.00033962826
102	0x3cadde4a	0.02122416
103	0xbb25a82e	-0.0025277245
104	0x3c97b412	0.018518481
105	0x3bf716a1	0.0075405394
106	0xbc0b5731	-0.008504675
107	0x3cf687bd	0.030094022
108	0x3a4c5641	0.0007794835
109	0xbc6b245b	-0.01435193
110	0xbc306f66	-0.010768747
111	0xbc833b1f	-0.016019402
112	0x3c799262	0.015232654
113	0x3abf3bf6	0.0014590013
114	0x3b17f333	0.002318573
115	0x3b748f67	0.003731692
116	0x3c09a27d	0.008400557
117	0xbc3ad1e8	-0.011402585
118	0xbb60bfc2	-0.0034293984
119	0xbc668874	-0.014070619
120	0x3c6199f8	0.013769619
121	0x3d56e489	0.05246404
122	0x3c2406cf	0.010011389
123	0xbc8b243c	-0.016985051
124	0x3bafdb15	0.005366693
125	0x3b818b33	0.0039533614
126	0x3bf16840	0.007367164
127	0x3c6ad13c	0.014332112
128	0xbc699538	-0.014256768
129	0x3c2c8c88	0.010531552
130	0xbbd66113	-0.006542334
131	0xbb9c9eba	-0.004779664
132	0x3b841930	0.004031323
133	0xbb8b5cc1	-0.0042530005
134	0xbc3a9ec0	-0.011390388
135	0xbc267706	-0.010160213
136	0x3c6cee50	0.014461115
137	0x3bc7feef	0.0061033885
138	0xbc2aa060	-0.010414213
139	0x3bbdb9bf	0.005789965
140	0xbc74d556	-0.014943441
141	0x3c9f99fc	0.019482605
142	0x3cd9eac1	0.026601197
143	0xbbbb177b	-0.005709586
144	0x3c29a1f7	0.010353557
145	0xbbd04c27	-0.0063567343
146	0x3c309557	0.010777793
147	0x3b96eb42	0.0046056816
148	0xbbeff3f3	-0.007322782
149	0x3c845c59	0.016157316
150	0x3c92b0f7	0.017906649
151	0xbb89ce25	-0.0042054825
152	0xbc35c635	-0.0110946195
153	0x3ba55e5d	0.0050466494
154	0x3c41729c	0.01180711
155	0xbcb37adf	-0.021909175
156	0x3bc83a6f	0.0061104815
157	0xbb1feab0	-0.002440136
158	0x3c4a1730	0.01233463
159	0xbb404622	-0.0029338677
160	0xbc5021ca	-0.012703368
161	0xbbaddb77	-0.0053057033
162	0xbc06b007	-0.008220679
163	0x3b70a98d	0.0036722154
164	0x3ad46c71	0.0016206634
165	0x3bfc7916	0.0077048643
166	0xbbfa16f3	-0.0076321303
167	0x3ca9afb6	0.020713668
168	0xbc3a71b0	-0.011379644
169	0x3a9aa058	0.0011797054
170	0x3ccc8622	0.024966303
171	0x3cacf12e	0.021111097
172	0x3c52d0b0	0.012867138
173	0x3bc0d357	0.0058845687
174	0xbc0e07bb	-0.008668835
175	0xbcdf9eb5	-0.027297357
176	0xbcc42858	-0.023945019
177	0xbc807005	-0.015678415
178	0xbb9cc98c	-0.0047847684
179	0xbc934b50	-0.017980248
180	0xbc821d35	-0.015883068
181	0xbcb6df9e	-0.022323426
182	0xbbc32355	-0.0059551396
183	0xbc2b730b	-0.01046444
184	0x3a9aea7c	0.0011819149
185	0x3c593ce3	0.013259145
186	0x3ca15281	0.019692661
187	0x3ca885af	0.020571558
188	0x3d3c4e1c	0.04597293
189	0x3cc9a35e	0.024614032
190	0xbb1a6dfa	-0.0023564086
191	0x3c89bed2	0.016814623
192	0x3c26bea7	0.010177291
193	0x3ca76ee7	0.020438625
194	0x3bcf1b75	0.006320412
195	0xbc8bc7f9	-0.017063128
196	0xbc9bfb38	-0.019040689
197	0xbc8957ef	-0.016765563
198	0xbcf4a194	-0.029862203
199	0xbd8f84a8	-0.07007724
200	0x3cb0e8f4	0.021595456
201	0x3bd5dbf1	0.006526463
202	0x3ba8af65	0.005147862
203	0x3c781b43	0.015143218
204	0xbb2cc2c6	-0.0026361211
205	0xbc06eec5	-0.008235638
206	0x3cabf8c1	0.020992639
207	0xbc96c391	-0.0184038
208	0x393e1774	0.00018128549
209	0x3d11abcb	0.035564225
210	0x3c44eec8	0.0120198205
211	0xbc6a449e	-0.014298586
212	0xbcd83232	-0.026391122
213	0xbcb0a779	-0.021564232
214	0x3c262ba4	0.010142241
215	0x3c400174	0.011719096
216	0xbd0fe736	-0.03513261
217	0xbcbf8a7d	-0.023381466
218	0x3c1dc206	0.009628778
219	0x3a895bee	0.0010479668
220	0xbcbc9833	-0.023021793
221	0xbcd64746	-0.026157033
222	0xbd0bda80	-0.034143925
223	0x3c12992b	0.008947651
224	0x3c744fd9	0.014911615
225	0xbc472f4a	-0.012157271
226	0x3ba81afb	0.0051301694
227	0xbbf28222	-0.007400767
228	0xbd219081	-0.03944445
229	0xbc96a8ae	-0.01839098
230	0xbd1e14a0	-0.03859389
231	0xbc1406e2	-0.009034844
232	0x3cd9d467	0.02659054
233	0xbbe4df5f	-0.0069846357
234	0xbc9a9fb2	-0.018874977
235	0x3a70a457	0.0009179762
236	0xbc7f803d	-0.015594539
237	0x3bece443	0.0072293594
238	0xbb4f7605	-0.0031656038
239	0xbb9fb056	-0.004873316
240	0xbbd024af	-0.0063520293
241	0xbc606c6c	-0.013697725
242	0xbd1f4773	-0.0388865
243	0xbb4fe29b	-0.003172076
244	0x3c6e0bcd	0.014529181
245	0xbc46990a	-0.012121448
246	0xbce9bdc2	-0.028532866
247	0xbc1dc89a	-0.009630347
248	0x3cb92523	0.022600716
249	0xbca14df7	-0.019690497
250	0xbc5f4214	-0.013626594
251	0xbd340018	-0.043945402
252	0xbc86364c	-0.016383313
253	0x3c6002cd	0.013672543
254	0x3cebbfc6	0.028777968
255	0x3c964399	0.01834278

layer3.fc1.bias f4 [120]
0	0xbbb8c05a	-0.0056381645
1	0xbb1e63ad	-0.0024168298
2	0x3c778063	0.015106293
3	0xbb351c5c	-0.0027635312
4	0xbc5593be	-0.013035713
5	0xb89be495	-7.433553e-05
6	0x3ba2b14e	0.004964984
7	0x3c2fffe0	0.010742158
8	0xbca961e6	-0.020676564
9	0xbb82e420	-0.00399448
10	0x3c638fe6	0.0138892885
11	0x3c6cb977	0.014448515
12	0x3d4fb259	0.050707195
13	0xbc4fc89e	-0.012682108
14	0xbc9984c5	-0.018740067
15	0x3c370afd	0.011172053
16	0x3c2697de	0.010168044
17	0xbc09b8d2	-0.008405881
18	0x3bfc4297	0.007698368
19	0xbaf0890c	-0.001835139
20	0xbbed9685	-0.0072506093
21	0x3b28ba41	0.0025745782
22	0x3c20f1bd	0.00982326
23	0xbca46038	-0.020065412
24	0xbbfbe202	-0.0076868543
25	0xbbfaed81	-0.007657707
26	0x3b27ff01	0.0025634172
27	0xbb0770ac	-0.0020666523
28	0x3c10ec34	0.008845378
29	0x3cba868c	0.022769235
30	0xbbf229b3	-0.007390225
31	0xbc1e88d4	-0.009676177
32	0x3e62ed9d	0.22160955
33	0x3b5c4000	0.0033607483
34	0xbbd817f1	-0.006594651
35	0x3af5e326	0.0018759712
36	0xbd587220	-0.052843213
37	0xbe573579	-0.21016492
38	0x3b1213a6	0.0022289543
39	0xbb85b41f	-0.00408031
40	0x38a0815a	7.653488e-05
41	0xbabf6d57	-0.0014604729
42	0xbad29ad6	-0.0016067873
43	0x3decef93	0.11569133
44	0xbac53bfa	-0.0015047782
45	0x3bbd28d6	0.0057726903
46	0xbc01ff33	-0.007934379
47	0xbbf7f184	-0.0075666327
48	0x3bc524a5	0.0060163313
49	0xbbc38fb8	-0.0059680603
50	0xbc42232e	-0.011849208
51	0xba94e999	-0.0011361121
52	0x3bb15499	0.005411696
53	0xbca258dd	-0.019817764
54	0x3c229e1a	0.00992539
55	0xbb62ab92	-0.0034587127
56	0x3b028cab	0.001992027
57	0xbc491d18	-0.012275003
58	0xbb8febfb	-0.0043921447
59	0xba6ef93f	-0.000911612
60	0xbb0cfe1b	-0.0021513763
61	0xbb899726	-0.0041989265
62	0x3a197a61	0.00058547227
63	0x3e05ad2c	0.13054341
64	0xbdb3e99e	-0.08784793
65	0x3c6a913e	0.014316855
66	0xbb1c6d2f	-0.002386879
67	0xba4a7fe9	-0.00077247486
68	0xbc33a34f	-0.010964229
69	0x3c920d99	0.01782875
70	0xbc39e563	-0.011346194
71	0xba9f388e	-0.0012147592
72	0x3bfca597	0.0077101695
73	0x3c57fd34	0.013182927
74	0x3c237388	0.009976275
75	0xbcba8feb	-0.022773704
76	0x3bfffc57	0.0078120637
77	0x3b651b5e	0.003495894
78	0x39c8ea0f	0.0003832136
79	0x3c7c3d4a	0.015395472
80	0xbc27296a	-0.010202745
81	0xbbf53736	-0.0074833883
82	0x3cd0d8a3	0.025493925
83	0x3c045836	0.008077672
84	0x3afb0d27	0.00191537
85	0xbc13e765	-0.009027337
86	0xbc2e3969	-0.010633805
87	0x3c5cd5d7	0.013478718
88	0xbb2ea7a3	-0.0026650212
89	0xb9dae08e	-0.00041747506
90	0xbc62937f	-0.013829111
91	0x3bd56811	0.00651265
92	0x3bb47f74	0.0055083577
93	0x3ab13e1d	0.001352254
94	0xbbdf4664	-0.006813811
95	0xbcea2003	-0.028579718
96	0x3b4a3f70	0.0030860566
97	0x3bfdec34	0.007749105
98	0x3dec33ae	0.115332946
99	0x3b973975	0.0046150037
100	0xbc1a6ad2	-0.009424882
101	0xbb0353e0	-0.0020039007
102	0x3b908305	0.00441015
103	0xbba2971a	-0.0049618604
104	0x3c7bee32	0.015376614
105	0x3a9ac37d	0.0011807528
106	0x3a90feb7	0.0011062239
107	0x3bc75cbc	0.006084053
108	0x3c68443f	0.014176427
109	0xbcab352e	-0.020899381
110	0xbc5a3637	-0.01331859
111	0x3c31b1a1	0.010845573
112	0x3ec8e2a5	0.39235416
113	0xbabc1954	-0.001435081
114	0x3bd02fd6	0.0063533587
115	0xbc1b22fe	-0.009468792
116	0x3c45e0eb	0.01207755
117	0x3c3db5a6	0.011578953
118	0x3cab453c	0.020907037
119	0x3e860a4c	0.2617973

layer3.fc2.weight f4 [84, 120]
0	0x3c89cb9b	0.01682072
1	0x3bef7e9d	0.0073087947
2	0x3b9df516	0.0048204763
3	0xbac38f21	-0.0014919975
4	0xbb8d76e8	-0.0043171532
5	0xbc61df6f	-0.013786181
6	0xbac66e09	-0.0015138994
7	0x392bfe93	0.00016402667
8	0xbab8d411	-0.0014101287
9	0x3bedc56f	0.007256202
10	0xbbed0270	-0.0072329566
11	0x3bb85cdc	0.005626304
12	0x3c562eb8	0.013072662
13	0x3b595e74	0.003316787
14	0xbc15e33a	-0.009148413
15	0xbc0622c9	-0.008187004
16	0xbb77015d	-0.0037690022
17	0x3b9a95eb	0.0047175786
18	0x3ba23659	0.0049503264
19	0xbab6d8aa	-0.0013950069
20	0x3b7d14ee	0.0038617211
21	0x3c16fa5d	0.009214965
22	0x3c49de18	0.012321018
23	0x3ade68ba	0.0016968467
24	0x3c18bb48	0.009321995
25	0x3bfaa8d5	0.007649521
26	0x3b7aee5e	0.003828905
27	0x38814d64	6.1656145e-05
28	0xba08d6d8	-0.00052200025
29	0x3b2df339	0.0026542677
30	0xba98bf64	-0.0011653719
31	0x3c12f25a	0.008968914
32	0xb99da713	-0.00030069854
33	0xbc14f969	-0.009092667
34	0x3bc11689	0.005892579
35	0xbb194ca0	-0.002339162
36	0xbbf45165	-0.007455992
37	0x3bd59eba	0.006519166
38	0x3be148ea	0.006875147
39	0x3bfcbaf8	0.007712718
40	0xbb598321	-0.0033189731
41	0xbbbc41ba	-0.00574514
42	0x3b6fe143	0.0036602772
43	0x3c30991c	0.010778692
44	0x3b8b3bc3	0.0042490675
45	0xbc1c85cb	-0.009553383
46	0x3a833f81	0.0010013432
47	0x3c1bd3ce	0.009510947
48	0x3babbdb8	0.005241122
49	0x3c02d0c4	0.007984344
50	0xbbaca01f	-0.0052681114
51	0x3b08881a	0.0020833076
52	0x3c23ec57	0.010005078
53	0x3ba20d73	0.004945451
54	0x3b6d8e81	0.003624827
55	0x3b09a512	0.002100293
56	0xbad6ed3b	-0.0016397604
57	0x3ba90980	0.005158603
58	0x3c949837	0.018138988
59	0xbb947e8e	-0.004531688
60	0x3b5abf23	0.0033378087
61	0xbba56b8a	-0.00504822
62	0xbb834ed1	-0.0040071984
63	0xbaea8a98	-0.0017894087
64	0x3b7ffa0e	0.0039058956
65	0x3bfd639e	0.0077328226
66	0x3aa151a6	0.0012307658
67	0x3c0e26a4	0.008676205
68	0xbc167cf4	-0.009185065
69	0x3cc6b964	0.024258323
70	0xbb9325cf	-0.004490591
71	0xbbceee7c	-0.0063150506
72	0xbbc6a9da	-0.0060627284
73	0x3b2e243b	0.0026571888
74	0x3c145c88	0.009055264
75	0x3c6f9a14	0.014624137
76	0xbc1ef84d	-0.009702754
77	0x3bdf216b	0.0068094037
78	0xbc1cb527	-0.009564674
79	0x3cb6ec8f	0.022329597
80	0xbb38e2ff	-0.0028211472
81	0xbc262e79	-0.010142916
82	0x3be6283b	0.007023839
83	0x3bb30932	0.0054637427
84	0xbb42980c	-0.0029692678
85	0xbc0d6d8f	-0.008632078
86	0xba16c25a	-0.00057510065
87	0x3bba82e8	0.005691875
88	0xbc65805c	-0.014007654
89	0x3bb03889	0.0053778333
90	0x3bae98a7	0.005328256
91	0x3b84c36b	0.004051616
92	0xbc106807	-0.008813865
93	0x3b3c87b6	0.0028767413
94	0x3b32473b	0.0027203101
95	0xba98cda3	-0.0011657964
96	0x390068a9	0.0001224602
97	0xbc1b26f0	-0.009469733
98	0xbc06da56	-0.008230766
99	0x3c796f91	0.015224353
100	0x3bc32123	0.005954878
101	0xbc25bfa0	-0.010116488
102	0xbc2ab835	-0.010419895
103	0xbaabde56	-0.0013112526
104	0xbc53a429	-0.012917557
105	0xbb15d3f1	-0.0022861923
106	0xbc18dbd6	-0.009329757
107	0x3bb9be4e	0.005668438
108	0x3b691799	0.0035567044
109	0xbaa798e1	-0.001278665
110	0xbc2c69b9	-0.010523253
111	0x3be534d2	0.006994822
112	0x3bf4c07d	0.0074692355
113	0x398a06b7	0.00026326414
114	0x3bda3dc3	0.0066601946
115	0xbc05bfce	-0.008163406
116	0x3b495a17	0.0030723864
117	0xbc19035e	-0.009339182
118	0x3c497723	0.012296471
119	0x3c540e7f	0.012942909
120	0x3bd0d71c	0.0063732993
121	0xbb6bccd0	-0.0035980232
122	0x35821011	9.690431e-07
123	0xbbc4dfb7	-0.006008114
124	0x3a19b655	0.00058636564
125	0xba96e48d	-0.0011512205
126	0xbb825e19	-0.0039785025
127	0x3c1eb9ab	0.009687821
128	0xb8ea3652	-0.000111681074
129	0x3c236899	0.0099736685
130	0x3b112ea3	0.0022153042
131	0xbbb38f0b	-0.0054796985
132	0x3cb3b7b8	0.02193819
133	0x3b807330	0.0039199814
134	0x3b00d67d	0.0019659095
135	0xbc5078fe	-0.012724159
136	0xb99b0322	-0.00029566238
137	0xbbef5d11	-0.0073047956
138	0xba46e496	-0.00075871625
139	0x3c40c64a	0.011766026
140	0x3c02cf58	0.007984005
141	0x3b94813a	0.0045320066
142	0x3bbc623f	0.0057490165
143	0x3bbd4813	0.005776414
144	0x3c2c4e81	0.010516764
145	0x3baf5e0e	0.0053517884
146	0xb9f24bd3	-0.0004621433
147	0x3bb6a5e0	0.005573973
148	0xbb7672f2	-0.0037605134
149	0xbba5c637	-0.0050590294
150	0x3bbf4e92	0.0058382237
151	0x3a9c4d5d	0.0011924912
152	0x3bca209e	0.006168439
153	0xbbb0d198	-0.0053960793
154	0x3888a70d	6.516101e-05
155	0xbbc67d5c	-0.0060574245
156	0x3b24ca98	0.002514517
157	0x3afe05e5	0.0019380419
158	0x3909901f	0.00013119027
159	0x3ac497f9	0.0014998905
160	0xbb9e1572	-0.004824334
161	0xba89aa9c	-0.0010503116
162	0x3bd8ad5f	0.0066124643
163	0x3c0ab878	0.008466832
164	0x3b632281	0.0034658017
165	0xbbb67b8a	-0.005568926
166	0xbb12006d	-0.0022278086
167	0x3ba1fecf	0.0049437056
168	0xbb6d42f7	-0.0036203244
169	0xbbe3a05e	-0.0069466075
170	0x3b3ff386	0.0029289438
171	0xbb8133a2	-0.0039429227
172	0x3bd47a50	0.0064843073
173	0xbb9a1ac4	-0.0047028977
174	0xbc0c23db	-0.0085534705
175	0xb9cbcfaa	-0.000388739
176	0xbb9b9a47	-0.004748616
177	0xbc31f6df	-0.010862081
178	0x3c19beb4	0.009383846
179	0x3c34c6d5	0.011033733
180	0x3bfabc53	0.0076518445
181	0xb8d63fb5	-0.000102161815
182	0x3a9a8e2c	0.0011791638
183	0xbaf92f9f	-0.0019011385
184	0xbbcee086	-0.0063133864
185	0xbb92f60f	-0.004484899
186	0xbc0b62a0	-0.008507401
187	0x3ba5dab3	0.0050614714
188	0xba4b4a54	-0.0007754911
189	0x3bc7725f	0.006086632
190	0x3b035e96	0.0020045391
191	0xba0d20f7	-0.0005383635
192	0xbb014e18	-0.0019730385
193	0xbbb4c896	-0.005517076
194	0x39c85083	0.0003820696
195	0x3b25a970	0.0025277995
196	0x3adafe12	0.0016707799
197	0x3be09460	0.006853625
198	0xbc1b185b	-0.009466256
199	0x3c2d7284	0.010586385
200	0xbb351f98	-0.002763724
201	0x3c265dce	0.010154201
202	0x395929c4	0.00020710292
203	0x3b9fb56e	0.004873923
204	0xbb82fc98	-0.0039973967
205	0xbb13b4a8	-0.00225381
206	0x3bb81762	0.005618022
207	0xbb4d4f55	-0.0031327803
208	0xbbccd256	-0.00625066
209	0xbbd17fdd	-0.0063934163
210	0xba8f5259	-0.0010934576
211	0x3ad464c0	0.0016204342
212	0xbb3e8ade	-0.002907447
213	0xbc2820ac	-0.010261696
214	0x3c2c71f3	0.0105252145
215	0xbad25b73	-0.0016048983
216	0xbb0915cc	-0.0020917533
217	0x3bcbb98a	0.0062171863
218	0x3b964a71	0.004586511
219	0x3c333d2e	0.010939879
220	0x3bf970f6	0.007612343
221	0xbc2e5281	-0.010639788
222	0x3a0dc04e	0.0005407379
223	0x3b2a8a90	0.002602253
224	0xbb806b06	-0.003919008
225	0xbb9fc0c1	-0.004875273
226	0x3a26c0c3	0.0006361121
227	0xb93efac4	-0.0001821323
228	0x3b831575	0.0040003606
229	0x3ad5e707	0.0016319462
230	0x3a89ee42	0.0010523277
231	0xba1f633e	-0.0006080157
232	0x39576040	0.00020539854
233	0xbb525b11	-0.0032097737
234	0xbc2e0708	-0.010621794
235	0x3b87cc40	0.0041442215
236	0xb9d7cf74	-0.0004116256
237	0xbac6de9d	-0.0015172545
238	0x3b4ed6ee	0.0031561214
239	0x3c22027e	0.0098882895
240	0xba0d4bb3	-0.0005390003
241	0xbc9236d6	-0.017848413
242	0xbb7c7583	-0.003852219
243	0xbbdb7cfe	-0.00669825
244	0x3ca199eb	0.019726714
245	0xbba10900	-0.004914403
246	0xbb5e45d0	-0.0033916123
247	0x3b01a5c2	0.0019782637
248	0x3a8cc011	0.0010738393
249	0xb7e64d71	-2.7454198e-05
250	0xbbefa76b	-0.007313659
251	0x3b4c67dc	0.0031189835
252	0x3d1f6f98	0.038924783
253	0x3be02d3b	0.0068413294
254	0x3b898839	0.004197147
255	0xbae4c6ad	-0.001745423

layer3.fc2.bias f4 [84]
0	0xbbb154a8	-0.005411703
1	0x3b7d7dca	0.0038679712
2	0x3ba925c6	0.0051619736
3	0xbc1be598	-0.009515189
4	0xbd7d6024	-0.061859265
5	0x3abf5667	0.0014597893
6	0xbc07e8bf	-0.008295237
7	0xbbe2d413	-0.006922254
8	0x3aef686f	0.0018265377
9	0xbb0bdbe2	-0.0021340777
10	0x3e8a5c6c	0.27023637
11	0xbc12b0aa	-0.008953253
12	0xbbc91729	-0.006136794
13	0x3bfed31d	0.0077766315
14	0x3c196e9b	0.009364749
15	0x3bc1c0f0	0.0059128925
16	0x3ac11d04	0.0014733379
17	0x3bbd69c3	0.00578043
18	0xb80713ad	-3.2204833e-05
19	0xbacb9f3f	-0.001553513
20	0xbbbe7afb	-0.0058130003
21	0xbbd17195	-0.006391714
22	0x3b81d138	0.0039617084
23	0x3c1d0e26	0.009585893
24	0x3b17251b	0.0023062888
25	0xbceec682	-0.02914739
26	0xbc0ee0f2	-0.008720623
27	0x3d818d59	0.06325788
28	0xbb419f08	-0.0029544253
29	0xbbfad8f0	-0.0076552555
30	0x3bdf2536	0.006809856
31	0x3bb1bb70	0.0054239556
32	0x3b20a648	0.0024513174
33	0x3b55b676	0.0032609976
34	0xbc1cd0e7	-0.009571291
35	0x3b7a6b47	0.0038210915
36	0xbb9436b1	-0.0045231213
37	0xbb815208	-0.0039465465
38	0xbc3accca	-0.011401365
39	0xbd54b141	-0.051926855
40	0xbae419a1	-0.0017402658
41	0x3e96a658	0.29423785
42	0xbba50613	-0.0050361245
43	0x3a673ebd	0.00088212994
44	0x3bff0588	0.007782642
45	0x38719313	5.759585e-05
46	0xbcf1c02d	-0.029510582
47	0x3c1e586a	0.009664634
48	0xbb5a8fa9	-0.0033349788
49	0xbb9bbf8a	-0.004753058
50	0x3aab2ff5	0.0013060557
51	0x3e58f1c1	0.21185972
52	0x3b20583d	0.0024466657
53	0xbbc3c01f	-0.0059738304
54	0xbb9b3ee4	-0.0047377218
55	0x3b83dfdb	0.0040244884
56	0xba80f689	-0.0009839098
57	0xbcaeb75b	-0.021327665
58	0xbade0acb	-0.0016940472
59	0x3c4c19ee	0.012457354
60	0x3bdb6680	0.0066955686
61	0x3c3e5ff5	0.011619558
62	0xbc1cd465	-0.009572123
63	0x3bdd68da	0.006756884
64	0x3b1c4457	0.0023844445
65	0xbc185851	-0.0092984
66	0x3bde98b3	0.0067931055
67	0xbbbd0c0c	-0.0057692584
68	0x39f63ea8	0.0004696746
69	0x3bab4957	0.0052272487
70	0x3e054207	0.13013469
71	0xb8172904	-3.6039404e-05
72	0xbc1bcbe3	-0.00950906
73	0xbb0412d9	-0.0020152836
74	0xbbb7b672	-0.005606466
75	0x3b64cf64	0.0034913654
76	0xbb5326a2	-0.0032219072
77	0xbd6b135c	-0.05739151
78	0x3b9d2cca	0.004796599
79	0xbe15e1c9	-0.14636911
80	0x3a8b2115	0.0010614718
81	0x3b7a9666	0.0038236617
82	0xbc33d918	-0.010977052
83	0xbb24a057	-0.0025119984

layer3.fc3.weight f4 [10, 84]
0	0x3b0a1161	0.0021067488
1	0xbb1deffe	-0.0024099345
2	0xbb7f3499	-0.0038941263
3	0xba6358eb	-0.00086726126
4	0x3d481bf4	0.048854783
5	0xba714e58	-0.00092050945
6	0xbb5336b8	-0.003222866
7	0xbb372b1f	-0.0027949286
8	0x39805a45	0.00024481319
9	0x3b9c5d17	0.0047718394
10	0xbe5437b0	-0.20724368
11	0xbba69bf1	-0.0050845076
12	0x39fab285	0.00047816723
13	0xba985d58	-0.0011624498
14	0x3a0cc024	0.00053692074
15	0x3afd858c	0.0019342168
16	0x3afdef79	0.0019373737
17	0x3b9a866e	0.0047157323
18	0xba9c174b	-0.0011908797
19	0xba0724be	-0.00051553163
20	0xbb98f411	-0.004667767
21	0xbb86c4cf	-0.004112817
22	0xbb28b031	-0.0025739784
23	0xbb1c3b7f	-0.0023839173
24	0x3a95879a	0.001140821
25	0x3c24890a	0.010042438
26	0x3af3e878	0.001860871
27	0x3dcd583d	0.10026596
28	0x3b0ffd6a	0.0021971115
29	0xbb77cd79	-0.003781168
30	0x3a17c7f2	0.0005789987
31	0x3b900097	0.0043946016
32	0x3b610b5d	0.0034339048
33	0x37606987	1.337601e-05
34	0x3b85f107	0.0040875706
35	0x3a48b9c3	0.0007657075
36	0x3b5012e9	0.0031749553
37	0x3b061525	0.002045938
38	0x38b309f8	8.537242e-05
39	0xbaaaceb8	-0.0013031578
40	0x392cd648	0.00016483024
41	0x3c74a47e	0.014931796
42	0x39764f67	0.00023489968
43	0x3b2efbd6	0.00267004
44	0xbb03ef9c	-0.0020131832
45	0xbb26586c	-0.0025382293
46	0x3b901d49	0.0043980223
47	0xbb437d04	-0.0029829154
48	0x3aeab16e	0.0017905661
49	0xb95f0cff	-0.00021271779
50	0x393cb63b	0.00017996963
51	0x3d2aac29	0.04166809
52	0x3b7ee8b9	0.0038896038
53	0x3a825078	0.0009942194
54	0x3b07437d	0.0020639591
55	0xb9f3acf5	-0.00046477435
56	0x3b194ecc	0.0023392914
57	0xbe835e4d	-0.25657883
58	0x3b064d26	0.0020492761
59	0xb9c56836	-0.0003765241
60	0x39cab9ae	0.00038666785
61	0xba8940c0	-0.0010471568
62	0x3b0b1111	0.002121989
63	0x3b108dda	0.0022057206
64	0xb999b268	-0.00029315357
65	0xbad4dae6	-0.0016239553
66	0x3b874125	0.004127639
67	0xb9fb0d54	-0.0004788438
68	0x3aa82961	0.0012829715
69	0xbab67819	-0.001392129
70	0xbe19b648	-0.15010941
71	0xbb1980c1	-0.002342269
72	0x3b041293	0.0020152673
73	0x3a02d3db	0.00049906754
74	0x3a1c1444	0.00059539475
75	0x3bb83c58	0.005622428
76	0xbaa683db	-0.0012704091
77	0x3d1673d3	0.036731552
78	0x3b11cb5f	0.0022246463
79	0x3e1704d4	0.14747936
80	0xbb32ef56	-0.00273033
81	0x3b46fe26	0.0030363887
82	0xbbfb48a2	-0.0076685706
83	0x3b92a027	0.004474658
84	0xbae8e141	-0.0017767326
85	0xbb5a7724	-0.0033335174
86	0xba1d5602	-0.0006001891
87	0x3b8a95b8	0.0042292736
88	0x3c9eef73	0.019401288
89	0xbb95e301	-0.00457418
90	0xbabdcd8f	-0.0014480817
91	0x3b84bc2b	0.0040507517
92	0x3bbea23b	0.005817679
93	0xb9e4b36e	-0.00043621234
94	0xbd430f82	-0.04762221
95	0xba11939a	-0.00055533054
96	0xbb8b54a9	-0.0042520356
97	0x3a58bacf	0.0008267583
98	0x393fbb2c	0.00018284906
99	0x3b0a3db5	0.002109391
100	0x3ba63806	0.0050725965
101	0x3afc7ce4	0.0019263295
102	0x3a54d8c9	0.00081194617
103	0xbbad2564	-0.0052839983
104	0xbb80bd2f	-0.0039288024
105	0xbb2e7264	-0.0026618475
106	0x3b2f871c	0.0026783412
107	0xbb8eca78	-0.0043576322
108	0xba8d8810	-0.0010797996
109	0x3e83c8a1	0.25739005
110	0xba28de9b	-0.0006441862
111	0xbe15be1e	-0.14623305
112	0x3b9f4a85	0.0048611783
113	0xbbdaeb08	-0.00668085
114	0x3b7b51fe	0.0038348432
115	0x3af6ffb4	0.0018844516
116	0x3bc6fe80	0.0060728192
117	0x3b8368d5	0.0040102997
118	0x3aa5bd30	0.0012644883
119	0x3bfabd9e	0.0076519987
120	0x3c6bbb85	0.01438797
121	0xbae44180	-0.001741454
122	0x3a054b7a	0.0005084794
123	0xbbf7d628	-0.007563371
124	0xbb7c23da	-0.0038473518
125	0xbe405ce6	-0.18785438
126	0x3b88fce2	0.0041805366
127	0x3b07923e	0.0020686532
128	0xbb58f06c	-0.0033102287
129	0x392a9ebf	0.00016271601
130	0x3e0da78f	0.1383345
131	0x3a911abd	0.0011070591
132	0x3bb9c428	0.0056691356
133	0xbbd53d02	-0.006507517
134	0x3bae36a4	0.0053165723
135	0xbeaba629	-0.33525208
136	0x3bc006d7	0.0058601904
137	0xbb020044	-0.0019836584
138	0xbb31d420	-0.0027134493
139	0xbaedec40	-0.0018152073
140	0x3b0f9d81	0.0021913948
141	0x3d2fce4d	0.042921353
142	0x3bb163a8	0.0054134913
143	0x3b8fd0fd	0.004388927
144	0x3ba546c5	0.005043837
145	0xbad038a4	-0.0015886021
146	0xba5a7f6a	-0.0008335026
147	0x3b4b7210	0.0031043328
148	0x3acb646c	0.0015517599
149	0xbbd1043b	-0.006378678
150	0xb98e99f6	-0.0002719906
151	0xb8a07e85	-7.6529606e-05
152	0x3bbfbe3c	0.005851535
153	0xbba77057	-0.0051098275
154	0xbe0c28c4	-0.13687426
155	0xbba4d94c	-0.0050307866
156	0xb648453c	-2.9842622e-06
157	0xbb75d77d	-0.0037512474
158	0x3a226fba	0.0006196458
159	0x3a8a55a4	0.0010554087
160	0xbbaff6f9	-0.0053700176
161	0xbc0535f8	-0.008130543
162	0x3bd875c8	0.0066058375
163	0xbd4aefde	-0.04954516
164	0x3ab4c17f	0.0013790576
165	0x3bd2fbb4	0.0064386968
166	0xba8395c3	-0.0010039139
167	0x3be13992	0.006873318
168	0x39b6a3a2	0.0003483566
169	0xba6931f7	-0.000889569
170	0xbc1abae5	-0.009443973
171	0xba5a37d2	-0.0008324358
172	0xbd872e03	-0.06600573
173	0x3a19ee2d	0.0005871978
174	0xba9d37ba	-0.0011994757
175	0x39dfa4ad	0.00042656568
176	0xba15bc38	-0.00057119457
177	0x3b3fd20e	0.002926949
178	0xbd9e9ed3	-0.07745137
179	0xbb5ec1a6	-0.0033989935
180	0x3ad02cb6	0.0015882466
181	0x3afbd08f	0.0019211936
182	0x3ad9396a	0.0016572897
183	0x3b0e6c1e	0.0021731923
184	0x3b0ad688	0.0021185
185	0x3bc50906	0.0060130386
186	0xbb1612ee	-0.0022899467
187	0xb7bc037b	-2.2412967e-05
188	0xbbf9771a	-0.007613075
189	0xbb816955	-0.003949324
190	0xbabf6aac	-0.0014603934
191	0xbba549b0	-0.0050441846
192	0x3abdef54	0.0014490881
193	0xbd5a6da5	-0.05332722
194	0x38db41c4	0.000104549836
195	0x3e39dd1a	0.1815075
196	0x3b1b6296	0.0023709885
197	0xbb4dafe4	-0.0031385357
198	0x39221b5b	0.00015459715
199	0x3ba012fc	0.0048850756
200	0x3b84ef68	0.0040568598
201	0x3aa3e502	0.0012504163
202	0x3aa9cec9	0.0012955304
203	0x3b36d18f	0.0027895903
204	0x3bbe5208	0.0058081187
205	0xba8cc88d	-0.0010740921
206	0xbb0134c3	-0.0019715286
207	0xbb98cae9	-0.0046628607
208	0x39d09616	0.00039784674
209	0x3e0eb5d5	0.13936551
210	0xbab87ec8	-0.001407587
211	0x3bda650e	0.0066648787
212	0xbb506dd1	-0.0031803737
213	0xbaed5cc7	-0.0018109315
214	0x3ce96fd5	0.028495708
215	0xbb2715af	-0.0025495102
216	0x39352728	0.00017276092
217	0xb988571f	-0.00026004852
218	0xba948c9b	-0.0011333408
219	0x3e094079	0.134035
220	0x3b6b68af	0.003592055
221	0xb9aee1b0	-0.00033356017
222	0x3b484663	0.0030559532
223	0xbb0af8d1	-0.0021205435
224	0x3b6b95c3	0.003594742
225	0x3d263bb6	0.04058429
226	0x3b6c7081	0.00360778
227	0xbb003f53	-0.0019568994
228	0x3a974e53	0.0011543728
229	0x398f1dc8	0.00027297274
230	0x3a52d48c	0.0008042536
231	0x3b73ff38	0.003723098
232	0x3a2e7587	0.0006655086
233	0xbb116832	-0.002218735
234	0x3adbb314	0.0016761743
235	0xbab50883	-0.0013811741
236	0x396a3bc1	0.00022338239
237	0xbad79848	-0.0016448582
238	0xbb1ed120	-0.0024233535
239	0xbb26fb74	-0.0025479468
240	0x3b79dd84	0.0038126418
241	0x3afbbf5f	0.0019206813
242	0xba244672	-0.00062666007
243	0x3bc587bd	0.006028144
244	0x3937e8b3	0.00017538927
245	0x3d6f3d99	0.058408353
246	0x3a88e8dc	0.0010445374
247	0xbe6a4e3e	-0.2288141
248	0x394082d3	0.00018359283
249	0xb9ad8787	-0.00033098107
250	0xbbc62a34	-0.0060475115
251	0x3b5ebf7c	0.0033988645
252	0x3c2f9bba	0.01071828
253	0xb9f92327	-0.00047519171
254	0x3c056d49	0.008143731
255	0xbad9e3d0	-0.001662368

layer3.fc3.bias f4 [10]
0	0xbe00e3a6	-0.12586841
1	0xbec1c99f	-0.37849137
2	0x3eac9d91	0.33713964
3	0x3f0dfaf9	0.5546108
4	0x3ea91057	0.3302028
5	0xbcf456b3	-0.029826498
6	0xbdd02033	-0.101623915
7	0xbe859046	-0.26086634
8	0xbead5270	-0.33851957
9	0xbd502e31	-0.0508253
