output/models_cifar10_180.pth (torch_old, 248636 bytes, 10 tensors)

layer1.conv1.weight f4 [6, 1, 5, 5]
00000000: ae8e 973b ac8c 4cbe 6ed8 4e3d a022 f1bd
00000010: 924e 79bd d3ba 8e3e 15c2 5dbe c604 d73e
00000020: 8b30 babd f01e 583e 0c39 b83d a485 04bf
00000030: 3452 ba3e f1db a3be cb91 45bd df99 953e
00000040: e34e febe 3d4a 093f e0db 79be 4e47 d53d
00000050: dc2c 543e e688 03bf 8e47 e13e 8b98 39be
00000060: 3c2c 23bc 4155 e0ba c019 acbc a0b2 0ebd
00000070: 7c40 aa3d c0d8 cfbc b63e 2f3d fb85 073e
00000080: 9eed e6be 798e 9e3d c8e6 483e b0f0 75bd
00000090: f52f 8d3e 53f1 c03e 05b6 66bf ad01 843e
000000a0: 0377 973d 59c7 e6be 7d31 233f 1771 ee3d
000000b0: 1313 adbe ae94 263c b34e 1e3d 81f0 a0be
000000c0: 63ef ab3e 2105 91bd 72a6 acbc bc17 c2bb
000000d0: 3483 38bd a407 e53d 9b4f 043d cb5d 40bd
000000e0: 8b6d 94bc 4619 073e 719a 3e3d d0e4 47bd
000000f0: 45a5 93be 7962 f73c 70e7 7e3e 76d7 c5bd
00000100: 4e39 20bd d873 b2be 1552 a23e ebc5 3a3e
00000110: 5df7 93bd 10b4 453c c51d d4be 10fc 8d3e
00000120: 9851 e8bb e707 293d e05c a0bd 3b80 c9bd
00000130: eba1 9bbe f77b bfbd 4ade 51bd a24d 723d
00000140: 1e6d 703e c6bc 393f 473a b43e aee7 4b3e
00000150: 8fda ebbb 98cc dcbd a030 c5be d8d5 54be
00000160: f590 86bd 705a 0bbd c586 ae3d 4986 32bd
00000170: e643 c2bd fe7b ad3d 37ad 263e 2ebe 90bd
00000180: 0be8 39ba cf94 3dbd 2da8 b1bd d607 9cbd
00000190: e43e a6bd ed35 303d b163 30bc bf9f a63d
000001a0: 1ba3 b6bd 1bb5 22bc 9b3d 913d 1a9f 593d
000001b0: c374 edbd a302 de3d 5095 6abe b95e a6be
000001c0: d2a0 b0bd 1a8d ebbb 9449 84be 8594 413e
000001d0: 2ad5 153e 588e 1ebe 6017 b0bd b8ee 253e
000001e0: 7985 02bd 5c3e 4b3d b5f5 043e cea9 1e3d
000001f0: 503d b9bd 1671 1e3d dff0 48be 54a5 8c3e
00000200: df5c e2bc 5f16 7bbd 7675 01be 107c b63e
00000210: 25ae 923e 579b 09bf 3f90 8a3b 2d6c 083e
00000220: fc1c a53e 99b7 64bf c1b8 343d cb03 893e
00000230: 9ec4 2cbc 7d72 8bbe 254d cebd 9279 0a3f
00000240: 7d76 3bbe d343 c23d c868 f9bd 34c4 533e
00000250: bb11 0ebe b365 a63b
0.004625163 -0.19975537 0.050499372 -0.11774182 -0.060865946 0.2787691 -0.21656068 0.4199583
-0.0909129 0.21105552 0.08995256 -0.5176642 0.3639084 -0.3200374 -0.048234742 0.29218957
-0.4966956 0.53628904 -0.24400282 0.10413991 0.20720237 -0.51380765 0.43999904 -0.18124597
-0.009959277 -0.0017115251 -0.021008372 -0.03483832 0.08313081 -0.02537191 0.042784415 0.13234703
-0.45103163 0.07742018 0.19619286 -0.06004399 0.2757565 0.37684116 -0.9012149 0.2578253
0.073957466 -0.45073965 0.6374739 0.11642664 -0.33803615 0.010167284 0.038649272 -0.3143349
0.33581075 -0.070810564 -0.021075461 -0.0059232395 -0.045047 0.11183098 0.03230248 -0.046964448
-0.01811864 0.13193235 0.046534006 -0.048802197 -0.28837028 0.030198323 0.24892974 -0.096602365
-0.03911715 -0.34854007 0.3170325 0.18239562 -0.07224915 0.012066856 -0.41428962 0.2773137
-0.007089805 0.041267302 -0.078302145 -0.09838911 -0.3039697 -0.09349816 -0.051237382 0.059156068
0.23479125 0.7255367 0.35200712 0.19912598 -0.007197685 -0.10781211 -0.3851366 -0.207847
-0.06570617 -0.034021795 0.08521799 -0.043585096 -0.09485607 0.08470915 0.16277014 -0.07067524
-0.0007091767 -0.046284493 -0.08674655 -0.07618682 -0.08117464 0.043020178 -0.010765956 0.08135938
-0.08917829 -0.009930874 0.070918284 0.053130247 -0.11594536 0.10840347 -0.2290852 -0.32494143
-0.08624424 -0.0071884515 -0.25837386 0.18904312 0.14632097 -0.15483987 -0.085982084 0.16204345
-0.03186557 0.049620017 0.12984355 0.038736157 -0.090448976 0.038682066 -0.19623135 0.27469885
-0.027632175 -0.06130063 -0.12642464 0.35641527 0.28648487 -0.53752655 0.0042286213 0.13322516
0.32248676 -0.8934265 0.044121508 0.26760706 -0.010544924 -0.27235785 -0.10073308 0.5409175
-0.18306918 0.09485593 -0.121781886 0.20680314 -0.13873951 0.0050780415

layer1.conv1.bias f4 [6]
00000000: e7f2 8abe 07c7 83be e07b 8dbe 21a9 83be
00000010: 682c 84be d003 97be
-0.27138445 -0.25737783 -0.27633572 -0.25714973 -0.2581513 -0.29495096

layer2.conv2.weight f4 [16, 6, 5, 5]
00000000: 54ae 0b3d 6b42 e23b e5cc 2f3d fde2 0f3e
00000010: 5b86 2c3d 8ef5 6a3d fa1c 81bd 3bf0 983d
00000020: 38b7 283d 5541 f53d 6437 32bb a7be ebb9
00000030: a249 b53b 367e 223d e86a 5f3d 0020 013e
00000040: 41fc bdbd a3b2 553d 2730 eb3d 772c 11bc
00000050: b423 86be 83fb 99be ac32 29bf 362c 2abf
00000060: 1a52 bdbe 8112 8e3e 1ab6 f23d 11ec e53b
00000070: bf75 8abc 4e0a 023e d904 223e 07b3 323e
00000080: c0ee c43d 3561 183e bbab 143e 88e3 b83e
00000090: ff81 2e3e 3e36 0f3e b54a d93d b863 2a3e
000000a0: 5a7b 9e3e 4b4a 383e 8445 453e 557e 4b3d
000000b0: c9cd c6bd 3d13 d43e 7ee9 95bb 28a9 3fbe
000000c0: 7861 0cbe f9d6 25bd e9b8 dc3d 95bc 2c3e
000000d0: 9d92 283c fc34 153e e212 dcbc a8bf 963d
000000e0: faa2 033c b4d5 a03d 6da6 b5bd 2677 363e
000000f0: 170a 8bbd 453e 9ebc aa03 0f3d dc24 c43d
00000100: d7b7 afbc 87b6 52be 37dc 21bd 7896 babd
00000110: 0fbd ef3d 1649 033e c22a d7bd 115f 90be
00000120: 1b1d ecbe 5e5b dbbe bf5b 26be e5e2 9e3e
00000130: 16a2 19be 9955 66bd f7ff 74bd 5427 243e
00000140: d2d7 603e c781 1b3d 3e2c 323e 28d8 303d
00000150: 3d0d 61bc 40fa 903d 2e8e 733e efd1 0c3e
00000160: 70a8 793e 8df6 97bb dee5 30be dcaf 553e
00000170: a029 0b3e 224d 863e c28a 51bd ce49 85bd
00000180: 773d 413e 4f8a 663e 4957 923e 673b a83e
00000190: feda 6e3e b109 5fbd 13dc 843c 7d7d d73d
000001a0: afcf 0d3e 80f6 cd3e 9a00 8c3d 17a7 353e
000001b0: b9fd 623b ed93 633e 9905 ae3e ce7e 6b3d
000001c0: 9a7e 833e 86f2 423d ad8f a73e 6cf8 033e
000001d0: 49fd 273e 7645 083f c5ec 953e 519f ff3a
000001e0: 6000 8abe 13e2 0a3f 43cf 153f 2356 003e
000001f0: 8925 73be 011b 64bd 99a3 c7bd 4af6 293d
00000200: b831 b23d c772 ab3d 1b6b 64bd 527d 25be
00000210: 755f eb3b 3900 283e 05de 953e 18bd 473d
00000220: 2f02 cdbd 7453 1e3d 7351 b63d a96d 433e
00000230: 69b3 85bd 83b5 5d3d 3070 81bd 8c7a 973d
00000240: c227 873e e3cd 9b3d 3fb2 b33d 876d 1bbe
00000250: 17fa b1bb 857a 853e 839d 68bd c316 553d
00000260: cea4 023d c113 053e 0b26 09be e386 df3d
00000270: fb0c a1bd 02fe da3d 5ba7 52be 4f4c e1bb
00000280: 6c7a 233e 601a b73e bc67 58be bbf8 3bbd
00000290: b0cb 993c 5cc3 41be 3a8a a2be c11c bd3d
000002a0: a9ce e5bb efae 69be f0d1 b6bd 6af4 d93d
000002b0: e217 98be 4ce5 bebe 906d 0fbe 2c93 393e
000002c0: 7504 163e 4ca9 173e 873c 933e 326e 803d
000002d0: ba6d 123e db62 fc3d 929b 80be 7ed4 a73e
000002e0: c8d2 2a3e 97e4 88be c90b 893e ed2a d9be
000002f0: ffe1 603e 6927 853c 7823 033d 8bc0 1bbe
00000300: bb73 d2be b1cd febe 2460 bc3d 8b22 8f3e
00000310: 3363 943e 0720 0c3f bdda 5abd ba1c e1be
00000320: ac2f 1cbc 893a b43d 3cec 0d3e 851f 23bd
00000330: f416 b53d 6da0 9d3d ebb1 98be 92b2 683d
00000340: 73fc 1d3e f701 a5be a368 123e e144 c43e
00000350: 57f7 56be a8f4 273f 73a6 073d 2140 083c
00000360: ab33 2c3e fb89 733e 73f7 893e 185e 7f3e
00000370: b8e6 dc3d ab8a d8bd 9d6a 913d 206b 2f3b
00000380: 8949 953e 9d8e 233d 7040 b03d 2494 e7bd
00000390: c0aa 24bd 7f92 003e 3f29 5abd 62c1 b33d
000003a0: f8e2 54be 1940 78be 0f4a 213e b377 81be
000003b0: d6f7 cebd 6d82 b6bd e6a4 8ebe 39c4 cdbd
000003c0: 12ca ae3d 8d24 53be 1220 15be abf9 51be
000003d0: c631 90be 66ba 023e 5b34 b5bd 0279 91bd
000003e0: 2743 533e 45c2 88be df35 153e 78ab 173e
000003f0: 5fc3 c7be e858 cdbd 550b 1b3e b043 64be
0.0341018 0.0069048903 0.042920012 0.14051433 0.04212032 0.057363085 -0.06304355 0.07467695
0.041190356 0.11975352 -0.002719366 -0.0004496474 0.0055324594 0.039671145 0.054545313 0.12609863
-0.09276629 0.052172314 0.11483794 -0.008860699 -0.26199114 -0.300747 -0.66092944 -0.6647371
-0.369767 0.27748492 0.11851139 0.0070166667 -0.016901849 0.12699243 0.15822162 0.17451106
0.096158504 0.14880832 0.14518635 0.36111093 0.17041777 0.13985536 0.10609952 0.16639602
0.30953485 0.1799709 0.192648 0.049681026 -0.09707219 0.41420928 -0.0045749536 -0.18716872
-0.13709056 -0.040488217 0.10777456 0.16868813 0.010288862 0.14570993 -0.026864473 0.07360774
0.008034462 0.07853261 -0.08869634 0.17818889 -0.06789034 -0.019316802 0.034915604 0.09577343
-0.021449966 -0.20577441 -0.039516654 -0.09110731 0.11705982 0.12820849 -0.10506202 -0.2819753
-0.46115956 -0.42843145 -0.16245936 0.31032482 -0.15003237 -0.056233976 -0.05981442 0.16030627
0.21957329 0.037965562 0.1739969 0.043174893 -0.013736066 0.070789814 0.23784706 0.13751958
0.2438066 -0.0046375454 -0.17275187 0.20867866 0.13590097 0.26230723 -0.05115772 -0.06508218
0.18871103 0.22513698 0.28582218 0.3285782 0.23325726 -0.0544526 0.01621822 0.10521982
0.13848756 0.40227127 0.06836052 0.17739521 0.0034636094 0.22224398 0.33988646 0.057493977
0.25682527 0.04759457 0.32726803 0.12887734 0.16405214 0.5323099 0.29282203 0.0019502436
-0.2695341 0.5425121 0.5851938 0.12532859 -0.23744787 -0.055689815 -0.09748001 0.041494645
0.08700889 0.083715014 -0.055766206 -0.16161087 0.00718301 0.16406335 0.2927095 0.04876432
-0.10010182 0.038653806 0.08902254 0.19084801 -0.065283604 0.05412818 -0.06320226 0.07396421
0.2639752 0.07607629 0.08774232 -0.151785 -0.0054314244 0.26070037 -0.05679084 0.05202366
0.03189545 0.12995817 -0.13393418 0.109143995 -0.07863804 0.106929794 -0.20571654 -0.006875552
0.15964669 0.3576231 -0.21133322 -0.045891505 0.018773884 -0.1892218 -0.31746083 0.09234
-0.007013161 -0.22820638 -0.08926761 0.106423214 -0.2970572 -0.37284315 -0.14006639 0.18122548
0.14650138 0.14810675 0.28757116 0.06271018 0.1429967 0.12323543 -0.2511869 0.32779306
0.16681969 -0.267369 0.26766804 -0.42415562 0.2196121 0.016254144 0.032016248 -0.15210168
-0.4110392 -0.49766305 0.09198025 0.27956042 0.28981933 0.5473637 -0.05343126 -0.4396723
-0.00953285 0.08800227 0.13859648 -0.03982498 0.088422686 0.076966144 -0.2982324 0.056810923
0.15428333 -0.32228062 0.14297728 0.383338 -0.2099279 0.6560769 0.033117723 0.008316071
0.16816585 0.23783104 0.269466 0.24938238 0.107861936 -0.10573324 0.07100413 0.0026766732
0.29157665 0.03993093 0.086060405 -0.113075525 -0.040201902 0.12555884 -0.05326199 0.08777119
-0.20789707 -0.24243201 0.15750907 -0.25286636 -0.10105865 -0.089115955 -0.27860183 -0.10047192
0.085346356 -0.20619412 -0.14563015 -0.20505397 -0.28162974 0.12766418 -0.08847877 -0.071031585
0.20631085 -0.26710716 0.14571331 0.14811504 -0.39016244 -0.10026723 0.15141042 -0.22291446

layer2.conv2.bias f4 [16]
00000000: 80ed 08bf 95e0 32bf 930b 15bf 5dc5 e6be
00000010: 2b74 20bf d3bb edbe a41e efbe 2c0d a1be
00000020: ba86 27bf 20fc 0dbf 1cdc d9be a646 b3be
00000030: d170 95be 0a1c 0cbf e36c 08bf 35b1 c0be
-0.53487396 -0.69873935 -0.58220786 -0.4507245 -0.6267726 -0.4643236 -0.46703064 -0.31455362
-0.6543995 -0.5546284 -0.42550743 -0.35014838 -0.29187635 -0.54730284 -0.5329115 -0.37635198

layer3.fc1.weight f4 [120, 400]
00000000: 21e9 2f3c 4251 093b dd5a 88ba 3060 003c
00000010: 8e05 443b 36a3 15bb ed5b 2ebc 52cb 2f3c
00000020: b82e ffbb f17b d73c 1424 583b 3999 82bc
00000030: 78b0 2abc f280 e53b e4d6 c2bb 7ba9 45bc
00000040: 833d 9c3c fd7e 73bc e797 e4bb 8576 c43c
00000050: 7521 e0bc be46 05bd 8237 bfbb a05f b7bc
00000060: 46c0 f8ba beed 6abc 7683 773c 5001 7bbc
00000070: a13f 1e3c f73a 80b9 5dba 633c e856 87bc
00000080: 092a c93b 52a4 fbbc b032 473c 7741 c23c
00000090: 66df e9bc 8cc8 d83b 7836 1a3c 13ff fa3c
000000a0: fd2f d8bb dff2 c8ba 1a1b 94bc 441d d0b9
000000b0: c7bb c7bc 34fa 2c3b 072a 793b d5aa 54bc
000000c0: 16c6 c4bc cb5c bd3c 1199 d73c d6d0 b53c
000000d0: 3b2b e3bb 9719 bfbc f7f3 1fbc 68df 073c
000000e0: 1910 fa3c cd94 d63b d3a0 d4bc ae47 c2bb
000000f0: 7d3b 62bc 903d e1bb 5bae 703c 5707 613b
00000100: 0704 5e3c 3625 1f3c 7ace 3a3c 2f2a b0bc
00000110: fccb cb3c 5bed 67bc 51b9 203c a521 08bc
00000120: 114d d4bc 569e a63b d2e1 adbc a896 173d
00000130: e106 d93c 6179 8f39 88cd 3c3c 71cd c9ba
00000140: ad0d babb 8167 2d3c 49ed 213b 3aae 1a3c
00000150: 122c a63a 9e9e 2cba 550d 3b3b 807b bfbb
00000160: e828 f13b d142 98bc 3a4a e0bb cd4f 2cbc
00000170: 5b57 30ba e411 79bb 5f33 03bc 43b4 293c
00000180: adee 6fbc 76e2 2e3c 6e2f b93a 496d 0fbb
00000190: 46eb 03bd ae87 10bd c09c cb3c 56d3 973c
000001a0: 018b 733c dbc7 fbbc 47cd 49bc f8c3 acbb
000001b0: 93e9 0c3c a2e3 f93b c0c5 bebb 7290 793c
000001c0: 7316 7abb 177d 8e3c 06cf 49bc fc53 05bb
000001d0: 1dd0 66bc 9abf 163c 68ad 1d3c b6e9 3a3c
000001e0: ee6f 12bc deca 36bc 4b95 003b 0435 24bc
000001f0: 5033 fc3c cddb 0ebd afd3 1e3c bb2c 363c
00000200: 847f 4f3b 6c4b d33c d9a9 80bc 0932 323b
00000210: ab70 6dbc 7246 34bb 710c 813b ad25 8a3c
00000220: 233b 54bb 2c27 063c 2333 77bc 2bb8 013a
00000230: 2d25 d73b a458 623b 657f 47b9 e342 a53b
00000240: e243 baba 5abb fb3a 81b0 79b7 7494 b2bb
00000250: 7652 6a3b 5d7c c1bc df19 abbc f9ac 093c
00000260: 42f0 dbba 2de5 76bb 1f4f 12bb 9fb5 333c
00000270: 0661 a3bc 95ee 7bbb 1d5e 403c 8302 55bc
00000280: d5ca 203b eb88 28bb 7096 db3b 8b4a cabc
00000290: 175b de3b bea3 e83c 67b4 253c b109 103c
000002a0: d76f 27bb 7e72 993b c8fd 3e3c b5ae c03c
000002b0: 6877 e83a bb08 9f3b c3fd ce3c e6d1 483b
000002c0: 16a4 a13c 11d8 61bb 8839 3dbc 8a32 ab3b
000002d0: 81d6 f4bb de2b 543c 6647 803b 5fd8 6abb
000002e0: c3fa 11bc 5737 a63c d3ac 6a3c 6955 2fbc
000002f0: e921 5c3c 376f 9c3c cac7 aa3a 531f e23b
00000300: cb4c 4abc 8b2c 86bc b8f3 4dbc 314c 103c
00000310: 508b a4bc 7f24 0ebc 743e 203c e7b6 173b
00000320: 2cf8 7e3c 66f5 10bc f16a c3ba 03c0 b43c
00000330: 0b14 b03c 2ad5 14bc 4d1c 36bc ef38 bcbc
00000340: d42f a1bb c4da 023d 0bb0 e73b dcf2 b3bb
00000350: 6da8 763a 834a 0cbc 4cc0 213c 0415 31bc
00000360: 42e0 50bc 08d4 1c3c 6c4f a43c 370f 96bb
00000370: 3ea9 953c cf3b 3f3c 2964 c5bb 9bcd a7bc
00000380: f975 bd3b c28d 21bb 5c74 7fbc 5bbf 55bc
00000390: 2e70 6ebc 9f6a c93a 74fd b23c af51 863c
000003a0: 36e7 df3b 38a3 28bc 0ffc ad3c 867e 04bb
000003b0: e0e0 db3a b7be 3f3b 0c02 b4bc d6cc 7f3b
000003c0: edfa 64bc 5630 923a befb dfbb 3c9c 6d3b
000003d0: 032b 2bbb cb23 28bc 7c40 a33c 4cd3 afbb
000003e0: dd9d e13c e601 48bb ca4d ba3c 5665 323c
000003f0: 30de e038 4c51 73bc e5fb c4bc cc97 8b3c
0.010736735 0.0020952974 -0.0010403056 0.007835433 0.0029910537 -0.0022832877 -0.010642034 0.010729628
-0.0077875517 0.026304217 0.0032980489 -0.015942203 -0.01041805 0.007003897 -0.005946027 -0.012064333
0.0190723 -0.014861819 -0.006976116 0.023982296 -0.027359704 -0.032538168 -0.0058354745 -0.022384465
-0.00189782 -0.014338909 0.015107026 -0.015320137 0.009658725 -0.00024457995 0.013899413 -0.016520932
0.006139044 -0.030718002 0.012158081 0.023712857 -0.028548907 0.006615704 0.0094124 0.030639207
-0.0065975175 -0.001533117 -0.01807933 -0.00039694656 -0.024381531 0.002639425 0.0038019435 -0.012980183
-0.024020236 0.023115536 0.026318105 0.022194307 -0.0069326437 -0.023327632 -0.009762756 0.00829301
0.030525254 0.0065485 -0.025955593 -0.005928955 -0.013808128 -0.006873794 0.014690007 0.003433665
0.013550765 0.009713462 0.011401767 -0.02150449 0.02487754 -0.014155711 0.009809808 -0.008308803
-0.025915654 0.005084793 -0.021225844 0.03700891 0.026492538 0.0002736552 0.011523612 -0.0015396309
-0.0056779 0.010583759 0.0024708083 0.009440953 0.0012677929 -0.0006584915 0.0028541882 -0.00584358
0.0073596127 -0.018586548 -0.006844786 -0.010517073 -0.0006726884 -0.0038005048 -0.008007853 0.010357919
-0.014644307 0.01067411 0.0014128515 -0.0021885207 -0.032206796 -0.035285644 0.024855018 0.01853339
0.014864684 -0.030734947 -0.012317008 -0.0052723847 0.00860061 0.007626013 -0.0058219135 0.015232192
-0.0038160353 0.017393632 -0.012317425 -0.0020344248 -0.014087704 0.009200955 0.009623863 0.01140826
-0.008937819 -0.011156766 0.0019620236 -0.010022406 0.030786186 -0.034877587 0.009694024 0.011119063
0.0031661699 0.0257928 -0.01570599 0.0027190468 -0.014492194 -0.002750781 0.0039382507 0.016863668
-0.003238388 0.00818805 -0.015087876 0.00049484026 0.006565711 0.0034537697 -0.00019025577 0.005043374
-0.0014210904 0.0019205615 -1.4882652e-05 -0.005449826 0.0035754717 -0.023618871 -0.02088636 0.008403056
-0.0016779976 -0.003767322 -0.0022324992 0.010968595 -0.019943725 -0.0038441767 0.011741188 -0.013001087
0.002453496 -0.0025716375 0.006701283 -0.024693748 0.006785761 0.02839839 0.010113812 0.008791373
-0.002554884 0.004682838 0.011657186 0.023520807 0.0017735781 0.0048533357 0.025267487 0.0030642687
0.019731563 -0.003446106 -0.011549361 0.0052245306 -0.00747186 0.012949912 0.0039147614 -0.0035834534
-0.008909884 0.02029006 0.014323431 -0.010701516 0.013435819 0.019096 0.0013029512 0.006900707
-0.01234741 -0.016378662 -0.012570314 0.008807228 -0.02008596 -0.0086756935 0.009780515 0.002314979
0.0155620985 -0.00884757 -0.001490919 0.022064215 0.021493932 -0.009084025 -0.011115146 -0.022976367
-0.0049190316 0.031946912 0.0070705465 -0.0054915976 0.00094092527 -0.008562687 0.009872507 -0.010808233
-0.01274878 0.009572037 0.020057403 -0.0045794505 0.018269178 0.011671974 -0.006023903 -0.020483783
0.0057818857 -0.0024651145 -0.015591707 -0.013046111 -0.014553113 0.0015366859 0.021849371 0.016396372
0.0068329824 -0.010292821 0.021238355 -0.0020217015 0.0016775392 0.0029257962 -0.021973632 0.0039032004
-0.013975841 0.0011153321 -0.00683543 0.0036256453 -0.0026118166 -0.01026244 0.01992821 -0.0053657647
0.027541095 -0.003051871 0.02274217 0.010888418 0.00010722538 -0.014850926 -0.024045894 0.017040156

layer3.fc1.bias f4 [120]
00000000: 5487 083c e9db 933a a88f 9fbb ab1b 6fbc
00000010: 9ddd 593c e9a2 a23b beb5 86b8 831d e3bb
00000020: 3231 293c 6bed c6b9 f715 f1b9 c7f3 5ebb
00000030: 17c5 943d aa3f 74bb 6a0e 3f3a 651a aabb
00000040: 0c2f 883c cbb7 d43b d63e 97bb 9406 983b
00000050: 068f 46bc 437a ac3c 84b1 8fbc 796e 7a3c
00000060: 074d 05bc 05a4 7a3c 34ef 92ba ba6f d939
00000070: dd18 b73c 1e68 b1bb 02b1 a5bb 7d7a b13b
00000080: ce6f 713e 71b1 213c 947d db3a d6c7 dbbb
00000090: 8f71 47bd 2c33 7abe 9baa dcbb cdf8 17bc
000000a0: caf3 683b 3e1d d83b 2198 3b3c d010 fd3d
000000b0: e7ed 15ba 33c8 97bb 8d2a a03a de06 913c
000000c0: 36df 0f3c b9c5 6fbc f7f5 1fbc ad72 8c3b
000000d0: eb71 d23b a279 9f3b f66d 87ba 8273 baba
000000e0: 4e49 c5bb 20f6 54bb 47b2 353c 20e2 83bb
000000f0: 7b5b 11bc 1207 ef3b 42c0 ebbd 6614 0c3e
00000100: a277 9ebd 828a b4bb 8e2c f4ba 812d 12bc
00000110: 100e 3dbc 2efd bfbb 9527 853c 2c69 26bb
00000120: dd9e 2eba 6d08 aebc d738 323b 1bfb 8bba
00000130: 3507 f5bb 7489 4ebc 2ca9 3bbb b965 6fbb
00000140: 6c19 e23b 50a5 1bbc e115 443c 76b0 c13b
00000150: d9ae 913c d794 183c 2eb4 49bc 2c61 8aba
00000160: 102b b7ba 8144 ef3b 38a9 46bc ec89 25bb
00000170: 44c5 5ebb 1cc0 b63c f4c1 b2bb 735f 03bd
00000180: 4683 f83a 8e3a a03b 4b91 fe3d 266a 7f3b
00000190: 57cf 87bc 39dd c5bc 99a3 07bc fc62 9e3c
000001a0: cbf1 d93b d8ed 90bb 8389 903c 706b 533a
000001b0: 8431 8cbc 35c2 4abc f347 77bc fd06 7b3b
000001c0: fe15 d03e 5c61 58bc 3f78 3f3c 4daa 193c
000001d0: b4e7 a0bc 9ba4 cf3b 7456 87bb ff68 8d3e
0.008333046 0.0011280748 -0.00486942 -0.014593999 0.013297466 0.004963268 -6.42347e-05 -0.0069310083
0.0103266705 -0.00037942393 -0.00045983467 -0.0034019814 0.072641544 -0.0037269392 0.00072882196 -0.0051911348
0.016623996 0.0064916364 -0.004615645 0.004639456 -0.01211906 0.021054393 -0.0175407 0.015285128
-0.0081360405 0.015297894 -0.0011210204 0.00041472708 0.022350723 -0.005414023 -0.0050565014 0.005416213
0.23577806 0.0098689655 0.0016745799 -0.006707172 -0.048692282 -0.24433583 -0.006734205 -0.009275627
0.00355457 0.006595283 0.011449845 0.12356722 -0.0005719349 -0.00463202 0.0012219712 0.01770347
0.008781245 -0.014634543 -0.009763232 0.0042861314 0.0064222715 0.0048667947 -0.0010332454 -0.0014225098
-0.0060207015 -0.0032495335 0.011089868 -0.004024759 -0.008871908 0.007294544 -0.1151128 0.13679656
-0.07737662 -0.0055096755 -0.0018629001 -0.008921982 -0.011538997 -0.005859039 0.016254226 -0.0025392277
-0.0006661246 -0.021244252 0.0027194524 -0.0010679694 -0.007477666 -0.012606014 -0.002863477 -0.0036529137
0.006900003 -0.009499863 0.011968107 0.0059109284 0.01778357 0.00931283 -0.012311025 -0.0010557524
-0.0013974626 0.0073018675 -0.012125306 -0.002525921 -0.0033992091 0.022308402 -0.00545525 -0.03207345
0.0018960021 0.0048897928 0.12430056 0.0038973182 -0.01657836 -0.024153339 -0.008278751 0.019334309
0.0066511384 -0.0044228844 0.017643696 0.00080650207 -0.017113455 -0.012375404 -0.015092838 0.0038303726
0.4064178 -0.013206806 0.011686384 0.009378982 -0.019641735 0.006336761 -0.004130179 0.27619168

layer3.fc2.weight f4 [84, 120]
00000000: 86e6 5c3b a07b a9bb c8e1 bfbb fa1e 6a39
00000010: a8ca 10bc c4c2 153c 2f2a 36bc 6bb3 1c3b
00000020: a7c9 27bc 9851 a8bb 6483 30bc f572 48bb
00000030: 07c8 d6bb 7555 533b 4ac9 7dbb 2fe8 823b
00000040: 3301 8dbb f351 eb3b b35a a83b 2cc1 06bc
00000050: ee95 d73b 8e8e 81ba aea2 363c cd42 01bc
00000060: 368c fabb fd62 be3b 3979 e33b 159e 9339
00000070: 995b 53bc a4d7 98bb f2a3 cc3b c224 7dbb
00000080: b584 673b 8e6d 3e3b 1b82 15bb 1962 763a
00000090: d204 2c3a 617f 1c3b 7639 b5bb 1a7c 19bc
000000a0: 35d5 583a 3124 68bb 6a30 5f3a 4da7 c53b
000000b0: 4cc3 8abc 657c 273c 81df e9bb a25b 06bc
000000c0: 7508 83bc 9611 8fba d7ff 63bb 0339 babb
000000d0: 864c 09ba 880b b43b f65a f7bb 9fa1 4b3c
000000e0: 4db2 f4ba 5193 9a3b 6ebe 0fbb bcdf 253b
000000f0: 2b1f e8bb e19b a7bb 09e1 013c a7f6 e8bb
00000100: 2e86 1e3c 18e6 55bb 58f5 e23b 8b76 14bc
00000110: ad3e 11ba c099 803a 034f ddbb 8fe2 e23a
00000120: e8a1 fdba 040d 693b 6699 0e3b 266d 4f3a
00000130: 6399 213c 0656 ce3a 7ae5 33bc 0f12 aa3b
00000140: eca7 7fba ea6a 563b ac8e 6f3b 490b 173b
00000150: 34f7 683b df5a 13bb fbf9 9538 8c9a 133c
00000160: 5a8d f0bb 8664 373a 4302 26bc 097d b1bb
00000170: 395e db3b 9a26 193a 28f7 05bc ed89 293b
00000180: 0a1f 0d3a 2a61 af3b 77b4 183c 2ec5 873b
00000190: 9546 3e3b d4db 163b bbb2 16bc 54ee e53a
000001a0: ec6d aabb 72e5 b1bb e9c5 0cba dca9 efbb
000001b0: 0bc1 a5bb bf76 823b eaa1 fd3a e6f8 77bb
000001c0: 25d5 a5ba 133f f63b e9c4 3dbc a969 533a
000001d0: 7359 673b 616c 00bc 8e04 ad3b 60a4 c3bb
000001e0: 65e3 3dbc eff2 74bb 7e0c 9b3b 9bf0 8bba
000001f0: fe86 36bc 7981 6e3b 6d52 a13a e60f 163c
00000200: d317 9cbb ba51 d739 8b5a be3b 6e75 97bb
00000210: a443 24bb dbcd d1bb 1479 6bbb 8340 1e3c
00000220: cea6 183b ff03 c8ba 9022 6dbc df89 98bc
00000230: a8cc 91ba cc54 40bb 5b22 613c 9623 3dbc
00000240: de01 c4bb 96a2 35bb a8f2 de3a 7976 4ebc
00000250: 230c 39bc 9397 333b 274b 003b dce9 47bc
00000260: 0203 bebb 2721 73bc b5c7 f4bb 6264 bfbb
00000270: 99d8 973a b72a 033c d776 08bc 7144 55b9
00000280: 7418 e73b 723f f9ba dfeb 83bc dd7b 7d3b
00000290: 5a8f 18ba b1fc de3b a33a 0fbc a737 51bc
000002a0: 65d7 1ebc cce2 5b3c df29 853c 5351 b1bb
000002b0: 5bca 8fba 7ae7 c4bb 9e79 3cbb 42a8 fe3b
000002c0: 2b45 e23b dc22 9a3b fd91 b23b 993b 233b
000002d0: 0fff 0d3b 0876 15bc 95c2 df3b c78d 64bc
000002e0: a850 233c 9600 3c3b 2ce7 e33b 611a 95ba
000002f0: 7186 383c 24c9 813a 5b6e 8ebc 2247 b43b
00000300: 1a0e 3a3b 1af7 7d36 e3ad e3ba c01d e4ba
00000310: 867b db3b 8488 223c 1db5 b83b 163e d3b9
00000320: 616c bb3a 2d08 81bb 7fb1 41bb 680d 6c3c
00000330: 9143 18b9 d7a6 61b9 a24e 2a3c 533a 15bc
00000340: 2925 253b 5f0b f939 a45a 78bb 7b53 003b
00000350: 742a 7e3a 7f34 61bb 47bd 2e3c 6e65 003b
00000360: 047b ddb9 0be8 653a a24c f53a adef 7e3a
00000370: e8cb 0e3c 220e 0d3c 37bf 54bc 454b af39
00000380: 8d89 84ba c052 083c 3d11 a83a 4b58 a93a
00000390: c585 21bc 7d9a 773c 1dba d53a a402 3a3c
000003a0: b6b7 743a aa2e c738 205a 8fbb 2b21 56bb
000003b0: 15d5 683c a5b3 e1bb 5678 b93c 3cef b7bb
000003c0: f868 d5ba 1119 78bb 626c 07bb 6524 d136
000003d0: 7ffb d43a cb08 c73b 46c6 5abb d4be 22bc
000003e0: 8a1d ee3a 5e68 373c 826d b5bb e2b3 2e3c
000003f0: 2ff3 423c 8e06 37bc 5327 663c d943 a73b
0.0033706739 -0.005172208 -0.0058557726 0.00022327519 -0.0088373795 0.009140674 -0.011118456 0.0023910652
-0.010240949 -0.00513668 -0.0107735135 -0.0030586098 -0.006554607 0.0032246981 -0.0038724714 0.0039949636
-0.0043031215 0.0071814 0.0051377653 -0.008224767 0.0065791523 -0.0009884404 0.011147184 -0.007889462
-0.007646109 0.00581014 0.006941941 0.00028155805 -0.012900257 -0.0046643782 0.0062451297 -0.0038626646
0.0035326902 0.0029057 -0.0022813145 0.0009398773 0.00065619976 0.0023879635 -0.0055305315 -0.009367967
0.00082715164 -0.0035421962 0.0008513989 0.0060319067 -0.016938828 0.010222529 -0.0071372394 -0.008200558
-0.015995244 -0.0010915275 -0.0034789944 -0.005683066 -0.0005237538 0.0054945387 -0.007548685 0.01242867
-0.001866886 0.0047172685 -0.0021933573 0.0025310358 -0.0070837936 -0.0051150178 0.007927188 -0.0071094814
0.009675546 -0.0032638367 0.00692622 -0.009061466 -0.00055406505 0.0009811446 -0.0067538037 0.0017309951
-0.001935062 0.0035560736 0.0021758913 0.0007912688 0.00986323 0.001574219 -0.010980004 0.005190141
-0.00097525003 0.0032717534 0.0036553545 0.0023047498 0.0035547735 -0.0022484583 7.151436e-05 0.009009015
-0.007341069 0.0006995875 -0.010132375 -0.0054165167 0.006694582 0.0005842239 -0.008176602 0.0025869564
0.00053833483 0.005352159 0.00932037 0.0041433787 0.002903377 0.0023019211 -0.009197886 0.0017542341
-0.005201092 -0.0054289633 -0.0005370067 -0.00731395 -0.005058413 0.003981441 0.0019350622 -0.0037837564
-0.0012652023 0.0075148433 -0.011582592 0.0008064756 0.0035301119 -0.00783834 0.005280084 -0.0059705228
-0.01158986 -0.0037376245 0.004731714 -0.0010676564 -0.011140583 0.003639309 0.001230789 0.009159064
-0.0047635823 0.00041068887 0.0058091334 -0.004622153 -0.002506473 -0.0064027137 -0.0035930322 0.0096589355
0.0023292783 -0.001525998 -0.014473572 -0.01862043 -0.0011123614 -0.0029347418 0.013741101 -0.011544129
-0.005981668 -0.0027715317 0.0017009573 -0.012601488 -0.0112943975 0.0027403578 0.0019576044 -0.0122017525
-0.0057986984 -0.014839447 -0.007470096 -0.005840824 0.0011584937 0.0080057895 -0.008329115 -0.0002033876
0.0070524756 -0.00190161 -0.016103683 0.0038678565 -0.0005819701 0.0068050255 -0.008742007 -0.012769616
-0.009694909 0.013420772 0.016255317 -0.005411306 -0.0010970341 -0.0060090395 -0.0028759013 0.0077715227
0.006905218 0.0047038626 0.005449532 0.002490735 0.002166692 -0.009122379 0.006828616 -0.013949818
0.00996796 0.0028686873 0.006955048 -0.0011375659 0.011262522 0.0009901864 -0.017386606 0.0055016438
0.0028389753 3.784377e-06 -0.0017370548 -0.0017403886 0.0066980748 0.009920243 0.0056368248 -0.00040291314
0.0014299267 -0.003937742 -0.0029555259 0.014407493 -0.0001452102 -0.00021519825 0.010394724 -0.009108144
0.002519915 0.00047501453 -0.0037895823 0.0019581008 0.0009695657 -0.0034363566 0.010665244 0.0019591707
-0.0004224406 0.0008770234 0.0018714855 0.00097250455 0.008715607 0.008609327 -0.012985042 0.0003343468
-0.0010111794 0.00832051 0.001282252 0.001291999 -0.009858553 0.0151125165 0.0016306076 0.011353169
0.00093352364 9.497751e-05 -0.0043747574 -0.0032673578 0.014210959 -0.0068878704 0.022640388 -0.0056132358
-0.0016281893 -0.0037856738 -0.0020663966 6.2329223e-06 0.0016249268 0.0060740463 -0.003338234 -0.009933192
0.0018166762 0.011194317 -0.005536736 0.010663005 0.0118988 -0.011170996 0.014047462 0.0051045236

layer3.fc2.bias f4 [84]
00000000: daa8 f6bb 4240 6bbb da51 20bb 0c22 d03a
00000010: 381f 75bd 6e84 f73b cd7d 3c3b e364 a1ba
00000020: 64da b73a 4bf6 e53a 337a 913e 4c5e 6ebb
00000030: 585e 92bb d36e 103a e331 c5bb 1913 ed3a
00000040: 02c5 073b 908a 21bc e121 05ba 0817 e33b
00000050: eedc 9e3a cdd3 04bc db6c d53b 4fba d23b
00000060: 67d1 38bb d9aa dcbc d113 f2b9 ff78 6f3d
00000070: 714f 8839 3219 03bb a7a5 7ebb 3610 43bc
00000080: 5b43 3abb 4542 87bb 1c9d b13b fa71 bbbb
00000090: fe4c 9bbd a840 a93b 24ac 7d3b 3b47 0fbe
000000a0: 7fbf b93a 8253 9b3e aed6 50ba 4fdf 5f3b
000000b0: 1d43 45bb 401a 1ebc 7706 07bd b71a 13ba
000000c0: 64a6 053c 8abd b63b 98be 59ba 19c8 593e
000000d0: 86ab 5f3b 329a 3b3b 5bed 313c 31b6 be3b
000000e0: e534 86ba 04a6 b6bc 125c 03b9 a581 bf3b
000000f0: 4b15 593a a167 e93b 6ac7 0b3c a984 65bb
00000100: a9e6 a0bb 9858 393c 444f 593c edda 03bc
00000110: af0b 3e3c 78fc 26ba 9c85 013e d5cb d9bb
00000120: c192 103b 9939 dabb ebe8 693a b4ca 1cbb
00000130: 3bc1 363c 0acc bdbd 0b7c 043c 1906 20be
00000140: 6f82 cd3b 7984 013c 9ce6 f33a f386 72bb
-0.007527453 -0.0035896455 -0.002446285 0.0015879287 -0.059844226 0.0075536286 0.0028761507 -0.0012313392
0.0014026877 0.0017544715 0.28413543 -0.0036372123 -0.004466813 0.0005509678 -0.00601791 0.0018087357
0.002071679 -0.009859696 -0.0005078596 0.006930236 0.0012120286 -0.008107138 0.0065132207 0.006430901
-0.0028200985 -0.026936935 -0.000461726 0.058465 0.0002599913 -0.0020004031 -0.003885606 -0.01190572
-0.0028421495 -0.004127773 0.00542034 -0.005720374 -0.075830445 0.0051651783 0.003870734 -0.13992016
0.001417145 0.3033715 -0.000796656 0.0034160202 -0.0030099817 -0.009649813 -0.03296515 -0.0005611586
0.008157346 0.005576794 -0.0008306294 0.21267737 0.0034129336 0.0028625843 0.010859813 0.0058200588
-0.0010239152 -0.02229596 -0.00012527432 0.0058443123 0.0008281066 0.007122949 0.008531431 -0.0035021699
-0.0049103093 0.011312626 0.013263527 -0.008047801 0.011599465 -0.0006370018 0.12648624 -0.006646613
0.0022060128 -0.006659698 0.0008922952 -0.0023924531 0.011154468 -0.09267433 0.008086215 -0.15627326
0.0062716524 0.007905119 0.0018608156 -0.0037006706

layer3.fc3.weight f4 [10, 84]
00000000: f250 b53b a28a 863a 73f6 5a3b e27b 393a
00000010: 1d46 823d 5fcf 51bb d30d 6fbb 5b22 7c3b
00000020: 6fac 973b 5226 9fbb abe5 57be 9e6a 853a
00000030: 7d27 513b f2d9 eaba 1b44 ed39 b2a2 4cbb
00000040: c570 95b9 9ad0 8339 6898 92bb 714e b6ba
00000050: cb59 893b 6882 e33a 628c b1bb dccd c4bb
00000060: 16a9 deba f97a c33b 70d6 a5bb 921d ce3d
00000070: 7396 bb3b 510e 1f3a 9f45 be39 746c 23b9
00000080: 286f 303a d4bc 3839 e138 7e39 e968 843b
00000090: 0989 2abc 6129 2aba 76ef 803b 7c75 353b
000000a0: b005 eeba 3072 ab3c 71ef f934 3450 3aba
000000b0: 35f6 53bb db84 d5b9 c1c3 13bb 6a7d b3ba
000000c0: 3db2 41bb 4739 853a 67f6 c5bb 1ba8 253d
000000d0: 9afc 09bc eac8 383b 8e7d 693a c6f7 5cba
000000e0: a0b2 a0ba 2c17 83be 1c62 993b a4bc 97bb
000000f0: 382f b33b 8fea d8ba 3829 43bb a7da 623b
00000100: 0e99 a23a 8cc9 0abb 30da 163b 8a52 3e3b
00000110: 0291 8bbb 6364 1ebb 135b 1ebe c90d 043b
00000120: 0590 14b9 cf8f 1eba 6dc6 883b 2242 653b
00000130: f310 f33a c6d5 4d3d 5c8b f73a 02fd 193e
00000140: 3847 0dba 14f7 ec39 2431 55ba dbd9 463b
00000150: 78c4 80bb 15d0 dfbb c82b 0dbb 922b 1b3b
00000160: 60c3 8a3c 9dc8 4e3b a7cc 8bba dfaf bcbb
00000170: f50e a0bb 7f2f d53b ff0b 68bd 3d88 ac3b
00000180: bc0b 043b 9b6e 193b 8cef abbb 0807 c33b
00000190: 91e0 8937 31a3 833a 660e 7e3b 0204 813b
000001a0: 5c25 8ab9 49dc 76bb 6d1e 8e3a 8045 9f3b
000001b0: 07ed 53bb 8d2f 813e e99e ac3a 2e10 12be
000001c0: 14a7 82bb 4ac2 bd37 2584 baba 0ea9 6939
000001d0: 8dfd d239 eed7 46bb b8d7 fd3b 5ef0 10bb
000001e0: 408e 843d b1ca 2f3b 8a31 cfb8 65f0 3e3d
000001f0: 7ceb 113b 0441 32be e7cd 4b3b 4715 7139
00000200: ffe1 a93b 5e62 ebba fcfa 2b3e 2f6d 0ebc
00000210: 16bf 8a3b 8583 46bb 309c 7bb9 a459 a7be
00000220: e732 0aba db77 a1bb 1dd3 1f3c 745e c33b
00000230: bde2 f6bb c727 173d 2b2a 353b 9166 b03b
00000240: 6f8d 46bb 18bb 0a3c ebfb 9a3b b951 683a
00000250: 1210 1dbc c86a d63b 7abc 1a3a 2e24 a3bb
00000260: 0b81 0b3c d7fd 813a 54e5 09be 2be4 c6bb
00000270: baea 863a 14bf 32bc 1901 1e3b 5f43 26bb
00000280: ad45 733b 4e4c acbc ba4e d7b9 8c1e 0cbd
00000290: f688 7cbb ad87 6bbb 8e91 afba 1cb5 5cbb
000002a0: 5db0 d93b f866 b23b 44dc 093b 6d61 0ebc
000002b0: ba5d 87bd 8348 3e3b 62c9 aa3b c58c fb3b
000002c0: 6e43 95ba 8708 abba 1cc9 92bd a62b 513b
000002d0: 54bc d5bb 2373 15bb 850a 95ba 9bab 01bb
000002e0: bcfd 4fbc b571 2539 6e31 003b 9794 0abc
000002f0: cb4e 793b d1d6 81bb a9a4 14bc a948 133b
00000300: b9f6 0e3c 35e3 53bd fbb3 bd3b f383 383e
00000310: 9e19 4a3b 6bde 6ebb 0d9e 3fb9 affc fc3a
00000320: 614a 2e3c dbe7 43bb 8282 923b 20dd efb9
00000330: df48 28bc ca1a b9bb 266a debb 2879 3fbd
00000340: f3d8 7bbb 6792 073e 8dcb 4f3a 0d57 dbb9
00000350: dea9 6fbb 9186 d03b 5c35 a43c 2921 08ba
00000360: 2647 6738 1e25 443b 6093 153c 759b 023e
00000370: a05b e33b b50d 2736 ec19 9a37 c58a bcbb
00000380: ca0f 783b 9021 d33c c688 a43b 3832 3e3b
00000390: 9ef4 863b 9518 f43a c1cb b7bb e75b ddba
000003a0: f75b 593b 3022 0fbc 4a6b 83ba 1026 903a
000003b0: 49f9 3bbb 5d43 f33b 5be3 073c d188 c73b
000003c0: 5a66 dbb9 4360 6a3b 3b74 9f3b 8188 b43b
000003d0: 6bac 07bc caf5 443d d0d8 5bba 5da4 69be
000003e0: 1a4d 09bb d069 98bb 5bca e73b c95a a03b
000003f0: a037 ca3a 9f49 a13a 2889 07bb 3947 9cba
0.005533331 0.0010264704 0.0033411055 0.000707565 0.06361029 -0.0032014472 -0.0036476746 0.0038472626
0.00462871 -0.004856863 -0.21083705 0.0010178869 0.0031914406 -0.0017917736 0.00045254905 -0.0031224904
-0.00028503514 0.00025141687 -0.0044737346 -0.0013908875 0.0041916124 0.001735759 -0.0054183463 -0.0060059857
-0.0016987647 0.005965587 -0.0050609633 0.10064234 0.005724722 0.0006067502 0.00036291496 -0.00015585293
0.0006730431 0.00017617951 0.00024244517 0.0040408266 -0.010408648 -0.0006491151 0.003934796 0.0027688434
-0.0018159654 0.020928472 4.655408e-07 -0.0007107288 -0.0032342796 -0.0004072551 -0.0022547098 -0.0013693993
-0.0029555701 0.0010164165 -0.0060413363 0.04044352 -0.008422041 0.0028195926 0.0008906954 -0.0008429255
-0.0012260266 -0.25603616 0.004680885 -0.004630642 0.0054682754 -0.0016549396 -0.0029779207 0.003461519
0.0012405233 -0.002117726 0.0023018233 0.0029040896 -0.0042592296 -0.0024168722 -0.1546443 0.0020149818
-0.00014168031 -0.0006048651 0.004174045 0.0034982045 0.001854448 0.0502527 0.0018886137 0.15037921
-0.00053893356 0.00045197515 -0.00081326277 0.0030342254 -0.003929671 -0.0068302252 -0.0021540988 0.0023677093
0.016938865 0.003155268 -0.001066585 -0.00575827 -0.0048845955 0.006505906 -0.056652065 0.0052652643
0.0020148596 0.0023411873 -0.005247062 0.005951766 1.6436245e-05 0.0010043142 0.0038765906 0.0039372453
-0.00026349246 -0.0037667921 0.0010842808 0.00486058 -0.0032337324 0.2523159 0.0013169918 -0.14263985
-0.0039872024 2.2621029e-05 -0.0014230056 0.0002228359 0.0004024323 -0.0030341106 0.007746663 -0.0022115926
0.064724445 0.0026823694 -9.8797565e-05 0.046615977 0.0022265604 -0.17407614 0.003109807 0.00022991477
0.0051844115 -0.0017958393 0.16794962 -0.008693024 0.004234205 -0.0030290794 -0.0002399541 -0.32685578
-0.0005271867 -0.004927618 0.009754923 0.0059621874 -0.0075343535 0.03690317 0.0027643542 0.0053833206
-0.0030296703 0.008467458 0.004729738 0.0008862275 -0.009586351 0.006543491 0.0005902719 -0.004978678
0.008514653 0.0009917569 -0.13466388 -0.00606968 0.0010293343 -0.010909814 0.002410954 -0.0025369746
0.0037120387 -0.021032479 -0.00041066651 -0.03420882 -0.0038533784 -0.0035939023 -0.0013394819 -0.0033677286
0.0066433386 0.0054444037 0.002103583 -0.00869022 -0.06609674 0.002903492 0.005211995 0.007676693
-0.0011387893 -0.0013048806 -0.07167265 0.0031916886 -0.0065226946 -0.0022804223 -0.0011370933 -0.0019786123
-0.012694772 0.00015777985 0.0019560712 -0.008458278 0.003804135 -0.0039623757 -0.009072461 0.0022473729
0.008725815 -0.051730353 0.0057892776 0.18019085 0.0030838023 -0.003644849 -0.00018274058 0.001930138
0.0106378505 -0.0029892835 0.004471124 -0.00045750383 -0.01027128 -0.0056489455 -0.006787556 -0.046746403
-0.0038428872 0.13239442 0.0007926755 -0.00041835793 -0.0036569755 0.006363698 0.020044975 -0.00051929295
5.5140954e-05 0.002992935 0.009129375 0.12754615 0.006938413 2.4892918e-06 1.8370301e-05 -0.0057538473
0.0037851208 0.02577284 0.0050211875 0.0029021632 0.004118516 0.0018623049 -0.005609006 -0.0016888351
0.0033166388 -0.008736178 -0.0010026481 0.0010997672 -0.002868252 0.007423802 0.008293952 0.006089308
-0.00041847193 0.0035762943 0.0048661507 0.0055094366 -0.008280854 0.048085965 -0.00083864946 -0.22816606
-0.0020950497 -0.0046512857 0.007073683 0.004893635 0.0015427954 0.0012305266 -0.0020681117 -0.0011923081

layer3.fc3.bias f4 [10]
00000000: 98d0 07be c1b4 babe 8c80 a43e d2ba 093f
00000010: 82a4 ae3e 8443 debc ac33 c2bd dd76 88be
00000020: 2e2d a9be d337 30bd
-0.13263166 -0.3646603 0.32129323 0.5380069 0.34109885 -0.027131803 -0.09482512 -0.26653185
-0.33042282 -0.043021988
