output/models_cifar10_390.pth (torch_old, 248636 bytes, 10 tensors)

layer1.conv1.weight f4 [6, 1, 5, 5]
-0.000109176435 -0.18088987 0.014494885 -0.12559323 -0.073035166 0.29273218 -0.20815808 0.4330538
-0.06457926 0.21709605 0.09980947 -0.60436743 0.4253136 -0.37410402 -0.058993798 0.3930002
-0.66047937 0.7136571 -0.32765657 0.14183371 0.24283615 -0.6191565 0.49642324 -0.19657835
-0.03322019 0.011684276 -0.052969363 -0.030282192 0.08646432 -0.024445934 0.04750829 0.17351696
-0.5711442 0.13591471 0.2180005 -0.0763125 0.34221646 0.4494714 -1.1023535 0.32604226
0.08391325 -0.5253894 0.75866777 0.16037677 -0.4271836 -0.007898474 0.07906702 -0.3938663
0.39856756 -0.08078068 -0.03880637 -0.021346677 -0.06641427 0.14368404 0.04540923 -0.058259413
-0.03458546 0.18070613 0.05305495 -0.06456854 -0.33108157 0.010274702 0.2799545 -0.10005039
-0.042731974 -0.352212 0.31652614 0.20956396 -0.03537916 0.0053911684 -0.5036683 0.34018743
-0.022945462 0.052854985 -0.09260527 -0.11941889 -0.32721496 -0.12577656 -0.048207156 0.06629256
0.28242296 0.79657745 0.47395808 0.18231194 0.029070642 -0.1257582 -0.43209097 -0.29758906
-0.036053117 -0.10319266 0.1142308 -0.00086571457 -0.090503715 0.083625324 0.20150071 -0.063103415
-0.034954622 -0.015029507 -0.1274741 -0.08416345 -0.09363613 0.029119253 0.0009722088 0.114727005
-0.091941364 0.016418625 0.098543584 0.044279937 -0.14243543 0.1257625 -0.264682 -0.40119177
-0.120814055 0.011720932 -0.29662374 0.2194338 0.221851 -0.16614284 -0.10826999 0.19471191
-0.0653279 0.031241542 0.15573649 0.042002063 -0.11032658 0.04708015 -0.25923884 0.31766006
-0.0022595352 -0.08787232 -0.13010053 0.35970226 0.4553983 -0.6900867 0.01385609 0.114277765
0.45070893 -1.0992802 0.044556722 0.3324532 -0.0043695667 -0.29531574 -0.09488538 0.65198493
-0.2357756 0.11901806 -0.122142754 0.20157854 -0.15853527 0.008387827
00000000: a7f5 e4b8 323b 39be f47b 6d3c 839b 00be
00000010: 7693 95bd fee0 953e 6427 55be 3ab9 dd3e
00000020: 2242 84bd 6d4e 5e3e e868 cc3d d3b7 1abf
00000030: b4c2 d93e 908a bfbe 7ba3 71bd 5237 c93e
00000040: 2d15 29bf 3bb2 363f 9ac2 a7be db3c 113e
00000050: 0aaa 783e 0a81 1ebf 302b fe3e d64b 49be
00000060: e511 08bd 686f 3f3c 67f6 58bd 5c12 f8bc
00000070: 3514 b13d d742 c8bc 0d98 423d 6eae 313e
00000080: 8236 12bf 3a2d 0b3e 863b 5f3e ba49 9cbd
00000090: ff36 af3e 1e21 e63e eb19 8dbf 03ef a63e
000000a0: b6da ab3d eb7f 06bf 0d38 423f cf39 243e
000000b0: cfb7 dabe 9a68 01bc e4ed a13d d8a8 c9be
000000c0: 0c11 cc3e 5770 a5bd 6ef3 1ebd 3adf aebc
000000d0: 3404 88bd e921 133e 07ff 393d 6ca1 6ebd
000000e0: 7ca9 0dbd 070b 393e 2650 593d 833c 84bd
000000f0: 8683 a9be 3957 283c 3256 8f3e 38e7 ccbd
00000100: b907 2fbd 2255 b4be b70f a23e ef97 563e
00000110: bde9 10bd 66a8 b03b 68f0 00bf 0c2d ae3e
00000120: 1ff8 bbbc 787e 583d d5a7 bdbd e491 f4bd
00000130: b888 a7be 92cb 00be de74 45bd 65c4 873d
00000140: be99 903e 80ec 4b3f a2aa f23e fbaf 3a3e
00000150: 8e25 ee3c c2c6 00be 073b ddbe 985d 98be
00000160: 6fac 13bd ac56 d3bd d6f1 e93d 1ff1 62ba
00000170: 035a b9bd c143 ab3d 3456 4e3e 5d3c 81bd
00000180: 942c 0fbd 523e 76bc 9288 02be e35d acbd
00000190: 4dc4 bfbd 808b ee3c d4db 7e3a fef5 ea3d
000001a0: c14b bcbd 5a80 863c 38d1 c93d e15e 353d
000001b0: 98da 11be e3c7 003e 6684 87be 0269 cdbe
000001c0: 5c6d f7bd 2709 403c 11df 97be 41b3 603e
000001d0: e92c 633e 5921 2abe a8bc ddbd 8f62 473e
000001e0: a2ca 85bd 43ee ff3c 6379 1f3e 5b0a 2c3d
000001f0: e7f2 e1bd 1ed7 403d f4ba 84be 57a4 a23e
00000200: b614 14bb 67f6 b3bd 1339 05be e52a b83e
00000210: f729 e93e 86a9 30bf a704 633c 760a ea3d
00000220: 52c3 e63e 37b5 8cbf 1c81 363d 4e37 aa3e
00000230: 952e 8fbb a033 97be 4453 c2bd 7ce8 263f
00000240: 296f 71be bebf f33d fb25 fabd 9b6a 4e3e
00000250: 1257 22be 196d 093c

layer1.conv1.bias f4 [6]
-0.33237034 -0.32041636 -0.31678903 -0.29048848 -0.30134147 -0.34906512
00000000: 722c aabe 9d0d a4be 2c32 a2be e8ba 94be
00000010: 6e49 9abe aab8 b2be

layer2.conv2.weight f4 [16, 6, 5, 5]
0.063789934 -0.007883396 0.06824693 0.15098982 0.055010766 0.056103587 -0.07639468 0.031313036
0.033912603 0.04030808 -0.019746285 0.0035182722 -0.021405956 0.014745253 0.056647576 0.019470576
-0.13035148 -0.08026501 0.09517011 -0.105981685 -0.23084399 -0.36795378 -0.6888546 -0.71898353
-0.3058059 0.3480913 0.16436951 0.019166991 0.026349632 0.1900767 0.24669524 0.19425981
0.21524958 0.08275217 0.1654685 0.4290762 0.18181407 0.15624458 0.044616465 0.2136928
0.36635458 0.32925838 0.21232899 0.109615296 -0.034522686 0.4302519 0.12459293 -0.13227412
-0.0017714021 -0.065484226 0.2036982 0.13444105 -0.009207573 0.16701262 -0.049662568 0.02582041
0.12218869 0.04901407 -0.15352964 0.1502499 -0.25317398 0.013042814 0.09730509 0.18528245
-0.0038225777 -0.0978806 -0.14863902 -0.10203103 0.24186149 0.21921325 -0.1254184 -0.20702799
-0.37059742 -0.38559067 -0.12979148 0.25695175 -0.14275855 -0.037059978 -0.00439212 0.15270247
0.16632476 0.056013197 0.17234336 0.13581038 0.043157198 -0.01840469 0.32956946 0.13380341
0.1875413 0.08866576 -0.23590411 0.27422282 0.27159187 0.20099238 -0.011792097 -0.12822983
0.10513575 0.22327653 0.35405484 0.29549965 0.22772416 0.055628773 -0.040934794 0.24694146
0.11210884 0.40556005 0.07856022 0.23031452 0.051595103 0.31750754 0.3224819 0.114873365
0.23080547 0.061706025 0.42336673 0.16775385 0.10393455 0.52868193 0.3366537 0.087455764
-0.42696223 0.42677134 0.72206265 0.1459386 -0.1817457 -0.071759716 -0.10543291 -0.0031544224
0.039692648 0.021770904 -0.0698653 -0.16474304 -0.006432604 0.0713427 0.17746304 0.015665103
-0.102174744 0.034794893 0.049542524 0.12595364 0.030847736 -0.00079279824 -0.10935306 0.078346014
0.186869 0.01278732 0.097012475 -0.070045516 0.023875613 0.24567522 -0.085604556 0.03849139
0.08259052 0.18246952 -0.16362903 0.20669478 0.03533461 0.081401 -0.2690219 0.05622863
-0.011323622 0.31887618 -0.13050342 0.03340365 -0.048107907 -0.16365989 -0.3245609 -0.058304515
-0.06362363 -0.25877318 -0.05492896 0.15313421 -0.17982645 -0.35946319 -0.11024016 0.22575496
0.10511207 0.08516653 0.30138493 0.06023923 0.012144273 0.014731033 -0.36367095 0.3346781
0.2161235 -0.2890078 0.08579643 -0.39823553 0.30796763 0.050885305 0.017693449 -0.05685046
-0.3319123 -0.50444746 0.070276305 0.19743897 0.29334858 0.54196775 0.039223563 -0.35862035
-0.027676655 0.089852884 0.16368142 -0.042825826 0.1058404 0.05511492 -0.29930243 0.059985027
0.250063 -0.34182173 0.13495784 0.42633948 -0.16140684 0.6504381 0.036456194 0.016986253
0.1579907 0.17447014 0.22211315 0.29434776 0.11753782 -0.13206519 0.037355796 -0.0029220278
0.2974543 0.083743475 0.13944128 -0.14191326 -0.06741231 0.11113467 0.0025484043 0.0998617
-0.26474193 -0.29500192 0.07924146 -0.15610683 -0.06485002 -0.20298964 -0.40438944 -0.15273474
0.16120537 -0.2659087 -0.17057267 -0.3068279 -0.27650157 0.19341657 -0.13231307 -0.053504936
0.19062923 -0.30952606 0.19217446 0.19699697 -0.39313674 -0.13517736 0.08246214 -0.22333713
00000000: 4ca4 823d 5c29 01bc 0cc5 8b3d 139d 1a3e
00000010: f852 613d e0cc 653d d074 9cbd 1942 003d
00000020: f1e7 0a3d 161a 253d f6c2 a1bc d092 663b
00000030: 8b5b afbc 1396 713c 4a07 683d c280 9f3c
00000040: dc7a 05be fb61 a4bd 8ce8 c23d ed0c d9bd
00000050: 5e62 6cbe 7064 bcbe c658 30bf 4e0f 38bf
00000060: 9792 9cbe 0639 b23e 7b50 283e 1804 9d3c
00000070: 2fdb d73c 77a3 423e ad9d 7c3e 0bec 463e
00000080: 636a 5c3e f879 a93d 9370 293e e0af db3e
00000090: 782d 3a3e 94fe 1f3e c1bf 363d 49d2 5a3e
000000a0: d492 bb3e 8e94 a83e c56c 593e fc7d e03d
000000b0: a967 0dbd fa49 dc3e 942a ff3d de72 07be
000000c0: 642e e8ba 981c 86bd 4396 503e eaaa 093e
000000d0: 5cdb 16bc 5b05 2b3e fa6a 4bbd 5385 d33c
000000e0: 103e fa3d fac2 483d e036 1dbe 1cdb 193e
000000f0: 05a0 81be 87b1 553c e447 c73d afba 3d3e
00000100: 3684 7abb a075 c8bd d434 18be a5f5 d0bd
00000110: 8aaa 773e 7079 603e ae6d 00be 25ff 53be
00000120: f2be bdbe 246c c5be 0fe8 04be 2e8f 833e
00000130: 4c2f 12be 34cc 17bd c6eb 8fbb 095e 1c3e
00000140: 0a51 2a3e 186e 653d c77a 303e e011 0b3e
00000150: 9ac5 303d 6fc5 96bc 54bd a83e c303 093e
00000160: d40a 403e 6596 b53d d990 71be ef66 8c3e
00000170: 170e 8b3e f2d0 4d3e a433 41bc ae4e 03be
00000180: 6951 d73d 9aa2 643e ad46 b53e bb4b 973e
00000190: 8630 693e ffda 633d 3eab 27bd 39de 7c3e
000001a0: 5299 e53d 91a5 cf3e 2ee4 a03d 92d7 6b3e
000001b0: 6355 533d 5990 a23e 591c a53e ba42 eb3d
000001c0: 4558 6c3e 75bf 7c3d 86c3 d83e aac7 2b3e
000001d0: a3db d43d b357 073f e05d ac3e 021c b33d
000001e0: cb9a dabe c681 da3e 19d9 383f ee70 153e
000001f0: 8b1b 3abe c2f6 92bd 36ed d7bd 6dba 4ebb
00000200: c294 223d e558 b23c 8a15 8fbd 66b2 28be
00000210: 98c8 d2bb 1f1c 923d dfb8 353e 1a54 803c
00000220: fe40 d1bd 1785 0e3d 1aed 4a3d fef9 003e
00000230: 64b4 fc3c cad3 4fba 7ff4 dfbd e073 a03d
00000240: 965a 3f3e e881 513c 7aae c63d 0674 8fbd
00000250: ca96 c33c 4992 7b3e 7151 afbd 26a9 1d3d
00000260: 3825 a93d 4ad9 3a3e 5e8e 27be cca7 533e
00000270: 06bb 103d 91b5 a63d 3dbd 89be fe4f 663d
00000280: b786 39bc bd43 a33e b0a2 05be 44d2 083d
00000290: cc0c 45bd 7596 27be d92c a6be b7d0 6ebd
000002a0: 1b4d 82bd eb7d 84be 30fd 60bd 37cf 1c3e
000002b0: 6d24 38be 8f0b b8be 98c5 e1bd 4f2c 673e
000002c0: ff44 d73d ca6b ae3d 204f 9a3e 69bd 763d
000002d0: c6f8 463c 6e5a 713c 1433 babe ee5a ab3e
000002e0: 7b4f 5d3e d5f8 93be 0ab6 af3d 87e5 cbbe
000002f0: efad 9d3e 1c6d 503d daf1 903c 07dc 68bd
00000300: 69f0 a9be 7823 01bf 06ed 8f3d 712d 4a3e
00000310: c931 963e 66be 0a3f e3a8 203d 169d b7be
00000320: 27ba e2bc ca04 b83d 1a9c 273e 226a 2fbd
00000330: dac2 d83d 2fc0 613d 2b3e 99be dcb2 753d
00000340: 4208 803e 4203 afbe 6332 0a3e 2b49 da3e
00000350: d647 25be 1c83 263f 1753 153d c126 8b3c
00000360: 50c8 213e 4da8 323e a171 633e c0b4 963e
00000370: abb7 f03d 193c 07be 6402 193d 7e7f 3fbb
00000380: ee4b 983e b381 ab3d b2c9 0e3e b651 11be
00000390: 770f 8abd 939a e33d 2103 273b 4a84 cc3d
000003a0: 418c 87be 7e0a 97be 5949 a23d 78da 1fbe
000003b0: 16d0 84bd 84dc 4fbe 220c cfbe 7f66 1cbe
000003c0: 0513 253e 2f25 88be 9aaa 2ebe 8c18 9dbe
000003d0: 9d91 8dbe fe0e 463e 147d 07be fe27 5bbd
000003e0: 4f34 433e 337a 9ebe 62c9 443e 93b9 493e
000003f0: 3849 c9be ef6b 0abe e9e1 a83d 7db2 64be

layer2.conv2.bias f4 [16]
-0.6446697 -0.86354023 -0.68320525 -0.6100648 -0.79448265 -0.55799276 -0.61392564 -0.40863937
-0.8013128 -0.7253733 -0.53420186 -0.42502746 -0.38653722 -0.6885679 -0.66047204 -0.44219053
00000000: 1309 25bf f910 5dbf 8ae6 2ebf 352d 1cbf
00000010: 3763 4bbf 9dd8 0ebf 3b2a 1dbf 2e39 d1be
00000020: d622 4dbf 11b2 39bf 74c1 08bf 339d d9be
00000030: 35e8 c5be fc45 30bf b214 29bf cc66 e2be

layer3.fc1.weight f4 [120, 400]
-0.003034115 0.0053941063 -0.008218103 -0.002469654 -0.011134538 0.009456164 -0.045102555 0.0047989567
-0.021315949 -0.023546824 -0.012820111 -0.010882655 0.0092782 -0.0005520435 -0.004408747 -0.020791812
-0.015605073 -0.00011631262 0.010702155 0.008915626 -0.022963662 0.0014017606 0.004450814 -0.027998041
-0.010762256 -0.05013195 0.024721242 0.011771017 0.022689069 0.022887794 -0.009882062 0.0016187765
0.02123523 0.03486131 -0.008061067 -0.0023113587 -0.047680035 0.032054402 0.028305162 0.03594246
-0.01378469 -0.019208884 -0.0040237145 -0.035050962 -0.0044357185 -0.021793578 0.027897771 0.013099965
0.026650827 -0.0062266043 0.022679903 0.05119754 -0.017555604 0.019240225 -0.005435281 0.012749545
0.018544685 -0.021968404 0.0065394854 -0.0056816027 -0.0020105361 -0.017709741 -0.036648203 0.02117917
-0.012582485 -0.010119395 -0.0073851584 -0.01774048 -0.0060536414 0.0063513676 -0.014459264 0.028618835
-0.0010506825 0.017140007 0.0042089084 -0.0105010485 0.021700732 0.016909143 -0.02345645 -0.01749371
-0.022462383 0.040048603 0.017931907 -0.029520517 -0.0019769047 -0.00051720225 0.009322682 0.021988964
-0.010949119 0.017773867 -0.0064731124 -0.016473249 -0.0006539 -0.013625463 0.0059586456 0.017557641
0.004438159 0.01644766 -0.0006168452 -0.0060151024 -0.016349703 -0.040108252 -0.012890008 0.009454289
-0.01122409 0.0017985677 -0.048664115 -0.030694814 0.004648138 0.0055472767 0.004603964 0.010984834
-0.009360952 0.016806133 -0.02437299 -0.0061915144 0.016711287 -0.005947624 -0.00877898 0.015016308
-0.018548885 -0.002914378 0.017171038 -0.0058281864 -0.004725023 0.018249372 0.019751718 -0.026734646
0.00066942896 0.029325206 0.0005670797 0.023070104 -0.011692388 -0.002990551 -0.016941944 -0.006634865
0.03312026 -0.037743002 -0.0018065115 0.0065349774 -0.009530546 0.005562539 -0.02294965 -0.010713676
-0.006411845 0.0014173232 0.0017369225 -0.021992618 0.0018799318 0.0078456765 0.0062508187 0.0020441602
-0.025714822 0.020014655 0.00047978258 0.0065161604 0.013562934 -0.002157245 0.0131849535 0.019007968
-0.0051411972 -0.012077352 -0.012029681 0.021668462 0.008966776 0.031385038 0.018414406 -0.007877718
0.010935243 0.02062762 0.010719168 0.008983799 0.00075928116 0.053901322 0.012008044 0.0041087205
0.0281163 0.013458183 0.021319823 -0.0036554593 0.0064431075 0.025983827 -0.001844528 -0.014174089
-0.030325208 -0.034382198 -0.015502909 -0.0010400536 0.002096896 -0.0027840019 -0.024803476 0.0045047444
0.01248145 0.011301627 0.024745338 0.0076107946 0.012249324 0.00924903 0.024119051 0.015504525
-0.00942011 -0.012516502 -0.012316241 -0.016622089 0.0065465164 -0.03904502 -0.035115343 -0.011652586
0.012058012 0.005096118 -0.0012271479 -0.010789662 -0.017578423 0.020212116 0.019137217 -0.018156854
0.016796336 -0.0005814544 -0.021567872 0.010125349 0.012891652 0.0181403 0.02069751 0.012316192
0.016902816 -0.008260404 -0.008101762 -0.0043080384 -0.005028022 0.004982166 -2.81083e-05 -0.0055737663
0.01473505 0.030320855 -0.007806368 -0.018128423 -0.018197771 0.013537427 0.021340135 -0.022968782
-0.012576345 0.009616469 -0.0059467647 -0.005472273 -0.03517823 -0.011524259 0.00050047704 -0.0061858557
-0.015936852 -0.01584264 0.015044822 -0.003947189 0.0024468163 0.007267152 0.00919663 0.022657802
00000000: 01d8 46bb 0bc1 b03b 39a5 06bc ebd9 21bb
00000010: a36d 36bc 07ee 1a3c 75bd 38bd 9140 9d3b
00000020: c99e aebc 45e5 c0bc 710b 52bc 2a4d 32bc
00000030: 9703 183c 03b7 10ba 4077 90bb 9753 aabc
00000040: 6cac 7fbc ddec f3b8 1758 2f3c d912 123c
00000050: 4a1e bcbc 48bb b73a 22d8 913b 265c e5bc
00000060: 2c54 30bc 2957 4dbd 3484 ca3c 39db 403c
00000070: 6dde b93c 2f7f bb3c 5fe8 21bc 202d d43a
00000080: 81f5 ad3c bcca 0e3d 9112 04bc 2a7a 17bb
00000090: 244c 43bd 7a4b 033d 3ae0 e73c 6738 133d
000000a0: 2ed9 61bc f35b 9dbc 5dd9 83bb 9991 0fbd
000000b0: 8159 91bb 7288 b2bc de89 e43c 3ca1 563c
000000c0: d652 da3c 8b08 ccbb 34cb b93c 83b4 513d
000000d0: c5d0 8fbc ad9d 9d3c 711a b2bb 78e3 503c
000000e0: 06eb 973c 15f7 b3bc 2e49 d63b bd2c babb
000000f0: 33c3 03bb 0514 91bc 6d1c 16bd f07f ad3c
00000100: c426 4ebc d2cb 25bc 33ff f1bb 7c54 91bc
00000110: a05d c6bb 221f d03b 8de6 6cbc 0c72 ea3c
00000120: 0eb7 89ba 3369 8c3c e2ea 893b 970c 2cbc
00000130: bcc5 b13c 0b85 8a3c be27 c0bc f84e 8fbc
00000140: 0803 b8bc 010a 243d efe5 923c 03d5 f1bc
00000150: f58e 01bb db94 07ba 2abe 183c 3322 b43c
00000160: ef63 33bc 809a 913c 671c d4bb e8f2 86bc
00000170: 7c6a 2bba 553d 5fbc be40 c33b 0bd5 8f3c
00000180: fa6d 913b 3ebd 863c c8b3 21ba 561a c5bb
00000190: d0ef 85bc 8d48 24bd 9d30 53bc 2ae6 1a3c
000001a0: 3fe5 37bc ebbd eb3a 0654 47bd b173 fbbc
000001b0: 684f 983b eec5 b53b d9dc 963b bcf9 333c
000001c0: ae5e 19bc 04ad 893c dda9 c7bc 30e2 cabb
000001d0: 1ce6 883c 49e4 c2bb b6d5 0fbc f606 763c
000001e0: d5f3 97bc 26ff 3ebb 47aa 8c3c 5ffa bebb
000001f0: 5ed4 9abb b57f 953c 5bce a13c 9e02 dbbc
00000200: 9e7c 2f3a 6a3b f03c 13a8 143a 84fd bc3c
00000210: 6e91 3fbc 1ffd 43bb d5c9 8abc 4869 d9bb
00000220: 1ca9 073d 6898 1abd 78c8 ecba 5d23 d63b
00000230: 0226 1cbc f645 b63b e800 bcbc 6a88 2fbc
00000240: 741a d2bb 7ac5 b93a 73a9 e33a dd29 b4bc
00000250: 0b68 f63a 278b 003c abd3 cc3b 51f7 053b
00000260: e4a7 d2bc c6f5 a33c 548b fb39 8485 d53b
00000270: 1137 5e3c 9160 0dbb b405 583c 99b6 9b3c
00000280: 7d77 a8bb 16e0 45bc 2418 45bc 0f82 b13c
00000290: 62e9 123c 998d 003d cfd9 963c 8b11 01bc
000002a0: bc29 333c 41fb a83c 739f 2f3c c930 133c
000002b0: 7f0a 473a a2c7 5c3d 63bd 443c 72a2 863b
000002c0: 2854 e63c b67f 5c3c e9a6 ae3c 6e90 6fbb
000002d0: b420 d33b 09dc d43c 17c4 f1ba 703a 68bc
000002e0: 926c f8bc 59d4 0cbd eaff 7dbc 6852 88ba
000002f0: 146c 093b cd73 36bb a930 cbbc 899c 933b
00000300: ff7e 4c3c 762a 393c bcb6 ca3c f963 f93b
00000310: 63b1 483c 3e89 173c 5195 c53c b106 7e3c
00000320: ce56 1abc 0412 4dbc 0fca 49bc 0c2b 88bc
00000330: 2984 d63b aced 1fbd 1bd5 0fbd 7dea 3ebc
00000340: f88e 453c 56fd a63b 40d8 a0ba 1fc7 30bc
00000350: a000 90bc e193 a53c a7c5 9c3c afbd 94bc
00000360: 7898 893c bf6c 18ba 1baf b0bc cbe4 253c
00000370: 8237 533c f79a 943c d38d a93c dac9 493c
00000380: c677 8a3c a556 07bc 41bd 04bc 722a 8dbb
00000390: 1bc2 a4bb 7041 a33b 1dca ebb7 24a4 b6bb
000003a0: 476b 713c 7163 f83c 90cc ffbb 0f82 94bc
000003b0: 7e13 95bc 16cc 5d3c 82d1 ae3c 0729 bcbc
000003c0: 040d 4ebc 658e 1d3c 14dd c2bb c150 b3bb
000003d0: 0c17 10bd 3fd0 3cbc 7232 033a b8b2 cabb
000003e0: 008e 82bc 6dc8 81bc 8f7e 763c 6c57 81bb
000003f0: c45a 203b 4a21 ee3b 76ad 163c db9c b93c

layer3.fc1.bias f4 [120]
-0.0051735993 -0.0031040118 0.014180549 -0.0106114745 -0.022117402 0.009483903 0.029706344 0.026487092
0.008456637 -0.0113630295 -0.006396518 0.024217276 0.005478877 -0.016138406 0.021945577 0.0031866853
-0.0073011303 -0.0033935206 -0.004980609 -0.017082458 0.0023247772 -0.0022185857 0.0035876979 -0.016944258
-0.022032216 -0.028073847 -0.006151589 -0.003947763 -0.02664379 -0.0025327513 -0.0010464088 -0.018080102
0.1745876 -0.003681358 0.010361441 -0.009555397 -0.053319488 -0.0028790645 0.01705742 -0.009152688
-0.011722712 0.024958761 0.010723541 0.10434391 -0.0025422357 0.004923109 0.006070448 -0.0018185732
0.0015547783 0.00028634 -0.0118174385 -0.0019310346 0.01709779 0.014516472 0.015753657 -0.004323514
-0.0032673918 -0.008180693 0.015277522 0.0020725525 0.0149995 0.0025933569 -0.007846294 0.10354444
-0.15879376 0.00043467048 0.010311255 0.012645076 -0.0053931326 0.027913293 0.0034225192 0.006402917
-0.006503532 0.007034542 -0.003414089 0.0075023123 0.017600192 -0.0063249543 -0.00856268 0.0050950344
-0.026324403 -0.0091874935 -0.00022627634 -0.017898645 0.0046201437 0.004219033 -0.008157946 -0.0012350825
-0.010617834 0.004870638 -0.011645765 -0.000903808 -0.019815518 -0.0025479598 -0.0047895336 0.0028303438
-0.0007083472 0.011643362 -0.0053865667 -0.027542599 -0.0032257766 -0.00015185928 0.001982301 0.013187427
-0.0014388956 -0.015376691 0.0035784577 -0.008771912 0.00880652 -0.009849685 0.02172646 -0.02042043
0.3387616 0.009424943 -0.01708118 -0.0077362866 0.006631198 -0.0049664304 -0.004594745 0.18981239
00000000: 4c87 a9bb ad6c 4bbb 8955 683c c0db 2dbc
00000010: 8e2f b5bc 5f62 1b3c b85a f33c 75fb d83c
00000020: b58d 0a3c 002c 3abc e299 d1bb 4f63 c63c
00000030: 2788 b33b b134 84bc 36c7 b33c b5d7 503b
00000040: 523e efbb d465 5ebb 6034 a3bb 83f0 8bbc
00000050: 4a5b 183b b165 11bb 951f 6b3b afce 8abc
00000060: e87c b4bc 20fb e5bc 4593 c9bb 3c5c 81bb
00000070: 1444 dabc 84fc 25bb a727 89ba b91c 94bc
00000080: 18c7 323e f042 71bb 09c3 293c 3d8e 1cbc
00000090: 8965 5abd b0ae 3cbb 01bc 8b3c 28f5 15bc
000000a0: 9e10 40bc 5176 cc3c cab1 2f3c 43b2 d53d
000000b0: a39b 26bb 0852 a13b 9cea c63b 315d eeba
000000c0: b4c9 cb3a e71f 9639 ee9d 41bc c51a fdba
000000d0: aa10 8c3c 7fd6 6d3c d00d 813c 44ac 8dbb
000000e0: bd21 56bb 5008 06bc 924e 7a3c a9d3 073b
000000f0: 76c0 753c 4ff5 293b be8d 00bc 1b0f d43d
00000100: d59a 22be 7ce4 e339 8af0 283c 4b2d 4f3c
00000110: e0b8 b0bb 6baa e43c 584c 603b 90cf d13b
00000120: 951b d5bb 0482 e63b e9be 5fbb f5d5 f53b
00000130: 472e 903c 9041 cfbb 7c4a 0cbc 3ff4 a63b
00000140: 46a6 d7bc 2487 16bc 9844 6db9 2ea0 92bc
00000150: 9364 973b d03f 8a3b e8a8 05bc 7ee2 a1ba
00000160: 6cf6 2dbc df99 9f3b e1cd 3ebc 87ed 6cba
00000170: 2754 a2bc acfb 26bb 85f1 9cbb 4a7d 393b
00000180: 60b0 39ba cdc3 3e3c cc81 b0bb 04a1 e1bc
00000190: 8d67 53bb 6a3c 1fb9 7ee9 013b 1410 583c
000001a0: 5399 bcba 84ee 7bbc 8f84 6a3b 11b8 0fbc
000001b0: 3949 103c 9360 21bc b0fb b13c bf48 a7bc
000001c0: 2972 ad3e 136b 1a3c d5ed 8bbc ad80 fdbb
000001d0: 854a d93b 70bd a2bb 848f 96bb 2e5e 423e

layer3.fc2.weight f4 [84, 120]
-0.0073241936 0.0051560113 0.004966295 0.0004191396 -0.0041237045 -0.0057187313 -0.004507604 0.007170606
-0.0045750737 0.000826602 0.0033419419 -0.0047979862 -0.010759932 -0.005722163 -0.00811917 0.00725806
0.004627724 0.0022970492 0.005840677 -0.004743118 0.0036613855 -0.008747089 0.006477688 -0.0060016955
8.380219e-05 -0.0015349485 -0.0016270361 0.011166346 -0.0002605901 0.0068573034 0.0028576246 -0.0030180498
0.0049497294 0.010524227 -0.0030695982 0.006573826 0.014495046 -0.0010238307 -0.005634703 0.0053259274
-0.0016490169 -0.0004141251 -0.0027984367 0.003281961 -0.0026422462 -0.0040740645 -0.002815087 -0.0012287243
0.0065208892 -0.014131692 -0.0054429593 0.0020946916 0.007359364 0.0011143261 -0.011717771 -0.0033894966
0.009458048 -0.006062239 -0.0053382115 0.0035419015 -0.0076587894 -0.0039276117 -0.005668677 0.00408157
-0.009629317 0.0064050797 0.003302802 0.00793964 5.970578e-05 0.0057352036 -0.005588126 0.0003053573
0.004521695 -0.00012350727 -0.0034377428 0.004685073 0.011806561 0.002873316 -0.016356092 0.007841438
-0.005391562 -0.006397133 -0.0049440823 -0.002073505 0.0015488137 0.008002429 0.00278121 -0.0018067468
-0.00050300185 -0.0015773579 0.010168479 0.00762419 -0.00035335292 0.007600745 0.003838303 -0.011851024
-0.0025186401 0.0021293848 0.004414421 0.0025122 -0.0051405546 -0.0040999246 -0.00051473983 -0.015564165
-0.0008735427 -0.009675845 -0.000991731 -0.00022752331 0.0040455232 0.0040814504 -0.0012830531 -0.0023344709
-0.00944011 -0.0014468887 -0.0072717653 -0.01427121 -0.0049083545 -0.008440283 0.0013631145 -0.0074585634
0.0016202502 0.0027474174 0.0030116865 -0.00228464 0.0018330109 -0.012798023 -0.0047140573 0.0027249455
-0.010087895 0.0049255053 0.012204809 -0.015570424 -0.012351641 -0.0076698666 -0.010896605 -0.0034420479
-0.0039648507 -0.008137845 -0.0039293505 -0.003942039 -0.00015553927 -0.00894018 -0.0014314732 -0.009593952
-0.003738265 0.018415166 -0.005496344 0.00018296865 0.0026968664 0.0025748587 0.0038102989 0.0038788635
-0.003588675 0.0065240166 -0.0075843404 0.010117867 0.006150687 0.0012557445 -0.003916436 0.0075933873
-0.0026667737 -0.0053850836 -0.0009710634 0.0027665636 -0.001223411 -0.0016361931 -0.011136962 -0.0016526215
0.0064743483 -0.014915977 -0.011438305 0.0013092638 0.0017621155 -0.0006715966 -0.0048639746 -0.0072651985
0.0071682543 -0.0015144317 -0.0013702709 0.0072890176 -0.010947221 -0.0045664744 -0.010229921 0.005578589
-0.006830572 0.0021475984 0.0029893906 0.0062531033 -0.0113415755 -0.0067912233 0.0054627866 0.013529802
-0.008796816 0.015028023 -0.0047069686 -0.005398416 0.00574308 0.011580125 -0.007369232 0.005953191
-0.0024779893 -0.008391293 0.0011724915 -0.00823418 0.0025972966 0.0061487053 -0.0005021616 0.0035929172
0.0054718563 -0.001734909 0.012973913 -0.008586181 0.0037065079 0.0027031484 0.0056977533 -0.0099978885
-0.006609077 -0.0018431344 0.004918256 0.0058203726 -0.012129435 -0.011611937 -0.0012197059 -0.0061585438
-0.006839483 -0.0118410215 0.0049281167 0.0070068403 0.015681945 -0.012210592 0.00049479754 -0.000659695
-0.0015068193 0.0003717238 -0.010178365 -0.011455212 -0.009121282 -0.00798913 0.003846214 -0.008424198
0.0053918026 -0.015013143 0.0094063105 -0.0102730775 0.021538319 -0.0019605183 0.004454844 0.00063634774
0.00055511115 -0.0025565329 -0.0069758506 -0.0068132533 -0.012774212 -0.006851831 0.008827276 -0.007198677
00000000: caff efbb c2f3 a83b 4dbc a23b f7bf db39
00000010: 2420 87bb 3264 bbbb 86b4 93bb 67f7 ea3b
00000020: 80ea 95bb 52b0 583a 7b04 5b3b 6d38 9dbb
00000030: 6d4a 30bc fb80 bbbb 4406 05bc 05d5 ed3b
00000040: 2aa4 973b 178a 163b 2663 bf3b 286c 9bbb
00000050: dbf3 6f3b f34f 0fbc c942 d43b dfa9 c4bb
00000060: f5be af38 5330 c9ba 4642 d5ba 0df3 363c
00000070: d09f 88b9 3bb3 e03b fc46 3b3b 79ca 45bb
00000080: 5731 a23b cf6d 2c3c 502b 49bb 4069 d73b
00000090: a17c 6d3c 0f32 86ba 51a3 b8bb 1e85 ae3b
000000a0: d323 d8ba ee1e d9b9 fa65 37bb 2b16 573b
000000b0: 8929 2dbb bb7f 85bb 537d 38bb 250d a1ba
000000c0: 2fad d53b 9d88 67bc da5a b2bb 1847 093b
000000d0: d226 f13b 940e 923a e5fb 3fbc 5122 5ebb
000000e0: eef5 1a3c bfa5 c6bb 2aec aebb 3f1f 683b
000000f0: 95f6 fabb 32b3 80bb 4fc0 b9bb b1be 853b
00000100: 48c4 1dbc b4e1 d13b d373 583b 4415 023c
00000110: 986c 7a38 60ee bb3b 991c b7bb 5d18 a039
00000120: ba2a 943b bb81 01b9 c14b 61bb 3e85 993b
00000130: 4e70 413c 3e4e 3c3b 36fd 85bc 6079 003c
00000140: b3ab b0bb 0b9f d1bb f801 a2bb a4e3 07bb
00000150: 9001 cb3a 9f1c 033c f644 363b 5dd0 ecba
00000160: e2db 03ba 59bf ceba b199 263c 57d4 f93b
00000170: 3a42 b9b9 ac0f f93b 0a8c 7b3b cc2a 42bc
00000180: c50f 25bb 268d 0b3b d9a6 903b b9a3 243b
00000190: 1972 a8bb a958 86bb 9bef 06ba d700 7fbc
000001a0: 75fe 64ba 6f87 1ebc f8fc 81ba 5393 6eb9
000001b0: 4f90 843b b0bd 853b 1e2c a8ba ecfd 18bb
000001c0: b1aa 1abc 87a5 bdba fd47 eebb cbd1 69bc
000001d0: 43d6 a0bb 1d49 0abc 88aa b23a f766 f4bb
000001e0: 935e d43a 040e 343b b75f 453b e6b9 15bb
000001f0: a441 f03a cdae 51bc 6178 9abb 0095 323b
00000200: b347 25bc 2266 a13b aef6 473c 171b 7fbc
00000210: 8a5e 4abc 8153 fbbb ad87 32bc fb93 61bb
00000220: 94eb 81bb 9954 05bc c8c1 80bb 382c 81bb
00000230: 4118 23b9 d579 12bc 45a0 bbba f42f 1dbc
00000240: aefd 74bb 67db 963c ad1a b4bb 46db 3f39
00000250: e9bd 303b f6be 283b 35b6 793b 8834 7e3b
00000260: fa2f 6bbb 6bc7 d53b 0f86 f8bb 69c5 253c
00000270: b48b c93b cb97 a43a 7255 80bb f3d1 f83b
00000280: 0ac5 2ebb 5b75 b0bb f68e 7eba 3c4f 353b
00000290: dc5a a0ba 8875 d6ba ce77 36bc c79c d8ba
000002a0: c526 d43b 2462 74bc ba67 3bbc 9a9b ab3a
000002b0: c9f6 e63a 160e 30ba fa61 9fbb e710 eebb
000002c0: ade3 ea3b e57f c6ba a99a b3ba b6d8 ee3b
000002d0: f95b 33bc 5da2 95bb 669b 27bc 99cc b63b
000002e0: fed2 dfbb b9be 0c3b a7e9 433b d5e6 cc3b
000002f0: 04d2 39bc e988 debb 2d01 b33b 1aac 5d3c
00000300: 8520 10bc 1938 763c ea3c 9abb 32e5 b0bb
00000310: 7230 bc3b 91ba 3d3c 9979 f1bb fc12 c33b
00000320: c365 22bb a27b 09bc 49ae 993a a7e8 06bc
00000330: 6837 2a3b 147b c93b 7fa3 03ba 2677 6b3b
00000340: 424d b33b e365 e3ba 8990 543c 0ead 0cbc
00000350: e2e8 723b 4e27 313b 38b4 ba3b 2fce 23bc
00000360: f590 d8bb 5495 f1ba 5229 a13b d3b8 be3b
00000370: 8aba 46bc fe3f 3ebc 8ade 9fba 9ccd c9bb
00000380: be1d e0bb d800 42bc 0a7c a13b a399 e53b
00000390: 6c77 803c ef0e 48bc 4db5 013a 62ef 2cba
000003a0: 7780 c5ba ede3 c239 28c3 26bc a4ae 3bbc
000003b0: 6e71 15bc d7e4 02bc c310 7c3b a605 0abc
000003c0: b8ad b03b b0f9 75bc ed1c 1a3c 6950 28bc
000003d0: 2171 b03c 0a7c 00bb f1f9 913b 93d0 263a
000003e0: e184 113a 818b 27bb ad95 e4bb b641 dfbb
000003f0: ee4a 51bc 5385 e0bb 47a0 103c e1e2 ebbb

layer3.fc2.bias f4 [84]
-0.009555306 0.003382882 0.013471264 0.0052977805 -0.022334304 -0.01155876 0.017714106 -0.010471417
0.0062057436 -0.0051355977 0.21618949 -0.0048594656 0.023432018 0.020221826 -0.023957863 0.018443009
-0.021924937 -0.018189987 -0.0025411309 0.0017535668 0.001736602 -0.004674504 0.01934882 0.010554649
0.025788233 -0.047781162 0.0013549638 0.022073468 -0.016697645 -0.015993278 0.015849134 0.0013316221
-0.0064690365 -0.00073003565 -0.005269925 -0.004764267 -0.0013252222 -0.015463198 0.0038130886 0.005578893
-0.013934714 0.26431146 0.01574095 0.0073444196 0.018049551 0.027648937 0.0007211616 0.008620488
-0.011745065 0.012478806 -0.0041181953 0.21750355 -0.0144153 0.013446062 0.014250189 0.019592188
-0.0021483267 -0.011588286 -0.0035074598 0.0006022373 -0.006881893 -0.027360734 0.007926329 -0.00031423487
0.0093725575 -0.0058683534 0.015965583 0.011154449 0.009251859 0.014444525 0.115144774 0.004228557
0.016244428 0.015077632 0.0116016 0.011454926 0.00462779 0.0044744373 0.005932989 -0.08333848
-0.01527778 -0.007033402 -0.013741105 -0.019955674
00000000: dc8d 1cbc 58b3 5d3b 94b6 5c3c 0199 ad3b
00000010: 6ef6 b6bc f460 3dbc 2c1d 913c 4e90 2bbc
00000020: 8d59 cb3b 8448 a8bb c760 5d3e 273c 9fbb
00000030: 81f4 bf3c 3ea8 a53c 4843 c4bc cb15 973c
00000040: ed9b b3bc 2b03 95bc 1a89 26bb f0d7 e53a
00000050: b29e e33a 952c 99bb 6b81 9e3c 68ed 2c3c
00000060: d841 d33c 2eb6 43bd 0a99 b13a 6bd3 b43c
00000070: 80c9 88bc 5604 83bc 0bd6 813c d389 ae3a
00000080: 36fa d3bb dd5f 3fba 56af acbb 911d 9cbb
00000090: 14b3 adba 5a59 7dbc 03e5 793b 25cf b63b
000000a0: 6d4e 64bc d553 873e 2af3 803c 75a9 f03b
000000b0: a7dc 933c 0680 e23c 560c 3d3a f33c 0d3c
000000c0: 606e 40bc e873 4c3c edf1 86bb 40b9 5e3e
000000d0: 272e 6cbc df4c 5c3c a079 693c cc7f a03c
000000e0: f1ca 0cbb cbdc 3dbc 69dd 65bb 76df 1d3a
000000f0: 8181 e1bb 9e23 e0bc 6fdd 013c e4bf a4b9
00000100: 5b8f 193c 514b c0bb 41ca 823c 26c1 363c
00000110: 1c95 173c bba8 6c3c 06d1 eb3d b58f 8a3b
00000120: 0913 853c 2c08 773c a314 3e3c 71ad 3b3c
00000130: b7a4 973b 4d9e 923b 8569 c23b 5dad aabd
00000140: a74f 7abc 7478 e6bb 5f22 61bc 157a a3bc

layer3.fc3.weight f4 [10, 84]
0.0026554726 0.0014414098 -0.009204861 -0.002030685 0.009043438 0.0064824405 -0.0043161693 0.002076645
0.0005777078 -0.0112883225 -0.17415974 -0.004178199 -0.0019505462 -0.0029988654 0.0017988068 -0.0035086854
0.0032121132 0.0035669557 -0.0030451976 0.0023155843 0.0018973185 0.0009172071 -0.0067853 -0.005901143
-0.0026342913 0.009982507 -0.008278385 0.094916835 0.008895413 0.0042685755 -0.0065162294 -0.0051867296
-0.004935207 0.00597568 0.0038695382 0.004154473 0.0014551122 -0.0035724777 -0.007560268 -0.0026132432
0.0031693678 0.0003684426 -0.010687882 0.0012684568 -0.002427327 -0.003904778 0.009777201 -0.0008337563
0.0018788415 -0.0012947179 -0.0026327984 0.021029046 0.007396577 0.0012537147 6.297869e-05 -0.0030821557
-0.0014854127 -0.2418159 -0.00097548496 -0.003813507 0.006040205 0.0018011424 -0.009052293 0.00064200413
0.00036054754 0.0064119603 -0.0031806245 -0.00028659683 -0.00859476 -0.0026648275 -0.12722456 -0.0027650706
-0.008895614 -0.0035302052 -0.012478365 -0.010692909 -0.0069164233 0.0011903584 -0.0023778619 0.13557564
0.0038875279 -0.0004551526 0.004480183 0.006376387 -0.008294268 -0.00770794 -0.006513627 0.006796034
0.0072290595 0.00044381112 -0.00068076287 0.006805053 -0.0015349418 0.013854757 -0.031580333 -0.003302163
-0.00036584598 -0.0035892758 0.00038114496 -0.00035042161 -0.0010460912 6.3357504e-05 0.004952108 0.0073114056
-0.0023386758 0.004886846 -0.0071538514 -0.0042018043 -0.00057000644 0.22980613 0.010199182 -0.10004711
0.0042434996 0.0036372298 0.0023177594 -0.0050978153 0.0058619687 0.0043448047 0.009656624 0.012143764
0.00028825577 0.009471071 0.0071303523 -0.0013905789 -0.006244052 -0.1528165 -0.003189617 0.0076483125
0.0027178575 -0.0067974315 0.112297095 -0.00076452957 -0.01089204 0.00046206344 0.012964162 -0.33103633
0.0038529644 0.003248081 -0.000501395 -0.006372588 0.0043856977 0.022484936 0.012058785 0.013918925
0.008274768 0.00089553464 0.006253738 -0.0029611834 0.000776587 0.0015657445 0.0009696381 0.0003445464
0.00022959059 -0.00658612 -0.0989655 -0.0022865415 -0.0003665082 0.0017447493 -0.00837149 0.0018665523
0.0042225006 0.0046334984 -0.009359467 -0.055841442 -0.003474993 -0.0075085694 -0.0017689449 -4.827163e-05
0.0019792495 0.005869343 0.003788437 -0.0025788995 0.013552425 -0.0025947522 0.0024518173 -0.00015821605
0.007377974 0.0075224107 -0.08712821 0.0030309083 -0.007815578 0.0072664893 -0.0019310175 -0.007944592
0.0052412464 -0.0027655822 -0.004543523 -0.00039748996 -0.0034291071 -0.007109873 0.008719967 -0.0026503957
0.0015305731 -0.056327354 0.0027443152 0.17052653 -0.0032443253 -0.0051028044 -0.007871358 4.7731493e-05
-0.00026754555 -0.0036676752 -0.0004956971 -0.001081894 0.0071642906 -0.008097226 0.010147935 0.0010390638
0.00041542578 0.122705996 0.0029468643 -0.00016009221 -0.0046826485 0.0065347324 0.028934715 -0.0049800193
0.008994607 0.0027027065 0.008254003 0.14984992 -0.003116823 0.002181392 -0.004237066 0.0050193723
0.0012348609 0.054195836 -0.007362968 -0.0033517687 -0.006328658 0.0066826902 0.0060694497 -0.0036071362
-0.002015769 0.00013618395 0.0012783671 -0.0002320237 -0.0039297747 0.0055745086 -0.011944882 -0.0064211986
0.008171668 5.244185e-05 0.0037745542 0.007998564 -0.008193806 0.0128434105 -0.0017202286 -0.19997784
0.0026896077 -8.0164195e-05 0.0063632918 -0.0018167889 0.0008906199 0.00022820594 -0.0039064367 -0.0039510354
00000000: 7007 2e3b b0ed bc3a fccf 16bc 3e15 05bb
00000010: ee2a 143c a76a d43b a76e 8dbb 5218 083b
00000020: 5071 173a a8f2 38bc ee56 32be 46e9 88bb
00000030: 78a9 ffba 9d88 44bb f1c5 eb3a f9f1 65bb
00000040: 5182 523b 96c3 693b f091 47bb 0fc1 173b
00000050: 72af f83a ba70 703a 3957 debb 605e c1bb
00000060: 13a4 2cbb ab8d 233c 10a2 07bc c263 c23d
00000070: 11be 113c 68df 8b3b 1886 d5bb 71f5 a9bb
00000080: 84b7 a1bb a3cf c33b 1498 7d3b 3f22 883b
00000090: 77b9 be3a 3b20 6abb 20bc f7bb f242 2bbb
000000a0: 2bb5 4f3b 872b c139 3a1c 2fbc 5942 a63a
000000b0: ca13 1fbb 4ee7 7fbb 8e30 203c 7090 5aba
000000c0: 7643 f63a 86b3 a9ba 078b 2cbb 1b45 ac3c
000000d0: fc5e f23b af53 a43a 6d13 8438 fefd 49bb
000000e0: 2eb2 c2ba 969e 77be b0b7 7fba 08ec 79bb
000000f0: e9ec c53b 4f14 ec3a 1250 14bc 2b4c 283a
00000100: df07 bd39 6c1b d23b 0672 50bb 6042 96b9
00000110: 09d1 0cbc 63a4 2ebb 2847 02be 3036 35bb
00000120: e9be 11bc 045b 67bb 0e72 4cbc 5031 2fbc
00000130: 2aa3 e2bb cd05 9c3a e7d5 1bbb 57d4 0a3e
00000140: e5c5 7e3b 8ca1 eeb9 80ce 923b 03f1 d03b
00000150: aee4 07bc e392 fcbb 4370 d5bb 44b1 de3b
00000160: bfe1 ec3b 52af e839 3975 32ba ecfc de3b
00000170: 1a30 c9ba 10ff 623c 615a 01bd 1a69 58bb
00000180: 04cf bfb9 0e3a 6bbb 69d4 c739 cbb8 b7b9
00000190: ff1c 89ba cdde 8438 4b45 a23b 8494 ef3b
000001a0: 7844 19bb d621 a03b db6a eabb 4aaf 89bb
000001b0: 7c6c 15ba 4c52 6b3e 781a 273c 80e5 ccbd
000001c0: 0e0d 8b3b 975e 6e3b 8de5 173b 930b a7bb
000001d0: c215 c03b dd5e 8e3b d136 1e3c a3f6 463c
000001e0: 0921 9739 8d2c 1b3c bba5 e93b 1644 b6ba
000001f0: e89a ccbb ee7b 1cbe e508 51bb b29e fa3b
00000200: 151e 323b fdbc debb 05fc e53d b66a 48ba
00000210: 8774 32bc 1b41 f239 a367 543c 987d a9be
00000220: 0482 7c3b c2dd 543b 0d70 03ba 25d1 d0bb
00000230: e6b5 8f3b 5432 b83c 3692 453c 340c 643c
00000240: e492 073c 50c2 6a3a 28ec cc3b 6a10 42bb
00000250: df93 4b3a ab39 cd3a 502f 7e3a 3ca4 b439
00000260: 41be 7039 61d0 d7bb 6dae cabd cdd9 15bb
00000270: e627 c0b9 12b0 e43a 9328 09bc 1aa7 f43a
00000280: e75c 8a3b 9ad4 973b 7358 19bc ffb9 64bd
00000290: b5bc 63bb 720a f6bb f1db e7ba 4577 4ab8
000002a0: 4cb6 013b 9e53 c03b 6d47 783b c102 29bb
000002b0: fe0a 5e3c b80c 2abb abae 203b cce6 25b9
000002c0: efc2 f13b 8e7e f63b 4670 b2bd 34a2 463b
000002d0: e90c 00bc bb1b ee3b 321a fdba 092a 02bc
000002e0: c3be ab3b c53e 35bb d5e1 94bb 3366 d0b9
000002f0: dfba 60bb f0f9 e8bb 31de 0e3c 43b2 2dbb
00000300: 839d c83a 83b7 66bd f8d9 333b 829e 2e3e
00000310: bf9e 54bb 6d35 a7bb def6 00bc 4d33 4838
00000320: 5b45 8cb9 615d 70bb abf1 01ba 57ce 8dba
00000330: 6dc2 ea3b 3aaa 04bc 8643 263c 3231 883a
00000340: 81cd d939 484d fb3d 2e20 413b 6dde 27b9
00000350: e770 99bb 4f21 d63b 7f08 ed3c 6e2f a3bb
00000360: 1e5e 133c e41f 313b cc3b 073c 4272 193e
00000370: 9d43 4cbb aff5 0e3b 16d7 8abb 8c79 a43b
00000380: 0edb a13a 74fc 5d3d 0d45 f1bb 59a9 5bbb
00000390: a260 cfbb 78fa da3b 3ce2 c63b b465 6cbb
000003a0: fe1a 04bb 9acc 0e39 e28e a73a 634b 73b9
000003b0: 57c5 80bb 5eaa b63b 77b4 43bc eb68 d2bb
000003c0: 76e2 053c 02f5 5b38 835e 773b 690c 033c
000003d0: 503f 06bc 2b6d 523c 4b79 e1ba fec6 4cbe
000003e0: 2144 303b d31d a8b8 2983 d03b 5221 eeba
000003f0: 7d78 693a 914a 6f39 9101 80bb b077 81bb

layer3.fc3.bias f4 [10]
-0.0806182 -0.4533684 0.37840143 0.5797143 0.3180932 0.008778963 -0.12675366 -0.25662354
-0.3758869 -0.06841939
00000000: 281b a5bd e71f e8be d5bd c13e 2868 143f
00000010: 1ddd a23e a4d5 0f3c b6cb 01be 2964 83be
00000020: 3f74 c0be 771f 8cbd
