output/models_cifar10_270.pth (torch_old, 248636 bytes, 10 tensors)

layer1.conv1.weight f4 [6, 1, 5, 5]
0.007911998 -0.1878032 0.03756263 -0.12640761 -0.07030114 0.28090885 -0.21325494 0.4205506
-0.08280894 0.21402346 0.09464022 -0.55738735 0.39025533 -0.3408912 -0.054682408 0.35023937
-0.57772577 0.62040955 -0.2750077 0.11763135 0.22871588 -0.5696879 0.46314478 -0.18116042
-0.028307127 0.003282077 -0.032378893 -0.03346314 0.08143892 -0.025711497 0.04561527 0.14479616
-0.50848264 0.11246351 0.20908457 -0.06609601 0.310671 0.4038969 -0.9953966 0.28904226
0.087606214 -0.48725733 0.6945081 0.13731384 -0.37870237 -0.004311814 0.061989088 -0.35107693
0.36100733 -0.07142656 -0.03718804 -0.0024209518 -0.055121206 0.1264926 0.04024982 -0.04935661
-0.021412345 0.15671833 0.04695404 -0.054899767 -0.30679625 0.0078485245 0.2739594 -0.110576786
-0.037266597 -0.34314921 0.31111342 0.19738941 -0.058117352 0.011574992 -0.45690623 0.30675608
-0.018283065 0.050221454 -0.09554618 -0.097141095 -0.31251082 -0.101616524 -0.047550794 0.065218695
0.25867653 0.7532925 0.41032228 0.19058341 0.0021426678 -0.119380295 -0.41389742 -0.26228747
-0.04923535 -0.07269839 0.10627525 -0.016026018 -0.09390468 0.08079069 0.17792614 -0.07068554
-0.021542916 -0.033607043 -0.11171501 -0.0785071 -0.08368467 0.026587564 0.0027328467 0.09972058
-0.08594681 0.005705207 0.086725295 0.05245504 -0.12986013 0.11278462 -0.2550415 -0.35869175
-0.10637018 0.0054596537 -0.27787527 0.20292166 0.19074756 -0.15643032 -0.09161938 0.17235635
-0.042875662 0.0329448 0.14635257 0.03533607 -0.102611355 0.046396494 -0.23290595 0.29454666
-0.009365265 -0.07459832 -0.1252594 0.35894993 0.36192423 -0.6037767 0.0062609822 0.12554857
0.38531083 -0.99133706 0.041092966 0.3024609 -0.008412451 -0.2801095 -0.09833265 0.5940956
-0.20382296 0.10590298 -0.1205007 0.19727448 -0.13901632 0.0010353544
00000000: 53a1 013c 7b4f 40be 46db 193d ff70 01be
00000010: 0bfa 8fbd 49d3 8f3e 815f 5abe 6952 d73e
00000020: bc97 a9bd f728 5b3e bbd2 c13d f0b0 0ebf
00000030: 8ccf c73e 4b89 aebe a9fa 5fbd 9352 b33e
00000040: d6e5 13bf 29d3 1e3f cfcd 8cbe b5e8 f03d
00000050: 7f34 6a3e 11d7 11bf 5021 ed3e 1e82 39be
00000060: 59e4 e7bc 1d18 573b bb9f 04bd a510 09bd
00000070: 73c9 a63d eba0 d2bc 14d7 3a3d 7245 143e
00000080: eb2b 02bf 4553 e63d 441a 563e 585d 87bd
00000090: 4510 9f3e 93cb ce3e 50d2 7ebf 59fd 933e
000000a0: e36a b33d cb79 f9be 48cb 313f 009c 0c3e
000000b0: 47e5 c1be 1e4a 8dbb 45e8 7d3d 5bc0 b3be
000000c0: f4d5 b83e 1748 92bd 7c52 18bd d5a8 1ebb
000000d0: c6c6 61bd 4787 013e ffdc 243d 282a 4abd
000000e0: f168 afbc c57a 203e e152 403d 94de 60bd
000000f0: 6614 9dbe 1997 003c 6844 8c3e 1576 e2bd
00000100: dca4 18bd 41b1 afbe 424a 9f3e 7320 4a3e
00000110: 760c 6ebd 09a5 3d3c 9def e9be 220f 9d3e
00000120: 5ec6 95bc 03b5 4d3d b7ad c3bd e9f1 c6bd
00000130: 6b01 a0be 531c d0bd 9fc4 42bd 6191 853d
00000140: 4071 843e c7d7 403f c315 d23e 4c28 433e
00000150: 006c 0c3b a87d f4bd 5dea d3be 8b4a 86be
00000160: 02ab 49bd e5e2 94bd d7a6 d93d ff48 83bc
00000170: 1951 c0bd 9775 a53d 4532 363e 95c3 90bd
00000180: c57a b0bc 8aa7 09bd d7ca e4bd 55c8 a0bd
00000190: de62 abbd 2ace d93c 8f19 333b 4e3a cc3d
000001a0: e204 b0bd bff2 ba3b 089d b13d 19db 563d
000001b0: 0efa 04be 9ffb e63d cd94 82be 72a6 b7be
000001c0: 9cd8 d9bd e5e6 b23b ab45 8ebe b2ca 4f3e
000001d0: 5453 433e 452f 20be f1a2 bbbd 2f7e 303e
000001e0: 649e 2fbd 20f1 063d 73dd 153e 8ebc 103d
000001f0: e725 d2bd 400a 3e3d e67e 6ebe d2ce 963e
00000200: c570 19bc 01c7 98bd 0044 00be 49c8 b73e
00000210: 224e b93e 1c91 1abf ed28 cd3b ce8f 003e
00000220: 7647 c53e 44c8 7dbf 1951 283d 28dc 9a3e
00000230: 60d4 09bc 836a 8fbe a162 c9bd a616 183f
00000240: f7b6 50be a9e3 d83d 12c9 f6bd 5202 4a3e
00000250: 4b5a 0ebe bbb4 873a

layer1.conv1.bias f4 [6]
-0.30400264 -0.29110816 -0.30208954 -0.27932167 -0.28058168 -0.3230557
00000000: 3ca6 9bbe 210c 95be 7bab 9abe 4003 8fbe
00000010: 67a8 8fbe 8f67 a5be

layer2.conv2.weight f4 [16, 6, 5, 5]
0.08329482 0.017731793 0.052438233 0.14689855 0.044019632 0.0385644 -0.09048125 0.08569207
0.04186471 0.08869222 -0.016125116 0.03714034 -0.046941414 0.005284051 0.06267516 0.092128664
-0.11809506 -0.016613044 0.10419973 -0.08824077 -0.26274708 -0.33399737 -0.71091723 -0.6963313
-0.36433092 0.33792964 0.1579967 0.007911361 -0.042144667 0.15133135 0.18881626 0.15122676
0.14356339 0.14428277 0.1858353 0.4341563 0.16878265 0.12397958 0.09559024 0.20463932
0.32422522 0.26754987 0.20890741 0.07643808 -0.07551855 0.43772876 0.055754423 -0.14127079
-0.06733079 -0.059280034 0.16530512 0.14111127 -0.0074104727 0.17837143 -0.083320834 0.044899195
0.06117618 0.055952 -0.1149283 0.20899281 -0.16996169 -0.004879676 0.054575138 0.15483166
-0.058426946 -0.1425893 -0.09088506 -0.06099647 0.16817078 0.19195491 -0.11997344 -0.2717231
-0.43356082 -0.4136716 -0.1747848 0.28767508 -0.14545387 -0.053385623 -0.0396339 0.16608885
0.21479987 0.019947313 0.15075244 0.09676492 0.04132363 0.029764067 0.30213904 0.12791088
0.21878588 0.05670005 -0.17922628 0.23308341 0.20264122 0.23367848 -0.03663871 -0.09353646
0.1548824 0.2481607 0.31994972 0.29984757 0.22912435 -0.006101205 0.037793722 0.16361438
0.13153298 0.42775398 0.060090598 0.18218234 0.029861832 0.27577162 0.32294494 0.07984555
0.25777677 0.05764236 0.35294873 0.1672313 0.1474822 0.5319022 0.28104058 0.02837924
-0.34876835 0.48611164 0.6491798 0.14744931 -0.22315653 -0.05390396 -0.10986896 0.011482798
0.05378835 0.047153175 -0.06923105 -0.18270734 -0.001118492 0.10776473 0.2378982 0.009292134
-0.0887512 0.032988973 0.0644396 0.16918501 -0.046237115 0.016735742 -0.070478424 0.08427411
0.21017967 0.064527266 0.044690803 -0.11462637 0.0046134135 0.21750857 -0.062386423 0.06577991
0.05746624 0.13331398 -0.16568846 0.17265739 -0.033098556 0.11203831 -0.22832504 0.00069548533
0.08064577 0.30704957 -0.15859863 -0.007458961 0.032605197 -0.17809705 -0.345918 0.027440203
-0.0561581 -0.27704698 -0.08466206 0.1381765 -0.25099498 -0.39337263 -0.11284854 0.22110602
0.1475526 0.12839366 0.2547349 0.09761839 0.097073816 0.0413045 -0.296699 0.3017704
0.17371835 -0.2932504 0.1526182 -0.43369883 0.24017173 0.031791646 0.017238596 -0.082080916
-0.35272095 -0.5692373 0.12070725 0.24663107 0.2885985 0.5415524 0.017849253 -0.42673787
-0.03088281 0.08270484 0.16143475 -0.04829212 0.12757772 0.086359985 -0.31112206 0.039593622
0.19182631 -0.36058804 0.13558443 0.39235848 -0.17420708 0.6653389 0.0383779 -0.016416632
0.18019527 0.18472834 0.23757885 0.27478772 0.116061464 -0.11270769 0.06339685 -0.008637579
0.29124948 0.06655992 0.10933344 -0.1589597 -0.06913383 0.13419475 -0.009676132 0.092555396
-0.25836724 -0.27996215 0.13736302 -0.2061688 -0.06943394 -0.16932411 -0.33401924 -0.11674803
0.124436826 -0.24589157 -0.15009163 -0.26330268 -0.25594997 0.18957171 -0.10681085 -0.05826203
0.19106272 -0.28884435 0.14943363 0.16824614 -0.37978312 -0.10844052 0.13014632 -0.23762046
00000000: 7996 aa3d 4442 913c 79c9 563d 936c 163e
00000010: ee4d 343d b4f5 1d3d 3c4e b9bd 537f af3d
00000020: 557a 2b3d 44a4 b53d d218 84bc 7820 183d
00000030: a445 40bd d525 ad3b d65b 803d f4ad bc3d
00000040: d3db f1bd 1418 88bc ab66 d53d 94b7 b4bd
00000050: c986 86be b401 abbe acfe 35bf c542 32bf
00000060: 9589 babe 1d05 ad3e e3c9 213e a79e 013c
00000070: e39f 2cbd 9bf6 1a3e 0d59 413e 30db 1a3e
00000080: 4802 133e ddbe 133e 9c4b 3e3e bc49 de3e
00000090: 5cd5 2c3e 02e9 fd3d d1c4 c33d f88c 513e
000000a0: d900 a63e 4cfc 883e d3eb 553e 918b 9c3d
000000b0: 78a9 9abd fc1d e03e c05e 643d 4aa9 10be
000000c0: bae4 89bd 9fcf 72bd bf45 293e 797f 103e
000000d0: 8dd3 f2bb 00a7 363e 1da4 aabd 38e8 373d
000000e0: e093 7a3d ed2d 653d 875f ebbd 3602 563e
000000f0: 700a 2ebe b0e5 9fbb 2e8a 5f3d 318c 1e3e
00000100: 1851 6fbd ee02 12be f221 babd 6fd7 79bd
00000110: f634 2c3e d48f 443e a3b4 f5bd 4a1f 8bbe
00000120: affb ddbe c4cc d3be c9fa 32be 264a 933e
00000130: dcf1 14be e2aa 5abd 2857 22bd 3213 2a3e
00000140: 7ff4 5b3e 8c68 a33c d95e 1a3e b02c c63d
00000150: f742 293d c6d3 f33c f8b1 9a3e 12fb 023e
00000160: 6809 603e 503e 683d 1887 37be 6bad 6e3e
00000170: 2e81 4f3e 6949 6f3e 7912 16bd 0b90 bfbd
00000180: 7e99 1e3e d71d 7e3e 73d0 a33e 9f85 993e
00000190: 939f 6a3e 9eec c7bb 97cd 1a3d 878a 273e
000001a0: 95b0 063e 9202 db3e 8f21 763d 028e 3a3e
000001b0: cda0 f43c f031 8d3e 0a59 a53e 1086 a33d
000001c0: 51fb 833e 651a 6c3d b2b5 b43e af3e 2b3e
000001d0: 9305 173e be2a 083f 8de4 8f3e 947b e83c
000001e0: c491 b2be a0e3 f83e a630 263f f4fc 163e
000001f0: 2583 64be 66ca 5cbd fa02 e1bd 5822 3c3c
00000200: 2c51 5c3d b023 413d 02c9 8dbd a217 3bbe
00000210: 5d9a 92ba c1b3 dc3d 969b 733e 093e 183c
00000220: 30c3 b5bd 721f 073d e9f8 833d d63e 2d3e
00000230: 2163 3dbd 6519 893c fe56 90bd e897 ac3d
00000240: 5739 573e df26 843d b40d 373d 3bc1 eabd
00000250: 1e2c 973b 91ba 5e3e e888 7fbd 9eb7 863d
00000260: b861 6b3d 7683 083e 3caa 29be 19cd 303e
00000270: 5a92 07bd 5774 e53d 0ace 69be 3b51 363a
00000280: 9c29 a53d 9a35 9d3e ae67 22be 4d6a f4bb
00000290: 078d 053d 135f 36be 2a1c b1be 47ca e03c
000002a0: 0906 66bd 1ad9 8dbe 4d63 adbd 247e 0d3e
000002b0: 6a82 80be 2368 c9be 231d e7bd 9e69 623e
000002c0: 0718 173e a179 033e 9d6c 823e 27ec c73d
000002d0: a3ce c63d e82e 293d eee8 97be a681 9a3e
000002e0: 39e3 313e eb24 96be f247 1c3e c60d debe
000002f0: 94ef 753e f537 023d f537 8d3c 0a1a a8bd
00000300: d797 b4be 89b9 11bf 5d35 f73d db8c 7c3e
00000310: 2fc3 933e 2ea3 0a3f 9938 923c 637d dabe
00000320: f2fd fcbc 2861 a93d 274f 253e f5cd 45bd
00000330: bca3 023e 81dd b03d 644b 9fbe ec2c 223d
00000340: 1e6e 443e ff9e b8be a5d6 0a3e 36e3 c83e
00000350: 5763 32be a653 2a3f 2532 1d3d 2c7c 86bc
00000360: 1c85 383e 6d29 3d3e df47 733e fab0 8c3e
00000370: a2b1 ed3d 4ad3 e6bd 35d6 813d a284 0dbc
00000380: a71e 953e 9150 883d 36ea df3d 55c6 22be
00000390: 0a96 8dbd 596a 093e a488 1ebc af8d bd3d
000003a0: b648 84be 3357 8fbe e4a8 0c3e ea1d 53be
000003b0: 6233 8ebd 4d63 2dbe 9204 abbe 9719 efbd
000003c0: bcd8 fe3d 00cb 7bbe 9fb1 19be 9ccf 86be
000003d0: e00b 83be 161f 423e a6bf dabd 2ba4 6ebd
000003e0: f2a5 433e 68e3 93be 2105 193e b748 2c3e
000003f0: ef72 c2be 1016 debd 1445 053e c752 73be

layer2.conv2.bias f4 [16]
-0.5947761 -0.7752838 -0.6302154 -0.52617466 -0.7067637 -0.5108107 -0.5465319 -0.3525518
-0.72138566 -0.6364026 -0.47415859 -0.3812941 -0.34006354 -0.63054144 -0.5929554 -0.41381043
00000000: 3f43 18bf 0079 46bf cc55 21bf 62b3 06bf
00000010: 77ee 34bf 7dc4 02bf 84e9 0bbf ab81 b4be
00000020: bbac 38bf 48eb 22bf eac4 f2be fb38 c3be
00000030: cf1c aebe 2a6b 21bf edcb 17bf f6de d3be

layer3.fc1.weight f4 [120, 400]
-0.014312413 -0.01438847 0.008419449 0.008739149 0.018514853 -0.0042313104 -0.006509664 0.0014443977
-0.016267493 -0.0006322547 -0.00093395694 0.0005918371 -0.00083258975 0.020867854 -0.018771857 0.0018941337
0.0010318357 -0.016933525 0.010238289 -0.009450353 -0.0069548343 0.003512833 -0.011681796 -0.020945663
0.01122557 0.019582137 -0.0056775953 0.0073293345 0.006262909 0.01665454 -0.0006155126 -0.014113753
0.016650952 -0.025579253 0.012977023 -0.000671511 -0.006529492 0.0062274523 -0.030548654 -0.021074532
0.0059282063 -0.036732703 0.00690955 0.023058306 0.006207333 -0.033173677 -0.002226323 -0.03290636
0.007564699 0.0033112604 -0.02561467 -0.036081593 -0.011028415 -0.01131874 0.012783704 0.0014439918
-0.025929542 -0.0051187584 -0.023570545 0.0053077727 0.0034244845 -0.007912724 -0.00502582 0.009960531
0.015503941 -0.012840277 0.00085220684 0.017140148 0.004758245 0.0030343211 0.03221349 0.016011579
0.0018190132 -0.014973125 0.009952203 0.014371237 0.009914785 0.00015138857 0.0038830966 0.015538642
-0.0039108815 0.02288701 -0.025986826 -0.0017594021 0.0018602978 -0.0020546035 0.019346407 -0.0046906886
0.026089152 -0.0009889669 -0.013416891 0.0005438141 0.025443215 0.014486402 -0.0005682234 -0.012182239
-0.01563094 0.02318415 0.020927481 0.009334026 -0.024155432 0.00088567624 0.027705155 -0.0036555307
0.0057393634 0.00526676 -0.0134739075 0.039101336 0.0036693118 -0.0060247965 0.0074986964 0.03182369
0.009277817 0.004000306 0.0040658345 -0.005164296 0.0056765378 -0.032782618 -0.02526475 -0.029965337
-0.02718596 -0.020880809 -0.02007985 0.0117780585 0.009421763 -0.01689925 -0.009019364 0.013110948
0.011226356 0.0026931998 -0.01103679 0.008432626 -0.0036860032 -0.0059590973 0.009758802 0.021436127
0.0091581205 -0.013583007 0.0018224968 0.025183415 0.018505067 -0.0017590367 0.00597999 -0.0079941945
0.018326372 -0.005564483 0.005212479 0.006234278 0.014260492 -0.0045735836 0.007477649 0.0038224643
0.0032589769 0.008011365 -0.005872747 0.014169657 -0.0012116693 0.0022076038 -0.010090343 -0.007916371
0.010256623 -0.0127195455 0.0031256434 0.0052279118 -0.004320199 0.0034082853 -0.003068424 0.001313098
0.008560439 0.013490332 0.0038904268 -0.010036877 0.005661697 0.011856326 -0.015616238 -0.005376723
0.0012677767 -0.0075305803 -0.02911201 0.0012229204 -0.0024740035 -0.010012907 -0.008249486 0.014382367
0.034303892 -0.013284419 0.023436705 0.021267453 0.011491716 -0.00731784 0.0009882612 -0.00014510693
0.0083415685 0.016359217 0.015771369 -0.021850664 0.017185291 0.007752183 -0.0063841417 -0.012057546
-0.026767997 -0.0022292044 0.023982404 -0.007872666 -0.003719132 0.007919077 0.000605438 0.0048994343
0.0103657935 -0.0049096667 0.020224582 -0.0023154418 -0.0081851855 0.0072782002 0.0167599 0.015939308
0.010253263 -0.012284682 0.0032647518 -0.022824565 -0.015631547 -0.000876022 0.0063197664 -0.0013164722
-0.035650898 -0.011445844 -0.005538964 0.010415676 -5.9894937e-05 0.0014503576 0.0075854464 -0.022700004
-0.0050965673 0.0064268457 0.0069476455 0.03319538 0.01651576 0.00096470484 -0.0060325074 -0.0005898043
0.0060710893 0.009819699 0.003199236 -0.015130421 -0.014793909 -0.013340773 0.005144279 0.017720683
0.007712011 0.01506534 -0.010946165 -0.012217006 0.032511108 0.029219246 0.019739209 0.0019606522
00000000: 9c7e 6abc 9ebd 6bbc bbf1 093c a62e 0f3c
00000010: 76ac 973c cea6 8abb 054f d5bb f251 bd3a
00000020: 6843 85bc e5bd 25ba cad4 74ba 8425 1b3a
00000030: 2742 5aba 10f3 aa3c 70c7 99bc 9544 f83a
00000040: a93e 873a 2db8 8abc 7fbe 273c a7d5 1abc
00000050: 61e5 e3bb 8f37 663b 0165 3fbc 3d96 abbc
00000060: 74eb 373c b86a a03c 1f0b babb ea2a f03b
00000070: 1739 cd3b 1a6f 883c 5a5a 21ba 5f3d 67bc
00000080: 9467 883c 958b d1bc 949d 543c 5708 30ba
00000090: 59f5 d5bb a80f cc3b 2c41 fabc 7fa4 acbc
000000a0: 6641 c23b 0875 16bd 8269 e23b c6e4 bc3c
000000b0: e266 cb3b 1fe1 07bd 80e7 11bb d2c8 06bd
000000c0: 4be1 f73b bb01 593b dbd5 d1bc 4bca 13bd
000000d0: 86b0 34bc 3d72 39bc be72 513c 5344 bd3a
000000e0: 316a d4bc 42bb a7bb 0417 c1bc d3ec ad3b
000000f0: 516d 603b 5fa4 01bc a2af a4bb 7f31 233c
00000100: 3e04 7e3c 0660 52bc a266 5f3a 7f69 8c3c
00000110: 0deb 9b3b 76db 463b 4bf2 033d b72a 833c
00000120: f46b ee3a d751 75bc 910e 233c 5675 6b3c
00000130: 9f71 223c 0fbe 1e39 8d7b 7e3b ca95 7e3c
00000140: da26 80bb 8a7d bb3c 53e2 d4bc bd9b e6ba
00000150: 3cd5 f33a 87a6 06bb 5b7c 9e3c 59b4 99bb
00000160: ebb8 d53c 39a0 81ba 85d2 5bbc bf8e 0e3a
00000170: 4a6e d03c 6058 6d3c d4f4 14ba 0498 47bc
00000180: 750c 80bc b0ec bd3c 1c70 ab3c beed 183c
00000190: 9de1 c5bc ba2c 683a ecf5 e23c a191 6fbb
000001a0: 4511 bc3b c994 ac3b aac1 5cbc b928 203d
000001b0: d678 703b a86b c5bb a0b7 f53b 8f59 023d
000001c0: fc01 183c 0015 833b b13a 853b 4139 a9bb
000001d0: 4002 ba3b 1147 06bd 05f8 cebc de79 f5bc
000001e0: 17b5 debc 3b0e abbc 7f7e a4bc c2f8 403c
000001f0: bd5d 1a3c 4c70 8abc f4c5 13bc 4dcf 563c
00000200: c0ee 373c 6580 303b a7d3 34bc ff28 0a3c
00000210: df90 71bb 8844 c3bb 62e3 1f3c d19a af3c
00000220: f10b 163c 438b 5ebc d8e0 ee3a 734d ce3c
00000230: f097 973c 7a8f e6ba cbf3 c33b 15fa 02bc
00000240: 3021 963c 4456 b6bb 71cd aa3b ea48 cc3b
00000250: d7a4 693c 00de 95bb 1107 f53b 4f82 7a3b
00000260: 8f94 553b 1a42 033c 2c70 c0bb d927 683c
00000270: e0d0 9eba 72ad 103b f751 25bc abb3 01bc
00000280: 650b 283c a465 50bc 98d7 4c3b e74e ab3b
00000290: 7590 8dbb 8a5d 5f3b 9d17 49bb 421c ac3a
000002a0: 1541 0c3c 8e06 5d3c 88f6 7e3b b771 24bc
000002b0: c285 b93b 0941 423c 40db 7fbc 392f b0bb
000002c0: 872b a63a 16c3 f6bb 4f7c eebc 664a a03a
000002d0: e422 22bb 2d0d 24bc da28 07bc 05a4 6b3c
000002e0: 3d82 0c3d e4a6 59bc 55fe bf3c 1539 ae3c
000002f0: c047 3c3c 7eca efbb 8b88 813a d827 18b9
00000300: 13ab 083c c403 863c f532 813c 2a00 b3bc
00000310: 2bc8 8c3c 0606 fe3b 1032 d1bb 038d 45bc
00000320: 8f48 dbbc d817 12bb bf76 c43c 5bfc 00bc
00000330: aebc 73bb 04bf 013c 42b6 1e3a 6f8b a03b
00000340: 4ad5 293c 45e1 a0bb 06ae a53c abbe 17bb
00000350: 281b 06bc f87d ee3b 0f4c 893c 2793 823c
00000360: 4dfd 273c b145 49bc 72f5 553b 95fa babc
00000370: bb0d 80bc d7a4 65ba 0b16 cf3b 7a8d acba
00000380: ad06 12bd 5987 3bbc 3380 b5bb 83a6 2a3c
00000390: b337 7bb8 ed19 be3a 568f f83b 5cf5 b9bc
000003a0: 1b01 a7bb 4a98 d23b 13a9 e33b e1f7 073d
000003b0: 0f4c 873c 3fe4 7c3a 57ac c5bb 199d 1aba
000003c0: fdef c63b cee2 203c 46aa 513b 96e5 77bc
000003d0: 2762 72bc 4293 5abc 5791 a83b f72a 913c
000003e0: 0ab5 fc3b 9ed4 763c 8b57 33bc d629 48bc
000003f0: 5e2a 053d 335d ef3c 1fb4 a13c 497e 003b

layer3.fc1.bias f4 [120]
-0.010455241 -0.028088806 -0.016012799 -0.0030476805 -0.00056669116 -0.013093118 -0.0095862225 0.013991132
0.010760511 0.024883224 -0.0061032176 -0.0068294043 0.016417453 0.0051503885 -0.006417727 -0.014447842
0.006078864 -0.009734441 0.022014786 0.0062526 -0.00875928 -0.0027435932 0.010343204 -0.003708259
-0.003783713 -0.015689274 0.00693518 -0.0142658595 0.008506627 0.007842203 -0.004707558 -0.0059723756
0.21618156 0.012748224 -0.0025729544 0.008766645 -0.05871788 -0.11255037 0.015495858 0.004391922
-0.0028783793 -0.0071575497 -0.004199229 0.1143871 -0.0037441936 -0.011788088 -0.01006993 -0.0059445533
0.0055573955 0.011501926 0.010353943 0.012674837 -0.010037227 -0.011495983 -0.0011206613 -0.0057712793
0.017337158 0.00081147277 0.0018715004 0.011405313 0.019466538 -0.017741024 0.009724142 0.12379466
-0.12855345 0.0056913556 0.006289744 -0.010735086 0.010360283 0.006565338 0.014378288 0.002719596
0.016252028 0.026902841 -0.007179484 0.02047188 0.016971258 -0.0006871791 -0.019305607 -0.0037534172
0.0014209596 0.0037881597 0.012525213 0.008518246 -0.0059446297 0.004749055 0.009415582 -0.005814647
-0.0033037225 -0.004585131 -0.014379841 -0.0024687592 0.00019254313 0.016948383 -0.018075531 -0.012021128
-0.019318506 0.008141369 0.100720674 -0.009140875 -0.0037068329 0.013866992 0.0031782787 0.0057379985
-0.035312586 -0.027096594 -0.014732241 0.0047424184 0.017103612 -0.0059578167 -0.014662655 -0.013361458
0.37816966 0.0003624542 -0.006889898 -0.0064275833 -0.011542957 0.00835868 -0.018282076 0.24380116
00000000: 764c 2bbc 7f1a e6bc 462d 83bc 98bb 47bb
00000010: 008e 14ba 8484 56bc 880f 1dbc 103b 653c
00000020: db4c 303c e7d7 cb3c 80fd c7bb 32c9 dfbb
00000030: e57d 863c 97c4 a83b cc4b d2bb a4b6 6cbc
00000040: 3531 c73b 347d 1fbc 5a58 b43c 9ce2 cc3b
00000050: 1583 0fbc dbcd 33bb 8b76 293c 4306 73bb
00000060: 2cf8 77bb cb86 80bc 8240 e33b 5abb 69bc
00000070: 615f 0b3c 957c 003c dc41 9abb ebb3 c3bb
00000080: b35e 5d3e eddd 503c 039f 28bb f9a1 0f3c
00000090: 2982 70bd cf80 e6bd 57e2 7d3c 1dea 8f3b
000000a0: 31a3 3cbb e189 eabb b099 89bb c943 ea3d
000000b0: 2561 75bb d322 41bc 59fc 24bc 87ca c2bb
000000c0: d01a b63b 9372 3c3c 96a3 293c 1faa 4f3c
000000d0: 2e73 24bc a659 3cbc 27e3 92ba 001d bdbb
000000e0: a806 8e3c 04b9 543a 224d f53a 5add 3a3c
000000f0: 4a78 9f3c a055 91bc 0252 1f3c 0e88 fd3d
00000100: 84a3 03be 8d7e ba3b 321a ce3b 37e2 2fbc
00000110: 2dbe 293c 0c22 d73b e992 6b3c 403b 323b
00000120: f922 853c 5963 dc3c e041 ebbb a5b4 a73c
00000130: 4f07 8b3c cf23 34ba cb26 9ebc e4fb 75bb
00000140: 7e3f ba3a c642 783b 8d36 4d3c 1d90 0b3c
00000150: 2bcb c2bb f69d 9b3b d043 1a3c cb88 bebb
00000160: 4483 58bb de3e 96bb 6d99 6bbc e8ca 21bb
00000170: 67e5 4939 56d7 8a3c 2313 94bc 44f4 44bc
00000180: d841 9ebc 6063 053c a446 ce3d 9cc3 15bc
00000190: 56ee 72bb 6132 633c ab4a 503b d205 bc3b
000001a0: eea3 10bd adf9 ddbc 7f5f 71bc 4a66 9b3b
000001b0: e01c 8c3c ca39 c3bb a23b 70bc 04ea 5abc
000001c0: 749f c13e c707 be39 a7c4 e1bb 7a9e d2bb
000001d0: ac1e 3dbc d8f2 083c 4bc4 95bc 03a7 793e

layer3.fc2.weight f4 [84, 120]
0.0043051704 -0.0007790805 -0.0036220436 0.0018098576 0.000109117194 -0.0014698893 -0.0039645312 -0.0017566823
-0.00017731581 0.0019637127 -0.0009822071 -0.0004634232 0.0021540988 0.00409267 -0.0016809222 -0.008256018
0.0013992648 -0.0068784608 -0.0020073229 0.008891142 -0.0012200965 -0.00442467 0.002159734 -0.0038119473
-0.0057735606 -3.8919177e-05 2.3846766e-05 0.0018426584 0.0065148002 0.0068831802 -0.0002881131 -0.0029365064
0.006601428 -0.0017253616 -0.0031596094 0.0038736782 0.008120664 -0.010909581 0.00929138 -0.0053840154
0.0020329005 -0.00017499845 0.008675187 -0.009263873 -0.008080756 -0.007145505 -0.0029198814 0.0053541865
-0.00027165056 -0.0012900316 0.006058428 -0.001607193 -0.0034042122 0.00078746263 -0.0018923776 -0.005735849
-0.0026817268 -0.008438744 0.0042881356 -0.014738296 0.00053941645 -0.00050159014 0.0010515276 0.005115029
-0.00041971094 0.009875218 -0.0058789444 -0.006929123 0.0074780523 0.0009496394 -0.0012597616 -0.00033613158
0.0021305364 0.0071725603 -0.0035858785 -0.003876466 0.0036836986 0.0025230204 -0.004257775 -0.0011281059
0.0022041975 -0.002316045 3.4682478e-05 0.007128856 0.0068311696 0.007154057 0.0022717654 0.009150686
-0.004252128 -0.0042946036 0.004629038 -0.00092215673 -0.004048269 -0.0043284292 0.0023805154 -0.0060142144
0.0019816791 0.007873866 0.0049284077 0.0001348132 -0.0024933345 -0.0037409274 0.0011671558 0.0032402691
0.003186925 0.0008815808 -0.0021539067 0.001878448 0.0006062653 -0.0023533066 5.481275e-06 -0.0012175938
-0.006454658 0.0014748513 -0.0076112472 0.0065375636 0.0037052925 -0.0064210803 -0.00694467 0.004352856
-6.280231e-05 0.010081778 -0.00078245206 -0.009016464 0.007361999 0.0033754606 0.007101528 0.0011727707
-0.00019915952 0.002234432 0.0022713472 -0.0020465483 -0.0043124263 -0.007093974 0.0029917862 0.0047503137
0.010499118 -0.0011251301 -0.009203996 -0.012097481 -0.0019359104 0.002680064 -0.012283142 -0.0036773838
0.0013367052 0.0040682196 -0.0030621097 -0.005768346 0.0004115332 -0.0008451887 -0.002798829 -0.008927645
0.019984934 -0.002998301 -0.005205115 0.014346912 0.0012541506 -0.012542089 0.0021292886 0.0066932845
0.0070775053 -0.0059839925 -0.00786239 -0.0040112534 0.0005223722 0.007882592 0.0012130637 0.0024417683
0.004732696 0.0020414225 0.0016719762 0.005217007 0.00921878 0.00079480273 -0.008744102 0.0015389031
-0.007904509 0.00274575 -0.007423213 0.006087161 0.0039369217 0.00046730827 -0.004082345 0.004181042
0.0020742128 0.004982671 0.0061904965 0.0035847144 0.005287915 -0.001888427 0.004724025 -0.0029339946
-0.003007861 -0.008272075 -0.00041123386 0.008229389 -0.0017365674 0.0012276573 -0.0028404824 0.0012200004
0.0045457855 -0.0012294847 0.00031394968 0.003602683 0.0041394033 -0.0061555603 -0.0027363373 0.008791521
0.012476759 0.0013506046 0.0027212228 0.008849955 0.001100388 -0.0037980655 -0.0037373726 -0.0031798852
-0.006086348 0.0005658512 0.010615781 -0.005832747 -0.00084653386 -0.0021004302 -0.004627611 0.0033557902
-0.005968133 -0.0055097844 0.0071648234 -0.0029299369 0.0004512194 0.005859162 -0.007945563 -0.0024662637
0.0053176535 -0.0019512617 0.005991015 -0.0046929587 -0.0013183792 -0.0018552131 0.006465416 0.004541365
0.00069322396 0.017763516 0.01602184 0.0018759568 0.00808731 0.003996477 0.006985008 -0.0015010504
0.0013449185 0.003745625 0.0059832814 0.0024098784 -0.015223094 -0.0037844332 0.0106001105 0.014862656
00000000: 6312 8d3b 353b 4cba cf5f 6dbb be38 ed3a
00000010: d9d5 e438 4da9 c0ba e6e8 81bb 7a40 e6ba
00000020: daed 39b9 a2b1 003b 67bd 80ba 9cf7 f2b9
00000030: c82b 0d3b ce1b 863b 6452 dcba 4044 07bc
00000040: 8967 b73a b664 e1bb 4a8d 03bb 27ac 113c
00000050: a5eb 9fba d2fc 90bb 538a 0d3b ddd1 79bb
00000060: 2330 bdbb 263d 23b8 8a0a c837 5b85 f13a
00000070: 1b7a d53b 4d8c e13b e30d 97b9 6772 40bb
00000080: cb50 d83b 8725 e2ba 7311 4fbb 89dd 7d3b
00000090: 890c 053c 19be 32bc df3a 183c 656c b0bb
000000a0: 693a 053b ca7f 37b9 5f22 0e3c 80c7 17bc
000000b0: 2665 04bc d724 eabb 7b5b 3fbb 2c72 af3b
000000c0: 526c 8eb9 4716 a9ba c785 c63b 73a8 d2ba
000000d0: 3419 5fbb b96d 4e3a a809 f8ba caf3 bbbb
000000e0: e9bf 2fbb a842 0abc 7d83 8c3b e578 71bc
000000f0: a067 0d3a 257d 03ba 69d3 893a f99b a73b
00000100: a60c dcb9 abcb 213c 29a4 c0bb b20d e3bb
00000110: 730a f53b 39f1 783a 961e a5ba d13a b0b9
00000120: 78a0 0b3b cc07 eb3b 0f01 6bbb 4f0c 7ebb
00000130: 356a 713b 4259 253b ce84 8bbb f4dc 93ba
00000140: 4c74 103b cac8 17bb 0778 1138 2e99 e93b
00000150: 01d8 df3b 946c ea3b e6e1 143b c2ec 153c
00000160: 6f55 8bbb bfb9 8cbb 2faf 973b e4bc 71ba
00000170: 57a7 84bb 7fd5 8dbb 6c02 1c3b e312 c5bb
00000180: 0fdf 013b 6301 013c 7b7e a13b a55c 0d39
00000190: 3667 23bb 592a 75bb 40fb 983a b25a 543b
000001a0: bbdb 503b e319 673a 8f28 0dbb 4136 f63a
000001b0: c7ed 1e3a ef39 1abb cbeb b736 ab97 9fba
000001c0: 9981 d3bb cc4f c13a c567 f9bb 0f39 d63b
000001d0: 7ed4 723b ed67 d2bb 1d90 e3bb 67a2 8e3b
000001e0: bcb4 83b8 0b2e 253c 781d 4dba cbb9 13bc
000001f0: ec3c f13b d536 5d3b efb3 e83b a8b7 993a
00000200: 7ad5 50b9 8c6f 123b e2da 143b 621f 06bb
00000210: 414f 8dbb 9174 e8bb d811 443b 85a8 9b3b
00000220: 7e04 2c3c 1a79 93ba 5bcc 16bc 8334 46bc
00000230: 60be fdba 03a4 2f3b 3b3f 49bc 4300 71bb
00000240: 6234 af3a b34e 853b adad 48bb 6504 bdbb
00000250: 0dc3 d739 a78f 5dba 8f6c 37bb 4245 12bc
00000260: 72b7 a33c 257f 44bb ab8f aabb 4f0f 6b3c
00000270: 5062 a43a 567d 4dbc 898b 0b3b 5753 db3b
00000280: 6bea e73b 5e15 c4bb 41d1 00bc d570 83bb
00000290: ceef 083a fd25 013c aaff 9e3a 1306 203b
000002a0: bb14 9b3b 63c9 053b 3626 db3a 6df3 aa3b
000002b0: 5e0a 173c 4f5a 503a 6c43 0fbc 05b5 c93a
000002c0: ea81 01bc 0af2 333b 6d3e f3bb cf76 c73b
000002d0: 4b01 813b 0e01 f539 31c5 85bb 1f01 893b
000002e0: 84ef 073b ac45 a33b a6d9 ca3b 87ed 6a3b
000002f0: 3f46 ad3b 1885 f7ba fecb 9a3b 4348 40bb
00000300: 891f 45bb 9987 07bc e09a d7b9 8fd4 063c
00000310: 889d e3ba 58e9 a03a 6327 3abb 6ce8 9f3a
00000320: d0f4 943b a926 a1ba 9d99 a439 fe1a 6c3b
00000330: d5a3 873b 95b4 c9bb 1f54 33bb 500a 103c
00000340: 526b 4c3c c506 b13a 8b56 323b 67ff 103c
00000350: e53a 903a f7e8 78bb b5ee 74bb 9f65 50bb
00000360: fd6f c7bb a255 143a d0ed 2d3c a120 bfbb
00000370: ede9 5dba 5fa7 09bb 37a3 97bb d1ec 5b3b
00000380: 5490 c3bb 6c8b b4bb e5c6 ea3b 2f04 40bb
00000390: a591 ec39 37fe bf3b 1b2e 02bc 0aa1 21bb
000003a0: b63f ae3b 7ac1 ffba 4750 c43b 64c7 99bb
000003b0: 77cd acba 9f2a f3ba d7db d33b bbcf 943b
000003c0: 79b9 353a cb84 913c 3c40 833c aae2 f53a
000003d0: a380 043c e1f4 823b 7ee2 e43b e5be c4ba
000003e0: fa47 b03a 2979 753b 670f c43b 0def 1d3b
000003f0: 496a 79bc 4104 78bb 16ac 2d3c 7f82 733c

layer3.fc2.bias f4 [84]
-0.0092741 0.0073309965 -0.0007632041 -0.001977689 -0.07075713 0.014099207 -0.0022639346 -0.0097463345
0.0024441467 0.011254184 0.2564108 -0.0076539153 -0.0025593138 0.0007216405 -0.0074190134 0.014481753
0.00571074 0.014953101 -0.004386349 0.004258068 -0.005171064 -0.004897249 0.0048026233 -0.0057832487
0.009460047 -0.03955303 0.006907788 0.042295102 -0.008210363 0.00452058 -0.0018373508 0.019450907
-0.00078922685 0.0028127497 0.0005697018 0.0067660646 0.0056629893 0.0012625029 -0.01117213 -0.016319998
0.012427282 0.29035455 0.017679472 -0.000823042 -0.027944775 0.0008672231 -0.010950102 0.009183713
0.012013575 0.007418846 0.01376692 0.21626073 -0.011611858 -0.011656215 -0.0030632454 -0.004809866
-0.008035966 -0.018003061 -0.010181921 0.0033831405 0.0007518926 0.014398075 0.006444874 -0.0063068704
-0.009397235 -0.003484889 -0.012912759 -0.0039287 0.0072468095 -0.008023547 0.13335939 0.0056074574
-0.01056413 0.00033239648 0.009308617 -0.01708074 0.006767316 -0.008688001 0.010632659 -0.11951881
-0.0005165532 -0.0005695042 0.014709304 -0.007736595
00000000: 65f2 17bc db38 f03b c311 48ba 1e9c 01bb
00000010: 1de9 90bd 5c00 673c 855e 14bb 17af 1fbc
00000020: fa2d 203b 7863 383c 4748 833e b2cd fabb
00000030: 29ba 27bb 792c 3d3a 321b f3bb e044 6d3c
00000040: 2921 bb3b dafd 743c 5dbb 8fbb 4387 8b3b
00000050: 0772 a9bb 1a79 a0bb 535f 9d3b 6881 bdbb
00000060: 50fe 1a3c 5c02 22bd ba5a e23b a13d 2d3d
00000070: c284 06bc 6021 943b 43d3 f0ba 8257 9f3c
00000080: 1ee4 4eba 1c56 383b 0a58 153a ddb5 dd3b
00000090: 9990 b93b 917a a53a 4f0b 37bc 84b1 85bc
000000a0: cc9b 4b3c 5aa9 943e 8ad4 903c 6ac1 57ba
000000b0: 71ec e4bc 5b56 633a 0e68 33bc 4977 163c
000000c0: 96d4 443c ca19 f33b a68e 613c 7473 5d3e
000000d0: aa3f 3ebc b6f9 3ebc bbc0 48bb 159c 9dbb
000000e0: 49a9 03bc 287b 93bc 12d2 26bc aeb7 5d3b
000000f0: a91a 453a e7e5 6b3c 862f d33b dda9 cebb
00000100: dcf6 19bc bc62 64bb 0990 53bc 53bc 80bb
00000110: a576 ed3b 3275 03bc 5d8f 083e c3be b73b
00000120: 2c15 2dbc 8045 ae39 2b83 183c e8ec 8bbc
00000130: 5cc0 dd3b 1e58 0ebc 9b34 2e3c 47c6 f4bd
00000140: 4c69 07ba c84a 15ba 4bff 703c 4383 fdbb

layer3.fc3.weight f4 [10, 84]
0.00082011573 -0.0045659863 0.0068039354 -0.0019485079 0.014125072 -0.0061635333 -0.0016916025 0.00938341
0.004752283 -0.003664415 -0.19687594 0.008775917 -0.002087404 0.003599069 0.0012909988 -0.0044694804
0.0010023068 0.007061859 0.0007746955 -0.004794612 0.0024032511 0.0010565578 -0.0028727415 0.0054644733
-0.006809274 0.017982606 0.0087789595 0.10286 0.00879564 0.0041483906 -0.005689583 -0.0043456596
0.0042270594 -0.00065243087 0.007984951 -0.006780516 0.007666094 0.004196552 0.0040125805 -0.0021946994
0.0012203564 0.007343057 -0.0006480125 -0.003262123 0.003156882 -0.0029370256 -0.0061679534 -0.008939781
-0.002570534 -0.005876047 0.0045250184 0.029253354 0.0031391776 0.008494261 -0.0012578028 0.00051062007
-0.0033403907 -0.24664441 0.0075126463 0.004833077 0.00089955184 -0.0024317622 0.00698824 -0.004068654
-0.0046799947 0.0044103563 -0.0052510644 -0.0012790281 -0.010372012 0.008636821 -0.16204976 -0.002035466
0.011284844 -0.0014461919 -0.005289872 0.0031475227 -0.008546181 0.020167913 0.0041836407 0.13803123
-0.0037529704 0.0012002025 -0.007857047 0.006002139 -0.0027192237 6.388758e-05 0.0043987534 -0.00019552527
0.0107933935 -0.0034990213 -0.0015451388 0.0013811464 0.0008785661 -0.00015097602 -0.03225121 0.0030328378
-0.0003591378 0.00058933115 -0.00131814 -0.0019241031 -0.0019811078 0.0041614105 0.0015822757 -0.0015902183
0.0025465612 -0.0022947611 -0.0015092395 0.0003464394 -0.0022808234 0.25077277 0.0051091216 -0.12530556
0.003941821 0.0044960817 -0.0006694724 -0.002239362 0.0006819273 -0.0013120637 0.005625453 0.00022006995
0.00623813 0.004762812 0.0031743788 -0.0020953147 0.0022279322 -0.17548053 0.0022699423 -0.0024873759
0.0007236143 0.0011790973 0.12532265 -0.0042803274 -0.00089073845 0.00038649864 -0.00027104423 -0.3432406
0.002685107 0.0066972636 -0.00077378267 -0.0029288912 -0.00443543 0.017261932 0.0020449057 0.005106729
0.0006693182 -0.0005478126 0.0027538503 -0.0010521524 -0.0012846085 0.0015735038 -0.0012215141 0.0014227137
-0.0037746741 0.0040340237 -0.12765585 -0.0034976562 0.0059160395 -0.0032831396 -0.0022294961 0.002110638
-0.0041695745 0.022872165 0.0030618669 -0.05415852 -0.0057404917 0.0030954243 -0.0031701985 0.00036215442
-0.0017479731 0.00057181297 -0.0018347244 0.0028322188 -0.001010209 -0.00044021945 0.00071858097 -0.0065819826
-0.0030188134 0.0034731664 -0.10478392 -0.0038241635 0.00097177183 -0.001729674 -0.0013589221 0.0010033515
-0.0035689713 -0.0027997298 -0.001088417 0.0050813556 -0.00084759266 -0.0038892217 7.41456e-05 -0.005158174
0.004113869 -0.054874707 -0.0072429823 0.17443368 0.00019966523 -0.00021608356 0.0042875363 -0.0005916351
-0.0027179085 -0.00086335273 -0.0010080328 0.005173022 0.0036754222 0.002215767 -7.788943e-05 0.00021192392
0.00032310837 0.14099076 0.0019093773 0.0010424679 -0.0006085169 0.0023113277 0.04480032 0.0013951907
0.00016947802 0.0054877447 -0.0054536294 0.1434249 -0.0024315838 -0.0014172279 0.0017880748 -0.0021339913
-0.0010416288 0.057253037 -0.00313954 0.0004978508 -0.0014624979 0.00074476795 -0.0049307006 0.0027555646
0.0012196015 -0.0037919402 0.001676302 0.002045801 0.0054175905 0.000495249 -0.028596213 9.397453e-05
-0.0026302931 -0.001385154 0.003552553 -0.00045158537 0.0033077279 0.02064731 -0.00041648833 -0.22310534
-0.00060635037 0.002222593 0.0028121811 0.0016826763 0.0033920899 -0.0041360203 -2.276902e-06 -0.0040672957
00000000: 09fd 563a 459e 95bb 8cf3 de3b 1365 ffba
00000010: d96c 673c 77f7 c9bb c3b8 ddba e0bc 193c
00000020: 0ab9 9b3b af26 70bb d999 49be ddc8 0f3c
00000030: d4cc 08bb 5cde 6b3b bb36 a93a b874 92bb
00000040: d65f 833a 2b67 e73b ef14 4b3a 1f1c 9dbb
00000050: dd7f 1d3b 327c 8a3a 9b44 3cbb 530f b33b
00000060: 5520 dfbb 4250 933c a0d5 0f3c 44a8 d23d
00000070: 971b 103c 39ef 873b ae6f babb 0966 8ebb
00000080: 2583 8a3b e507 2bba 50d3 023c 172f debb
00000090: dc33 fb3b 3b83 893b f77b 833b f2d4 0fbb
000000a0: 5ef4 9f3a 079e f03b 62df 29ba 58c9 55bb
000000b0: b1e3 4e3b 1d7b 40bb 8b1c cabb 2978 12bc
000000c0: 6776 28bb db8b c0bb 9b46 943b bba4 ef3c
000000d0: a9ba 4d3b 832b 0b3c dcdc a4ba 22db 053a
000000e0: 75ea 5abb 5a90 7cbe a52c f63b ca5e 9e3b
000000f0: e7cf 6b3a 335e 1fbb 9bfd e43b 5852 85bb
00000100: a45a 99bb c084 903b 1f11 acbb 10a5 a7ba
00000110: 5fef 29bc 7481 0d3c 5ff0 25be 7465 05bb
00000120: 11e4 383c 268e bdba aa56 adbb ab46 4e3b
00000130: 4805 0cbc 2e37 a53c ec16 893b 0f58 0d3e
00000140: 65f4 75bb 1d50 9d3a d8ba 00bc 97ad c43b
00000150: 0135 32bb 62fb 8538 6b23 903b ea05 4db9
00000160: c6d6 303c d64f 65bb 4186 caba 9507 b53a
00000170: 934f 663a 514f 1eb9 d819 04bd 93c2 463b
00000180: a94a bcb9 587d 1a3a 70c5 acba 3032 fcba
00000190: 79d5 01bb 715c 883b 5d64 cf3a df6e d0ba
000001a0: 35e4 263b b463 16bb add1 c5ba 4fa2 b539
000001b0: de79 15bb 4a65 803e 6b6a a73b 1a50 00be
000001c0: 642a 813b de53 933b 887f 2fba 43c2 12bb
000001d0: 5ec3 323a 8df9 abba b855 b83b 94c2 6639
000001e0: 3a69 cc3b 5d11 9c3b 3d09 503b 8c51 09bb
000001f0: 8002 123b 2bb1 33be 50c3 143b 3e03 23bb
00000200: efb0 3d3a f18b 9a3a 9554 003e fd41 8cbb
00000210: 7280 69ba f8a2 ca39 f11a 8eb9 3bbd afbe
00000220: 9ff8 2f3b b874 db3b add7 4aba a4f2 3fbb
00000230: 1557 91bb e568 8d3c d303 063b 5956 a73b
00000240: 2f75 2f3a 159b 0fba f179 343b 60e8 89ba
00000250: 4f60 a8ba 073e ce3a 361b a0ba 5a7a ba3a
00000260: 8660 77bb d82f 843b 37b8 02be ef38 65bb
00000270: 56db c13b f129 57bb bd1c 12bb a152 0a3b
00000280: eda0 88bb 685e bb3c 9aa9 483b 53d5 5dbd
00000290: bc1a bcbb 9adc 4a3b 1bc3 4fbb 8bdf bd39
000002a0: 3f1c e5ba b8e5 153a 237b f0ba bf9c 393b
000002b0: fd68 84ba 41cd e6b9 275f 3c3a acad d7bb
000002c0: 49d7 45bb 109e 633b f498 d6bd d19e 7abb
000002d0: 81be 7e3a 3bb6 e2ba dc1d b2ba e482 833a
000002e0: 67e5 69bb ac7b 37bb 37a9 8eba 8081 a63b
000002f0: fb30 5eba 50e2 7ebb 9e7e 9b38 e605 a9bb
00000300: a2cd 863b 4dc4 60bd 8a56 edbb be9e 323e
00000310: 3a5d 5139 7d94 62b9 767e 8c3b f617 1bba
00000320: f01e 32bb 9f52 62ba f81f 84ba 7482 a93b
00000330: 5adf 703b 6736 113b 9258 a3b8 e537 5e39
00000340: df66 a939 e25f 103e 1244 fa3a 6ba3 883a
00000350: e184 1fba a579 173b 8a80 373d d5de b63a
00000360: e9b5 3139 8ad2 b33b 5cb4 b2bb fadd 123e
00000370: 355b 1fbb 47c2 b9ba d65d ea3a 6fda 0bbb
00000380: 4387 88ba 2982 6a3d bec0 4dbb 3482 023a
00000390: 49b1 bfba 883c 433a b791 a1bb b496 343b
000003a0: 09db 9f3a 3382 78bb 5db7 db3a d812 063b
000003b0: 0b86 b13b 99d3 013a 9b42 eabc 3114 c538
000003c0: ff60 2cbb 0e8e b5ba f3d1 683b c3c2 ecb9
000003d0: 77c6 583b 8c24 a93c 1e5c dab9 ba75 64be
000003e0: 7cf3 1eba eca8 113b 924c 383b 3f8d dc3a
000003f0: d34d 5e3b 7487 87bb e1cc 18b6 f346 85bb

layer3.fc3.bias f4 [10]
-0.11394744 -0.41583797 0.3502257 0.5597898 0.3337661 -0.015089423 -0.106228344 -0.25782132
-0.35548785 -0.046575274
00000000: 475d e9bd b7e8 d4be c850 b33e 624e 0f3f
00000010: 64e3 aa3e a139 77bc 3f8e d9bd 2801 84be
00000020: 8102 b6be b7c5 3ebd
