output/models_cifar10_320.pth (torch_old, 248636 bytes, 10 tensors)

layer1.conv1.weight f4 [6, 1, 5, 5]
00000000: b8fd f339 fdbe 3abe f6a1 c93c b4af 01be
00000010: 7368 93bd f677 903e 10b2 50be efce db3e
00000020: 46c1 8ebd 6f3a 5b3e 75a3 ce3d 4181 12bf
00000030: 7767 d13e 974e b8be da75 6ebd c4d1 bb3e
00000040: f449 1cbf b670 2a3f b782 99be 1861 023e
00000050: 8958 723e 4352 18bf 6c32 f53e 16dd 3cbe
00000060: 6a7f 00bd 99fe a33b e5a1 18bd 7f89 fdbc
00000070: 732f a93d b211 c8bc 36dc 2f3d e9a8 1d3e
00000080: 8f72 07bf 051e f23d fed1 5a3e f9bf 86bd
00000090: 6873 a33e 80ad d83e 627c 85bf 2da0 9b3e
000000a0: 7754 a43d 356b 01bf f093 3a3f 7643 1c3e
000000b0: f12a cdbe bec7 e5ba 7ae6 863d e625 bfbe
000000c0: fbc6 c43e 5df0 a0bd 3c8a 0cbd 3988 8dbc
000000d0: 0caf 88bd 504b 143e 382c 4a3d 1f39 4bbd
000000e0: 1ee4 ffbc e18d 253e f172 403d b162 7cbd
000000f0: be54 a2be 2651 783b e1bd 903e 3f7b debd
00000100: bc09 2ebd bf22 b0be 1c74 a03e e3aa 4d3e
00000110: b404 36bd 0900 433c f729 f5be d50c a53e
00000120: d578 d1bc 4841 4d3d 0f75 b9bd fca1 e4bd
00000130: f34c a7be 1a7b ddbd a274 43bd 73f3 883d
00000140: a3c3 8a3e ca8e 443f be43 dd3e 29af 423e
00000150: 7dc7 293c 2e4c fbbd fc93 d6be 0ed8 8dbe
00000160: 769e 16bd da01 b1bd 0285 e73d ad9f 16bc
00000170: f922 bbbd e5be aa3d 5c3e 463e fb63 83bd
00000180: eca6 06bd 1ed4 d4bc b007 edbd 6e7f a2bd
00000190: 3666 aabd 5b62 ef3c 15b5 eb3a 9ca1 d83d
000001a0: bcdc b8bd d75d 003c 8806 c63d c91d 5a3d
000001b0: 95b2 0ebe fbf0 fa3d 558c 84be 7d65 c1be
000001c0: 659b debd 960d cf3b a8bf 92be b075 583e
000001d0: 85f8 543e 26db 1ebe ab7a c0bd 956e 3c3e
000001e0: 6d6b 62bd 499c e83c 590c 193e 15e9 133d
000001f0: 21c7 d1bd 1611 423d 549b 7abe 7fb4 9a3e
00000200: 1f10 bbbb 319a aebd 882b 04be 8f6d b73e
00000210: 7fb3 ce3e 6835 25bf e6ff 2a3b 79af fa3d
00000220: d8db d33e 7304 85bf 1ba0 273d bcec a23e
00000230: 1455 32bc 2b54 93be 349f d4bd 1efa 1d3f
00000240: 533f 59be 07a5 dc3d a55c f4bd 12b9 4c3e
00000250: 1f80 10be 6c88 003c
0.00046537607 -0.18236919 0.024613362 -0.12664682 -0.071976565 0.28216523 -0.20380425 0.42931315
-0.06970458 0.2140901 0.10089771 -0.57228476 0.4089925 -0.3599746 -0.05821786 0.36683476
-0.61050344 0.66578233 -0.2998254 0.12732351 0.23666586 -0.5950052 0.4789003 -0.18443713
-0.03137151 0.0050047156 -0.03726377 -0.030949352 0.08261003 -0.0244225 0.04293462 0.15396465
-0.5290918 0.11822132 0.21369168 -0.06579585 0.31923985 0.4231987 -1.0428584 0.30395642
0.08023923 -0.5055421 0.72881985 0.1526011 -0.40071824 -0.0017530841 0.06586929 -0.37333602
0.3843306 -0.07858346 -0.034311518 -0.01727687 -0.066740125 0.14481854 0.049358577 -0.04961502
-0.031236704 0.16167404 0.046984617 -0.061617557 -0.31705278 0.0037890165 0.28269866 -0.10863351
-0.042489752 -0.3440151 0.31338584 0.2008472 -0.04443808 0.011901864 -0.4788358 0.32236353
-0.025570313 0.050111085 -0.0905553 -0.111637086 -0.32675895 -0.108144954 -0.04771865 0.06687059
0.27102384 0.7678038 0.43215746 0.19012131 0.010362503 -0.122703895 -0.41909778 -0.277039
-0.036772214 -0.08642931 0.11304666 -0.009193343 -0.0913753 0.083371915 0.19359726 -0.06415554
-0.032874033 -0.025980052 -0.11573732 -0.079344615 -0.083202764 0.029221704 0.0017983044 0.105776995
-0.09026477 0.007834873 0.096692145 0.05325106 -0.13935311 0.122529946 -0.25888315 -0.37772742
-0.10869483 0.0063187582 -0.28661847 0.21138644 0.20797928 -0.15513286 -0.09398397 0.18401559
-0.05527823 0.028394835 0.14946117 0.036110956 -0.10243059 0.047379576 -0.24473315 0.30215833
-0.005708709 -0.085255034 -0.12907231 0.35825774 0.4037132 -0.64534616 0.0026092469 0.122405
0.41378665 -1.0391983 0.040924173 0.3182124 -0.010884542 -0.28775153 -0.10381928 0.61709774
-0.21215563 0.10773664 -0.11931733 0.19992474 -0.14111374 0.0078450255

layer1.conv1.bias f4 [6]
00000000: fad4 9fbe 199f 9cbe bfa4 9cbe e536 90be
00000010: 2bf3 93be 8589 a9be
-0.31217176 -0.30590132 -0.3059444 -0.2816688 -0.2889646 -0.33112732

layer2.conv2.weight f4 [16, 6, 5, 5]
00000000: 9cdf c33d 9c72 063d dec8 253d f862 1b3e
00000010: 9ed2 503d 9950 a53c 2708 b5bd ef5d 953d
00000020: 690a bb3c 7d3a a63d c4c1 50bb 00ea 153d
00000030: b666 3abd a71a 95bc ff18 6c3d 9360 b03d
00000040: b4d7 1dbe b17f 68bd 3a57 c53d 7899 a0bd
00000050: 6c33 82be e46e b1be a8ab 39bf fb0f 33bf
00000060: 0ecd 9ebe b89d a93e f075 1d3e fef7 323b
00000070: 7bac 09bd d82f 1d3e d8a4 603e 1992 2a3e
00000080: 9f78 3e3e 2ae3 d13d 70ce 343e f125 db3e
00000090: 0331 363e 51f3 ee3d d558 b53d 89c5 513e
000000a0: 791d a93e 23b3 a23e 98ac 503e aa30 b93d
000000b0: 23d0 1ebd 7fc2 ea3e 492e 813d bcad f8bd
000000c0: 2571 80bd c342 06bd 49fe 2c3e 1055 123e
000000d0: fa5b 45bc bf68 4f3e f349 c4bd bbcb 453d
000000e0: 7520 8e3d 58df 923d 23fe f5bd 9aa1 363e
000000f0: f6b7 37be 9b13 11bc ee21 8d3d 045f 263e
00000100: 0ea4 e8bc 79d5 fbbd 90f4 0dbe e3f8 c8bd
00000110: 7f7d 353e 72c5 663e 1c10 07be aa1c 6fbe
00000120: 4c68 d9be 5c89 d4be 5e87 11be 7d86 953e
00000130: c933 25be 94c6 71bd 713c f9bc 95e9 2e3e
00000140: a8f9 423e 4301 2c3d fd8e 173e cf8a ea3d
00000150: db12 ef3c b4c4 fb3c 24d9 a03e 027b e43d
00000160: 52a5 693e 0042 483d 0e6e 61be b013 743e
00000170: 838e 7b3e e965 603e 1ea0 4fbd 564b ccbd
00000180: 0e9d 053e 1711 813e e5f6 a53e 9fa3 8f3e
00000190: b3f6 663e bff9 7c3c 4880 9c3b 0058 443e
000001a0: d366 fa3d 18f7 d93e da59 913d d8b7 533e
000001b0: e183 333d 9123 8b3e 4699 a03e 29e1 b93d
000001c0: 374a 6e3e 778c 623d fe50 c73e 206c 333e
000001d0: 4a77 013e 09c2 053f 6439 943e c5ff 533d
000001e0: db2b c1be 23b5 ee3e 9930 2b3f e0be 183e
000001f0: f149 5ebe a578 6ebd 7c34 c2bd 3f62 5f3c
00000200: 2cc9 983d 2ed1 543d 29ea 91bd f62a 30be
00000210: 813f 59bb e586 da3d f00b 603e cd90 933c
00000220: e392 adbd d615 073d b3cc 923d 3d90 0d3e
00000230: 7296 09bd a47c a5bc 3010 b5bd ecd2 7a3d
00000240: 326e 5f3e 6323 903d 7066 6e3d 03a8 98bd
00000250: fcb2 173c b1bf 713e b732 dbbd 6394 7f3d
00000260: 10b6 733d 15d5 163e 7dc6 2cbe 394d 3b3e
00000270: 3659 c0bc 870a d83d eea8 7ebe fc05 003d
00000280: da76 653d 2c4b 973e 878a 29be b88a 053d
00000290: a006 603c b18c 34be 3a1a a8be 4752 b4bc
000002a0: 414f b8bd 0eb0 86be f8c1 a3bd 210a 1d3e
000002b0: 4e64 71be d850 b1be 6096 e6bd 0ad9 543e
000002c0: 5392 f13d 8953 f43d 06ca 833e f3d3 c93d
000002d0: 0f80 7e3d 58fe d4bb 1a3e 9abe 653e 983e
000002e0: b522 3e3e 94c8 95be cb0c d83d d440 e5be
000002f0: 54fb 8a3e d321 f73c 5d98 d03b 29b9 41bd
00000300: 159d adbe 92a1 06bf 00a2 063e c9cc 5c3e
00000310: 449f 883e 75b0 0a3f c7dd e83c fbc7 cfbe
00000320: eba6 b7bc a8d6 aa3d d496 1b3e 087f 27bd
00000330: a080 f73d 18c7 a93d ec85 9ebe d73a 5b3d
00000340: cc03 603e daa8 b2be df24 023e fe56 d63e
00000350: 708f 39be 7ea7 283f 5965 073d 480a 40bb
00000360: 917f 2c3e 6490 343e 679c 743e 2d55 9b3e
00000370: ff77 013e 5f50 09be a909 523d a289 b03c
00000380: 5c42 8a3e f005 7e3d 2eba 003e 6af1 1fbe
00000390: 5579 91bd d79f d03d dded 193c 364f cf3d
000003a0: 587f 87be f598 9abe 01d3 0a3e eed0 35be
000003b0: b024 b6bd 92ee 35be b1aa bebe 0c6d 09be
000003c0: 72cc 0c3e b448 81be 6eac 12be 0a03 93be
000003d0: e88d 8ebe a021 363e 5212 debd ba66 77bd
000003e0: 1fa7 423e ded4 90be e88b 263e 622c 323e
000003f0: 010a c7be b60e efbd 3403 d63d ad56 7abe
0.095641345 0.032824144 0.040474765 0.15174472 0.05098211 0.020180034 -0.088394456 0.07293307
0.022832112 0.081166245 -0.0031853775 0.036600113 -0.04550811 -0.018201185 0.057641026 0.0861217
-0.15414315 -0.0567624 0.09635778 -0.07841772 -0.25429857 -0.34654915 -0.7252755 -0.6994626
-0.3101582 0.33128142 0.15377021 0.002730846 -0.033611756 0.15350282 0.21937883 0.16657294
0.18600701 0.10248406 0.17656875 0.42802384 0.17792134 0.11667503 0.08854834 0.2048551
0.33030298 0.31777295 0.2037834 0.09042485 -0.038772713 0.45851514 0.06307656 -0.12142512
-0.062715806 -0.032778513 0.16893877 0.14290261 -0.012045855 0.20254801 -0.09584417 0.048289996
0.069397844 0.07171506 -0.12011363 0.17835084 -0.1794127 -0.008854772 0.06891237 0.16247183
-0.02839854 -0.12296576 -0.13862824 -0.098130964 0.17723654 0.22536257 -0.13189739 -0.23350778
-0.42462385 -0.41511047 -0.14211795 0.2920417 -0.16133036 -0.05902727 -0.030424329 0.17081292
0.19040549 0.04199339 0.1480064 0.11452257 0.029183796 0.030733444 0.31415665 0.111562744
0.22816971 0.048891068 -0.22014639 0.23835635 0.24566083 0.21913876 -0.05068981 -0.09975307
0.13048193 0.2520835 0.32414928 0.2805452 0.22555046 0.0154404035 0.0047760345 0.19174194
0.122266434 0.4257133 0.07097216 0.206756 0.04382694 0.27175573 0.31366938 0.09076149
0.23270498 0.05530974 0.3892898 0.17521715 0.12643161 0.522492 0.28950036 0.051757593
-0.37728772 0.4662257 0.6687103 0.14916563 -0.21707894 -0.058220524 -0.09482667 0.013634264
0.074602455 0.0519573 -0.07124741 -0.17203888 -0.0033149424 0.1067026 0.21879554 0.018013382
-0.08475282 0.03297981 0.071679495 0.13824554 -0.03359074 -0.020201035 -0.08840978 0.061236307
0.2181938 0.070379995 0.05820316 -0.07453921 0.009258982 0.2360828 -0.107030325 0.062397372
0.0594998 0.14729722 -0.16872592 0.18291177 -0.02348004 0.10548883 -0.24869129 0.031255707
0.05602155 0.2954954 -0.1655675 0.032602996 0.0136734545 -0.17631795 -0.3283251 -0.02201189
-0.089994915 -0.26306194 -0.07995981 0.15335895 -0.2357342 -0.3463199 -0.112591505 0.20785919
0.11795487 0.119299956 0.2574007 0.09854879 0.062133845 -0.0065000467 -0.30125505 0.29735103
0.18567927 -0.2925459 0.10549315 -0.44776022 0.27144873 0.030167496 0.0063658194 -0.047295723
-0.33908907 -0.52590287 0.13147736 0.21562494 0.2668401 0.541755 0.028426064 -0.4058226
-0.02241846 0.08341724 0.15194255 -0.04089263 0.1208508 0.08289927 -0.3096155 0.05352291
0.21876448 -0.3489445 0.12709378 0.41863245 -0.18121123 0.6588057 0.033055637 -0.0029303003
0.16845538 0.17633206 0.23887788 0.3033842 0.12643431 -0.13409565 0.051278744 0.021550003
0.27003753 0.06201738 0.12571022 -0.15619436 -0.071032204 0.10186737 0.00939509 0.1012253
-0.26464343 -0.30194822 0.13557054 -0.17755482 -0.08893716 -0.17766789 -0.37239602 -0.13420504
0.13749865 -0.2525078 -0.14323589 -0.28713256 -0.2784264 0.17786264 -0.10843338 -0.060400702
0.19009064 -0.28287405 0.16264307 0.17399743 -0.3887482 -0.11672728 0.1044983 -0.24447127

layer2.conv2.bias f4 [16]
00000000: be3a 1fbf bf84 50bf 2367 27bf a581 10bf
00000010: cc01 3fbf 634e 08bf 42e8 14bf bb67 bfbe
00000020: 6665 42bf 5712 2cbf d5ca febe 2793 cbbe
00000030: 8eb4 b8be 8e22 2abf dc16 1fbf 0e45 dabe
-0.6219901 -0.81452554 -0.6539175 -0.5644782 -0.74612117 -0.5324461 -0.581669 -0.37383828
-0.7593597 -0.67215484 -0.49764124 -0.39760706 -0.36075252 -0.66458976 -0.62144256 -0.4263081

layer3.fc1.weight f4 [120, 400]
00000000: 7532 823c 6f15 44bc b1b7 fab9 3b45 063c
00000010: 0ff7 b8bb f5bc adb9 0010 9f3b 6bc5 853b
00000020: 8899 1c3b 851f 0c3b 4788 023c 552d b33c
00000030: 39e3 41bb 0e12 50ba 7548 e03b e167 73bb
00000040: a634 c63c b895 b93b ed16 8e3b 86a9 333b
00000050: 2190 e4bc 8884 d639 1023 3d3c 7ea1 c03b
00000060: cd66 6c3b 338a cd3b 4642 eabc 6680 d73c
00000070: 9323 93bc e23e d13b ec58 a13c 1908 02bd
00000080: feb9 c23a e539 2dbc eb4f 0e3b 8dd4 2b3b
00000090: 9e4e 0ebc 5cfc 9a3a 0d66 c4bc be30 e13c
000000a0: 16de cfba b3f2 59bc 19a9 16bb 085c 6f3b
000000b0: 28af 3fbb f420 e43b 0a5a 5fbb 2695 8f3c
000000c0: 7d0a 753a 41c7 47bc d899 8dbb 48c4 0b3c
000000d0: 159d 533c 340f 1f3c 8c4c 863b 205b 35bb
000000e0: 2ed6 2b3c 13d3 e53b 3210 0cbc 684d 24bc
000000f0: e91d 67bc 6249 0dbc 9905 463c 2ca7 8abc
00000100: 6b14 10bd 366a 0b3c f852 29bc 5ff3 01bb
00000110: 5dd3 c93a 0f61 e7bc 707f 853c 0794 953c
00000120: c638 1bbc 660e 463c 42e3 41bc 97ee 14bc
00000130: 6cb2 a13c 9aa3 46bc 7cb6 ab3a c22b 0ebc
00000140: 1cba 36bc a452 843c 4e85 003c e0bf 56bb
00000150: 68d0 dfbb 71eb abbc db7f 79bb f8d8 42bc
00000160: 0a0b 27bc edac 043c 83a9 e03a e638 39b8
00000170: b9d7 08bc b473 aabc b4b9 a53b 4168 33ba
00000180: 4699 2c3c 8e1c 093c 5cfd dabb 39e8 a63b
00000190: 476e 093c e777 1fbd 75d4 a4bc bfc5 ed3b
000001a0: 0600 b5bc 9f09 8d3c f860 463c 08f3 c7bc
000001b0: b72e 763b 8268 16bc 51d2 3ebc 18ab cb3c
000001c0: d6bf d939 16e1 b53c 2ef2 9d3b 322c b7bc
000001d0: 5362 02bc ffc6 2fbd 6b0f c9bb 1836 0abc
000001e0: 6c19 b1bc bba2 383b 37ed 06bd eade 6a3b
000001f0: 15ae a23c 1766 e7bb 1638 7bbb e10b 033c
00000200: 22dd b1bc a7d9 843b da5f 783b 4c47 59bb
00000210: ef9e 0b3c aac8 6bbc 6380 403c 83b2 603c
00000220: 094d fc3a c707 903b 47fe abbb a650 b3b9
00000230: 2b2a 9a3c e422 493c 9003 923a 446f d23c
00000240: e82d 4cba 2ee1 683c 9c7c 553c 6fb2 15bc
00000250: 235e a83c 5d7e ab3c 853f a8ba 2099 90bb
00000260: 7ec7 df3a 0b46 9ebb f785 3d3b fd5f dd3c
00000270: 2c06 76bb 7370 0a3a 25a4 99bc 17e7 5b3c
00000280: 39c7 403c b219 35bb dc5c 1e3c ecec 35bc
00000290: 2038 4a3c 35f7 b63c 4b3e a7bb 8c6c 963c
000002a0: f876 393c c0d0 23bc 1f11 173b 8b9b 53bc
000002b0: 30c0 583c b83c 813c 5f13 043c 7357 e0ba
000002c0: 7142 ad3c 2f73 133c fefa ed3b 9a1b 2cbc
000002d0: 280b 0abc ecae fabb 8835 1d3c 5b39 94bb
000002e0: 55d1 80bb b797 573b d53c 673c 624a 933c
000002f0: dab5 f43a 2d41 7c3c aa3b 8ebc d0e2 523c
00000300: d73f 58ba 8e35 863b 25a3 f13a bc62 933b
00000310: bda0 f1b6 3720 3c3b 36d1 fcba 810e 54bc
00000320: 504c a03a 266a 3ebc 0369 02bc 7968 6e3b
00000330: 1841 cdbc ac39 28bc 51a7 a3bb 0bd2 17bc
00000340: 56e8 37ba 8d67 4b3c 539f e53c 9924 b7bc
00000350: 1ac8 00bc bb5e bfbb 1617 85bc a5e3 c53b
00000360: ce82 033a fca6 72bc 6952 143c c615 7abc
00000370: 5055 2fbb 2bbc 53bc 90c6 3dbc ed1d debb
00000380: c8ee d93a 35f2 91bc aeea 66bc 3c88 28bb
00000390: 1ed4 d8ba eac5 4cbc c99d 2f3c e29a 903b
000003a0: 1b97 053b bcc4 39bc 8349 edbb 551b b3bb
000003b0: b292 f83b 9d3e c33b 5e70 0c3c 8f79 823a
000003c0: c90b 863a e6db 24bc 06b7 af3b e57b efba
000003d0: 1b9e 073c 61ff 253b a927 dabb 7283 89bc
000003e0: 0c9c 94bb bee8 323c 26b2 81bc b61f 1b3b
000003f0: dd47 95bb ab20 d83c 485b a13c aae1 d73a
0.0158932 -0.011968001 -0.00047820577 0.008195217 -0.005644686 -0.00033137915 0.0048542023 0.004082372
0.0023895223 0.0021381092 0.007967061 0.021872202 -0.0029584898 -0.00079372607 0.006844575 -0.0037140774
0.024195027 0.0056636 0.004336229 0.0027414276 -0.027900757 0.00040916004 0.011544004 0.0058786264
0.0036072016 0.006272578 -0.028596055 0.026306342 -0.017961299 0.00638567 0.019695722 -0.031746004
0.0014856455 -0.010572885 0.0021715115 0.002621922 -0.008685736 0.0011824477 -0.023974443 0.027489062
-0.0015859033 -0.013302493 -0.0022988974 0.003652336 -0.0029248688 0.006961936 -0.0034080767 0.017527174
0.0009347571 -0.012193502 -0.004321318 0.008530684 0.012915869 0.009708215 0.0040984806 -0.0027672723
0.010488076 0.0070136874 -0.008548783 -0.010028221 -0.014106252 -0.008623453 0.0120862955 -0.016925417
-0.035175722 0.008509209 -0.010334723 -0.0019828898 0.0015398074 -0.028244523 0.016296118 0.018259062
-0.009473985 0.012088394 -0.011833968 -0.009090087 0.019738398 -0.012123967 0.0013100649 -0.008677425
-0.01115277 0.016152687 0.007844282 -0.0032768175 -0.006830264 -0.02098629 -0.0038070593 -0.01189255
-0.010195503 0.008097869 0.0017140362 -4.4160428e-05 -0.008352214 -0.020807125 0.005057538 -0.0006843843
0.01053459 0.008368624 -0.006683035 0.005093601 0.008388109 -0.038932707 -0.020120839 0.007256239
-0.022094738 0.017216502 0.01210808 -0.024407879 0.0037564465 -0.00918019 -0.011646823 0.024861857
0.00041532394 0.022202056 0.00482013 -0.022359941 -0.007958013 -0.042914387 -0.006135871 -0.0084357485
-0.021618567 0.0028173167 -0.03294107 0.0035838434 0.0198584 -0.0070617306 -0.003833299 0.007998438
-0.02171189 0.0040542665 0.003789893 -0.0033154069 0.008521779 -0.014391104 0.01174936 0.0137144355
0.0019249032 0.0043954584 -0.005248818 -0.00034201628 0.018818935 0.012276385 0.0011139978 0.025687821
-0.0007788823 0.014213843 0.0130301975 -0.00913678 0.0205527 0.020934278 -0.0012836313 -0.004412785
0.0017073003 -0.004830127 0.002891896 0.02702331 -0.00375403 0.00052810385 -0.018755028 0.013421795
0.011766248 -0.0027633724 0.009665694 -0.01110385 0.012342483 0.022334674 -0.0051038614 0.018362306
0.011319868 -0.0099985 0.0023050976 -0.012915502 0.013229415 0.015776023 0.008061259 -0.0017115906
0.021149846 0.00899963 0.0072625866 -0.010504628 -0.008425511 -0.007650247 0.009595282 -0.004523439
-0.0039312043 0.0032896826 0.014113625 0.017979804 0.0018669919 0.0153963985 -0.017362434 0.012871459
-0.0008249259 0.0040957397 0.0018435462 0.004497854 -7.201072e-06 0.0028705725 -0.0019288424 -0.012942911
0.0012229774 -0.011621987 -0.007959607 0.0036378189 -0.025055453 -0.010267656 -0.004994311 -0.009266387
-0.0007015517 0.012414825 0.028030073 -0.022356318 -0.007860208 -0.00584015 -0.01624636 0.0060391002
0.0005016745 -0.01481032 0.009052851 -0.01526398 -0.002675373 -0.012923281 -0.0115829855 -0.00677847
0.0016626948 -0.017815689 -0.014094038 -0.0025715968 -0.0016542708 -0.012498358 0.010718771 0.0044129947
0.0020384255 -0.011338409 -0.0072414293 -0.0054659047 0.007585847 0.005958392 0.008571712 0.000995444
0.0010226901 -0.0100621935 0.0053623943 -0.0018271176 0.008277441 0.002532922 -0.00665756 -0.01678631
-0.004535204 0.010919748 -0.015832018 0.0023670024 -0.004555686 0.026382765 0.019696847 0.0016470451

layer3.fc1.bias f4 [120]
00000000: ff63 c43b 97d2 283c f339 a73b 3ecb f63b
00000010: 2bb5 e3ba 4e19 8c3c db56 343c be46 1fbb
00000020: 8141 a83b cd2c 81bb d1fe aabb 2733 87bb
00000030: 1410 dcbb 570f 9cbc 504c 9a3b 10a2 bfbb
00000040: ca31 193c b0d8 053c 9e28 c8bb 687c 93bc
00000050: b08c bebb 3e16 f7bb 3a3a b1ba 21eb a7bb
00000060: 6729 d6bb aaa0 473c 5e05 cebb 7a42 e1bb
00000070: 070d 80bc 8f09 82bc 980e c5b9 3ada 09bc
00000080: e3ee 4d3e 1387 9ebc 9928 c43b 6586 153c
00000090: 7d60 67bd 89f5 303c fd6b 4e3c 92d7 8f3c
000000a0: 7ccc ccbb 44e5 4ebc 3265 033c 9818 d83d
000000b0: b5f7 e33a e105 163a ea60 ad3b 53c8 3cbc
000000c0: fba1 c2bb adec d6bb 98a8 a439 a9d0 2a3b
000000d0: 61ab 6fbb 3233 08bc c24c eaba 7587 a4bb
000000e0: 9f34 5ebb ad0f 1d3a 7c84 ebbb 4017 c8bb
000000f0: aa90 27bc ced2 a0bb d2be 2abb 8377 ec3d
00000100: 7021 0fbe 4d26 62ba 5191 2e3c c7a0 22bc
00000110: d2fe 5f3c 2455 483c 1d75 a53b ff68 d73b
00000120: 10ae e1bc f103 643a 0519 913b c1e9 243c
00000130: 636a 4e3b ff73 153c 8b4d a6bc 0c6c 4d3c
00000140: 6dc5 8cbb 30e3 ad3b e37a 57bb 9d2c a63b
00000150: af9f 863b 5b17 e3bb e80e f13b 48cf 49bc
00000160: cb19 ee3b bbbe a53c 6822 93bc 295e ea3b
00000170: 2874 53bc 6a4f 493b 966c 3d3c ea7f cbbb
00000180: daad cfbb d708 12bc 8eb3 8a3b 7d93 b3bc
00000190: 2453 3abc d1cd edba 6a5f 56bb ffe4 83bb
000001a0: 2a31 063c cf9a 43bc bfca 893c 2c65 8e3c
000001b0: dba9 ccbc 9ebd 5f3b 2bbc 45bc 9aac 953b
000001c0: c5fd ba3e 49b1 81bc 88fe fa3a d858 4b3c
000001d0: ec83 8b3b 8684 28bb a8c1 6e3c ece5 6a3e
0.005993366 0.010304115 0.0051033436 0.0075315526 -0.0017372718 0.01710191 0.011007036 -0.002430364
0.005134762 -0.0039421082 -0.0052183648 -0.004125971 -0.006715784 -0.019050283 0.004708804 -0.005848177
0.00935025 0.008169338 -0.0061083576 -0.018003657 -0.005815111 -0.0075404933 -0.0013521381 -0.005124465
-0.0065356973 0.012184301 -0.006287261 -0.0068743797 -0.015631212 -0.015873699 -0.0003758564 -0.008413846
0.2011066 -0.019351518 0.005986285 0.00912628 -0.056488503 0.010800728 0.012598989 0.017558847
-0.0062499624 -0.012627903 0.008019732 0.10551566 0.0017392548 0.0005722922 0.005291094 -0.01152237
-0.0059397197 -0.0065589757 0.0003140613 0.0026064313 -0.0036570656 -0.008312987 -0.0017875659 -0.0050210305
-0.0033905876 0.00059914106 -0.007187424 -0.0061062872 -0.010227362 -0.0049079424 -0.002605368 0.115462326
-0.13977599 -0.0008626923 0.010654763 -0.009926028 0.013671594 0.01222733 0.0050493614 0.006573796
-0.02754882 0.0008698097 0.0044280314 0.010065497 0.0031496517 0.009121894 -0.020300647 0.012537967
-0.004295996 0.005306624 -0.0032879643 0.0050712363 0.0041083912 -0.0069302744 0.0073565133 -0.012317486
0.0072662584 0.020232549 -0.017960742 0.007152338 -0.012906112 0.00307175 0.011561533 -0.006210317
-0.0063378634 -0.00891324 0.0042328304 -0.021920914 -0.011372361 -0.0018143003 -0.003271068 -0.004025101
0.008190433 -0.011938765 0.01682031 0.017382227 -0.024983337 0.003414012 -0.0120687885 0.004567695
0.36521736 -0.015831606 0.0019149343 0.012411319 0.0042576697 -0.0025713756 0.014572538 0.2293927

layer3.fc2.weight f4 [84, 120]
00000000: 744f 6f3a 9404 aa3b 5d68 9eba 53d2 fa3b
00000010: 172b 29ba badd a43a 716d 8239 a369 b1bb
00000020: 8857 8d3b 1215 9c3b a205 44bb ed97 a53b
00000030: e855 f5ba 22d5 0d3b fadb 073c c8b1 aaba
00000040: b095 f53b 4d81 0d3c 5cb3 753b 776c 29bb
00000050: 720b ccba 62fe 893b 1ca1 e63a a03f 47bb
00000060: 8355 adba ad42 c3b8 1eee bdbb de3a ba39
00000070: 116d 70ba 5e03 80bb 6fd1 243c 576c 0dbb
00000080: 4eae 43bc cda6 ccbb 32bc 983b 15af 973b
00000090: 982e baba e583 e73a baa6 803b 933a b93a
000000a0: 571d a3bb 5562 c339 05e8 633b 3bcb 0b3b
000000b0: 9be7 913b 5f0d acba 49d9 fb3a ec7c 61bb
000000c0: 3eae d03a 2819 38ba 70a2 b33b 4c25 6a3a
000000d0: 9c0f 88ba f2d2 d23a 01dd f9b9 a56c 81ba
000000e0: b34a a13b a959 38bb 98bc 1abb d85d 9a3b
000000f0: 30ad d9bb 3076 49bc 8d43 69bb a082 753a
00000100: 1869 8b3b ed37 8e3a 8943 47b9 c14b a1ba
00000110: e8c8 d83b 56b4 2f3b 45c3 a83b 52fc 583b
00000120: 29ec f539 6c2f 433b bcaa f1ba a695 e9b9
00000130: 3bde 903b 72a1 2cbb c13c 19bc 4cf9 123b
00000140: 368e 7fbb cbcf b539 30c4 f939 4f9d d73b
00000150: 346e 593b 49d0 953b 1e3b fd3b 33f5 313b
00000160: 1cdb 343b 9531 fd3b 2af2 c8ba 5b36 cbbb
00000170: 4145 c93a c44f d0ba 1f01 bebb aa45 4a3b
00000180: f579 8abb cf4c d0bb e5fe 5dba 45de 4a3b
00000190: e946 bbbb ed70 dc3b ea5c 9d3a 9d2b 5abb
000001a0: b2f6 57bb e2d1 4d39 4f60 6f3b 10ea 96ba
000001b0: ab93 e2bb 2a1b b939 1a00 f03b 8205 323b
000001c0: 0abe ef3a 56b9 3d3b 46f9 823a f3d7 063b
000001d0: 2079 8739 07f1 85bb 2e3c 95bb 72c6 67bb
000001e0: 452c 493b c42f 0f3b a0d6 633b db03 ed3b
000001f0: 9f4b a9bb c895 d1bb e26d 473a ecc6 863c
00000200: fc2d 343c fad1 0ebb 8654 ba3b d4c8 943a
00000210: d368 bdbc f195 27bc 2389 daba 8af4 59bc
00000220: e022 343c 79ef 813b 0a86 f13b b5e8 39bc
00000230: 8506 46bc 63e7 9e3b c9bf 223c 9f06 27bc
00000240: ebda 88bc 83f9 69bc 22b9 b0bb 5d35 afba
00000250: 3b26 4fbc ad0e 6fbc a88d 5a3c 7bd0 7d3c
00000260: 4514 51bc 07d6 11bc 8f0e d33b 0b11 a4ba
00000270: 6992 663c 774e b93b 0fe2 b83a c0e5 f83b
00000280: 5467 8abb 4eda 7abb 7a39 9cbb 5b91 f33b
00000290: 1d4e b3bb 84bb 893b 4fce 33bc 7635 70bc
000002a0: edce 06bc 666b a138 a0c8 293b 89d3 0a3c
000002b0: 9e87 9cbb 5c35 67bc 8253 173c f370 babb
000002c0: d215 d9ba 3236 4b3b 9a25 373c 372e 253c
000002d0: 9af2 953a 9172 ccbb f6c0 c7bb 2de7 063c
000002e0: 256e 4e3c 4574 85bb 6aab 0ab9 1ca2 d5bb
000002f0: 96ee 943c 7b89 043c 1b24 303c 7246 9539
00000300: 2f45 c1bb 5cf4 603c e1e3 3dbc d225 453b
00000310: 39e2 c6ba 399f 48b9 10d0 1abc f443 7abb
00000320: bf54 10bc 0544 6f3c 2a24 ddbb 71f3 9f3b
00000330: 0e45 163c d843 cf3b c13d ceba 2480 21bc
00000340: 0a76 daba f99c 44bc ecde 02bb c1f4 20bc
00000350: 9f9e 7f3b 9feb 90bb 8326 fa3b 8504 80bb
00000360: fa11 9cbb 4c29 56bc f50f 76bb ac3b 90bc
00000370: 45c3 4b3b 0b3f 38bb 713f c839 605a 54bb
00000380: 873b c2bb 543e 73bc 6460 353c 8c41 703b
00000390: 4aa6 2fbc e1ed 29bb 2d42 5cba 2c4a 833c
000003a0: 8ec9 a23b a835 883a f239 793b 8530 503c
000003b0: ac92 f63a e6c7 64bc 58f1 a8bc 89c8 7c3c
000003c0: 6da8 9b3b 60d4 32bb 5b48 45b9 1920 b43a
000003d0: 8e27 32bb 297f a53b cd33 48ba 8c2a b1bb
000003e0: 274d 183b 431f 7bbb 47e9 2eb9 f88c 16bc
000003f0: 9062 653b 07f6 0dbb 874b 0f3c 6146 1d3c
0.0009128966 0.005188534 -0.0012085546 0.007654467 -0.0006453259 0.0012578287 0.00024877072 -0.005414204
0.004313413 0.004763254 -0.0029910584 0.0050535114 -0.0018717619 0.002164193 0.008292193 -0.0013022954
0.007494651 0.008636785 0.003749094 -0.0025852004 -0.0015567376 0.004211233 0.0017595622 -0.0030402914
-0.0013224337 -9.310744e-05 -0.005796208 0.00035520544 -0.00091715256 -0.0039066514 0.0100596985 -0.0021579468
-0.011943413 -0.00624547 0.0046611065 0.0046290257 -0.001420456 0.0017663209 0.0039261254 0.0014131836
-0.004977863 0.0003726656 0.0034775746 0.0021330852 0.0044526584 -0.0013126543 0.0019214536 -0.0034406735
0.0015921069 -0.00070227915 0.0054820105 0.0008931949 -0.0010380629 0.0016084595 -0.00047657642 -0.0009874298
0.004922235 -0.0028129613 -0.0023610946 0.004710894 -0.00664296 -0.0122962445 -0.0035593242 0.0009365473
0.0042544715 0.0010850407 -0.00019003278 -0.0012305902 0.0066157468 0.002681037 0.005150231 0.003310938
0.00046905995 0.0029782904 -0.0018437724 -0.0004455272 0.004421023 -0.0026341346 -0.009352864 0.0022426425
-0.0038994676 0.00034677828 0.00047639152 0.006580032 0.0033177258 0.0045719487 0.0077279946 0.0027154207
0.002759642 0.007726858 -0.001533096 -0.006201548 0.0015355722 -0.0015892913 -0.0057984735 0.0030864277
-0.004225964 -0.0063568125 -0.0008468463 0.0030955237 -0.0057152403 0.006727329 0.001200584 -0.0033290156
-0.0032953438 0.00019628511 0.003652591 -0.0011513848 -0.006914576 0.00035306189 0.007324231 0.0027163927
0.0018290889 0.002894958 0.0009992502 0.0020575493 0.00025839452 -0.0040875706 -0.004554293 -0.0035366085
0.0030696553 0.002184854 0.0034765378 0.0072331256 -0.0051664854 -0.006396029 0.00076076214 0.016452275
0.010997292 -0.0021792636 0.0056863455 0.0011351355 -0.023121273 -0.01022862 -0.001667295 -0.013302932
0.010994643 0.003965315 0.007370715 -0.011346986 -0.012086515 0.004849361 0.00993342 -0.01019445
-0.01670595 -0.01428068 -0.0053931633 -0.0013367344 -0.012643392 -0.014590901 0.013339438 0.0154916
-0.01276118 -0.008901126 0.0064409445 -0.0012517286 0.014072993 0.0056551057 0.0014105457 0.0075957477
-0.0042237435 -0.0038277092 -0.004767594 0.007433099 -0.0054719583 0.004203262 -0.010974481 -0.014661184
-0.008228046 7.697083e-05 0.0025906935 0.0084732855 -0.004776909 -0.014111843 0.009236218 -0.005689734
-0.0016562289 0.0031007645 0.0111783985 0.010081819 0.0011440099 -0.0062392433 -0.006096001 0.008233828
0.012599503 -0.0040726983 -0.00013224562 -0.006519569 0.018180173 0.0080894185 0.010750796 0.0002847198
-0.00589814 0.013730135 -0.011589975 0.0030082357 -0.0015173621 -0.00019132801 -0.00944902 -0.0038187476
-0.008809268 0.014603619 -0.006748696 0.0048813154 0.009171737 0.0063252263 -0.0015734957 -0.009857211
-0.0016667258 -0.012000316 -0.0019969298 -0.009823979 0.0039004458 -0.0044226195 0.0076339855 -0.003906789
-0.004762885 -0.013071369 -0.0037546132 -0.017606579 0.0031091732 -0.0028113748 0.0003819424 -0.00324025
-0.0059275064 -0.014846403 0.011070345 0.0036660163 -0.010720799 -0.002592914 -0.0008402195 0.016026579
0.004967875 0.0010391967 0.0038028923 0.01270688 0.0018812022 -0.013963675 -0.020622894 0.015428671
0.0047503025 -0.002728723 -0.00018814339 0.0013742476 -0.002718422 0.005050559 -0.00076371134 -0.0054066833
0.0023239346 -0.0038318194 -0.00016680836 -0.009188883 0.0035001375 -0.0021661536 0.0087460345 0.009599299

layer3.fc2.bias f4 [84]
00000000: 047b 97bc c9e9 f2ba 8eec 1f3b a57e 40bc
00000010: 4097 3abc 3a8e a3bc 705f 5d3b 0c9e 403b
00000020: e99f 183c 48ac 23bc 888d 773e 3d16 20bc
00000030: 2074 a4bc b166 a63b dd0e 843c 815e 573b
00000040: 1bf3 bc3b 045e f7bb 01d3 df3a eb27 213c
00000050: 76dc a63c 8c07 8d3b cc33 80bc ded3 703c
00000060: 984e 41bc 70fc 42bd efe3 e3bb 65e7 f43c
00000070: d47e 2fbc 1975 4c3c 1960 1e3c 70c1 4bbc
00000080: 1121 7b3c 3c3b bbbb 4dd4 7fbc 5ee9 893c
00000090: d1da 5b3a dc52 8ebc 1b9d 953b 0111 1dbc
000000a0: c5ec ac3c f617 8f3e 5785 ea3b b565 08bc
000000b0: 04d6 943c 52f8 5abb 8b90 03bb 1e17 7e3c
000000c0: 5dba 813c 97fa b839 7a12 cf3b c114 5f3e
000000d0: 33a1 85bb 071f 8e3c f5b7 96bb f26c 8e3a
000000e0: a448 1d3c c912 96bc 688e 18bc 42c3 40bc
000000f0: e229 d839 6236 a0bc a69b 1bbc 8a0c 993b
00000100: 403c 15bb 80a6 283c 679e d73b 9db9 f13a
00000110: a5b8 aebc 01f3 80bc d893 013e 6a3d 1cbc
00000120: cd40 983b c945 803c 8663 41bc 24eb d2bb
00000130: 5237 80bc 7e99 033c 6673 23ba 4c83 e9bd
00000140: 8625 d5bb be0e 1cbb 5605 823a acdd 9dbc
-0.018491276 -0.0018532808 0.0024402472 -0.011748944 -0.0113886 -0.01996528 0.003377881 0.0029391078
0.009315469 -0.0099898055 0.24175084 -0.009770927 -0.020074904 0.0050781597 0.016120369 0.0032862725
0.005766285 -0.0075490493 0.0017076434 0.009836177 0.020368796 0.004303878 -0.015649699 0.014698951
-0.011798523 -0.047604024 -0.006954662 0.029895494 -0.0107113905 0.01247909 0.009666466 -0.012436256
0.015327708 -0.0057138484 -0.015614581 0.016834911 0.0008386793 -0.017373495 0.0045658476 -0.009586574
0.021108994 0.27947968 0.0071570086 -0.00832503 0.018168457 -0.003341217 -0.0020075168 0.015508441
0.015835935 0.0003528192 0.0063193412 0.2178526 -0.0040780543 0.01734878 -0.004599566 0.0010866208
0.009599838 -0.018319504 -0.009311296 -0.011765303 0.00041229936 -0.019557182 -0.009497559 0.004670684
-0.0022771508 0.010293603 0.0065801623 0.0018442158 -0.02132828 -0.015740873 0.12654054 -0.009536127
0.0046463967 0.015658276 -0.011803513 -0.0064367224 -0.015651379 0.008032201 -0.0006235152 -0.11401996
-0.0065047173 -0.0023812498 0.0009919803 -0.01927074

layer3.fc3.weight f4 [10, 84]
00000000: c660 50b7 7fa1 d1bb 3b39 0b37 2193 383b
00000010: 9cbf 283c b0be 083b d8e1 2a39 3e14 92bb
00000020: 34a2 0eba f06b 0fb9 b358 37be 7be7 27ba
00000030: 03f8 5638 fbec 3b3b 9a58 a13a f160 11bb
00000040: 0503 b03b 1969 373a 516a 88ba 3c10 b7b9
00000050: 864e a1ba 0b59 f03a 6609 7e3a b049 75bb
00000060: a22d f73a 1761 773c 28fe aebb f8cc d63d
00000070: 3984 d5bb 5989 2b3b 853e a53b 366a 433b
00000080: 5ffb fcba 73cc 8b3b ff38 cabb 8959 9fbb
00000090: 5310 e33b dbc3 4eba dcef b13b 6696 26bb
000000a0: 3dd3 6d3b 79ae ff3a de67 9a3a 366d 8c39
000000b0: 375a 893a a6ba 8b39 30fa 333c 90e6 4dbb
000000c0: 8baa 22ba d6b8 a4b9 d296 2cbb 894f d13c
000000d0: 03ec 28bb 64f7 97bb 82c2 af3b 981f 563b
000000e0: 0a81 193b c8e5 71be 8c50 f939 78ba 7dbb
000000f0: 9d38 2ab9 49af 0b3a 6ec5 323b a65c a4bb
00000100: a019 5e3b 1599 af3b 5c33 50bb 054e d0bb
00000110: ec98 33b9 9dde 263a 1da1 10be c041 8dbb
00000120: 4d90 d53a edc7 6f3a d2dc 173a fd7c eebb
00000130: f2fc bf39 97af 263c 4304 853b f972 0e3e
00000140: 3db7 8b3b 4583 03bb b21d 993b 6c65 ba39
00000150: 474d 803b 7393 923c d544 94bb ae21 5f3b
00000160: 3f47 4d3c 4ff0 ee39 3e62 ec39 dfa7 c8ba
00000170: 2fbb dfbb e360 fb3a 7b40 04bd 877c 263b
00000180: f54c f1b9 c537 ebbb eb06 23bb f620 573b
00000190: 4286 f53a 42a4 a13b a718 26bc 19e5 9b3b
000001a0: 34e1 7cbb 827f eeba 4224 893b b7e3 4cbb
000001b0: c1f2 e7b8 0490 6c3e 9523 0e3b 65a5 f5bd
000001c0: 0257 853b c0da 80ba 6829 e1ba 8ec2 003a
000001d0: 8d98 2b3b 47f9 a3bb 9c4a 0d3c d9f5 a9ba
000001e0: 9aa4 493c 776a 3e3b 0361 5d3a fd02 e6bb
000001f0: a9c6 133b 9865 2fbe a615 4fb9 0978 ad3b
00000200: df65 ccbb 24f1 953a 742a f83d 0fb6 7ebb
00000210: 3f60 eeba 0d52 913b 1081 43bb d9d6 abbe
00000220: 93c6 05bb 515a 6f3c bf71 14ba 2c20 4fbb
00000230: 16b8 90bb fd25 633c b883 d63a 5bb6 a73b
00000240: b8cc 8c39 6b58 523b df2a da3b 4d39 8cbb
00000250: f97f 58bb e014 9a3a a29a be3b 8df8 723b
00000260: e5f8 723b c92c d53b 3d35 e0bd 8aba a0bb
00000270: 9634 fa39 b98b a8bb e3f7 d23b eff8 e63b
00000280: 3742 e73b c79c 163c 6aec cabb d5ac 69bd
00000290: 060b 763b bc5b 893a d413 793b 2ac1 9f3b
000002a0: 98c8 aab9 6655 29bb b620 b93b 2caa 9fb9
000002b0: 5208 323c 5fef a3bb 5ab0 15bb fd8c 2dbb
000002c0: d7ac 29bb 2714 6bbb 3f1e c4bd 7c20 94bb
000002d0: f289 16bc 8296 263b f907 023a ab3a d93a
000002e0: 40d2 9e3a 8023 31bc 4111 26bb 718c 5e3b
000002f0: 943a 7eba 187e b03b bfc0 85bb 587b 703a
00000300: 37f6 ff3a 1ce5 6cbd 2e50 8dba dc3e 313e
00000310: ca03 e9bb 1f12 8a3b d988 be3b aa33 efb8
00000320: d59d a839 a561 093b 6089 00bc 647d e03b
00000330: 2d5c 21ba 1599 cfbb d92e cb3a d13b f5bb
00000340: 53e5 133c d49d 073e 6b93 ad3a dbd0 c1bb
00000350: bd3a 893b a901 8bbb de81 383d 069b 0a3a
00000360: 7a8b 203c 3fb9 9aba a164 bab9 6352 193e
00000370: 183e 4abb f048 7f3b 09ff 7d3b b5e5 313b
00000380: 6e6a 9e38 0e3d 563d 0841 adbb 99d3 42bb
00000390: ddda b93b afbc a2ba d51d 15bb b1bd f93a
000003a0: ad97 ebb9 f1c5 e53b 6175 faba ab3f 67b9
000003b0: 211f 0cbb b6ab 6739 94f9 c3bc b477 dabb
000003c0: 7f52 4c3b d3d6 4c3b 30cc cebb 7cf3 88bb
000003d0: f12b db39 f9ab 5a3c b945 9c3b a734 58be
000003e0: f9ef 56bb 23a7 dcbb a5fc 183b ff9b 47bb
000003f0: 1ee7 d83a f3a6 bbbb 049e 793b 4eeb 233b
-1.2420298e-05 -0.0063974257 8.298371e-06 0.0028163868 0.0102995895 0.0020865612 0.00016296597 -0.0044579795
-0.000544104 -0.00013677753 -0.1790493 -0.0006405038 5.1252555e-05 0.0028675187 0.001230973 -0.0022183026
0.0053714537 0.0006996557 -0.0010407661 -0.00034916576 -0.0012306727 0.0018337084 0.00096907315 -0.0037427954
0.0018858204 0.015098832 -0.0053403564 0.104883134 -0.0065160063 0.0026174395 0.0050428533 0.0029817945
-0.0019300989 0.0042663156 -0.0061713452 -0.0048629683 0.0069294362 -0.0007887461 0.005430205 -0.0025419234
0.0036289238 0.0019506953 0.0011780222 0.0002678425 0.0010479157 0.0002665121 0.010984942 -0.0031417944
-0.00062052225 -0.0003141823 -0.0026335013 0.02555062 -0.002577544 -0.0046376456 0.0053637633 0.003267264
0.002342286 -0.23622811 0.00047552993 -0.003871588 -0.00016233553 0.0005328549 0.0027278322 -0.0050159274
0.0033889785 0.005358825 -0.0031768894 -0.006356957 -0.00017127738 0.00063655694 -0.1412396 -0.0043108165
0.0016293615 0.0009146918 0.00057930977 -0.0072780834 0.00036618818 0.0101737 0.004059346 0.13911046
0.004263787 -0.0020067256 0.0046727294 0.0003555225 0.003915462 0.017892575 -0.004524807 0.0034047174
0.012529193 0.0004557394 0.00045086624 -0.0015308819 -0.006827734 0.0019178655 -0.032288056 0.0025403814
-0.0004602444 -0.007178279 -0.002487595 0.0032826043 0.0018732029 0.004932911 -0.0101377135 0.004757535
-0.003858638 -0.0018195959 0.0041852305 -0.0031263658 -0.00011060155 0.23101813 0.002168869 -0.11994437
0.00406921 -0.0009830818 -0.0017178478 0.00049118034 0.0026183457 -0.0050040814 0.008623745 -0.0012966945
0.0123073105 0.0029055157 0.0008444937 -0.007019399 0.002254883 -0.17128599 -0.00019749123 0.0052938503
-0.00623773 0.0011439663 0.12117472 -0.003886584 -0.0018186643 0.00443483 -0.0029831566 -0.33562353
-0.002041255 0.014608935 -0.00056627014 -0.003160487 -0.004416476 0.013864038 0.001636616 0.005118174
0.00026855408 0.0032096158 0.0066579427 -0.0042792917 -0.0033035262 0.0011755489 0.0058167735 0.0037074417
0.0037074622 0.006505583 -0.109476544 -0.0049050497 0.00047722895 -0.0051436094 0.006438242 0.007048718
0.007057454 0.009192652 -0.0061927335 -0.05704959 0.0037543192 0.001047961 0.0038006203 0.004875322
-0.0003257438 -0.0025838255 0.0056496514 -0.0003045363 0.0108662415 -0.0050029005 -0.002284071 -0.002648174
-0.0025890374 -0.0035870166 -0.095760815 -0.004520474 -0.009188162 0.00254193 0.00049602945 0.001657327
0.0012117103 -0.0108116865 -0.0025339874 0.0033958221 -0.000969806 0.0053861253 -0.004081815 0.0009173653
0.0019528334 -0.057835683 -0.0010781342 0.17309135 -0.0071110474 0.004213586 0.0058146534 -0.00011406031
0.0003216105 0.0020962742 -0.007845253 0.006850885 -0.0006155398 -0.0063353875 0.0015501633 -0.0074839373
0.009026843 0.132438 0.0013242787 -0.00591479 0.0041879104 -0.0042421413 0.045045726 0.00052873825
0.009798879 -0.0011804475 -0.0003555166 0.14972834 -0.0030859765 0.0038953386 0.003875675 0.0027144973
7.553851e-05 0.05230432 -0.0052872933 -0.0029728173 0.0056718425 -0.0012415851 -0.0022753377 0.0019053725
-0.000449357 0.007012122 -0.0019108468 -0.00022053595 -0.002138086 0.00022093844 -0.023922719 -0.0066671018
0.0031177101 0.0031255975 -0.006310962 -0.004179416 0.00041803674 0.013346666 0.004769054 -0.21113835
-0.0032796843 -0.0067337914 0.0023343947 -0.003045797 0.001654837 -0.005726689 0.003808857 0.0025012079

layer3.fc3.bias f4 [10]
00000000: 12d7 ddbd 857e dbbe 1452 bc3e 4f0e 113f
00000010: 47df ac3e 7c76 43bb 9978 f6bd da6a 87be
00000020: fdb1 b8be 0583 78bd
-0.10832037 -0.42869964 0.3678137 0.5666246 0.33764097 -0.002982526 -0.12034721 -0.2644871
-0.36073294 -0.060671825
