output/models_cifar10_470.pth (torch_old, 248636 bytes, 10 tensors)

layer1.conv1.weight f4 [6, 1, 5, 5]
0	0xbbb5cda6	-0.005548197
1	0xbe314f9f	-0.1731553
2	0x3c3e11fe	0.011600969
3	0xbe03a3d8	-0.1285547
4	0xbda245ca	-0.079234675
5	0x3e9c6302	0.30544287
6	0xbe57901b	-0.21051066
7	0x3ee2ea8c	0.4431957
8	0xbd8995f7	-0.06718057
9	0x3e68a419	0.22718848
10	0x3de3a41c	0.11115286
11	0xbf231acb	-0.6371276
12	0x3ee5eb24	0.4490596
13	0xbec55a0d	-0.38545266
14	0xbd7fdac4	-0.06246449
15	0x3ed9f24e	0.42567676
16	0xbf34b48b	-0.70587987
17	0x3f446b9b	0.7672669
18	0xbeb7912d	-0.35852948
19	0x3e1d0a25	0.15335901
20	0x3e7c8638	0.24660575
21	0xbf238c6a	-0.6388613
22	0x3f06d7a1	0.52672774
23	0xbe49317d	-0.19647785
24	0xbd1a3757	-0.037650432
25	0x3c0d9ad2	0.008642869
26	0xbd812317	-0.06305521
27	0xbcb3072c	-0.021854006
28	0x3dbc8a32	0.09206046
29	0xbc9e388d	-0.019314075
30	0x3d74299f	0.059610005
31	0x3e3b3ca9	0.18284859
32	0xbf1cb863	-0.6121885
33	0x3e16cb1a	0.14725915
34	0x3e688d3c	0.22710127
35	0xbdaacf54	-0.08340326
36	0x3eb72ec6	0.35777873
37	0x3ef427e6	0.4768669
38	0xbf957a6f	-1.1677989
39	0x3ead0eab	0.33800253
40	0x3daf8d38	0.08571857
41	0xbf0b53e2	-0.5442487
42	0x3f4cd83e	0.8001746
43	0x3e2fcaef	0.17167257
44	0xbee8e421	-0.4548655
45	0xbc80fec1	-0.015746476
46	0x3da6c649	0.08143289
47	0xbed2636c	-0.41091478
48	0x3ed73385	0.42031494
49	0xbdb0d54a	-0.08634432
50	0xbd32b211	-0.04362685
51	0xbcc95805	-0.024578104
52	0xbd8c1769	-0.06840403
53	0x3e110d4d	0.1416523
54	0x3d7ff8df	0.0624932
55	0xbd8b4fad	-0.06802306
56	0xbd094a4d	-0.033518124
57	0x3e447816	0.19186434
58	0x3d4002f4	0.046877816
59	0xbd7f32e0	-0.062304378
60	0xbeb2707f	-0.34851453
61	0x3c6193a5	0.013768111
62	0x3e8d9381	0.276516
63	0xbdc1963c	-0.09452483
64	0xbd1d4acb	-0.038401406
65	0xbeb6d9a4	-0.35712922
66	0x3ea44a35	0.32087865
67	0x3e5ab13c	0.21356672
68	0xbcf40b25	-0.02979047
69	0x3a61478e	0.00085937313
70	0xbf0504be	-0.5196036
71	0x3eb50b46	0.35360163
72	0xbcf030c4	-0.029320128
73	0x3d61e3a4	0.055148736
74	0xbdb773e2	-0.0895765
75	0xbde82976	-0.11336033
76	0xbeb148c4	-0.34625828
77	0xbe15d8dd	-0.14633508
78	0xbd2576c7	-0.040396478
79	0x3d79aee9	0.060957823
80	0x3e96fd15	0.2948996
81	0x3f4e3db4	0.805629
82	0x3f041d09	0.51606804
83	0x3e28d9cb	0.16489331
84	0x3d4471b3	0.047959995
85	0xbe14bf77	-0.14526163
86	0xbee6ebd7	-0.45101807
87	0xbe9c6c40	-0.30551338
88	0xbcd99314	-0.02655939
89	0xbde85773	-0.113448046
90	0x3df989ab	0.12184461
91	0x3bf054dd	0.0073343352
92	0xbdbdc0d1	-0.092652924
93	0x3da90f1f	0.08254837
94	0x3e588dc4	0.2114783
95	0xbd81be16	-0.06335084
96	0xbd0e1f05	-0.03469755
97	0xbc7e8ef1	-0.01553701
98	0xbe12afc7	-0.14324866
99	0xbdb0cb08	-0.08632475
100	0xbdc47cb9	-0.095941015
101	0x3cf21c98	0.02955465
102	0xb9fd4b81	-0.00048312175
103	0x3e003974	0.12521917
104	0xbdc9c296	-0.098515674
105	0x3cc5f38a	0.02416398
106	0x3dd6aabd	0.104817845
107	0x3d3fd613	0.046835016
108	0xbe150e8b	-0.14556329
109	0x3e01705a	0.12640515
110	0xbe8fecef	-0.28110453
111	0xbed3bbbe	-0.41354173
112	0xbe021d34	-0.12706453
113	0x3caec91e	0.021336135
114	0xbe9c613b	-0.3054293
115	0x3e72345d	0.23652788
116	0x3e6d7e60	0.2319274
117	0xbe2fcf7f	-0.17168997
118	0xbdda8665	-0.10670165
119	0x3e4081b6	0.18799481
120	0xbd92e9b3	-0.07173481
121	0x3d106a88	0.035257846
122	0x3e266273	0.16248493
123	0x3d282fc6	0.041061185
124	0xbdefaa8b	-0.1170245
125	0x3d44b526	0.04802432
126	0xbe89b71a	-0.26897508
127	0x3ea8fec5	0.33006874
128	0x3c15aae7	0.009134985
129	0xbdce86c5	-0.10084299
130	0xbe02b081	-0.12762643
131	0x3eb60875	0.35553327
132	0x3f01b4e5	0.5066665
133	0xbf3e8fff	-0.7443847
134	0x3c0647cd	0.00819583
135	0x3dcce7f6	0.100051805
136	0x3efb1d8c	0.4904598
137	0xbf956e6b	-1.1674322
138	0x3d649fd9	0.055816505
139	0x3eb4ddf8	0.353256
140	0xbbdda7a9	-0.0067643714
141	0xbe9a1e32	-0.30101162
142	0xbdc33b33	-0.09532776
143	0x3f2eedf5	0.68331844
144	0xbe86af3d	-0.2630557
145	0x3e088d7a	0.13335219
146	0xbde46133	-0.11151352
147	0x3e47f57a	0.19527236
148	0xbe3e2abe	-0.18570992
149	0x3cba9497	0.022775931

layer1.conv1.bias f4 [6]
0	0xbeb2ee63	-0.349475
1	0xbeace9e1	-0.33772185
2	0xbea9473e	-0.33062166
3	0xbe992ece	-0.29918522
4	0xbea141f4	-0.3149563
5	0xbeb95449	-0.36197117

layer2.conv2.weight f4 [16, 6, 5, 5]
0	0x3d945b2c	0.07243952
1	0xbd0ef2f2	-0.03489966
2	0x3d9da88a	0.07698162
3	0x3e01f11b	0.1268963
4	0x3dcbd046	0.099518344
5	0x3d3345dc	0.043767795
6	0xbd4d0b43	-0.050059568
7	0x3d1e8880	0.038704395
8	0xbac802b3	-0.0015259593
9	0x3d4ee5ae	0.05051201
10	0xbcc5f1f8	-0.024163231
11	0x3bdd171d	0.00674714
12	0xbccd492a	-0.025059301
13	0x3bdd8e05	0.006761315
14	0x3d6a0431	0.057132903
15	0x3c27427d	0.010208723
16	0xbe1d6ed1	-0.15374304
17	0xbe0debdf	-0.13859509
18	0x3dfdce93	0.123929165
19	0xbdc227c5	-0.09480242
20	0xbe808d13	-0.2510763
21	0xbeab3ad3	-0.33443317
22	0xbf218e4e	-0.63107765
23	0xbf3cf456	-0.7381033
24	0xbea5b559	-0.3236492
25	0x3eb335cd	0.35001984
26	0x3e256d2e	0.1615493
27	0x3cbcc735	0.023044208
28	0x3c5e4914	0.013567228
29	0x3e34cacd	0.17655487
30	0x3e8a9210	0.27064562
31	0x3e2b5ec6	0.16735372
32	0x3e696c98	0.22795331
33	0x3da2fe7c	0.07958695
34	0x3e12acaf	0.14323686
35	0x3ed6cd9d	0.41953745
36	0x3e56121d	0.20905347
37	0x3e337df6	0.17528519
38	0x3daf268e	0.085522756
39	0x3e3f2bbd	0.18669029
40	0x3ec5a124	0.38599503
41	0x3eb4dfe7	0.35327074
42	0x3e70efd8	0.23528993
43	0x3df2e5a0	0.11860204
44	0xbcd0252c	-0.02540835
45	0x3eec6e8d	0.46178094
46	0x3e24a07a	0.16076842
47	0xbddd89c3	-0.108172916
48	0xbc020f23	-0.007938179
49	0xbd84689e	-0.06465267
50	0x3e498772	0.19680575
51	0x3dced4fc	0.10099217
52	0xbb2e9d3e	-0.0026644017
53	0x3e51027e	0.20411107
54	0xbd3178f4	-0.04332824
55	0x3b82c7a0	0.0039910823
56	0x3e220c4d	0.15825005
57	0x3c8c7617	0.017146153
58	0xbe471893	-0.19442968
59	0x3deb2a63	0.11482694
60	0xbe647ed2	-0.22314003
61	0xbb97324c	-0.00461415
62	0x3db50694	0.08839145
63	0x3e58f90d	0.21188755
64	0xbbba78df	-0.0056906785
65	0xbd0cf7ab	-0.034415882
66	0xbe07466e	-0.1321046
67	0xbdd0af17	-0.10189646
68	0x3e825443	0.25454912
69	0x3e25f615	0.16207154
70	0xbe1e4c66	-0.15458831
71	0xbe0446bc	-0.12917608
72	0xbebac2ad	-0.3647665
73	0xbecd0704	-0.40044415
74	0xbdf26669	-0.118359394
75	0x3e8b9d53	0.27268466
76	0xbde9eec9	-0.11422498
77	0xbd0d871c	-0.03455268
78	0x3c779894	0.015112061
79	0x3e1930ee	0.14960071
80	0x3df5298b	0.11970814
81	0x3d35f063	0.044418704
82	0x3e420749	0.18948092
83	0x3e15c950	0.14627576
84	0x3d90fa7e	0.070790276
85	0xbd5b2a18	-0.05350694
86	0x3eacdc0d	0.33761635
87	0x3e37b856	0.17941412
88	0x3e2844fe	0.16432568
89	0x3deb93dd	0.11502812
90	0xbe744583	-0.23854642
91	0x3e832f43	0.25621995
92	0x3e8c9943	0.2746068
93	0x3e262f71	0.16229035
94	0x3c2aee9d	0.010432866
95	0xbdfe72f5	-0.1242427
96	0x3dbb835c	0.09155914
97	0x3e5526b9	0.20815553
98	0x3ebcb530	0.36856985
99	0x3e8f2431	0.279573
100	0x3e6b0fe9	0.22955288
101	0x3d55f5b8	0.05223629
102	0xbdb9f927	-0.09080725
103	0x3e8c2cf1	0.27378038
104	0x3dc6d4eb	0.0970858
105	0x3ec92cb0	0.39291906
106	0x3dc3c478	0.09558958
107	0x3e460da0	0.19341135
108	0x3d589fbb	0.052886706
109	0x3eb02c69	0.34408882
110	0x3e964c52	0.29355103
111	0x3e2d56d4	0.16927654
112	0x3e3a2a14	0.18180114
113	0x3da55e20	0.080745935
114	0x3ee2cd65	0.4429733
115	0x3e422711	0.18960215
116	0x3d902645	0.07038549
117	0x3f02cef8	0.5109706
118	0x3eb920cb	0.36157832
119	0x3ddef464	0.108864576
120	0xbeeecd2e	-0.46640915
121	0x3ec96bd6	0.39340085
122	0x3f452454	0.7700856
123	0x3e1451ff	0.14484404
124	0xbe271800	-0.16317749
125	0xbd8acfae	-0.06777893
126	0xbde97a59	-0.11400289
127	0xbc572caa	-0.013133207
128	0x3d5e5a52	0.054285355
129	0x3cb0c505	0.021578321
130	0xbdab8016	-0.0837404
131	0xbe3c23d7	-0.18373047
132	0x3caa5fa6	0.020797562
133	0x3d9f29d7	0.07771652
134	0x3e19e114	0.15027267
135	0x3cd3944c	0.02582755
136	0xbdf5d1ef	-0.12002932
137	0x3d414025	0.047180314
138	0x3d5ed55b	0.05440269
139	0x3db6b8f9	0.089219995
140	0x3c08dd15	0.008353491
141	0xbcd5c114	-0.026093043
142	0xbdfb499d	-0.122699
143	0x3df50fa6	0.11965875
144	0x3e198355	0.14991505
145	0x3d368788	0.044562846
146	0x3df63be4	0.12023142
147	0xbd2658ec	-0.040612146
148	0x3d4fb8b1	0.050713245
149	0x3e8021d9	0.25025824
150	0xbd9c4914	-0.07631126
151	0x3cf9056e	0.030398097
152	0x3d721f12	0.059111662
153	0x3e38a1b4	0.18030435
154	0xbe3928f7	-0.18082033
155	0x3e50d7ec	0.20394868
156	0x3d2809e5	0.04102506
157	0x3d9728a1	0.07380796
158	0xbe7f0f00	-0.24908066
159	0x3d9caf80	0.076506615
160	0x3bb7535c	0.005594654
161	0x3eab040d	0.33401528
162	0xbe05f765	-0.13082655
163	0x3cf95850	0.030437618
164	0xbd8d8817	-0.06910723
165	0xbe3140d0	-0.1730988
166	0xbe9d60fe	-0.30738062
167	0xbd65dcab	-0.05611865
168	0xbc7d80e6	-0.015472626
169	0xbe565809	-0.2093202
170	0xbd3e4bae	-0.046458893
171	0x3e094c47	0.13408004
172	0xbe3c9726	-0.18417034
173	0xbedb19a1	-0.4279299
174	0xbe18a0bc	-0.14905065
175	0x3e451dc8	0.19249642
176	0x3dd8fb5d	0.10594819
177	0x3d7d6507	0.061863925
178	0x3e95b3fd	0.29238883
179	0x3d0828ef	0.033242162
180	0x3c72e2b3	0.014824557
181	0x3d485ba8	0.048915535
182	0xbed474e0	-0.4149542
183	0x3eaf1873	0.3419834
184	0x3e470cd6	0.1943849
185	0xbe9e9560	-0.3097334
186	0x3d56603c	0.05233787
187	0xbec4f672	-0.38469273
188	0x3e93f4f9	0.28897837
189	0x3dfec931	0.12440718
190	0x3acaec1d	0.0015481744
191	0xbd8f7e6a	-0.070065334
192	0xbebf876c	-0.37408006
193	0xbefdf32a	-0.49599582
194	0x3da86385	0.08222107
195	0x3e1e69b4	0.1547001
196	0x3e8acd54	0.27109778
197	0x3f032aad	0.51236993
198	0x3c4c37f6	0.012464514
199	0xbeb1bfd4	-0.34716666
200	0xbd3a44d6	-0.045475803
201	0x3de9d832	0.11418189
202	0x3e39f552	0.18159989
203	0xbd3bedda	-0.04588113
204	0x3dec1c92	0.11528887
205	0x3d9104cb	0.07080992
206	0xbeabf06e	-0.3358187
207	0x3d1e1de9	0.038602743
208	0x3e8a1f26	0.2697689
209	0xbebb3c43	-0.36569414
210	0x3e1b5214	0.15168029
211	0x3eead175	0.45862928
212	0xbe2319e4	-0.15927845
213	0x3f22da75	0.6361459
214	0x3d05937e	0.032611363
215	0x3c3f08fd	0.011659858
216	0x3e1ad415	0.15119965
217	0x3e285a56	0.1644071
218	0x3e419c67	0.18907319
219	0x3e893f33	0.2680603
220	0x3dad08f8	0.08448976
221	0xbe4a491e	-0.19754454
222	0x3ca92b49	0.020650523
223	0x3c85a6fa	0.016314972
224	0x3e9bee20	0.30455112
225	0x3dde0b7d	0.10842035
226	0x3e269e4b	0.16271321
227	0xbe051d42	-0.12999442
228	0xbde825cc	-0.11335334
229	0x3d89639e	0.067084536
230	0x3d80c6e1	0.06287933
231	0x3dd181d3	0.1022984
232	0xbe974da1	-0.29551414
233	0xbe9bc8a7	-0.30426523
234	0x3d259dcf	0.0404337
235	0xbe145823	-0.14486746
236	0xbd89a376	-0.06720631
237	0xbe6a22a4	-0.22864777
238	0xbec4b058	-0.3841579
239	0xbe20033d	-0.15626235
240	0x3e3d3e38	0.18480766
241	0xbe95ad7b	-0.29233918
242	0xbe32b0a7	-0.174502
243	0xbe9b7e99	-0.30370024
244	0xbe90de2a	-0.28294498
245	0x3e5f5e43	0.21813302
246	0xbe13ade3	-0.14421801
247	0xbcba6a55	-0.022755781
248	0x3e52781c	0.2055363
249	0xbe964571	-0.29349855
250	0x3e5217ab	0.20516841
251	0x3e686420	0.22694445
252	0xbed0a337	-0.40749523
253	0xbe2d6098	-0.16931379
254	0x3d597cfc	0.05309771
255	0xbe6d5a05	-0.23178871

layer2.conv2.bias f4 [16]
0	0xbf2fd2dc	-0.6868112
1	0xbf67093b	-0.9024846
2	0xbf38297c	-0.719383
3	0xbf29ada3	-0.66280574
4	0xbf580e50	-0.8439684
5	0xbf16f129	-0.5896173
6	0xbf290c2b	-0.6603419
7	0xbee22ffc	-0.44177234
8	0xbf58abc6	-0.84637105
9	0xbf4858e5	-0.7826064
10	0xbf0ed831	-0.5579863
11	0xbee07e90	-0.4384656
12	0xbedc10e3	-0.42981634
13	0xbf3b64cd	-0.73200685
14	0xbf333464	-0.70001817
15	0xbeeda2fc	-0.4641341

layer3.fc1.weight f4 [120, 400]
0	0x3b0df39b	0.0021660093
1	0xbbb4f91e	-0.005522861
2	0x3bcdf1a1	0.006284908
3	0x3b38afb5	0.0028180901
4	0x3c8aec32	0.01695833
5	0xbc687b43	-0.014189544
6	0x3c9947d8	0.018711016
7	0xbc2a7b39	-0.010405355
8	0x3b364ef7	0.0027818063
9	0x39d19c32	0.0003997996
10	0xbc83169c	-0.016001992
11	0xbbb8af24	-0.0056361128
12	0x390bd664	0.0001333594
13	0x3c45f653	0.012082654
14	0xbcd42168	-0.025894836
15	0xbb6a1b3f	-0.0035721806
16	0x3c553ecf	0.013015463
17	0xbc860b7d	-0.0163629
18	0xbb0eead8	-0.0021807458
19	0x3b23c617	0.0024989897
20	0x3bf4455e	0.0074545583
21	0x3c734de3	0.014850113
22	0xbbd6e441	-0.0065579717
23	0xbce0f3ae	-0.027459946
24	0xbb8e806b	-0.0043488047
25	0xbc548b88	-0.01297272
26	0xbc1242a6	-0.008927023
27	0xbceed1f7	-0.029152853
28	0xbc149a16	-0.00906994
29	0xbcd261cd	-0.0256814
30	0xbca2a681	-0.019854786
31	0x3be0c8a2	0.006859855
32	0x3b6ff5c8	0.0036615003
33	0x3c1a4d04	0.009417776
34	0x3c2c0425	0.010499035
35	0xbcdd9e91	-0.02705315
36	0xbc3276e3	-0.010892603
37	0x3c33e7c8	0.010980554
38	0xbc98e059	-0.018661665
39	0x3c1272df	0.00893852
40	0xbc253314	-0.010082979
41	0x3cf6d72e	0.030131903
42	0xbafa4c65	-0.0019096254
43	0xbbb96df3	-0.005658859
44	0xbc324d19	-0.010882639
45	0xbc996ed1	-0.0187296
46	0xbc5991f1	-0.013279424
47	0x3c2b1620	0.010442287
48	0xbd0280e5	-0.031861205
49	0x3c7c50fd	0.0154001685
50	0x3bcf3dc4	0.0063245017
51	0xbc60964b	-0.013707708
52	0xbb7c716e	-0.0038519758
53	0x3a53d607	0.0008080904
54	0xbb06bf2b	-0.0020560722
55	0xbc932fda	-0.017967153
56	0xbbdff233	-0.0068342923
57	0x3ba5394c	0.0050422307
58	0x3c7eb372	0.015545713
59	0x3bfc5d0a	0.007701521
60	0xbc86b97f	-0.016445873
61	0x3c4395ec	0.0119376
62	0x39e316b7	0.00043313738
63	0x3b7ca0c7	0.003854798
64	0xbbe294a7	-0.0069146934
65	0x3b83c9f8	0.0040218793
66	0x3d02583e	0.031822436
67	0x3c55defa	0.01305365
68	0x3c444af9	0.0119807655
69	0x3a2797c1	0.00063931575
70	0x3c49eb5d	0.012324181
71	0xbb3f99f5	-0.0029236053
72	0xbc331df7	-0.010932437
73	0xbc5fecdd	-0.013667312
74	0x3cc253e5	0.023721645
75	0xba620c40	-0.0008623041
76	0xbb4ea47f	-0.0031531153
77	0xbbdef6c2	-0.006804318
78	0x3c4f3e1f	0.012649088
79	0xbadd50a7	-0.0016884998
80	0x3c4fc9e5	0.012682413
81	0x3c4fb279	0.012676829
82	0x3c2c2358	0.0105064735
83	0x3b8f7759	0.004378241
84	0xbb7ecf24	-0.003888079
85	0x3b49ce39	0.0030793084
86	0x3c9c1377	0.01905225
87	0xbba7abd3	-0.0051169186
88	0x3af1e619	0.0018455415
89	0xbb2ead10	-0.0026653446
90	0x39eab75d	0.00044768574
91	0x3c14b611	0.009076611
92	0xbc0e0ec1	-0.00867051
93	0xbc84c767	-0.016208364
94	0x3c4a90ad	0.012363595
95	0xbac3c5ce	-0.001493627
96	0xbc0d85ff	-0.008637904
97	0x3bf05f3d	0.007335572
98	0xbbd8a701	-0.0066117053
99	0x3c89fd7c	0.016844504
100	0xbd22c977	-0.039742913
101	0xbc5cb3cc	-0.013470601
102	0xbbd77ee9	-0.006576408
103	0x3b4fb45b	0.0031693194
104	0x3c7db38d	0.015484703
105	0x3c78d38e	0.015187157
106	0xbcbcffcd	-0.023071194
107	0xbba458c4	-0.0050154645
108	0xbc325fb8	-0.010887079
109	0xbc3fdda9	-0.011710563
110	0x3ca3ea5d	0.020009214
111	0xbca727fe	-0.020404812
112	0xbc167bf8	-0.00918483
113	0x3bf8e77f	0.007595956
114	0x39836c88	0.0002506713
115	0xbb5575aa	-0.0032571354
116	0x3bbf1092	0.0058308328
117	0x3c39e3c7	0.01134581
118	0x3c910b21	0.017705502
119	0xbbd1486d	-0.0063868077
120	0x3c51a4f8	0.012795679
121	0xbbb06b34	-0.0053838734
122	0xbb090fe8	-0.0020914022
123	0x3b09c58f	0.0021022295
124	0xbd12f795	-0.035880644
125	0x3c007c17	0.007842085
126	0x3d045b79	0.032313798
127	0x3bf456bc	0.0074566286
128	0xbad73020	-0.0016417541
129	0x3c8ac042	0.016937379
130	0x3c16a25c	0.009193983
131	0xbba3b4a3	-0.004995899
132	0x3b5c9909	0.0033660552
133	0x3b046314	0.0020200657
134	0x3cac04dd	0.020998413
135	0x3b44989c	0.002999819
136	0xbcad4036	-0.021148782
137	0x3c86d8fc	0.016460888
138	0x3cd4fe8b	0.026000282
139	0x3c64974c	0.013952088
140	0x3b2c7c44	0.0026319185
141	0x3bee300a	0.0072689103
142	0x3cb474f8	0.022028431
143	0x3cdb4954	0.026768364
144	0xba1201e3	-0.0005569739
145	0xba033b1d	-0.0005006062
146	0x3c18df0b	0.009330521
147	0x3bd4dffb	0.006496427
148	0x3c9d0b3e	0.0191704
149	0xbc8d7e83	-0.01727224
150	0xbc77eeb6	-0.015132597
151	0x3c50d509	0.012746104
152	0x3c1a4c95	0.009417673
153	0x3948b3ec	0.00019140512
154	0x3c8b9e0f	0.017043142
155	0x3c762c92	0.015025275
156	0xbc112586	-0.008859044
157	0xba9b829c	-0.0011864486
158	0x3c2c5457	0.010518155
159	0x3c9b5bc9	0.018964665
160	0xbb564fc2	-0.0032701348
161	0xbc3604f9	-0.011109584
162	0x3ceb7b20	0.028745234
163	0x3c0d4da1	0.008624465
164	0x3c886e31	0.016654106
165	0x3b937774	0.004500324
166	0x3c6e7e38	0.01455646
167	0x3c9a0eac	0.018805824
168	0x3bcf11f8	0.0063192807
169	0xbc3f5ba7	-0.011679566
170	0xbc3107c1	-0.010805071
171	0xbc8d3911	-0.017239125
172	0xbc2e23bd	-0.010628638
173	0x3c800094	0.015625276
174	0xbbc70332	-0.006073379
175	0x3b8da3c7	0.0043225023
176	0x3b2f7e96	0.0026778332
177	0xbd1dca5c	-0.038523063
178	0xbc74a557	-0.014931998
179	0xbb5c52d2	-0.00336187
180	0xbc48ea69	-0.012262919
181	0x3bde4f45	0.006784352
182	0x3c8503e5	0.016237209
183	0x3c66416f	0.0140536865
184	0x3c099434	0.008397151
185	0xb90d3223	-0.00013465485
186	0x3c2cd1b0	0.01054804
187	0x3c1c80bd	0.009552178
188	0x39c75de5	0.00038026195
189	0xbcb658d0	-0.022259146
190	0xbbede388	-0.00725979
191	0x3c7f4ad8	0.015581809
192	0x3b18ef91	0.0023336152
193	0xbd0e97b6	-0.03481265
194	0xbce9ad45	-0.028525004
195	0x3be39e02	0.0069463262
196	0x3cd66ebd	0.026175851
197	0x3a9506e7	0.0011369855
198	0xbcf2cb50	-0.029637963
199	0x3c35799d	0.011076358
200	0xbc987ca4	-0.01861412
201	0xbb01c091	-0.0019798616
202	0xba2aae03	-0.0006510915
203	0x3c3c0e75	0.011478056
204	0xbc6484e4	-0.013947699
205	0xbc0446a2	-0.008073481
206	0x3baaf277	0.0052168923
207	0x3cdae3df	0.026719986
208	0xbcbb4be1	-0.02286333
209	0xbc06390c	-0.008192312
210	0xbb4b828b	-0.0031053151
211	0x3cb49207	0.022042288
212	0xbb618dad	-0.003441672
213	0x39cb94d2	0.00038830057
214	0xba469ca9	-0.0007576445
215	0x3d169ad1	0.03676874
216	0x3cdc709d	0.026909167
217	0x3cc033b8	0.023462161
218	0x3b6a249d	0.003572739
219	0xbc9f51d2	-0.019448195
220	0xbb1ab681	-0.0023607316
221	0xbc1f68e1	-0.009729595
222	0x3c907e24	0.017638274
223	0x3be055cc	0.0068461653
224	0x3b76d05e	0.0037660818
225	0xbc0efa98	-0.008726738
226	0xbaf91ed3	-0.0019006379
227	0xbc95cff9	-0.018287646
228	0xbcfce12a	-0.030869085
229	0xbad08aed	-0.0015910544
230	0x3c209bc6	0.009802764
231	0x3c348e7f	0.011020302
232	0x3c069c7f	0.0082160225
233	0xbb8f0b7a	-0.004365382
234	0xbb9ef8db	-0.004851443
235	0xbc1ef656	-0.009702286
236	0x3b3079cd	0.0026928068
237	0xba793baf	-0.000950749
238	0xbc716c78	-0.014735334
239	0x3c97d804	0.018535621
240	0xbc95a4fd	-0.01826715
241	0x3c150294	0.009094853
242	0xbb24cc85	-0.0025146317
243	0xbb9dabf3	-0.0048117577
244	0x38f9c86e	0.00011910578
245	0xbd246ffe	-0.040145867
246	0x3a94d47d	0.001135483
247	0x3beb3d31	0.0071789254
248	0x3b477cbb	0.0030439335
249	0x3ccbc266	0.02487297
250	0x3cefece5	0.029287765
251	0xbc9c7cbe	-0.01910245
252	0xbc31f92e	-0.010862632
253	0x3ca51c15	0.020154992
254	0xbbad4c9d	-0.005288674
255	0x3c03de16	0.008048555

layer3.fc1.bias f4 [120]
0	0xbbc3d7f2	-0.0059766704
1	0xbc20606e	-0.009788616
2	0x3b40ce58	0.0029419865
3	0xbc12470a	-0.00892807
4	0xbaf484db	-0.0018655317
5	0x3c11dfc9	0.008903452
6	0xbc1c6590	-0.009545699
7	0x3ba07344	0.0048965532
8	0xbad36787	-0.0016128876
9	0xbbdb6132	-0.006694936
10	0xbc3340fe	-0.010940788
11	0x3c075891	0.008260862
12	0x3bc6d8bd	0.0060683177
13	0xbb5a08df	-0.0033269448
14	0xbc293618	-0.010327838
15	0xbabc8d50	-0.0014385376
16	0x3c4ecc2c	0.012621921
17	0x3c57f47c	0.013180848
18	0x3c85dd8d	0.016340995
19	0x3abf51c3	0.001459651
20	0x39970f62	0.00028812425
21	0xbbe3c635	-0.0069511184
22	0x39d284e1	0.00040153324
23	0xba4b8949	-0.00077642925
24	0xbbf7f726	-0.007567304
25	0xbc1c042d	-0.00952248
26	0xbc47c24c	-0.01219232
27	0x3c027a8b	0.007963787
28	0xbbd0d33e	-0.0063728383
29	0x3b88d3ee	0.0041756546
30	0xbac96305	-0.0015364593
31	0xbb5103f5	-0.0031893228
32	0x3e1ce911	0.15323283
33	0xbc498980	-0.012300849
34	0x3c3c6412	0.011498468
35	0xbb74acc1	-0.0037334415
36	0xbd652b42	-0.055949457
37	0x3ba00648	0.0048835613
38	0x3c2c2890	0.010507718
39	0x3bb62fa1	0.005559877
40	0xbb1868ff	-0.0023255942
41	0x3be53370	0.006994657
42	0x3c418929	0.011812487
43	0x3da0ba06	0.07847981
44	0xbc85b0af	-0.0163196
45	0x3b1cdcd2	0.002393533
46	0xbc0d6d70	-0.008632049
47	0xbc84f8a8	-0.01623185
48	0x3bafdd60	0.005366966
49	0xbae35f0e	-0.0017347054
50	0x3b8d911b	0.0043202764
51	0xbc266fe0	-0.010158509
52	0x3c1e716d	0.0096705975
53	0x3ca092d5	0.019601265
54	0xba836432	-0.0010024367
55	0x3cb1ec67	0.02171917
56	0xbcba98af	-0.022777883
57	0xbc1e7ca6	-0.009673273
58	0x3c1f768e	0.0097328555
59	0x3c5190e0	0.012790889
60	0xbc2af71d	-0.010434893
61	0x38641a4d	5.438393e-05
62	0xbb4e3dde	-0.0031469981
63	0x3dc89ade	0.097951636
64	0xbe241687	-0.16024218
65	0xbc9d6058	-0.01921098
66	0xbba0f422	-0.0049119154
67	0xbc62e554	-0.013848621
68	0xbc2d5b0e	-0.010580791
69	0xbc0d2783	-0.008615377
70	0xbac0546e	-0.00146736
71	0xb991b142	-0.00027788623
72	0x3c01b5ab	0.007916848
73	0xbc28cac4	-0.010302249
74	0x3c669aaa	0.014074961
75	0xbc0a1556	-0.008427938
76	0x3c0d25c5	0.008614962
77	0x3c190f66	0.00934205
78	0xbc0da8cc	-0.008646201
79	0xbb3a0264	-0.0028382773
80	0xbc0de879	-0.008661383
81	0xbc60ce28	-0.0137210265
82	0x3b5aeaa5	0.003340402
83	0x3c41380f	0.011793151
84	0x3b376e9c	0.0027989512
85	0x3c1c64e3	0.009545538
86	0x3bb9f52e	0.0056749796
87	0xba0be9d4	-0.00053372723
88	0x3b0fae90	0.0021924116
89	0x3bc98490	0.006149836
90	0xbc41d165	-0.011829709
91	0x3b64e989	0.0034929237
92	0x3c36fb89	0.011168369
93	0x3a7cd5d2	0.0009644899
94	0x3b2ce090	0.0026378967
95	0x3bf031e4	0.007330166
96	0xbb93cb43	-0.0045103147
97	0xbb6b6428	-0.0035917852
98	0xba9037ca	-0.0011002955
99	0xbd35d63d	-0.044393767
100	0xbc07d535	-0.008290579
101	0x3ba4b064	0.00502591
102	0xbc4e3ef6	-0.012588253
103	0x3b5f98b2	0.0034118113
104	0x3b98f71c	0.0046681296
105	0xbaafba6e	-0.0013407001
106	0xbbc594a3	-0.006029682
107	0xbb51729e	-0.0031959186
108	0x3cab53e8	0.020914033
109	0xbc5779dc	-0.013151612
110	0x3be2cefa	0.006921646
111	0xbc27ec44	-0.010249201
112	0x3ea56053	0.32300052
113	0xbb9c650c	-0.004772788
114	0x3bdae181	0.006679714
115	0xbb6a8cdf	-0.0035789532
116	0x3c2ec62e	0.010667367
117	0xbbf660cc	-0.0075188633
118	0x3bf82b76	0.0075735403
119	0x3e2599a1	0.16171886

layer3.fc2.weight f4 [84, 120]
0	0xba9f6214	-0.0012159967
1	0x3c3c9589	0.011510261
2	0x3c7269b2	0.014795708
3	0xbba2d789	-0.0049695414
4	0xba9aef51	-0.001182059
5	0x3bec8cf0	0.0072189495
6	0x3bbf13b4	0.005831206
7	0x3be467cb	0.006970381
8	0x3b100d39	0.0021980538
9	0x3bd240ef	0.006416432
10	0xba4ae369	-0.0007739575
11	0x3bec31b9	0.007208076
12	0xba76f0c8	-0.00094200345
13	0x3c417a45	0.0118089365
14	0xba87092d	-0.0010302417
15	0xba4b91ee	-0.00077655807
16	0xbb2dd641	-0.002652541
17	0xbbc8b43a	-0.0061250003
18	0xbbddcc4c	-0.006768739
19	0xbaf20fb4	-0.0018467815
20	0xbbd1d9ab	-0.006404122
21	0x39f26ba7	0.00046238044
22	0xbb8d89c8	-0.0043194033
23	0x3c2711a0	0.010197073
24	0x3b87798f	0.004134364
25	0x3b63c47f	0.0034754572
26	0x3bd95762	0.0066327313
27	0x3aceb61c	0.0015770826
28	0xbbacf720	-0.005278483
29	0x3c2da5ff	0.010598659
30	0x3bc4f4b4	0.006010616
31	0xbc06b265	-0.0082212435
32	0xbbf4d25e	-0.007471367
33	0xbab4f369	-0.0013805452
34	0x3bc94fa5	0.0061435276
35	0x3b8a4bbd	0.0042204545
36	0xbbbbc740	-0.0057305396
37	0xba966f98	-0.0011477349
38	0xba8a25a0	-0.0010539778
39	0x3c457589	0.012051948
40	0x3b8f1ad6	0.0043672128
41	0x3ac5afbd	0.0015082281
42	0xbaa3b356	-0.0012489359
43	0x3ca7e146	0.020493161
44	0xba45e707	-0.00075493794
45	0x3bde5c09	0.006785874
46	0xba310b31	-0.0006753682
47	0xbb48ec79	-0.0030658527
48	0x3b8e3afd	0.004340528
49	0xbbb6fd11	-0.005584367
50	0x3b8f6ff1	0.004377358
51	0xbbdc5e4a	-0.0067251073
52	0x3b9f4db2	0.004861557
53	0x3b396942	0.0028291498
54	0xbb2542ff	-0.0025216935
55	0xbc38e5be	-0.011285244
56	0x3b94a81f	0.004536643
57	0x3bb10a0a	0.005402808
58	0x3c49c01c	0.012313869
59	0x3bca1c84	0.00616795
60	0xbb6d7706	-0.0036234274
61	0x3c80af6e	0.015708651
62	0xbc06f33c	-0.0082367025
63	0x3bcea792	0.006306597
64	0xbb37cb1c	-0.0028044647
65	0x3bafcad0	0.0053647533
66	0xbbeffbd9	-0.0073237238
67	0x3c56fc95	0.013121744
68	0x3c5a78fb	0.013334508
69	0x3b6ec628	0.0036434028
70	0x3c0f00d4	0.008728225
71	0xbb7a0df7	-0.0038155296
72	0x3bb76427	0.005596656
73	0x38dbf00a	0.000104874445
74	0xbbdc6ae6	-0.0067266105
75	0x3c431f1a	0.011909271
76	0xbc55ebff	-0.013056754
77	0x3b80d232	0.0039313072
78	0xbbcba16f	-0.0062143127
79	0x3af6fca3	0.0018843602
80	0x3bd1792f	0.00639262
81	0x3b93b1c5	0.0045072758
82	0xb966a199	-0.00021994709
83	0xb8c84612	-9.549795e-05
84	0x3bcaf22f	0.0061934213
85	0xbbac8dfa	-0.0052659484
86	0xbb427621	-0.002967246
87	0x3bb6f95d	0.0055839256
88	0x3bc9f20b	0.006162887
89	0xbc0167f5	-0.00789832
90	0x3b58ad06	0.0033062114
91	0x3ca13200	0.019677162
92	0x3b012acd	0.001970935
93	0xbc2415a2	-0.010014923
94	0xbbb3cdfe	-0.0054872027
95	0x3b9b2b69	0.0047353995
96	0xbc11bee8	-0.008895613
97	0x3bcc78d3	0.0062399893
98	0xbae49c96	-0.0017441686
99	0x3c52d48e	0.01286806
100	0xb9f40933	-0.0004654616
101	0xba900e1d	-0.0010990534
102	0x3c0c5e9c	0.0085674785
103	0xbb6a9e44	-0.00357999
104	0x3c2c1a76	0.010504356
105	0x3c059449	0.00815303
106	0x3a126949	0.0005585147
107	0xbbd31b55	-0.006442467
108	0xbc645d77	-0.013938299
109	0x3851a7fa	4.9985923e-05
110	0x3b599b6c	0.003320421
111	0x3a496c04	0.0007683637
112	0x383e7b9d	4.5414654e-05
113	0xbaec55b4	-0.0018030913
114	0xb9bd1f3d	-0.00036072163
115	0xb8b69368	-8.705893e-05
116	0x3ba6f603	0.005095245
117	0xb985e9b9	-0.00025541874
118	0x3a1cb3f0	0.00059777405
119	0xbb68d090	-0.0035524704
120	0xbb057513	-0.002036397
121	0x3b835c68	0.0040088184
122	0xbacf0256	-0.0015793543
123	0xbac9b512	-0.0015389046
124	0xbb549747	-0.00324388
125	0x3b8ce073	0.0042992174
126	0x3c0176a6	0.007901823
127	0x3b22a7e3	0.0024819307
128	0xba830a79	-0.0009997628
129	0x3b3ec20b	0.0029107358
130	0x3ab3cae6	0.0013717085
131	0xbb23ce10	-0.002499465
132	0xbbf0cedd	-0.007348879
133	0xbb71888f	-0.0036855077
134	0x39c7c270	0.00038101105
135	0xbba2ca36	-0.004967953
136	0xbaa8ab4c	-0.0012868433
137	0xbb77110c	-0.003769937
138	0xbbb302ff	-0.0054630036
139	0xbbaf5b5b	-0.0053514666
140	0xbbdfa3de	-0.0068249544
141	0x3b39fd0c	0.0028379587
142	0xbc06b7e1	-0.008222551
143	0x3c08883f	0.008333265
144	0x3ab7e8d4	0.001403118
145	0x39df10a4	0.00042546273
146	0x3c3242c8	0.01088018
147	0x3c01e8d6	0.007929048
148	0x3b29f7e9	0.002593512
149	0x3c414ba8	0.011797823
150	0xbc01ad09	-0.00791479
151	0xbb6d2630	-0.0036186092
152	0x3b53955b	0.0032285068
153	0xbba20a74	-0.0049450938
154	0x3ad69e14	0.0016374015
155	0x3ac34e23	0.0014900606
156	0xbc06fccc	-0.008238982
157	0xbb93f82d	-0.004515669
158	0x3b7739aa	0.003772358
159	0xbb0db5b8	-0.0021623205
160	0x3bee5f22	0.0072745243
161	0xbb639d5d	-0.0034731247
162	0x3b0398e9	0.0020080155
163	0x3b6f177f	0.003648251
164	0x3b0b731e	0.0021278332
165	0x3bf8752e	0.0075823283
166	0x3aaeb305	0.0013328498
167	0xbb056855	-0.0020356376
168	0xbbb35b88	-0.005473558
169	0x3b0c6d61	0.00214275
170	0x3a528064	0.0008029996
171	0xbb7e72a6	-0.003882566
172	0x3b9a1155	0.004701773
173	0x3ae1edef	0.0017237047
174	0xbad60349	-0.0016327883
175	0xbb9b099e	-0.004731371
176	0x3b57ea46	0.0032946034
177	0x3bc3a9e7	0.0059711817
178	0x3bbfbc8e	0.005851335
179	0xbbb4edab	-0.0055214963
180	0x3a76e875	0.0009418794
181	0x3c8dd757	0.017314596
182	0x3959ca0c	0.00020770001
183	0x3afb990d	0.0019195393
184	0x3c0c25ce	0.008553935
185	0x3c64ee66	0.013972854
186	0xbb9ef88c	-0.0048514064
187	0x39fb3ecb	0.00047921235
188	0x3a378a20	0.0007001478
189	0x3bea60a5	0.007152634
190	0x3c0fe976	0.008783689
191	0xbac6d290	-0.0015168954
192	0x3b9aa85c	0.004719777
193	0x3bf8d4cb	0.0075937263
194	0xbb22ece5	-0.0024860438
195	0xbbd48a4d	-0.0064862133
196	0xbbd61266	-0.006532955
197	0xbba6688b	-0.0050783805
198	0x3b01c26c	0.0019799722
199	0x3ba067e7	0.0048951986
200	0x3c5fce29	0.013659992
201	0xb9e79669	-0.00044171818
202	0x3aa5057e	0.0012590138
203	0xbb2d9ea2	-0.0026492258
204	0xbb0d91b6	-0.0021601743
205	0xbc17ab4b	-0.009257148
206	0x3c4271dd	0.011867967
207	0xbaf0d776	-0.0018374759
208	0xbb173ee1	-0.002307825
209	0x3b9575cb	0.004561161
210	0xbb16e844	-0.0023026625
211	0x3be274e9	0.0069109094
212	0xbabe6933	-0.0014527201
213	0xbbd66b3f	-0.0065435464
214	0xbb4af52e	-0.0030968892
215	0x3b011a37	0.0019699463
216	0x3a8e7772	0.0010869338
217	0x3ae0be30	0.0017146524
218	0x3af5abf7	0.0018743266
219	0xbb8fd9b8	-0.004389968
220	0x3bbf63d5	0.0058407583
221	0x3c525a97	0.012838981
222	0xbb5450a5	-0.00323967
223	0x3b957bde	0.0045618853
224	0xbbc8dff7	-0.0061302143
225	0xbbb4596b	-0.0055038235
226	0xb9bc7122	-0.00035942445
227	0x39e4020f	0.00043489083
228	0xba80bcdd	-0.0009821911
229	0x3bf04047	0.007331881
230	0x3b850091	0.0040589054
231	0x3c1f6570	0.009728774
232	0xb88d45b3	-6.7363864e-05
233	0xba5bbe1c	-0.00083825155
234	0xbb8d6471	-0.004314952
235	0xbb987fe2	-0.0046539167
236	0xba56d8d5	-0.00081957626
237	0xbaee9205	-0.0018201476
238	0xbb17053a	-0.0023043887
239	0x3c054523	0.008134159
240	0x3bb105a4	0.0054022837
241	0xbc98c4cb	-0.018648526
242	0xbc2fbbd8	-0.010725938
243	0x3bff2970	0.007786922
244	0x3c0312d0	0.008000091
245	0xbbc06e73	-0.0058725416
246	0xbbe414bd	-0.00696048
247	0xbbc8760a	-0.006117587
248	0xbb8bc277	-0.0042651254
249	0xbc38c88e	-0.011278285
250	0xb9a2f39c	-0.0003108055
251	0xbb3b8a69	-0.0028616434
252	0xb94e95fe	-0.00019701567
253	0x3adb0aaa	0.0016711552
254	0xbaab198f	-0.0013053882
255	0x3c33e62b	0.010980169

layer3.fc2.bias f4 [84]
0	0x3c10dfbc	0.008842405
1	0xbb0939db	-0.0020939026
2	0xbc3cc4ec	-0.011521559
3	0x3bea3194	0.0071470235
4	0xbcc5f8be	-0.024166461
5	0xbcb8fd53	-0.022581732
6	0x382422cf	3.9133065e-05
7	0xbab69210	-0.0013929028
8	0xbbb1a2fa	-0.0054210396
9	0xba456243	-0.0007529596
10	0x3e48e145	0.19617184
11	0x3b39f8a4	0.002837696
12	0x3bcf3ae2	0.006324158
13	0x3b85d254	0.004083911
14	0xba902414	-0.001099708
15	0x3a54b313	0.00081138423
16	0x3a84f2dc	0.0010143179
17	0xbab17312	-0.0013538322
18	0x3acc2ecc	0.0015577911
19	0xb93c5401	-0.00017960371
20	0x3c8bbeae	0.017058697
21	0xbb79ee2c	-0.0038136346
22	0x3a1a297e	0.00058808166
23	0xbb9747b0	-0.0046167
24	0x37bf301c	2.2791377e-05
25	0xbd305769	-0.04305211
26	0xbc57c884	-0.013170365
27	0x3ad505ad	0.0016252302
28	0x3aea461d	0.0017873679
29	0x3bb4317f	0.0054990645
30	0xbb111744	-0.0022139112
31	0xbbb8f7fd	-0.005644797
32	0xbad7e637	-0.0016471808
33	0xbc55d69e	-0.013051657
34	0xb9cd31c4	-0.00039137725
35	0xba6eca95	-0.00091091666
36	0xbbb23f18	-0.0054396503
37	0xbbd76d39	-0.0065742997
38	0x3c06f7e0	0.008237809
39	0xbc534d13	-0.012896794
40	0xbb30ed70	-0.0026996993
41	0x3e7b2ca1	0.24528743
42	0x3b06b194	0.0020552622
43	0x3c08ae82	0.008342387
44	0xbb4d9c3f	-0.0031373648
45	0x3beb0012	0.0071716392
46	0x3bda40a8	0.0066605397
47	0xbc0cf142	-0.008602442
48	0x3a48495c	0.0007640326
49	0xbbc0e1ec	-0.005886307
50	0x39a04580	0.0003056936
51	0x3e699ece	0.22814485
52	0x3b6701bf	0.0035248843
53	0xbc7c3551	-0.015393571
54	0xbbe5949b	-0.0070062405
55	0x3ae481da	0.0017433718
56	0xbb414805	-0.002949239
57	0xbbcc6e3c	-0.006238727
58	0xbc5ae8ed	-0.013361198
59	0xbb6d72ab	-0.0036231678
60	0xbb1090ae	-0.0022058892
61	0xbbde0cf3	-0.006776446
62	0x3c059634	0.008153487
63	0xbaa7f010	-0.0012812633
64	0xba298a5b	-0.0006467455
65	0xbbd3a25b	-0.0064585633
66	0x3c0ddaf4	0.0086581595
67	0x3bf7d413	0.007563123
68	0xba7c6e16	-0.0009629441
69	0x3b14eef5	0.0022725437
70	0x3de78df7	0.113063745
71	0xbb3f48c9	-0.002918767
72	0x3babbdd8	0.005241137
73	0x3a67114c	0.0008814528
74	0xbba047d3	-0.0048913746
75	0x3c33a601	0.010964871
76	0x3b212659	0.0024589507
77	0xbbd71144	-0.0065633375
78	0xb8b3cd2b	-8.573601e-05
79	0xbd9c3533	-0.076273344
80	0x3a494155	0.0007677277
81	0x3afdcb9c	0.0019363048
82	0xbb325d73	-0.0027216345
83	0xbbc26994	-0.005932996

layer3.fc3.weight f4 [10, 84]
0	0xbb70d4fc	-0.0036748042
1	0xbae3159b	-0.0017325165
2	0x3a1b7d9a	0.0005931497
3	0x3ae9aea7	0.001782854
4	0x3c37ff21	0.011230261
5	0xbb9fb97c	-0.0048744064
6	0x3aed95b9	0.0018126286
7	0xbaddea2c	-0.001693075
8	0x3b0227d2	0.001986016
9	0xb972aaeb	-0.0002314259
10	0xbe291698	-0.16512525
11	0xb9966d84	-0.00028691825
12	0x3af4704c	0.001864919
13	0x3af66707	0.0018799015
14	0x3924e6e1	0.00015726268
15	0xba533120	-0.00080563314
16	0xbb1ccdbe	-0.0023926343
17	0x3b7c9a2d	0.0038544044
18	0xbaaad2d7	-0.0013032806
19	0xba0ae426	-0.0005298279
20	0xbb50fa84	-0.00318876
21	0x3a292bd2	0.0006453368
22	0xbb554205	-0.0032540571
23	0xbac2b3d4	-0.0014854618
24	0xbb8de030	-0.0043297037
25	0x3c062049	0.008186408
26	0x3c00eba2	0.007868679
27	0x3dd68ac4	0.10475686
28	0xbc3af255	-0.0114103155
29	0xbb15cb6d	-0.0022856847
30	0x3aff0258	0.0019455655
31	0x3af4a77f	0.001866564
32	0xba34b4d4	-0.00068934006
33	0x3b9d0910	0.00479234
34	0x3ab0f4bc	0.0013500671
35	0xba4b7418	-0.0007761135
36	0x3b2ea407	0.002664806
37	0x3b712e7e	0.0036801393
38	0x3a640686	0.0008698482
39	0x3acffd87	0.0015868404
40	0x3bb6b6e0	0.0055759996
41	0x3a1ee2f4	0.00060610403
42	0x3c387d2b	0.011260311
43	0x39a040ec	0.0003056595
44	0xbb8b968f	-0.0042598913
45	0xb9ab6a39	-0.00032694804
46	0x3c853346	0.0162598
47	0xbae4ae7e	-0.0017447022
48	0xbb896cc1	-0.0041938727
49	0x3b378973	0.002800551
50	0xba3cfcc6	-0.0007209297
51	0x3ca2decd	0.01988163
52	0xbad53b2c	-0.0016268245
53	0x3a4643fa	0.000756323
54	0x3be6c53b	0.0070425547
55	0xbb80ace4	-0.00392686
56	0xba9e470b	-0.0012075616
57	0xbe711965	-0.23544843
58	0xbbadd5e3	-0.0053050383
59	0xbb9654e6	-0.0045877574
60	0xbb1c3acf	-0.0023838764
61	0xbaaab8c3	-0.0013025034
62	0x3b84c9e4	0.0040523876
63	0xba6d78e9	-0.00090588495
64	0x3b16be5e	0.0023001651
65	0xbc0121db	-0.007881607
66	0x3a555bda	0.0008138992
67	0xbc04f194	-0.008114237
68	0x3a30f679	0.00067505945
69	0x3a65d71b	0.000876771
70	0xbdebf5f4	-0.11521521
71	0x391ac08d	0.00014758315
72	0x3b8cb27f	0.0042937393
73	0xbaab53bf	-0.0013071223
74	0xbbcc5f3d	-0.006236939
75	0xbbfed26d	-0.0077765496
76	0x38978ec8	7.226836e-05
77	0x3b18ae0f	0.0023297106
78	0x3b91e746	0.004452619
79	0x3e082513	0.13295393
80	0xbc0e8bf4	-0.00870036
81	0x3bd896fb	0.006609795
82	0xbb40a602	-0.0029395823
83	0x3a5e0da9	0.00084706635
84	0x3b0ab99c	0.002116776
85	0xbb239e3b	-0.002496614
86	0xbb266298	-0.0025388356
87	0xbbf84e82	-0.0075777182
88	0xbbd91c0d	-0.0066256584
89	0x3a660e97	0.0008775978
90	0xba0d9041	-0.00054002187
91	0xba962bcd	-0.0011457145
92	0x3bd42eb6	0.006475295
93	0xbb10e971	-0.0022111798
94	0xbcab9ad6	-0.020947855
95	0x3bc75d1f	0.006084099
96	0xbb2af94f	-0.002608854
97	0x3bd7c534	0.0065847877
98	0x3ba9dcff	0.0051838155
99	0xbb63b860	-0.0034747347
100	0xbb6bafef	-0.003596302
101	0x3b0191c8	0.001977073
102	0xbbc149b2	-0.0058986777
103	0x3b9d2438	0.0047955774
104	0x3b9a73f2	0.004713529
105	0xb9e8967e	-0.00044362614
106	0x3beca98d	0.0072223605
107	0x3a3bbdc3	0.00071617606
108	0x3b579935	0.0032897715
109	0x3e608fdc	0.21929878
110	0xbbb1c450	-0.0054250136
111	0xbda98bd7	-0.082786255
112	0xb862e66b	-5.4097192e-05
113	0x3b825c68	0.003978301
114	0xbab4e8cd	-0.001380229
115	0xbbd47b5d	-0.0064844326
116	0x3a6f64ec	0.0009132165
117	0xbb48e70b	-0.003065529
118	0x3bd3877c	0.00645536
119	0x3a917ddc	0.0011100131
120	0xba7d05ca	-0.0009652047
121	0x3b0839d5	0.0020786424
122	0x3b71bac2	0.0036884998
123	0x3b529423	0.0032131753
124	0x3b8ca007	0.0042915377
125	0xbe1e837b	-0.15479843
126	0x3c0f2e41	0.008739055
127	0x3bbe8845	0.0058145844
128	0x3b5e2d73	0.0033901602
129	0xbb5a8ed5	-0.0033349295
130	0x3dd01f95	0.10162274
131	0x3b944d1e	0.0045257946
132	0xbb845de8	-0.004039515
133	0xbb70b2b0	-0.00367276
134	0x39c0dcee	0.000367857
135	0xbea9a547	-0.3313391
136	0xba3d70be	-0.0007226578
137	0xbb76b651	-0.003764529
138	0x3a172108	0.0005765115
139	0xbacc4c1b	-0.0015586646
140	0x3a2196eb	0.0006164151
141	0x3c2a746f	0.0104037365
142	0xbbe4f913	-0.0069877
143	0xbb9e1f9d	-0.004825546
144	0x3bacdd18	0.00527538
145	0x3a21d837	0.0006173881
146	0x3ba72ca8	0.005101759
147	0x3970e9bc	0.00022975256
148	0xbbd1441a	-0.006386292
149	0xba34a4ca	-0.00068910106
150	0xb96197bc	-0.00021514198
151	0xbbf842f1	-0.0075763394
152	0xbb4d29d9	-0.003130546
153	0xbb952ffa	-0.0045528384
154	0xbda7c6f0	-0.08192241
155	0xbbd95f99	-0.0066337106
156	0xbb139524	-0.0022519315
157	0xbbb3e0ac	-0.0054894295
158	0xbbdef7dc	-0.0068044495
159	0x3bbf53b6	0.0058388365
160	0xbc09b2f9	-0.008404487
161	0x3a217047	0.0006158393
162	0xbafa0b65	-0.0019076882
163	0xbd8cc0ff	-0.068727486
164	0xbc0c4803	-0.008562091
165	0xbb211f35	-0.0024585251
166	0x3ad9ecf9	0.001662641
167	0x3c3d4a82	0.011553409
168	0xba7ad2a5	-0.00095681316
169	0xbb2a99fa	-0.0026031719
170	0x3b933c2c	0.004493257
171	0xbb683c80	-0.0035436451
172	0xbb92b53a	-0.0044771703
173	0x3c1c38b0	0.009535
174	0xb9bf3f8c	-0.00036477705
175	0x3b770ef8	0.003769813
176	0x39e3de0f	0.0004346226
177	0xbb982d80	-0.004644096
178	0xbdaa000e	-0.08300792
179	0x3a49ddea	0.0007700609
180	0xb9add1ac	-0.0003315335
181	0xbb0d6c37	-0.0021579394
182	0x3b25b1b0	0.0025282912
183	0x3a35f18f	0.0006940597
184	0xbb80ae95	-0.003927062
185	0xbb824675	-0.0039756843
186	0xba7048a9	-0.00091661006
187	0xb99b5b38	-0.00029631867
188	0x38f5dd68	0.000117237505
189	0xbb4d2e36	-0.0031308061
190	0xb91b3848	-0.00014802918
191	0x3aace897	0.0013191876
192	0x3bee9d0b	0.0072819046
193	0xbd5d8a73	-0.054087114
194	0xbacbbc13	-0.0015543721
195	0x3e2013ce	0.15632555
196	0x3ac3f527	0.001495038
197	0xbab8f86c	-0.0014112121
198	0xba4e206e	-0.0007863109
199	0xba953dc1	-0.0011386202
200	0xbb369bf8	-0.002786396
201	0x3b2f19a3	0.0026718162
202	0xb954af06	-0.00020283097
203	0x39cf66eb	0.00039558797
204	0x3a480a03	0.00076308864
205	0xbb10db57	-0.0022103393
206	0xbbb15376	-0.0054115606
207	0x3b44c000	0.0030021667
208	0xbb1dc742	-0.0024075066
209	0x3e04413a	0.12915507
210	0x3a63a6d5	0.00086842227
211	0xba1e58fb	-0.0006040481
212	0xba997973	-0.0011709168
213	0xbb03959a	-0.0020078183
214	0x3cc3c7e6	0.02389903
215	0x3bceee2b	0.006315013
216	0xbbd2d98e	-0.006434626
217	0x3942b4cd	0.00018568635
218	0x3af161f9	0.0018416039
219	0x3e154c51	0.14579894
220	0xbb85a2de	-0.004078253
221	0x3afa6b6a	0.0019105498
222	0x3bd70a6b	0.006562521
223	0xbbac9e55	-0.005267898
224	0x3a08661e	0.0005203205
225	0x3d26dbb7	0.04073688
226	0x3b776a75	0.0037752662
227	0x3b8f5e64	0.004375266
228	0x3a65627b	0.00087503315
229	0xba05037a	-0.00050740654
230	0xbbabf700	-0.0052479506
231	0x3bd52c95	0.0065055587
232	0xbbe2933b	-0.006914524
233	0x3bd72f6e	0.0065669334
234	0xb9f13776	-0.00046008424
235	0x3abff3cb	0.00146448
236	0xbac7cd81	-0.001524374
237	0x3b6c15c7	0.0036023722
238	0xbcbd7773	-0.023128247
239	0xbba3576a	-0.004984786
240	0xbb2ec61e	-0.002666838
241	0xbbd6d7e5	-0.0065564984
242	0x3b7a1748	0.003816085
243	0x3bac3c59	0.0052562174
244	0xbc1296d5	-0.008947094
245	0x3b7f1a59	0.0038925617
246	0xba12ed75	-0.0005604842
247	0xbe4329eb	-0.19058959
248	0x3b0d9492	0.0021603447
249	0x3a5536d8	0.00081334775
250	0x3b3fc692	0.0029262644
251	0xb8edadc7	-0.00011333409
252	0x3aefab53	0.0018285312
253	0x3a8b4f36	0.0010628465
254	0xbb969406	-0.0045952825
255	0x3a41b8d8	0.00073899096

layer3.fc3.bias f4 [10]
0	0xbd95c38d	-0.07312689
1	0xbef0d5a4	-0.47037995
2	0x3ec75e47	0.38939115
3	0x3f185dd1	0.5951815
4	0x3ea0449f	0.31302354
5	0x3cc0d0b5	0.02353702
6	0xbe06029a	-0.1308693
7	0xbe7e6219	-0.24842109
8	0xbec67aa2	-0.38765436
9	0xbdc134ec	-0.09433922
