output/models_cifar10_360.pth (torch_old, 248636 bytes, 10 tensors)

layer1.conv1.weight f4 [6, 1, 5, 5]
000000 ab ed f3 ba 88 9c 3e be 46 de 8c 3c c7 d2 f5 bd
       -0.0018610259 -0.186144 0.017195832 -0.12003093
000010 32 fa 90 bd a7 98 91 3e 0b 20 56 be 90 06 de 3e
       -0.07078971 0.28436777 -0.20910661 0.43364382
000020 ac 27 79 bd ed aa 5f 3e 0c ea cc 3d f2 20 17 bf
       -0.06082885 0.21842547 0.100055784 -0.59034646
000030 9d 02 d5 3e 59 a3 bd be 2c 1a 63 bd a5 68 c3 3e
       0.41603556 -0.37038687 -0.05544488 0.38165775
000040 fa 89 22 bf bf b8 32 3f d5 8a a2 be 1d e2 0c 3e
       -0.63491786 0.6981315 -0.31746545 0.1375813
000050 f0 32 7c 3e 49 b9 1a bf 17 fd f9 3e 26 6d 47 be
       0.24628806 -0.6043897 0.48825905 -0.1947523
000060 3b e4 05 bd 18 9c ff 3b 67 4e 42 bd 45 5a 17 bd
       -0.03268836 0.0078005902 -0.04743805 -0.036951322
000070 12 b7 b2 3d 72 9e bf bc d4 70 43 3d 6c 07 2a 3e
       0.08726324 -0.023390982 0.047715023 0.16604394
000080 67 82 0e bf 9c 05 01 3e 04 84 60 3e dc fa 97 bd
       -0.5566773 0.12599796 0.2192536 -0.074208945
000090 d2 14 aa 3e 7a ba e0 3e 0e 05 8a bf 27 cb a2 3e
       0.3321901 0.4389227 -1.0782793 0.31795618
0000a0 a8 47 a8 3d 2a 26 05 bf 56 b1 3d 3f ae f9 20 3e
       0.08216792 -0.5201136 0.7409872 0.15720245
0000b0 1d 7b d3 be 81 dc 73 bb e2 99 95 3d ce 9a c5 be
       -0.41304865 -0.0037210288 0.073047414 -0.3859467
0000c0 75 42 c8 3e 7a c1 a6 bd 52 80 22 bd cd 0e b6 bc
       0.39113203 -0.081423715 -0.039673157 -0.022223854
0000d0 8e 23 84 bd 47 8b 0f 3e ea 2d 49 3d 54 5c 5a bd
       -0.06452094 0.14017974 0.049116053 -0.053310707
0000e0 5a b2 f2 bc c2 5b 32 3e 9c ae 3b 3d 7f e3 8e bd
       -0.02962606 0.17417815 0.045820817 -0.06976985
0000f0 21 b5 a7 be fd 9b a2 3b 4e 0a 8f 3e aa 09 d4 bd
       -0.32755378 0.004962443 0.2793755 -0.10353406
000100 2e f0 33 bd 1d 0c b3 be 8d 07 a3 3e 4e 8a 4f 3e
       -0.043930225 -0.3497018 0.31841698 0.20267603
000110 40 b1 1a bd 2e fd 29 3c b4 d3 fb be c5 81 ac 3e
       -0.037766695 0.010375304 -0.49184954 0.33692756
000120 6b 0f f1 bc 7e 58 4e 3d 03 8a b6 bd ec 61 ea bd
       -0.029426297 0.05037736 -0.089130424 -0.11444458
000130 22 47 a7 be af e1 ef bd f6 94 3b bd 0e e5 8a 3d
       -0.32671458 -0.117129676 -0.045796357 0.0678197
000140 66 4f 8e 3e 9c 08 48 3f 3c 5b eb 3e 1b 71 3c 3e
       0.2779495 0.78138137 0.45968044 0.18402521
000150 4a aa 9b 3c 07 6a ff bd a4 26 dc be 83 3b 92 be
       0.019002099 -0.12471395 -0.4299823 -0.2856103
000160 4f ab 10 bd 0c 80 c3 bd 8e 56 e0 3d 58 76 c1 bb
       -0.035319623 -0.095459074 0.10954009 -0.0059040003
000170 6d 91 b7 bd 00 a1 ab 3d b4 28 50 3e 84 ac 85 bd
       -0.08963285 0.08380318 0.20328027 -0.06527045
000180 0d 21 05 bd e7 12 a0 bc 2e 57 fe bd 34 ac 9e bd
       -0.032502223 -0.019540263 -0.12418972 -0.07747689
000190 0a da a8 bd d7 a4 a4 3c 9f 4e a9 3b 4e c1 e5 3d
       -0.08244713 0.020098133 0.005166843 0.112185106
0001a0 c7 52 ba bd c7 bd ce 3c 16 7c c6 3d f4 64 4c 3d
       -0.0909782 0.025236977 0.09691636 0.049900964
0001b0 05 fd 12 be e3 9f fc 3d b1 25 84 be 31 96 c5 be
       -0.14354332 0.123351835 -0.25810006 -0.3859115
0001c0 82 e9 f5 bd 75 d2 9c 3b 5b b2 97 be 0e 6b 62 3e
       -0.12007429 0.0047858306 -0.29628262 0.2211115
0001d0 38 11 5c 3e b7 82 2d be a8 de cd bd ca 21 42 3e
       0.21490943 -0.16944395 -0.10052234 0.18958202
0001e0 75 1b 76 bd 3d 3a d4 3c b0 45 1d 3e 8e da 18 3d
       -0.06008478 0.025906676 0.15358615 0.037317805
0001f0 53 d7 ca bd 54 4c 56 3d 0b 62 7d be 8b 79 a2 3e
       -0.09904351 0.052318886 -0.24744432 0.31733355
000200 94 20 d3 bb 28 28 c1 bd f3 21 06 be b0 fe b5 3e
       -0.0064430926 -0.09431487 -0.13098888 0.35545874
000210 48 6d dd 3e e7 7b 2c bf 95 47 2f 3c ba 39 ed 3d
       0.43247437 -0.6737656 0.010698219 0.11583276
000220 25 8f de 3e d4 e7 89 bf 06 81 22 3d 76 19 a9 3e
       0.43468586 -1.0773873 0.039673828 0.33027238
000230 43 6c 03 bc b1 ad 95 be c8 73 c8 bd 6c 45 22 3f
       -0.008021417 -0.2923408 -0.097877085 0.6338718
000240 d6 ab 68 be c1 7a ed 3d 13 0e f5 bd e8 3b 4f 3e
       -0.227218 0.11595679 -0.11965575 0.20237696
000250 0e 4e 19 be c2 4e 2f 3c
       -0.14971182 0.01069993

layer1.conv1.bias f4 [6]
000000 5e 50 a5 be ef a6 9f be 48 2e a2 be 31 f8 92 be
       -0.32287878 -0.31182048 -0.31675935 -0.2870498
000010 40 09 9a be a0 8f ae be
       -0.30085182 -0.34093952

layer2.conv2.weight f4 [16, 6, 5, 5]
000000 45 17 8d 3d 2a 70 72 bb 52 0c 86 3d 87 5c 06 3e
       0.06889204 -0.0036993125 0.06545319 0.13121234
000010 38 79 5f 3d a9 84 78 3d f0 71 b3 bd cd be 1d 3d
       0.054558963 0.06067339 -0.08761966 0.03851204
000020 a4 da c2 3c 0b f5 5a 3d e7 e1 b8 bc 37 51 69 3c
       0.023785897 0.053456347 -0.022568656 0.0142405545
000030 78 89 4d bd 63 73 68 3b 8e 9e 84 3d 90 36 72 3d
       -0.05017993 0.0035469166 0.064755544 0.059134066
000040 f4 92 0a be 90 c0 84 bd 0b b3 98 3d 99 07 a4 bd
       -0.1353262 -0.06482041 0.07456025 -0.08009262
000050 18 4c 7e be 38 64 c7 be 01 c6 2e bf 8e b4 33 bf
       -0.24833715 -0.38943648 -0.6827088 -0.7019738
000060 1c 2b a0 be a9 45 b1 3e 0b b9 18 3e 9f 9b 99 3c
       -0.3128289 0.3462346 0.14914338 0.018750964
000070 7c 2e b0 3c 99 33 2c 3e 11 0c 81 3e 7a a2 2b 3e
       0.02150654 0.16816558 0.25204518 0.16761199
000080 65 4b 51 3e c9 83 bb 3d 5f ee 36 3e c1 0a da 3e
       0.20438917 0.091559954 0.17864369 0.4258633
000090 66 5a 38 3e a1 fe 21 3e 96 06 92 3d ad f7 51 3e
       0.18003234 0.1581979 0.071301624 0.20504637
0000a0 0f 9c b1 3e 4c 1a a7 3e ba e4 57 3e ff 89 e8 3d
       0.34689376 0.3263725 0.21083346 0.11354446
0000b0 d8 20 c8 bc f6 db df 3e b3 5c b2 3d 35 9d 1b be
       -0.024429724 0.43722504 0.08709087 -0.15196688
0000c0 ed bc f2 bc 4c a0 5a bd 31 e5 36 3e 3f e1 0d 3e
       -0.029631102 -0.053375527 0.17860867 0.13855456
0000d0 e2 aa 99 bb ff a2 38 3e 5c 7c 5a bd 35 cd 1f 3d
       -0.0046895603 0.18030928 -0.053341255 0.03901406
0000e0 09 c6 b2 3d df a3 52 3d 23 01 06 be 3b 0b 29 3e
       0.087291785 0.05142581 -0.13086371 0.1650819
0000f0 7f 9f 47 be 4b 94 21 bb 0f e5 b2 3d 73 7e 38 3e
       -0.19494437 -0.002465504 0.08735096 0.18016987
000100 fd e2 58 bc 22 dd fb bd 88 39 02 be 17 f2 e5 bd
       -0.013237712 -0.12298037 -0.12717259 -0.112278156
000110 c6 40 51 3e ad f8 71 3e 97 d0 ef bd 4d 61 56 be
       0.20434865 0.23630019 -0.11709707 -0.20935555
000120 85 f7 c8 be ba c8 d6 be 5b 59 0a be 82 31 8c 3e
       -0.39251342 -0.41950017 -0.13510649 0.2738152
000130 b2 2e 0a be 2a 52 7c bd 6b 8b c0 ba dd d0 35 3e
       -0.13494375 -0.061601795 -0.0014689987 0.17755456
000140 81 02 29 3e 92 a9 6d 3d 47 e6 2d 3e fd b6 f5 3d
       0.16504861 0.058023043 0.16982375 0.11997793
000150 9d 7c 2f 3d ce 7f ff bb 06 01 a8 3e 2f 01 06 3e
       0.04284345 -0.007797218 0.3281328 0.13086389
000160 96 66 4b 3e 03 ec 67 3d 3e 99 65 be 55 b5 80 3e
       0.19863352 0.056621563 -0.22421739 0.25138345
000170 4a 90 86 3e 09 92 3d 3e 18 28 62 bc db ef e0 bd
       0.2628196 0.18512739 -0.013803504 -0.10983249
000180 c6 11 e5 3d 61 eb 76 3e 8e 26 af 3e b7 af 90 3e
       0.11185031 0.24113227 0.34209102 0.2825906
000190 0d 47 70 3e fa d3 dd 3c ab b1 06 bd 74 c4 64 3e
       0.23464604 0.027078617 -0.03288428 0.22340566
0001a0 8c 59 f6 3d 5f 04 d2 3e 3c ef 9b 3d 9f 67 5e 3e
       0.120287985 0.4101896 0.0761399 0.21719216
0001b0 c3 5c 55 3d b9 98 94 3e dc 28 a9 3e 4d 3d dc 3d
       0.052090418 0.29022768 0.33038986 0.1075388
0001c0 0d c6 74 3e 3b 71 71 3d 53 03 d8 3e 34 1a 2c 3e
       0.23903675 0.058945876 0.42190036 0.1680687
0001d0 c4 67 cb 3d 29 ba 05 3f 14 c9 a3 3e 30 7e 88 3d
       0.09931901 0.5223718 0.31989348 0.06664693
0001e0 fc 2a ce be 2c 6e e3 3e ba 28 32 3f e9 74 16 3e
       -0.4026717 0.44419992 0.69593394 0.14693035
0001f0 c2 30 4c be 53 01 7c bd 98 83 14 be 17 d8 63 bc
       -0.19940475 -0.0615247 -0.14503324 -0.0139065
000200 9d 1f 6c 3d 88 fc d9 3c a0 9d 8a bd e1 48 4a be
       0.057647336 0.026609674 -0.06768346 -0.19754364
000210 ca 1f 8e bb 72 63 c2 3d 4e 92 31 3e 5b fb bc 3b
       -0.0043372856 0.09491624 0.17340967 0.0057672686
000220 14 d2 c9 bd 80 6a 71 3c cb f5 42 3d 2d d9 01 3e
       -0.09854522 0.014734864 0.047597688 0.12680502
000230 37 bc a6 bc 0a 86 be bc d2 04 b5 bd c7 b4 b0 3d
       -0.02035342 -0.023257274 -0.0883881 0.086282305
000240 5b 37 52 3e 21 e9 23 3d e0 e1 b3 3d 69 53 34 bd
       0.20528929 0.04001725 0.087833166 -0.04402486
000250 94 4a 3f 3c c9 12 79 3e 75 3b a1 bd d1 6b 4a 3d
       0.011675496 0.24323572 -0.07872669 0.049419228
000260 da 1f 90 3d ca 89 18 3e 83 7b 2c be b5 64 42 3e
       0.07037325 0.14896312 -0.16843991 0.18983729
000270 d3 b4 4f bb d5 db b7 3d 9d 0a 81 be 81 74 01 3d
       -0.0031693473 0.089774765 -0.2520341 0.031605247
000280 cd 1d a9 3a d0 73 98 3e 41 97 05 be e2 5c f3 3c
       0.0012902558 0.29775858 -0.1304598 0.029707376
000290 80 6c ab bc 80 55 36 be f0 e8 a3 be 3a c5 33 bd
       -0.02092576 -0.17806053 -0.32013655 -0.04388926
0002a0 18 65 b2 bd 8b 72 82 be b0 35 9d bd 1e 63 16 3e
       -0.08710688 -0.25478014 -0.07676256 0.14686248
0002b0 ed 29 4c be 0f 74 b2 be 4c d3 03 be 5f 38 6b 3e
       -0.19937868 -0.3485417 -0.12873572 0.22970723
0002c0 14 8e c5 3d 14 04 ae 3d d4 47 89 3e 22 87 b5 3d
       0.0964624 0.084968716 0.26812613 0.08863665
0002d0 a1 5b 49 3d 3f 82 6b bc b8 1b ab be ff 32 9a 3e
       0.04915965 -0.014374315 -0.33419585 0.30117032
0002e0 79 8e 33 3e 6e fb 98 be 5e c2 ca 3d 54 86 e3 be
       0.17534818 -0.29879326 0.09900354 -0.44438422
0002f0 24 fe 90 3e 5b 82 0e 3d 5e 4f 5f 3c ec 68 50 bd
       0.28318894 0.034792285 0.013629762 -0.05088131
000300 00 01 aa be 54 c2 0a bf aa ac 8e 3d 5a a6 54 3e
       -0.33203888 -0.5420277 0.06966527 0.20766583
000310 e9 3c 8e 3e 96 43 09 3f 16 e1 2c 3b c2 a2 bc be
       0.27780846 0.5361875 0.002637928 -0.36842924
000320 a1 c3 fc bb a5 d8 6a 3d 1f f8 19 3e d3 e3 2f bd
       -0.0077137505 0.057335515 0.15036057 -0.04294188
000330 8f 87 d9 3d fb 65 8e 3d 43 c1 97 be d5 06 97 3d
       0.10621559 0.06953045 -0.29639634 0.0737435
000340 96 bd 6d 3e 46 5b bd be 7e cf 03 3e 55 17 dc 3e
       0.23216853 -0.369837 0.1287212 0.4298655
000350 83 30 43 be 37 67 2b 3f 7f da 7e 3c f0 08 6c bc
       -0.19061475 0.6695437 0.015555023 -0.014406428
000360 c1 f0 2a 3e b2 4d 1e 3e e4 37 62 3e ab e9 9a 3e
       0.16693403 0.15459326 0.22091633 0.302564
000370 21 9d c0 3d 5b 12 0a be 40 35 e7 3c f7 46 30 3c
       0.0940497 -0.13483565 0.028223634 0.010759107
000380 0c 97 8a 3e 4b 1e bd 3d a3 0b 15 3e 43 be 13 be
       0.27068365 0.092342936 0.1455522 -0.14428048
000390 fd 9d b6 bd 9c 1b a3 3d 43 7a 31 3c d5 3e a3 3d
       -0.089168526 0.079642504 0.010832372 0.07970969
0003a0 fc a6 94 be 08 a6 99 be 94 cc e0 3d 26 0d 20 be
       -0.2903365 -0.30009484 0.1097652 -0.15630016
0003b0 16 78 87 bd 3e 44 3c be a0 df c9 be 9c c1 02 be
       -0.066147014 -0.18385407 -0.39428425 -0.12769169
0003c0 83 1f 20 3e 9f 06 81 be 6a 43 37 be 22 3d 9e be
       0.15637021 -0.25200364 -0.1789681 -0.30906016
0003d0 0e 77 8d be 54 27 34 3e a3 4a e2 bd b1 13 45 bd
       -0.27629894 0.17593127 -0.11049392 -0.048114482
0003e0 53 ed 4c 3e 7a 1f a2 be 0a 53 33 3e 07 4a 36 3e
       0.20012407 -0.3166464 0.17512146 0.17801677
0003f0 0c c2 cb be f7 d1 08 be 28 71 c5 3d 6f 80 6b be
       -0.39796484 -0.13361345 0.096407235 -0.22998212

layer2.conv2.bias f4 [16]
000000 e0 d8 22 bf 4e e7 58 bf 43 b8 2c bf 76 d3 17 bf
       -0.63612175 -0.8472794 -0.6746866 -0.5930704
000010 b3 b5 46 bf aa 4d 0c bf ba ed 19 bf 6f 4b c9 be
       -0.77621 -0.54806006 -0.60128367 -0.39315364
000020 56 dd 49 bf 9e ff 32 bf 39 d9 05 bf bb 49 d2 be
       -0.78853357 -0.6992129 -0.5228458 -0.41071877
000030 1f bd bf be 10 d5 2c bf df b6 25 bf 01 ca de be
       -0.37448975 -0.6751261 -0.64732164 -0.43513492

layer3.fc1.weight f4 [120, 400]
000000 d0 27 41 bc f3 29 e4 3b eb 6d 13 bb 47 48 86 39
       -0.011789277 0.0069630085 -0.0022495936 0.00025612322
000010 8a 51 c4 bb bd db 05 bd f0 85 da bc 6e d4 5d 3b
       -0.0059911655 -0.032680262 -0.026675195 0.0033848542
000020 22 70 c1 3b b4 02 93 3a d0 7e 8f bc 77 1f 80 bc
       0.00590326 0.0011216016 -0.017516524 -0.015640004
000030 31 01 24 bb ed f5 1b 3c 8a f4 d4 ba 42 9e f8 bc
       -0.0025025124 0.0095190825 -0.0016247195 -0.0303489
000040 56 24 36 ba 85 9f 21 3c a0 9c 69 bc 43 82 03 bc
       -0.00069481635 0.009864693 -0.014258534 -0.008026662
000050 b6 10 58 3c 37 42 89 bb bb a0 b8 3b 41 ee 24 3c
       0.013187578 -0.0041888016 0.005634395 0.01006657
000060 53 51 ae bb 1f 7c 5d 3b 55 46 a3 3c 36 f9 21 3c
       -0.005319753 0.0033795906 0.019930998 0.009886077
000070 c0 b6 66 3c c9 d3 21 bd 68 91 83 3c 6a 7a f7 ba
       0.014081657 -0.039508615 0.016060546 -0.0018881087
000080 08 81 27 3a ec 84 bd 3b 9e 91 8c 3a ea 9d 29 3d
       0.00063897716 0.005783668 0.001072455 0.041410364
000090 43 34 ce bc 9d ec e0 bc 2f 16 40 3c 9b 37 48 bb
       -0.025171405 -0.027456576 0.011724039 -0.0030550722
0000a0 23 04 d5 3c cd ef 4d bc 18 d0 ce 3a d4 f0 82 bc
       0.02600295 -0.01256938 0.001577857 -0.015983976
0000b0 fb 97 93 3c 3f bd 50 3d a7 47 09 bd 68 51 b0 bb
       0.018016806 0.05096173 -0.0335156 -0.005380798
0000c0 8c 58 81 bc 75 68 10 3c ce 0a a7 bc 39 fc 3b bc
       -0.015789293 0.008813967 -0.020390894 -0.011473709
0000d0 d2 e5 15 3c 38 c1 3e bd bd e7 80 bd ac d6 95 bc
       0.009149032 -0.046570987 -0.062942006 -0.01829084
0000e0 f5 98 90 bc 44 47 1f 3c cd c4 41 bc 55 54 7b bc
       -0.01765106 0.009721581 -0.011826706 -0.015339931
0000f0 2f bf cf 3a 18 cd a6 bc 9c a0 5a bc 3c 48 15 bd
       0.0015849824 -0.020361468 -0.013343956 -0.03644584
000100 12 47 d7 3c 62 57 cc ba bc 29 fb 3b 15 df d6 bc
       0.026279006 -0.0015590007 0.0076648872 -0.02622942
000110 37 72 16 bb 02 3a b8 bb 3b ea 05 3c 38 c3 35 bd
       -0.002295626 -0.0056221494 0.008173521 -0.04437563
000120 51 39 d4 bb 6b 75 50 bc 1e b7 fc bb 21 c0 96 3c
       -0.006476559 -0.012723307 -0.007712259 0.018402161
000130 4f 86 03 bb 54 f1 2a bc d5 f6 4d bc a1 57 89 3c
       -0.0020069068 -0.010433514 -0.012571056 0.016765418
000140 1c fc 1c bb d9 92 8e 3c 73 90 e3 bc 1a a8 ca ba
       -0.002395398 0.017404007 -0.02777884 -0.0015461475
000150 cc 76 37 3c ba 99 17 bb 1e 90 90 3b e8 f3 77 bc
       0.011197757 -0.00231324 0.0044117114 -0.015133835
000160 56 45 76 bb 31 d4 6f bc 03 13 82 bc 39 89 04 3c
       -0.0037577949 -0.014637993 -0.015878206 0.008089357
000170 6e 9d 58 bc 73 fb 24 3c 16 1f d8 bb 11 59 b0 ba
       -0.013221128 0.010069716 -0.0065955026 -0.0013454278
000180 b9 29 cc bc 93 a8 08 3b 07 84 8d bc 46 97 20 3b
       -0.024922239 0.0020852431 -0.01727487 0.0024504228
000190 90 cd 9e bb 00 46 07 bc f6 dc d3 3c 7b 19 a2 3c
       -0.0048462823 -0.008256435 0.025862198 0.01978754
0001a0 02 ac 0f 3d 08 69 90 ba a2 53 4b bc 17 d1 cb 3c
       0.03507615 -0.001101763 -0.012410076 0.024879975
0001b0 57 3f b4 3b 49 4f ad bb b8 9b 01 3c 07 f2 94 bc
       0.0055007148 -0.0052889925 0.007910661 -0.018181814
0001c0 f3 0f de 3c b6 8f 89 3c 7e af eb bb be f9 a2 3c
       0.027107215 0.01679216 -0.007192551 0.019894477
0001d0 cb e7 c3 bc 94 8d 85 3c 1e 0e 26 3d cb 99 49 bc
       -0.023914238 0.016302861 0.040540807 -0.0123047335
0001e0 df fb 09 3d a0 e2 05 3d 84 5b c0 3b d4 63 95 3a
       0.03368747 0.03268683 0.0058702845 0.0011397549
0001f0 9b 5a be bc 2d f9 36 bc 77 b4 d0 3b 2f 6a ec bb
       -0.023236563 -0.011167807 0.0063691693 -0.0072148065
000200 d3 15 d0 b9 84 b5 71 39 8b 33 4b bc b7 f6 bb bb
       -0.00039689112 0.00023051171 -0.0124024255 -0.005736198
000210 2c 0a 8e 3b 73 84 39 39 9a b5 61 3c f2 98 87 3b
       0.0043347087 0.00017692316 0.013776207 0.0041381055
000220 15 89 3c bb f5 18 fc bb db 99 a0 bb cb 21 82 3b
       -0.002876823 -0.007693405 -0.0049011535 0.0039713136
000230 9c 6b e8 3b 5d b3 ab 3b 66 bd b6 3b 68 bb ac bb
       0.007092906 0.0052398876 0.0055767773 -0.005271364
000240 6a 44 ba 3b c7 35 9c 3c 1f 93 23 bc 6c c6 0d bd
       0.005684425 0.019068612 -0.009983807 -0.034613058
000250 10 65 0a bc 99 fb b7 bb 99 b4 5b bb 2a d4 7c 3b
       -0.008446947 -0.0056147096 -0.0033524393 0.0038578608
000260 8b de 38 bc a3 eb ed 3b a0 b8 61 3c 23 c2 3a 3c
       -0.011283527 0.007260756 0.013776928 0.011398825
000270 e3 cc 7f bc 3e 23 0c bc c1 78 d1 3b 24 7a b1 3c
       -0.015612814 -0.008553324 0.006392569 0.021664687
000280 1f ac 34 3b 71 e0 cd bc 46 35 8e 3c 93 19 dc 3c
       0.0027568412 -0.025131436 0.017359387 0.026867663
000290 8b 6d a7 3b c0 e6 e1 3c af 51 d5 bc c6 89 ae bc
       0.005109494 0.02757585 -0.026039926 -0.02130593
0002a0 f6 eb ca bc c4 fb 0a 3d 91 3c d9 3b fe 75 a3 bc
       -0.024770718 0.03393151 0.0066295345 -0.019953724
0002b0 cc ca 39 bd 76 d5 1c bb 12 3d 01 3d 48 7b 8a bc
       -0.045359418 -0.0023930944 0.03155238 -0.016904488
0002c0 9d 14 ed 3b 2d 92 b8 3b e4 d2 e1 bb cb 0f ac bc
       0.0072351233 0.00563266 -0.006891595 -0.021003624
0002d0 89 67 8d bc 21 a3 f1 bc 55 be 7a bc e0 ba dd 3a
       -0.017261283 -0.029496731 -0.015304168 0.0016916655
0002e0 3d 70 48 3c 48 b3 db 3b 19 aa d8 bc dc 18 0b bd
       0.012233791 0.0067047216 -0.026448296 -0.033959255
0002f0 65 a1 0c bc 20 3a 93 3b 70 9c 1a bc 2d 92 be bb
       -0.008583401 0.004493013 -0.009436712 -0.0058157654
000300 de 81 aa bc 36 95 a9 bc 6d ef 74 3c 01 de 38 ba
       -0.020813879 -0.020701032 0.014949662 -0.0007052124
000310 ce 01 26 bd df 35 79 bc ee a1 88 3c 4d 04 92 3c
       -0.040529065 -0.015210598 0.016678777 0.017824316
000320 99 ef 27 bc a0 3d fc 3c 74 55 aa 3c 8d 28 57 3c
       -0.010249996 0.030791104 0.0207927 0.013132227
000330 22 3f fe bb c9 2f 10 bc 00 98 8f 3b 49 03 32 3c
       -0.007758991 -0.008800455 0.0043821335 0.010865041
000340 a3 3e 77 bc f0 2b 6e 3c 6f d9 2c bc 35 fe b8 bc
       -0.015090617 0.014536843 -0.010549887 -0.022582153
000350 bb b9 15 3c 2b 68 93 3b 22 1b e0 bb 8d 1a 8f 3c
       0.00913852 0.004498502 -0.006839172 0.017468715
000360 8a 40 dd b9 25 ac 05 3c 02 6e 29 3c ca 07 61 3b
       -0.0004220049 0.008158718 0.010341169 0.0034336918
000370 c6 c8 f3 3c 4a 54 96 3c 29 80 ef 3c ae 80 b4 3c
       0.029758822 0.018350739 0.029235916 0.022034016
000380 bd 71 f8 bc 50 d5 4d 3c f1 fd 84 ba 65 df 3d bc
       -0.030327672 0.012563065 -0.0010146481 -0.011588906
000390 ee c9 96 bc a4 1f 9c 3c d7 7f 44 3c b6 88 88 3c
       -0.018406834 0.019058056 0.01199337 0.016666751
0003a0 09 85 bf 3b c1 28 49 3b a5 85 97 3c 03 0b 9f bc
       0.0058447164 0.0030694457 0.018496344 -0.01941443
0003b0 e6 cc 5e bc cd 35 c5 3c f0 74 d3 bb 15 51 77 bc
       -0.013598656 0.024073506 -0.006453149 -0.015095015
0003c0 56 5e 39 3c 1e 86 9a bc 6d bf 70 3c f0 91 dd bb
       0.011313995 -0.01886278 0.014694077 -0.006761782
0003d0 6d 63 aa bc 28 ce 05 3c 7c 89 9c bc 8c e5 87 3c
       -0.020799363 0.008166827 -0.019108526 0.016588949
0003e0 a0 a5 70 3a ef 86 f9 bb fd af ce 3c 14 b6 6d 3c
       0.00091799535 -0.0076149623 0.025230402 0.014508743
0003f0 50 09 2e 3c 13 82 90 bb 44 ef b3 bc 88 53 e7 3c
       0.010622337 -0.0044100373 -0.021964677 0.028238073

layer3.fc1.bias f4 [120]
000000 0b f8 45 3c 09 68 42 bc d4 80 46 bc e5 c5 c5 ba
       0.012083064 -0.011865624 -0.012115676 -0.0015088884
000010 0d 93 97 bc c2 98 5a bb e9 2d 5e bc c8 c0 58 3a
       -0.018502736 -0.003335521 -0.0135607505 0.0008268473
000020 67 f5 f0 3b 4f fc 0f 3c 2e bf 91 bc aa a7 3a 3c
       0.007353473 0.008788182 -0.017791357 0.011392513
000030 ed 26 34 3c ce 26 03 3b d4 d6 48 3b 50 f4 b4 3b
       0.010995609 0.0020012143 0.0030645626 0.0055222884
000040 38 32 b7 3b 7f 56 ba bc 5a c3 f5 3b 62 4c 97 3b
       0.0055907033 -0.022746323 0.0075000944 0.00461726
000050 71 1a 28 3c db 05 95 3b ca f2 ef 3b 6e f8 d8 3a
       0.01026021 0.004547817 0.007322644 0.001655353
000060 5e cb 95 3c 41 cf dd 3b a4 6b f9 3b 0d 14 6e 3c
       0.01828545 0.0067690914 0.0076117087 0.014531148
000070 32 c5 1a 3c 22 1b 26 bc c9 ed 38 bc a2 9c 65 3a
       0.009446429 -0.010138305 -0.011287161 0.0008758997
000080 64 69 39 3e 59 50 62 bc 57 7d e1 3b c9 88 38 bb
       0.1810661 -0.013813102 0.0068813968 -0.0028157702
000090 82 70 5c bd 8b e7 75 39 37 a5 84 bb ec 66 34 bc
       -0.053818233 0.00023451277 -0.0040480155 -0.011010867
0000a0 7a f1 ba 3c e6 5b 41 3a 31 50 3b 3a 9f 6a de 3d
       0.022820223 0.00073760597 0.00071454333 0.1086018
0000b0 b3 fc a0 3b 08 41 d7 bb b7 84 ed 3b b8 43 cf 3a
       0.0049129366 -0.0065690316 0.007248487 0.0015813028
0000c0 16 dc a7 bc 4e 72 8f 3c 78 d7 02 3c 6f 33 0b 3c
       -0.020490687 0.01751056 0.007985942 0.008496149
0000d0 10 54 22 3a 9b c5 8f 3c c6 1c 80 3c d3 b2 4d 3c
       0.0006192336 0.01755028 0.01563872 0.012554842
0000e0 b4 8a 56 bc e3 57 59 3b 6e 7d 82 3a 73 8c 6b bc
       -0.013094593 0.0033163957 0.0009955594 -0.014376747
0000f0 c4 d2 41 3c 89 38 3c 3c a0 e5 a0 bb 3e 0f d9 3d
       0.011830036 0.011488088 -0.004910186 0.1059861
000100 4e 84 15 be e6 fa 1a bc e1 32 15 b9 e2 2c 36 3b
       -0.14601251 -0.009459233 -0.00014228701 0.0027797748
000110 4b 67 7c 3b b7 ea c7 bb 87 3a a9 3c e3 35 9e 3c
       0.0038513716 -0.0061009782 0.02065779 0.019312805
000120 ab ff 7e bc a2 79 83 3c a5 8a de 3b 13 87 4f bb
       -0.015563886 0.01604921 0.00679143 -0.0031666204
000130 ef 6c 87 bc 6d dc 74 b9 7d 84 78 bb 28 ba 9b bc
       -0.016531436 -0.00023351768 -0.0037920766 -0.019009665
000140 56 5d 45 bc 79 68 ac bb 84 08 e0 bb 91 25 29 bc
       -0.012046179 -0.0052614775 -0.0068369526 -0.010323898
000150 53 0e 2f 3c e6 d5 80 bb 7e af 68 ba 9d 0a 82 ba
       0.0106845675 -0.0039317487 -0.0008876248 -0.0009921376
000160 80 5e aa 3a 1f 9e 96 bc 25 66 3d bc 68 17 92 bb
       0.0012998134 -0.018385945 -0.011559998 -0.0044583566
000170 9d 9f 73 bc ad 62 d6 bb b0 83 c7 3b 4c c8 cc ba
       -0.014869598 -0.006542525 0.0060886964 -0.0015623658
000180 7c 25 dc 3b dc 66 57 bc 7a 3f 58 ba c2 c9 d3 bc
       0.0067183357 -0.013147082 -0.0008249205 -0.025853042
000190 d3 f3 88 3c 85 97 3b b9 22 b6 78 3c 42 7a 51 bc
       0.016717827 -0.00017890155 0.015180143 -0.012785496
0001a0 c8 1a 0a b8 bb 69 06 3c 36 d7 a3 39 7c 94 73 3c
       -3.2926706e-05 0.008203919 0.00031250127 0.014866944
0001b0 cb 89 a6 b9 6f ff 76 bc d8 e5 85 3b 8c 88 ea 39
       -0.0003176465 -0.015075549 0.0040862374 0.00044733693
0001c0 70 9e b5 3e c3 23 38 bc 29 a7 8c 3c 0f e4 d4 3b
       0.3547244 -0.011238995 0.017169552 0.0064969133
0001d0 a7 90 0d 3c 67 89 57 bb ce 8d 1d bc f3 de 54 3e
       0.008640445 -0.0032888295 -0.009616328 0.20788173

layer3.fc2.weight f4 [84, 120]
000000 c7 97 07 3c 05 4f 7f 3b 96 47 7f bb df 60 9a bb
       0.008275933 0.0038957011 -0.003895258 -0.004711255
000010 1c 46 06 3c 08 68 27 3c ec c1 ba b9 88 f8 f4 bb
       0.008195426 0.010217674 -0.00035621168 -0.0074759163
000020 00 cc f2 b9 b1 32 c8 bb f0 81 d8 3b 23 3a d4 3b
       -0.0004630983 -0.0061095585 0.0066072866 0.006476657
000030 cc 61 f3 bb 5d 94 7b 3a 5c fd e0 3b 13 f2 81 bb
       -0.00742743 0.0009596998 0.0068661403 -0.003965625
000040 6b 8b 4e 3b b1 68 48 3a d8 cd e6 bb 31 b5 31 bc
       0.0031516205 0.0007644995 -0.0070435815 -0.010846422
000050 b0 0d e1 bb ea 39 d3 3b d2 f5 81 3b b6 53 03 3b
       -0.0068680868 0.006446113 0.0039660716 0.002003891
000060 4a 3f 24 bb 13 c8 96 bb 0e 55 c2 bb fe fe 0a 3c
       -0.0025062137 -0.0046014874 -0.0059305495 0.008483646
000070 2a 86 be bb b2 16 e3 bb 06 9f 72 3b 00 aa f7 ba
       -0.0058143334 -0.0069301957 0.0037021055 -0.0018895268
000080 4d 9d 37 bc 69 9b eb 3b eb 88 c8 bb 6a a0 90 b9
       -0.011206937 0.007190157 -0.0061198375 -0.00027585338
000090 c3 ca 0a bb 6e 8f 8c 3b c1 65 20 3b 38 50 5f bc
       -0.0021177984 0.004289559 0.0024474713 -0.0136299655
0000a0 7b 70 1d 3b 37 4e b8 3b 76 dc 8d 3b e0 87 80 3b
       0.0024023342 0.0056245583 0.0043292595 0.0039224476
0000b0 84 76 19 bb 6a b3 c0 bb 66 fb 08 ba 4d 01 81 bb
       -0.0023416588 -0.005880763 -0.00052254496 -0.0039369226
0000c0 4e 72 77 bb a4 6e 08 ba 3d 1c a0 bb 92 72 d4 bb
       -0.003775734 -0.0005204475 -0.0048861788 -0.0064833844
0000d0 6f df a2 bb a8 ec 86 3c 68 50 4d 3b c2 62 c7 bb
       -0.004970483 0.016470268 0.0031328443 -0.006084771
0000e0 ae 13 d0 3b 69 69 7c 3b 74 96 c7 bb 0d c3 a2 3b
       0.0063500023 0.0038514978 -0.0060909335 0.0049670995
0000f0 77 0c e2 3b 0e c7 4c bc 91 42 06 bc 29 c5 f8 bb
       0.0068984586 -0.01249863 -0.008194582 -0.0075918627
000100 a7 e7 a4 3c da 74 9a 3b a4 f4 15 bc c6 d0 c7 bb
       0.020129992 0.004713637 -0.009152565 -0.006097886
000110 3d 5c e0 3a 6c 67 5e bc 87 97 cb 3b e5 2b 16 3c
       0.0017117333 -0.013574462 0.006213132 0.009165739
000120 df 62 93 3b 61 b2 b0 3b bf c1 87 bc a3 ef a9 3b
       0.0044978703 0.005392358 -0.016571878 0.0051860376
000130 aa c1 35 bc 1d 0d 4d 3b 4a 77 5d 3c e0 a3 22 bc
       -0.011093536 0.0031288334 0.01351721 -0.009926766
000140 b2 09 30 bb 5f 06 35 3a d0 92 3e bb 8a 8d 00 bc
       -0.0026861248 0.00069055514 -0.0029079206 -0.007846246
000150 f8 4a 82 bb 17 86 ca 3b 46 0c 8a bb a5 44 98 bb
       -0.003976222 0.0061805355 -0.004212889 -0.004646855
000160 c8 22 e9 ba 57 da e2 39 2f 7e 19 3c 4f 2c 5d bc
       -0.0017786855 0.00043268755 0.009368463 -0.0134993335
000170 92 5f 06 bb af e7 4a bc 4a 56 a4 bb c9 4b 01 bc
       -0.0020503742 -0.012384339 -0.0050151693 -0.007891604
000180 ab 80 4a bb fa 79 8d 3b b3 81 64 bc 40 9a 53 3c
       -0.0030899446 0.0043175193 -0.013946938 0.012915194
000190 c1 ae 8c 3b d9 3f 02 3c 55 45 3c bb 20 4a 47 bc
       0.004293293 0.007949793 -0.0028727849 -0.012163669
0001a0 3f 2b 0f bc fd 94 90 3b 6f ac 27 bc 2f f6 22 3c
       -0.008738338 0.004412292 -0.0102339825 0.00994639
0001b0 f1 d9 11 bc f8 68 4d 3a e8 2e b5 3b d8 46 1c ba
       -0.008902059 0.0007835771 0.0055292733 -0.0005961484
0001c0 69 04 5d 3b 9c 3e 3b bc a6 13 12 3a 0c 8b 2f 3c
       0.0033724552 -0.011428501 0.0005572386 0.010714304
0001d0 61 58 8e bb e1 3e 87 bb ca 7c b4 3a e4 a6 1c 3c
       -0.0043440317 -0.004127369 0.00137701 0.009561274
0001e0 f8 7b cd bb ec 80 f0 3b 43 b6 de ba 6e 76 70 3b
       -0.0062708817 0.0073395874 -0.0016991574 0.0036691683
0001f0 1f 0e 5e bc 84 f2 18 bc 0f a6 4b bb 49 58 78 bb
       -0.013553171 -0.009335164 -0.003107432 -0.003789442
000200 a3 54 0b b9 39 84 d1 ba 3f 3e 7a 3a 49 84 78 3b
       -0.00013287603 -0.001598484 0.00095460186 0.0037920645
000210 4d 0e 8a 3b 69 f6 ea 3b 0e 7a 2a ba ef 40 ce bb
       0.0042131306 0.0071704877 -0.0006503173 -0.006294362
000220 f4 62 56 38 db c0 96 bb b3 cd 51 39 b4 63 62 3b
       5.1113733e-05 -0.004600627 0.00020008422 0.003454429
000230 ad 9b 22 3c 28 b5 13 3a b1 3d 9c bb ef 18 22 bc
       0.009924811 0.00056345994 -0.0047680964 -0.00989364
000240 da 44 10 3c 97 ce 82 3b ab 4e 0d ba 2c c3 c4 ba
       0.008805478 0.0039919126 -0.00053904456 -0.0015011779
000250 fc e5 8d ba 36 98 d2 3b 56 36 be ba 77 86 8e 3b
       -0.0010825987 0.0064268364 -0.0014512043 0.0043495256
000260 db 98 9b bb b4 b2 9c 3b 4d 6f 4b ba 2d 31 3b 3c
       -0.0047484464 0.0047820453 -0.00077604206 0.011425299
000270 e2 14 4c 3a ac 01 c6 bb 78 7f ab 3b 91 a2 fd 3b
       0.0007785094 -0.00604268 0.0052337013 0.0077403267
000280 b9 f3 44 3c 50 c2 0b bc ce 94 bc bb da 6c 34 bc
       0.012020999 -0.008530214 -0.0057550436 -0.01101228
000290 87 1a 7c 3b c0 57 8f bb 7b 9e b8 3b 3a 1d 01 3c
       0.003846796 -0.0043744743 0.0056341267 0.007880503
0002a0 28 c2 8f bb b2 af a7 3b b4 a3 32 3c 12 68 04 3b
       -0.004387159 0.00511738 0.010903288 0.0020203632
0002b0 25 a5 b7 3b 56 e3 ef bb 1e 2c 62 bb 1e f8 45 3c
       0.0056044036 -0.0073208017 -0.003451116 0.0120830815
0002c0 82 75 18 3c 74 a3 11 3c e4 9b 97 3b 14 8c c1 3b
       0.00930536 0.008889068 0.004626738 0.005906591
0002d0 64 c2 da bb 05 ed c8 3b ac cd a7 bb 2a 01 9c bb
       -0.006676005 0.0061317706 -0.0051209535 -0.004760881
0002e0 bd 61 36 3b 83 d1 f6 3b 5d 71 ef ba 60 eb 44 3b
       0.0027829253 0.0075323 -0.0018268038 0.003004752
0002f0 4f 87 65 bb e1 48 26 bb 59 ba 84 3b 1f 6f 0b 3c
       -0.0035023277 -0.002537303 0.0040505347 0.00851038
000300 d8 5f 1b ba 3a 6c 1d 3b 3b df 1f 3b 19 7e 39 3b
       -0.00059270626 0.0024020807 0.002439453 0.002830392
000310 05 89 3e bc b9 4c 29 bb af 9d 9d ba fd 8f 54 3a
       -0.011629348 -0.0025833084 -0.0012025143 0.0008108614
000320 95 33 31 bc 1d 93 cb bb 5f ba 37 bc 51 2c 5b b8
       -0.010815521 -0.0062126056 -0.011213868 -5.225494e-05
000330 69 c7 04 ba 86 b1 33 bb e9 54 31 3b b7 26 c8 bb
       -0.0005065115 -0.0027419045 0.0027058667 -0.006108131
000340 90 9a 68 3a 51 59 ec 3a 7f d1 71 bb 3c 49 11 bc
       0.0008873129 0.001803199 -0.003689855 -0.008867558
000350 e8 24 3b 3b ef d7 ee 39 0c be df 3b e0 4d 68 ba
       0.0028555933 0.0004555578 0.0068280753 -0.0008861702
000360 d7 a8 db bb 53 af 07 bc b4 54 33 3c d3 ee 50 3c
       -0.006703477 -0.008281547 0.010945488 0.012752253
000370 c1 08 d6 3b b5 78 7e bb e3 5b 1f bc 27 15 e3 bb
       0.0065318053 -0.0038829271 -0.009726497 -0.006930012
000380 b1 1a c1 bb d3 e1 df ba 6c 1a d6 3b 12 c4 4d bb
       -0.0058930744 -0.0017080851 0.0065339115 -0.0031397385
000390 01 8b a6 3b f3 05 21 bc f7 9b 48 3b b4 6f b3 bb
       0.0050824885 -0.009828079 0.003061054 -0.0054759625
0003a0 09 0f 01 bc 33 21 c6 3a 25 7c 98 bb e8 44 b1 b9
       -0.00787712 0.0015116095 -0.004653471 -0.0003381141
0003b0 a3 db fb 3a e6 61 24 3c 5a 29 ab 3a bb ac 92 3c
       0.0019215237 0.010033106 0.0013058588 0.01790463
0003c0 9f 4d 75 ba 64 08 2d 3b 47 64 6b ba 84 33 5b bb
       -0.0009357575 0.0026402706 -0.0008979481 -0.0033447454
0003d0 bd a6 b2 38 2c 73 8a bb 63 aa 14 bc 14 a3 9a 3b
       8.518759e-05 -0.0042251553 -0.0090738265 0.0047191475
0003e0 03 ac 92 3b ed 66 d7 3b 88 fe 62 b9 d3 11 8e bb
       0.004476072 0.006573549 -0.0002164786 -0.004335621
0003f0 73 4a d2 bb 05 89 60 3b 14 ec 78 39 31 56 78 bb
       -0.0064175664 0.0034261358 0.00023739069 -0.003789317

layer3.fc2.bias f4 [84]
000000 77 1b 90 bc 29 cc 4e bc 53 3d 99 bb d9 c2 61 bc
       -0.017591221 -0.012621918 -0.0046765 -0.013779365
000010 b4 a3 7f bb d3 59 aa bc 7b 2f 52 bc e2 c6 6d bc
       -0.0039007487 -0.020794785 -0.012828703 -0.014512749
000020 e9 bc 9f bc cd 32 88 bc dc ee 69 3e 28 73 4c bc
       -0.01949926 -0.016625786 0.22845024 -0.012478627
000030 8e e3 16 bc 48 f3 ee ba 37 e8 99 3b 04 bd 05 bb
       -0.009209527 -0.0018230462 0.0046968716 -0.0020406852
000040 1e 46 69 bb 1d 8a 17 3c 36 eb f3 bb 93 b1 a0 bc
       -0.0035594772 0.009249237 -0.007443811 -0.019615924
000050 75 5f ad 3c 44 e5 2a bc d8 95 25 3c 6e de 1b bc
       0.021163682 -0.010430638 0.010106526 -0.009513481
000060 80 f3 a3 bc 5f 46 3c bd b2 0e 56 3c 59 28 e7 3c
       -0.02001357 -0.04596555 0.013065027 0.028217481
000070 6d f7 6d bc 52 5c b9 3c b2 3d 4d 3c 6c 79 85 bb
       -0.014524323 0.02262703 0.012526916 -0.0040733125
000080 f3 d3 e7 bc 5d b3 bf bb 46 80 a3 3b f7 8f fd 3b
       -0.028299307 -0.005850239 0.0049896566 0.007738109
000090 68 fc ed bc c6 23 33 3c 89 e8 bb bb 4f 38 93 bb
       -0.02905102 0.010933822 -0.0057345075 -0.0044927965
0000a0 70 36 3a 3a ba d2 8b 3e b2 a0 02 bb a9 c1 28 ba
       0.0007103449 0.2730921 -0.0019932208 -0.0006437549
0000b0 5a 03 48 bc fb a3 d8 bb 16 a2 44 bb f9 6c 45 3c
       -0.01220783 -0.006611345 -0.0030003837 0.012049907
0000c0 9d 67 4c bc d7 e8 0d bc 6c d7 61 3c 95 be 5d 3e
       -0.012475875 -0.00866147 0.013784271 0.21654733
0000d0 9a 07 70 bc f7 d4 f8 3c 6a 56 ad 3b 5d 39 ec 3b
       -0.01465025 0.030374987 0.0052898424 0.0072089867
0000e0 3a 25 40 bc d5 3e 8a bc 66 16 96 bb 64 3b 30 3c
       -0.0117276255 -0.016875664 -0.004580307 0.010756347
0000f0 41 a6 ef 3b c1 b7 58 3c f9 67 0f 3c 50 52 62 bc
       0.00731352 0.013227404 0.008752816 -0.01381357
000100 48 e9 a7 ba 15 ca 47 3c 2a 8b a4 bc f5 c4 be 3b
       -0.0012810612 0.012194176 -0.02008589 0.005821819
000110 55 34 8c bc 3b 20 a2 bb 50 67 00 3e c7 84 c9 bc
       -0.017114798 -0.00494769 0.1253941 -0.024599446
000120 cb 19 2a ba e1 fa 81 bc 2a fd 59 3c 55 01 e4 3c
       -0.0006488829 -0.015866699 0.013304988 0.027832666
000130 18 49 10 bc 0c 2b 6b 3c c6 a4 27 bc f7 4c c7 bd
       -0.008806489 0.014353525 -0.010232156 -0.09731477
000140 40 ad 5e bb b4 0f f0 3b 51 e6 0c bc 0e 24 9d bb
       -0.0033977777 0.0073260907 -0.008599834 -0.004795558

layer3.fc3.weight f4 [10, 84]
000000 5a 90 77 bb 4a e8 6a 3b c6 41 01 3b 84 94 18 3b
       -0.003777525 0.0035844021 0.0019723042 0.0023281882
000010 09 b4 88 38 3e a7 c9 3a 84 90 c7 3a ca b1 80 bc
       6.5185195e-05 0.0015384925 0.0015225564 -0.015709776
000020 65 ae e0 3b a7 a8 0c bb 84 01 32 be db 67 a7 3b
       0.006856727 -0.002146283 -0.1738339 0.005108816
000030 47 2f ff bb 83 cc 07 bc ad 51 09 3c 74 fd 62 ba
       -0.0077876183 -0.0082885055 0.008381289 -0.0008658983
000040 b8 89 ef 3a 56 2b 99 3b 08 8e 8e 3b a5 e1 38 bb
       0.0018275296 0.0046743555 0.0043504275 -0.0028210666
000050 a8 9b 1b bb 00 50 e0 3a cc e8 7d 3b 17 d2 c4 bb
       -0.0023743901 0.0017113686 0.0038743494 -0.00600649
000060 d3 9f 88 3b 58 41 23 3c 29 e3 32 3b a1 8f c8 3d
       0.004169443 0.00996431 0.0027296043 0.0979302
000070 37 0c 3a bc 2a 05 86 3a 65 54 33 bb 4c 15 02 3c
       -0.011355451 0.0010224928 -0.0027363535 0.007939648
000080 51 67 a5 37 df fe 8a 3b f4 e2 4e 3b 54 6c 0d bb
       1.9717643e-05 0.004241809 0.003156838 -0.0021579461
000090 f9 89 52 ba b3 0e 82 3c be 20 ad bb 22 18 cc 3a
       -0.0008031424 0.01587615 -0.005283444 0.0015571157
0000a0 c1 20 30 3c 94 52 b7 3b 52 fc 68 3a 3c c1 c2 3b
       0.010749997 0.005594561 0.00088876963 0.0059434455
0000b0 4a 82 68 bb 0b ab f4 3b 73 d0 2d 3c c4 1a ce 3b
       -0.003547805 0.007466679 0.01060878 0.006289812
0000c0 6b 41 7c 3a 93 9e 40 bc cb a2 66 b9 ee ec a5 3c
       0.0009622785 -0.011756557 -0.00021995154 0.020254578
0000d0 9e ed dd bb 6f 2f 64 3a 0e 06 98 ba b1 2a e1 3b
       -0.006772711 0.0008704578 -0.0011598484 0.0068715443
0000e0 00 56 07 bb 6f 09 7a be f5 8a ed ba 13 79 b9 bb
       -0.0020650625 -0.24417661 -0.0018123077 -0.005660185
0000f0 b5 38 c5 39 bb 8e 14 ba e9 c6 e3 bb 1f f2 57 bc
       0.00037617018 -0.00056670205 -0.006951202 -0.013180285
000100 d7 f7 9c 3b 56 bc 4f 3b 8a 51 51 bb dd 86 da bb
       0.004790287 0.003169795 -0.003193947 -0.006668909
000110 5e 4d 52 bc 0b c0 1e 3c 0f ab 0a be 4a ba 1c bb
       -0.012835829 0.009689341 -0.13541816 -0.0023914748
000120 82 b9 1d 3a 77 70 5d 3c 13 9e b7 3b 12 4f 67 bb
       0.00060167175 0.013515583 0.0056035607 -0.0035294932
000130 50 df 8b 3b ed 0b 82 3c 1d 05 85 3b bf 88 0a 3e
       0.0042685643 0.015874827 0.0040594474 0.13528727
000140 1d 72 9e 3a ef 9f ee 3b 3e 66 a4 3b 49 bc b9 ba
       0.0012088452 0.007282249 0.005017071 -0.0014170493
000150 76 7b 37 ba 36 d0 fc bb b5 7a 2b 3b 47 6a 8e 3b
       -0.0006999293 -0.0077152504 0.0026165668 0.0043461653
000160 87 9f 91 3b d6 47 2f bc ba 65 61 3a 8c 17 09 bb
       0.004444066 -0.010698279 0.0008598227 -0.0020918576
000170 46 21 6e ba 84 b2 9d b9 6a ad 22 bd 78 14 0a bc
       -0.00090839376 -0.00030078378 -0.03971616 -0.008427732
000180 9f 8e 0d bc f7 86 b6 ba 9c a2 d9 3a 1f bd 72 3b
       -0.008639961 -0.0013925721 0.0016604248 0.0037038994
000190 e9 3b ef ba 2a 25 43 3a 9a d2 6a 3a 9d 56 8f bb
       -0.0018252108 0.00074441975 0.00089577737 -0.004374339
0001a0 41 0e 1d 3c 47 c4 cd bb b9 e7 4d b9 15 1d a3 bb
       0.009585918 -0.0062795016 -0.00019636647 -0.004977832
0001b0 5c 70 f6 bb 83 31 6a 3e 4d ba 20 3b a4 82 d8 bd
       -0.0075207185 0.2287045 0.0024525106 -0.10571793
0001c0 46 4f 73 bb a0 de 29 3c ee 76 8c 3b dd c9 2b bb
       -0.0037126108 0.010368019 0.0042866385 -0.002621285
0001d0 24 bf 0d bc f6 30 d0 3b 59 ee 0e 3c 2a 27 dd 3b
       -0.0086515285 0.006353493 0.008723819 0.0067490535
0001e0 55 55 12 bc 0f df d3 ba 5b a6 aa ba 4a 47 6a bb
       -0.008931478 -0.0016164499 -0.0013019548 -0.0035748058
0001f0 30 24 e3 3a 29 a8 2c be ca f7 d5 bb b5 fe a2 3a
       0.001732951 -0.16861023 -0.006529783 0.0012435528
000200 98 77 11 b8 19 2b d6 3a 14 9f eb 3d a5 6f d0 3b
       -3.4682074e-05 0.0016339748 0.11504951 0.0063609653
000210 c2 6b 4f 3b 6d d0 48 bb 18 06 51 3b 41 f4 a9 be
       0.0031649922 -0.003064181 0.0031894501 -0.33194163
000220 8b e3 91 3b f6 81 16 3c 9e 13 14 3b a9 09 b0 3b
       0.004452174 0.009186259 0.00225947 0.0053722453
000230 6e 4f 11 bc 72 4b 62 3c b8 8f 0f bc 4b 14 d3 ba
       -0.008869035 0.013811933 -0.008762293 -0.001610407
000240 69 b3 8f bb ab 49 07 3c 03 9a 3c 3b ff e6 c0 bb
       -0.004385401 0.00825731 0.0028778322 -0.005886912
000250 56 d3 6c bb 27 b4 3f 3b bf 4b e6 bb fc 19 bb 3b
       -0.0036136708 0.0029251666 -0.0070280726 0.0057098847
000260 2a 4a c8 3a ef 6a 85 3b 3f fc ce bd 0e 13 21 bc
       0.0015280892 0.0040715854 -0.10106706 -0.009831203
000270 53 e6 3d bb 84 53 35 bb 3d 36 5b 3b 37 b4 10 3b
       -0.0028976395 -0.0027668187 0.0033449077 0.0022080073
000280 6d 47 f0 3b 0e a8 19 3c 68 6b b9 bb 46 55 72 bd
       0.0073327334 0.009378446 -0.005658556 -0.059163354
000290 9d bd 07 bc 9a 9b f2 3b 83 f5 43 bb 5c 41 a5 3b
       -0.008284953 0.007403803 -0.0029900975 0.005043192
0002a0 bd c2 4f 3b fa c7 78 bb 60 f3 31 bb 0e 2c 5a bb
       0.0031701766 -0.0037960992 -0.002715312 -0.0033290419
0002b0 6b 27 4c 3c 93 32 33 bb 4c 82 86 3b 7f 27 ef 3b
       0.01246057 -0.0027343377 0.004104888 0.0072984095
0002c0 d6 93 4e 3a d3 cb df 3b cf 83 bc bd 1c 2a 3d ba
       0.00078803056 0.0068297177 -0.09204828 -0.00072160526
0002d0 fc b4 00 3b c8 fc a1 3b c6 47 47 bb e5 34 e8 3a
       0.0019639125 0.004943464 -0.003040777 0.0017715959
0002e0 8a 92 28 bb 97 37 06 bc c7 2d 7b bb 73 8f 82 39
       -0.002572211 -0.008191965 -0.0038326846 0.0002490241
0002f0 b4 5c 47 3b 9f ff 48 bb 80 5d dc 3a cc 16 8a 3b
       0.0030420246 -0.003066994 0.0016812533 0.0042141434
000300 fc 6a d0 3a 79 93 74 bd 0a 4f e3 37 91 b8 2f 3e
       0.0015901024 -0.059710953 2.7097314e-05 0.1716025
000310 f2 62 bd 3b 09 c5 49 3b 10 d9 41 38 48 ea 06 bc
       0.0057796175 0.0030787608 4.621694e-05 -0.008234568
000320 0e 73 0e 39 41 f2 f8 3a 22 a1 d7 3a 14 95 5e 3b
       0.00013585037 0.0018993096 0.001645122 0.003396337
000330 cb 8a f3 b9 eb e0 ce bb 11 19 3b 3b 3c 66 d5 ba
       -0.0004645198 -0.0063134334 0.0028548876 -0.0016281079
000340 a0 d6 8f bb 4c f8 0d 3e d5 3e b1 bb aa 6d 85 ba
       -0.004389599 0.13864249 -0.0054091015 -0.0010179777
000350 df e4 c2 3a 1c 73 9d 3a cc 32 22 3d 8e 73 92 bb
       0.0014869234 0.0012012455 0.039599225 -0.0044693416
000360 83 c9 cb 3b 73 25 86 3b 36 3b 84 ba 7f bb 12 3e
       0.0062190904 0.0040938198 -0.0010088447 0.14329337
000370 72 ee cb 3a 37 b0 c6 b8 e0 c8 68 3b 3e 9e 86 bb
       0.0015558733 -9.474198e-05 0.0035520121 -0.0041082194
000380 8a e2 b3 3b 42 05 4c 3d da eb fe bb 4b 6c 03 bb
       0.005489652 0.0498097 -0.0077795805 -0.0020053561
000390 f2 1f ec b9 0f e4 49 3a 23 b3 56 3c 18 cc 87 3b
       -0.0004503723 0.0007701525 0.013104233 0.004144203
0003a0 11 45 c1 bb 25 35 8b bb f3 b2 4d ba c8 e8 23 3b
       -0.005898126 -0.0042482787 -0.0007846795 0.0025010575
0003b0 25 b8 2e 3c b4 0e ef ba f4 ff 88 bc 05 fe 87 3b
       0.010664021 -0.0018238635 -0.01672361 0.0041501545
0003c0 13 e1 ad 3b 6e 6f c7 ba f1 aa 4f bb 5f 8f 14 bb
       0.005306372 -0.0015215704 -0.0031687582 -0.0022668464
0003d0 0a 6c ee 39 69 87 d8 3a 57 46 20 bb b9 94 57 be
       0.00045475393 0.0016519848 -0.0024455988 -0.21052827
0003e0 d5 4d 8c bb 41 a2 10 bc ff 15 6c 3b 1f f4 47 3b
       -0.0042817392 -0.008827747 0.0036023853 0.0030510498
0003f0 97 22 7b 3b 7c 9a 84 b9 1c 17 cc ba 11 94 99 ba
       0.0038320178 -0.00025292102 -0.0015570852 -0.0011717101

layer3.fc3.bias f4 [10]
000000 45 e0 be bd f0 2e e2 be 27 e3 be 3e 0c 21 15 3f
       -0.0932012 -0.44176435 0.37282678 0.5825355
000010 22 d8 a6 3e cf 66 8f bb 62 79 fb bd 96 66 84 be
       0.3258677 -0.0043762694 -0.12279011 -0.25859517
000020 45 88 bd be 7b d3 89 bd
       -0.37018028 -0.0672979
