output/models_cifar10_20.pth (torch_old, 248636 bytes, 10 tensors)

layer1.conv1.weight f4 [6, 1, 5, 5]
0	0xbc191cce	-0.0093452465
1	0xbe2f56d4	-0.17122966
2	0x3a014f4c	0.00049327756
3	0xbe018383	-0.12647824
4	0xbdcc17f0	-0.09965503
5	0x3e9daf98	0.3079803
6	0xbe3e1c72	-0.18565539
7	0x3ee33629	0.44377258
8	0xbd91f2b0	-0.07126367
9	0x3e6987c6	0.228057
10	0x3dfcc44b	0.123421274
11	0xbf303078	-0.6882396
12	0x3ef59e5d	0.47972384
13	0xbecc2ada	-0.39876443
14	0xbd82f1f3	-0.063938044
15	0x3ef2efa4	0.47448456
16	0xbf4ae416	-0.7925428
17	0x3f5cf312	0.86308396
18	0xbed22162	-0.41041094
19	0x3e36af10	0.17840219
20	0x3e84dfa7	0.25951883
21	0xbf2fafbb	-0.6862752
22	0x3f0f3672	0.5594245
23	0xbe5b3625	-0.21407373
24	0xbd391c78	-0.045193166
25	0x3c118ad7	0.0088832
26	0xbd90a656	-0.07062976
27	0xbd1117ce	-0.035423093
28	0x3dd6398d	0.10460196
29	0xbcc98297	-0.024598403
30	0x3d791c4f	0.060818013
31	0x3e5e5a57	0.2171415
32	0xbf2f4fdd	-0.68481237
33	0x3e3e08e2	0.18558076
34	0x3e71276c	0.23550195
35	0xbda9bfaf	-0.08288514
36	0x3ece249c	0.40262306
37	0x3eff5cf4	0.49875605
38	0xbfa21107	-1.2661446
39	0x3ec66ea8	0.387563
40	0x3da50950	0.08058417
41	0xbf14a0b7	-0.5805773
42	0x3f5ccc32	0.8624908
43	0x3e426986	0.18985566
44	0xbf005950	-0.5013628
45	0xbc3dbb90	-0.011580363
46	0x3dc4ef0d	0.09615908
47	0xbee51495	-0.44742265
48	0x3eeb7565	0.45988002
49	0xbdb50047	-0.088379435
50	0xbd29d084	-0.04145862
51	0xbd304b5b	-0.043040615
52	0xbd9044d3	-0.07044377
53	0x3e0f5e6a	0.1400086
54	0x3d92bac9	0.07164533
55	0xbdb50f5d	-0.08840821
56	0xbd369d77	-0.044583764
57	0x3e4a8cdd	0.19780298
58	0x3d9242bc	0.07141635
59	0xbd85449e	-0.06507228
60	0xbeb01235	-0.3438889
61	0x3b9b0f07	0.004732016
62	0x3e87eabd	0.2654628
63	0xbdb4c582	-0.08826734
64	0xbd1a132b	-0.037615936
65	0xbec2c467	-0.38040468
66	0x3ea4cd27	0.3218777
67	0x3e627f35	0.22118838
68	0xbc1f5d78	-0.0097268745
69	0xbb062eef	-0.0020474752
70	0xbf0b6fa8	-0.5446725
71	0x3eca4e26	0.39512748
72	0xbcdf9575	-0.027292946
73	0x3d74100b	0.059585612
74	0xbdc3e400	-0.09564972
75	0xbde39d26	-0.11113958
76	0xbeb4ecee	-0.35337013
77	0xbe4daa9f	-0.20084618
78	0xbcc85ecb	-0.024459263
79	0x3d7d214e	0.06179934
80	0x3e9c8aec	0.3057474
81	0x3f53305e	0.8249568
82	0x3f17e766	0.5933746
83	0x3e076649	0.13222612
84	0x3d868461	0.06568218
85	0xbe092c04	-0.13395697
86	0xbef1edc9	-0.47251728
87	0xbeadb65d	-0.33928195
88	0xbc56cfcd	-0.013111067
89	0xbe051836	-0.12997517
90	0x3e0bd386	0.13654909
91	0x3c23d59e	0.009999661
92	0xbda1acd3	-0.07894292
93	0x3da93edc	0.082639426
94	0x3e56a451	0.20961119
95	0xbd8dc6a7	-0.069226556
96	0xbd3e883e	-0.04651665
97	0xbc9b5ea6	-0.01896603
98	0xbe0d84b8	-0.1382016
99	0xbd9d937b	-0.07694145
100	0xbde822d9	-0.11334772
101	0x3d3a93b1	0.045551006
102	0xbc87c475	-0.01657317
103	0x3e0f6188	0.14002049
104	0xbdc74819	-0.097305484
105	0x3d025642	0.031820543
106	0x3dd68105	0.10473827
107	0x3d85a307	0.065252356
108	0xbe1ddd7c	-0.15416521
109	0x3e0b40b1	0.13598897
110	0xbe98f22a	-0.29872257
111	0xbedddaa9	-0.43330887
112	0xbe137f66	-0.14404067
113	0x3cdd1762	0.026988689
114	0xbe9f2987	-0.3108637
115	0x3e83cd5c	0.25742614
116	0x3e81a2ae	0.25319427
117	0xbe34f75f	-0.1767249
118	0xbdfad45e	-0.12247537
119	0x3e4ccbf6	0.1999968
120	0xbdb21110	-0.08694661
121	0x3d230fca	0.03980998
122	0x3e354dd5	0.17705472
123	0x3d3dd3c5	0.046344537
124	0xbdecc063	-0.11560132
125	0x3d4a0d9e	0.049329393
126	0xbe994a99	-0.29939726
127	0x3eb97a15	0.36225954
128	0x3c991b80	0.01868987
129	0xbde90d1f	-0.11379456
130	0xbdd0e17e	-0.10199259
131	0x3ea927a6	0.33038062
132	0x3f1498c6	0.58045614
133	0xbf597bd6	-0.84954584
134	0x3ce07194	0.027397908
135	0x3d8acff6	0.06777947
136	0x3f0b4289	0.543984
137	0xbfa33835	-1.2751528
138	0x3db5d2c2	0.088780895
139	0x3ecc4595	0.39896837
140	0xbc7e0a18	-0.015505336
141	0xbe99e8e1	-0.30060485
142	0xbd965315	-0.073400654
143	0x3f3acafd	0.72965986
144	0xbe9d4d1f	-0.307229
145	0x3e171aa5	0.14756258
146	0xbdf4cb8c	-0.11952886
147	0x3e5118cf	0.2041962
148	0xbe605578	-0.21907604
149	0x3d2902af	0.041262325

layer1.conv1.bias f4 [6]
0	0xbec047da	-0.37554818
1	0xbebed4c7	-0.3727171
2	0xbeacba74	-0.33736002
3	0xbea0d536	-0.31412667
4	0xbea2598a	-0.31708938
5	0xbec54296	-0.38527364

layer2.conv2.weight f4 [16, 6, 5, 5]
0	0x3dd91ec4	0.10601571
1	0xbda48ed5	-0.080350555
2	0x3d0ef5ff	0.03490257
3	0x3da8baeb	0.08238777
4	0x3d812639	0.063061185
5	0x3d69f15e	0.05711495
6	0xbd85c9cc	-0.0653263
7	0x3cce81b6	0.025208335
8	0x3ccd6866	0.025074195
9	0xbd094405	-0.033512134
10	0xbd20974a	-0.03920678
11	0xbd542d81	-0.05180121
12	0xbbf25a43	-0.007396014
13	0xbc17e2d8	-0.009270392
14	0x3d8ad4fb	0.06778904
15	0xbcade61f	-0.021227894
16	0xbe2cc8de	-0.168735
17	0xbe31182b	-0.17294376
18	0x3deb96f7	0.11503404
19	0xbdbbdd32	-0.09173049
20	0xbe7d53d7	-0.24739014
21	0xbe94b938	-0.2904756
22	0xbf1d360d	-0.614106
23	0xbf454ed8	-0.7707343
24	0xbe9fbc52	-0.31198364
25	0x3eacd7e9	0.33758476
26	0x3e547c13	0.20750456
27	0x3d2a9b76	0.041652165
28	0x3d8e8d6e	0.06960569
29	0x3e300531	0.1718948
30	0x3ea3b350	0.31972742
31	0x3e2966a1	0.16543056
32	0x3e84cefe	0.25939173
33	0x3d9119da	0.07085009
34	0x3e16133a	0.14655772
35	0x3ec6887b	0.38776
36	0x3e6d7afc	0.23191446
37	0x3e2f2eac	0.17107648
38	0x3dd3839f	0.10327839
39	0x3e5045af	0.20339082
40	0x3eef445e	0.46731848
41	0x3ea71662	0.32634264
42	0x3e8df25c	0.27723968
43	0x3e1ef46a	0.15522924
44	0xbcb62490	-0.022234231
45	0x3ecd2f37	0.40075085
46	0x3e40cfb9	0.1882924
47	0xbd95b0f0	-0.07309139
48	0xbc0ff671	-0.008786784
49	0xbdba8047	-0.09106498
50	0x3e45ca9d	0.19315572
51	0x3dc677e0	0.09690833
52	0xbc877c78	-0.016538844
53	0x3e48c0c3	0.19604783
54	0xbd12d1d6	-0.035844646
55	0xbcb8c00b	-0.02255251
56	0x3e39f729	0.1816069
57	0x3c658139	0.01400786
58	0xbe34da5a	-0.1766142
59	0x3df1968f	0.11796295
60	0xbe08fe6e	-0.13378307
61	0xbc4bb840	-0.012434065
62	0x3d7cb62c	0.06169717
63	0x3e38eff1	0.1806028
64	0x3bf22abe	0.007390349
65	0xbd7bdff8	-0.06149289
66	0xbe1ea94b	-0.15494268
67	0xbd4b255a	-0.049596168
68	0x3eaa4eac	0.33263147
69	0x3e2adbea	0.16685453
70	0xbe0628a7	-0.13101445
71	0xbd69e1a7	-0.057099964
72	0xbeb1828f	-0.3466992
73	0xbebabe68	-0.36473393
74	0xbd341c69	-0.043972407
75	0x3e67b485	0.22627456
76	0xbdbdd5bf	-0.092692845
77	0x3c898408	0.01678659
78	0x3d435b4c	0.04769449
79	0x3e18b58a	0.14913002
80	0x3dc8bbe3	0.098014615
81	0x3d814854	0.063126236
82	0x3e563476	0.2091845
83	0x3e48da61	0.19614555
84	0x3daccd84	0.084376365
85	0xbd63732f	-0.05552977
86	0x3e8bfca5	0.2734119
87	0x3e5b4c57	0.2141584
88	0x3e177979	0.14792432
89	0x3e354c03	0.17704777
90	0xbe7256e2	-0.23665956
91	0x3e7b4fcf	0.24542163
92	0x3e9aa3a0	0.3020296
93	0x3e2ed53b	0.17073528
94	0x3ddcec5c	0.107872695
95	0xbde41850	-0.1113745
96	0x3d3862db	0.04501615
97	0x3e2b7f23	0.16747718
98	0x3ed39733	0.41326293
99	0x3e91423d	0.28370848
100	0x3e5def66	0.21673355
101	0x3dc4aba2	0.09603049
102	0xbde76ee2	-0.11300446
103	0x3e8f0545	0.27933708
104	0x3ddfd955	0.10930125
105	0x3eb98fb1	0.3624244
106	0x3ddece47	0.10879188
107	0x3e49b234	0.19696885
108	0x3db2a8fe	0.08723639
109	0x3ec51d9c	0.38499153
110	0x3e9d6912	0.30744225
111	0x3e696277	0.22791468
112	0x3daa2e9b	0.083096705
113	0x3e11f232	0.14252546
114	0x3eebf319	0.46083906
115	0x3e6c0d47	0.2305194
116	0xbc4dcd4e	-0.0125611555
117	0x3efeafe0	0.49743557
118	0x3ea7608d	0.3269085
119	0x3e1d068b	0.15334527
120	0xbf055166	-0.5207733
121	0x3eb56ae4	0.35433114
122	0x3f508a02	0.81460583
123	0x3e26ea03	0.16300206
124	0xbe061bf1	-0.13096596
125	0xbcd0c429	-0.025484161
126	0xbdf63c29	-0.120231934
127	0xbd66b868	-0.056328207
128	0x3acc47b9	0.001558534
129	0xbcb40511	-0.021975072
130	0xbd2ea1de	-0.042634837
131	0xbe216265	-0.15760191
132	0x3cd689fd	0.026188845
133	0xbc7eb5f1	-0.015546308
134	0x3db001e2	0.08594109
135	0x3d3f6d90	0.046735346
136	0xbe14b6d1	-0.14522864
137	0x3cbc6d80	0.023001432
138	0xbc0f7790	-0.008756533
139	0x3d2c084b	0.042000096
140	0x3d453c3a	0.04815314
141	0xbd34f272	-0.044176526
142	0xbd883df9	-0.06652445
143	0x3e145194	0.14484245
144	0x3e0dfa24	0.13864952
145	0x3d39646f	0.045261797
146	0x3e0dd74d	0.13851662
147	0xbd01c618	-0.031683058
148	0x3e2baa48	0.16764176
149	0x3e441caa	0.1915156
150	0xbd71b0bc	-0.059006438
151	0x3c1927ff	0.009347915
152	0x3d742fbc	0.059615836
153	0x3e3e0524	0.18556648
154	0xbe263a46	-0.16233167
155	0x3e5c0135	0.21484835
156	0x3dae9923	0.08525302
157	0x3ddf8546	0.10914092
158	0xbe584e5b	-0.2112364
159	0x3dac2726	0.084059045
160	0xbb01722e	-0.0019751894
161	0x3ead4ccc	0.33847654
162	0xbdc7396d	-0.0972775
163	0xbb7bc8b1	-0.0038419182
164	0xbdd23e52	-0.10265793
165	0xbdf6ef0c	-0.12057313
166	0xbe888057	-0.26660416
167	0xbc8cf9ef	-0.017209021
168	0x3d1616ba	0.036642767
169	0xbe598bac	-0.21244687
170	0xbd8a3bc6	-0.06749682
171	0x3e196803	0.14981084
172	0xbe14a1e9	-0.14514889
173	0xbedec188	-0.43507028
174	0xbe19f782	-0.15035823
175	0x3e2e38bd	0.17013831
176	0x3d98944e	0.07450162
177	0x3d6fb2a7	0.058519986
178	0x3e8953e7	0.26821825
179	0x3d2c90f6	0.042130433
180	0x3b9b63ea	0.0047421353
181	0x3d3a8326	0.04553523
182	0xbede28d2	-0.43390518
183	0x3eaa1593	0.33219585
184	0x3e612bd9	0.21989383
185	0xbe96039c	-0.2929963
186	0x3d477291	0.048693243
187	0xbe962ac9	-0.29329517
188	0x3e8f4817	0.27984688
189	0x3e033231	0.12812115
190	0x3bd9382b	0.00662901
191	0xbd34fd2d	-0.04418676
192	0xbeb14f96	-0.34631032
193	0xbeff2a6e	-0.4983706
194	0x3d50a556	0.050938927
195	0x3e27bcc2	0.16380599
196	0x3e93fd02	0.28903967
197	0x3f03a8f2	0.51429665
198	0xbcf1f0d0	-0.029533774
199	0xbe965a21	-0.29365638
200	0xbb8ff35c	-0.0043930244
201	0x3dfe4256	0.12414996
202	0x3e51a665	0.2047363
203	0xbd0f2c03	-0.034954082
204	0x3df4241f	0.11920952
205	0x3c679e51	0.014136867
206	0xbea7e43f	-0.32791325
207	0x3bb8c07b	0.00563818
208	0x3e902a15	0.28157106
209	0xbea38fc1	-0.31945613
210	0x3e15c4ad	0.14625807
211	0x3ee44b90	0.445889
212	0xbd460f9c	-0.04835473
213	0x3f2457b6	0.64196336
214	0x3d304875	0.04303785
215	0x3d80dd06	0.06292157
216	0x3e2228f4	0.15835935
217	0x3e1b1e2f	0.15148233
218	0x3e266876	0.16250786
219	0x3e715fdb	0.23571722
220	0x3dad804a	0.08471735
221	0xbe5c5de8	-0.21520197
222	0x3d36cdd9	0.044629905
223	0x3cc7bd53	0.024382269
224	0x3eb06ab9	0.34456423
225	0x3e07d78a	0.13265815
226	0x3e1d682f	0.15371774
227	0xbdea6941	-0.11445857
228	0xbe04cd5b	-0.12968962
229	0x3dd1bd10	0.10241139
230	0x3e096861	0.13418724
231	0x3d983cb1	0.07433451
232	0xbeaa5555	-0.33268228
233	0xbe9cd596	-0.30631703
234	0x3c8020e9	0.015640693
235	0xbdc39303	-0.09549525
236	0xbd91dd8a	-0.07122333
237	0xbe885c74	-0.26633036
238	0xbed986ff	-0.42485806
239	0xbe1e6a71	-0.15470292
240	0x3e5bd325	0.21467264
241	0xbea0babe	-0.31392473
242	0xbe6d581b	-0.23178141
243	0xbecc7ddb	-0.3993977
244	0xbe851368	-0.25991368
245	0x3e4de769	0.20107807
246	0xbdfc05f1	-0.12305821
247	0xbdc02ab4	-0.09383145
248	0x3e34cccd	0.1765625
249	0xbe9ca1f3	-0.30592307
250	0x3e79d427	0.24397336
251	0x3e899cb4	0.26877367
252	0xbee5170a	-0.4474414
253	0xbe403dfe	-0.18773648
254	0x3c4eb053	0.012615281
255	0xbe47d7b7	-0.19515882

layer2.conv2.bias f4 [16]
0	0xbf3ac9b1	-0.72964007
1	0xbf78f980	-0.97255707
2	0xbf4237c5	-0.7586635
3	0xbf3e2773	-0.74278945
4	0xbf698cb0	-0.912303
5	0xbf2216bd	-0.63315946
6	0xbf35ee2a	-0.71066535
7	0xbefbbb5c	-0.4916638
8	0xbf6a7868	-0.91589975
9	0xbf5c4920	-0.8604908
10	0xbf1aa7e2	-0.6041242
11	0xbef4efb4	-0.4783913
12	0xbefa9a6b	-0.48945937
13	0xbf477089	-0.7790609
14	0xbf423503	-0.7586214
15	0xbef6826f	-0.48146388

layer3.fc1.weight f4 [120, 400]
0	0xbc3a331f	-0.011364727
1	0xbce87fad	-0.028381193
2	0x3c5a967b	0.013341541
3	0xbc71fc0c	-0.014769565
4	0x3c4ff8eb	0.012693624
5	0x3bceabb2	0.006307089
6	0xbbbbf55a	-0.0057360353
7	0xbce3e9ed	-0.027821505
8	0x3ac483e1	0.0014992916
9	0xbc1e67b1	-0.009668277
10	0x3c20e740	0.009820759
11	0x3c86fae0	0.016477048
12	0xbcc11266	-0.023568343
13	0xbbd024ee	-0.0063520586
14	0x3bc6cf8f	0.0060672234
15	0xbb5a7059	-0.0033331125
16	0xbbb09e60	-0.0053899735
17	0x3c330992	0.010927575
18	0xbc481db2	-0.012214111
19	0xbcb32c89	-0.021871822
20	0xbc8f9de6	-0.017531347
21	0x3ca68bfc	0.020330422
22	0xbc3d2cf7	-0.011546365
23	0x3c3d1d33	0.011542606
24	0xbba65ef4	-0.0050772373
25	0x3d190c85	0.037365455
26	0xbb61a0be	-0.0034428085
27	0x3bbdc0ce	0.0057908064
28	0x3c48c9d2	0.012255149
29	0xbacb1ec6	-0.0015496842
30	0x3d4159c9	0.047204766
31	0x3b681b0c	0.0035416512
32	0x3a377b38	0.0006999257
33	0xba71cfe3	-0.0009224398
34	0xbc9f7bc6	-0.0194682
35	0xbbd1fbdc	-0.006408198
36	0x3bfcd9a8	0.0077163763
37	0xbcbc7c8f	-0.023008613
38	0x3c195d7d	0.009360668
39	0x3c293d7b	0.0103295995
40	0xbb90f997	-0.0044242847
41	0xbce9ecf4	-0.02855537
42	0x3bab2c0b	0.005223756
43	0xbc4bd5e1	-0.012441129
44	0xbc5bda4d	-0.013418746
45	0x3be56543	0.0070005967
46	0x3bc21b5a	0.0059236707
47	0x3b7d47b9	0.0038647486
48	0x3ce9b3bc	0.028528087
49	0xb9f81f05	-0.00047325357
50	0xbc95c9b3	-0.018284654
51	0xbc836669	-0.016040044
52	0xbafab494	-0.0019127303
53	0x3cc19cd6	0.023634356
54	0x3c718670	0.014741525
55	0xbc61bb2f	-0.013777538
56	0xbb0f5ee8	-0.0021876637
57	0xbc841ecc	-0.016127966
58	0x3b61c971	0.0034452344
59	0xbbad40dd	-0.0052872733
60	0xbcc93265	-0.024560163
61	0x3ac4c10e	0.0015011148
62	0xbcad10cb	-0.021126172
63	0x3d0ecbcb	0.03486232
64	0x3bdded54	0.0067726765
65	0x3c639104	0.013889555
66	0x3baef5fa	0.0053393813
67	0xbcc89609	-0.024485605
68	0xbc813d4a	-0.015776295
69	0xbca1d43e	-0.019754525
70	0xbc68327e	-0.0141721945
71	0x3c030c64	0.00799856
72	0xbc086368	-0.008324482
73	0x3a72c2d2	0.0009260598
74	0x3bc4819b	0.0059968955
75	0x3bdc6d56	0.006726901
76	0xbc00af29	-0.007854261
77	0x3c4d0426	0.012513196
78	0x3cbf1825	0.023326943
79	0x3ce722fc	0.028214924
80	0x3b23c762	0.0024990668
81	0xb9bd8370	-0.00036146818
82	0x3c0baff7	0.00852584
83	0xbcaeef3a	-0.021354306
84	0xbc133987	-0.008985884
85	0xba636cae	-0.00086755573
86	0x3b9bd321	0.004755393
87	0xbc50e7de	-0.012750594
88	0xbce15cc5	-0.027510056
89	0x3c914de0	0.017737329
90	0x3c396715	0.011316081
91	0xbaa046dd	-0.001222815
92	0xbadc6a37	-0.0016816322
93	0xbcd83bc8	-0.026395693
94	0x3c3a6c08	0.011378296
95	0x3c1b4f9e	0.009479431
96	0xb9ed85b2	-0.00045303773
97	0xbc3fdd66	-0.0117105
98	0x3ba8a982	0.00514716
99	0x3bb36afe	0.005475401
100	0x3ba78dad	0.0051133246
101	0x3b7cfa89	0.003860148
102	0xbbb01a33	-0.005374217
103	0x3c4c95ec	0.012486916
104	0x3aa2be92	0.0012416414
105	0x3c1c8e9a	0.009555483
106	0x3cf98e13	0.030463254
107	0x3b45d31d	0.0030185648
108	0xbb0f21d5	-0.0021840234
109	0x3c7cb0c6	0.015423005
110	0x3c976e3d	0.018485183
111	0x3a986b8c	0.0011628731
112	0x3cc68bcc	0.024236582
113	0x3b3cefbe	0.002882942
114	0x3ced73d6	0.028985899
115	0x3b922345	0.004459771
116	0xbb696813	-0.0035615012
117	0xba45281c	-0.00075209304
118	0x3c0d1b20	0.008612424
119	0x3b673424	0.003527888
120	0xb93b520b	-0.00017864273
121	0x3be6c54d	0.007042563
122	0x3a37a0da	0.0007004865
123	0x3bea1c79	0.0071445075
124	0xbcc1e644	-0.02366937
125	0xbcb6f402	-0.022333149
126	0x3c513f13	0.012771386
127	0x3c3dc0f9	0.011581653
128	0x3c54f8cc	0.012998771
129	0xbc9bad7f	-0.019003628
130	0xbc501e9a	-0.0127026085
131	0x3c8615b9	0.01636778
132	0xbba245b9	-0.0049521592
133	0x3ca929e5	0.02064986
134	0xbc882dfc	-0.01662349
135	0xbb4b446c	-0.0031016124
136	0x3ca0ebad	0.019643629
137	0xbb801f86	-0.003910008
138	0xbc488169	-0.012237885
139	0x3b221fa2	0.0024738093
140	0x3b363563	0.0027802817
141	0xbbe6d868	-0.0070448406
142	0xbba130e0	-0.0049191564
143	0xbba42cb9	-0.005010214
144	0x3afec735	0.001943803
145	0x3b8f2237	0.0043680924
146	0x3c9c4721	0.019076886
147	0x3cb47f09	0.022033231
148	0xbc8e989e	-0.017406758
149	0xbc39daf4	-0.011343706
150	0x3c15c498	0.00914111
151	0x3c86d38a	0.016458292
152	0xbc02bd1d	-0.007979658
153	0xbbf315ae	-0.007418356
154	0xbae140aa	-0.0017185409
155	0x3b201413	0.0024426028
156	0x3ca5105f	0.020149408
157	0xbab308cf	-0.0013659241
158	0xbad543df	-0.0016270838
159	0xbb975e71	-0.0046194126
160	0xbc893a68	-0.016751483
161	0xbc056b5c	-0.008143272
162	0x3b83f0d3	0.004026511
163	0xbc0fde79	-0.008781069
164	0x3cd08616	0.025454562
165	0x3ccc210d	0.024918104
166	0xbb876a5a	-0.004132551
167	0xbc35756e	-0.011075361
168	0x3c34c2e9	0.011032798
169	0x3ccb3d2d	0.024809444
170	0xbcb0868c	-0.021548532
171	0xbc09d822	-0.0084133465
172	0xbbbecd1b	-0.0058227903
173	0xbc8735d8	-0.016505167
174	0x3c1c8dab	0.009555261
175	0xbc1131e2	-0.008861991
176	0xbb6934fe	-0.0035584564
177	0xbcf30c9b	-0.029669097
178	0xbc96ba16	-0.01839928
179	0x3bf0c99c	0.0073482525
180	0x3c6fb03f	0.014629423
181	0x3c79ce85	0.015246992
182	0xbc668b6c	-0.014071327
183	0xbd34a582	-0.044103153
184	0xbc0eda7e	-0.008719085
185	0xbcb5f81f	-0.02221304
186	0xbcc07688	-0.02349402
187	0xbcae7af6	-0.021298867
188	0xbb74ddf8	-0.003736375
189	0x3cc86242	0.024460915
190	0xbbb57e46	-0.0055387346
191	0xbc9d1447	-0.019174708
192	0xbbd32ad8	-0.0064443164
193	0x3ac45008	0.0014977464
194	0x3c6d93f0	0.014500603
195	0xbcc4945b	-0.023996523
196	0xbc9d6fda	-0.019218374
197	0x3c54db49	0.012991735
198	0x3c6fcf23	0.014636788
199	0x3c866bcd	0.016408825
200	0xbb4b5e3b	-0.0031031508
201	0xb9b649c4	-0.00034768705
202	0xbb68e525	-0.0035536971
203	0xbc8dac02	-0.017293934
204	0xbcca98ef	-0.024731128
205	0x3c91c95b	0.01779621
206	0xbbd2a656	-0.00642852
207	0xbbb27c6b	-0.0054469607
208	0x3b71401c	0.0036811894
209	0x3c687e67	0.014190293
210	0xbca706ba	-0.02038895
211	0x3cc38960	0.023869216
212	0x3c719d72	0.014747011
213	0x3c108676	0.0088211205
214	0x3c54a5f7	0.012979022
215	0xbc90b83e	-0.017665979
216	0xbc801a51	-0.015637549
217	0xbc4b4294	-0.01240601
218	0x3b33f760	0.002746068
219	0x3b64e732	0.0034927842
220	0x3bc58ab9	0.0060285
221	0xbc18a2e0	-0.009316176
222	0x3bd1afe6	0.0063991426
223	0x3c010a74	0.007876027
224	0xbb2d941a	-0.002648598
225	0xbba7a8e2	-0.005116568
226	0xbc4c5abd	-0.012472806
227	0x3cb0df11	0.021590741
228	0x3c5292a0	0.012852341
229	0x3b40f85d	0.002944491
230	0xbb1e7100	-0.002417624
231	0xbb4a782e	-0.0030894387
232	0xbbf87675	-0.0075824806
233	0xbacc702e	-0.0015597397
234	0x3bd39a9c	0.00645764
235	0xbc5f150a	-0.013615856
236	0xbc2489c2	-0.01004261
237	0x3b3a2579	0.0028403683
238	0x3c4c4244	0.012466971
239	0x3c8b203b	0.016983142
240	0xbc351fcc	-0.011054944
241	0x3b1e5103	0.0024157173
242	0xbc98af99	-0.018638419
243	0x3b0a3834	0.0021090629
244	0x3c902449	0.017595427
245	0x3c214c7a	0.009844894
246	0xbd08d20b	-0.033403438
247	0xbb84378c	-0.004034942
248	0x3c974d76	0.018469553
249	0xba8e9dc4	-0.0010880758
250	0x3cf73322	0.03017575
251	0xbcd09f4c	-0.025466584
252	0xbcb014ee	-0.021494355
253	0xbc876757	-0.016528768
254	0xba5fea09	-0.0008541649
255	0x3b964d13	0.0045868247

layer3.fc1.bias f4 [120]
0	0x3c6575fa	0.014005179
1	0x3c0c963f	0.008580743
2	0xbbdfb77c	-0.006827293
3	0x38e04e10	0.000106956926
4	0x3b5105a4	0.0031894231
5	0x3c871bb9	0.016492711
6	0xbb616c7b	-0.0034396935
7	0xba373638	-0.0006988975
8	0x3c942c01	0.018087389
9	0xba366762	-0.0006958154
10	0xbb226d1a	-0.0024784268
11	0xbbbe78fa	-0.0058127614
12	0x3c9674d3	0.018366253
13	0xbbf938ae	-0.0076056337
14	0x3ca0aad8	0.019612715
15	0x3c1b43c2	0.009476604
16	0x3a65d35f	0.00087671535
17	0x3c98a33f	0.01863253
18	0x3c61e2e6	0.013787007
19	0x3b2cdbe2	0.0026376178
20	0x3c70d6c7	0.014699644
21	0x3c159fdf	0.0091323545
22	0x3c0d9aea	0.008642891
23	0xbc24227f	-0.01001799
24	0xbb98d5fc	-0.004664181
25	0xbc54a644	-0.012979094
26	0x3c9c9b42	0.019117001
27	0x3a09c6ce	0.00052557595
28	0x3c05680d	0.008142483
29	0xbb05aec1	-0.002039835
30	0x3c6266ee	0.013818486
31	0x3ad0f234	0.0015941323
32	0xba554d6b	-0.00081368414
33	0xbb8a001f	-0.00421144
34	0xbcb3de3b	-0.021956554
35	0xbbd199e6	-0.00639652
36	0xbd32f529	-0.043690834
37	0xbbc09a5d	-0.0058777765
38	0xbb9c2ea6	-0.004766303
39	0xba581627	-0.0008243047
40	0xbc4cedf2	-0.012507902
41	0x3bbd28bb	0.0057726777
42	0xba8178af	-0.0009877885
43	0x3d4c6137	0.0498974
44	0x3bfa1014	0.007631311
45	0xbb69a844	-0.0035653273
46	0xbc328069	-0.010894873
47	0x3b98d3c1	0.004663915
48	0xbc27afaf	-0.010234757
49	0xbc2be9ee	-0.010492785
50	0x3bdb4dd8	0.0066926293
51	0x3c2c86ad	0.010530156
52	0x3c3dd6a1	0.011586816
53	0xbc3338b5	-0.010938813
54	0xbc24e1b7	-0.01006358
55	0x3ac09168	0.0014691772
56	0x3a30bfa6	0.0006742425
57	0x3a9e9a48	0.0012100423
58	0xbb814cd1	-0.003945925
59	0x3bc21dcd	0.0059239627
60	0x3c5d13c1	0.013493479
61	0x3bb4146d	0.005495599
62	0x3c3bbafd	0.011458156
63	0x3d9c742a	0.07639344
64	0xbe3cace4	-0.18425328
65	0xbc335673	-0.010945904
66	0x3c1db5d6	0.009625873
67	0xbd074935	-0.0330288
68	0xbade4086	-0.0016956485
69	0x3bb95ba6	0.0056566773
70	0x3b76d769	0.0037665016
71	0x3ca46272	0.020066474
72	0xbc870d88	-0.016485944
73	0x3c4f9eb8	0.012672119
74	0xbae6f1b5	-0.0017619642
75	0x3a00402b	0.0004892374
76	0x3b4858c4	0.0030570487
77	0xbc7e2f44	-0.015514199
78	0x3b3a7636	0.0028451807
79	0x3bc0390d	0.005866176
80	0xbc29a33a	-0.010353858
81	0x3c16aa8f	0.009195938
82	0x3ba38d7f	0.004991233
83	0x3b2c3c0b	0.0026280906
84	0xbbd08d99	-0.006364536
85	0x3bd1f736	0.0064076437
86	0x3c4bb3c6	0.012432998
87	0x3b58d819	0.0033087789
88	0x3b0085f8	0.0019611102
89	0x3b3a64e0	0.0028441474
90	0xbc85701d	-0.016288811
91	0xbc3bd789	-0.011464962
92	0x3c8c70c2	0.01714361
93	0xbc78439f	-0.015152841
94	0xba956a01	-0.001139939
95	0x3caa4600	0.020785332
96	0xbc037657	-0.00802382
97	0xbb7ad8f7	-0.0038276294
98	0xbb93d004	-0.0045108814
99	0xbd65bf7d	-0.05609082
100	0x3c723d93	0.014785188
101	0x3c8d081a	0.017215777
102	0x3c8b9ae1	0.017041625
103	0x3bb579ea	0.005538215
104	0xba8a505e	-0.0010552516
105	0x3b22f4bb	0.002486511
106	0xbb066dae	-0.0020512152
107	0xbaae64da	-0.0013305203
108	0xbb81dd71	-0.0039631655
109	0xbbca8fe8	-0.0061817057
110	0x3bb97bba	0.0056605013
111	0x3c19ca21	0.00938657
112	0x3e931a1f	0.28730866
113	0xbc01fbdd	-0.007933584
114	0xba9ff8c2	-0.0012204873
115	0x3a2a4020	0.0006494541
116	0xbb922781	-0.0044602756
117	0xbc59f722	-0.01330355
118	0xbc0fd256	-0.008778175
119	0x3dd4f8a3	0.10398986

layer3.fc2.weight f4 [84, 120]
0	0x39eb4bb1	0.00044879087
1	0xbc241166	-0.010013914
2	0x3ad0dcc9	0.001593494
3	0xbba43640	-0.00501135
4	0x3c202d18	0.009776376
5	0x3aeb340d	0.001794459
6	0xbb0771be	-0.002066716
7	0xba703d3f	-0.00091644
8	0xbb31059a	-0.0027011395
9	0x3bf9ec51	0.007627048
10	0xbbde5d88	-0.006786052
11	0x3bb08897	0.0053873765
12	0xbbc8ae94	-0.006124327
13	0xbb23ad1b	-0.0024975005
14	0xb85033a9	-4.9639177e-05
15	0x3b960650	0.004578389
16	0x3a5c1779	0.00083958317
17	0xbb4586e2	-0.003014021
18	0xbc3b323f	-0.011425554
19	0x3b71c7b8	0.0036892723
20	0x3c15cd8e	0.009143246
21	0xbb1c7e88	-0.002387913
22	0x38f31be2	0.000115923365
23	0x3b49fdf4	0.0030821534
24	0x3bfbc9e2	0.0076839784
25	0x3ba95df4	0.005168671
26	0x3ca8cad5	0.02060453
27	0xbccb6b58	-0.024831459
28	0x3c4e1454	0.012578089
29	0xbacabcbf	-0.0015467628
30	0x3c7801db	0.015137161
31	0x3acad1a8	0.0015473859
32	0x3bb5920a	0.005541091
33	0xbae4c247	-0.0017452919
34	0xb9d74282	-0.00041057548
35	0xbb3d5f43	-0.0028895892
36	0x3c3f01fb	0.011658187
37	0xbbea3320	-0.007147208
38	0xbcbe30bc	-0.023216598
39	0x3ad73dd5	0.0016421626
40	0x3b8491d3	0.004045704
41	0xbc5cae4e	-0.013469292
42	0x3a99c6a8	0.0011732178
43	0xbbf682a3	-0.0075228973
44	0xbb30dc80	-0.0026986897
45	0xbc20e3a1	-0.009819896
46	0xbc9a2a07	-0.018818868
47	0xbb8e5348	-0.004343424
48	0xbaae27f8	-0.0013287058
49	0x3be3ad4e	0.0069481498
50	0xb9b46d63	-0.00034413775
51	0x3c8d6d67	0.017264081
52	0x3bda9f82	0.006671847
53	0xbb0692ae	-0.0020534205
54	0xbb92e7a6	-0.004483181
55	0xbc96366b	-0.018336495
56	0xbb10baf9	-0.00220841
57	0xbb30421f	-0.002689488
58	0xbae31fab	-0.0017328163
59	0x3adbe839	0.0016777582
60	0x3c8658be	0.016399737
61	0x3c20b811	0.00980951
62	0x3c0ff834	0.008787204
63	0xbb79eb3e	-0.00381346
64	0x3b759ed2	0.0037478697
65	0x3c43f605	0.011960511
66	0x3c0a625a	0.0084463
67	0x3ba6f754	0.005095402
68	0xbc54fe7f	-0.01300013
69	0x3a0131b7	0.00049283676
70	0xbc45f688	-0.012082703
71	0xbbb7bc78	-0.005607184
72	0x3b0161cc	0.001974213
73	0x3c19d014	0.009387989
74	0xbb9eb810	-0.0048437193
75	0x3c35f37a	0.011105413
76	0x3c2240a8	0.009903111
77	0x3996ee9f	0.00028788016
78	0x3bdbe7ce	0.006710983
79	0xbb84bb76	-0.0040506674
80	0xbbbf0add	-0.0058301524
81	0x3c4eddfe	0.012626169
82	0xbc0095fa	-0.007848257
83	0x3a018889	0.0004941305
84	0xbb972eb0	-0.00461372
85	0x3bf9b841	0.0076208417
86	0x3a1ad30f	0.0005906084
87	0xbc02d63a	-0.007985646
88	0x3ba59b35	0.0050539025
89	0xbbb5e9a4	-0.005551534
90	0x3b25d73e	0.0025305296
91	0x3bbe8149	0.005813752
92	0xbba09436	-0.0049004806
93	0xbbdbadbd	-0.006704061
94	0x3a220373	0.00061803235
95	0xbc29c915	-0.010362883
96	0x3b20a613	0.002451305
97	0x3ce339d5	0.027737537
98	0x3c7f51b6	0.015583446
99	0x3cacaf3e	0.021079656
100	0x3bd81fc1	0.0065955822
101	0xbc0a54d7	-0.008443079
102	0xbbb1394b	-0.005408441
103	0x3c5084fa	0.012727017
104	0x3bdc17e7	0.0067167166
105	0xbbae2dfb	-0.00531554
106	0xbc7a4572	-0.015275346
107	0xbba9c075	-0.0051804134
108	0x3a8fa581	0.0010959358
109	0xbc3ed297	-0.011646888
110	0x3a829213	0.0009961746
111	0xbc330ca1	-0.010928304
112	0xbb59456d	-0.0033152953
113	0x3b2587e9	0.002525801
114	0xbc60511a	-0.013691211
115	0x3b60a1c4	0.0034276107
116	0xbc06c427	-0.008225477
117	0xba05fb7f	-0.0005111023
118	0xbb704c0c	-0.0036666421
119	0x3bde7930	0.006789349
120	0xbb395624	-0.0028280104
121	0x3aa7b302	0.0012794437
122	0xbaf618f0	-0.0018775743
123	0x3b57376f	0.0032839437
124	0xba87e375	-0.001036747
125	0xbba15bc5	-0.00492427
126	0x3b3d6051	0.002889652
127	0xb938f2dd	-0.00017638081
128	0xba3dac81	-0.0007235483
129	0xb9c6c9d0	-0.00037915865
130	0xbb617ea9	-0.003440777
131	0x3a38c7b3	0.00070488005
132	0xb92afdf4	-0.00016307068
133	0x3b512ba4	0.003191688
134	0x3b7a76c3	0.003821776
135	0xba889533	-0.0010420441
136	0x3a824b95	0.0009940738
137	0x3b24708e	0.0025091502
138	0x3ab94598	0.001413512
139	0x3bae9f1c	0.005329026
140	0xbad8ccf9	-0.0016540579
141	0x3957e1b7	0.00020588083
142	0x3adab010	0.0016684551
143	0xbaf71c9a	-0.0018853128
144	0xbb9a904b	-0.004716908
145	0x3a5f273f	0.0008512623
146	0xbbb9474d	-0.0056542517
147	0x3bb77df9	0.005599734
148	0xbb9cd087	-0.0047856006
149	0x3a2a972e	0.0006507513
150	0xbbbae29e	-0.0057032844
151	0xba63316d	-0.0008666728
152	0xbb9deddd	-0.0048196153
153	0xbabea5ee	-0.00145453
154	0x3af45d89	0.0018643598
155	0x3aac58b9	0.0013149
156	0xbbd90de1	-0.006623969
157	0x399345f9	0.0002809016
158	0x3bba3486	0.005682531
159	0x3b115e4e	0.0022181454
160	0x3b08bcdd	0.0020864524
161	0x36252366	2.460752e-06
162	0xbb414de0	-0.002949588
163	0x3b942b1e	0.0045217415
164	0x39b26b11	0.00034030576
165	0x3bca048a	0.006165092
166	0x3ba4acdd	0.0050254897
167	0xbafc59fb	-0.001925289
168	0x3b611995	0.0034347523
169	0xbba20811	-0.0049448092
170	0xb8a0ddc1	-7.6706994e-05
171	0xbc01d8e0	-0.007925242
172	0xbba20158	-0.004944008
173	0x3a37ae0d	0.00070068316
174	0x3925ed64	0.00015824061
175	0x3b2f1592	0.0026715738
176	0x3b561a53	0.00326695
177	0x3aa577b1	0.0012624172
178	0x3ae687bd	0.001758806
179	0xbad119a3	-0.0015953075
180	0xbb624a67	-0.003452921
181	0xbadbb061	-0.0016760939
182	0xbb9c432e	-0.0047687506
183	0x3a840100	0.0010071099
184	0xbb6593ea	-0.003503079
185	0xbb112b2c	-0.0022150977
186	0x3a3eaeaf	0.00072739547
187	0xbaaa8619	-0.0013009935
188	0x3ba391f9	0.0049917665
189	0xbb1f66dd	-0.0024322786
190	0x3bcb96d2	0.0062130475
191	0x3b0cbbb4	0.0021474184
192	0xba9eda69	-0.0012119535
193	0xbbc5a090	-0.0060311034
194	0x3a8635ba	0.00102394
195	0xbb935317	-0.004495989
196	0xba93f07d	-0.0011286881
197	0x3c1fe823	0.009759936
198	0xbbc3ff2a	-0.0059813457
199	0x3aa402cd	0.0012513042
200	0x3b99c2ad	0.0046923966
201	0xbb9675ce	-0.00459168
202	0xbb174e32	-0.002308738
203	0xbb227ae4	-0.0024792487
204	0xbb041d89	-0.0020159206
205	0xbb269212	-0.0025416655
206	0xbbe300ca	-0.0069275843
207	0x3b964690	0.0045860484
208	0xbbb4dc0c	-0.0055193957
209	0x3a90dfd5	0.0011053035
210	0x39c4467c	0.00037436548
211	0xb97272ff	-0.00023121758
212	0x3ad6207a	0.0016336583
213	0x3b89d2b3	0.0042060255
214	0xbaef1167	-0.0018239439
215	0x3be77af5	0.007064218
216	0x3a25209b	0.0006299109
217	0xbc5c1965	-0.013433789
218	0xba7d9e9a	-0.00096748176
219	0xbbf248c3	-0.007393928
220	0x3a2e9f43	0.0006661305
221	0x3b952c0c	0.00455237
222	0xbb49341a	-0.003070122
223	0xba10228e	-0.0005498313
224	0xbadf9e23	-0.0017060678
225	0xbb25f26e	-0.0025321501
226	0x3bc394be	0.005968659
227	0x3a07b78b	0.00051771913
228	0x3b24dbee	0.0025155502
229	0x3bed751f	0.007246628
230	0xbba27dd2	-0.0049588466
231	0x3c246ee1	0.010036201
232	0x3b145850	0.0022635646
233	0xb929e748	-0.00016203255
234	0x3b841974	0.0040313546
235	0xbb430e24	-0.0029763067
236	0xbb152664	-0.0022758478
237	0x3a893a82	0.0010469707
238	0xba8aedbc	-0.0010599415
239	0xbb949efd	-0.0045355544
240	0x3b46d923	0.0030341826
241	0x3b7d65ef	0.0038665493
242	0x3bbfb5d0	0.005850531
243	0xbb9516a2	-0.004549817
244	0xbb571363	-0.0032817952
245	0xbbbf65f6	-0.005841012
246	0xbc802b5d	-0.015645677
247	0x3bd41314	0.006472001
248	0xba45aa84	-0.00075403624
249	0x3c06ef29	0.008235731
250	0xbb87827d	-0.0041354285
251	0x3b4bd2ee	0.0031101066
252	0x38980013	7.2479386e-05
253	0x3a6bf731	0.0009001373
254	0x3b29cdef	0.00259101
255	0xbaa0ea89	-0.0012276928

layer3.fc2.bias f4 [84]
0	0x3b81ffdd	0.003967269
1	0x3b8ab7e0	0.0042333454
2	0xbab84e79	-0.0014061473
3	0x3b0f6aef	0.0021883806
4	0x3b7aac4a	0.0038249665
5	0xbb8c2ef2	-0.0042780573
6	0x3c3f4e52	0.011676388
7	0xbc50b00d	-0.012737286
8	0xbc4d1fed	-0.012519819
9	0xbc00ac4c	-0.007853579
10	0x3e1ac57d	0.15114398
11	0x388969db	6.552386e-05
12	0xba372306	-0.0006986115
13	0xbbde7e5a	-0.0067899646
14	0xbc48158f	-0.012212171
15	0xbb60bb39	-0.003429128
16	0x3c46c365	0.012131547
17	0x3c1bc863	0.009508225
18	0xbad07c3a	-0.0015906163
19	0x3c126416	0.008934995
20	0x3b8b653c	0.0042540114
21	0x3c5b552e	0.013387008
22	0xbbca11e9	-0.006166686
23	0xbb95fbdc	-0.004577143
24	0xbc32f678	-0.010923021
25	0xbd2a6421	-0.041599397
26	0x3c5e7c97	0.013579509
27	0xbd17165c	-0.036886558
28	0x3c1457e0	0.009054154
29	0x3c01165c	0.007878866
30	0x3b55c700	0.0032619834
31	0x3b90f171	0.0044233133
32	0xbbe3ca7b	-0.006951628
33	0xbc0b2c06	-0.008494383
34	0x3a40dab5	0.00073568086
35	0xbb7f0896	-0.003891503
36	0x3bb6146a	0.0055566328
37	0x3b644eb4	0.003483695
38	0xbba39f28	-0.004993338
39	0x3c4f2773	0.012643683
40	0x3c1efa99	0.009703302
41	0x3e64d978	0.22348583
42	0x3c205246	0.0097852405
43	0x3b999456	0.0046868725
44	0xbb3460b1	-0.0027523453
45	0xb923a225	-0.00015605295
46	0x3b3fbe65	0.002925777
47	0xba6bca1b	-0.00089946546
48	0xba1ff511	-0.00061018864
49	0xbab8e85a	-0.0014107332
50	0x3b73c2cb	0.0037194963
51	0x3e67f1d2	0.22650841
52	0xbc71a65d	-0.014749137
53	0xbbc39c65	-0.0059695714
54	0xbb579292	-0.003289376
55	0x3aec862d	0.0018045359
56	0x3c5e7923	0.013578686
57	0x3b2bb020	0.0026197508
58	0x3b7f6e22	0.0038975556
59	0x3bb1d8ab	0.00542744
60	0xbc0a553a	-0.008443171
61	0xbba1c6e9	-0.004937042
62	0xba06370a	-0.0005119896
63	0x3b6c5abd	0.0036064826
64	0x3b7d39ea	0.0038639256
65	0x3c56f4dc	0.013119902
66	0x3b875617	0.0041301358
67	0x3c550990	0.013002768
68	0xbc5b15ee	-0.013371928
69	0x3c927710	0.017879039
70	0x3dbb380a	0.09141548
71	0x3c8b2d66	0.016989421
72	0x3bb36465	0.0054746144
73	0x39a9596e	0.00032300822
74	0x3c510200	0.0127568245
75	0x3b2733c4	0.0025513032
76	0xb9a8a740	-0.00032168068
77	0x3ae61501	0.0017553867
78	0x3c7add7e	0.015311597
79	0xbd3386a4	-0.043829575
80	0x3a77bb5d	0.00094502216
81	0x3adecc15	0.0016998077
82	0x3acdf20d	0.0015712396
83	0xbb5f1d03	-0.0034044392

layer3.fc3.weight f4 [10, 84]
0	0xb98f45c9	-0.0002732708
1	0x3a9a1aa4	0.0011757207
2	0x3b4fe2e1	0.0031720924
3	0xbb2bda79	-0.002622275
4	0xbb53f233	-0.0032340407
5	0x3b9b9048	0.0047474243
6	0xbb5087bf	-0.0031819192
7	0x3b85afd4	0.0040797982
8	0x3b5264d9	0.0032103567
9	0x3b10463a	0.0022014515
10	0xbe186bfa	-0.1488494
11	0x3b7a58f3	0.003819999
12	0x3ad132b8	0.001596055
13	0x3894a3a5	7.087671e-05
14	0x3aa5f3eb	0.0012661194
15	0xbbb2906e	-0.0054493463
16	0xbb070a55	-0.0020605524
17	0xbadbbb72	-0.0016764237
18	0xbb9c9b7e	-0.0047792783
19	0xbaa2af76	-0.001241191
20	0xbb44f3ea	-0.003005261
21	0xbb99baae	-0.0046914434
22	0x39dc659a	0.0004203737
23	0x3a88036f	0.0010377
24	0x3972e8d1	0.0002316565
25	0x3c14a564	0.009072635
26	0x3b0c271b	0.0021385613
27	0x3dbf18ee	0.09330927
28	0xbb56580b	-0.0032706286
29	0x3bb49d5a	0.005511922
30	0x3a207ff3	0.00061225815
31	0xbb83e20e	-0.0040247506
32	0x3b59ff20	0.0033263639
33	0xbbcfa3bb	-0.006336657
34	0x3b4f42ef	0.003162559
35	0x39f8958a	0.0004741366
36	0x3b0a4257	0.002109667
37	0x3ab95e64	0.001414251
38	0x3ac5eb44	0.0015100022
39	0xbb88ed3c	-0.004178671
40	0x3aab8b02	0.0013087692
41	0x3b7aa4a2	0.0038245101
42	0xbb359032	-0.0027704355
43	0xbb93bb41	-0.0045084064
44	0xba9e90f5	-0.0012097644
45	0xb885528c	-6.35731e-05
46	0x3c99e7ea	0.018787343
47	0x3b2daa1c	0.0026499098
48	0xbb9098fc	-0.0044127684
49	0x3b751897	0.003739869
50	0xbac07564	-0.0014683423
51	0x3c82f2bd	0.015984887
52	0x3b5456a1	0.0032400268
53	0xba5cfc47	-0.0008429926
54	0x3bdde652	0.006771841
55	0xbb0ff2f3	-0.0021964877
56	0xbb31daa3	-0.0027138374
57	0xbe79ca21	-0.24393512
58	0x3a5d1ca2	0.00084347476
59	0x3a728590	0.000925147
60	0x3b287f63	0.0025710694
61	0xbba197a5	-0.0049314075
62	0xbb8247eb	-0.0039758584
63	0x3b3bbe8e	0.0028647515
64	0x3b55b543	0.003260926
65	0x3c0e8e73	0.008700955
66	0xba3dbd1c	-0.00072379573
67	0x3b82c0db	0.0039902753
68	0x3a48f276	0.0007665524
69	0xbb254d9f	-0.0025223268
70	0xbdd6e929	-0.104936905
71	0xbba5aed8	-0.0050562434
72	0xbb641af2	-0.00348061
73	0x3bc0b1e0	0.0058805794
74	0xba824479	-0.0009938619
75	0xba23d176	-0.00062491687
76	0xbb147030	-0.0022649877
77	0x3ad1cb64	0.001600605
78	0xb980d844	-0.00024575193
79	0x3e049b7d	0.12949939
80	0xbb57f4a7	-0.003295222
81	0xbb9161f7	-0.004436727
82	0xbab9b0ea	-0.0014167104
83	0x3b60a8c3	0.0034280277
84	0xbba3b5da	-0.0049960436
85	0x3b3b3ae3	0.0028569035
86	0xbbb3ffd2	-0.0054931426
87	0x3b7e2ec3	0.0038785196
88	0x3c46683b	0.012109811
89	0xbc2087d9	-0.009798014
90	0x3b855b9f	0.00406976
91	0xbbcae49f	-0.0061918045
92	0xbb632ed7	-0.003466537
93	0xbbb2be2e	-0.0054548
94	0xbc9fbc45	-0.019498954
95	0xba8ea463	-0.0010882731
96	0xbb94a8e1	-0.0045367335
97	0xbbab7c1c	-0.005233301
98	0xbbc0a078	-0.0058785044
99	0x3bd06ba6	0.006360489
100	0x3ba84dcd	0.0051362277
101	0x3b1e90be	0.002419516
102	0x3c17bd95	0.0092615085
103	0x3bddb72d	0.006766221
104	0x3a2c8433	0.00065809785
105	0x3aba4c81	0.0014213474
106	0xbb20c231	-0.002452981
107	0xbb697f18	-0.0035628732
108	0xbacb9f78	-0.0015535196
109	0x3e4ce9e4	0.20011097
110	0xb8e4fb09	-0.00010918646
111	0xbd43a637	-0.047765937
112	0x3a90dd75	0.0011052327
113	0x3b86f2de	0.0041183075
114	0xbbd166a6	-0.0063904105
115	0x3bd7458d	0.0065695704
116	0xbb9e2d6f	-0.0048271935
117	0xba73e463	-0.00093037466
118	0xbb7e1b31	-0.0038773532
119	0xbbaf8aa5	-0.005357104
120	0x3b3f27b3	0.002916795
121	0xbb97a650	-0.0046279803
122	0x3aa0b472	0.0012260808
123	0x3c03218d	0.008003605
124	0xbb447653	-0.0029977753
125	0xbe19c41d	-0.15016218
126	0x3be3dedf	0.0069540585
127	0x3bb19637	0.0054195183
128	0x3b0dccb5	0.0021636907
129	0xbbad3057	-0.0052853036
130	0x3db830dd	0.08993695
131	0xbc0feb93	-0.008784193
132	0x3b51328a	0.0031920993
133	0xbb9e08a1	-0.004822806
134	0x3bb467e0	0.005505547
135	0xbea87424	-0.32901108
136	0xbb601853	-0.0034194186
137	0xbb9fe4d8	-0.004879575
138	0xbb8835b8	-0.0041567944
139	0x3b54812e	0.003242563
140	0x3bf2ceb1	0.0074098934
141	0x3c8f5255	0.017495314
142	0x3985e654	0.00025539345
143	0xbb8f0cb3	-0.0043655275
144	0xbb8aba3a	-0.0042336257
145	0x3b7846f1	0.0037884081
146	0x3afdadfe	0.0019354222
147	0xbab954a3	-0.0014139604
148	0xbab9b452	-0.001416812
149	0xbb20a00c	-0.0024509458
150	0x3bc2a6df	0.0059403027
151	0xbb8d4797	-0.0043115127
152	0xbb508e00	-0.003182292
153	0x3b67c3b9	0.0035364463
154	0xbd7f9b9f	-0.06240427
155	0x3bc339eb	0.005957832
156	0xbbb6474f	-0.0055627
157	0xbc0ab127	-0.008465088
158	0x3bccc656	0.0062492294
159	0x3b4a1fee	0.0030841785
160	0x3a0a4733	0.0005274892
161	0xb9ce3928	-0.00039333967
162	0xbb30338b	-0.002688619
163	0xbdb7ee31	-0.08980978
164	0x3bd2b056	0.0064297123
165	0x3be97b31	0.0071252813
166	0x3a40dcc0	0.0007357113
167	0xbb87e6fe	-0.0041474095
168	0x3c3bde1a	0.011466527
169	0xbb7d10d4	-0.0038614767
170	0xba9837de	-0.0011613329
171	0xbb331ed8	-0.0027331617
172	0xb9950bd1	-0.00028428299
173	0x3b3bfd8a	0.0028685057
174	0xbbd0f5f6	-0.006376977
175	0x3b2eccd7	0.0026672387
176	0xbb05a0aa	-0.0020389953
177	0x3a979b4a	0.0011566665
178	0xbdb3ad4c	-0.08773288
179	0xba86dbb8	-0.001028887
180	0xbb08be28	-0.0020865295
181	0x3a632785	0.00086652517
182	0x3b13fceb	0.002258117
183	0x3b7a19cc	0.0038162349
184	0x3aa58d4a	0.0012630608
185	0xbb7cd771	-0.0038580562
186	0xbba76fc3	-0.0051097586
187	0xbb5a12ed	-0.003327544
188	0x3ae42ee1	0.001740899
189	0x3a5d69ad	0.0008446228
190	0x3b545910	0.0032401718
191	0xba348ba4	-0.0006887263
192	0x3b481179	0.0030527993
193	0xbd555571	-0.052083436
194	0xbbe6ef72	-0.007047587
195	0x3e239e2c	0.15978307
196	0x3b9ff044	0.004880937
197	0xbbeab590	-0.007162757
198	0xbb66a119	-0.0035191237
199	0x3ba3f6fc	0.005003808
200	0x3ba9722f	0.0051710824
201	0x3bdc72e5	0.0067275637
202	0xbb37ff16	-0.0028075627
203	0xb9e3ff2d	-0.00043486935
204	0xbc13cfe1	-0.00902173
205	0x3a1ca8fa	0.0005976107
206	0xbbdc57c6	-0.0067243306
207	0xb9bc921c	-0.00035967014
208	0x3c031136	0.007999709
209	0x3dfe0cd9	0.12404794
210	0xbb7dcbfc	-0.003872632
211	0x3bbd4dde	0.0057771048
212	0x3a2278e8	0.0006197826
213	0x3b9d9aa6	0.0048096953
214	0x3d105178	0.035233945
215	0x3b28f683	0.0025781698
216	0x3b17d762	0.002316915
217	0xba228db9	-0.0006200928
218	0xbbbf17a0	-0.0058316737
219	0x3e23eee7	0.16009103
220	0xb9c9d302	-0.0003849492
221	0x3c150bd6	0.00909706
222	0xbb0bfa64	-0.0021358961
223	0x3ae361a7	0.0017347828
224	0xbb8bb68e	-0.0042637056
225	0x3d04e442	0.032444246
226	0x3a5b5125	0.00083662785
227	0x3b4a6ae0	0.0030886456
228	0x3c40669b	0.011743213
229	0x3bd7c8ca	0.006585215
230	0x39a2b88e	0.00031036552
231	0xbc0c22d6	-0.008553227
232	0xbbbf06b5	-0.005829657
233	0xbbb3c3ef	-0.0054860036
234	0x39f5df08	0.00046896213
235	0x3b44f02e	0.0030050385
236	0x3b5d3860	0.0033755526
237	0x3b2176e1	0.0024637508
238	0xbcc5076f	-0.024051396
239	0x3b8fbf72	0.0043868357
240	0x3bea6cb4	0.0071540717
241	0x3be01e9a	0.0068395855
242	0xba3ab1da	-0.0007121839
243	0xb8bb9fa8	-8.946593e-05
244	0x3bd49e26	0.0064885793
245	0x3a8521ed	0.0010157205
246	0x3c02e1f4	0.007988442
247	0xbe2c8e12	-0.1685107
248	0xbb92b017	-0.004476558
249	0xba28225f	-0.0006413813
250	0xbae8aceb	-0.0017751729
251	0xb9a0d0b9	-0.0003067309
252	0xbc2c94ad	-0.010533494
253	0x3b9da803	0.0048112883
254	0xbbc10af9	-0.0058912006
255	0x3c2fdd7a	0.0107339565

layer3.fc3.bias f4 [10]
0	0xbd36fb03	-0.044672977
1	0xbf005d06	-0.5014194
2	0x3ece62ec	0.40309846
3	0x3f19d1a1	0.60085493
4	0x3e92fe1b	0.28709492
5	0x3d3202a6	0.043459557
6	0xbe02f5fc	-0.12789148
7	0xbe71c31d	-0.23609586
8	0xbec9ed2a	-0.39438754
9	0xbddc6cba	-0.107629254
