output/models_cifar10_150.pth (torch_old, 248636 bytes, 10 tensors)

layer1.conv1.weight f4 [6, 1, 5, 5]
000000 14 a5 43 3c f6 a2 4b be 59 a2 5d 3d 05 5a f7 bd
       0.011941213 -0.19886383 0.054109905 -0.12077717
000010 8f b6 77 bd d8 91 8a 3e 64 54 59 be 68 16 d4 3e
       -0.060476836 0.27064395 -0.21223599 0.41423345
000020 1e d0 b4 bd 5b 29 54 3e e0 4b aa 3d 88 ac fd be
       -0.08828758 0.20718901 0.08315253 -0.49545693
000030 48 8c b6 3e 1b a0 a0 be e7 19 3f bd 84 29 8b 3e
       0.356539 -0.3137215 -0.04665556 0.2718011
000040 2d be f0 be 04 46 02 3f 40 d0 6f be d9 b5 cd 3d
       -0.47020093 0.50888085 -0.23419285 0.1004445
000050 ac f6 51 3e 0b 19 00 bf 90 ea dc 3e 8f 38 3d be
       0.20504254 -0.5003821 0.43147707 -0.18478607
000060 53 03 07 bc 5e 13 09 bb 64 80 91 bc b3 b1 1f bd
       -0.008240539 -0.0020916085 -0.017761417 -0.038987827
000070 11 9c a3 3d fa f0 de bc 8e 86 10 3d 3b 4e fa 3d
       0.07988752 -0.027214516 0.03528457 0.122219525
000080 17 14 db be 3f 89 78 3d 9f 72 48 3e 37 d3 6b bd
       -0.42788765 0.060677763 0.19574974 -0.057574477
000090 3e ff 84 3e 3c 18 bd 3e 12 53 5e bf bc af 7e 3e
       0.25975984 0.36932552 -0.86845505 0.24871725
0000a0 fa 86 89 3d 15 7d df be 4f 34 1f 3f c1 9a da 3d
       0.06715198 -0.43650118 0.6218919 0.10674048
0000b0 cf b2 a5 be 3f e2 9b 3c 95 fc ed 3c 7a 2d 97 be
       -0.32362983 0.019028781 0.029051105 -0.29526883
0000c0 42 0c a1 3e 99 32 89 bd 3f 68 d4 bc fc 15 a7 bb
       0.31454664 -0.06699104 -0.025928615 -0.0050990563
0000d0 f9 31 1e bd b5 9c d8 3d d7 2c 20 3d c3 ae 3e bd
       -0.038621876 0.105767645 0.039105263 -0.046553385
0000e0 a7 50 83 bb 5c 28 fc 3d cd 86 47 3d d5 dd 57 bd
       -0.0040074172 0.123123854 0.04871254 -0.05270179
0000f0 7c 60 92 be c2 05 28 3d 46 61 6f 3e b2 f2 ba bd
       -0.28589237 0.041021116 0.2337695 -0.09128322
000100 1d 57 06 bd 3f b6 b3 be af ff a0 3e 8a 19 3a 3e
       -0.03279792 -0.3509998 0.3144507 0.18173805
000110 aa 6a a3 bd d7 35 5c 3c 2b 69 cc be 3a b0 85 3e
       -0.07979329 0.013440571 -0.39923987 0.26111013
000120 b4 15 3f 3b 0d e5 17 3d ae bc 9e bd e5 c7 bd bd
       0.0029157223 0.037083674 -0.077508315 -0.092666425
000130 81 b4 98 be 16 af af bd ea a7 43 bd 3d 17 73 3d
       -0.29825214 -0.08578317 -0.047767557 0.059348334
000140 b7 d2 6e 3e 69 cf 36 3f 2f b9 a8 3e 8b a2 4f 3e
       0.23322569 0.7141023 0.32953784 0.20276849
000150 3b e1 7b bc a1 8a d7 bd 9e fe bd be d8 d3 3e be
       -0.015373523 -0.10524488 -0.3710832 -0.186355
000160 86 66 9b bd 71 7f ed bc 2f 4c a4 3d 85 ce 65 bd
       -0.07587914 -0.028991433 0.08022343 -0.056105155
000170 9e 86 c4 bd 0d 76 ac 3d 9d 5f 21 3e a1 0e 8f bd
       -0.09595989 0.08420954 0.1575913 -0.06985212
000180 09 de 30 3c 96 2a 6d bd ba f0 9e bd 99 05 a3 bd
       0.010795125 -0.05790194 -0.07760759 -0.07960052
000190 92 06 ae bd c4 ae 4f 3d a6 9b b0 bc 15 86 9c 3d
       -0.08497347 0.05070378 -0.021558594 0.076427616
0001a0 db 7b af bd db 70 44 bc 29 6b 8d 3d f8 f4 72 3d
       -0.085685454 -0.011989797 0.06905205 0.05931565
0001b0 e4 4a e0 bd 36 2b d5 3d f8 97 5d be e8 e2 a1 be
       -0.10951784 0.104086325 -0.21640003 -0.31618428
0001c0 a3 79 98 bd 42 da 47 bc 31 56 84 be 71 1c 38 3e
       -0.07445075 -0.012198033 -0.2584701 0.179796
0001d0 d6 c0 04 3e 1b 7e 19 be 70 4d 9a bd a5 5b 24 3e
       0.12964186 -0.14989512 -0.07534301 0.16050585
0001e0 e0 1b e7 bc bd 32 73 3d f1 e0 00 3e b4 ca 44 3d
       -0.028211534 0.05937456 0.12585808 0.048044875
0001f0 2c 26 b9 bd 59 e6 fb 3c 1e fd 3f be bc fc 89 3e
       -0.09040484 0.030749487 -0.187489 0.26950634
000200 09 c2 fa bc 3b 58 67 bd 88 a5 e7 bd 17 9c b5 3e
       -0.030610101 -0.056480628 -0.113108695 0.3547065
000210 60 98 81 3e 89 a7 02 bf e8 c7 a8 3a d9 d3 15 3e
       0.25311565 -0.5103689 0.001287696 0.14631595
000220 e9 73 98 3e 6d 4e 5b bf 89 b2 61 3d 4c 8a 85 3e
       0.29775932 -0.85666543 0.055101905 0.26082075
000230 06 43 b2 bb 40 40 88 be 3c 56 cb bd 13 b1 06 3f
       -0.0054401187 -0.2661152 -0.09928557 0.52613944
000240 49 e1 34 be 83 ee c8 3d 36 16 fc bd 18 5e 56 3e
       -0.17664064 0.098111175 -0.12308924 0.20934331
000250 da 67 06 be 1c 60 c8 3b
       -0.13125554 0.0061149728

layer1.conv1.bias f4 [6]
000000 3d b6 87 be 94 0d 82 be f2 66 8d be 70 e6 81 be
       -0.26506224 -0.25400984 -0.27617604 -0.25371122
000010 4e ed 83 be 37 93 92 be
       -0.25766987 -0.2862794

layer2.conv2.weight f4 [16, 6, 5, 5]
000000 4c 2d c0 3c 41 4a a7 3b f2 87 fb 3c ae a2 20 3e
       0.0234591 0.0051052873 0.030704472 0.15687057
000010 be 1d 6d 3c f4 24 81 3d 1b 8b 1c bd f4 63 8e 3d
       0.014472423 0.063058764 -0.0382186 0.06952658
000020 1a 7b 28 3d a1 e6 16 3e d0 76 08 bd 36 53 77 ba
       0.041133024 0.14736415 -0.033316433 -0.00094347016
000030 8f 73 4f 3c df 46 2e 3d b2 8b 5d 3d 76 30 03 3e
       0.012661829 0.042548057 0.054088302 0.12811455
000040 8a 0a ae bd c0 9e 7f 3d 39 d4 f7 3d 81 fd 24 bd
       -0.08498104 0.062407255 0.12101025 -0.040280823
000050 75 36 94 be 75 4f 87 be c9 bd 2b bf 2f 57 2f bf
       -0.28947797 -0.26427808 -0.67086464 -0.68492407
000060 ed 3e cc be a3 f8 80 3e 77 8b ea 3d d3 8f 10 3a
       -0.3989176 0.25189695 0.11452382 0.00055145955
000070 ec ee 1d bd 34 f6 e6 3d a7 09 15 3e 11 76 47 3e
       -0.03855793 0.11277428 0.14554463 0.19478633
000080 44 b4 bb 3d af 67 f1 3d 42 25 f2 3d 17 5a af 3e
       0.09165242 0.11787354 0.118235126 0.3424842
000090 39 2e 24 3e a8 c0 03 3e ce 5f c2 3d 39 52 10 3e
       0.16033258 0.12866461 0.094909295 0.14093865
0000a0 75 04 a0 3e db 0c 09 3e d1 ee 4f 3e 0d dc bb 3c
       0.312534 0.1338381 0.20305945 0.022932077
0000b0 b8 10 56 bd 67 8f b8 3e 4b b7 7c bb 56 14 19 be
       -0.052262038 0.36046907 -0.00385614 -0.14949164
0000c0 40 5a 2b be 1c 67 2b bd 8c 6b c9 3d e1 88 24 3e
       -0.16733646 -0.04184638 0.09834966 0.1606784
0000d0 f9 54 b4 bb 50 2f 03 3e a1 69 49 bb 7d a4 89 3d
       -0.0055032936 0.12811017 -0.0030733126 0.06720827
0000e0 45 a8 51 bb f2 82 88 3d 52 0c 71 bd be e4 12 3e
       -0.0031991166 0.06665601 -0.05884964 0.1434507
0000f0 c3 c3 17 bd 2a 07 7d bd 74 5d 1a 3d 3b 2b 94 3d
       -0.037051927 -0.06177441 0.03768678 0.07234808
000100 83 6f ab bc bf 90 77 be 00 6c a1 3c 1f fa d0 bd
       -0.020927196 -0.2417631 0.019704819 -0.10203957
000110 5d 52 c7 3d 2f 16 d5 3d 07 76 c1 bd f2 bf 8c be
       0.097325064 0.10404622 -0.0944634 -0.27490193
000120 ca 9e e6 be 1c c4 da be 49 d9 50 be 25 5b a1 3e
       -0.4504302 -0.42727745 -0.20395388 0.3151485
000130 f9 91 e2 bd a6 aa ad bd 46 6e 9e bd 93 b1 2b 3e
       -0.11062998 -0.08479814 -0.07735877 0.16766958
000140 1c 5e 3d 3e a3 37 aa 3c ab b6 39 3e af 11 b5 3c
       0.18492931 0.020778483 0.18136089 0.022103159
000150 0c ed fc bc 08 d1 a5 3d 4a 7f 85 3e 73 02 f8 3d
       -0.030874752 0.0809651 0.26073676 0.12109842
000160 01 2e 55 3e 33 9b 81 bc 4a 1a 1d be 77 e0 53 3e
       0.2081833 -0.015821075 -0.1534206 0.20691095
000170 55 b9 0b 3e d7 53 71 3e 2f 96 5d bd 16 32 b4 bd
       0.13644917 0.23567139 -0.054098304 -0.08798616
000180 99 fc 64 3e bb de 81 3e 77 e7 85 3e 66 f5 b4 3e
       0.22361983 0.25365242 0.26153156 0.35343474
000190 9a a1 6b 3e 7b 0a 3c bd c7 30 7e 3c a2 17 99 3d
       0.23010865 -0.045908432 0.015514559 0.07475211
0001a0 ac f4 08 3e b3 f4 bf 3e 0b 56 80 3d 64 dc 33 3e
       0.13374585 0.37491378 0.062664114 0.17564541
0001b0 58 13 4e bc 5d 23 57 3e 79 5a ae 3e ba 45 5c 3d
       -0.012577854 0.21009584 0.340534 0.053777434
0001c0 e8 87 80 3e d3 6b 71 3d 6f c2 9f 3e 4b d5 f8 3d
       0.25103688 0.05894072 0.3120303 0.121500574
0001d0 a4 6e 20 3e 0f ef 05 3f 3c 13 91 3e cf 16 46 bc
       0.15667206 0.523179 0.28334987 -0.012090399
0001e0 3e 7e 6b be a8 12 0c 3f dd 54 0d 3f 32 1b fc 3d
       -0.22997376 0.5471597 0.55207616 0.123098746
0001f0 39 bf 73 be 37 5e 35 bd 0c 2f a9 bd c7 bc 9b 3d
       -0.23803414 -0.044279303 -0.082609266 0.07604366
000200 dd 37 79 3d 69 7a b0 3d 35 67 ea bc 19 70 26 be
       0.06084429 0.08617098 -0.028613666 -0.162537
000210 7b 8d e9 ba df 50 39 3e 5c 23 99 3e 3d 2c 35 3d
       -0.0017818654 0.18097256 0.2990979 0.044231642
000220 32 45 be bd fd a0 88 3d 3a da 08 3e d2 6b 55 3e
       -0.09290542 0.06671331 0.13364497 0.20841911
000230 bc c8 9d bd 5b 26 fd 3c f9 90 85 bd 5b 43 dc 3d
       -0.07704303 0.030902078 -0.06521792 0.107550345
000240 ab 30 a4 3e 8f 9d 4b 3d 26 6b 87 3d 1f 00 2c be
       0.3206838 0.049710806 0.06612234 -0.16796921
000250 91 c2 59 3d 5c 07 60 3e 58 a1 5a bd c8 81 a7 3d
       0.05316407 0.21877807 -0.053376526 0.08179051
000260 26 6d ff 3c ef f1 11 3e f5 1b f9 bd d6 e5 bd 3d
       0.031179976 0.14252447 -0.121635355 0.09272353
000270 59 af aa bd c0 8b b4 3d 3b 67 50 be fa a6 fd bc
       -0.08334226 0.08815718 -0.2035188 -0.03096341
000280 09 b1 21 3e 40 77 ad 3e dd 78 4c be a9 dd 1b bd
       0.1579019 0.33880043 -0.1996798 -0.03805319
000290 e1 fd a0 3c 5a b2 4d be 5d bd 98 be 4e fa ec 3d
       0.019652309 -0.20087567 -0.29831973 0.11571179
0002a0 af a3 f1 3a 35 c6 46 be 2e 2b ca bd 52 d6 c9 3d
       0.0018435622 -0.19411547 -0.09871517 0.098553315
0002b0 0b 50 aa be 40 5b ba be d2 59 06 be c4 ef 11 3e
       -0.33264193 -0.36397743 -0.13120201 0.1425162
0002c0 b4 b8 3e 3e 73 29 12 3e 2c 19 93 3e 17 d0 9c 3d
       0.18625146 0.14273624 0.28730142 0.076568775
0002d0 93 22 10 3e fe 27 18 3e 80 77 71 be a5 6a b2 3e
       0.14075689 0.14859006 -0.23580742 0.34846988
0002e0 5a 09 29 3e 6f fa 5c be 89 91 94 3e de cf e8 be
       0.16507474 -0.21579908 0.29017285 -0.4547109
0002f0 44 de 43 3e 48 15 6b 3c 1d 70 98 3c 13 be 03 be
       0.19127756 0.014348336 0.018608147 -0.12865476
000300 f2 b6 d1 be 5c e1 02 bf 6f 76 c3 3d 8f df 9a 3e
       -0.4095989 -0.5112512 0.09544074 0.30248687
000310 d1 7c a4 3e 08 eb 06 3f 64 df 66 bd b5 8f dc be
       0.32126477 0.5270238 -0.056365386 -0.4307839
000320 b3 1a f5 bc 57 eb 85 3d 5c e4 16 3e ee 47 65 bd
       -0.029919958 0.06539028 0.1473555 -0.0559768
000330 97 ea aa 3d df e1 a0 3d 16 23 95 be aa 0a b7 3d
       0.08345526 0.078555815 -0.2912833 0.08937581
000340 32 94 10 3e 4f e7 9e be ed 0d 05 3e 9b 95 b4 3e
       0.14119032 -0.3103585 0.12993594 0.3527039
000350 54 ff 77 be 02 da 21 3f f9 b3 9f 3c e9 ec 07 3c
       -0.24218494 0.6322328 0.019494997 0.00829623
000360 3e 5f 3f 3e 9c 84 85 3e 3c 35 8c 3e aa 99 7c 3e
       0.18688676 0.26077735 0.27384365 0.24667993
000370 bf 59 d3 3d dd 5f bc bd c9 03 4c 3d cf a5 ef bb
       0.10319852 -0.09197972 0.049808297 -0.007313467
000380 51 2c 89 3e e9 e0 1a 3d 59 cc 90 3d 4f 45 d7 bd
       0.26791623 0.037812147 0.07070226 -0.105112664
000390 5e 25 d3 bc 32 96 f5 3d b7 5b 4b bd 07 fb a7 3d
       -0.025774654 0.11991538 -0.049648013 0.082021765
0003a0 38 80 51 be d9 19 64 be 33 c6 38 3e d3 b1 83 be
       -0.20459068 -0.22275485 0.18044357 -0.25721607
0003b0 ea 7a e4 bd bc b4 b9 bd 0a 75 7b be ed 86 c1 bd
       -0.111562565 -0.090676755 -0.24556366 -0.09449563
0003c0 b9 9f 83 3d aa 7a 56 be 62 56 07 be 56 2d 46 be
       0.06426949 -0.2094523 -0.13216546 -0.19353232
0003d0 fd dc 7c be 70 75 15 3e a8 c0 c6 bd 91 9f 6a bd
       -0.24693675 0.1459558 -0.09704715 -0.05728108
0003e0 64 f0 42 3e c2 1c 7d be a2 ce f4 3d 64 2c 1a 3e
       0.19037014 -0.24718001 0.119534746 0.15055996
0003f0 67 4a c8 be b6 e1 b8 bd 93 a6 30 3e da 9a 56 be
       -0.39119264 -0.09027426 0.17251043 -0.20957509

layer2.conv2.bias f4 [16]
000000 b8 e9 03 bf 32 74 2a bf 69 a0 0f bf 09 ca d8 be
       -0.515285 -0.6658355 -0.5610414 -0.4234164
000010 38 6f 18 bf bc d9 e3 be a8 56 df be 19 cd 98 be
       -0.59544706 -0.44502056 -0.436208 -0.29843977
000020 18 c0 22 bf c0 87 06 bf 07 c5 cf be ea d5 ab be
       -0.6357436 -0.5255089 -0.40580007 -0.3356164
000030 48 49 8d be 0d 36 04 bf b3 91 03 bf 5f 06 ba be
       -0.27594972 -0.51644975 -0.51394194 -0.36332986

layer3.fc1.weight f4 [120, 400]
000000 0c 20 54 3c d1 58 0a 3b 74 a3 8d bb 70 d2 fe 3b
       0.012947094 0.0021110068 -0.0043224636 0.007776551
000010 47 b1 b2 3b 65 1c 90 bb 83 26 c1 bb b7 c0 8d 39
       0.005453262 -0.004397916 -0.0058944835 0.000270372
000020 c3 e4 71 3b b3 e1 68 bc 2e b6 99 3c 6c 85 b6 3b
       0.0036910034 -0.014213967 0.018763628 0.0055701043
000030 45 6d 82 3b ae 55 ca bb 4e f2 42 3c 3e 43 f8 bb
       0.003980311 -0.0061747646 0.01189859 -0.0075763753
000040 73 da c1 bb 34 6c 81 3b ac ce 56 3c 12 e3 1a 3d
       -0.0059159338 0.0039496664 0.013110798 0.037814207
000050 f6 0e c6 bb b4 77 10 bb eb 3a a8 3c 70 ee 41 bb
       -0.006044264 -0.0022044005 0.020535907 -0.0029591583
000060 c3 08 1b 3c 36 d9 22 bc 16 3b ad 3c c2 7d 9c bc
       0.009462538 -0.009939482 0.021146338 -0.019102935
000070 77 c1 03 bc 4b 61 98 3c ed af cf bc b7 96 91 3c
       -0.008041731 0.01860108 -0.025352443 0.017772062
000080 a7 d3 29 b8 0a c7 ce 3b c5 b4 86 3c 0a 43 b2 3c
       -4.0489856e-05 0.0063103484 0.01644362 0.021760482
000090 6f 4a 06 3c 0f fa 59 bd ab fd 98 bc cd a6 b7 3c
       0.008196457 -0.05321699 -0.018675646 0.022418404
0000a0 23 d9 96 bc 2b dc 07 3c 43 a8 17 ba dd d4 9d bc
       -0.018414086 0.008292238 -0.0005785266 -0.01926654
0000b0 00 3f b9 bb a2 fd 09 3c 6d 83 03 3c 83 4d 73 bc
       -0.005653262 0.008422287 0.00802694 -0.014850023
0000c0 ea d3 a5 3b fe 49 54 bc c1 f6 29 bb 2a 81 ad 3b
       0.0050606625 -0.012957094 -0.002593443 0.0052949386
0000d0 63 fb 84 3b 41 40 8c bc a7 91 9c 3b e0 7b 5b bc
       0.004058288 -0.017120482 0.0047781053 -0.013396233
0000e0 27 06 ba bb ca 73 e4 3c 61 c1 a9 3a f7 44 e1 bc
       -0.005677003 0.027887244 0.0012951308 -0.027498705
0000f0 06 bd 04 3d 38 bc 46 bc eb d5 86 3c 3b b3 93 3c
       0.03240683 -0.012129836 0.016459426 0.0180298
000100 45 b7 b1 bc 14 35 35 3c 9e 51 a0 b8 81 8b 88 bc
       -0.021693835 0.011060018 -7.644597e-05 -0.016668083
000110 c9 1d ca 3b dc 51 9d bb a9 58 f8 ba d5 37 07 bc
       0.0061681014 -0.004801018 -0.0018947321 -0.0082530575
000120 c8 dc e2 ba bb 1f 17 bb d2 06 ae bb 44 a0 b4 bc
       -0.001730823 -0.0023059684 -0.0053108716 -0.022049077
000130 3a bb e9 bb ab 5c 4f bc 0d de 1c 3c 6f 35 6c 39
       -0.007132915 -0.012656371 0.009574425 0.0002252662
000140 5f 01 59 3c cf 82 c6 bc e6 8d e6 b9 d9 f5 98 3c
       0.013244956 -0.024232296 -0.0004397474 0.018671917
000150 15 03 51 3b b8 e1 0e 3c 7c 48 03 bc b6 53 44 bc
       0.0031892706 0.008720808 -0.008012887 -0.011982849
000160 81 88 3d 3c d7 df ca 3b 83 05 c0 bb 55 c2 25 bc
       0.01156819 0.0061912346 -0.005860032 -0.010117133
000170 29 1a 09 bc 82 e3 80 38 97 6c 21 3c f6 c3 7e b9
       -0.0083680535 6.145892e-05 0.00985255 -0.00024296329
000180 07 d1 9e 3b de 42 0f 3c df a5 83 bc f1 b4 3f 3b
       0.0048466953 0.00874397 -0.016070304 0.0029252137
000190 f9 f4 14 3d a5 e2 92 3c a0 05 97 bc a5 89 95 b9
       0.036366437 0.017930338 -0.0184353 -0.00028522048
0001a0 e2 68 8f 3b fc a2 e8 bc 88 2b b7 3b a5 dc f9 bc
       0.0043765167 -0.02839803 0.005589906 -0.03050072
0001b0 a8 dd 36 bd f3 fc fa 3a cf cb f8 bc d7 b2 9b 3c
       -0.04464498 0.0019148871 -0.030370621 0.019006176
0001c0 8d 16 46 3b d7 33 1f 3c 85 2a 91 3c 28 99 33 bc
       0.0030225844 0.009716949 0.01772047 -0.010961808
0001d0 3f 88 99 bc de bf e6 bc 57 e3 d4 bc 18 48 6b 3c
       -0.018741725 -0.028167661 -0.02598731 0.01436045
0001e0 05 67 89 3c 17 09 be 3c 2c bf dc bb 03 4a cb 3a
       0.016772756 0.023197694 -0.0067366567 0.0015509728
0001f0 ec 0e c1 bc 2b 92 bc bc 35 51 fc 3a 95 7f 92 bc
       -0.023566686 -0.023018917 0.0019250276 -0.017883101
000200 b8 a5 e4 3c aa c0 8e 3b e3 fb 97 bb 4c 59 4f 3c
       0.027911052 0.0043564634 -0.0046381815 0.012655567
000210 f5 01 e1 bb 02 c8 d7 3a 48 35 07 bc 54 ec b5 3c
       -0.0068666884 0.0016462805 -0.008252449 0.022207417
000220 c3 4a ce 3c be 31 a8 3c fc 6b 1f bc 50 54 7f bc
       0.025182134 0.020531531 -0.009730335 -0.0155840665
000230 19 4d c7 bb 55 20 13 3c 49 16 7d 3c dc 15 a4 3b
       -0.006082189 0.0089798765 0.015447208 0.0050074887
000240 01 f1 30 3a f0 b3 20 3c ba 50 91 3b 55 13 41 bc
       0.00067497796 0.009808525 0.004434672 -0.011784394
000250 ba 7c 39 3d 2a 0a 1d 3c 76 b0 06 bc b9 ff 8a 3c
       0.045284964 0.009584943 -0.0082207825 0.016967641
000260 12 16 df 3b 5e 10 7e bc 88 7e d7 3b 2f 03 bd 3b
       0.006808051 -0.015506832 0.006576363 0.005768202
000270 69 9c f6 3c 64 9c 6f ba 2d 2a e9 3c af 4b be bc
       0.030103879 -0.00091404305 0.028462494 -0.023229448
000280 27 90 b2 3c 08 82 c0 3c 56 54 88 3b 6d 3c 00 bd
       0.021797253 0.023499504 0.0041604443 -0.031307627
000290 dc c9 0c bc ea 22 8a 3b 8c 25 8b 3b 1f d1 3f bb
       -0.008593049 0.004215588 0.0042464193 -0.0029268933
0002a0 b0 ab a2 bb 47 96 af bc 8b df d9 bb d6 e8 fd bc
       -0.0049643144 -0.021433963 -0.006648963 -0.030994814
0002b0 22 c0 29 bc cf 69 ed ba 13 48 99 bc 17 f8 9c ba
       -0.010360749 -0.0018113198 -0.018711125 -0.0011975792
0002c0 e0 1e f2 bb aa 74 75 bb 23 cb 7b 39 a5 e4 07 3b
       -0.0073889345 -0.003745357 0.000240129 0.0020735648
0002d0 ea 0a 21 3c 9e c9 61 3c 83 8a 0d 3b 10 6a 81 bc
       0.009829262 0.013780979 0.0021597452 -0.015797645
0002e0 87 db bb bc 54 78 43 3c a0 f9 85 bc b5 48 10 bb
       -0.022931827 0.011930544 -0.016354382 -0.0022015993
0002f0 41 bb f3 3c c8 b1 f4 3c 16 63 03 3c 65 d8 43 3b
       0.029752376 0.029869929 0.008019229 0.002988362
000300 91 b1 03 bb 68 8d 32 bb 70 88 1d 3c a1 91 8b bb
       -0.0020094851 -0.002724493 0.009615049 -0.0042593037
000310 b0 78 13 3c 49 bb d5 3c f5 20 d2 3c 81 1c 22 3b
       0.009000942 0.026090281 0.02565048 0.0024736228
000320 4b 60 f8 bb 9f 79 8d 39 c4 a1 d8 3b af 3b 88 3c
       -0.0075798384 0.0002698423 0.006611081 0.016630022
000330 1f 7a e6 bb e6 4f f1 3b 4b 55 0a bc 02 b7 a6 bc
       -0.007033601 0.007364261 -0.008443187 -0.020350937
000340 32 cc 2e 3b dd 01 07 bc bb a8 03 3d 20 28 f4 3c
       0.0026672003 -0.00824019 0.032143336 0.02980429
000350 86 eb c8 b9 1a 26 1a 3c cc 40 be bb ca 54 f8 bc
       -0.0003832245 0.009408498 -0.0058060642 -0.030313868
000360 10 b4 f9 3a 2b 43 1c bc 1c 7a 3d bc ee 9e 14 bc
       0.0019050855 -0.0095374985 -0.011564758 -0.009071095
000370 cd 69 06 3d d5 03 22 3c 8d 0c cc 3b c0 3f bb bc
       0.032815743 0.009888609 0.006227082 -0.022857547
000380 14 d9 87 bc aa ab 01 3c f9 3d f1 b9 c5 b5 91 3a
       -0.016583003 0.007914463 -0.00046013275 0.0011116794
000390 29 97 e6 3b 91 fb 3b 3c 97 2f ec 3c d5 ff 79 39
       0.0070370627 0.011473552 0.028831286 0.00023841795
0003a0 25 49 b6 bb 53 93 4d 3a 3f b7 00 3a 84 2a a4 bc
       -0.0055629187 0.00078420824 0.00049101183 -0.020039804
0003b0 c0 09 4a bb 6c ed 66 3c 61 6d 0b 3d 77 b2 7b 3c
       -0.0030828565 0.014094692 0.03403986 0.015362374
0003c0 54 fd 13 3c 4e 29 0c bc 81 89 42 bc 3b b4 c4 3c
       0.009032566 -0.00855477 -0.011873604 0.024011722
0003d0 22 c5 2e ba 6a da 4d 3b e5 ce 32 3b 6c 4d f8 3a
       -0.00066669483 0.0031410703 0.0027283963 0.0018943972
0003e0 d9 15 c2 bc c5 12 b5 bc 3d 00 68 39 1e ab f5 bc
       -0.023692058 -0.022103677 0.00022125333 -0.029988822
0003f0 51 71 4e bc 63 bb 30 bb bf 1b 9b 3b a8 f7 e8 3c
       -0.012600259 -0.002696716 0.004733532 0.028438404

layer3.fc1.bias f4 [120]
000000 c6 03 0d bc 8a 80 46 3c 4c 71 6b b9 c7 53 89 bc
       -0.008606857 0.012115607 -0.00022453553 -0.016763581
000010 a8 fc b4 3b 3b 24 00 bc 2e 64 53 3c ba b0 b5 bc
       0.005523283 -0.007821138 0.012902303 -0.022178996
000020 16 52 2e bc ec aa 65 3c 11 7d e2 3c f4 38 e2 3b
       -0.010639688 0.014017802 0.027647527 0.006903762
000030 4b 3d bb 3d e6 74 92 3c 37 fe e9 39 ee 3e 59 bc
       0.0914255 0.017878007 0.00044630628 -0.0132596325
000040 41 70 4f bc 76 49 d3 bb 02 95 66 3c 24 f7 d8 3a
       -0.012661041 -0.006447966 0.014073612 0.0016553146
000050 92 4c 07 3b df 97 93 3b 25 78 ab 3c 22 67 7b 3c
       0.0020645005 0.0045041884 0.020931313 0.015344413
000060 84 b8 33 3b c3 73 01 3d 8f 79 a2 3b e5 72 66 bc
       0.0027423212 0.03160454 0.0049583386 -0.014065479
000070 e0 f9 a4 ba f0 d1 8f bb 9e fd 4f bc ea bf 25 bc
       -0.0012586676 -0.00438904 -0.012694744 -0.010116557
000080 ea 7f 7a 3e 4e b0 b5 bc 2d 4b 89 3c d4 0f 34 bb
       0.24462858 -0.022178795 0.01675948 -0.0027475255
000090 70 1b 5f bd 98 6f 8b be ce 8f 92 bc 58 0e da 3b
       -0.054469526 -0.27233577 -0.017890837 0.006654542
0000a0 34 be 9d bb 81 3a 83 bc e1 a8 be bc 96 3f 08 3e
       -0.0048139337 -0.016019108 -0.023273887 0.13305506
0000b0 0e 7f 3f bc 72 ad 5e 3c 3b 5e d1 bb 36 bd 19 bc
       -0.011688007 0.013591157 -0.006389407 -0.00938349
0000c0 99 c8 ac bc 00 7f 27 b9 63 43 2d 3b bd b4 9f ba
       -0.021091746 -0.00015973672 0.002643787 -0.0012184602
0000d0 ce c1 03 3d 95 d7 e8 bb 4a 8f 8c bc 5c 6b 23 bc
       0.03216725 -0.0071057775 -0.01715817 -0.009974327
0000e0 22 fe c9 b9 50 ee 37 bc a9 14 24 3c 26 78 10 bc
       -0.0003852705 -0.011226252 0.010014691 -0.008817708
0000f0 ed 3a f7 bb 74 34 89 38 86 37 d8 bd 2b f8 0f 3e
       -0.0075448663 6.542439e-05 -0.10557465 0.14059512
000100 9a c9 7f bd 3d c6 f1 3a 69 bf 6e 3c c4 2b 46 b9
       -0.06244812 0.001844592 0.014572003 -0.00018899055
000110 7e 62 16 3b d0 e2 41 bc 57 a5 b2 bb 72 79 8c 3b
       0.002294689 -0.0118338615 -0.005451839 0.0042869383
000120 8f f8 e2 3c 4c 92 19 3c 27 85 d9 3c 3e 51 ea 3b
       0.027706413 0.009373259 0.02655275 0.007150798
000130 0c 94 84 3c 5b 83 56 3b 18 18 00 bd 89 82 da 3c
       0.016183876 0.0032732103 -0.031272978 0.026673572
000140 58 49 a4 bc 76 83 ba 3c 6b b3 24 3c 69 42 bc 3b
       -0.020054504 0.022767764 0.010052542 0.0057452214
000150 c6 8b a0 39 8c d8 0a bc 08 6f de 3b 2f f0 e1 bb
       0.00030621717 -0.00847448 0.0067881383 -0.006895087
000160 ad e5 b9 3a 14 1d b2 bb f3 60 47 bc 39 ab 75 3b
       0.0014182829 -0.0054355953 -0.012169111 0.003748609
000170 10 22 b0 ba 53 99 a3 3b c6 b4 16 bb 90 a1 17 bd
       -0.0013437886 0.004992643 -0.0022995933 -0.037019312
000180 b7 e4 92 3c bf 56 19 3b bc 43 fe 3d 8c ff ba 3b
       0.017931325 0.0023397652 0.12415263 0.005706733
000190 08 34 81 3a 1b 03 25 bb 28 4a d6 ba 48 c9 1c 3b
       0.0009857425 -0.0025178853 -0.0016349005 0.0023923684
0001a0 93 df b4 bb a3 5d cd bc 1e b7 17 bc 68 90 ab 3b
       -0.005519816 -0.025069064 -0.009259967 0.0052357204
0001b0 17 ce c9 3c db 5e 97 3c 03 02 1d bd dd c0 3a bb
       0.024634404 0.018477848 -0.038331997 -0.0028496303
0001c0 ae 92 d5 3e 61 27 85 39 51 4b 6b 3b cd 9b 40 bb
       0.4171347 0.00025397076 0.0035903046 -0.002938974
0001d0 f3 10 5c 3c 67 c6 84 bc e5 20 a4 3c ef 5b 90 3e
       0.013431775 -0.016207887 0.020035217 0.2819514

layer3.fc2.weight f4 [84, 120]
000000 7c 5c 23 bc 6a 02 01 bc bf 07 66 3c 4f f6 d4 bb
       -0.00997078 -0.007874111 0.014039933 -0.006499089
000010 fc 14 0b 3b 0c 3c 13 bc da 50 ec bb 77 c7 9c b9
       0.0021222224 -0.008986484 -0.0072117867 -0.00029903252
000020 dd 6f 2f ba 4d 03 1d bc cf 65 04 bc 35 e5 9f bb
       -0.0006692389 -0.0095833065 -0.008080914 -0.0048796185
000030 4d 4f bb bb b5 c6 5b bb 3c bb a9 bb f7 55 a1 bc
       -0.0057162405 -0.0033535187 -0.005179791 -0.019694312
000040 40 fb 06 bc 14 df 1f 3b 35 e5 c8 3b 93 9a 4b bc
       -0.008238614 0.002439444 0.006130839 -0.01242699
000050 79 d2 33 3c 91 05 bd 3b 1c 6b 9b bb 3e 81 c1 3b
       0.010975474 0.005768486 -0.004742993 0.0059052994
000060 ee 27 74 3b 18 58 9b ba 06 29 12 ba ce df 9c bb
       0.0037255245 -0.0011851816 -0.0005575571 -0.004787422
000070 be 71 dc ba e4 ed 03 3c 20 cd 4c 3b 3a 9e e4 3b
       -0.0016818566 0.008052323 0.0031250194 0.00697687
000080 a1 41 5f 3c f5 b2 14 bc f7 cd 78 ba ac 1a 63 bb
       0.013626487 -0.00907587 -0.00094911404 -0.003465335
000090 1e 0b a0 3b 38 a2 8c 3b 9d f5 c7 bb 03 74 14 3c
       0.004884138 0.004291799 -0.0061022774 0.0090608625
0000a0 65 96 6c 3b 07 e2 29 ba 85 e3 b3 3b 01 b4 cb 3b
       0.0036100384 -0.0006480519 0.005489769 0.0062165265
0000b0 3d 89 83 3a 8e b3 de ba eb ff 81 ba 26 21 9d bb
       0.0010035407 -0.0016990767 -0.0009918188 -0.0047952114
0000c0 90 b6 91 3b c8 0a 8a bc a1 dd 06 3b b4 b3 69 ba
       0.004446812 -0.016850844 0.0020578878 -0.00089150225
0000d0 53 e6 ac ba 90 2d eb 3b d0 ea 3a bc 07 45 0f 3c
       -0.00131912 0.0071770623 -0.011408523 0.008744485
0000e0 6b f4 36 bb 21 eb c0 3b d9 0c 5d 3b 8d 55 50 bc
       -0.002791668 0.0058874045 0.0033729582 -0.012715709
0000f0 2b 77 29 3b 8a 39 4a bb 62 45 87 3c ed 51 b8 ba
       0.0025858383 -0.003085705 0.016512576 -0.0014062502
000100 93 79 07 3c 75 47 27 bb 3d 50 1b bc 0d db 5e ba
       0.008268732 -0.002552477 -0.0094795795 -0.0008501269
000110 21 74 96 bb 17 c0 c8 bb 1c f1 89 b9 85 7f 87 bb
       -0.0045914804 -0.0061264145 -0.00026310317 -0.0041350746
000120 54 4e 2d 3c 28 22 63 3c cf 3b 1a 3c e7 45 2c 3c
       0.010577757 0.013863124 0.009413674 0.010514713
000130 ca 78 92 bb 95 a3 d1 bb 3b da 08 bb a4 60 d9 3c
       -0.0044699656 -0.0063976743 -0.0020882029 0.02653534
000140 8a 8c a8 3b 9b 01 cb 3b 17 5d 10 3b e1 09 46 3c
       0.0051437067 0.0061952597 0.0022028142 0.012087316
000150 3a 0e 52 3c fb 5d 96 bb 04 d7 c7 bb f6 60 a6 3b
       0.012820775 -0.00458884 -0.00609863 0.0050774766
000160 bc 49 b8 ba 38 96 c2 bb aa 60 13 bc ef ec c5 3a
       -0.001406006 -0.0059383176 -0.0089952145 0.0015100519
000170 f0 83 0b bc 84 c9 e0 3b 67 83 8f bb ba cb 21 bb
       -0.008515343 0.00685996 -0.004379678 -0.002468808
000180 7c 20 c2 ba 74 13 c9 bb 41 f5 0e 3b 62 c1 1f 3c
       -0.0014810706 -0.006136352 0.0021813663 0.009750696
000190 60 2e 65 3b 1e f4 d5 bb a9 c1 df 3b 12 8f 74 bb
       0.0034970269 -0.006529345 0.006828506 -0.0037316722
0001a0 0c 79 38 bb d5 88 b6 bb bb 10 c7 3a 19 2e 42 3c
       -0.0028148321 -0.005570511 0.0015187481 0.011851811
0001b0 4a ae a3 3a 7a 30 52 bc 5b 73 21 3b 3d 44 81 bb
       0.0012487855 -0.0128289405 0.0024635408 -0.003944902
0001c0 c8 ab 33 3c 21 f7 cb 3b 66 a2 1a 3c 63 75 bc bb
       0.010966249 0.0062245284 0.009438133 -0.0057512983
0001d0 df 37 8a 3b 51 fc 96 3c 34 bd 07 ba 4c ea 4b bc
       0.004218086 0.01843086 -0.0005178035 -0.012445997
0001e0 0f af 2d 3c 05 85 33 3c b7 0c ac 3b 6f a5 35 bb
       0.010600819 0.010957007 0.005250539 -0.0027717014
0001f0 ca b5 39 bb db a7 8d bb b4 f7 0b ba 20 8b 0c 3c
       -0.0028337114 -0.0043229884 -0.000533934 0.008578092
000200 33 8c ec 3b 9d c3 9e bb 23 2a 45 bb fd a4 f5 bb
       0.0072188615 -0.0048450963 -0.003008493 -0.007496475
000210 35 b1 25 3c 08 10 4e bc 4a 22 f6 bb 18 51 6f bb
       0.01011305 -0.012577064 -0.007511412 -0.0036516842
000220 b2 3d 0f 3a 89 89 0a 3c f2 e8 05 bc 87 1c 3e 3a
       0.00054642104 0.0084556425 -0.008173214 0.0007252176
000230 75 64 e4 3a 87 27 07 b9 ca 6d 34 bc 34 c3 a3 bb
       0.0017424958 -0.00012889328 -0.011012504 -0.0049976353
000240 e3 3b e5 bb fc 4b 12 bc f0 ff 4c 3b 94 21 13 3c
       -0.0069956644 -0.008929249 0.003128048 0.008980174
000250 c3 8d 5b 3c b2 d2 ee 3b 58 de ef 3b b4 1e 99 3a
       0.013400498 0.0072883004 0.0073202066 0.0011682124
000260 4a ce 78 ba 46 ab 66 3c 03 5b 97 bb 5c 7c 3e bc
       -0.00094911887 0.014078921 -0.0046190037 -0.011626329
000270 c5 ea 71 39 8d d8 25 3b 25 36 76 bb 2f c0 91 3a
       0.0002307101 0.0025306076 -0.0037568894 0.0011119897
000280 ea 4d 96 bc b5 53 6b 3b ed 32 08 3c 0f 74 14 bc
       -0.0183477 0.0035908048 0.008312923 -0.009060874
000290 98 4a a3 bb f5 68 12 bc 5f 04 7a 3c 17 0e 4f bc
       -0.0049832575 -0.0089361565 0.015259831 -0.012637637
0002a0 21 75 9a b8 74 63 28 3c bf ed 99 bb 3d 42 4b bc
       -7.365109e-05 0.010277618 -0.004697531 -0.012405929
0002b0 cf 71 9b bb 86 c7 d2 bb 51 7e a1 3c ec c2 87 bb
       -0.0047437917 -0.0064324765 0.019713553 -0.0041431095
0002c0 22 4b 24 ba 0a 7e 21 bc b1 c7 92 bc 0d b4 f1 3a
       -0.0006267299 -0.00985671 -0.017917486 0.00184405
0002d0 90 cb b6 3b 55 68 33 3c c4 ae 14 bc 20 c7 dc 3b
       0.0055784658 0.010950168 -0.0090748705 0.0067376047
0002e0 6f 0d a6 bb bf 07 c1 bb e2 23 0a bb af 7a 1b bc
       -0.0050675194 -0.005890816 -0.0021078517 -0.009489699
0002f0 dd ba da 3b 94 dc 3f 3c 00 52 6a 3c 80 82 2c bc
       0.006675108 0.011710305 0.014301777 -0.0105291605
000300 8e 4b 04 bc d2 62 13 bc 82 69 db bb c5 75 31 bc
       -0.008074654 -0.008995729 -0.006695927 -0.010831301
000310 51 11 81 3a c9 9b 52 bc 4c d8 90 3b c7 ea c2 3b
       0.000984708 -0.012854525 0.004420316 0.005948398
000320 4b 8c 50 ba c3 39 9a bb 30 0c aa bb 87 1a a2 3b
       -0.00079554756 -0.0047065928 -0.005189441 0.00494701
000330 b2 38 03 bc 44 87 66 3b 16 98 cf bb 65 b9 94 3a
       -0.008009123 0.003517584 -0.0063352687 0.0011346756
000340 03 21 27 bc ec df 6f 3c a5 66 b7 3a e0 95 f8 3b
       -0.010200742 0.0146407895 0.0013992382 0.007586226
000350 df 6a cb bb 38 b0 c5 3a 5d 06 ac 3b 17 44 0a bc
       -0.0062078084 0.0015082425 0.005249782 -0.008439085
000360 bc 63 b1 bc 4b 52 a0 bb a4 ab 0d ba 81 13 42 bb
       -0.021654002 -0.0048926226 -0.00054042996 -0.0029613676
000370 e9 aa 8d bb a7 41 9f bb 0a 2b cb bb ed 19 07 bb
       -0.0043233526 -0.0048601213 -0.006200199 -0.0020614818
000380 e7 1b 5c 3c 76 e1 31 3b ae 07 1e 37 e3 f8 84 bb
       0.013434387 0.0027142442 9.419322e-06 -0.00405799
000390 62 4a 8b bc ae 2a 2b bc 91 52 b6 3b fc 4e 35 3b
       -0.017003242 -0.010447187 0.005564042 0.0027665487
0003a0 dd a2 88 bb 31 f7 38 bc f4 18 84 bb 17 71 0c 3c
       -0.0041698054 -0.011289404 -0.004031295 0.008571885
0003b0 5f 9b 6f bb 3a ad e9 39 e5 fc 71 bb 6a ee 84 39
       -0.0036561114 0.00044570287 -0.0036924419 0.00025354634
0003c0 7a 2d 24 3c e2 6f ba 3b 82 c5 82 3c 63 4f 74 bc
       0.010020608 0.005689607 0.01596332 -0.014911505
0003d0 59 0f c9 b9 65 f3 90 bc 31 9b 59 bc a2 68 d4 3b
       -0.00038349142 -0.017694185 -0.013281629 0.0064821998
0003e0 32 3a ef 38 05 6b ba bb 54 99 86 bb 4c 90 e9 3b
       0.00011407248 -0.0056890273 -0.0041076336 0.007127797
0003f0 05 2c b2 3b fd 41 51 bc c1 cc 11 bc d9 62 3c bc
       0.0054373764 -0.0127720805 -0.008898915 -0.0114981765

layer3.fc2.bias f4 [84]
000000 c6 91 f0 bc 7c 48 18 bb a5 0d 98 bc 51 38 03 bc
       -0.029366385 -0.0023236563 -0.018561194 -0.008009032
000010 70 97 7b bd 79 3d 19 ba 74 63 cb bb af e4 3f 3c
       -0.06142372 -0.0005845647 -0.006206924 0.011712237
000020 25 f9 7f 3b 06 d3 b6 ba bd f5 93 3e e6 42 33 bb
       0.0039058414 -0.0013948388 0.2889842 -0.0027353107
000030 2e aa 25 3b c1 73 df 3a da 66 0a bc ac eb 29 3b
       0.0025278437 0.0017048047 -0.008447373 0.0025927825
000040 72 96 f6 3b 9d 74 36 bb 85 51 9b bc 74 45 57 bb
       0.0075252587 -0.0027840503 -0.01895977 -0.0032847794
000050 3c 36 85 ba db 52 eb bb 5b e8 8a 3c 47 ba 30 3b
       -0.0010163258 -0.007181508 0.016956499 0.0026966499
000060 5c af 0d 3a dc fa c8 bc 7f 1b 50 3c b1 51 76 3d
       0.0005404854 -0.024533682 0.012701868 0.0601365
000070 f5 34 d4 bb 36 56 9f bc ca f8 7c 3c 27 bc 32 3c
       -0.0064760395 -0.019450288 0.015440175 0.010909117
000080 60 f6 82 3b 3e 51 7a 3b 75 c3 12 bc e6 65 b6 bb
       0.0039966553 0.0038195397 -0.008957733 -0.0055663465
000090 57 d7 bd bd 45 be 63 3c e9 52 64 bc 44 57 30 be
       -0.092695884 0.013900344 -0.013935783 -0.17220789
0000a0 bc 0e a6 bc 50 81 9f 3e da 22 43 3b 69 f5 ae 3a
       -0.020270698 0.31153345 0.0029775412 0.0013348284
0000b0 df 64 62 3c b1 6f e6 3b cc 39 1d bd 5b 5f 86 3a
       0.013817995 0.0070323576 -0.038385198 0.0010251807
0000c0 6a 32 c5 bb 84 e9 c9 3b c0 ec af 3b 8c c0 5b 3e
       -0.0060179727 0.0061618704 0.005368799 0.2146017
0000d0 57 85 d0 3a 8e 0d ab bb 83 bb 4d bb 5e 7c 7f bb
       0.0015908879 -0.0052201217 -0.0031392283 -0.003898404
0000e0 30 fc bc 3a 77 ba 97 bc 14 eb 5d 3c 8c 38 d7 3b
       0.001441842 -0.01852153 0.0135448165 0.00656802
0000f0 66 7b 32 3b a8 6c 68 ba e0 bc bc bb 8c 6a f1 bb
       0.0027234196 -0.00088662887 -0.0057598203 -0.0073674377
000100 82 24 1f bc 7c 76 1f bc c2 a4 0b ba eb 9a 01 3b
       -0.009713294 -0.009732839 -0.000532698 0.0019776176
000110 e5 43 fa 3b ff 6f 5a bc 63 f6 05 3e 6f c5 e4 3a
       0.007637488 -0.013332366 0.1308227 0.0017453859
000120 4a 48 30 bb 43 45 c7 3a 17 c9 42 3c ee f9 32 3c
       -0.0026898556 0.0015203137 0.011888764 0.010923846
000130 f8 53 6e bb 4c 2f ff bd 66 a8 20 bc fd 5a 28 be
       -0.0036365967 -0.12460193 -0.009805774 -0.1644096
000140 0b 38 16 3a b7 96 93 3b 71 dd 51 3b eb 3a a1 3c
       0.0005730397 0.0045040506 0.0032022859 0.019681415

layer3.fc3.weight f4 [10, 84]
000000 ef 11 28 3b ac 14 f6 3a 06 0b 22 bb c4 a6 20 bb
       0.0025645455 0.0018774471 -0.0024725809 -0.0024513463
000010 14 59 9e 3d 03 71 49 3a 15 28 49 3b 80 db a4 ba
       0.07731834 0.00076843816 0.0030694057 -0.0012577623
000020 f8 f1 63 3b 2f 30 3c bb 66 3e 55 be 5c 5f b1 ba
       0.0034781676 -0.0028715243 -0.20824584 -0.0013532448
000030 87 72 22 3b 2e 1f 4d bb ed 6f dc ba b7 cc 7e 3b
       0.0024787502 -0.0031299102 -0.0016818024 0.0038879344
000040 dd 74 91 bb a1 bd 58 bb ed af 01 bb 4e ec f6 ba
       -0.00443898 -0.0033072012 -0.0019788698 -0.0018838735
000050 9a 6a 74 3b 10 2f ff 3a 06 d1 1f 3b b8 69 b4 3b
       0.0037294985 0.0019468982 0.0024386062 0.0055057667
000060 5a c8 3e bb 74 29 a5 3c 3b 64 fb b9 ae 5e c1 3d
       -0.0029111118 0.020161368 -0.00047949128 0.09441887
000070 e3 ea 5f bb a0 bf 8b 3b a1 b3 d1 bb ef b8 60 3b
       -0.0034167103 0.004264787 -0.0063995873 0.0034289917
000080 cf 39 47 3a 38 76 1c bb bf e3 f9 3a 9f de 6b bb
       0.0007599862 -0.0023874175 0.0019065066 -0.0035990847
000090 83 78 79 bc 35 91 7b 3a 63 56 fc ba a1 5e 87 3c
       -0.015226486 0.00095965277 -0.001925182 0.016524615
0000a0 d9 6a 00 bb de 59 25 3c d0 17 c5 ba fb 9d 52 3b
       -0.0019594936 0.010092227 -0.0015037004 0.003213762
0000b0 0e 94 3d 3b b1 de 65 bb 44 1f ff ba 8c 47 31 bb
       0.0028927359 -0.0035075361 -0.0019464274 -0.0027050702
0000c0 20 55 af bb a7 13 99 3b c3 40 1d 3b eb 97 23 3d
       -0.005350724 0.004671532 0.00239949 0.039939802
0000d0 7a aa c6 3b c2 aa 9b bb bb d5 00 3a f4 2f cc bb
       0.006062803 -0.0047505805 0.0004914661 -0.0062313024
0000e0 75 df ca bb 67 71 7a be 8b 63 54 bb 8e 73 af ba
       -0.006191189 -0.24457322 -0.0032407965 -0.0013385878
0000f0 a0 d6 74 bb 66 e4 b5 39 57 93 6b bb a3 33 0b ba
       -0.0037359372 0.0003469318 -0.0035945976 -0.00053101237
000100 61 5a 11 ba 92 bd 9c 3b f4 64 c5 3a 37 0f 64 3b
       -0.00055447785 0.0047833407 0.0015059994 0.0034799108
000110 df 30 b9 3b 83 c2 26 bb 5b 7c 22 be b1 b0 41 bb
       0.005651578 -0.0025445528 -0.1586775 -0.002955478
000120 cc c3 0e 3b fe aa 9a 39 83 58 55 3b 5e 04 53 ba
       0.0021784185 0.00029500568 0.0032553978 -0.0008049662
000130 95 ae be 39 7f 84 7e 3d ca 16 02 bb ae e7 0e 3e
       0.00036369698 0.062138077 -0.001985001 0.13955566
000140 e1 83 1b bb e5 7c de 3a eb ad bd 39 74 d3 d6 3a
       -0.002372973 0.0016974477 0.00036178468 0.0016389922
000150 17 02 9f bb e0 ff f6 39 37 98 ac 3b 63 bb cf 3a
       -0.004852544 0.00047111418 0.005267169 0.0015848692
000160 89 a1 bb 3c c9 ce ac 3b b4 68 50 bc 6e 7d dc 3b
       0.022904174 0.005273674 -0.012720276 0.0067288196
000170 a2 69 d9 b6 5b 84 81 3b 72 a2 82 bd 99 9a c5 3b
       -6.4794012e-06 0.0039525456 -0.0637864 0.0060303924
000180 d6 d4 b0 3a 78 a6 e1 3b e5 c5 88 3b 2e 64 c2 39
       0.0013491164 0.0068862997 0.0041739815 0.00037077203
000190 19 ed f0 3a 76 2a 7a ba ef 70 79 bb cc c5 20 3b
       0.0018381207 -0.00095430703 -0.0038061698 0.0024531959
0001a0 ef ff 5e bb ef 7b 53 bb 6f cc 81 bb b8 64 a1 bb
       -0.003402706 -0.0032269915 -0.003961138 -0.0049253367
0001b0 fa e8 ea ba b4 bc 83 3e 06 1c 2e 37 80 4f 22 be
       -0.0017922216 0.25729907 1.0377733e-05 -0.1585064
0001c0 b5 45 c7 ba d2 2f eb 38 38 b5 02 3b e7 7b 07 b9
       -0.001520327 0.000112145804 0.001994444 -0.0001292076
0001d0 85 5b 10 3c 42 9e 07 3c 9b d0 37 bb d3 b3 07 3c
       0.008810882 0.008277478 -0.0028047923 0.0082826195
0001e0 bf 8f df 3d ef e9 f4 3a f8 f8 ae bb a6 28 9d 3d
       0.10916089 0.001868544 -0.005339738 0.07673769
0001f0 c9 ae d7 bb 55 35 28 be 7c b2 75 ba 35 47 23 bc
       -0.0065821153 -0.16426595 -0.00093726045 -0.009965708
000200 e0 78 34 bb ab 4f 72 3c b5 f1 36 3e 4b 1d 65 bc
       -0.0027537867 0.014789502 0.17865641 -0.013984035
000210 d3 14 15 bc e1 d0 52 bb 0d b5 6d bb bb 3e 9e be
       -0.009099203 -0.0032167959 -0.0036271245 -0.30907235
000220 b7 fe 1d bb cd 84 10 3c 3a e6 94 3a 3b b4 11 3a
       -0.002410812 0.008820725 0.0011360117 0.00055581675
000230 47 ed 82 3b b5 46 b2 3c df 94 f5 3b 2f ce 2a 3a
       0.003995571 0.021762231 0.0074945535 0.0006515709
000240 23 c3 8a bb 4b 18 50 3c 74 6a b4 3a 42 56 b9 3b
       -0.004234688 0.012701104 0.0013764636 0.0056560347
000250 13 3a aa 3b 83 29 2e ba c3 b5 46 3b 20 75 76 bb
       0.0051949113 -0.0006643759 0.003032074 -0.0037606433
000260 07 73 a3 bb 21 61 68 3a b0 87 12 be cf 62 1f 3c
       -0.0049880776 0.0008864571 -0.14309573 0.009728148
000270 fd 07 0a 3b 41 23 92 3b ed 72 6d bb db bc 24 3b
       0.002106189 0.004459769 -0.0036231831 0.002513698
000280 ca a1 4d ba 79 aa be bc fb 14 6b bb 98 cd e8 bc
       -0.0007844238 -0.023274647 -0.003587066 -0.028418347
000290 13 97 ae 3b a9 73 c9 3b 9a bd 06 bb 10 72 f5 3b
       0.005328068 0.006147821 -0.0020559789 0.007490404
0002a0 74 a7 22 3a 4b ec 25 3b 5e 53 13 3c c1 cb 48 3b
       0.0006204762 0.0025317844 0.008992044 0.0030639025
0002b0 37 2c a7 bd 4a 9d ce 3a 6b f3 8f ba ab bc 16 3b
       -0.0816273 0.0015763429 -0.0010982578 0.0023000638
0002c0 ee cf f6 bb d9 fb 0d bb 76 af 96 bd 0d 9a 4f bb
       -0.0075321114 -0.0021665005 -0.07357685 -0.0031677515
0002d0 de f5 b5 ba 90 d2 8a bb 98 10 99 bb 0a e3 32 39
       -0.0013882478 -0.004236527 -0.0046711676 0.00017059981
0002e0 38 0e d0 bb f7 f9 8f 3b 1d d6 ef 3b e0 6a c9 ba
       -0.0063493513 0.004393812 0.0073192255 -0.0015366934
0002f0 fe 27 04 bc 29 1e 7e 3a d1 1e b8 bb 4f 5f 33 3a
       -0.0080661755 0.0009693825 -0.005618908 0.000684251
000300 74 a4 63 3b 7e ab 66 bd 6d 8a c2 bb d6 18 45 3e
       0.0034735473 -0.05631589 -0.005936912 0.19247755
000310 9b 53 a2 3b ae 50 51 bc 53 33 2d 3c c9 7b 0a bc
       0.004953814 -0.012775583 0.010571319 -0.008452364
000320 25 67 51 3b 15 63 1e bb 7d f9 a1 39 fe 55 5a bb
       0.0031952348 -0.0024167944 0.00030894196 -0.0033315415
000330 ff ab 47 bd 0c 0a 77 bb 96 29 b4 3b e0 85 9f bd
       -0.048748013 -0.0037695197 0.0054981215 -0.077892065
000340 d4 62 86 bb 1e a2 fc 3d 58 aa 54 3c 5d 83 86 3b
       -0.0041011367 0.12335609 0.012980066 0.004105015
000350 27 c8 8f bb 1a 44 a2 3b 45 78 56 3c 6c f8 c0 bb
       -0.0043878737 0.004951966 0.013090198 -0.005888989
000360 4b bb 08 bc ab 30 58 bb 03 3e 5e bb 69 24 fb 3d
       -0.008345435 -0.0032987993 -0.0033911474 0.12262804
000370 84 8f ca bb 5e 32 e2 3a 95 0a 23 3c cb 74 0a 3c
       -0.006181659 0.0017257442 0.009951253 0.008450697
000380 04 49 a8 3b 2c af a5 3c 2f 4b 65 3c fb 22 18 bb
       0.0051356573 0.02022513 0.013994976 -0.002321421
000390 cf dc 4e 3c 06 18 bb 3b d9 26 d2 3b e9 e4 37 3b
       0.012625887 0.005709651 0.0064133224 0.0028060025
0003a0 e0 44 d8 bb 95 b7 fa bb e2 81 25 bb 00 37 85 bb
       -0.0066000074 -0.007651279 -0.0025254418 -0.0040653944
0003b0 02 40 ac bb 99 44 35 ba 9d 83 41 3c a7 ef 8b 3b
       -0.0052566538 -0.0006914824 0.011811164 0.004270512
0003c0 cb 47 b5 3b 0f e0 b1 bb 5c c2 e0 39 6a 5e 13 3c
       0.00553224 -0.005428321 0.00042869418 0.008994678
0003d0 4a a9 86 bb c7 0c 22 3d 60 fd 90 3b 75 72 68 be
       -0.0041095363 0.039562967 0.004424736 -0.22699912
0003e0 da a2 91 b9 73 5f e1 ba b5 66 3f 3c 1d 54 16 bb
       -0.0002777789 -0.0017194584 0.011682202 -0.002293832
0003f0 9d ed ad 3b ed 4e de bb 05 92 6a bb d5 16 9e bb
       0.0053078667 -0.006784311 -0.00357926 -0.004824499

layer3.fc3.bias f4 [10]
000000 12 5e 12 be d9 35 b4 be ea 03 a0 3e 38 34 05 3f
       -0.14293697 -0.35197333 0.31252986 0.52032804
000010 2e 51 af 3e 50 95 f0 bc e8 4d aa bd 32 5f 87 be
       0.34241623 -0.029368073 -0.08315641 -0.26439816
000020 82 a1 a3 be a0 92 12 bd
       -0.31959158 -0.035784364
