output/models_cifar10_200.pth (torch_old, 248636 bytes, 10 tensors)

layer1.conv1.weight f4 [6, 1, 5, 5]
0.011435366 -0.19499506 0.0461637 -0.121784754 -0.061430912 0.27766916 -0.21543588 0.41636184
-0.091023 0.21302705 0.0902532 -0.5269395 0.36922312 -0.32569882 -0.049699884 0.30629382
-0.51440865 0.5561095 -0.24594212 0.10806921 0.21060325 -0.5272386 0.44531232 -0.177252
-0.01703376 -0.00840917 -0.029552137 -0.03624495 0.07699196 -0.025701428 0.03816743 0.13397121
-0.4615248 0.08742611 0.19614722 -0.063012436 0.28392854 0.3833639 -0.9239123 0.2617634
0.07459017 -0.46066508 0.6505686 0.12526193 -0.34404576 0.0092111705 0.04494772 -0.3238918
0.33554977 -0.07076656 -0.03448257 -0.0052325516 -0.049981833 0.12129177 0.036396958 -0.047306623
-0.02219587 0.14061087 0.045772497 -0.053657927 -0.28790414 0.018167922 0.25720242 -0.098650694
-0.034862664 -0.3453211 0.3111774 0.19004244 -0.06435756 0.015506299 -0.42979008 0.28087562
-0.014253932 0.04194152 -0.087740034 -0.09385314 -0.30540457 -0.09111639 -0.048263818 0.060983207
0.24092409 0.72858393 0.37218988 0.19950749 -0.008327179 -0.10837224 -0.39358655 -0.21953598
-0.0568622 -0.048605684 0.08936686 -0.034591924 -0.091490075 0.089695655 0.16319092 -0.06676815
-0.0026616096 -0.046090137 -0.09355874 -0.076492414 -0.07701393 0.040940907 -0.012719889 0.08774233
-0.08574671 -0.00035176156 0.07526364 0.048947927 -0.11597781 0.10702019 -0.23518285 -0.33330408
-0.088935725 -0.0006951372 -0.27240476 0.1933145 0.153299 -0.15654197 -0.082197346 0.168031
-0.036851387 0.037270267 0.13096452 0.03405588 -0.099199414 0.03833154 -0.2031622 0.28027573
-0.020254556 -0.062360473 -0.12738658 0.35522327 0.3019501 -0.55521554 0.005491045 0.13225937
0.33677927 -0.9135443 0.04522687 0.27463442 -0.007777801 -0.27856988 -0.10165503 0.55932385
-0.18881956 0.098997876 -0.12293814 0.20567416 -0.13608006 0.0057581407
00000000: 675b 3b3c c9ac 47be 2616 3d3d 496a f9bd
00000010: fb9e 7bbd a72a 8e3e 399b 5cbe 612d d53e
00000020: 446a babd c323 5a3e abd6 b83d 82e5 06bf
00000030: d00a bd3e ffc1 a6be 1b92 4bbd 8bd2 9c3e
00000040: 49b0 03bf 315d 0e3f 40d8 7bbe 6453 dd3d
00000050: 61a8 573e 1cf9 06bf faff e33e 8c81 35be
00000060: 628a 8bbc 9ec6 09bc 5317 f2bc 9675 14bd
00000070: f6ad 9d3d cd8b d2bc 7355 1c3d c02f 093e
00000080: fb4c ecbe 760c b33d d1da 483e aa0c 81bd
00000090: 155f 913e 4648 c43e 8485 6cbf da05 863e
000000a0: bbc2 983d 4bdc ebbe aa8b 263f aa44 003e
000000b0: c426 b0be 73ea 163c 1a1b 383d 25d5 a5be
000000c0: 2ecd ab3e 0fee 90bd 983d 0dbd d375 abbb
000000d0: c0b9 4cbd d267 f83d fa14 153d 97c4 41bd
000000e0: 1dd4 b5bc 4cfc 0f3e f17b 3b3d 6ac8 5bbd
000000f0: 2c68 93be e5d4 943c 09b0 833e 6009 cabd
00000100: 27cc 0ebd edcd b0be a552 9f3e 7c9a 423e
00000110: e5cd 83bd 220e 7e3c 720d dcbe eece 8f3e
00000120: 5389 69bc dfca 2b3d 0cb1 b3bd 1336 c0bd
00000130: fd5d 9cbe 3b9b babd 48b0 45bd 87c9 793d
00000140: ceb4 763e 7a84 3a3f ac8f be3e b14b 4c3e
00000150: b86e 08bc 44f2 ddbd 2d84 c9be 0ace 60be
00000160: 57e8 68bd c116 47bd f905 b73d 43b0 0dbd
00000170: 265f bbbd 5bb2 b73d 851b 273e bdbd 88bd
00000180: 666e 2ebb 03c9 3cbd ba9b bfbd 0ea8 9cbd
00000190: 7bb9 9dbd a7b1 273d 1567 50bc 40b2 b33d
000001a0: f99b afbd a36c b8b9 d323 9a3d 9f7d 483d
000001b0: c685 edbd 672d db3d c6d3 70be d5a6 aabe
000001c0: ef23 b6bd de39 36ba a378 8bbe 3cf4 453e
000001d0: 6afa 1c3e 8a4c 20be 1557 a8bd 5210 2c3e
000001e0: 7bf1 16bd b5a8 183d 901b 063e 2e7e 0b3d
000001f0: 1029 cbbd 8801 1d3d c009 50be 4d80 8f3e
00000200: e2ec a5bc b26d 7fbd a171 02be d3df b53e
00000210: 3499 9a3e 9b22 0ebf 39ee b33b 006f 073e
00000220: 556e ac3e 0ade 69bf cf3f 393d e29c 8c3e
00000230: ecdc febb b6a0 8ebe 8330 d0bd d92f 0f3f
00000240: ea59 41be 66bf ca3d fec6 fbbd 3f9c 523e
00000250: 9258 0bbe c9ae bc3b

layer1.conv1.bias f4 [6]
-0.28095752 -0.26881045 -0.28758228 -0.26751998 -0.27134097 -0.30135414
00000000: aad9 8fbe 86a1 89be fc3d 93be 61f8 88be
00000010: 34ed 8abe 174b 9abe

layer2.conv2.weight f4 [16, 6, 5, 5]
0.05532211 0.0036866695 0.01564513 0.1554946 0.05135844 0.065041594 -0.07878206 0.08686271
0.037666667 0.11277766 -0.017372316 0.024443962 -0.010001171 0.034075003 0.079017915 0.11633041
-0.12360713 0.034209803 0.12164891 -0.011108941 -0.27492553 -0.29712546 -0.67773634 -0.6649995
-0.3890276 0.2890105 0.14340615 0.0069451784 -0.03266984 0.114839114 0.13483083 0.17099996
0.10591006 0.13902698 0.15759991 0.36924496 0.15859196 0.1289215 0.09536053 0.17577545
0.33962196 0.21751733 0.21050149 0.05125997 -0.084910594 0.40217134 -0.0035239104 -0.16762938
-0.117223196 -0.06103358 0.122134924 0.17544997 0.0046702465 0.1357057 -0.029561976 0.07140912
0.021347063 0.06452105 -0.09674592 0.20794883 -0.07997264 -0.02465707 0.04285967 0.12853065
-0.02915074 -0.19391331 -0.047548797 -0.099793926 0.13972026 0.14087059 -0.106638975 -0.26717257
-0.46900192 -0.42832378 -0.17305446 0.3208084 -0.14618528 -0.041382343 -0.06720805 0.17574133
0.22002833 0.027224742 0.16281237 0.041031275 0.0001775065 0.05418039 0.26031932 0.13367333
0.23121014 -0.0010521292 -0.17017056 0.20967177 0.17219326 0.24359505 -0.064919405 -0.0648769
0.19454953 0.23824067 0.28489876 0.321335 0.24260794 -0.033676315 0.024957398 0.11941307
0.11817536 0.4088342 0.07042952 0.17310253 0.007129266 0.22245231 0.32993644 0.06635031
0.2547079 0.05009877 0.3331557 0.12567842 0.15840118 0.5254131 0.29487005 0.008613515
-0.29249623 0.5293545 0.6037397 0.13004658 -0.2290846 -0.07472348 -0.07769944 0.04281067
0.060240604 0.041788705 -0.04831565 -0.16316527 -0.007664549 0.15386438 0.31047496 0.013968713
-0.10583093 0.044364247 0.106093794 0.18286364 -0.060603395 0.025464557 -0.0812494 0.10149052
0.25710183 0.03348599 0.049483564 -0.13713287 0.019253047 0.24514891 -0.08005061 0.051897895
0.028580287 0.14024201 -0.13476002 0.11964605 -0.08900688 0.094838366 -0.18627788 0.006813887
0.14553817 0.33912846 -0.21315694 -0.022558182 0.020592764 -0.18342341 -0.29361767 0.078140646
-0.02425578 -0.26009881 -0.08474126 0.11102569 -0.27236053 -0.3663406 -0.118001685 0.20416307
0.1536328 0.1516547 0.25424325 0.110555276 0.117181644 0.08918426 -0.2638211 0.30658308
0.17169178 -0.2748234 0.24493316 -0.45177096 0.2299098 -0.0114891725 0.045640774 -0.13267574
-0.37906715 -0.53694385 0.11110601 0.26296857 0.31363085 0.5301796 -0.04404253 -0.43304476
-0.022845402 0.10320759 0.1531406 -0.038681414 0.09670472 0.07974675 -0.29953015 0.08070923
0.1579668 -0.34096125 0.14563043 0.38917392 -0.20552914 0.6449129 0.03151 -0.0103108995
0.18026438 0.21637724 0.25512534 0.24895109 0.12868495 -0.09847557 0.049523234 -0.0070963753
0.30823046 0.04342492 0.0935983 -0.1544312 -0.06191129 0.15330283 -0.047962114 0.0931477
-0.22831267 -0.25539213 0.1459097 -0.25394922 -0.10152526 -0.12699611 -0.3025191 -0.07731612
0.10000304 -0.20476595 -0.14012301 -0.20860219 -0.2551009 0.12736979 -0.108256005 -0.07043243
0.20511638 -0.28482628 0.14956969 0.1612932 -0.38810325 -0.102815576 0.15150899 -0.2346005
00000000: 7099 623d 0d9c 713b 372a 803c fa39 1f3e
00000010: 3a5d 523d 8734 853d 7d58 a1bd 14e5 b13d
00000020: 5d48 1a3d f9f7 e63d 6350 8ebc b43e c83c
00000030: f4db 23bc 3b92 0b3d 25d4 a13d a33e ee3d
00000040: bc25 fdbd 941f 0c3d 1023 f93d 4702 36bc
00000050: 0ac3 8cbe d420 98be 2180 2dbf 683d 2abf
00000060: a02e c7be 2ff9 933e 10d9 123e 6194 e33b
00000070: cfd0 05bd c530 eb3d 1811 0a3e 9d1a 2f3e
00000080: 60e7 d83d 175d 0e3e df61 213e ad0d bd3e
00000090: ee65 223e ff03 043e 624c c33d 7bfe 333e
000000a0: eee2 ad3e ddbc 5e3e b48d 573e f9f5 513d
000000b0: 9be5 adbd 67e9 cd3e 68f1 66bb 09a7 2bbe
000000c0: b712 f0bd 59fe 79bd e021 fa3d 28a9 333e
000000d0: de08 993b 6ff6 0a3e f52b f2bc f23e 923d
000000e0: 09e0 ae3c 9d23 843d ba22 c6bd 8af0 543e
000000f0: b2c8 a3bd a0fd c9bc 9f8d 2f3d 8a9d 033e
00000100: 88cd eebc 3691 46be 87c2 42bd c260 ccbd
00000110: d412 0f3e 6140 103e 8965 dabd d8ca 88be
00000120: 0521 f0be 414d dbbe 3035 31be 0041 a43e
00000130: 98b1 15be 8880 29bd 60a4 89bd 89f5 333e
00000140: 1b4f 613e 6c06 df3c 49b8 263e 6910 283d
00000150: 0a21 3a39 42ec 5d3d 9348 853e a9e1 083e
00000160: 5ac2 6c3e 99e7 89ba 3141 2ebe 32b4 563e
00000170: 6e53 303e fb70 793e 77f4 84bd 2ede 84bd
00000180: fe37 473e 5df5 733e 40de 913e 0586 a43e
00000190: 376e 783e 2df0 09bd 7573 cc3c d78e f43d
000001a0: ec05 f23d b752 d13e 5a3d 903d ca41 313e
000001b0: 9e9c e93b 8aca 633e 6eed a83e ace2 873d
000001c0: 1369 823e 5e34 4d3d 6293 aa3e d8b1 003e
000001d0: eb33 223e 7981 063f 35f9 963e b31f 0d3c
000001e0: 11c2 95be c783 073f af8e 1a3f ee2a 053e
000001f0: 2795 6abe a008 99bd e220 9fbd 3e5a 2f3d
00000200: dabe 763d a22a 2b3d a2e6 45bd cc14 27be
00000210: e626 fbbb a08e 1d3e 93f6 9e3e 07dd 643c
00000220: e3bd d8bd 49b7 353d b447 d93d 9b40 3b3e
00000230: 443b 78bd 0c9b d03c 1666 a6bd 43da cf3d
00000240: daa2 833e 9b28 093d 47af 4a3d 8f6c 0cbe
00000250: 91b8 9d3c 5108 7b3e 93f1 a3bd e392 543d
00000260: 3521 ea3c 9a9b 0f3e 88fe 09be fd08 f53d
00000270: 3d49 b6bd 9e3a c23d a1bf 3ebe 0747 df3b
00000280: f507 153e 3fa2 ad3e d045 5abe f0cb b8bc
00000290: 28b2 a83c 59d3 3bbe 0e55 96be 3408 a03d
000002a0: 0fb4 c6bc ac2b 85be d38c adbd 7061 e33d
000002b0: d772 8bbe ff90 bbbe deaa f1bd 2010 513e
000002c0: eb51 1d3e 5f4b 1b3e 2c2c 823e ce6a e23d
000002d0: eefc ef3d 3da6 b63d 8f13 87be 75f8 9c3e
000002e0: f8cf 2f3e a7b5 8cbe c2cf 7a3e 864e e7be
000002f0: 7a6d 6b3e 153d 3cbc d2f1 3a3d 26dc 07be
00000300: 1715 c2be 2775 09bf 8c8b e33d d1a3 863e
00000310: 3994 a03e dab9 073f f165 34bd 0bb8 ddbe
00000320: 4826 bbbc 805e d33d e4d0 1c3e 6770 1ebd
00000330: 200d c63d 4452 a33d 045c 99be e14a a53d
00000340: 0cc2 213e 7992 aebe 2520 153e ce41 c73e
00000350: 3b76 52be 0319 253f a110 013d 0cef 28bc
00000360: 3a97 383e ff91 5d3e ca9f 823e 09ed 7e3e
00000370: fdc5 033e 8fad c9bd e0d8 4a3d b688 e8bb
00000380: 62d0 9d3e 54de 313d 77b0 bf3d 3623 1ebe
00000390: b196 7dbd 6bfb 1c3e ec73 44bd 39c4 be3d
000003a0: ccca 69be c2c2 82be 5a69 153e a205 82be
000003b0: 7aec cfbd 450b 02be c9e3 9abe ea57 9ebd
000003c0: 65ce cc3d 2aae 51be 687c 0fbe d09b 55be
000003d0: 969c 82be 3a6d 023e 53b5 ddbd e13e 90bd
000003e0: 070a 523e c0d4 91be cc28 193e 0b2a 253e
000003f0: 78b5 c6be f990 d2bd 2c25 1b3e 1d3b 70be

layer2.conv2.bias f4 [16]
-0.5500193 -0.71710086 -0.5930175 -0.46392003 -0.64365435 -0.46911272 -0.4834246 -0.3255662
-0.66867167 -0.57344675 -0.43619812 -0.35935378 -0.30045533 -0.5632926 -0.5464146 -0.38540563
00000000: 11ce 0cbf ec93 37bf ffcf 17bf ed86 edbe
00000010: 88c6 24bf 8b2f f0be 6e83 f7be 9db0 a6be
00000020: 112e 2bbf 68cd 12bf 5c55 dfbe 38fd b7be
00000030: 48d5 99be f233 10bf d4e1 0bbf e353 c5be

layer3.fc1.weight f4 [120, 400]
0.009073778 0.009384428 0.015952174 0.0043029105 -0.011850372 0.016436692 -0.0064247996 -0.016476406
-0.010146716 -0.018705368 0.017611178 0.019665876 0.016950626 0.009029365 0.0074610068 0.0062124026
-0.009151536 -0.010717766 -0.009630613 -0.002200157 -0.003183468 -0.011129938 0.001051232 -0.0030003826
0.011021009 0.058923636 0.018379655 -0.00078959134 -0.0012544078 0.005802306 0.028632987 -0.015388632
-0.005082075 -0.012583982 0.013622905 0.006359586 -0.0012070481 3.8461534e-05 -0.00809621 0.025547655
-0.012090071 -0.026993895 -0.012497419 -0.017265117 -0.007097727 0.019352041 0.008466865 0.02151858
-0.004320577 -0.014940172 0.02036267 -0.020704182 -0.023941169 0.030233018 0.03598093 -0.011845224
-0.00247639 -0.029206457 0.0073517286 0.041143794 -0.010388074 0.008584343 0.010684972 -0.016781343
-0.013023071 0.024789901 0.0012680513 -0.022118606 0.00021969741 -0.026582683 -0.015366025 -0.016118905
0.028679514 0.02854235 0.009128153 -0.01270339 -0.0043717194 0.027185915 -0.01653518 -0.018276684
-0.014207078 0.0040180427 0.0011155213 0.010524308 -0.018108899 0.0133465575 0.015533554 0.0075589833
-0.0063509056 -0.025610115 -0.027796533 0.0041978452 0.01927565 0.02536986 -0.002490644 -0.0074393754
0.022410685 0.013214161 0.018784838 0.02215738 0.005001525 0.025243009 -0.0053172796 -0.018625177
-0.018416733 -0.007274476 0.030835591 0.0063423505 0.010297751 0.015885184 -0.00010217382 0.0032960887
0.008039782 0.01845312 0.01272641 0.0021125781 -0.0070620403 0.032823782 -0.004508364 0.01951486
0.014549026 -0.0146005675 0.014797968 -0.015992433 0.008577543 0.022287793 -0.0026081249 -0.010438699
0.0034111405 0.005429887 -0.0009622184 -0.005307873 -0.016687198 0.025520865 -0.0034974315 -0.02105446
-0.00112467 0.00030036157 0.0036770913 -0.00012509106 -0.0022546004 -0.0052015684 -0.010612052 -0.023367804
0.0105003435 -0.0056711235 -0.009426852 -0.017640326 -0.012482335 0.012870928 -0.0010039761 -0.001520622
0.006152564 0.007133101 0.023116142 0.016232328 -0.023905354 0.014424603 0.01759402 0.019413095
-0.006556749 0.01814261 0.013535167 -0.014215355 0.02149355 0.014103854 -0.028488137 -0.009749462
-0.009792268 0.01881172 -0.00018667497 -0.0027105685 0.006352014 0.014320487 0.019122925 0.01057457
0.007831888 -0.001709926 0.0056806477 0.007995353 0.005874853 0.0036787086 0.0047349595 0.014661198
-0.016141709 0.029414743 0.027075207 0.013507628 0.011831412 0.024910154 -0.009598609 -0.01867123
-0.015942337 0.0017717631 0.0070844647 -0.032157063 0.0062589417 0.0018314763 -0.003324928 0.0043296325
0.008814619 -0.0069075064 0.014129804 5.4508626e-05 -0.0012207587 -0.011296864 -0.0037288112 0.0028848958
-0.00031990453 -0.012723647 -0.0018340603 0.0026729424 0.017866012 -0.0071352236 -0.0189819 0.005063703
-0.0028429937 -0.017653972 -0.006570303 -0.014500814 -0.02648052 -0.0024525374 0.005860643 0.020115279
0.0003157404 0.022494897 0.003950916 -0.022745023 0.007721193 0.021762704 0.017055657 -0.0067001656
-0.012255372 -0.016403656 0.00021008181 -0.017116062 -0.014626657 0.00070354616 -0.005404855 -0.007750425
-0.0066916454 0.009455565 0.004320189 0.009688368 0.007731026 0.02384533 0.00092356745 0.0070029334
0.0132564865 0.0064556706 0.01746499 0.020027693 -0.006663462 -0.029807266 0.014221462 -0.005067315
00000000: 2faa 143c 25c1 193c 22ae 823c 6eff 8c3b
00000010: 1028 42bc 3ea6 863c 2087 d2bb 87f9 86bc
00000020: 693e 26bc 003c 99bc 5145 903c 551a a13c
00000030: 0adc 8a3c e7ef 133c 767b f43b 6991 cb3b
00000040: 53f0 15bc 9299 2fbc b8c9 1dbc 8230 10bb
00000050: bba1 50bb 585a 36bc 7ec9 893a 11a2 44bb
00000060: 7691 343c e959 713d ee90 963c 94fc 4eba
00000070: f16a a4ba 4521 be3b ba8f ea3c 9a20 7cbc
00000080: 8987 a6bb 0c2d 4ebc 9b32 5f3c 1364 d03b
00000090: d035 9eba c251 2138 f7a5 04bc 5149 d13c
000000a0: 6f15 46bc 4d22 ddbc f9c1 4cbc 936f 8dbc
000000b0: 0d94 e8bb 2c88 9e3c 9bb8 0a3c bc47 b03c
000000c0: a093 8dbb a0c7 74bc 9dcf a63c d19b a9bc
000000d0: 4520 c4bc 3cab f73c bd60 133d 7812 42bc
000000e0: ee4a 22bb 6142 efbc c5e6 f03b 6586 283d
000000f0: be32 2abc 58a5 0c3c 0510 2f3c 0779 89bc
00000100: b85e 55bc 3114 cb3c be34 a63a 1432 b5bc
00000110: 935e 6639 edc3 d9bc c8c1 7bbc cb0b 84bc
00000120: 4df1 ea3c a5d1 e93c 408e 153c e121 50bc
00000130: a440 8fbb ffb4 de3c c974 87bc fcb8 95bc
00000140: cec4 68bc c9a9 833b af36 923a 266e 2c3c
00000150: 1d59 94bc 85ab 5a3c 7380 7e3c 59b1 f73b
00000160: 421b d0bb 4ecc d1bc 8eb5 e3bc 148e 893b
00000170: f8e7 9d3c 74d4 cf3c 133a 23bb 01c6 f3bb
00000180: 9d96 b73c 3580 583c a9e2 993c 6583 b53c
00000190: d5e3 a33b 6dca ce3c 933c aebb d493 98bc
000001a0: b0de 96bc ba5e eebb ec9a fc3c 7ed3 cf3b
000001b0: e6b7 283c a521 823c 2746 d6b8 3103 583b
000001c0: 4ab9 033c ff2a 973c 6f82 503c 2e73 0a3b
000001d0: b068 e7bb 3b72 063d e6ba 93bb a1dd 9f3c
000001e0: 0a5f 6e3c 3837 6fbc 2d73 723c 9002 83bc
000001f0: d388 0c3c e494 b63c 13ed 2abb 1407 2bbc
00000200: 718d 5f3b 32ed b13b 623d 7cba aaed adbb
00000210: 97b3 88bc 2211 d13c 2a35 65bb 677a acbc
00000220: aa69 93ba d979 9d39 5bfb 703b e02a 03b9
00000230: ebc1 13bb eb71 aabb 2cde 2dbc d66d bfbc
00000240: a209 2c3c d5d4 b9bb 1573 1abc 7282 90bc
00000250: b582 4cbc 96e0 523c d997 83ba 9c4f c7ba
00000260: 739b c93b cabc e93b 105e bd3c a9f9 843c
00000270: 29d5 c3bc 2c55 6c3c 5621 903c 3608 9f3c
00000280: ffd9 d6bb d09f 943c 9bc2 5d3c 85e7 68bc
00000290: 3e13 b03c da13 673c f45f e9bc 35bc 1fbc
000002a0: c06f 20bc 091b 9a3c 2ebe 43b9 cba3 31bb
000002b0: 8e24 d03b 7aa0 6a3c aea7 9c3c f640 2d3c
000002c0: 5251 003c 981f e0ba ba24 ba3b f1fe 023c
000002d0: d781 c03b 7d16 713b b827 9b3b 8535 703c
000002e0: 9e3b 84bc 30f7 f03c d3cc dd3c 194f 5d3c
000002f0: 8ad8 413c 6110 cc3c 7c43 1dbc 68f4 98bc
00000300: 8199 82bc 813a e83a cc24 e83b 20b7 03bd
00000310: cf17 cd3b 260e f03a 09e7 59bb 97df 8d3b
00000320: 316b 103c 5d58 e2bb b280 673c 31a0 6438
00000330: dd01 a0ba 7b16 39bc 125f 74bb 8510 3d3b
00000340: dcb8 a7b9 d876 50bc da64 f0ba 882c 2f3b
00000350: be5b 923c 98ce e9bb ee7f 9bbc 6bed a53b
00000360: 8551 3abb 109f 90bc b24b d7bb d294 6dbc
00000370: aded d8bc c0ba 20bb a30a c03b ccc8 a43c
00000380: f689 a539 3847 b83c b076 813b c553 babc
00000390: 1002 fd3b b347 b23c 4eb8 8b3c 108d dbbb
000003a0: c1ca 48bc f660 86bc 6849 5c39 fc36 8cbc
000003b0: a5a4 6fbc 2f6e 383a 361b b1bb 47f7 fdbb
000003c0: 9745 dbbb 84eb 1a3c 5f90 8d3b f6bb 1e3c
000003d0: 8c54 fd3b 4857 c33c 901b 723a dd78 e53b
000003e0: bc31 593c 178a d33b bd12 8f3c 1e11 a43c
000003f0: 2c59 dabb 5e2e f4bc 2301 693c b80b a6bb

layer3.fc1.bias f4 [120]
0.00042061426 -0.015594787 -0.019732011 -0.0073908563 -0.0005005079 0.016183587 -0.0034911863 0.0070339264
0.020030256 -0.008344393 -0.012688727 -0.006458611 0.056906514 0.010413672 -0.014265674 0.016243411
-0.0026482278 -0.0021260057 -0.022392787 0.0013685276 -0.018414587 0.012740647 -0.013278717 -0.023058338
-0.0154409455 0.019037182 0.021742966 -0.0016693111 0.0129216155 0.0057939775 0.006416767 0.009171239
0.22735967 0.0033935527 -0.022984916 0.015951013 -0.048386928 -0.22027054 -0.030077938 0.0024890038
-0.010514073 0.006234909 -0.00469986 0.119810335 -0.007339941 0.0051820786 -0.009762856 0.010731092
-0.00862563 -0.012525026 0.03380665 -0.014453747 0.02232289 0.0040181573 -0.0037602219 -0.010825413
-0.022785412 0.01572377 0.0136009855 -0.0060514915 -0.0015717872 0.011706877 -0.06367065 0.13543199
-0.08680432 -0.002603922 -0.009840797 -0.017859306 0.035012268 -0.0053918418 -0.00041981973 0.003087988
-0.0045700036 -0.0046352665 -0.0050214105 0.002121254 0.011231637 0.03509845 -0.017557258 -0.02555837
-0.022321422 -0.0027505993 -0.023168422 0.0039786575 0.0041716304 0.008425272 0.0078031053 -0.031971827
0.0028089993 -0.019232053 -0.016622884 -0.0073296884 0.018376684 0.0099032875 0.0033274235 -0.02908961
0.00058976805 -0.018703137 0.119692124 0.005563088 -0.0030097465 -0.0053261067 -0.013398197 0.011853784
0.002202389 -0.013147682 -0.022055212 -0.013108321 0.021746753 0.019118989 0.01290059 0.0073725297
0.39636 -0.002416846 0.011058902 0.034227382 0.0030993223 -0.0023030492 0.022628998 0.2704087
00000000: e485 dc39 4781 7fbc 07a5 a1bc ff2e f2bb
00000010: 8434 03ba 7193 843c 63cc 64bb da7c e63b
00000020: 7e16 a43c ecb6 08bc 61e4 4fbc c2a2 d3bb
00000030: ce16 693d 1b9e 2a3c 93ba 69bc e710 853c
00000040: e48d 2dbb 7554 0bbb 1471 b7bc 2b60 b33a
00000050: 30da 96bc 26be 503c fa8e 59bc d7e4 bcbc
00000060: 05fc 7cbc ddf3 9b3c 4e1e b23c c9cc daba
00000070: 2fb5 533c 68db bd3b be43 d23b f742 163c
00000080: f9d0 683e 5e66 5e3b dd4a bcbc b3ab 823c
00000090: 5f31 46bd 9a8e 61be 0266 f6bc 8e1e 233b
000000a0: 3843 2cbc 354e cc3b 4801 9abb 1f5f f53d
000000b0: e383 f0bb 6dce a93b 63f4 1fbc 76d1 2f3c
000000c0: 8452 0dbc c435 4dbc d878 0a3d 69cf 6cbc
000000d0: 7ede b63c bfaa 833b 0e6e 76bb 135d 31bc
000000e0: 79a8 babc 23cf 803c abd6 5e3c 974b c6bb
000000f0: 6d04 ceba 33ce 3f3c c265 82bd afae 0a3e
00000100: 77c6 b1bd 90a6 2abb 4b3b 21bc ae4d 92bc
00000110: 0669 0f3d 0cae b0bb 401b dcb9 d75f 4a3b
00000120: f8bf 95bb 6fe3 97bb a58a a4bb bd04 0b3b
00000130: e604 383c 64c3 0f3d 3dd4 8fbc c95f d1bc
00000140: 6adb b6bc 6643 34bb b4cb bdbc 665f 823b
00000150: 2cb2 883b 270a 0a3c 31b1 ff3b e4f4 02bd
00000160: 3017 383b 8a8c 9dbc b72c 88bc e22d f0bb
00000170: b38a 963c 6641 223c e710 5a3b 554d eebc
00000180: aa9a 1a3a 5237 99bc 2521 f53d 914a b63b
00000190: 2b3f 45bb 9f86 aebb 1c84 5bbc 6036 423c
000001a0: f555 103b 6069 57bc 22ad b4bc 49c4 56bc
000001b0: 3f26 b23c 6d9f 9c3c ff5c 533c 4395 f13b
000001c0: b3ef ca3e f363 1ebb 6630 353c 0332 0c3d
000001d0: 001e 4b3b c1ee 16bb 7360 b93c 0273 8a3e

layer3.fc2.weight f4 [84, 120]
0.0044737747 0.004265265 8.379509e-05 0.002515741 -0.0029276435 -0.0066472334 -0.0027763678 0.004586373
-0.005714169 0.006543915 0.0024227411 0.0030641474 0.0030194814 0.009045764 -0.0016373028 -0.0018689584
0.0009065678 -0.0032985457 0.0073284344 -0.0024576604 -0.005941119 -0.0025304977 0.00026816095 0.00256697
-0.0007421487 0.004012814 -0.002315042 -0.0003716638 -0.007221553 -0.005657861 -0.0046266103 0.0004631332
0.0003299917 0.003581785 0.0005814334 0.000908991 -0.0041591153 -0.0017401798 -0.0032326693 0.0007050931
-0.002343884 0.002256979 0.0014442932 0.000251687 0.004217531 -0.0011329898 0.006590065 -0.0012266855
0.0057533267 -0.004281541 0.0034549402 0.0044354666 0.006468725 -0.00080586446 0.0060795452 -0.0042243297
0.0068681515 0.0056371978 -0.0032239628 -0.0030119605 -0.003334453 0.0025455046 -0.005718493 -0.0012791813
0.012234224 -0.00022316228 -0.0006518156 0.0019027109 0.002087971 -0.00075686735 0.006146672 -0.0005942928
-0.003834985 -0.0071376413 -0.0015065693 -0.0008150088 0.0036427411 -0.0039123367 0.001515357 -0.0015518893
-0.0005488374 0.0074166534 -0.0019373293 -0.0012122355 0.0036678393 0.0020279249 0.0019515515 0.007708856
0.0051418706 0.005317524 0.007926113 -0.0053756153 -0.0035820946 0.004127169 -0.003148126 -0.0039466056
-0.0037086934 0.0022292077 0.00022707098 -0.0020527176 0.0051553375 -0.004050186 0.0049953004 -0.005658598
0.00045276657 0.0060462523 0.008395868 -0.00417224 -0.0049072425 -0.0032090328 -0.00019730246 0.00050627434
0.0016213312 -0.0016973047 0.0029825424 0.004601721 -0.0036469705 0.0058970666 -0.0049995515 0.0040748804
0.00075889163 0.0017381026 -0.0107137 -0.01559668 0.0005118844 0.009925825 -0.004176875 0.0007333712
0.011311928 0.0006036515 0.0035322572 -0.012314684 0.018779317 -0.00315524 -0.00902853 -0.0019222603
0.0015438399 0.011590592 -0.00997739 0.008708782 0.01016155 0.0056074187 -0.005835744 0.0055836947
9.537418e-05 -0.0026088264 0.013312519 -0.0029508842 -0.0023878296 0.006839555 0.00034243212 0.007826228
-0.008632482 -0.0148045635 -0.0053657135 -0.0076323817 0.0037841736 0.0063303863 -0.0022551115 -0.008607196
0.0028193037 0.008877788 -0.006052779 0.009038188 -0.0058822357 -0.010185588 -0.018591877 0.00691956
-0.0029205333 0.01222751 -0.0022568654 -0.006723289 -0.006560377 0.0018527755 0.0011509238 0.008897178
-0.00049056305 0.006182567 0.0011854093 0.01264022 -0.006994449 0.0003299804 0.0072974134 0.020430688
-0.020240385 -0.0046935924 0.00016199035 -0.0035551994 0.0019434863 -0.0014895939 0.0005736395 0.0011526286
-0.0060871723 -0.005531787 0.0017625899 -0.00019312692 -0.0063298857 0.0075754332 0.006587098 -0.007603078
0.004932987 -0.009057355 0.0029139477 0.0074291015 -0.0035054674 -0.0027265619 -0.0008450155 -0.012693164
-0.004623539 0.0033365197 -0.0126076415 0.0026912214 0.0017254087 -0.00529085 0.007839681 0.0064067203
0.0064563965 0.0028464345 -0.0075307507 0.0041084136 -0.0026186425 -0.003091456 -0.013762126 0.015652038
-0.00533251 -0.008984143 -0.011093205 -0.0027159094 -0.00075947546 0.011912328 -0.0054000667 0.010914398
-0.02031305 0.0015696603 -0.016257418 -0.0060929265 0.0004305157 -0.011140232 0.00689444 0.0020049533
-0.0059372555 -0.0033473466 -0.0023616438 0.0011231119 -0.002089384 0.00088156055 -0.00019204324 0.008174234
-0.0029818292 -0.00347516 -0.00257508 0.00025122604 -0.0038989873 0.0008186896 0.00069577916 0.00907078
00000000: be98 923b a3c3 8b3b 25bb af38 21df 243b
00000010: b5dd 3fbb 09d1 d9bb b9f3 35bb 4949 963b
00000020: ec3d bbbb 566e d63b dac6 1e3b ddcf 483b
00000030: 7ee2 453b af34 143c c49a d6ba d6f7 f4ba
00000040: bca6 6d3a 6a2c 58bb 5d23 f03b b310 21bb
00000050: b8ad c2bb b5d6 25bb f497 8c39 9c3a 283b
00000060: c28c 42ba ec7d 833b f6b7 17bb dfdb c2b9
00000070: c7a2 ecbb 9465 b9bb d29a 97bb b0d0 f239
00000080: bc02 ad39 61bc 6a3b 566b 183a 5a49 6e3a
00000090: 3049 88bb bf16 e4ba 31db 53bb ffd5 383a
000000a0: d99b 19bb d3e9 133b 704e bd3a dbf4 8339
000000b0: 3733 8a3b d480 94ba 79f1 d73b bcc8 a0ba
000000c0: 6786 bc3b 2b4c 8cbb 476c 623b 6457 913b
000000d0: 99f7 d33b a640 53ba ec36 c73b 3f6c 8abb
000000e0: 3b0e e13b 3eb8 b83b 1f49 53bb 5064 45bb
000000f0: d786 5abb 7bd2 263b 3262 bbbb 34aa a7ba
00000100: 0e72 483c ab00 6ab9 9bde 2aba 6264 f93a
00000110: 57d6 083b 8268 46ba 066a c93b 51ca 1bba
00000120: 5f54 7bbb e0e2 e9bb 1478 c5ba 51a6 55ba
00000130: 0ebb 6e3b 0f33 80bb f29e c63a c468 cbba
00000140: dbdf 0fba 6607 f33b fced fdba e0e3 9eba
00000150: 2260 703b efe6 043b 34cb ff3a 929a fc3b
00000160: 237d a83b a03e ae3b 87dc 013c ee25 b0bb
00000170: 93c1 6abb 343d 873b ca50 4ebb 8752 81bb
00000180: 8d0d 73bb e617 123b e719 6e39 e386 06bb
00000190: 1bee a83b 6cb7 84bb 9eaf a33b c36b b9bb
000001a0: 4d61 ed39 a41f c63b d38e 093c 49b7 88bb
000001b0: efcc a0bb a34e 52bb fae2 4eb9 7fb7 043a
000001c0: d982 d43a 1878 deba c276 433b 09ca 963b
000001d0: 0302 6fbb 2e3c c13b 47d3 a3bb 9386 853b
000001e0: 5bf0 463a 0cd1 e33a 8488 2fbc 3889 7fbc
000001f0: fb2f 063a ed9f 223c 2bde 88bb b53f 403a
00000200: aa55 393c 5e3e 1e3a 717d 673b 87c3 49bc
00000210: 15d7 993c 25c8 4ebb 66ec 13bc 5af4 fbba
00000220: ac5a ca3a 77e6 3d3c 3578 23bc 47af 0e3c
00000230: a17c 263c 70be b73b c539 bfbb 6df7 b63b
00000240: 9f03 c838 d8f8 2abb c01c 5a3c 9f63 41bb
00000250: 227d 1cbb 591e e03b 7688 b339 9439 003c
00000260: 416f 0dbc d78e 72bc ded2 afbb 0f19 fabb
00000270: e6ff 773b 216f cf3b 7eca 13bb 3205 0dbc
00000280: 11c4 383b 2474 113c 6456 c6bb e814 143c
00000290: c5bf c0bb 74e1 26bc fe4d 98bc 7abd e23b
000002a0: 6b66 3fbb e555 483c ebe7 13bb 094f dcbb
000002b0: 6ef8 d6bb d4d8 f23a 98da 963a 78c5 113c
000002c0: 2199 00ba 2297 ca3b bc5f 9b3a ed18 4f3c
000002d0: b131 e5bb 3801 ad39 241f ef3b 425e a73c
000002e0: 2acf a5bc b5cc 99bb f4db 2939 59fe 68bb
000002f0: 94bc fe3a 7a3e c3ba 4c60 163a cc13 973a
00000300: e776 c7bb fe43 b5bb b406 e73a 1d82 4ab9
00000310: ee6a cfbb 573b f83b 95d8 d73b 3e23 f9bb
00000320: e5a4 a13b 4d65 14bc eef7 3e3b d26f f33b
00000330: fcbb 65bb 1eb0 32bb 0884 5dba fdf6 4fbc
00000340: 0e81 97bb 83a9 5a3b 4890 4ebc 345f 303b
00000350: 1c27 e23a de5e adbb 0172 003c 77ef d13b
00000360: 2e90 d33b 3f8b 3a3b 84c4 f6bb df9f 863b
00000370: 889d 2bbb 069a 4abb 8a7a 61bc b438 803c
00000380: 56bc aebb 3a32 13bc 46c0 35bc 66fd 31bb
00000390: 8917 47ba ed2b 433c 0bf3 b0bb 4ed2 323c
000003a0: 8e67 a6bc 0fbd cd3a 472e 85bc 2ca7 c7bb
000003b0: d7b6 e139 8585 36bc c1ea e13b 8965 033b
000003c0: 4f8d c2bb 285f 5bbb cfc5 1abb 6235 933a
000003d0: 0cee 08bb 8718 673a 375f 49b9 39ed 053c
000003e0: cb6a 43bb 83bf 63bb acc2 28bb fdb6 8339
000003f0: 2786 7fbb 549d 563a f364 363a 9c9d 143c

layer3.fc2.bias f4 [84]
-0.0017817229 0.017512128 -0.008682773 0.0064146644 -0.06345977 -0.001051663 0.016810067 0.015387159
0.0034395594 -0.009323849 0.27887508 0.01200503 -0.010194494 -0.005384253 -0.00878803 0.003346206
-0.008130717 -0.009644722 -0.004521828 -0.0054518785 -0.0018332104 0.001367676 0.015516291 0.0036687688
0.009602142 -0.03092866 -0.0042152135 0.06238892 0.0064355326 0.008800861 -0.008014075 -0.0037453969
0.004445476 0.009423956 -0.012649768 0.020108411 -0.028554877 0.0007055568 0.01607108 -0.113056816
0.0026000764 0.29767036 0.0083646225 0.003558003 -0.0040163887 0.0058351406 -0.029474208 -0.003661212
-0.0071578855 0.005774855 0.004706963 0.21133155 -0.018411513 0.008427538 -0.001970894 -0.0011623857
0.014970851 -0.020138167 0.019330218 0.0057777087 -0.0051878775 0.005741149 -0.014981603 -0.0009779572
0.013835278 -0.013511156 -0.010843367 -0.008801094 -0.00453851 -0.014231436 0.1255372 0.005631953
-0.004633631 -0.0012415282 -0.0063486155 -0.001071451 0.008297069 -0.06713962 0.0057769446 -0.15141596
0.015681371 0.010677829 0.008487475 -0.0044539226
00000000: b388 e9ba 9875 8f3c 3142 0ebc 1b32 d23b
00000010: 32f7 81bd f4d7 89ba 44b5 893c 6c1a 7c3c
00000020: 3b6a 613b 0fc3 18bc b7c8 8e3e bfb0 443c
00000030: cf06 27bc 636e b0bb abfb 0fbc 054c 5b3b
00000040: b336 05bc e504 1ebc d82b 94bb aca5 b2bb
00000050: 5548 f0ba 9743 b33a 0b38 7e3c ba6f 703b
00000060: 4d52 1d3c 1a5e fdbc c61f 8abb 868b 7f3d
00000070: 29e1 d23b 7d31 103c 784d 03bc 5575 75bb
00000080: 5bab 913b f066 1a3c f940 4fbc 65ba a43c
00000090: ebeb e9bc 1ef5 383a 7fa7 833c 558a e7bd
000000a0: 0b66 2a3b 4068 983e c50b 093c 632d 693b
000000b0: e99b 83bb b534 bf3b e573 f1bc f2f0 6fbb
000000c0: b28c eabb ff3a bd3b de3c 9a3b 4c67 583e
000000d0: bed3 96bc a813 0a3c 1d2a 01bb 315b 98ba
000000e0: 4d48 753c ccf8 a4bc 685a 9e3c ef52 bd3b
000000f0: 12ff a9bb 4020 bc3b 6675 75bc cc2e 80ba
00000100: 5dad 623c e55d 5dbc 61a8 31bc 7732 10bc
00000110: c8b7 94bb f82a 69bc d38c 003e 3f8c b83b
00000120: b7d5 97bb c6ba a2ba 0c08 d0bb ee6f 8cba
00000130: 6ef0 073c 7f80 89bd 864c bd3b c90c 1bbe
00000140: 3876 803c 10f2 2e3c 0d0f 0b3c 36f2 91bb

layer3.fc3.weight f4 [10, 84]
0.0018736129 0.00015614831 -0.00078204315 0.011490381 0.047662824 -0.0053123636 0.006480721 -0.00076194253
0.004783992 -0.0051612346 -0.2075465 -0.0056362515 -0.0036775155 -0.0062634125 -0.005776674 0.0023939705
0.0007522494 -0.007814915 -0.001220889 0.0010551774 0.001170381 0.0046692505 0.0048326943 -0.003039246
0.00096058607 0.009727743 0.00072056236 0.10143053 -0.0027234762 -0.005749358 0.007696675 -0.00083697453
0.004429902 -0.006121463 -0.0020768384 -0.0034508903 0.010301301 0.005492357 0.0062553235 -0.006591388
0.0015225237 0.014296573 -0.00520494 -0.0035197793 -0.0006544697 0.0047691492 -0.008200555 -0.005519591
-0.0038823984 -0.004813128 0.00038449094 0.040485147 0.002615959 0.0008968867 0.010599342 -0.0015091783
-0.008334697 -0.2454751 -0.006179149 -0.0070566945 -0.004278636 0.0014104338 0.008538878 -0.004759399
0.0059362915 0.0057362374 0.0033652126 -0.0041005313 -0.0059408178 0.0028173937 -0.15255585 -0.004157901
-0.0006215796 -0.0022718806 -0.0015861979 -0.004419142 0.010272612 0.051037923 -0.0026624424 0.1495682
0.004321127 0.0016897392 0.0057391 0.0055589955 0.0008083597 -0.0030188444 0.0045822696 0.009999139
0.028128618 -0.00551602 0.004794819 -0.0040070643 0.0049445434 -0.0056595327 -0.04688294 -0.012977832
-0.004078703 -0.0053580897 -0.008999902 0.00029995767 0.0014037078 -0.012255773 -0.0036299948 0.0065170345
0.0024354327 0.008047762 0.002377972 -0.0020026213 -0.002596988 0.25783244 0.0035860233 -0.13685915
-0.011337374 -0.009885897 0.00819584 -0.0031218387 0.007909171 -0.014471623 0.0042323903 -0.010864529
0.009124053 0.009715708 0.009964091 0.014950114 0.0011493131 -0.17843337 -0.014761331 -0.0032180524
-0.0007005808 0.009395532 0.1521351 -0.0058549573 -0.008199442 -0.0050082067 -0.007605483 -0.33695692
0.01200147 0.0037353726 0.014346464 -0.0009776369 -0.018074801 0.03348616 -0.012704639 -0.008438984
-0.009135873 -0.002953316 0.01934535 -0.008882659 0.0076903007 0.014362908 0.006359125 -0.0011241979
-0.0131864585 0.00818255 -0.14044055 -0.008153982 0.0018293463 0.0010347428 0.002088515 -0.0069898623
0.016120018 -0.020972088 -0.009104918 -0.037238088 0.0010808625 0.0032561668 0.006260782 0.007398551
0.0005419887 -0.0037441833 -0.0022797592 -0.007119707 -0.06528433 0.007559143 -0.00867059 -0.0011993103
-0.004706432 0.007887213 -0.081498004 0.0060902555 0.007047092 0.012371717 0.01090216 -0.0008630988
-0.0026653034 0.015133966 0.00624536 -0.0058869803 -0.0018172981 -0.009941769 -0.008598667 0.004631699
0.00034544631 -0.054717313 -0.001424225 0.18445633 0.007327291 0.0049660355 -0.0048804833 0.0043397234
-0.0023837024 0.00750302 0.0016364976 0.0043614986 0.017445052 -0.0065712957 -0.0075373203 -0.01129373
-0.0011499941 0.13366437 0.009784414 0.0013791415 0.0019026408 -0.011212662 0.028919062 0.003094404
0.0049988567 0.0016596977 0.0059260568 0.12832838 -0.0044323183 -0.005767478 -0.009383478 0.0020180456
0.006464465 0.03194301 0.0052203774 0.00827945 0.011234433 0.0049327994 -0.0107321525 0.0115075605
-0.010215187 -0.0099454755 0.00024268008 0.004575226 0.013027647 -0.003855195 0.001701907 0.00551397
-0.00056104216 -0.00029357077 0.0011836867 0.005348404 -0.016133562 0.04925732 0.0073839994 -0.2313466
-0.0074057216 -0.0041429414 -0.00875604 -0.0054810606 0.0019305793 -0.0074113184 -0.0027967922 -0.005509471
00000000: 0494 f53a bebb 2339 0702 4dba 2742 3c3c
00000010: 183a 433d 5613 aebb 3a5c d43b 19bd 47ba
00000020: 09c3 9c3b 931f a9bb 1287 54be 4eb0 b8bb
00000030: 7902 71bb 503d cdbb 414a bdbb 29e4 1c3b
00000040: 9a32 453a 210a 00bc 3d06 a0ba e14d 8a3a
00000050: 7867 993a 8300 993b 945b 9e3b 162e 47bb
00000060: d7cf 7b3a 1d61 1f3c 1fe4 3c3a cfba cf3d
00000070: 597c 32bb 1c65 bcbb 6434 fc3b 6968 5bba
00000080: b628 913b 8e96 c8bb 911b 08bb 5528 62bb
00000090: cac6 283c 3bf9 b33b 75f9 cc3b 92fc d7bb
000000a0: 6b8f c73a 2c3c 6a3c 348e aabb 19ac 66bb
000000b0: b890 2bba 8646 9c3b 9f5b 06bc afdd b4bb
000000c0: d66f 7ebb 72b7 9dbb 8095 c939 c1d3 253d
000000d0: 8270 2b3b 0c1d 6b3a dda8 2d3c 9fcf c5ba
000000e0: 418e 08bc d35d 7bbe 757a cabb d83b e7bb
000000f0: cd33 8cbb 4ede b83a a6e6 0b3c bcf4 9bbb
00000100: 3985 c23b 0cf7 bb3b e68a 5c3b c05d 86bb
00000110: 31ab c2bb 06a4 383b 9a37 1cbe 003f 88bb
00000120: 80f1 22ba d5e3 14bb f8e7 cfba 73ce 90bb
00000130: 754e 283c 240d 513d 5f7c 2ebb 6828 193e
00000140: 3e98 8d3b 3d7a dd3a 0f0f bc3b 3c28 b63b
00000150: 1ae8 533a ced7 45bb dd26 963b 6ed3 233c
00000160: fd6d e63c bbbf b4bb db1d 9d3b b14d 83bb
00000170: d605 a23b 9a73 b9bb 5308 40bd f9a0 54bc
00000180: a4a6 85bb ea92 afbb 5374 13bc a343 9d39
00000190: 9efc b73a 70cc 48bc 35e5 6dbb d98c d53b
000001a0: c89b 1f3b c3da 033c c0d7 1b3b 693e 03bb
000001b0: 3b32 2abb 9d02 843e 7d03 6b3b ce24 0cbe
000001c0: 65c0 39bc 75f8 21bc d847 063c c397 4cbb
000001d0: 7895 013c 631a 6dbc ddaf 8a3b 2301 32bc
000001e0: 0d7d 153c a22e 1f3c 6d40 233c 53f1 743c
000001f0: 8ca4 963a 3db7 36be 82d9 71bc f6e5 52bb
00000200: 2ea7 37ba b8ef 193c 4ec9 1b3e f1da bfbb
00000210: f456 06bc e21b a4bb 6a37 f9bb 9e85 acbe
00000220: d0a1 443c 27cd 743b 6e0d 6b3c 0d24 80ba
00000230: 9b11 94bc c928 093d 1e27 50bc aa43 0abc
00000240: a1ae 15bc 6c8c 41bb 247a 9e3c 9288 11bc
00000250: ebfe fb3b 6752 6b3c 3560 d03b d259 93ba
00000260: 040c 58bc 1a10 063c a6cf 0fbe 4898 05bc
00000270: adc6 ef3a 35a0 873a 78df 083b 370b e5bb
00000280: 210e 843c a8cd abbc cb2c 15bc f786 18bd
00000290: baab 8d3a 6a65 553b 3f27 cd3b 8b6f f23b
000002a0: 3f14 0e3a f960 75bb 0368 15bb 6e4c e9bb
000002b0: cab3 85bd b0b2 f73b 170f 0ebc 2d32 9dba
000002c0: 6a38 9abb 5e39 013c 6de8 a6bd c490 c73b
000002d0: 4beb e63b beb2 4a3c f99e 323c 9441 62ba
000002e0: 5fac 2ebb 74f4 773c e0a5 cc3b 92e7 c0bb
000002f0: 6832 eeba cde2 22bc 6ce1 0cbc 82c5 973b
00000300: 051d b539 431f 60bd 10ad baba 1fe2 3c3e
00000310: c619 f03b 20ba a23b 76ec 9fbb 3d34 8e3b
00000320: e437 1cbb e5db f53b bf7f d63a e7ea 8e3b
00000330: ede8 8e3c 0654 d7bb a0fb f6bb 5609 39bc
00000340: 66bb 96ba 50df 083e cf4e 203c 4fc4 b43a
00000350: 0862 f93a 50b5 37bc abe7 ec3c 7ccb 4a3b
00000360: 73cd a33b 378a d93a 5e2f c23b 8468 033e
00000370: fb3c 91bb 1dfd bcbb 29bd 19bc 3041 043b
00000380: ddd3 d33b acd6 023d b30f ab3b 88a6 073c
00000390: a110 383c 52a3 a13b e9d5 2fbc 358a 3c3c
000003a0: 9a5d 27bc 59f2 22bc f077 7e39 c7eb 953b
000003b0: e971 553c 70a7 7cbb 8612 df3a 88ae b43b
000003c0: e712 13ba 67ea 99b9 ef25 9b3a aa41 af3b
000003d0: 882a 84bc 0bc2 493d 7af5 f13b 20e6 6cbe
000003e0: b2ab f2bb 83c1 87bb 7e75 0fbc 789a b3bb
000003f0: 7e0b fd3a a5da f2bb 634a 37bb cb88 b4bb

layer3.fc3.bias f4 [10]
-0.13084841 -0.37445432 0.3339879 0.54918957 0.3358538 -0.028014865 -0.10289362 -0.26460946
-0.33547872 -0.045370743
00000000: 20fd 05be 7ab8 bfbe 7600 ab3e b097 0c3f
00000010: 07f5 ab3e 6e7f e5bc e4b9 d2bd e47a 87be
00000020: dec3 abbe acd6 39bd
