output/models_cifar10_220.pth (torch_old, 248636 bytes, 10 tensors)

layer1.conv1.weight f4 [6, 1, 5, 5]
00000000: 45ac e13b bd1d 49be 5898 413d 4d33 fdbd
00000010: e72c 79bd 5bed 903e a73e 5dbe f284 d63e
00000020: 8184 b5bd d810 593e 7b29 c03d 6100 09bf
00000030: 4563 c03e 67f4 a8be efa1 53bd ed4f a13e
00000040: 7fe2 08bf 38a2 123f 7085 83be 281f e63d
00000050: ae48 603e 51d1 09bf c26a e73e b0e6 39be
00000060: 859a babc debc 9ebb 8b76 debc f0d0 0cbd
00000070: e3fe a83d 3f7d d4bc 8f4a 333d a77a 0e3e
00000080: aae7 f3be 49f7 ca3d 5f99 4c3e b369 7bbd
00000090: 7f36 953e 44ae c73e 21b8 71bf 28ee 8a3e
000000a0: 3440 9b3d 74db f2be aca0 283f 3f58 023e
000000b0: edb0 b5be a09c 883a e844 533d 61e2 a8be
000000c0: e4dd ad3e 3038 91bd 68f5 01bd 65ee 96bb
000000d0: 0bec 70bd bd58 003e 67f4 283d 1a20 44bd
000000e0: 50a1 babc 914a 143e af6d 2a3d 0087 55bd
000000f0: f0dc 96be 07ba 1e3c b025 863e 81f5 d5bd
00000100: d9e5 1ebd f5f3 afbe 8f86 9e3e f856 443e
00000110: da01 84bd 9482 9d3c ce0c e2be e2c0 913e
00000120: 12e7 98bc 4c16 453d 571d b0bd 10ae bcbd
00000130: 0a68 9ebe 6bcd ccbd 64dc 57bd 0dcf 6f3d
00000140: ff56 823e 74d3 3b3f b9f3 c43e 5851 463e
00000150: 7383 dcbb c7f7 d7bd 9413 cdbe 2b87 74be
00000160: 6d38 78bd 8b0a 78bd b3f2 c53d ef58 eebc
00000170: 7632 babd 2127 b33d d3e7 263e d54b 86bd
00000180: 5a21 29bc 4cbb 1bbd e2a5 cbbd 3206 9cbd
00000190: 732e abbd 40a5 0d3d 8e8a babb ff2e aa3d
000001a0: 0bad afbd 5332 c73b e99b a13d fd4a 4d3d
000001b0: d28a f7bd c0dd e73d e804 78be 0edf aebe
000001c0: 610f c3bd 5d31 5c3b 03ed 8cbe aba7 473e
000001d0: 4b7f 2f3e 031b 1fbe c809 acbd fa8f 2e3e
000001e0: 4f87 2fbd 6751 223d 7124 093e d493 f53c
000001f0: 107b b2bd ea80 3b3d cbe0 59be 6be8 923e
00000200: 80a7 9abc db12 92bd 6603 fbbd 64b1 b63e
00000210: 0d81 a53e dddf 11bf b7f8 d93b ee37 083e
00000220: 7447 b53e 1bf1 6ebf 97c0 2e3d e060 903e
00000230: 3eda 0ebc cc64 8dbe 035a ccbd 3296 103f
00000240: f1a0 4abe 48fe d43d d1c4 f9bd 3485 4f3e
00000250: 2d6d 0dbe b581 0e3c
0.006886991 -0.1964025 0.047264427 -0.123633005 -0.060833838 0.28306088 -0.21605931 0.41898304
-0.08863164 0.21197832 0.09382912 -0.53516203 0.37575737 -0.32998964 -0.051668104 0.3150629
-0.53470606 0.57278776 -0.25687742 0.11236411 0.21902725 -0.53835016 0.45198637 -0.18154407
-0.022778759 -0.004844292 -0.027156135 -0.034378946 0.08251741 -0.025938628 0.043772276 0.13913976
-0.47637683 0.09910447 0.19980381 -0.0613801 0.2914314 0.39000142 -0.94421583 0.27134824
0.07580605 -0.47433054 0.65870166 0.12728976 -0.35486546 0.0010422654 0.051579386 -0.32985213
0.33958352 -0.07090795 -0.03172818 -0.0046060556 -0.058818858 0.12533851 0.041248705 -0.047882177
-0.022781998 0.1448157 0.04160851 -0.0521307 -0.29465437 0.009687907 0.26200628 -0.10447217
-0.03879342 -0.34365812 0.30962035 0.19173801 -0.06445666 0.019227304 -0.44150394 0.2846747
-0.01866487 0.048116967 -0.08599346 -0.09212887 -0.3093875 -0.10000118 -0.052700415 0.05854707
0.25456998 0.73369527 0.38467196 0.19366968 -0.006729537 -0.10545307 -0.40054 -0.23879687
-0.060600687 -0.06055693 0.09665432 -0.029095141 -0.09091656 0.087476976 0.16299371 -0.065574326
-0.010322893 -0.038020417 -0.09943749 -0.07618369 -0.08358469 0.034581423 -0.0056927865 0.08309745
-0.08577927 0.006078997 0.078910656 0.050120343 -0.12087025 0.11321592 -0.24220622 -0.34154552
-0.09524418 0.0033598759 -0.27524576 0.19497554 0.17138402 -0.15537648 -0.08400303 0.1704711
-0.04285365 0.039628413 0.13392808 0.029977717 -0.087148786 0.04577724 -0.21277158 0.28692946
-0.018878698 -0.07132503 -0.122565076 0.35682213 0.3232502 -0.56982213 0.0066519636 0.13302585
0.35406077 -0.9333665 0.042664137 0.2819891 -0.008719025 -0.27615964 -0.09978106 0.5647918
-0.19787957 0.10400063 -0.12195743 0.20265657 -0.13811179 0.008697917

layer1.conv1.bias f4 [6]
00000000: d028 93be f53c 8abe 5a7b 94be 68d9 89be
00000010: 298a 8fbe 5c44 9ebe
-0.28742075 -0.26999632 -0.2900036 -0.2692368 -0.28035095 -0.3091153

layer2.conv2.weight f4 [16, 6, 5, 5]
00000000: f603 593d b7ba 8b3c bd0a 183d f2f9 253e
00000010: 0d71 653d b7da 673d f63e a3bd ff30 ce3d
00000020: 6605 bb3c 78c4 ba3d fdac 17bb db25 3b3d
00000030: c082 42bd 354f 993c e95c c43d b7c2 e03d
00000040: 4ee8 0fbe 1438 4439 a569 ff3d a724 d8bc
00000050: 2c93 85be 2328 a9be 581f 35bf 7ffe 34bf
00000060: 6052 c3be 0815 9d3e 7bc4 173e 9e65 8abc
00000070: 3f89 c6bc 7048 163e c873 263e 26d7 2b3e
00000080: 281c 003e 4c90 003e f87c 2e3e e043 d23e
00000090: a7c7 293e 6573 163e 3165 e03d 7335 2a3e
000000a0: e4c5 9d3e fb63 5b3e a759 533e f94f 2f3d
000000b0: 9277 edbd 9c1d cd3e ff17 f03c 88a9 35be
000000c0: 99ee fcbd 0947 2ebd cffc 0c3e 1097 3b3e
000000d0: 3191 68bb 3d58 223e e392 60bd 60df 753d
000000e0: d04e 1c3d 228d 693d f30d c9bd 558c 503e
000000f0: ad5e f7bd 10c8 71ba ee3e 6a3d 2a11 f23d
00000100: e219 32bd 4a30 3fbe 1915 3cbd dc0c 93bd
00000110: 1092 133e 5dbf 343e 1bd9 00be a45f 7bbe
00000120: e540 e3be 89eb d3be 99f4 24be 7494 9a3e
00000130: ad4e 11be f56a 49bd 2911 9cbd 7d22 293e
00000140: eaa4 653e 8242 8c3c 512d 1b3e 69e2 3d3d
00000150: 253d cc3c d1da 863d f86f 873e bb8c 033e
00000160: 29c6 603e f885 8e38 a9a6 28be 49cb 5e3e
00000170: 74ec 393e 5edd 7e3e 45dc 9ebd 5990 a2bd
00000180: 95ef 463e 26bf 7b3e f1d9 9c3e 6aa5 a53e
00000190: 7ede 783e bb58 f4bc a3a3 123d 4b64 093e
000001a0: 88cc 033e af5a d73e f684 9a3d d6ed 363e
000001b0: c1dd c23b c546 703e fe4d a23e 1245 6f3d
000001c0: 4234 823e 50b1 613d 9858 b33e 1ac6 f83d
000001d0: cfc3 153e d8f3 043f e3d9 963e 5e0b 283c
000001e0: c166 9cbe 2ae1 043f 1449 1e3f 10bc 033e
000001f0: d304 80be 4c35 27bd edef c2bd fdd7 153d
00000200: 4c79 743d 132f 273d 5253 79bd 5832 1cbe
00000210: 17ff c5bb 62be 0f3e 9649 853e feb5 e43c
00000220: 8f65 e0bd 052f 273c 12b1 e43d 3a12 383e
00000230: 2c8c 66bd 9d1b c73c a574 7ebd 0198 de3d
00000240: 27b9 7a3e b200 2f3d 70fa 9a3d c9c6 12be
00000250: 1703 403d 3c2b 843e 62d9 96bd b743 923d
00000260: 738d d23c c5f2 ff3d a8ec 0abe eb94 043e
00000270: 3ca5 8abd 98fa d73d 2222 41be 20b8 b8ba
00000280: 316c 273e e995 b03e 3176 49be eb15 a9bc
00000290: 27f4 d73c 20c5 43be c08d 96be 7617 813d
000002a0: 269a 56bd 622d 8cbe aa55 a8bd d134 033e
000002b0: d640 85be 324b cabe 791e 07be 89bd 443e
000002c0: fb84 113e 9684 dd3d f8e9 933e 9116 c73d
000002d0: cc35 cb3d 91d7 463d f275 8dbe 0dfa 963e
000002e0: 4be6 513e 4316 97be 233a 773e 8ebd f2be
000002f0: 736a 703e 975c 3abc f8ca 913c bbd1 08be
00000300: a03b b9be 620b 09bf 6dda e53d 26ed 813e
00000310: e775 8e3e f69f 0a3f 337d 59bd 4b34 e0be
00000320: af74 adbc 8f47 a53d 37a2 263e 6b30 4cbd
00000330: 840d 9a3d 43f3 b43d b127 a4be 9e0e 853d
00000340: 1031 3d3e c28e b1be 79fd 103e fc56 c03e
00000350: 022e 5cbe fe21 293f 56c6 693d 1822 a4bc
00000360: b28d 343e de44 463e a82a 813e 0790 793e
00000370: 31d4 e53d 218a e7bd 9b8e 8f3d 927b 6abc
00000380: 6e27 9b3e c4dd 5a3d 26b1 e23d 2f07 10be
00000390: 33f2 a3bd 3c0b 083e 616c 50bd 9b02 a63d
000003a0: dc19 7dbe 240e 85be 517b 163e 168b 6bbe
000003b0: 6465 b7bd 31d7 07be 68ca a2be 9348 c4bd
000003c0: 3f08 cb3d 5154 76be 9e40 25be 770d 76be
000003d0: e5ce 85be 0e33 223e b82d 02be 9f32 58bd
000003e0: a1a3 5b3e 449e 8fbe 9ce1 193e f99a 203e
000003f0: 9329 c5be 43d9 ddbd 806f 1c3e 83bc 70be
0.052982293 0.017056806 0.037119616 0.16208628 0.056016017 0.056605067 -0.07970993 0.10067939
0.022829723 0.09119505 -0.002314388 0.0456904 -0.047487974 0.018714527 0.09588034 0.10974639
-0.14053461 0.00018712907 0.12471322 -0.026384665 -0.26088846 -0.33038434 -0.7075095 -0.7070083
-0.38148785 0.30680108 0.14821045 -0.016894158 -0.024235366 0.1467607 0.16255105 0.16781291
0.12510741 0.12555045 0.1703986 0.4106741 0.16580068 0.14692457 0.10956801 0.16621952
0.3081504 0.21424858 0.20639668 0.042800877 -0.11595072 0.40061653 0.029308317 -0.17740452
-0.123501964 -0.042548213 0.13768314 0.18319345 -0.0035486931 0.15853973 -0.054827582 0.06002748
0.0381611 0.05701936 -0.09817114 0.20366032 -0.12078605 -0.0009223232 0.05718892 0.1181968
-0.043481715 -0.18670765 -0.045918558 -0.07180187 0.14411187 0.17651124 -0.12582819 -0.24548203
-0.44385448 -0.41390637 -0.16108932 0.30191386 -0.14190169 -0.049174268 -0.076204605 0.16517062
0.22426191 0.017121557 0.15154006 0.0463585 0.0249315 0.06584705 0.26452613 0.12846653
0.21950592 6.796041e-05 -0.16469826 0.21757235 0.18156606 0.24889132 -0.07756857 -0.079376884
0.19427331 0.24584636 0.30635026 0.32352763 0.24303624 -0.029827466 0.035800587 0.13417165
0.12870991 0.42061374 0.075448915 0.17864165 0.0059468453 0.23464496 0.31700128 0.05841548
0.25430495 0.05510074 0.3502853 0.1214716 0.14625476 0.51934576 0.2946311 0.010256616
-0.30547145 0.51906073 0.6183026 0.12864709 -0.2500368 -0.040822312 -0.095184185 0.036582936
0.05968599 0.040816378 -0.060870476 -0.1525358 -0.006042372 0.14037469 0.26032704 0.027918812
-0.10956871 0.010204081 0.11166586 0.17975703 -0.056286022 0.02430516 -0.06212296 0.10868836
0.24484693 0.042725272 0.075672984 -0.14333643 0.046877947 0.25814235 -0.07365681 0.07141822
0.025702214 0.124974765 -0.1356684 0.12947433 -0.06769797 0.10545844 -0.18860677 -0.001409296
0.16349865 0.34489372 -0.19673993 -0.020640334 0.026361538 -0.19118166 -0.29405022 0.06303303
-0.0523931 -0.27378374 -0.08219464 0.12813117 -0.26026028 -0.39510494 -0.13195218 0.19212927
0.14210884 0.108163044 0.28889441 0.09721101 0.0992237 0.048545424 -0.27629048 0.2948765
0.20498006 -0.29509172 0.24143271 -0.47410244 0.23478107 -0.011374614 0.017796978 -0.13361256
-0.36178303 -0.53532994 0.11223302 0.25376242 0.27824327 0.5415033 -0.053097915 -0.43789896
-0.021173803 0.08070289 0.16272818 -0.049850862 0.07522109 0.08835461 -0.32061532 0.06496929
0.18475747 -0.34679228 0.14159192 0.37566364 -0.21501926 0.6606749 0.057073914 -0.020035788
0.17632177 0.19362208 0.25227857 0.24371348 0.11222113 -0.11305643 0.07009622 -0.014311688
0.3030352 0.05343415 0.11068945 -0.1406524 -0.0800518 0.13285536 -0.05088461 0.08105966
-0.24716896 -0.2598735 0.14695479 -0.23002276 -0.089548856 -0.13265683 -0.3179505 -0.09584155
0.09913682 -0.24055602 -0.16137931 -0.24028574 -0.2613441 0.15839788 -0.12712753 -0.05278265
0.21449138 -0.28050435 0.1502747 0.15684117 -0.3850828 -0.10832455 0.15276909 -0.23509412

layer2.conv2.bias f4 [16]
00000000: de07 11bf de8c 3bbf 595e 1abf bb77 f6be
00000010: f911 29bf eda5 f5be ae6f 01bf 57ca a9be
00000020: 476f 2fbf 1f34 17bf 17cb e4be 6229 bbbe
00000030: 0811 a0be 807f 15bf fd75 10bf f858 c9be
-0.5665263 -0.7326182 -0.60300213 -0.48138222 -0.6604305 -0.47978154 -0.50561035 -0.33162186
-0.6852917 -0.59063905 -0.44686195 -0.3655501 -0.31262994 -0.58397675 -0.56430036 -0.3932569

layer3.fc1.weight f4 [120, 400]
00000000: cd27 fabc e8bb 14bb 52f1 693a bfe1 7b3a
00000010: 6122 4839 b1bb 6fbc d411 9cbc 110e d5b8
00000020: f928 503c 711b d5bb fe85 3cbc ab33 5ebc
00000030: a3da ed39 8605 a13c 00c2 13bc 1571 6abc
00000040: 4b89 9437 ac93 14bc 71d8 a0bc d9ed 21bc
00000050: b340 a1bb 1057 953b ae42 233c dd16 60bc
00000060: ef67 16bd 07bd 21bc 982b 6e3c b8d3 10bc
00000070: ed5d 39bc 9cf4 53bc 0cd9 13bd 26bb c8bc
00000080: 0b5f 1c3b 24d1 2a3c 83b4 873c 69e7 fcbc
00000090: 6fdc b93c 4be3 32bc b4ad b53b 17c2 b93c
000000a0: e963 c8bb 124c 2bbc ec5c 14bd cc29 b4bc
000000b0: a159 8bbb 7fb9 e53b f919 9bbb cee0 4a3c
000000c0: 766a 9aba 77ad a43c 3115 b33c bd0f 5f3c
000000d0: 0fec 27bb f9a2 9cba 9d8c 783c 4288 8bbb
000000e0: eede 5b3c 4530 203d b020 053b b1be 903c
000000f0: 7944 d03b ee29 ee3c b0bd 51bc 3a24 ebbc
00000100: 80fc 613a 0fbc 81bb 4fb2 0d3d 5cd0 e13b
00000110: 41f7 94bc 2f47 55bb b554 903b 26a9 273c
00000120: 0624 263c 8d53 fb3b 994a 5b3c f8d5 81bc
00000130: b89b 40bc 4439 063a 065e d4bc f506 33bc
00000140: bd0e 5c3b 2009 89bb 9a20 f2bb 3d54 e2bc
00000150: 7590 4dbc caac 21bc 6836 793a 60d9 98ba
00000160: f3b0 b6ba 2979 49bc f961 beba df1f 98bc
00000170: dce4 55bb 5fa5 4e3b 7999 64bc 2b65 aabc
00000180: 4f8a 5dbc bff5 6cbc 50d4 40bc 584e 26bc
00000190: 0e69 18bc d353 17bc 4d5e 8dbc f4fa 543c
000001a0: 47b1 24bc 0925 fdbb a66a 1cbc 60da 5c3c
000001b0: aa14 0a3c 93b1 e7bc 6fdf 7ebc 9cd5 8c3a
000001c0: 9a10 d53c a5b1 353c 5f18 1abc 2785 93bc
000001d0: 408d 733a 0abe c8b9 7c3f d23c 7cfa 33bc
000001e0: c2a0 9c3c d35e 863b 08be 973b 1344 ae3c
000001f0: 42db c1bc ee91 db3b 9b7e 79bc 0e73 27bc
00000200: c955 663c 9c3a a23c ead4 9a3c 0f08 fabc
00000210: f1e0 f93a e875 ec3c c685 8cbb c1b4 e0bb
00000220: 3686 fcbb efe4 a23b 3c96 f3bb bf4a 53bc
00000230: 1459 abbb e3d3 023c 703f 243c f7c7 ebbb
00000240: 1891 d5bc 5915 06ba 7130 3e3c f835 93bc
00000250: 44b0 6ebc 4b25 28bc b919 4a3c 5ca9 6abc
00000260: 332d 0e3a c398 d33a 4394 013b 2c15 b33b
00000270: ed0a 49bc 1c6a 6e3b 224e 543c c6d8 043c
00000280: 6d1f 7b39 30c3 f63b 5ebf 993a 5ae9 313c
00000290: 53ee 1fb9 b2ca d73a 0c6d 5abc c442 74bc
000002a0: c059 a03a 3a12 1e3b 1b42 1bbb 8af4 71bc
000002b0: d324 a5bc 076d 28bc 99a1 603c f64a a9bc
000002c0: 3a63 07bc f9d5 7b3a b935 5539 86ad 8539
000002d0: 7f06 2b3a 22c1 93bc 4327 05ba c3d8 bc3b
000002e0: 3fec aabc d459 1d3c 493d fa3b fded abb9
000002f0: 1687 faba cc16 c1bb 16c6 f63c e953 f63b
00000300: 89f3 b8bb cbef 88bb e494 e93b c1c1 52bc
00000310: 1cba 4d3a 7038 783a 3db2 0d3c b1d0 12bb
00000320: db46 523b 4a6e 753b 8ea2 b23c 66cd 8e3c
00000330: 7b61 a93c 778f 55bc 5dfc 613b 4e3e 2b3c
00000340: 2b2f 8f3c 7e94 eb3c 0e9e b83c 7efc e13b
00000350: 5f99 78bb c55a febb c0d1 49b9 c40e 0f3a
00000360: b724 79bb 6dfc 283b cf20 403c f4a4 81bc
00000370: 0315 2a3c ebc2 a53c 4d30 243d 8849 2c3c
00000380: f18b 86bc 2d05 a3bb ee3c 1e3d c662 753c
00000390: 4857 9cba d69e b33b 8d1e 91bc 03ee 22bc
000003a0: 88a7 d9bc 635a 5abc d6f9 9d3b b087 dcb9
000003b0: 23b7 a4bc dcf9 99bc 450c 49bb 78d3 9a3a
000003c0: 22f2 aabc 5bc9 b4bc e9cd e3bc 1564 5ebc
000003d0: e9da 633c 7fcf b6bc 3062 cdbc d70b 9e3b
000003e0: d5bd 88bc fdb6 56bc 6d72 abbc 85f0 f43b
000003f0: ac73 1d3a 0fb2 093b e46a 4c3c 18d4 01bd
-0.030536557 -0.0022695009 0.0008924204 0.0009608529 0.00019086293 -0.014632151 -0.01905147 -0.000101592515
0.012705081 -0.0065035154 -0.011506556 -0.013562123 0.0004536706 0.019655954 -0.009018421 -0.014309187
1.7706907e-05 -0.009068411 -0.019634457 -0.009883367 -0.004921043 0.004557498 0.009964628 -0.013677326
-0.036720213 -0.009871728 0.014536761 -0.00883954 -0.011313898 -0.012936737 -0.036095664 -0.024503302
0.002386036 0.01042584 0.016565567 -0.030872064 0.022688119 -0.010918449 0.0055443887 0.022675557
-0.006115426 -0.010455148 -0.03622143 -0.021992587 -0.004252628 0.0070106382 -0.004733321 0.012382699
-0.0011780995 0.020102246 0.02186069 0.013614592 -0.002562288 -0.0011950425 0.015170244 -0.0042581866
0.01341985 0.039108533 0.0020313673 0.017669054 0.006355819 0.029072728 -0.012801573 -0.028703798
0.0008620694 -0.003959186 0.034593876 0.0068912935 -0.018184306 -0.003254365 0.004404629 0.010233199
0.010140425 0.007669872 0.013384485 -0.015849099 -0.011755876 0.00051202276 -0.02592374 -0.010926952
0.003357812 -0.004181996 -0.0073891403 -0.027628059 -0.012546648 -0.009867856 0.00095067034 -0.0011661462
-0.0013938233 -0.012296953 -0.0014525048 -0.018569885 -0.0032637632 0.0031531674 -0.013952606 -0.020800194
-0.013521745 -0.014462887 -0.011769369 -0.010150515 -0.009302391 -0.009236294 -0.01725688 0.012999285
-0.010052032 -0.007725362 -0.009546911 0.013479799 0.008427778 -0.028282916 -0.0155562 0.0010744813
0.026008893 0.011089717 -0.009405225 -0.018007828 0.0009290762 -0.00038288563 0.025665037 -0.010985013
0.019119624 0.0041006594 0.004630808 0.021272695 -0.02366412 0.006700746 -0.015227939 -0.010220302
0.014058539 0.019803338 0.018900353 -0.03052142 0.001906423 0.028864816 -0.004288408 -0.006857485
-0.007706429 0.0049711387 -0.007433681 -0.012896239 -0.005229125 0.007985088 0.01002489 -0.0071954685
-0.026070163 -0.00051148754 0.011608229 -0.01797007 -0.014568392 -0.010262798 0.012335234 -0.014322605
0.00054236053 0.0016143549 0.0019772209 0.0054651704 -0.012270671 0.0036379164 0.012958081 0.008108323
0.00023948932 0.0075305924 0.0011730005 0.010858858 -0.00015252204 0.0016463606 -0.013331663 -0.014908496
0.0012233779 0.002411975 -0.0023690525 -0.014767775 -0.02015916 -0.0102799 0.013710403 -0.020665627
-0.008263404 0.00096067745 0.00020333276 0.00025497022 0.00065241003 -0.018036429 -0.0005079398 0.0057631447
-0.020864604 0.009603936 0.0076367003 -0.00032792977 -0.0019113745 -0.00589261 0.030123752 0.007517327
-0.005644266 -0.004178976 0.007128345 -0.012863577 0.0007847862 0.0009468859 0.008648452 -0.0022402222
0.003208569 0.003744977 0.021806028 0.017431926 0.020676365 -0.013034693 0.0034482696 0.010451866
0.017478546 0.02875733 0.022536304 0.0068965545 -0.0037933213 -0.0077622854 -0.00019246992 0.00054572173
-0.0038016269 0.0025785223 0.011726572 -0.015825726 0.010380986 0.020234546 0.040085126 0.010515578
-0.016424151 -0.0049749822 0.038632326 0.014977163 -0.0011927867 0.005481581 -0.017714763 -0.009944442
-0.026569143 -0.013327214 0.0048210425 -0.00042062765 -0.020106858 -0.0187959 -0.003067748 0.001181229
-0.020867411 -0.02206867 -0.027808147 -0.013573666 0.013907173 -0.022315739 -0.025071234 0.0048231888
-0.016692081 -0.013105151 -0.020928586 0.007474961 0.0006006311 0.0021010672 0.012476657 -0.03169641

layer3.fc1.bias f4 [120]
00000000: 0731 2fbc 0cd6 763c 3b53 83bb 6409 213c
00000010: d34d 7a3b e514 173c d8d5 a03b b300 9eb9
00000020: 5bb0 223b b9fe 943b 6204 5d3c 9979 41bc
00000030: 6842 cd3c 65bb 593c 7738 0ebc 67ff ad3a
00000040: 0320 463b d607 cd3a 77b5 373b d53f 72ba
00000050: 6364 ecbc ecb2 243c 57a5 2abc 522e 36bc
00000060: 2f41 b23a 454b 8b3c e666 2a3c b1c5 14bc
00000070: 3817 30b8 2207 98bb 4819 8fbc 1c82 f9bb
00000080: 3149 653e 2a4b 1bba a9e9 aa3b 63f5 003c
00000090: 7d6c 67bd 3670 52be 0392 f0bb d220 ff3a
000000a0: 8af9 bbbb d35f 983a ea1c 523c 4267 f53d
000000b0: b4a9 21bb 1a67 16ba c0cf 983c e947 2ebc
000000c0: a5e4 efbb e6bd 13bb 997e 41bc 3e49 023b
000000d0: e448 fa3b 2ede 4d3b 57cc 50bc 1d43 533b
000000e0: 5dff 85bb 2dd7 9cba 60a4 75bb e137 20bb
000000f0: 9435 59bc a047 07bc cc90 be39 b6a6 053e
00000100: abc6 c2bd 64ec 12bb d648 caba 71d0 6bba
00000110: db3b c9bb 7114 0dbc 211e f0bb b5a4 aeba
00000120: 50f4 ccbb fe9b 0e3b 54af 543a 6c39 69bb
00000130: aff6 25bb bb67 07bc 7aed 29bc 6a27 3d3c
00000140: d90e 07bb 94a3 803c 9543 61bc e833 973b
00000150: ea96 db37 4b5d 1c3c f6e6 87bc 934b 883c
00000160: 6656 923b fd2b 1ebc dcce 95bc 8c13 de3b
00000170: 8149 dfbb 064d 2a3b be01 05bc 5aeb b1bc
00000180: d635 aaba 25be 403c ae37 e93d d5bb 383b
00000190: 7e15 973a 3af7 34bc 7446 41bc 0eef 3bbc
000001a0: ba1f ba39 2939 ab3b e7ea 27bb 0826 debb
000001b0: 2a92 103b 0e33 b3bc f533 383b 3187 a83b
000001c0: ab88 c73e 6a97 0ebc 32d0 99bb e8c6 c038
000001d0: 0099 2e38 b815 5abc d686 fabb cc7c 813e
-0.010692841 0.015065681 -0.0040077246 0.009828899 0.003819336 0.00922129 0.0049083047 -0.0003013663
0.0024824354 0.004546967 0.0134898145 -0.011808776 0.025056079 0.013289307 -0.008680454 0.0013274968
0.0030231483 0.0015642594 0.0028031745 -0.0009241079 -0.028856462 0.010052424 -0.010415397 -0.011119442
0.0013599748 0.017003665 0.010400509 -0.009080336 -4.1983294e-05 -0.004639522 -0.01746811 -0.007614387
0.22391202 -0.0005923981 0.0052158427 0.007871005 -0.056499947 -0.20550618 -0.0073416247 0.0019464737
-0.0057365345 0.0011625238 0.012824276 0.119825855 -0.0024667801 -0.0005737409 0.01865375 -0.010637262
-0.0073209577 -0.0022543608 -0.011809968 0.0019880082 0.007638084 0.0031412947 -0.012744031 0.0032236048
-0.0040892796 -0.0011965983 -0.0037482008 -0.002444737 -0.013257403 -0.008256823 0.00036347506 0.13051876
-0.09510549 -0.0022418732 -0.0015433084 -0.0008995599 -0.0061411685 -0.008610831 -0.0073278104 -0.0013324233
-0.0062547103 0.002176046 0.0008113284 -0.0035587205 -0.0025324037 -0.008264477 -0.01037156 0.011545042
-0.0020608215 0.015703 -0.013749023 0.004614342 2.617711e-05 0.009543727 -0.016589623 0.0166376
0.004465866 -0.009654042 -0.018287115 0.0067772325 -0.0068141823 0.002598585 -0.008118091 -0.02171867
-0.0012986015 0.011764084 0.11387573 0.0028188128 0.0011526791 -0.0110452715 -0.0117965825 -0.011470569
0.00035500323 0.00522532 -0.002562219 -0.006779436 0.0022059777 -0.02187493 0.002810714 0.005143069
0.38971457 -0.008703092 -0.0046940083 9.1923226e-05 4.1627325e-05 -0.013310842 -0.007645468 0.25290525

layer3.fc2.weight f4 [84, 120]
00000000: 6a0e f339 e332 5bbb d4dc babb c8dc 8d3b
00000010: 145c 873c c3e0 f43b cc3a 43bc e855 9a3c
00000020: f1a9 243b 091e 07bc 44da 3e3a 2404 d53b
00000030: 68c7 823c 2e9b cf3b 1632 7fbb 31a5 e8bb
00000040: e54a 0fbc b662 48ba bc2c e93b 19cd b9bb
00000050: 02db a53c 2b8f c1b9 c71f 933c 2d2d 91bb
00000060: 1c17 8d3b 2a89 a03b fd29 863a 5276 5fba
00000070: 066d 1f3b 20a1 b6bb 9146 34bb 412f 02bc
00000080: cbce 25bb ded5 3abb 364a f2b9 8227 a43b
00000090: b7e2 68bb e47a 173c 2bcd 84ba ac93 fb3b
000000a0: 94af 8ebb 33f1 543b ff57 eabb d518 daba
000000b0: b5a5 5abc e0b0 16bc 07ca 1f3c 6089 ad3b
000000c0: 3431 f1b9 d0ce f339 976b b93b bac7 d63b
000000d0: 0452 a83b 584c dc3b ea2c 303b 64a0 e2bb
000000e0: 940c 02bb 616d 333b 479f cc3b b943 313b
000000f0: d9a6 00ba e4f3 acbb cc63 20ba bb24 093b
00000100: 37ea dc3a 691b 143c f031 233c b307 36bb
00000110: 9d5c b03b 9967 9a3b 4393 cebb 8a7c b6bb
00000120: 9b6e 12bc e83a 5139 7dc0 173c e651 b83b
00000130: cc5f cbbb 033c 4fb9 8ae1 e0bb 3ce1 c43a
00000140: d8d6 073c 6f32 493b abca 30bc 9737 893a
00000150: abc4 0f3c 0dc4 d03a 6bc9 b73b 20ad aa3b
00000160: f0c8 8cbb bee1 22bb 7517 f839 c083 443b
00000170: e8b5 143c 3f26 67bb c7bf 983b 44e7 73bc
00000180: 9104 b73a 705d f2b9 0ca1 20bc 0dbb 8dbb
00000190: 1e23 3c3b 4b1c 123a bf24 cbba 633c 053a
000001a0: 239d afbb 8d75 ddbb 9455 613b 85f3 b5bb
000001b0: 6fcc ec3b e042 77ba 8071 bd3b b27f 283b
000001c0: c7d5 7abb 9e15 26bb 5b1f ab3b d9fa 153b
000001d0: a394 a3bb 7bea cf3a 0b1e 33bb 88ee debb
000001e0: 7a74 093c bac8 64ba 7618 2abc 7b7e 8cba
000001f0: 5257 0d3c 15ee 103b e364 05bc 7a4a 6b3c
00000200: 06db b1ba f069 69bb 1be9 673b 7e1a 853b
00000210: 0f6e 9e3b 699d 25b9 851d 56bb 98cd 56bb
00000220: c10a 953a fc8d f1bb 3020 bdbb e6c7 b53a
00000230: fc35 283c 7ace 85bb 4fe5 543c a71f 28bb
00000240: 49f0 5c3b ddbe 66ba ed26 d8bb 406e e9ba
00000250: 29e1 303c 48c0 44b9 1d7a 40b9 953c 8dbb
00000260: 558d 0fb8 78f4 efbb 74a8 1f3b 045e 103a
00000270: b2c3 01bb 331d 703b 6cb0 53b9 0ffd a63a
00000280: 8afe 67bb 163d 74bb 625a d9bb a088 25ba
00000290: 3e6b 97bb 2a4c 2dbb aeeb 1c3a 9805 133c
000002a0: ed6a a63a 787a 0b3b 9c38 ae3b f67a 413b
000002b0: d556 813b 5788 0dbb 96ae a13a d27a bdba
000002c0: e64c 363b 9feb c2bb 6553 413b 564a 163c
000002d0: db8b e43a 57c7 f1ba d591 9cbb a5d8 91ba
000002e0: f8af b3ba b4e9 153c 7b99 ac3b ae3e 00bb
000002f0: c416 e83b 1242 2c3b c926 c33b 3209 d939
00000300: 3e72 15bb 4db4 d038 31a8 db3a ac81 2e3b
00000310: 8ac6 dabb 711d 7dbb 516f 87ba 0ac2 2a3a
00000320: 5c3a 0abb d73f 2b3a 4529 303a 91cc da3b
00000330: 22e7 bc3a 84d1 88ba 8209 fc3b 9da9 8cbb
00000340: 3d93 8dbb 6a6f 48bb cc33 a8ba e1be 05ba
00000350: 223c dd3b fed4 a0bb bd05 d3b9 7924 02bc
00000360: bf4a 6a3a 0b08 cfb9 1d4f ce3a 1f81 b83b
00000370: 2cc4 113b 4d15 87bb d58e 78ba a455 943a
00000380: 66eb 113b 8fd2 b63a e7bd 15ba 9454 d0bb
00000390: e641 4f3b a296 e2ba 9194 3d39 bfe0 37bb
000003a0: 2ae9 24ba f89b adba 7b4c a63b ca12 98bb
000003b0: 4271 433a 2b24 aa3b 52b4 bc3b d02e dbbb
000003c0: 73de cc3b e598 d5ba b807 7d39 5751 67bb
000003d0: 6d79 22bb dd56 213b 83fc f23a a145 2a3b
000003e0: adbe f4ba c784 7d3a 320d a1bb 5554 4dbb
000003f0: ef27 9539 8017 fc3a 1191 66bb e3cc 433a
0.0004635931 -0.003344708 -0.0057025943 0.0043292977 0.016523398 0.0074730827 -0.011915874 0.018839791
0.0025125707 -0.008246907 0.0007280449 0.0065007377 0.015964225 0.0063356375 -0.0038939766 -0.0070997705
-0.008745884 -0.00076441036 0.0071159285 -0.0056702015 0.020246033 -0.00036918497 0.017959489 -0.004430434
0.0043057334 0.0048991637 0.0010235902 -0.0008524406 0.0024326458 -0.005573407 -0.0027507881 -0.0079458365
-0.002530026 -0.0028508822 -0.00046213128 0.0050095925 -0.0035535523 0.009245608 -0.0010131946 0.007677516
-0.0043544266 0.0032492399 -0.0071516032 -0.0016639481 -0.013345172 -0.009197444 0.009752757 0.0052959174
-0.0004600376 0.0004650266 0.0056585777 0.006554571 0.00513673 0.006722968 0.002688224 -0.0069160927
-0.0019843923 0.0027378427 0.0062445733 0.0027048422 -0.0004907675 -0.0052780975 -0.00061183865 0.0020926434
0.001685447 0.009039738 0.0099606365 -0.0027775585 0.005382134 0.004712057 -0.006304176 -0.0055690454
-0.008937503 0.00019953738 0.009262201 0.0056249974 -0.0062064882 -0.00019763414 -0.006862824 0.0015020738
0.008290969 0.0030700227 -0.010790507 0.0010468838 0.008774917 0.0015927568 0.0056087277 0.0052086264
-0.0042964146 -0.002485379 0.00047319723 0.0029985756 0.009076573 -0.00352706 0.0046615335 -0.014886681
0.0013963153 -0.00046227453 -0.009804022 -0.0043252767 0.0028707455 0.0005573674 -0.0015498622 0.00050825457
-0.0053593083 -0.006758398 0.0034383284 -0.0055527114 0.007226519 -0.00094322674 0.0057813525 0.0025710878
-0.0038274394 -0.0025342475 0.0052222437 0.0022885113 -0.004992084 0.0015862727 -0.002733114 -0.0068033375
0.008389587 -0.00087274204 -0.0103818085 -0.0010718846 0.008626776 0.0022114564 -0.008141729 0.014361018
-0.0013569302 -0.0035616122 0.0035386744 0.004061996 0.0048348974 -0.00015794266 -0.0032671404 -0.0032776352
0.0011371003 -0.007371662 -0.0057716593 0.0013868778 0.010266777 -0.004083452 0.012994125 -0.0025653632
0.0033712557 -0.00088022446 -0.006596437 -0.0017809346 0.01079587 -0.00018763647 -0.00018356038 -0.0043102005
-3.4225483e-05 -0.007322844 0.002436188 0.00055071735 -0.0019800481 0.0036638498 -0.0002018825 0.0012740212
-0.003539952 -0.0037267855 -0.006633089 -0.0006314609 -0.0046209386 -0.0026443102 0.0005986047 0.008973502
0.0012696661 0.0021282714 0.005316807 0.0029522753 0.0039471188 -0.0021596157 0.0012335356 -0.0014456159
0.002781683 -0.0059484984 0.002949917 0.0091729965 0.00174367 -0.0018446249 -0.0047781267 -0.0011127187
-0.0013709059 0.009149957 0.0052673197 -0.001956861 0.007082792 0.0026284498 0.0059555513 0.00041396316
-0.002280369 9.9517965e-05 0.0016758499 0.0026627583 -0.0066764997 -0.0038622285 -0.0010332857 0.00065138994
-0.0021091914 0.0006532645 0.0006720017 0.0066772182 0.0014412145 -0.0010438417 0.007691563 -0.0042926804
-0.0043205307 -0.0030583986 -0.001283282 -0.00051019905 0.006751553 -0.004908203 -0.00040249332 -0.007943266
0.00089375296 -0.0003948811 0.001574013 0.005630627 0.0022242172 -0.0041224123 -0.0009481733 0.0011317027
0.0022265553 0.0013948249 -0.00057121966 -0.0063577387 0.0031624972 -0.0017287324 0.0001807979 -0.0028057543
-0.00062908477 -0.0013245335 0.005075035 -0.0046409117 0.00074555364 0.0051923 0.0057588005 -0.00668893
0.006252104 -0.0016296176 0.00024130836 -0.0035296285 -0.0024791614 0.0024618425 0.0018538389 0.0025981443
-0.0018672548 0.00096709694 -0.004914903 -0.0031330783 0.00028449247 0.0019233078 -0.003518168 0.000746919

layer3.fc2.bias f4 [84]
00000000: 2535 0fbc 82f5 b0bb 78fd 2e3a 3723 d83b
00000010: 16dc 89bd 364d 903b 614b 20bb a414 b53b
00000020: 9f0c 8239 32f5 5b3a b910 893e d918 113b
00000030: 53b1 a13b 8dee 7b3a 1f9c 793b e075 2bbb
00000040: 7ea2 26bb 99db 103a 3657 873b e4f6 013b
00000050: 28fc feb8 7223 bf3b 104d 96bb 523e 9eba
00000060: c56b e1ba 55b0 09bd ee7d 573b ef7d 6c3d
00000070: a846 9c3b fc50 063a 4380 933a 273d 9b3a
00000080: 2719 b1bb bf24 8b3b a89a b1bb 4cbb 8fbb
00000090: ef12 93bc ff8f 17bb 42df fe3a 5733 0ebc
000000a0: 6e22 153a 30d3 953e fe49 febb d7c2 debb
000000b0: 0957 9bbb 27ca 3bba 4957 f2bc 2e71 733a
000000c0: acf4 533a 4a12 bc3a cbd5 2839 dcb3 583e
000000d0: 31ef a0ba c4fa 533b 18d1 023b 4c92 ad3b
000000e0: b84e 463a 8118 7ebc 347e a4bb 5a59 5fbb
000000f0: 96fd f4ba 8389 bf3b 76e2 e63a 105b 32bb
00000100: ed05 acb9 f41d 59bb 315a 973b f3d2 edb9
00000110: c0bc c33b 2635 b7ba 597a 0b3e 3249 933a
00000120: 86e0 a83b a430 753a 053a b3b9 a19e adbb
00000130: 0804 21bc 8fe0 1cbd 9d68 d6b9 f37d 0ebe
00000140: dd45 6dbb f66b a3bb 1609 f6bb ddf1 3bbb
-0.008740698 -0.0054003606 0.0006675343 0.006595995 -0.06731431 0.0044037355 -0.0024458992 0.005526142
0.00024804936 0.0008390724 0.2677057 0.0022140054 0.004934469 0.0009610437 0.003808744 -0.0026162788
-0.0025426443 0.00055258867 0.0041302694 0.0019830996 -0.000121586316 0.005833083 -0.0045868233 -0.0012073016
-0.0017198256 -0.03361543 0.0032881456 0.057737287 0.004769165 0.0005123762 0.0011253435 0.0011843786
-0.0054046097 0.004246324 -0.005420048 -0.004386341 -0.017953364 -0.00231266 0.0019445198 -0.008679233
0.00056890293 0.29262686 -0.0077602854 -0.006798129 -0.0047406 -0.0007163607 -0.029582636 0.00092865794
0.000808547 0.0014348712 0.00016101373 0.21162361 -0.0012278316 0.0032345513 0.0019961055 0.005296981
0.00075648306 -0.015508772 -0.0050199274 -0.0034080357 -0.0018691297 0.00584525 0.0017615098 -0.0027214922
-0.00032810812 -0.0033129426 0.004618906 -0.00045361332 0.0059734285 -0.0013977631 0.1362089 0.0011237024
0.0051537184 0.00093532563 -0.00034184768 -0.005298451 -0.009827621 -0.038300093 -0.00040895204 -0.13915233
-0.0036204972 -0.004987235 -0.0075084073 -0.0028678097

layer3.fc3.weight f4 [10, 84]
00000000: c802 9fbb 864f 7cbb c65f 1abb 85da 0cba
00000010: 2e25 453d 362e 073c 1d1e 19bb 8646 ce3b
00000020: 3b3a 4d3a 9624 8bbb 05ed 55be 24e3 4138
00000030: e1c8 263c 0cd3 0eba 7d9d b63b b0e1 a1bb
00000040: 8d1f afbb 2bff 00bb 97e3 c43b 2b83 af3b
00000050: 5ab3 293b 38fe 153c dfb7 c9b9 1117 7abb
00000060: cad8 4ebb a23c 153c 97e7 e03b 016d d93d
00000070: aa99 303c 65ae aa3b badb 09ba 0c1c 133c
00000080: 9435 73bb d321 0a3c 1a01 9ebb d008 0ebc
00000090: 0df9 b939 02cc b2bb 7bfc 18bc 0ec8 753b
000000a0: 0bcc 013b 9d13 823c 632d 00bc ab45 e3bb
000000b0: 7247 43bc 755f f8bb aa2b cbba ac82 9db9
000000c0: 7f30 ff3b 7927 5fb9 f60a 7f3b 5d8d 163d
000000d0: 653d e4bb 3d4e 53ba ba4f ed3b d847 0dbc
000000e0: e9e3 723b 862a 83be 6e62 a8bb 218a dfbb
000000f0: d795 1abc 740a 373c 6ebf 973b e00b 84ba
00000100: 94fe cb39 062e a2bb 27b4 51ba 6075 e4bb
00000110: 197e 8d3b 17c8 1abc 91ba 1abe a590 20ba
00000120: 7c36 3f3c fc67 5d3a b45d 0cbc 30b7 12bc
00000130: d41f e3bb 90e9 f73c 4934 2b3c 8aa7 173e
00000140: d084 cfba 897f 9f39 8e6e c9bb b2bd d33b
00000150: ebec dd3a 292a 03bb fef5 6439 2f2a d93a
00000160: a2ec e03c 9949 0f3a c506 1f39 cfaf 74ba
00000170: aa0a 9a3a 9c85 9db9 8a9b 0bbd d40c 363a
00000180: f950 253a 91a7 9b39 dcfe 49b9 157e ce3a
00000190: 00a8 7aba 7b66 533a 41fe 18b9 e0d5 0c39
000001a0: 674a ac3a f447 44ba 7763 28ba 7152 9a3a
000001b0: d5f6 6aba 05fe 783e cc4e 57ba 00b5 0cbe
000001c0: 435b 113a adbe bfba b0bf 3dba ddcc d739
000001d0: 3b4b 9b3a 9f2a 8abb 0860 0b3b d53b 993a
000001e0: aa23 a53b 14bf a63a 099c 013a 300e 41bb
000001f0: 83d9 303a 514f 37be 6c9f 94ba c12b a8b9
00000200: 1c46 10ba 1685 9bba 264c 083e 13a1 37bb
00000210: 86cc acba 176b 0f3b 031b d4ba 13db abbe
00000220: a836 0d3b 501e b1b8 290e 2d3b eaec 593b
00000230: affd 9436 9022 083d 7f35 873b 6249 83b9
00000240: a1bf b13a befd 243a 078e 32ba 996e e039
00000250: b22e bd36 4800 2cb8 acaf e4b9 931a 2d3a
00000260: 7152 5238 c61e 01ba 1247 09be 247e 23ba
00000270: 5468 d437 1d73 06bb 0e2a ec3a edb1 9c39
00000280: df3a 4d39 e6a1 5dbc deda 8539 6339 66bd
00000290: f4ec 5eb9 d809 d43a 60fb eb38 c863 9dba
000002a0: 7db4 173b 4d0e 313a eef5 0c39 f91c 373b
000002b0: 6baf 85bd ed73 64bb 8291 453b 9816 143a
000002c0: 3e7a 54ba 5ca7 423b 06f8 a7bd 4f91 20ba
000002d0: 2d57 33ba 217d 80bb bb0f b8bb 45ea 8d3b
000002e0: 3e06 d4ba 3cee b5b9 30a3 80bb 80dc 04bb
000002f0: f8a3 563a adcd 76bb 5c7b a8b8 1739 9439
00000300: 7c38 a8b9 73f5 4fbd a3b9 23bb 44d8 343e
00000310: 3108 55ba bf54 01ba 6b4e 89b8 3abb cdba
00000320: 4b6e ce3a 96c9 d53a 9fb1 e93b 6b49 5e3b
00000330: 6ec3 393c e83a 723b 4580 e63a 71dc efba
00000340: 81e7 4e39 59f1 0a3e 3886 fc38 51de bc3a
00000350: fad0 f6b9 4355 4aba 39c1 de3c 6058 94bb
00000360: 4560 05bb 9b42 b3bb 8934 61bb ae59 0c3e
00000370: 00ab ae3a ad83 12bb 355e 3e3b 70eb 413b
00000380: e8b0 37b9 034c 423d e34c 7d3b b647 a03a
00000390: a730 c039 2ebe 173a 6de5 193a d8fe 8db8
000003a0: 35b9 693b 7be9 f13a c6ea 3eb9 4139 abb8
000003b0: aff5 5fbb bc07 6639 7e21 f6bb ce78 1e3b
000003c0: 2a01 0abb 8cd0 f93a 9578 7ab8 185c 163b
000003d0: 72d8 883a b6fd 803d c5b7 8a3a ed17 66be
000003e0: b1bd a1ba ee7f 59ba 5c65 b63b 2298 193b
000003f0: 8dbf 84b9 9c0d e038 5b59 393b 544b d23a
-0.0048526265 -0.0038499548 -0.002355562 -0.0005373138 0.04813116 0.008250764 -0.0023363896 0.006295028
0.00078288064 -0.0042463047 -0.20891197 4.6226327e-05 0.010179729 -0.00054483186 0.0055729733 -0.004940234
-0.0053443373 -0.0019683342 0.006008576 0.0053562126 0.0025894255 0.009154849 -0.00038474702 -0.0038160721
-0.0031562322 0.009108694 0.006863545 0.10616494 0.010778824 0.0052087777 -0.0005258877 0.008978855
-0.0037110792 0.008430916 -0.0048219087 -0.008669093 0.00035471507 -0.0054564485 -0.00933754 0.0037503275
0.0019805457 0.015878493 -0.007823321 -0.0069357953 -0.011918889 -0.0075797387 -0.0015500684 -0.00030042732
0.0077877636 -0.00021281642 0.0038916445 0.03675591 -0.0069653266 -0.00080606696 0.00724217 -0.008623086
0.0037062115 -0.2561838 -0.005138687 -0.006821886 -0.009435139 0.011171926 0.0046309745 -0.001007434
0.00038908853 -0.004949334 -0.0007999562 -0.006972 0.0043180105 -0.009447119 -0.15110232 -0.00061250693
0.011670705 0.0008445976 -0.008567262 -0.008954808 -0.0069312844 0.030262738 0.0104494775 0.14810005
-0.0015832428 0.00030421864 -0.0061472123 0.0064618224 0.0016931569 -0.0020014143 0.00021835414 0.0016568358
0.027456585 0.0005465984 0.00015165943 -0.0009334059 0.0011752446 -0.0003004492 -0.03408388 0.00069446606
0.00063063164 0.0002968875 -0.00019263796 0.0015754128 -0.0009561777 0.0008064282 -0.00014590567 0.00013431115
0.0013144732 -0.00074875285 -0.0006423513 0.0011773837 -0.00089631724 0.24315651 -0.0008213341 -0.13740921
0.000554491 -0.0014628969 -0.00072383415 0.0004116063 0.0011847982 -0.0042165066 0.0021266956 0.0011690805
0.005039652 0.0012721741 0.00049442105 -0.002945792 0.0006746279 -0.1790135 -0.0011339015 -0.00032076056
-0.0005503611 -0.0011865224 0.13310298 -0.0028019592 -0.0013183511 0.00218839 -0.0016182367 -0.33565578
0.002154747 -8.445664e-05 0.0026406145 0.0033252784 4.4402764e-06 0.033236086 0.0041262503 -0.00025040942
0.0013561138 0.0006293914 -0.0006811325 0.0004280701 5.638075e-06 -4.1008258e-05 -0.00043618435 0.0006603386
5.014468e-05 -0.0004925545 -0.13406017 -0.0006236753 2.5320951e-05 -0.002051539 0.0018017904 0.00029887204
0.00019572255 -0.013527369 0.00025530806 -0.056207072 -0.00021259842 0.001617725 0.000112524955 -0.0012007887
0.002314835 0.0006754145 0.00013443056 0.0027940853 -0.06527599 -0.0034859136 0.0030146544 0.00056491187
-0.00081053737 0.0029701805 -0.082016036 -0.00061251683 -0.00068412983 -0.0039211665 -0.0056171096 0.0043309056
-0.0016176177 -0.0003470051 -0.0039257035 -0.002027303 0.00081878854 -0.0037659213 -8.033842e-05 0.00028271295
-0.0003208554 -0.050771188 -0.0024982474 0.17660624 -0.0008126526 -0.00049335876 -6.5472756e-05 -0.0015696057
0.0015749423 0.0016310688 0.00713177 0.0033918272 0.011338098 0.003696138 0.0017585835 -0.001829995
0.00019731933 0.1356863 0.000120412966 0.0014409517 -0.00047076476 -0.00077183935 0.027191745 -0.0045271367
-0.002035157 -0.0054705865 -0.0034363589 0.13706085 0.0013326108 -0.0022356317 0.002904785 0.0029589795
-0.00017518143 0.04743577 0.0038650564 0.0012228403 0.00036657343 0.0005788532 0.0005870674 -6.770872e-05
0.003566337 0.0018456423 -0.00018207272 -8.16458e-05 -0.0034173538 0.0002193739 -0.007511317 0.0024180892
-0.0021057823 0.0019059344 -5.9716946e-05 0.0022943076 0.0010440482 0.062983915 0.0010583332 -0.22470064
-0.0012339858 -0.0008296956 0.005566282 0.0023436625 -0.00025319718 0.00010683687 0.002828202 0.0016044178

layer3.fc3.bias f4 [10]
00000000: dd25 03be b29d c6be d0f9 ab3e b3de 0e3f
00000010: d51a a73e d42b f2bc 0ce7 c6bd d70b 82be
00000020: 2b99 acbe 1602 4dbd
-0.12807412 -0.38792187 0.3358903 0.5580856 0.3263766 -0.029561915 -0.097120374 -0.25399658
-0.33710608 -0.050050817
