output/models_cifar10_120.pth (torch_old, 248636 bytes, 10 tensors)

layer1.conv1.weight f4 [6, 1, 5, 5]
00000000: db01 533c b4b3 54be c425 673d 8a90 febd
00000010: 0acf 5cbd bd65 8a3e d147 4ebe d9b4 cf3e
00000020: 05ba b0bd 3037 4f3e 5a92 ae3d 1393 f2be
00000030: f4e4 ad3e efb8 9dbe fb3e 3abd 6950 843e
00000040: 6b06 e4be 86f9 f33e eda3 5fbe 57d9 b73d
00000050: 72f8 533e f5e1 f6be 4c07 d53e a56b 3bbe
00000060: 56cd 48bc 15bb 2cbb b253 89bc ecc2 30bd
00000070: 0d13 9f3d ae3e bebc b88a 1d3d 3207 ee3d
00000080: 295b cdbe 10e4 363d 35c5 4c3e a91b 51bd
00000090: d647 7d3e c4e1 b63e de03 55bf ab51 6f3e
000000a0: c27c 853d 8c24 d7be 4340 1b3f 1d93 d03d
000000b0: a393 9dbe 9a25 f33c 24fa 8f3c 35be 90be
000000c0: 9e63 9a3e 0a12 80bd e3ba b5bc 1d30 98bb
000000d0: a103 0bbd 753b c03d 815e 1d3d c10f 5cbd
000000e0: 9cf0 f53a 85e9 e23d 2e3d 383d fa86 68bd
000000f0: 3193 8fbe 4f6b 613d b83f 643e 03cb abbd
00000100: b3bc fabc 4a7d b3be 006a 9d3e ff26 363e
00000110: 7d4c 9abd ebf1 c63b 0e8e c8be 43d0 7b3e
00000120: 9df3 183c a24f 063d 38f9 8ebd 22c3 b3bd
00000130: 7be6 93be 5271 b4bd ef08 44bd 699b 7a3d
00000140: 42ea 5b3e 4806 343f 7807 a13e 5419 553e
00000150: 3da3 83bc f890 cebd b519 b8be f7d1 1ebe
00000160: b697 b5bd fa43 e6bc 8552 9b3d 5732 9abd
00000170: 888d cbbd 8b7a a03d 1714 1c3e 0859 9fbd
00000180: 044c e83c 8825 86bd 9941 71bd b559 9bbd
00000190: 9dad a4bd fc31 763d ba27 a3bc 6e98 7a3d
000001a0: cb6c b2bd 2436 18bc e09b 603d d469 7b3d
000001b0: a414 d8bd de74 d13d e5fa 47be 21e8 9bbe
000001c0: 8cfc 9dbd 11e4 b1bc ba71 84be 3802 353e
000001d0: 08a7 f33d 57c6 14be 069e a6bd 635a 253e
000001e0: 0876 adbc 2d4c 8b3d 4d05 dc3d e52b 503d
000001f0: bc13 b8bd 2df6 e93c ba5a 2dbe 8000 853e
00000200: 8224 2abd 1b3d 54bd f287 e4bd b6ca b63e
00000210: 101c 653e 6138 f8be b797 01bb b767 163e
00000220: aca2 8a3e ebbe 51bf 5350 5f3d 7b39 803e
00000230: f8bb 31bc f669 84be 784d ccbd b06f 013f
00000240: 9449 2abe c47f b93d bad7 fabd 7752 5c3e
00000250: 4fa6 03be 2f76 8cba
0.01287886 -0.20771676 0.0564325 -0.124299124 -0.053908385 0.27030745 -0.20144583 0.40567663
-0.086292304 0.20235896 0.08524008 -0.47377834 0.3396374 -0.30805156 -0.04547022 0.25842598
-0.44536147 0.4765131 -0.21839876 0.08977001 0.20700243 -0.48219267 0.4160713 -0.18302782
-0.012255987 -0.0026356627 -0.016763542 -0.043154642 0.077673055 -0.023223247 0.03846237 0.11622466
-0.40108612 0.04465109 0.19997104 -0.05105177 0.24734434 0.3571912 -0.83209026 0.23370998
0.06517936 -0.4202007 0.6064493 0.1018431 -0.307767 0.029681016 0.017575331 -0.28270116
0.30154127 -0.06253441 -0.022183841 -0.0046444074 -0.033939008 0.093863405 0.038420204 -0.05372596
0.0018763724 0.110796966 0.04498022 -0.05676935 -0.28041986 0.055033978 0.22289932 -0.08388331
-0.030607557 -0.35056525 0.30744934 0.17788313 -0.0753412 0.0060713193 -0.3917088 0.24591164
0.009335426 0.032790788 -0.069811285 -0.08777453 -0.2888678 -0.08810677 -0.047860082 0.061183367
0.21476081 0.70322084 0.3145101 0.20810443 -0.016069049 -0.10086244 -0.35957113 -0.15509783
-0.08866827 -0.028108586 0.07584099 -0.07529133 -0.09939104 0.07835873 0.15242039 -0.07780653
0.02835656 -0.06550127 -0.05890045 -0.0758547 -0.080409266 0.060106263 -0.019916404 0.061180525
-0.08712157 -0.009290252 0.054836154 0.061380222 -0.10550812 0.10227369 -0.19529302 -0.30450538
-0.07714185 -0.021715196 -0.25868016 0.17676628 0.11897093 -0.14528786 -0.08135609 0.16147761
-0.021174446 0.06801639 0.107431985 0.05082311 -0.08988139 0.028559769 -0.1692914 0.25976944
-0.041538723 -0.051816087 -0.11158742 0.3570153 0.22373986 -0.48480514 -0.0019774267 0.14688002
0.27077234 -0.8193194 0.054519963 0.25043854 -0.010848038 -0.25862092 -0.099757135 0.50561047
-0.1662963 0.090575725 -0.12248178 0.21515833 -0.1285641 -0.0010716374

layer1.conv1.bias f4 [6]
00000000: c292 83be 5bf7 75be 7e18 88be cf85 81be
00000010: f9ad 86be 19a5 8cbe
-0.25697905 -0.2402014 -0.26581186 -0.252974 -0.26304606 -0.2746971

layer2.conv2.weight f4 [16, 6, 5, 5]
00000000: ed40 3e3b b111 bcbc 2135 003d 19ca 133e
00000010: f0a3 f83b 6778 8e3d 0aa4 23bd 7254 a63d
00000020: e0ae 773d 0a40 2e3e 7c89 a83c 919a 5d3c
00000030: 8126 033d 0531 5a3d 9b99 ad3d c42a 1a3e
00000040: c322 9fbd 940f cb3d 7241 f03d 79fa 7abd
00000050: 2c6b 87be 270e 69be 2522 29bf 065a 2abf
00000060: 6ed3 e1be b9f2 3a3e 1cf2 f23d 34bd 15bd
00000070: b19e 55bd 3532 ce3d f9fd e93d 332c 2f3e
00000080: 4f63 ab3d 0cc2 f23d 1c09 0e3e e9f8 a43e
00000090: 548c 273e f707 bd3d 7c72 5a3d 51b9 fd3d
000000a0: 2638 a23e f4e2 be3d bdd5 263e 507d 9e3b
000000b0: 0ed0 8fbd df76 ac3e df63 3cbc 5a4d 23be
000000c0: 66d5 2cbe 357b 8fbc 16f8 6e3d 2d6a 173e
000000d0: f491 a4ba 5bce d03d 897f e03c fd08 8f3d
000000e0: ae61 ebbc e45f aa3d 77e3 2abd 3738 e23d
000000f0: ccd4 3e3b a29e 95bd 3df6 cc3c 5613 4a3d
00000100: 9298 43bc a08c 89be 057b 203d 3fa7 65bd
00000110: 9397 863d fe49 af3d 5f44 a9bd 6821 86be
00000120: a57e e3be 9750 ddbe ad70 57be 1d08 983e
00000130: acb0 bebd 6670 a5bd 6008 97bd 672f 203e
00000140: 5450 563e 527a 353d 3577 383e 2550 a63c
00000150: 32ea 19bd 764e e53d b0c8 703e 9953 0b3e
00000160: ff9f 6f3e 5a71 a3bc d0d3 f7bd 02f1 453e
00000170: 5855 dc3d 975a 723e 9eec a1bc 0d84 49bd
00000180: 4823 693e 3e0d 863e e65f 723e 0b26 ba3e
00000190: d49a 6a3e 54ee 34bd 502f a73c 6674 893d
000001a0: 32b2 053e 97c3 b63e 6f07 943d c7c8 2a3e
000001b0: ce16 1fbd fa9c 3d3e 3540 a93e 17d6 603d
000001c0: 44d6 7b3e 6628 ab3d 1886 933e 3630 ef3d
000001d0: 4faf 303e e70c 083f f461 933e 7853 13ba
000001e0: fdc1 51be b4aa 0d3f 95df 023f 8353 e63d
000001f0: fe56 6abe a351 53bd 1efd d6bd f39c 7f3d
00000200: a892 7e3d 54d4 af3d 1fbe 71bc c5c3 34be
00000210: bebd b2bc a11a 3c3e 323d ab3e 7e1e 123d
00000220: cf82 b9bd b3ab 983d 74a3 013e e851 583e
00000230: ff63 8abd 0389 703c 254e 61bd 5864 af3d
00000240: e1e6 af3e 449e 923c 3203 aa3d 9553 30be
00000250: 2a45 5e3d 6b6a 583e a4f9 65bd 087e 933d
00000260: 2e6a 803d 2828 f33d 2c46 e7bd 17e5 a23d
00000270: 3e22 babd 4d35 383d fe1d 5fbe 2933 d5bc
00000280: 5baf 3b3e 51ad 9d3e dce8 69be 7db6 ccbc
00000290: 67c0 a13c 2409 2ebe b79c 9bbe 5611 0b3e
000002a0: 30f1 0ebd 6214 2ebe d86d a8bd 2578 893d
000002b0: 5597 aebe d85a bfbe 4494 1fbe 3ecd 163e
000002c0: f859 1b3e 6355 263e 4d37 8a3e 9112 e63d
000002d0: b003 493e db67 623e 1e84 4abe 89bd b43e
000002e0: 8e0f 183e add2 54be 0610 b83e eb7d ebbe
000002f0: 9161 213e ee3b d83c 0d95 0b3d 386c 12be
00000300: 8452 d7be f6a1 f1be 6249 ef3d b787 9e3e
00000310: d63a a53e 172a 023f d900 a4bd 1649 f0be
00000320: d956 eebc a130 a83d e329 f73d 9b3b 9abd
00000330: 8525 b53d ced8 ae3d 5463 91be 5825 c73d
00000340: 4451 ec3d ac19 91be 6790 0a3e 1d51 a33e
00000350: 4273 92be 1a86 1d3f 3d1e a73c 98e4 18bc
00000360: 7e3f 333e 5101 853e 0911 8a3e dbae 6b3e
00000370: abb9 c03d f1e4 d4bd 2a63 123d d964 77bc
00000380: 9c66 833e 46c4 213d 0bba 813d a030 dabd
00000390: 5bc1 8dbc b2a9 e93d 79ae 24bd 505f 873d
000003a0: 4931 33be b87f 46be ed37 4d3e 9f89 88be
000003b0: 4b28 00be ff98 bebd b2a6 65be 8654 17bd
000003c0: eac5 143d dde8 5abe 085d ddbd 6f93 2dbe
000003d0: 088d 85be 3581 0b3e 3a29 debd 7e56 72bd
000003e0: dc83 3b3e e00c 57be de73 bb3d fc6b 183e
000003f0: 0d7f cdbe f97f 7bbd 6fd4 403e 34fb 50be
0.0029030398 -0.022957655 0.031300668 0.14432563 0.0075879022 0.06956559 -0.03995136 0.081215754
0.06046951 0.17016616 0.02057337 0.013525621 0.032019142 0.053269405 0.084765635 0.15055376
-0.07770302 0.09915081 0.11731233 -0.061274026 -0.26448953 -0.22759305 -0.66067725 -0.66543615
-0.4410662 0.18256654 0.11862585 -0.03655739 -0.052153293 0.1006817 0.114253946 0.17106704
0.08368551 0.11853418 0.13870662 0.32221153 0.16362125 0.09230035 0.053331837 0.12388862
0.31683463 0.093206316 0.16292472 0.0048367158 -0.07022105 0.3368444 -0.0114984205 -0.15947476
-0.1687828 -0.017514804 0.058342062 0.14786597 -0.0012555704 0.10195609 0.027404564 0.06984136
-0.0287331 0.08319071 -0.041720834 0.110458784 0.0029118536 -0.073056474 0.02501976 0.049334846
-0.011938231 -0.268651 0.03917982 -0.0560677 0.06571879 0.08559035 -0.08264994 -0.26197362
-0.4443256 -0.43225548 -0.21039076 0.2969369 -0.09311041 -0.08078079 -0.07374644 0.15643083
0.2092908 0.044306107 0.18014224 0.020301888 -0.03757686 0.11196606 0.23514056 0.13606109
0.23400877 -0.019951511 -0.12100947 0.19330218 0.107584655 0.2366737 -0.019766148 -0.0491982
0.22767365 0.26181978 0.23669395 0.3635715 0.22910625 -0.0441726 0.020408303 0.06711654
0.13056257 0.35696098 0.0722798 0.16678153 -0.038840108 0.18516913 0.330568 0.054891672
0.24593455 0.08357315 0.28813243 0.116791174 0.17254375 0.5314469 0.2878567 -0.0005620043
-0.20484157 0.553386 0.5112241 0.11246397 -0.22884747 -0.051591527 -0.10497497 0.062405538
0.06215158 0.0858542 -0.014754801 -0.17652805 -0.021818992 0.18369533 0.33445126 0.03567361
-0.09058153 0.07454624 0.12660009 0.21124995 -0.06757354 0.014681104 -0.055006165 0.08564061
0.34355834 0.017897733 0.08301391 -0.17219384 0.05426518 0.21134345 -0.05614628 0.07201773
0.06270252 0.118728936 -0.11292681 0.07953852 -0.090885624 0.044972707 -0.21788785 -0.026025372
0.18328612 0.30796292 -0.22842735 -0.024989361 0.019745065 -0.16995674 -0.30393 0.13580832
-0.034897983 -0.16999963 -0.08224076 0.06712369 -0.34099832 -0.37373996 -0.15583903 0.14726731
0.15171039 0.1624351 0.26995316 0.1123401 0.19630313 0.2210993 -0.19776961 0.35300854
0.14849684 -0.20783491 0.35949725 -0.45994505 0.15759875 0.026395764 0.034077693 -0.14299095
-0.42055142 -0.4719388 0.116839185 0.30962917 0.3227145 0.50845474 -0.08007974 -0.4693076
-0.029094147 0.082124 0.12068536 -0.075309 0.08845047 0.08537446 -0.28396094 0.0972392
0.11538938 -0.283399 0.13531648 0.31897822 -0.2860356 0.6153275 0.02040016 -0.009331845
0.17504689 0.25977567 0.26966122 0.23015921 0.09410413 -0.103952296 0.0357391 -0.015099728
0.25664222 0.03949382 0.06334313 -0.10653806 -0.017304113 0.1140932 -0.040205453 0.06609976
-0.1749927 -0.19384658 0.20040865 -0.26667497 -0.1251537 -0.093065254 -0.2242687 -0.036945842
0.036321558 -0.21377893 -0.1080876 -0.16950773 -0.2608416 0.13623507 -0.10847707 -0.059164517
0.18312019 -0.21001005 0.09152959 0.14884943 -0.40135995 -0.06140134 0.18831037 -0.20408326

layer2.conv2.bias f4 [16]
00000000: 093f fcbe ee3c 20bf 7905 0abf 805a cabe
00000010: ab34 0fbf 271d ddbe 6adf cebe a041 8fbe
00000020: d489 1bbf 4d69 fabe 8e47 c4be 5523 a3be
00000030: c2f6 87be 59a1 f9be 5b87 fabe 4d9e b0be
-0.49266842 -0.6259297 -0.539146 -0.3952217 -0.5593974 -0.43186304 -0.40404826 -0.27979755
-0.60757184 -0.48908463 -0.38335842 -0.31862894 -0.2655545 -0.4875591 -0.48931393 -0.34495774

layer3.fc1.weight f4 [120, 400]
00000000: c3ab 32bc ffaf 503b b2e3 bc3b 467d 86bb
00000010: 801b 7fbb 9e18 3abc 4b36 173c d6be 173c
00000020: b069 483c 7447 3f3c c002 db3b d842 41bc
00000030: ba0b eeba 2479 25bc 6deb b4bb 8299 a7bc
00000040: b540 12ba eec1 3d3c 4a2c 37bc 1213 29bb
00000050: 60c6 3c3c 8b67 d03b 68a2 7d3c 56fa 133c
00000060: e6ab 9abb 0a8e bb3b e516 a03b f7e7 db3c
00000070: 5ec8 1c3c cc5a deb9 4961 f4bb 3857 8abc
00000080: 380d b5bc 8273 3ebc 16ff d63c 398d b9bc
00000090: 221e e6bb 7c66 d23b 48c2 153d c756 9bbc
000000a0: 6c59 ebbc 49cd c23c e64b f73a 5df9 d03c
000000b0: f819 493b be08 7dbb bce4 80bc eb9b 8c3c
000000c0: f8fc c33b fdd3 9f3c 9283 8d3b bf02 633b
000000d0: 5fb5 af3c 9001 b73c 4b90 85bc a8db 4b3c
000000e0: bdf6 8e3c f612 17bc f574 88bb 3434 f5bb
000000f0: f16f 4ebb 5695 993a 6e9a c93c 98f3 413c
00000100: 0a4d 4abb 35ce c6bc 2ec2 9a3c 4bff 073c
00000110: 628d e6bb 4ceb f838 368f 283a ee47 6f3b
00000120: 325e bb3c 9769 9dbc 032c 60ba 683f aabc
00000130: 02ae 03b8 b67b fc3b 80ed 3eba dcd0 46bc
00000140: 82ff e63b 5291 9d3c 031b 48bc af3f b3bc
00000150: 5b66 32bc fdfb 893b a77e 9e3b d5c0 99bb
00000160: 93dc 6abc 3a11 bebb 703c 36bb 9e89 b23c
00000170: da03 4c3c 1d4f ccba e3ff 523c 32d9 5c3c
00000180: abe7 00bc 5cd3 e2bb 8221 5dbb 38c9 81bb
00000190: 4ee6 4abc d982 e7bc 0937 e2bc 3b62 23bc
000001a0: 6f46 f83b 6283 f33b 624b fdbc 7097 9e3b
000001b0: 01fe 933b 3452 3f3c 3c5c 6dbb d7a2 5abc
000001c0: 425f ba3b b13c 533c 7e3b 5abc 6386 1f3c
000001d0: 0747 80bc 828d ecbb 0a7e 543b e064 873b
000001e0: 68fc 003c a33e 98bc 4bac a33c 4fd2 c03a
000001f0: 6b32 8dbc 7ae1 c03b 7570 40bc 963b a8bc
00000200: ec6c 91bc 2f70 103c aaee 1abc 0c17 f6bb
00000210: fb3c 98bc 4726 8b3b fcee 093c fce7 edbc
00000220: c2a2 a9bb 1c86 2fbc f2b3 b7bb 4e4a a3bc
00000230: e061 92b9 8c45 f1bb 8183 eebb 610c c63b
00000240: 431e b6bb 2a4c 853c f9f3 ae3c a339 d93b
00000250: 4c74 dd3b 0fc9 4d3c 6a97 b0bc 47d7 0d39
00000260: 0aa1 5cbc 5d15 d93b dae5 593c c763 cbbb
00000270: 162c e63b 2059 82bb e8f9 e5bb 23e2 6c3c
00000280: 08bd 0dbc 5a65 34bc e6ea 41bc 6295 ac3c
00000290: 5412 363c c39b 68bb cb57 023c b3f2 c4ba
000002a0: 9791 1b3c d139 8a3b 6fea ad3c 24c8 46bb
000002b0: 1f4e 06bc 78b1 c6bb 2d5f e5bb fda0 d7bb
000002c0: ddce 3fbc f95f 8a3c fd84 9e3c 0d08 0abc
000002d0: f04f b8bb 0680 e7bb fae1 dcbb 0327 4b3c
000002e0: c8a0 a7bb f9c2 cf3b fe7f 063c 91ad 283b
000002f0: 1402 a43c 58b0 093c 6b9c 4dbc 4bac b0bb
00000300: 7557 17bb 711d a43c c240 193c ab10 e7bc
00000310: a8a4 5ebc 212f 64bc 9ddf afbb 3226 d4bc
00000320: da31 02bd fa1a 9abc 2762 eb3b 89d6 743c
00000330: 8721 0a3c 5262 31bc 5f1d b6bb 9753 18bc
00000340: 543e 113c 08c6 1d3b 96d1 ce3b 3d88 553b
00000350: 9372 bd3c 71dc 1cbc 8dec e3bc ba09 c739
00000360: ba49 083c 60a5 3b3d e194 a73c 1c33 903c
00000370: 2711 7b39 11d1 d3b8 29ba c83b 8322 4abc
00000380: 0189 54bc 0db7 70bc 22c9 233c f71e fa3b
00000390: a7be 6d3c 53c6 2abc 48a8 dcbb 0e1d adbb
000003a0: ddb4 af3b b582 a33b 87db 60ba bef0 6c3b
000003b0: 0210 1bbc 11ec ebbb 82cb b7bc 0714 6339
000003c0: d448 3a3a 1a57 02bc 39b7 ac3a 2c75 0c3c
000003d0: a530 233c 7466 fc3b 8eee 753c 6faa 1c3c
000003e0: 812d 313c b77e 63bc 7b86 f73c 6c46 403c
000003f0: b3d4 d03b 6423 8d3c dee6 56bc e27c f3ba
-0.010905209 0.0031843183 0.005764448 -0.004104289 -0.0038926303 -0.011358408 0.009229253 0.009261807
0.012232229 0.011674751 0.0066836774 -0.011795722 -0.0018161454 -0.010099683 -0.005521229 -0.02045894
-0.00055791 0.011581881 -0.011179993 -0.002579872 0.011521906 0.0063599995 0.015480615 0.009031853
-0.004720199 0.0057237195 0.0048855417 0.026844008 0.009569256 -0.0004241079 -0.0074578864 -0.016887292
-0.02210103 -0.011624219 0.026244681 -0.022650348 -0.007022635 0.0064209085 0.036562234 -0.018962277
-0.028729163 0.023779528 0.0018867224 0.02550953 0.0030685645 -0.0038609947 -0.015734069 0.017164191
0.005981084 0.019510264 0.004318663 0.0034639088 0.02144879 0.022339612 -0.016304156 0.012442507
0.017451638 -0.009220829 -0.004164333 -0.0074830297 -0.0031499828 0.0011717479 0.02460977 0.011837862
-0.0030868673 -0.024268249 0.01889142 0.008300613 -0.007035897 0.00011869389 0.00064300315 0.003651138
0.022872064 -0.019215388 -0.000855148 -0.020782188 -3.139489e-05 0.007705177 -0.0007283315 -0.012134757
0.007049502 0.019234333 -0.012213471 -0.021880953 -0.010888661 0.0042109475 0.0048368755 -0.004692177
-0.014334816 -0.0058003934 -0.002780702 0.021794137 0.01245209 -0.0015587542 0.012878391 0.013479518
-0.007867734 -0.0069221687 -0.0033741896 -0.0039607547 -0.0123840105 -0.028260635 -0.027614133 -0.00997215
0.0075767557 0.0074314335 -0.030919734 0.00483983 0.0045163636 0.011677314 -0.0036218306 -0.013344488
0.005687625 0.012892888 -0.013319848 0.00973663 -0.015658868 -0.0072190175 0.0032423758 0.0041318983
0.007872678 -0.018584555 0.019979617 0.0014711114 -0.017235955 0.005886254 -0.011745562 -0.020536225
-0.017752133 0.008815809 -0.009456316 -0.0075100716 -0.018583765 0.0042465064 0.008418795 -0.029041283
-0.005176873 -0.0107131265 -0.005606168 -0.019932892 -0.00027920213 -0.007363027 -0.00727886 0.006043956
-0.0055578067 0.01627167 0.02135657 0.0066291853 0.0067582484 0.012560143 -0.021556575 0.00013527005
-0.013466129 0.006624861 0.01329943 -0.0062069627 0.0070242984 -0.0039779097 -0.0070183165 0.014458212
-0.008651026 -0.011010492 -0.011835789 0.021067325 0.011112768 -0.0035493232 0.007955502 -0.0015025943
0.009495161 0.004218318 0.02122995 -0.0030331695 -0.008197336 -0.0060636364 -0.006999871 -0.0065804706
-0.011707035 0.016891466 0.019350523 -0.008424771 -0.0056247637 -0.007064822 -0.0067408057 0.012399438
-0.005115602 0.006340381 0.008209227 0.002573822 0.020020522 0.00840386 -0.0125495 -0.0053916327
-0.00230929 0.02003357 0.009353818 -0.02820619 -0.013589062 -0.013927252 -0.005367233 -0.02589712
-0.031785823 -0.018811692 0.0071833315 0.014943727 0.008430845 -0.010826664 -0.0055577005 -0.009297273
0.008864958 0.0024074335 0.0063116057 0.0032582425 0.023125922 -0.009574042 -0.027822757 0.00037963485
0.008318359 0.04581201 0.020456733 0.017602496 0.00023943615 -0.00010100206 0.0061257076 -0.01233733
-0.012972117 -0.01469208 0.009996684 0.007633086 0.014510787 -0.010423261 -0.006733928 -0.0052830046
0.0053621368 0.0049899467 -0.0008577634 0.0036154236 -0.009464266 -0.007199772 -0.022435907 0.00021655868
0.0007106189 -0.007955337 0.0013177163 0.008572858 0.009960328 0.007702643 0.015010489 0.009562119
0.010814072 -0.013885192 0.030215492 0.01173554 0.006373012 0.01722879 -0.013116566 -0.0018576647

layer3.fc1.bias f4 [120]
00000000: 0a8a c23b 5a5f 21bb b7fe 7d3c 886a 253b
00000010: a0d0 fb3b ea67 77bb 6773 55bb 23ed 65bc
00000020: a6e5 953c 81ac 08bb a0c0 123c ac07 8e3b
00000030: 0d10 b63d cfa9 d4ba 7ce0 aebb 4e3a 81bb
00000040: c5c6 fe3a 03dd 0a3c fbab 5d3c 1ee8 a53c
00000050: e223 1e3c 8adb f0bb ebff 6e3a 97e8 d9bb
00000060: b116 9fbb 5696 273c f128 023b c9bd 323c
00000070: 8898 9dba ccfe 53bc c61b cbbb 8127 97ba
00000080: ba71 803e 7f34 5dba af7b ffbb 3049 d5bb
00000090: 2beb 72bd a4e0 98be 674d 72bb d3c5 8ebb
000000a0: 593d b1bb 6f3f d03b ad57 3d3b c969 033e
000000b0: 0103 09bc a924 143c 9470 58bc db93 4d3c
000000c0: 68e7 97bb bbda bf3c 98f4 613c f6f7 d13b
000000d0: fb95 013c 0036 19bc 203c 033b 2797 7e3c
000000e0: 2be8 4fbc 5e75 ad3b 61da acba 053f fb3b
000000f0: 8a10 b63b eab3 a03b 5e8a c8bd 7fe8 103e
00000100: ba28 0abd 34b6 5b3c a2f4 343c 989f 1cbc
00000110: b43a 9dbb 3858 263b 268c b63b 52bd a43c
00000120: c1e7 15bc 1026 873b 7350 01bb 4c31 41bb
00000130: aeeb 6fba 5fd2 e4bb 247e 8a3a 32d0 2b3c
00000140: cec5 103b 03e2 bfbb 96c5 5aba 7af8 7fbc
00000150: f472 33bb 69e0 eb3b 7646 783c c21e e1bc
00000160: acf2 433b e1b3 823b 757e 87bb 56ab 0c3b
00000170: 4e35 50bc fc20 013c 10f1 57bc 3bbb 23bd
00000180: 259c 593c 72aa 3fbc 57f9 013e e14b 9ab9
00000190: 330b da3a 103a 7b3b a84e ae3b e76c c43b
000001a0: 7656 923b 0aa3 56bb 7f41 31bb 1b01 06bc
000001b0: 9ed9 1239 c045 8e3b 3b5f b5bb 9b25 7bbc
000001c0: 4928 d93e ec9f 2d3a da7a 2fbc 0498 cb3b
000001d0: 4e6c 3b3c 7032 20bc b409 993a 7948 903e
0.0059368657 -0.0024623484 0.015502623 0.00252405 0.007684782 -0.0037751147 -0.0032570006 -0.014033589
0.018297981 -0.0020854773 0.008957058 0.0043344107 0.0888978 -0.0016224923 -0.005336819 -0.003943718
0.00194379 0.008475545 0.013529773 0.020252284 0.00965211 -0.00735039 0.0009117114 -0.0066500413
-0.004855 0.010228714 0.0019860829 0.010909506 -0.0012023607 -0.012939166 -0.006198379 -0.0011532159
0.25086766 -0.00084383035 -0.0077967267 -0.006508969 -0.059306305 -0.29858887 -0.0036972405 -0.0043570786
-0.0054089245 0.006355218 0.002889137 0.12833323 -0.008362533 0.009041944 -0.0132104345 0.0125474585
-0.00463574 0.023419729 0.013791226 0.006407733 0.007909293 -0.0093512535 0.002002485 0.015538967
-0.0126896305 0.0052935323 -0.001318764 0.0076674246 0.005556171 0.00490426 -0.097920164 0.1415119
-0.033730246 0.01341014 0.011044653 -0.0095595345 -0.0047982577 0.0025382172 0.005570906 0.020109806
-0.009149493 0.0041244105 -0.001973179 -0.0029478846 -0.00091522455 -0.006983086 0.0010566157 0.010486649
0.0022090557 -0.0058558 -0.00083454826 -0.015623206 -0.002738175 0.0071983826 0.015153518 -0.027480487
0.0029899282 0.0039887284 -0.004134948 0.002146443 -0.012708021 0.007881399 -0.013180032 -0.03997348
0.013281857 -0.011698352 0.12692772 -0.00029429703 0.0016635418 0.0038334168 0.005319435 0.0059944275
0.0044658734 -0.0032750987 -0.0027047095 -0.0081789745 0.00014004714 0.004341811 -0.005535034 -0.01532879
0.42413548 0.00066232565 -0.010710442 0.00621319 0.011439396 -0.00977765 0.0011675865 0.28180292

layer3.fc2.weight f4 [84, 120]
00000000: 8c72 733c 307b 663a 2ea7 5e3b 36ee d2bb
00000010: e097 203a bec0 ca3b 7e5f bfbb 15e6 08bc
00000020: 620c 093c fc73 29bb 377a 3c3c aa8e a23c
00000030: 9010 c8bb bd62 0cbb f799 a5bb 9c98 7f3c
00000040: 03eb b53a 6821 ad3b 77d8 263b 979b e03b
00000050: edb9 52bc 0734 9b3a cee7 a93b 52b0 5bbb
00000060: adce 083b b9e2 783c 797e 773c 8672 a33b
00000070: 79f5 873b f27a 7abc a437 71bb 21a0 9fb8
00000080: 82d9 8b3b 8c9c 243b 7904 1cbc ab99 2e3c
00000090: e6f2 c2bb 91f5 193c 3dda 39bb 6dfe 58bb
000000a0: 4ba5 2f3b 3dd0 b53b a971 833b 396b cdbb
000000b0: c892 8fbb fdc6 a03b 6d5d d7bb adec 073c
000000c0: 522d cebb e32d a1bb 6d1b fabb 65ab 3a3b
000000d0: a491 4c3b 1007 f0ba 7f1f e838 3b83 6d3c
000000e0: 227f 1f3c dd5d 39bc 42fc 22bc 9ae9 9f3b
000000f0: 81e8 a43a 3a19 20bc 0ac4 fdbb ef43 8639
00000100: dbb6 79ba 8df8 073c 13e5 403c c341 b5bb
00000110: 41e7 bebb d673 0a3b a10e 01bc 3320 89ba
00000120: c8f7 20bb e511 553c e8a6 2ebc 6cab 493a
00000130: 93a9 25bc 4de4 8ebc e676 aab9 a9b9 a83b
00000140: 304f 6c3b c170 0ebc 5a01 7abb ab06 633b
00000150: 0f3b 08bc 9a22 cbba 7cb6 3a3b 1f6d 2cbc
00000160: 797f f43b 0294 4cbc 0c33 2f39 d87d 37bc
00000170: 150f 29bc e2c8 693c feb5 023c 611b 643a
00000180: af8a 273c 188a 7abb c982 7639 3ee2 243c
00000190: e5fc 83bc 7a33 b03b d2f6 3c3b fbb3 673c
000001a0: b0df ee3a 7f3a a33a f56e 92bb 5ac1 9d3b
000001b0: b181 5abb 1b0c 9d3c 8182 f2bb ba34 823b
000001c0: 2bc9 893b a4cf 5c3b 20ec 0e3a 596c 0d3c
000001d0: 4c15 f93b b283 033b a9dc 3cb8 5f40 3a3b
000001e0: cc01 48bc 959c e03b f43d 88bc de00 5e3c
000001f0: a29c 32bc 8770 8cbb 0bd3 d6ba 219a 44bb
00000200: 9b94 37bc f5fa 8a3a d7cf c7b8 c146 70bc
00000210: 8768 1e3b d971 623c 7642 d3ba e794 b4bb
00000220: cc3b fe3a 4df2 333a 7de9 95bb 2395 94bb
00000230: 34f4 d53b 3bf7 8d3b 362b fd3b c5b1 2a3b
00000240: 1c1c ab3b 382c bc3a ef90 a8bb 6c3b d4bb
00000250: 1f0b db39 bcfa 5ab9 c3a5 8d3a f1f2 24bc
00000260: 5588 45bc 2dde 01bc 92e2 193b 13d3 84ba
00000270: 2422 0a3c 1d7c aabb 29e1 2c3b e91d a9bb
00000280: e651 6dba ec1e bcba 5662 3dbc a3ac 053c
00000290: 068a 31ba 6d51 0ebc 3754 583a 598a 43bb
000002a0: e3c1 213c e508 fa3b 083f 833b de4c 3c3b
000002b0: 23a7 ea3b 1500 713c 8b2a 2bba d8b7 28bc
000002c0: 5205 7bbb d4f6 6e3b 3c62 f33b 5451 d03b
000002d0: eed4 47bb 4744 aa3b 9021 2e39 e662 f7ba
000002e0: e32e e6bb 501d 49bc 9439 18bc 9d18 883b
000002f0: 8bce 1d3c 5cb3 213a 10e9 d93b c7af 2f3c
00000300: a380 573b 0d6c a5ba 00ea 223c aea2 373b
00000310: 1c14 833c dbc9 013c 5b53 caba 6a98 87bc
00000320: a147 f5bb 3061 0b3b 6799 463c b7bd 0cbb
00000330: c079 503c 368a 663b fefe 133b b3f3 723b
00000340: b8c7 d1bb c911 8b3c eda2 fabb 5998 413c
00000350: e533 463c 1d9c 50bc 096d 79bc 0f17 f7bb
00000360: 017a 19bb cf4a 7c3c bbf8 eaba cd00 7fbc
00000370: cc19 443b 0457 65bc 75bc 3d3b 6267 64bb
00000380: f4f5 b2bb 3ebd 1bbb 7ef2 3cba 5933 04ba
00000390: 5d5d 0d3c 845e 263b 1d44 863b a779 67bb
000003a0: f00f 173b 8d05 7b3a ca73 b1bb 8ec6 70bc
000003b0: 1cde 863a 9bff c0bb 2e83 303b 83ea 8f3b
000003c0: 7222 243b b6ce 013c 4eb7 4c3b 5740 223c
000003d0: 6d97 363c e636 e23b 82d0 9c3b 38fb dfb9
000003e0: 3b7f e13b 2dd9 a8ba 6e4a e3bb 378e a4ba
000003f0: 8ebb ae3b a60d 0abb 0bdb 12bb ad39 a3ba
0.014858853 0.000879216 0.0033974159 -0.0064370884 0.0006126147 0.0061875274 -0.005840241 -0.008355637
0.008364769 -0.0025856486 0.011503748 0.019843418 -0.00610549 -0.0021421157 -0.0050537544 0.01560035
0.0013879243 0.0052835234 0.0025458613 0.0068544853 -0.012861711 0.0011841067 0.005185104 -0.0033521843
0.0020875141 0.015190774 0.015105837 0.0049880175 0.0041491357 -0.0152881015 -0.0036806846 -7.611537e-05
0.0042678723 0.0025117723 -0.009522551 0.0106567545 -0.005949366 0.0093969265 -0.002835884 -0.0033110634
0.0026801403 0.0055485056 0.004011352 -0.0062688855 -0.0043815114 0.0049065338 -0.0065724165 0.008296174
-0.0062920237 -0.0049188 -0.007632664 0.0028483507 0.0031214738 -0.0018312652 0.00011068489 0.01449662
0.009734901 -0.011313883 -0.009947838 0.0048801424 0.0012581499 -0.0097716395 -0.007744317 0.00025609086
-0.0009525844 0.008299005 0.011773366 -0.005531521 -0.0058259075 0.0021126173 -0.007877023 -0.0010461867
-0.0024561752 0.013004755 -0.010659911 0.00076930854 -0.01011123 -0.017442847 -0.00032513513 0.0051490855
0.0036057942 -0.008693875 -0.0038147778 0.0034641426 -0.008314862 -0.0015497983 0.0028490117 -0.010524063
0.007461485 -0.01248646 0.00016708317 -0.011199437 -0.010318537 0.014269086 0.007977961 0.00087015895
0.010225936 -0.0038229283 0.0002350911 0.010063706 -0.0161118 0.0053772302 0.002883364 0.014142032
0.0018224623 0.0012453346 -0.0044687935 0.004814309 -0.0033341462 0.019170811 -0.007400811 0.0039735707
0.0042048893 0.00336931 0.00054520555 0.008631789 0.0076014157 0.002006751 -4.50282e-05 0.0028419716
-0.01220746 0.0068546035 -0.016631104 0.013550011 -0.010901602 -0.0042858752 -0.00163898 -0.0029999095
-0.011204864 0.0010603355 -9.5277726e-05 -0.014665307 0.002417119 0.013821089 -0.0016117829 -0.0055109146
0.0019396483 0.0006864414 -0.004574953 -0.00453438 0.0065293554 0.0043324507 0.0077260984 0.00260459
0.0052218568 0.001435644 -0.0051442306 -0.00647681 0.0004177922 -0.00020883506 0.0010806847 -0.010067687
-0.01205643 -0.007926506 0.0023480994 -0.0010133706 0.008430991 -0.0052027837 0.0026379323 -0.0051610363
-0.00090530363 -0.0014352477 -0.01155909 0.008158836 -0.0006772581 -0.008686406 0.0008252295 -0.00298371
0.009872886 0.007630455 0.0040053166 0.002873234 0.0071610375 0.014709492 -0.0006529472 -0.010297738
-0.0038302732 0.003646304 0.007427482 0.0063573513 -0.0030491906 0.0051961276 0.00016606436 -0.0018874079
-0.0070246323 -0.012275055 -0.009291071 0.0041533248 0.009631763 0.0006168389 0.0066500977 0.010723061
0.003288307 -0.0012620703 0.009943485 0.0028020549 0.0160008 0.007921661 -0.0015436219 -0.016552169
-0.0074853455 0.0021267645 0.012121535 -0.0021475384 0.01272434 0.0035177595 0.0022582407 0.0037071526
-0.006401982 0.016976254 -0.007648817 0.011816108 0.012097334 -0.012732533 -0.01522375 -0.0075405906
-0.0023418667 0.015398695 -0.0017926911 -0.015564156 0.0029922603 -0.013997797 0.002895144 -0.003485166
-0.005461449 -0.002376392 -0.0007207765 -0.0005043052 0.008628217 0.0025385926 0.004097475 -0.0035320313
0.002305027 0.0009575717 -0.0054154145 -0.014695777 0.0010289582 -0.0058898455 0.0026933658 0.0043919696
0.0025044945 0.007922819 0.0031237188 0.009903035 0.011144501 0.006903517 0.0047855983 -0.00042721047
0.006881622 -0.0012882106 -0.006936363 -0.001255459 0.005332417 -0.0021065264 -0.0022408392 -0.0012453102

layer3.fc2.bias f4 [84]
00000000: 2e6d c63b 0765 19bc ecf1 15bc 269d 593c
00000010: 0574 64bd 468a 063c 3f1e 3a3c d0ab 963b
00000020: 7950 6abc 661b 5e3c 8936 933e f402 f73b
00000030: a279 f7ba db1d 593c 6e5c 193b 911c e2bb
00000040: 1038 463c 2e0a 803b 4d05 963b afee debb
00000050: 1ae9 dfbb 3dc3 113c 858f 1f3c e5dc c53b
00000060: 13cf 8d3b 2c64 92bc d99d 423b 412f 663d
00000070: b08c cb3b a685 5abc 996d 30bc 0567 4e3c
00000080: b51b 12b9 d728 983b 24b2 a5ba 7a32 563c
00000090: 2690 c8bd 9465 673b f08c 543c c22b 40be
000000a0: 27e3 2d3c b93b 9e3e 0993 b73b c5b6 cf3b
000000b0: 8a4b 813b a7f0 2bbb e305 28bd ffb6 43bc
000000c0: 0c89 383b b7d2 adbb 885d f53b 4686 5b3e
000000d0: 542d 46bc 46f1 1a3c 7278 4f3c ed64 163b
000000e0: 7f1b f5bb 0f84 97bc 42ff c7bb 39b0 a0bc
000000f0: 71bb 95bb ffd4 53bc 99c0 b0bb cef6 1f3c
00000100: 0a58 a5bb b855 d73a 88b0 dbbb 11cd febb
00000110: 24b2 9937 420c 8a3a d8f1 0a3e e4f6 d9bb
00000120: 9eba 04bc 8033 e3bb 195d 5fbb b2b2 b7ba
00000130: 9c9c 4c3c 924a 28be 1cdb f23b 4469 33be
00000140: 9654 32bb 36ab 3f3c 4c1a fabb db9f 58ba
0.0060554957 -0.009362466 -0.009151917 0.013282096 -0.055774707 0.008211678 0.01135975 0.0045981184
-0.014301413 0.013556337 0.28752545 0.007538194 -0.0018880854 0.013251747 0.002340104 -0.006900378
0.012098327 0.0039074635 0.0045782686 -0.0068033556 -0.006833208 0.008896646 0.009738808 0.0060382956
0.0043276637 -0.017870031 0.0029696135 0.05619741 0.0062118396 -0.013337528 -0.010768318 0.012597804
-0.00013933967 0.0046435404 -0.0012641591 0.013073558 -0.09793119 0.0035308348 0.012973055 -0.18766692
0.010613239 0.3090494 0.0056022448 0.0063389265 0.0039457725 -0.002623597 -0.04102124 -0.011945485
0.0028157858 -0.00530466 0.0074879564 0.2143794 -0.012095768 0.009456938 0.012662994 0.002294834
-0.0074800844 -0.018495588 -0.006103427 -0.01961528 -0.004569464 -0.0129292 -0.005394053 0.009763433
-0.0050458955 0.0016428744 -0.006704394 -0.0077759107 1.8321974e-05 0.0010532218 0.13568819 -0.006651746
-0.008101134 -0.0069336295 -0.003408259 -0.0014015047 0.01248851 -0.16434696 0.007411374 -0.17520624
-0.0027211062 0.011698535 -0.0076325294 -0.00082635664

layer3.fc3.weight f4 [10, 84]
00000000: a9e8 4ebb 1945 0d3c 92e5 87ba 8762 63bc
00000010: 4934 c03d bd48 26bc 02ea c3bb 1157 5f3b
00000020: 0c77 453c 9b4b b23a 1f80 53be dd6f 00bc
00000030: b083 913b 7177 fe3a 4a4b 71bb 22a1 90bb
00000040: b6b7 f1bb 97b7 54bb 99ec 21bc 567b 5f3b
00000050: 6191 353c f69f 80ba 58d3 dfbb adb9 dbbb
00000060: 9c2f aa3b f62e b03c 2446 2c3c 1d83 c03d
00000070: 08f4 4a3a a8a1 f03b 77bb 8f3b a06c 15bc
00000080: a05e 19bb 19ec 10bc 0f56 5f3c 3b3b 923b
00000090: e666 1ebd cb0a 68b9 5509 26ba 9ab3 a43c
000000a0: 9950 30bc 1be0 9c3c 1938 85bb 1f6d 4cbc
000000b0: 3979 863b c41f 503a 373f c6b9 8ced 21bc
000000c0: b78e 62bb 8d33 a93b be60 f73a f2ad 413d
000000d0: 27bb 2e3b e5d2 ffbb 2c8b adbb 49c4 88bb
000000e0: f016 b03b 84fd 7cbe 35ad 0d3c ad81 503c
000000f0: 9cb3 353b afb6 283c 3d5b 713c ee3a ac3b
00000100: b493 f638 d69a d53b cb2d 373c bb44 723b
00000110: ea96 473b 9def ba3b 7fd0 2cbe a8b6 0d3c
00000120: 4489 0fbb 8d56 0e3b 9fd7 153c 8286 3abb
00000130: f883 adbb f1c9 c43d a3a6 ffbb 50dc 143e
00000140: c76a 223c 5019 58ba a9ac 213c f4b8 983a
00000150: 9b38 e73b ab95 27bc efb7 8d3b 5b04 5a3c
00000160: f85f 2a3c b7ad cc3b 9348 fa3a 5450 d1bb
00000170: 1450 32bc 230b 0fbb 86c6 a3bd 0d82 cf3b
00000180: fbd4 3fbb 7e00 54bb 4dd9 4d3b bb3e 0e3c
00000190: e463 5fbb 8213 ac3b ccc0 eb3b a3f6 e3ba
000001a0: 6298 49bc 1ae5 85ba d7a8 dd3a 587e bc3b
000001b0: 58ef f4bb 7522 853e 6497 22bc 52be 27be
000001c0: 56f5 b9ba 6e24 98bb ea4a b0bb ba8c bb3b
000001d0: 6bc5 5a3c aa55 043c e9e2 ffbb 5342 78bb
000001e0: 4040 0e3e 152e 1cba 37fe 13b6 96bb c23d
000001f0: 3c7a 3b3c e807 26be e54b 4b3a eb7f 4c3c
00000200: 0628 99bb a020 6bbb 849b 373e d6b3 0ebb
00000210: 2261 d6bb 103c 54bb c48c deba b80b 9abe
00000220: 4132 0abb 1f6e c23b 3558 943c 9c67 00ba
00000230: b53b e8bb c0d3 0d3d 2260 5fba 9657 53bc
00000240: 5c4a 14ba 0e02 9b3b 8637 4ebc 1dfe af3b
00000250: 4d0e c2b9 3783 e5bb 48da 26bc 6339 b0b9
00000260: a535 11bb 9baf d8bb f125 0dbe 97be 33bc
00000270: c2dc aa3b 6204 0b3a c1fb d5bb 99d9 0d3b
00000280: b0e1 473b e497 babc abe2 f23b bc16 fabc
00000290: d934 21bc ee12 72ba 69a1 1cbc 1322 fb3a
000002a0: de5c 193c e191 71bb 0dc5 3a3b b3bd e33a
000002b0: 6f7c adbd 89b9 7d3b 5226 493b 3b69 02bc
000002c0: e1ea a8bb 8f5b 4cbb 07b2 8cbd 83c5 253b
000002d0: 86de 4cbb 9ffc 6fbb 55c3 c33a d296 193c
000002e0: 3d0b 9fbb d128 ae3b 1047 043b 3d86 02bc
000002f0: 1045 88ba fa9b 243a f624 8bba 518a 263c
00000300: 1f6e f4ba 839b 6cbd d0d6 c3b9 1560 413e
00000310: 8fa0 763b 654a bfbb 138a abbb 83e5 b03b
00000320: c3cb 4e3c de3b d33b e9eb 113a fafa 8ebb
00000330: 592f 35bd 4d2e 2e39 5554 f03a a427 b0bd
00000340: 075a 3e3b fa0c 063e 5c60 043c a395 533b
00000350: 648c aaba 48b7 35bb 2453 46bc 365d a4ba
00000360: 99e6 d2bb 7f75 5dbb 9a2c 86bb 4acb d83d
00000370: b153 f5ba 8289 833b 5124 273c 4371 81bb
00000380: 5b5f dcbb cd5c c13c 046a 5ab9 6581 0cbb
00000390: ef5d c0bb ae80 733b 031b e439 b710 e93b
000003a0: 2f28 fa3a 3a74 c0bb 5edd 90bb 68a6 b93a
000003b0: d337 fabb e3c8 8cbb e1f9 d63b a362 5cbb
000003c0: c9f1 dfba ce88 14ba 995e 23bb 37db c13a
000003d0: 3e02 783b 96e5 9c3c d9c3 283b 73c5 6cbe
000003e0: bc7b fbbb 3d61 0cbb 22d0 8bbb 88f4 dd39
000003f0: 8d26 07ba eb10 013b 7564 e73a 3d53 8fbb
-0.0031571782 0.008622431 -0.00103681 -0.013878471 0.093849726 -0.010149178 -0.0059788236 0.0034078995
0.012052309 0.0013602854 -0.20654343 -0.00783917 0.004440747 0.0019414258 -0.0036818557 -0.00441374
-0.0073766364 -0.003245806 -0.009883069 0.0034100614 0.011082024 -0.0009813297 -0.006830614 -0.006705484
0.0051936638 0.021506768 0.01051477 0.09400008 0.0007742052 0.0073434897 0.004386361 -0.0091201365
-0.0023402348 -0.008845353 0.013631358 0.004462627 -0.03867235 -0.00022129265 -0.0006333788 0.020105172
-0.0107614035 0.01914983 -0.0040655253 -0.012477188 0.0041038063 0.0007939304 -0.00037812602 -0.009883296
-0.0034569928 0.005163616 0.0018873436 0.047285028 0.0026661844 -0.007807123 -0.0052961316 -0.0041737896
0.005373828 -0.24706084 0.008647253 0.01272623 0.0027725464 0.010297461 0.014731226 0.0052560484
0.00011757706 0.006518702 0.0111803515 0.0036967236 0.0030454942 0.0057048337 -0.1687641 0.008649506
-0.0021901885 0.0021719069 0.009145646 -0.002846152 -0.005295273 0.0960883 -0.007801847 0.14537168
0.009913153 -0.0008243518 0.009867826 0.00116518 0.0070563084 -0.010228555 0.004324905 0.0133067025
0.010398857 0.0062462944 0.0019095115 -0.0063877497 -0.01088335 -0.0021826706 -0.0799685 0.006332642
-0.0029271233 -0.0032348926 0.003141004 0.008681948 -0.003408664 0.005251349 0.007194614 -0.0017392229
-0.012304397 -0.0010215372 0.001691128 0.005752366 -0.007474821 0.2600285 -0.00992379 -0.16381195
-0.0014187496 -0.0046430146 -0.005380024 0.005723563 0.013352732 0.0080770645 -0.007809032 -0.003788133
0.13891697 -0.00059577945 -2.205268e-06 0.095084354 0.011442717 -0.16213953 0.00077551446 0.01248167
-0.0046739606 -0.00358776 0.17930418 -0.002177467 -0.006542341 -0.0032384433 -0.0016979207 -0.30087066
-0.0021087083 0.0059335376 0.018108467 -0.00048982515 -0.0070871958 0.03462577 -0.00085211 -0.0128993
-0.00056568324 0.0047304695 -0.01258648 0.005370869 -0.00037013218 -0.0070041674 -0.010183878 -0.00033612092
-0.0022157219 -0.0066127307 -0.13784005 -0.010970733 0.0052143047 0.0005303082 -0.0065302555 0.002164459
0.003049951 -0.022777505 0.007412275 -0.030528419 -0.00983926 -0.0009234388 -0.009559968 0.0019159935
0.00936052 -0.0036860632 0.00284988 0.001737526 -0.084709994 0.0038715324 0.0030693007 -0.007959659
-0.005154953 -0.0031182503 -0.068698935 0.0025294728 -0.0031260564 -0.003661908 0.0014935533 0.009374337
-0.0048536346 0.0053149243 0.0020183958 -0.007966575 -0.0010396559 0.0006279346 -0.0010615874 0.010164813
-0.0018648541 -0.057765495 -0.00037353346 0.18884309 0.0037632321 -0.005837726 -0.0052349656 0.0053984537
0.012621823 0.0064463457 0.00055664644 -0.004363415 -0.044234607 0.00016611181 0.001833568 -0.08601311
0.002904536 0.13090888 0.0080796145 0.0032285235 -0.001301181 -0.0027727652 -0.012104783 -0.0012539986
-0.006436181 -0.0033791957 -0.0040946724 0.10585649 -0.0018716959 0.004014195 0.01020153 -0.0039502694
-0.0067252344 0.023603821 -0.00020829594 -0.002143943 -0.0058705728 0.0037155556 0.00043507674 0.0071125883
0.0019085462 -0.0058732303 -0.0044209203 0.0014163973 -0.0076360493 -0.0042964085 0.0065605496 -0.0033628128
-0.0017085607 -0.00056661374 -0.002492821 0.0014790063 0.0037843133 0.019152444 0.00257515 -0.23122196
-0.0076746624 -0.0021420263 -0.0042667547 0.00042334595 -0.0005155586 0.0019693922 0.001765384 -0.0043739364

layer3.fc3.bias f4 [10]
00000000: b81a 1dbe 9111 a8be f0d9 973e 8226 fe3e
00000010: 9ab5 af3e 7aa7 00bd be02 9cbd b4b8 80be
00000020: b30e 9abe e984 10bd
-0.15342224 -0.32825902 0.2965846 0.49638754 0.34318238 -0.031409718 -0.076177105 -0.25140917
-0.3008934 -0.035283003
