output/models_cifar10_30.pth (torch_old, 248636 bytes, 10 tensors)

layer1.conv1.weight f4 [6, 1, 5, 5]
00000000: 8ced 95bb 398d 2dbe bff7 11bb 1f79 f9bd
00000010: fb0e c9bd 8618 9c3e 5a4b 3ebe 46cb e33e
00000020: 97c8 87bd cf41 673e af9a fc3d 4054 30bf
00000030: 134f f73e 9fdb cebe d7fa 8abd b0e8 f33e
00000040: e545 4cbf ca36 5e3f b966 d5be e737 343e
00000050: f3e1 843e 0589 30bf b8b9 0f3f 3651 5abe
00000060: 1a4a 3bbd 269b 443c 454c 87bd 6dd4 f6bc
00000070: c82a db3d 3e64 f8bc 749a 6f3d 08eb 5f3e
00000080: 21fd 2fbf 44cb 403e 1a4f 6e3e 4dce b1bd
00000090: 7be1 cc3e eaff 003f dda5 a2bf 5a3e c83e
000000a0: 01ff a83d 8092 15bf 2678 5e3f 1c19 413e
000000b0: 2c89 01bf 8108 24bc 60be cd3d ed8b e4be
000000c0: 6e6c eb3e f10b bbbd e5e0 32bd db34 2cbd
000000d0: 1e46 98bd 13a7 0a3e deb4 983d 960c b8bd
000000e0: ecd9 13bd e9d1 4d3e 723a 913d c607 79bd
000000f0: deea b1be 1543 003c 6775 873e a1c7 b2bd
00000100: 9d74 13bd 3658 c6be 381c a53e 607c 613e
00000110: c390 46bc 7585 0ebb dacc 0bbf 5fcc cc3e
00000120: a3b1 dabc a7ee 683d 693d c6bd 4104 e5bd
00000130: ec65 b5be cb2b 53be a529 c1bc 8051 6b3d
00000140: daf6 9b3e 90c1 533f 2ea7 193f 56af 063e
00000150: c663 8e3d cdea 0abe ae64 f2be 083c adbe
00000160: 000f f7bb 85e9 04be 105e 0b3e 6d4b 273c
00000170: b171 a2bd ef98 aa3d 29f8 543e 4c19 9abd
00000180: fd26 51bd c5f1 c4bc de25 12be 1c24 93bd
00000190: 4bdd f9bd a4c2 3b3d 0d2a 79bc 9174 0e3e
000001a0: 66dc cbbd 1dcc f83c 92bc d93d 50cf 8a3d
000001b0: e5f0 1bbe 9dfb 073e 45da 9abe 99a2 dfbe
000001c0: 142b 17be a4a1 f63c d09b a1be 98b4 833e
000001d0: 5b30 813e 35a6 33be 46d7 00be 8c94 443e
000001e0: e9a6 a9bd b1ee 173d b7c9 363e 366f 1c3d
000001f0: 6bfb f8bd a8db 463d 66bb 9abe aa96 b93e
00000200: 35b5 823c cdf4 f0bd 8f8f cebd 8bbe a73e
00000210: 380a 163f 24b0 5abf 2299 e03c 9bf5 833d
00000220: b134 0b3f 0383 a4bf 9d64 b23d a3cb cd3e
00000230: f288 68bc acfb 99be 4757 93bd a7c8 393f
00000240: ab5f a1be 14fd 173e b4e3 f0bd 773b 553e
00000250: b228 61be 2366 2c3d
-0.004575437 -0.16948403 -0.0022272912 -0.12181305 -0.098173104 0.3048746 -0.18583432 0.44491023
-0.06630056 0.22583698 0.12334191 -0.68878555 0.48302516 -0.40401933 -0.06786125 0.47638464
-0.7979415 0.8680235 -0.41679934 0.1759945 0.25953636 -0.68959075 0.5614276 -0.21320042
-0.045724966 0.011999881 -0.06606344 -0.03013059 0.10701519 -0.030321237 0.058496907 0.21867001
-0.6874562 0.1882754 0.23272362 -0.08681927 0.40015778 0.50390494 -1.2706867 0.3911007
0.08251763 -0.58426666 0.8690208 0.18857235 -0.5059993 -0.010011793 0.10046077 -0.44638005
0.45981163 -0.09133137 -0.043671507 -0.042042594 -0.07435249 0.13540296 0.07456373 -0.089867756
-0.0360965 0.20099606 0.07091226 -0.06079843 -0.34749502 0.007828494 0.26456758 -0.087294824
-0.035999883 -0.38739175 0.32248092 0.22020102 -0.012119475 -0.0021747027 -0.54609454 0.39999673
-0.026696032 0.05686822 -0.09679682 -0.11182452 -0.35429323 -0.20622174 -0.023579428 0.05745077
0.3046177 0.8271723 0.6002072 0.13152823 0.06952624 -0.13566132 -0.47342438 -0.33834863
-0.00753963 -0.12979706 0.13610101 0.010210854 -0.07931841 0.08329951 0.2079779 -0.07524356
-0.051062573 -0.024041066 -0.14272258 -0.07184622 -0.122004114 0.04583992 -0.01520778 0.13911654
-0.09954147 0.030370766 0.1063167 0.06777823 -0.15228613 0.13279577 -0.3024465 -0.4367874
-0.14762527 0.030106373 -0.31564188 0.2572372 0.25232205 -0.17543872 -0.1258212 0.19197291
-0.08283789 0.03709287 0.17850386 0.038191997 -0.12157329 0.048549324 -0.302211 0.3624776
0.015955547 -0.11765442 -0.100859754 0.3276256 0.5860934 -0.8542502 0.02741677 0.0644333
0.54377276 -1.2852482 0.08710597 0.40194425 -0.014192807 -0.30074823 -0.07194381 0.72571796
-0.315183 0.14842635 -0.11762181 0.20823465 -0.2198818 0.042089593

layer1.conv1.bias f4 [6]
00000000: 1de0 bfbe 547c c0be 5716 aebe 9552 9ebe
00000010: 620c a5be ffff c6be
-0.37475672 -0.37594855 -0.3400142 -0.3092238 -0.3223601 -0.38867185

layer2.conv2.weight f4 [16, 6, 5, 5]
00000000: a2d6 c43d 3270 8dbd 4908 743d 8d64 7f3d
00000010: c396 803d de73 783d a1db 33bd e991 343d
00000020: 3ece 1cbb a283 fcbc 88fa 23bd 7574 38bd
00000030: 6b3f 8dbb dbe7 96bc 5167 903d 544c 89bc
00000040: 2ad7 23be 8f93 2cbe b169 ec3d 1fb5 c1bd
00000050: 66cc 68be c27d 92be fa42 1ebf ca8e 41bf
00000060: ff0c 9abe 59d0 a73e b730 4f3e f415 963d
00000070: 44b5 5d3d 1ad3 383e 5721 9e3e d3fa 2f3e
00000080: a8a8 803e 7f16 ba3d e58f 0c3e 33eb c93e
00000090: 03d3 4e3e 884e 353e e2f3 d53d 2f4a 473e
000000a0: 786b e73e 23c7 ac3e e4d0 953e cbac 2d3e
000000b0: b5e0 d2bc 3ecd d43e d4b0 453e bbba 9abd
000000c0: da4f d33c c0b0 c2bd 5618 553e abb0 993d
000000d0: b81a bd3b 36a7 4b3e da51 55bd a3bf 55bd
000000e0: 55a0 243e 1374 0c3d 1c83 30be 4882 c53d
000000f0: 30bf 0ebe fc05 92bc 9449 853d ed87 3f3e
00000100: 9260 38bc 8760 a3bd 413b 18be aeaa 84bd
00000110: 048f a43e 0968 243e c521 1dbe 6c5b 94bd
00000120: af49 bbbe 524f b4be dd1c 28bd 4cee 743e
00000130: 24aa 9abd 42fc a63c 9f52 513d 2980 123e
00000140: 2f7d ac3d 3a8d 593d 2e89 4d3e 85f9 523e
00000150: d2e6 d83d cb63 81bd e58f 853e 2d60 613e
00000160: b5c9 123e ce8f 413e cf3c 66be c458 7b3e
00000170: e225 9e3e 80f1 233e a852 c23d 183e fcbd
00000180: bd7e 3e3d dc0e 313e 7ddc cc3e ab4a 893e
00000190: b2f3 4c3e 34f2 a43d 8bb8 febd d5c8 8b3e
000001a0: dc6b d93d 45fb bf3e 25ec f03d f695 463e
000001b0: 80cb be3d 5b77 c53e f1e4 9d3e c6e0 6e3e
000001c0: 7474 a33d d90b 1c3e 22d3 f23e 2c21 663e
000001d0: 8ca7 a1bc d774 fd3e ee50 aa3e 0f52 263e
000001e0: 4cf8 07bf 1d56 b13e 7dc5 513f f357 2c3e
000001f0: a397 05be 4216 01bd 909d f5bd 2121 53bd
00000200: 2211 9b3b dac0 73bc d8f5 58bd 735b 31be
00000210: f368 693c adfc 54bb fd89 923d e47b 683d
00000220: 1d13 1ebe 7d4d fe3c de76 a5bb bc8e 093d
00000230: 2b54 4d3d e875 4dbd fe85 69bd a34c 3a3e
00000240: 2525 103e b3a9 1b3d f34e 193e ed5e fb3a
00000250: 1365 283e 98c6 203e 91e9 2abd 70eb f13b
00000260: e0c1 8b3d f3e6 3e3e 8305 17be 2878 6a3e
00000270: 2b86 bc3d 3517 dc3d aacd 63be 8b1a c43d
00000280: 8de9 b6bb 7aaa af3e 1d18 eabd c17b 1e3b
00000290: 5214 b6bd b8b7 0cbe e3dd 80be 13fa bebc
000002a0: f7ef 223d b1ec 4ebe 7f51 9bbd 63df 123e
000002b0: bc58 07be 3687 ddbe 2f6a 04be 2507 363e
000002c0: 28e0 c63d 0a59 5d3d 2640 853e 1fef 0d3d
000002d0: dea6 3c3c e019 543d 93b7 dabe c5ae ae3e
000002e0: de39 603e 8777 8bbe 003b 3f3d c9fe 91be
000002f0: 32eb 993e c379 de3d 2d93 17bc 10e3 eabc
00000300: 6773 b9be bcf7 fcbe ea42 353d b62f 263e
00000310: 5dd8 923e fdf6 033f a751 9cbc 2ba7 9abe
00000320: a25e 3fbc 194c 083e 7181 7b3e d005 c2bc
00000330: db7d e03d 2117 c83b acab a0be c4d6 0b3d
00000340: bff4 923e 244c acbe 88b4 213e 3b7f eb3e
00000350: bc05 2abd de65 253f 40ea 283d 419f 9a3d
00000360: 9d16 283e e644 143e 2984 183e ff87 803e
00000370: beb2 c23d 4c99 55be ec92 cf3c 6933 a43c
00000380: 135e af3e 7df6 053e b909 143e 47e4 04be
00000390: ee23 10be 283c c53d b4de 103e 2c11 ca3d
000003a0: 3b7a a1be afba a0be b2be 823b 22b2 adbd
000003b0: 2d94 91bd 1662 89be 48cf cfbe 3982 15be
000003c0: 74c3 573e e398 a4be 995c 71be d0d9 d1be
000003d0: 2952 8cbe 3092 463e 149c fcbd b31b bebd
000003e0: 7851 363e 97c7 90be bce4 753e f2cc 863e
000003f0: 6526 e5be 2553 3fbe 120a 043c 2ba1 45be
0.096112505 -0.06906165 0.059578214 0.062351752 0.062787555 0.060657375 -0.043910626 0.044084463
-0.002392664 -0.030824486 -0.040033847 -0.045032937 -0.0043105385 -0.018421104 0.07050956 -0.016760029
-0.16000047 -0.16853164 0.115435965 -0.09458374 -0.22734222 -0.2861157 -0.6182095 -0.75608504
-0.3008804 0.32776144 0.20233427 0.07328406 0.054127946 0.18049279 0.3088481 0.17185526
0.25128675 0.09086322 0.13726766 0.39437255 0.20197682 0.17705739 0.104469076 0.19461893
0.4519918 0.3374568 0.29260933 0.16960447 -0.025741914 0.41562837 0.19305736 -0.07555147
0.025794912 -0.09506369 0.20810065 0.075044 0.0057710074 0.19888005 -0.052080013 -0.052184712
0.16076787 0.034290385 -0.17237514 0.0964399 -0.1394012 -0.01782512 0.065081745 0.18704195
-0.011253493 -0.079773955 -0.14866354 -0.06477867 0.32140362 0.16055311 -0.15344913 -0.07244
-0.36579654 -0.35216767 -0.04104315 0.23919028 -0.07551983 0.020383958 0.051104184 0.14306702
0.084223144 0.0531132 0.20071861 0.20602997 0.105909005 -0.06317862 0.26086345 0.22009344
0.14334758 0.18902513 -0.22484134 0.2454558 0.30888277 0.16010094 0.09488422 -0.12316531
0.046507586 0.17290825 0.4001197 0.2681478 0.20014837 0.08054009 -0.124375425 0.2730166
0.10616276 0.3749639 0.11763791 0.19393143 0.09316158 0.38567623 0.3083873 0.23327932
0.07981196 0.15238895 0.47426707 0.22473592 -0.019733213 0.49503204 0.3326487 0.1624224
-0.53113246 0.34636012 0.8194197 0.16830425 -0.13046126 -0.031515367 -0.11992943 -0.051545266
0.004732267 -0.014877522 -0.05296883 -0.17320041 0.014246213 -0.003249924 0.071552254 0.056758776
-0.15436979 0.031042809 -0.0050495705 0.033583388 0.050129097 -0.050161272 -0.05701255 0.18193297
0.1407667 0.038003635 0.14971523 0.001917807 0.16444807 0.15700758 -0.041726653 0.0073828027
0.06824088 0.18642788 -0.14748196 0.22897398 0.09205278 0.10746614 -0.22246423 0.09575375
-0.0055820406 0.3430975 -0.114303805 0.002418265 -0.088905945 -0.13741958 -0.25169286 -0.023312604
0.03977963 -0.20207478 -0.075839035 0.14343028 -0.13217443 -0.4326722 -0.12931131 0.17776163
0.09710723 0.054039992 0.26025504 0.03465187 0.011514394 0.05178249 -0.4271818 0.34117714
0.21897075 -0.2723963 0.046687126 -0.28514698 0.30062252 0.10863068 -0.009251398 -0.028672725
-0.36220858 -0.49407756 0.044253267 0.16229138 0.28680697 0.5154875 -0.019081904 -0.30205664
-0.011680277 0.13310279 0.24561097 -0.023684412 0.10961505 0.006106273 -0.31380975 0.034140363
0.2870235 -0.3365184 0.15791523 0.45995507 -0.041509375 0.6460856 0.041239023 0.075499065
0.16414876 0.14479408 0.14894165 0.25103757 0.095067486 -0.2085926 0.025338612 0.020044046
0.3425146 0.13082309 0.14456834 -0.12977706 -0.14076206 0.096306145 0.14147455 0.098665565
-0.31538567 -0.31392428 0.003990018 -0.08481242 -0.071083404 -0.26832646 -0.4058783 -0.14600457
0.21070653 -0.32147893 -0.2357048 -0.4098649 -0.27406433 0.19391704 -0.12334457 -0.09282627
0.17804515 -0.28277275 0.24013036 0.26328236 -0.44755855 -0.18684061 0.008059042 -0.19299762

layer2.conv2.bias f4 [16]
00000000: 24d8 3bbf 805c 7abf f915 42bf ec87 3ebf
00000010: eb2c 6abf d3ae 22bf 06c8 36bf 5a8e fdbe
00000020: 929b 6bbf 991b 5dbf 1454 1bbf fb9a f4be
00000030: dcd2 fabe 3883 47bf cc19 43bf 676f f7be
-0.7337668 -0.97797394 -0.7581478 -0.7442615 -0.9147479 -0.6354801 -0.7139896 -0.49522668
-0.92034256 -0.86370236 -0.6067517 -0.4777449 -0.48988998 -0.779346 -0.7621124 -0.4832718

layer3.fc1.weight f4 [120, 400]
00000000: 98ca 983c aa56 92bb 04ca b33b f028 c5bb
00000010: 79cb 353c 0b8e 8dbb 1f08 5dbc 31a8 e53a
00000020: a484 49bb 803c 5f3b a7f3 ddbb 2960 893b
00000030: 7663 49bc e237 c1bc 2b81 693c 899e 80bc
00000040: 2215 4b3c 7bf2 a1b9 d827 a0bb bd65 043c
00000050: b663 1e3b 16d8 853b c593 24bc cef2 80bc
00000060: 6d68 873c b2c6 32bc 880d b9bc 9f62 babc
00000070: c491 3fbc 6345 c43b 99fa 23bc 9ebe c2bc
00000080: 681c 80bc 848c 4f3c 8a71 a6bc fc3c 853c
00000090: b0d9 273c faaf 53bb 4fa6 1f3d 3c24 043c
000000a0: 9f1c 643b faaf c2bc 5283 7bbb 7e48 293d
000000b0: d4ab 65bc 87c8 173d cc84 843b b07e 79bc
000000c0: df55 3c3b 9401 99bc 2b8a ad3c 2b05 d73b
000000d0: 97ec 76bc e98b 913c 5dab db3a 6562 b73a
000000e0: a971 073c 0335 bbbc 8a5d d13b 7073 ad3b
000000f0: 5c52 6a3c 7ffa 3c3c a68e 6cbb 9b3c e7b7
00000100: 5253 1abc 8ec1 663c c4f8 693c 9fc4 893b
00000110: 6218 1f3b 3620 cc3b 77cd be3b 0581 b13b
00000120: ae4a d7bb 5847 26bc d402 723b 17ad 8abb
00000130: c81f a4bb acfe ce3c 9802 103d 6702 943c
00000140: ea84 b7bb fc03 28bc 1c29 9a3b 7965 a6bc
00000150: a55c 933c 4a61 a33b 9253 65bb 2d45 eeb6
00000160: 146a 11bb 667e 8f3b 87d7 953c c7ec 3ebc
00000170: 7566 04bc d9a1 e7bb ba5e 0cbc 89f6 56bc
00000180: 3ddc ffbc 085c 4bba b2db dc3b 28d3 17bc
00000190: 6265 a03c 5daa bd3c ffa0 dcbb 2639 6dbc
000001a0: 009b 62bb 401f 963b b0a0 df3b 01f4 ac3b
000001b0: 76fe d1bb 76b8 b8bb 3fb6 83bb e6c5 52bc
000001c0: d389 223b 23d2 1e3c e500 853c 0126 38bc
000001d0: 5399 88bb 0c63 9fba 7925 5a3c d243 01bc
000001e0: c531 903b fd95 d33c 572d 9cbc 3fcf 3bbb
000001f0: c539 28bc c756 c23c 2690 263c 7573 db3b
00000200: 5dd3 1a3c a674 5e3b b189 b83b 4ad9 213b
00000210: d5e2 423c 6f96 4dbc b5b7 a7bb 0717 363c
00000220: 1e52 233c 874e 063c 373f bebc d776 f7bb
00000230: 50ce 4b3c 3a86 683c 587d b5bb 9461 cdbb
00000240: 8515 b83c 3611 103d e05b 4cbc e933 e0ba
00000250: 8cd3 383c 2848 dc3c f078 c2bb 10fa 4d3c
00000260: 4eec 323c e3d9 c2bb 2078 34bc 2aad 153c
00000270: d48f 273c 371b d8bb 688e 7f39 2db8 0fbc
00000280: c170 113b 5bff aabc 855f 0a3c f5cb a63b
00000290: cc7e 73bc 739b 6c3c fd93 c8bb 04f4 40bc
000002a0: 935b c93b 982a feba 1a8c 15bc 3799 16bc
000002b0: d402 c03c 9422 cb3b 6676 14bc 5db0 e93c
000002c0: 52b4 c53b 39ea c0bb 133f 57bb 06f9 333c
000002d0: f9fc a6bb f053 8cbb 560e 6dbb c690 ff3b
000002e0: 9bea 9fbc bf52 943a 4d4d 19bb a25d d5b8
000002f0: 2c9f c13b 7581 01bb 5506 023c a5c3 78bb
00000300: ae21 433b c3b6 17bc 5ff4 60bc 88d4 ed3b
00000310: 600c 833b 58c2 823c 7b97 2e3b 83c2 a0bc
00000320: 3015 c2bb aad9 2ebc 07a2 3dbc ea04 0bbc
00000330: 114d d5bc fd72 44bc 70bf a1bb 60bb 2d3c
00000340: 1378 d0bb 5f29 c63b 11d9 b0bb bac1 213c
00000350: 31a4 db3c b5aa 443c ec83 1f3d 8fb5 cbbb
00000360: 780c 0d3c 9295 82bc afda 84bb 6551 a13c
00000370: d26c e43c d51e 25bc 4a7c 96bc 0177 dfbb
00000380: 3d34 8639 e1c0 623c b230 c03b 58a3 c93b
00000390: 65a7 813c 992c 6c3c d685 bd3b ef73 8dbc
000003a0: 0765 b8bc b5f4 6bbb 39e3 823c c902 293c
000003b0: 12d6 02bc 2675 003c 2fe7 d93b 23e4 0a3b
000003c0: 9b24 023c 0461 f4bc 6e63 d83c 20d2 513b
000003d0: 4965 52bc e2f8 393b 22e6 32bb 04cf 123c
000003e0: ec8c 5cbc c4c0 67bb 4965 2abc 4076 123c
000003f0: 0fdb 79bb f8ed a03b 77df a6ba fdab 163d
0.018651292 -0.0044658976 0.0054867286 -0.006016843 0.011095875 -0.0043199114 -0.013490706 0.0017521438
-0.0030749226 0.003406316 -0.0067734304 0.0041923714 -0.01229178 -0.023586217 0.014251987 -0.015700595
0.012395175 -0.00030888975 -0.0048875622 0.008080897 0.002416832 0.0040845973 -0.010044997 -0.015740778
0.016529286 -0.0109116305 -0.02258946 -0.022752104 -0.011692468 0.005989717 -0.010008478 -0.023772534
-0.015638545 0.012667779 -0.020317812 0.016264431 0.010244772 -0.0032300935 0.038976964 0.00806528
0.0034807099 -0.023765553 -0.0038377834 0.0413289 -0.014018018 0.037056472 0.004044151 -0.015227959
0.0028737707 -0.01867751 0.021184048 0.0065618954 -0.015071056 0.01776691 0.0016759444 0.0013991116
0.008266845 -0.022852426 0.0063893246 0.0052933022 0.014301863 0.011534332 -0.0036095767 -2.7565568e-05
-0.009419279 0.014084233 0.014280502 0.0042043473 0.0024276008 0.006229426 0.005822833 0.0054169917
-0.006570182 -0.010148846 0.0036927955 -0.0042320597 -0.0050086714 0.025267921 0.035158724 0.018067552
-0.0056005614 -0.010254856 0.0047046077 -0.020312058 0.017988512 0.004985963 -0.0034992439 -7.101006e-06
-0.0022188472 0.0043790815 0.018291248 -0.011653132 -0.008081068 -0.0070688543 -0.008567506 -0.013120302
-0.031232947 -0.0007757549 0.006740057 -0.009266652 0.019579593 0.023152525 -0.0067330594 -0.014478957
-0.003457725 0.004581362 0.0068245754 0.005278111 -0.006408508 -0.005637224 -0.004019528 -0.0128645655
0.0024801388 0.009693655 0.016235778 -0.01123953 -0.0041686683 -0.0012160256 0.013314598 -0.007889705
0.0044004642 0.025828356 -0.019064588 -0.0028657464 -0.01026768 0.02372302 0.010166204 0.006697113
0.009449807 0.003394404 0.0056316485 0.0024696165 0.011894901 -0.012548073 -0.005118335 0.011113889
0.009968309 0.008197433 -0.023223503 -0.0075520086 0.012439325 0.014192158 -0.005538624 -0.0062677357
0.022471199 0.035172664 -0.012473077 -0.0017105314 0.011280905 0.026889876 -0.005934827 0.012571827
0.010920597 -0.0059463843 -0.011014968 0.009135524 0.010227162 -0.006595041 0.00024371746 -0.008771938
0.002219245 -0.020873716 0.008445625 0.0050902315 -0.014861774 0.014441359 -0.006121157 -0.011776928
0.0061449497 -0.0019391356 -0.009127641 -0.009191803 0.023438849 0.0061991904 -0.0090614315 0.02852648
0.0060334587 -0.0058872965 -0.0032843992 0.010984665 -0.0050960747 -0.004282467 -0.0036171875 0.0077992408
-0.019521048 0.0011316164 -0.0023392022 -0.00010174072 0.0059088673 -0.0019761 0.00793608 -0.003795841
0.0029774713 -0.009259882 -0.013730138 0.0072580017 0.003999278 0.015961811 0.0026640582 -0.019624
-0.005922936 -0.010672012 -0.011574275 -0.008485058 -0.026037725 -0.011990306 -0.004936151 0.010603756
-0.00636197 0.0060474123 -0.00539697 0.009872848 0.026811691 0.01200359 0.03894417 -0.006216712
0.00860893 -0.015940461 -0.0040543894 0.019692132 0.02788392 -0.010078152 -0.018369813 -0.0068196063
0.00025597392 0.013839931 0.00586518 0.0061535053 0.01582689 0.01441493 0.0057837768 -0.017267196
-0.022509111 -0.003600401 0.015977489 0.010315605 -0.007985609 0.00784043 0.0066498737 0.002119311
0.007943298 -0.029831417 0.0264146 0.0032016113 -0.012841531 0.0028377105 -0.0027297814 0.008960489
-0.013461333 -0.00353627 -0.010400125 0.008939326 -0.0038124954 0.0049111806 -0.0012731393 0.036785115

layer3.fc1.bias f4 [120]
00000000: 0ea9 87bb 7380 5738 5d84 e3bb 1bc1 d6bb
00000010: 72b9 3b3a 1fa2 fabb b26d b5bc 84c3 0ebb
00000020: c64e 16bc 9613 113c 1f86 ccbb 9452 af3b
00000030: 3a75 82ba 9e82 1fbc 0e24 463b 7c60 b2bb
00000040: e7fd bc3b 5f6e 543b 9ed6 f63b 1c82 4b3b
00000050: e5ac 90bb 453a 0a3c 3944 b43c 129e bd3b
00000060: e5fe 0c3c b44d 0d3b 9c2f 59bc 6fa7 b1bb
00000070: 1188 293c 9045 04bc fa95 f6b9 0e14 3dbc
00000080: 27ec ff3b 00a2 d3bb 92c1 6f3c 9656 9dbc
00000090: 9e73 28bd 42eb f4b8 cf84 84bc 6b81 583b
000000a0: 1d2c db3a 201f 023c 02f2 fabb e49f 3d3d
000000b0: 20ec f3ba 9b58 6e3c 5406 da3b 7d18 a0b9
000000c0: 7e2c cebb 8ba5 5439 db55 5c3c c19c 123c
000000d0: bf7e 9b3a a625 71bb 9ce7 2ebb a2ac 483c
000000e0: ead3 8fbc 28a9 0b3b a17f 9cbc 4235 52bc
000000f0: 2990 4d3c 288b 253b 7f06 ad3b 0ee4 993d
00000100: 2b0b 39be 79ac d2bb afa2 513c 81ce 66ba
00000110: e801 f43a 4b4b 743a 4278 0f3c 1a4a 93b9
00000120: 46f0 76bb 0710 823c 8aad 82bb f36c ba3a
00000130: 2d2e 6cbc 3802 19bb 9ad3 a43a a45d d3bb
00000140: fd85 63bb 876f 213b ce99 07ba 558f c1bc
00000150: ac02 313c cd86 14bc a57e a13c 46b7 843c
00000160: e663 bbbb ac7f 2dbc df68 92bc e024 563c
00000170: 49af 3a3c 72dc 003c 8c1b 323c 6d5d 923c
00000180: 7af3 963b 6fb2 f33b 4e1e 173c 22fb 53bd
00000190: af90 36bb 9d5f 323a 155c 4a3b 6609 88bb
000001a0: 0d68 2abc a228 06bc 417d 043c ceca 1a3a
000001b0: 3e5a e7b9 c705 203c bf9a 5f3b 31e6 493c
000001c0: d678 913e fcb7 183c 6d3f fbbb 91c5 0cbb
000001d0: 2b5b 653b a4d9 d7bb 55f9 2abc ba4d e43d
-0.004140026 5.1379622e-05 -0.006943269 -0.0065537817 0.00071611174 -0.007648721 -0.022147033 -0.0021784017
-0.0091740545 0.008854767 -0.0062415744 0.0053504203 -0.0009953149 -0.009735731 0.0030233893 -0.0054436307
0.005767572 0.003241442 0.0075329086 0.0031052893 -0.004415142 0.008436744 0.022005187 0.0057866657
0.0086056935 0.0021561207 -0.01325598 -0.005421571 0.010347382 -0.008073226 -0.00047032518 -0.011540426
0.007810134 -0.006458521 0.014633553 -0.019206326 -0.041125886 -0.00011678647 -0.01617661 0.0033036123
0.0016721521 0.007941991 -0.007658244 0.04629506 -0.00186098 0.014547492 0.0066535864 -0.00030535823
-0.006291925 0.00020279565 0.013448204 0.008948506 0.0011863335 -0.0036796122 -0.0026688343 0.01224819
-0.017557103 0.0021310542 -0.019103827 -0.01283008 0.0125465775 0.0025259946 0.0052803154 0.07514201
-0.18070666 -0.0064292517 0.012795134 -0.0008804575 0.0018616291 0.0009319081 0.008756699 -0.00028093235
-0.0037679835 0.015876783 -0.0039879726 0.0014223143 -0.014415306 -0.002334727 0.0012575269 -0.006450372
-0.0034717314 0.0024633126 -0.000517276 -0.023627916 0.01080386 -0.009065342 0.01971371 0.016200673
-0.005718696 -0.010589521 -0.017872272 0.013070315 0.01139433 0.007865058 0.0108708255 0.017866815
0.0046066614 0.0074370424 0.009223534 -0.05175317 -0.0027857234 0.00068044086 0.003087764 -0.004151511
-0.010400784 -0.008188399 0.0080865035 0.0005904854 -0.0004412699 0.009767002 0.0034119335 0.012322948
0.28412503 0.009321209 -0.007667473 -0.0021480063 0.0034996967 -0.006587224 -0.010435422 0.11147638

layer3.fc2.weight f4 [84, 120]
00000000: 0404 97ba bcda b4bb 5973 58bb a3fa af3b
00000010: 734a 5aba 3358 7f3b 003f 04bb 321c c33a
00000020: 84bc ea3a 5e9f 8737 b0e6 29ba a3e3 e63b
00000030: 2049 14bb 4dbb b6ba e3f8 023a 8316 033b
00000040: fce8 91bb f5b9 0ebb c198 6b39 97f8 103b
00000050: c375 2c38 554b ca3b 78f5 e43b 3842 db3a
00000060: 7197 50bb e7b4 103b 12b1 763b 6098 d0bb
00000070: 863b 433b 75ca 4c3b a4d0 aeb9 e4f7 0f3c
00000080: 9c37 e23b 8615 74bb 3e12 83bb f856 0ebb
00000090: 5bce bd3b 2f11 a13b 3615 d8bb fa74 f539
000000a0: 18e8 9b3b 649b 483a 8aa8 4b3b 3760 013b
000000b0: 618d b1bb 611a 04bb 34ed 20bb aaea 98ba
000000c0: 8802 6d38 795d 86bb a765 4c3b 97c6 0fba
000000d0: 7e03 8fba b9a7 9b39 04b4 8239 eac0 0cbb
000000e0: a1d5 efbb 410b f4b9 c598 03bb 5142 66bb
000000f0: cd6a 40b9 4821 c4bb c08e 9db9 d0c4 5e3a
00000100: 9bf9 38ba 5688 c7ba a6c8 a83b a42b db39
00000110: 3b62 6bbb 4238 a739 e6b9 3e3b dad4 09bb
00000120: a006 02bb b379 07bb 0a46 1fbb b6b6 4ebb
00000130: b327 8839 7fa6 5c3b 27ff 433a 94b0 12bc
00000140: 295b c53b 6e59 733b d0bc 3aba 19d1 63bb
00000150: 20c4 5f3a 03b6 b03b a569 9b3b df74 7c3b
00000160: 27c7 9ab8 b9e8 e239 b3ba a6bb d78c 5a3b
00000170: 952a e63a 34e7 16bb 99cb 23bb b45a 203b
00000180: 4552 013b 263d 043b b2aa da3b c8ff 44ba
00000190: db1b 4abb 9a13 15bc 7d65 04bb e3d3 3cbb
000001a0: 02f2 7bbb bc43 25bb 7bb2 29bb aeec e13b
000001b0: 404f acba 55c5 833b 5ab8 f8ba 1b9a 793a
000001c0: f9f8 363b 3518 66bb a3b4 1fbb 48b5 253b
000001d0: 0754 98bb 7aa3 41ba 79b2 a03a 04e1 133b
000001e0: 44eb 793b 414a 2e3b d635 b2ba 245e a5bb
000001f0: e6e6 bf3b d57a 15bb 6427 1c3b b24c aeba
00000200: 8c2e 463a 092e 2cbb 9001 5bba 2ad4 28bb
00000210: 84d9 0b3c d9b0 13b8 c97b 1a3c fa2c 3a39
00000220: 3b1d 913b 79e4 1dba 0b5a c7bb 282e edbb
00000230: 5452 55ba 5959 01ba 1288 43bc 6304 e33a
00000240: f20a b83b 7c72 e4bb 9868 6c3b a307 873b
00000250: 219f 743a 4631 543b fcb2 443b d3c3 f5ba
00000260: c40f c6bb 2d8e d3ba 26e8 6cba 0282 cc3a
00000270: d9eb 03bc 7c82 89bb 56e0 863b 629c b5ba
00000280: 69f9 d0bb 53be 9bbb fc28 a2bb 92fa 0f3c
00000290: 9288 c23b 45c0 1c3b e8ba abba 68c2 c5bb
000002a0: 67d2 1bbb 7141 9fb9 94ab 1dbb 2567 a0bb
000002b0: e443 3c3c a816 74bb f601 883b b072 7fbb
000002c0: bfe6 48bb 181b efb9 ad77 c93b b295 143c
000002d0: 9784 92ba d125 7b3b 9bf1 713b c57e 5b3b
000002e0: 9df1 de3b f73a 673b cd93 ccbb 4fde 62ba
000002f0: 3083 3a3a 1ac4 d4bb dab2 12bc f50a a0bb
00000300: 6715 48ba 5a18 bdba ebf8 fc3a c04c e03a
00000310: 95df e83b 92ce 03ba ca73 08bb 1e78 4b3c
00000320: 75fc 053b 090a 25bb 59a3 6a3a e8e0 2c3c
00000330: 60c9 0dbb 9ebf a4ba 534f 39bc 87cc 55bb
00000340: fca3 ef3a f8a2 74bb d380 d23b 8456 6abb
00000350: 53dd bc3a 95de b1bb fa5a 84bb 7111 0db9
00000360: 2416 edb9 3dc7 a0ba 89f9 c939 c30f b6ba
00000370: b1dc 9a3b 708c f33b f971 d8ba e197 9b3b
00000380: 0bb8 e93b 90bb 233b ca83 4fb9 94be 43bc
00000390: c990 eb3b 1903 e5bb 95f5 88ba a692 23bc
000003a0: 54a4 1aba 5d03 12bc a826 a23b fd72 463b
000003b0: 5977 8f3b 9fe2 c6bb 609c 80bb 5140 64ba
000003c0: 97f7 60bc d719 53bb 8190 85bb a62f aa3a
000003d0: 0feb f63a b79f 08bc 2d97 80bc ac9c 723c
000003e0: 66b5 c8bb 635e 113c bcea 62bc 54ab ec3b
000003f0: a0ca a5bc 9834 c63b dcdb 5ebc 0580 7d3c
-0.0011521582 -0.005519239 -0.0033027737 0.0053704544 -0.0008327134 0.0038962483 -0.0020179152 0.0014885722
0.0017908965 1.6167465e-05 -0.00064812135 0.0070461794 -0.0022626594 -0.0013941318 0.00049961935 0.0020002432
-0.0044528227 -0.002177832 0.00022468252 0.0022120827 4.111767e-05 0.006173531 0.00698727 0.0016728109
-0.0031828547 0.0022080482 0.0037642163 -0.0063658208 0.0029790117 0.0031248603 -0.00033343316 0.008787129
0.006903602 -0.0037244274 -0.0039999774 -0.0021719318 0.0057924218 0.0049153785 -0.0065943254 0.00046817196
0.0047578923 0.00076525495 0.00310758 0.0019741186 -0.005418465 -0.0020157325 -0.0024555447 -0.0011666615
5.650756e-05 -0.0041004983 0.003118852 -0.0005484609 -0.0010911075 0.00029688867 0.00024929654 -0.002147729
-0.0073191677 -0.0004654769 -0.0020080071 -0.0035134743 -0.00018350333 -0.0059854127 -0.0003005173 0.0008497955
-0.0007056237 -0.0015223126 0.0051508723 0.0004180345 -0.0035916704 0.00031894638 0.0029102503 -0.002103141
-0.0019840375 -0.0020671904 -0.002430322 -0.003154201 0.0002596952 0.0033668575 0.00074766803 -0.008953232
0.00602283 0.0037132162 -0.0007123472 -0.0034762083 0.0008536 0.0053927912 0.0047428184 0.003852181
-7.380387e-05 0.0004327947 -0.0050881742 0.0033348107 0.0017560298 -0.0023025991 -0.002499318 0.0024468126
0.0019732874 0.002017805 0.0066731805 -0.0007514921 -0.0030839357 -0.009098912 -0.0020202093 -0.0028812818
-0.0038443808 -0.0025217375 -0.0025893736 0.0068946695 -0.0013146177 0.0040213265 -0.001897584 0.00095215597
0.0027919395 -0.0035109643 -0.0024369142 0.0025285054 -0.0046486887 -0.00073867256 0.001226022 0.002256454
0.0038134614 0.0026594552 -0.0013596367 -0.005046623 0.0058563827 -0.002280881 0.002382719 -0.0013298003
0.00075600366 -0.0026272556 -0.000835442 -0.0025761225 0.0085357465 -3.5212233e-05 0.009428927 0.00017755097
0.0044285334 -0.000602312 -0.006083732 -0.0072381683 -0.0008137573 -0.00049342733 -0.011934297 0.0017320033
0.005616539 -0.0069716554 0.0036073085 0.0041207834 0.00093315734 0.0032378002 0.003001391 -0.0018750377
-0.00604436 -0.0016140394 -0.00090372784 0.001560271 -0.008051836 -0.004196463 0.0041160984 -0.001385581
-0.0063773883 -0.004752913 -0.0049487334 0.008787768 0.0059366906 0.0023918313 -0.0013101967 -0.006035138
-0.0023776533 -0.000303756 -0.0024058567 -0.0048951083 0.011490796 -0.003724495 0.0041506244 -0.0038978271
-0.0030655114 -0.0004560582 0.0061482997 0.009068893 -0.0011178431 0.00383221 0.003691769 0.0033492309
0.006803705 0.0035282949 -0.006243205 -0.00086543424 0.00071148854 -0.0064931037 -0.008953774 -0.0048841187
-0.0007632584 -0.0014426813 0.0019300258 0.0017112717 0.007106731 -0.0005028035 -0.0020820969 0.012418775
0.0020444666 -0.0025182983 0.00089507323 0.010551669 -0.0021634921 -0.0012569313 -0.011310416 -0.0032623128
0.0018283124 -0.0037328582 0.0064240484 -0.0035757134 0.0014409221 -0.005428145 -0.0040391656 -0.00013453305
-0.0004522066 -0.0012266409 0.00038523626 -0.0013890195 0.0047260155 0.007432513 -0.0016513459 0.00474833
0.0071325353 0.0024983622 -0.00019790154 -0.011947293 0.0071888906 -0.0069888947 -0.0010449166 -0.009983694
-0.00058991206 -0.008911935 0.004948456 0.003028094 0.004378241 -0.006069496 -0.0039248914 -0.00087070937
-0.013730905 -0.0032211447 -0.004076064 0.0012984171 0.0018838363 -0.00833886 -0.015697086 0.014807861
-0.00612514 0.008872601 -0.01384991 0.0072225723 -0.02023822 0.00604875 -0.013602223 0.015472417

layer3.fc2.bias f4 [84]
00000000: fa56 febc 4db1 5e3c 6a01 2cbc bd4d 8d3c
00000010: a3a3 f2bc 2e6b 93bc b8c7 12bc 1eb5 733a
00000020: 7c65 89bc ca1a 79bc b108 1c3e a38b be3b
00000030: 2452 d63a 27a3 783c 3b8f 1bbc 411e cb3b
00000040: 9710 67bc a17f 4f3c 99b7 cfbb 3e64 983c
00000050: 6407 043c 9e97 cf3c 1e85 3d3c fba5 67bc
00000060: 35f5 34bb d4cd 30bd f0c6 733c a0f7 ffbc
00000070: 3562 883c d976 a33b a4b0 c13c 92d6 66bc
00000080: 0a9d 2abc cc81 ba3b 72ae c3ba 1f13 c63b
00000090: fc0a 1d3c 87de 3dbc c101 4b3c 055d ef3b
000000a0: 1bb3 91bc 88bd 633e f077 133c f5d8 c2bc
000000b0: cab6 80ba 6739 c2ba 2550 cb3b be0f 26bc
000000c0: eb28 cfba 03c2 00bc b5c8 c33b 106b 653e
000000d0: e29b 96bc 7621 e1bc c499 81bc d18c 75bb
000000e0: ebdc ae3b bf65 093a f819 e4bc e916 7b3c
000000f0: 01da cdbc 1635 99bc af7d 5dbc 8ea2 7b3c
00000100: 9216 983c 2e23 d33b 1b88 2f3a 2615 3dbc
00000110: 0f0b 9ebc f07b 213b 9b48 ad3d 4f9f b03b
00000120: 3dce 89ba fc9b 31bb a04a bd3c 7c7f 833c
00000130: 85f5 bfbc 89d8 acbc 82d3 abbb 8943 52bd
00000140: 8995 59bc 8f98 17bc efec 333c 739b fa3b
-0.031047333 0.0135920765 -0.010498384 0.017248983 -0.029619044 -0.017995443 -0.0089587495 0.0009296703
-0.016772024 -0.015204141 0.1523769 0.005814986 0.0016351384 0.015175617 -0.009494598 0.006198675
-0.014103076 0.012664706 -0.006339025 0.018602487 0.008058403 0.025340851 0.011567382 -0.014138694
-0.0027611975 -0.043165043 0.014878973 -0.031246006 0.016648391 0.004988533 0.0236438 -0.0140892435
-0.010413418 0.0056917425 -0.0014929308 0.00604476 0.009585138 -0.011588699 0.012390555 0.00730479
-0.0177856 0.22240269 0.009000763 -0.023785094 -0.00098201 -0.0014818133 0.0062046223 -0.010135589
-0.0015805041 -0.007858756 0.005974854 0.22404122 -0.018384878 -0.027481776 -0.015820391 -0.0037467966
0.005336394 0.00052412966 -0.027844414 0.015325286 -0.025128366 -0.018702071 -0.013518735 0.01535858
0.01856545 0.0064434027 0.00066960015 -0.011540687 -0.019292383 0.0024640523 0.08461114 0.005390085
-0.0010513734 -0.002710103 0.023106873 0.016052 -0.023432503 -0.021099346 -0.0052437196 -0.051333938
-0.013280281 -0.009252681 0.010981782 0.0076479255

layer3.fc3.weight f4 [10, 84]
00000000: 0aaf f13a ef2a b5bb 660a 4d38 8168 d9ba
00000010: c47a b33b 1e39 ca3a a868 5f3b 8e13 29bb
00000020: 0d2f 553b 7459 e3ba c835 13be bdfa f0ba
00000030: d4b7 213b 207e ecba 5d6b 8b3a 2b34 f43b
00000040: d52d 9e3b db18 19bb f783 ec39 69ab 76bb
00000050: ed4b c6ba 229e 8bbb aac3 9dba 8fc2 12bb
00000060: 0e6a 0e3b a4fa 0d3c 3495 09bb 09e6 cc3d
00000070: da3e 28bb 5464 2ebb cc67 77bb b4f4 1e3b
00000080: 27fb 903b 223e 0bbb c86f 86b9 4abc 39ba
00000090: 4c99 a2bb ac0e 913a ca93 40bb 44f0 8db9
000000a0: 07ad b73b 57ae 2a3c dd9c 7b39 e6f9 7f3b
000000b0: c53d 3fbb 605b 7cbb 13bf b33c 0de6 7c3b
000000c0: 1924 463b 8ce8 6c3b 5536 613b 58f5 173c
000000d0: e3c5 1d3b b5e6 243b 0ab2 ec3a c5db 06ba
000000e0: 2d8b 16bb 5afa 7bbe 7387 8e3b 88f9 57ba
000000f0: bb0a a43b 8424 a03b 1381 873b f000 01bc
00000100: e908 30bb 15c4 89bb 6a45 4c3b fa07 d83b
00000110: 4348 3f3b 9319 573a eda0 d9bd 74ab b838
00000120: 8e4d 82bb f2d9 ec3a 6ff5 be38 1ceb aabb
00000130: b586 223c 2f30 5c3b fd80 a8b9 c051 fd3d
00000140: 8db8 273b f55d 4a3b 8122 81bb 3593 613a
00000150: 20ed ceba eaf1 303b e7d7 63bc aba7 3cbb
00000160: 9545 f83a e788 753b 8753 0dba 8b42 ed3a
00000170: f0bd ac3b 5340 4f3b 1e1c c2bc fe90 97ba
00000180: 3ae9 973a 436a 5abb 1729 f03b da04 843a
00000190: 6187 6cbb fa11 b7b9 9610 38ba 7976 2d3b
000001a0: 9dfd 7eba 6c3f 073c b2fc a4bb 8e5f c9b9
000001b0: 03d7 b83a dc50 513e eefc d7bb cfb2 4ebd
000001c0: 7fd6 1dbb 22d4 38bc 9fe1 043b 304b 7d3b
000001d0: c352 173b 93ea 043c 126c b13b 3740 15bb
000001e0: 194c 36bb 9c1a bebb af8a 25bb 5c36 733c
000001f0: c8b9 f3ba 1c6d 1bbe f96f 09bb 8687 f2ba
00000200: 69ac c3bb dff2 f0b9 a20c b53d 29f2 be3b
00000210: 0e3f c739 186c 2ebb 4d0d 28bc 7818 a5be
00000220: 2cf2 743b 311f 0abb 6747 d03b 4013 a8ba
00000230: 69ca e0bb e79a 033c 6a33 70bb 32e9 8dbb
00000240: d2fd 953a 67a4 bbbb eeec c2bb e945 69bb
00000250: 5359 3d39 6555 babb 4711 063a 5ce3 763a
00000260: bea4 843b 3dcc 4a3a af0b 81bd 0576 87bb
00000270: f24c cb3b e1f5 cbbb 34a2 193a 9f29 98bb
00000280: f40e 583b 7e4e 533b 67f0 9fba 274f acbd
00000290: 7467 abba b03c ab3b 6480 10bb d43f fa38
000002a0: fc9f 0aba ef9c 233a ffde 053c 85f6 f2b9
000002b0: 0320 5ebb f524 40bb 109e dcbb 6a6e e13b
000002c0: 6441 89bb 9089 7db9 ec7e b9bd ea1b ce3b
000002d0: d149 bd3a 986e 8cbb 9bb8 333b 4626 08bc
000002e0: 6694 8e3a 8a56 1f39 2d20 c03b 66eb 3b3b
000002f0: dad5 0639 6f20 3fbb dbfc 413a d55e 683b
00000300: f6af 89bb d4bd 65bd 429b d43a 909f 213e
00000310: ddcb 2d3b 3a48 093c 6dc3 cbba dfdd f939
00000320: fd25 ba3b a842 bb3a 1b5b 4abb c315 f43b
00000330: e13b 373b a834 2ab9 9f85 45bb 7dae ebbb
00000340: 7979 a0bb ee29 fc3d 087c f2bb d2b6 913b
00000350: 00e7 c1ba 127b b4bb c0f7 063d c650 6c3a
00000360: 9076 cd3b ff17 e3ba 01f8 d9ba 5e49 233e
00000370: 225b b0bb ca1f 37bb 54f4 183b 9eae 1f3c
00000380: ddbd 073c 37b2 f83c 502a 393b e006 1abb
00000390: 71f2 c5bb e77d 933b 145a deba 0704 ee3b
000003a0: a1a5 89bb e8ee e13a 5c62 85ba c24c eebb
000003b0: e03d 88bb b1bd d7bb 444d d3bc dbca 663b
000003c0: 224b 083c 9944 213b 0189 ed3b 6e13 1e3b
000003d0: c11f 03bc 4d20 11bc 765d 303c 5a99 31be
000003e0: 79c9 653b 0d68 82bb 2d53 1a3c 8be2 83bb
000003f0: 8a18 e438 431a 5bbb 8f5c 073c 629a 843a
0.0018439007 -0.0055287997 4.8885493e-05 -0.0016586931 0.0054772813 0.0015428399 0.003408948 -0.002579901
0.0032529265 -0.0017345385 -0.14375985 -0.0018385273 0.002467622 -0.0018042959 0.0010636855 0.007452508
0.004827241 -0.0023360762 0.0004511175 -0.003763879 -0.0015128829 -0.0042607943 -0.0012036462 -0.0022393798
0.0021730694 0.008665714 -0.0020993473 0.10004813 -0.0025672228 -0.0026610093 -0.0037751077 0.002425474
0.004424471 -0.002124675 -0.00025641755 -0.0007085247 -0.004962122 0.0011066995 -0.0029384964 -0.00027072628
0.0056053433 0.010417542 0.00023995661 0.0039058863 -0.0029181105 -0.0038506612 0.021941697 0.003858927
0.0030233918 0.003614935 0.003436466 0.009274803 0.0024074249 0.0025161926 0.0018058431 -0.00051444425
-0.0022971139 -0.2460722 0.004349643 -0.0008238782 0.005006162 0.0048871655 0.00413526 -0.007873759
-0.002686078 -0.004204283 0.0031169304 0.0065927478 0.0029187358 0.000820541 -0.10626397 8.805739e-05
-0.0039765304 0.0018070324 9.1056216e-05 -0.0052160155 0.009919812 0.0033598056 -0.0003213956 0.12369108
0.0025592179 0.0030878757 -0.0039408808 0.00086050044 -0.0015787221 0.002699966 -0.013906456 -0.0028786461
0.0018941635 0.0037465633 -0.00053911697 0.0018101496 0.0052716658 0.0031624034 -0.023695048 -0.0011563597
0.0011589893 -0.0033327497 0.007329117 0.0010072247 -0.0036091434 -0.00034917874 -0.00070215145 0.002646832
-0.00097271224 0.008254867 -0.0050350064 -0.000384089 0.0014102164 0.20441002 -0.006591431 -0.050463494
-0.0024084148 -0.011281045 0.0020276082 0.0038649552 0.0023090101 0.0081125675 0.0054144943 -0.002277387
-0.0027816354 -0.005801512 -0.0025259664 0.014844503 -0.0018594796 -0.1517834 -0.0020971282 -0.0018503524
-0.0059714806 -0.0004595732 0.088403 0.0058272076 0.00038003217 -0.0026614722 -0.010257077 -0.3224523
0.003737579 -0.002107572 0.006356168 -0.001282312 -0.0068600667 0.008032537 -0.003665174 -0.0043307776
0.0011443442 -0.0057263854 -0.0059486544 -0.0035594648 0.0001805772 -0.0056864494 0.0005114269 0.00094180345
0.004047959 0.00077361224 -0.063010566 -0.004133942 0.006204241 -0.0062243794 0.0005860657 -0.0046436335
0.0032967897 0.003224283 -0.0012202383 -0.084135346 -0.0013077096 0.0052257404 -0.0022049183 0.00011932818
-0.0005288122 0.00062413415 0.008170842 -0.00046341508 -0.0033893592 -0.0029318903 -0.0067327097 0.0068796175
-0.0041887034 -0.00024179206 -0.090574116 0.0062899487 0.0014441555 -0.0042856447 0.0027423266 -0.008309906
0.0010877966 0.0001519566 0.0058632107 0.0028674244 0.00012858902 -0.002916362 0.0007400044 0.0035456915
-0.0042018844 -0.056089237 0.0016220587 0.15783525 0.0026519217 0.008379037 -0.0015545912 0.00047658288
0.005680798 0.0014286833 -0.0030877057 0.0074488833 0.0027959275 -0.0001623208 -0.0030139459 -0.0071924315
-0.004897293 0.12312685 -0.0074000396 0.0044468427 -0.0014793575 -0.005507835 0.032951117 0.0009014722
0.0062702373 -0.0017325877 -0.0016629697 0.15945956 -0.0053819576 -0.0027942532 0.002333899 0.009746222
0.008285013 0.030358417 0.002825398 -0.0023502633 -0.006040864 0.0045010927 -0.0016964101 0.0072636637
-0.0042006527 0.0017237337 -0.0010176408 -0.007272334 -0.0041577667 -0.0065838923 -0.025793679 0.0035216126
0.008318694 0.0024607538 0.007248998 0.0024120468 -0.008003176 -0.008857799 0.01076447 -0.17343655
0.0035062714 -0.003979689 0.009419245 -0.0040248088 0.00010876458 -0.0033432401 0.008261814 0.001011681

layer3.fc3.bias f4 [10]
00000000: adf8 44bd 01d4 febe 7431 d43e e8f8 1a3f
00000010: 5e59 933e b057 2a3d 5b77 0ebe fc7e 77be
00000020: 4b69 c9be de55 dcbd
-0.04808872 -0.4977112 0.4144398 0.6053605 0.2877912 0.04158753 -0.13912718 -0.24169534
-0.39338145 -0.10758565
