output/models_cifar10_500.pth (torch_old, 248636 bytes, 10 tensors)

layer1.conv1.weight f4 [6, 1, 5, 5]
-0.0054126326 -0.17192435 0.010063854 -0.124677345 -0.08437624 0.3102612 -0.2012406 0.44292164
-0.06769669 0.2251446 0.10974963 -0.6449756 0.45788422 -0.39181194 -0.06242612 0.44183856
-0.72419524 0.78779143 -0.37209222 0.15932225 0.2548455 -0.6503761 0.52957773 -0.20264211
-0.039830904 0.008212092 -0.06101407 -0.017192714 0.09069855 -0.024524903 0.06312293 0.18600263
-0.6286041 0.15642183 0.22836682 -0.07638549 0.36506876 0.48039946 -1.190717 0.35200542
0.086974554 -0.5527686 0.8119659 0.1738863 -0.46556363 -0.014835541 0.08606686 -0.41949576
0.4301463 -0.07681116 -0.046384707 -0.028297476 -0.07327327 0.13826187 0.0595081 -0.067994185
-0.03730384 0.19661543 0.05451346 -0.06371463 -0.35076064 0.008702483 0.27394718 -0.096961774
-0.041607857 -0.36484283 0.32522288 0.21678233 -0.020279577 0.00913671 -0.5225167 0.353941
-0.02942321 0.05985222 -0.09291819 -0.11945562 -0.3479195 -0.15586706 -0.039183237 0.063845314
0.29580542 0.8152074 0.5320963 0.16623604 0.053785365 -0.14651312 -0.4507281 -0.31418416
-0.020212868 -0.11821442 0.12914428 0.008053071 -0.09235153 0.08562248 0.20639482 -0.061589044
-0.040101048 -0.021231214 -0.14419247 -0.08829196 -0.096585386 0.03658801 -0.005417894 0.12750842
-0.0971944 0.02158064 0.10847573 0.05440234 -0.152401 0.1300853 -0.28336895 -0.4209625
-0.12871903 0.017809616 -0.3070316 0.23894258 0.23231362 -0.17371842 -0.10979944 0.19038026
-0.07907495 0.041360296 0.1632898 0.03687722 -0.11568623 0.046894457 -0.27628592 0.33695123
0.008462784 -0.10454195 -0.120815665 0.34520572 0.52038234 -0.76192534 0.01679791 0.09128408
0.49988797 -1.1935557 0.055164564 0.3624686 -0.007951783 -0.3014571 -0.09471604 0.69028425
-0.27017653 0.13559648 -0.115752175 0.19753064 -0.18934724 0.025116824
00000000: 745c b1bb f00c 30be dde2 243c d656 ffbd
00000010: 73cd acbd 8eda 9e3e 0412 4ebe a0c6 e23e
00000020: 90a4 8abd 4e8c 663e 6ac4 e03d 1f1d 25bf
00000030: cd6f ea3e 939b c8be 88b2 7fbd aa38 e23e
00000040: dc64 39bf b3ac 493f df82 bebe 5f25 233e
00000050: 1c7b 823e 0c7f 26bf 6892 073f 6a81 4fbe
00000060: bb25 23bd 038c 063c e4e9 79bd bcd7 8cbc
00000070: 29c0 b93d 73e8 c8bc 9846 813d 7977 3e3e
00000080: 33ec 20bf 0b2d 203e fed8 693e ff6f 9cbd
00000090: 4bea ba3e ebf6 f53e 6a69 98bf 0e3a b43e
000000a0: b71f b23d 3e82 0dbf ffdc 4f3f 400f 323e
000000b0: 5b5e eebe c510 73bc d243 b03d 26c8 d6be
000000c0: 233c dc3e 2b4f 9dbd e4fd 3dbd 1cd0 e7bc
000000d0: 4c10 96bd 8594 0d3e c4be 733d 8940 8bbd
000000e0: e9cb 18bd 8e55 493e 8149 5f3d d17c 82bd
000000f0: e696 b3be dc94 0e3c ce42 8c3e e593 c6bd
00000100: 006d 2abd aecc babe 9d83 a63e 30fc 5d3e
00000110: 5b21 a6bc 24b2 153c a8c3 05bf c137 b53e
00000120: f208 f1bc 9a27 753d e44b bebd 26a5 f4bd
00000130: 8122 b2be 9d9b 1fbe 9a7e 20bd 55c1 823d
00000140: cf73 973e 6fb1 503f 7737 083f c839 2a3e
00000150: 0b4e 5c3d 8907 16be d5c5 e6be bfdc a0be
00000160: 7595 a5bc 671a f2bd 663e 043e 07f1 033c
00000170: cd22 bdbd d75a af3d 2a59 533e cb44 7cbd
00000180: ff40 24bd 15ed adbc 31a7 13be 6ad2 b4bd
00000190: 8fce c5bd 4fdd 153d 9788 b1bb 9191 023e
000001a0: dc0d c7bd e2c9 b03c 8628 de3d fdd4 5e3d
000001b0: 020f 1cbe 1535 053e bc15 91be 6688 d7be
000001c0: ecce 03be 79e5 913c 3f33 9dbe 5dad 743e
000001d0: 9fe3 6d3e 3ee3 31be 87de e0bd 0bf3 423e
000001e0: 0cf2 a1bd 6a69 293d 7135 273e 910c 173d
000001f0: e7ec ecbd 6714 403d 5975 8dbe df84 ac3e
00000200: 7da7 0a3c 171a d6bd 346e f7bd cebe b03e
00000210: c737 053f 8a0d 43bf c59b 893c 26f3 ba3d
00000220: 51f1 ff3e 6fc6 98bf 3df4 613d 7c95 b93e
00000230: 3248 02bc 9658 9abe 7cfa c1bd 78b6 303f
00000240: 9454 8abe ced9 0a3e 7a0f edbd 7945 4a3e
00000250: 3ee4 41be ccc1 cd3c

layer1.conv1.bias f4 [6]
-0.35303158 -0.3435718 -0.3321571 -0.29994088 -0.3094102 -0.3711955
00000000: 8ec0 b4be a5e8 afbe 7f10 aabe da91 99be
00000010: 046b 9ebe 560d bebe

layer2.conv2.weight f4 [16, 6, 5, 5]
0.09818984 -0.051564217 0.07170296 0.12383931 0.08754798 0.03461692 -0.054537818 0.037063625
0.008110818 0.026809594 -0.028221665 -0.025948243 -0.010895847 -0.007782401 0.075194865 0.031658415
-0.13912001 -0.13913321 0.115412556 -0.10805471 -0.2601869 -0.28845966 -0.62333405 -0.735072
-0.31705886 0.35541266 0.17344771 0.027677825 0.02311588 0.16518158 0.276614 0.14297457
0.22187564 0.060612593 0.14589034 0.39719367 0.21695925 0.18033126 0.07450982 0.21540819
0.41854033 0.34919176 0.25002635 0.11150485 -0.04211373 0.4464063 0.1723353 -0.09919049
0.019474983 -0.103213765 0.19027027 0.092400074 0.0059346436 0.2250051 -0.052048605 -0.010535367
0.17201383 0.01548755 -0.19323613 0.095445976 -0.20430103 0.0015613013 0.09320917 0.19461165
0.010020336 -0.03536284 -0.14668047 -0.10308876 0.27913985 0.16666257 -0.14137536 -0.11915856
-0.35865453 -0.3904234 -0.066212445 0.2488427 -0.11450578 -0.038343176 0.0429415 0.14997056
0.11980847 0.072288856 0.18343166 0.15695815 0.057881895 -0.03802474 0.29993486 0.17223816
0.15974592 0.13872866 -0.24614207 0.26686892 0.28931275 0.18948025 0.04588366 -0.122236386
0.081381306 0.20652647 0.3754631 0.2741369 0.22435845 0.06770219 -0.10437505 0.28304887
0.09525176 0.38647574 0.10020152 0.19964784 0.06128543 0.34804565 0.28427497 0.17401056
0.15793996 0.075056136 0.45589173 0.19572042 0.048491832 0.5014677 0.35546178 0.11638564
-0.4727246 0.38199797 0.7891075 0.14448136 -0.15745127 -0.04335936 -0.1253369 -0.02971861
0.057388525 0.012395261 -0.067943156 -0.16281512 -2.916509e-05 0.06150703 0.14552133 0.031402607
-0.1179108 0.030471507 0.04137966 0.08758445 0.054795105 -0.056384753 -0.09980922 0.14724068
0.14141405 0.039723273 0.13853633 -0.035771783 0.09395911 0.21119066 -0.073627695 0.005933196
0.044624615 0.2045553 -0.1676856 0.22571279 0.03461882 0.07421897 -0.26087916 0.08044927
0.022914652 0.34427637 -0.09831808 0.0058547733 -0.09001973 -0.15318365 -0.26607713 -0.03762598
-0.0018313578 -0.2185537 -0.011852547 0.1401427 -0.15869719 -0.41673484 -0.1591279 0.16578132
0.075812675 0.045770247 0.30409613 0.04582197 0.00630706 0.020352026 -0.42677063 0.3428185
0.2147566 -0.2880783 0.048054006 -0.3489434 0.29043433 0.11975671 -0.0078060306 -0.07453744
-0.35249546 -0.5142365 0.05945914 0.16496657 0.27462777 0.53256553 0.0010084307 -0.31054056
-0.02548082 0.10331851 0.18403688 -0.041133896 0.1453259 0.040161934 -0.3296882 0.0283251
0.29474127 -0.35450754 0.13179299 0.46665707 -0.1298491 0.6365802 0.012429817 0.038150657
0.13433242 0.14840627 0.17361012 0.25448674 0.096050784 -0.17869829 0.033883765 -0.0011062893
0.309965 0.085932724 0.16269775 -0.1296964 -0.10234403 0.09363526 0.08797397 0.096062705
-0.2881059 -0.33272457 0.016273689 -0.115568504 -0.06239095 -0.23173985 -0.39128202 -0.15585051
0.20961647 -0.29842067 -0.18630482 -0.33903274 -0.2683052 0.23221387 -0.13866296 -0.033606943
0.16307187 -0.32991606 0.22160222 0.24062142 -0.41567704 -0.18715355 0.050522827 -0.21820986
00000000: c117 c93d 0035 53bd 00d9 923d 779f fd3d
00000010: 5b4c b33d 79ca 0d3d 0c63 5fbd 07d0 173d
00000020: 3de3 043c cb9f db3c 1f31 e7bc 6991 d4bc
00000030: 7f84 32bc 8303 ffbb c4ff 993d 41ac 013d
00000040: 7a75 0ebe f078 0ebe 6b5d ec3d ca4b ddbd
00000050: 3837 85be fcb0 93be d292 1fbf ae2d 3cbf
00000060: 8a55 a2be a6f8 b53e 479c 313e 9bbc e23c
00000070: 845d bd3c 5c25 293e 5aa0 8d3e ed67 123e
00000080: 5e33 633e e944 783d 4764 153e f85c cb3e
00000090: 912a 5e3e c2a8 383e 9b98 983d f793 5c3e
000000a0: eb4a d63e 43c9 b23e 7403 803e a85c e43d
000000b0: 727f 2cbd 5e8f e43e aa78 303e 6224 cbbd
000000c0: 008a 9f3c bd61 d3bd 36d6 423e 403c bd3d
000000d0: 6677 c23b bd67 663e eb30 55bd 889c 2cbc
000000e0: 6524 303e 7ebf 7d3c b1df 45be 2e79 c33d
000000f0: 4a34 51be 94a4 cc3a 73e4 be3d 4748 473e
00000100: 562c 243c a0d8 10bd 6833 16be 3320 d3bd
00000110: 6beb 8e3e 98a9 2a3e b4c4 10be 6709 f4bd
00000120: 91a1 b7be 93e5 c7be 649a 87bd 9fd0 7e3e
00000130: 0282 eabd bc0d 1dbd 6de3 2f3d e291 193e
00000140: 255e f53d 2e0c 943d 82d5 3b3e a3b9 203e
00000150: 9115 6d3d d4bf 1bbd 1091 993e 335f 303e
00000160: 6f94 233e e30e 0e3e ab0c 7cbe 0ba3 883e
00000170: cd20 943e 1c07 423e 81f0 3b3d 1257 fabd
00000180: 3eab a63d ad7b 533e b33c c03e ac5b 8c3e
00000190: 39be 653e 72a7 8a3d 96c2 d5bd c8eb 903e
000001a0: 5b13 c33d 26e0 c53e 7436 cd3d 7c70 4c3e
000001b0: 6e06 7b3d 0a33 b23e 7d8c 913e d32f 323e
000001c0: 03bb 213e 08b7 993d a46a e93e ef6a 483e
000001d0: 5f9f 463d 3060 003f 16ff b53e 985b ee3d
000001e0: f508 f2be 3d95 c33e f302 4a3f ecf2 133e
000001f0: e83a 21be 9699 31bd 5158 00be 7174 f3bc
00000200: 3b10 6b3d 7e15 4b3c c825 8bbd 02b9 26be
00000210: 8ea7 f4b7 ccee 7b3d 8b03 153e 05a0 003d
00000220: 387b f1bd 629f f93c b87d 293d 7a5f b33d
00000230: d570 603d b3f3 66bd c768 ccbd 43c6 163e
00000240: d8ce 103e dfb4 223d 78dc 0d3e 6f85 12bd
00000250: a26d c03d 5d42 583e 1eca 96bd 416b c23b
00000260: 4dc8 363d f276 513e c6b5 2bbe 4121 673e
00000270: 77cc 0d3d 1e00 983d f491 85be 96c2 a43d
00000280: 82b7 bb3c fe44 b03e fd5a c9bd 66d9 bf3b
00000290: 445c b8bd 2ddc 1cbe 433b 88be b31d 1abd
000002a0: 2c0a f0ba 8bcc 5fbe 2f31 42bc 9181 0f3e
000002b0: 8481 22be 455e d5be 6df2 22be 94c2 293e
000002c0: ad43 9b3d 9579 3b3d 7db2 9b3e d1af 3b3d
000002d0: 74ab ce3b 4bb9 a63c ae81 dabe e885 af3e
000002e0: 27e9 5b3e 007f 93be 47d4 443d b6a8 b2be
000002f0: cfb3 943e 0243 f53d bbc9 ffbb 16a7 98bd
00000300: 497a b4be 01a5 03bf 6d8b 733d ffec 283e
00000310: 039c 8c3e 3756 083f 522d 843a 2cff 9ebe
00000320: 27bd d0bc a898 d33d 2a74 3c3e 047c 28bd
00000330: 50d0 143e d780 243d e4cc a8be 0a0a e83c
00000340: 54e8 963e 0382 b5be bef4 063e aded ee3e
00000350: 2af7 04be ecf6 223f 6ea6 4b3c dd43 1c3d
00000360: 708e 093e d0f7 173e dac6 313e 164c 823e
00000370: 46b6 c43d affc 36be b4c9 0a3d e900 91ba
00000380: bcb3 9e3e 7ffd af3d 3d9a 263e 22cf 04be
00000390: bf99 d1bd d8c3 bf3d b22b b43d 86bc c43d
000003a0: 9e82 93be e05a aabe 6650 853c 2eaf ecbd
000003b0: a78d 7fbd 364d 6dbe 1e56 c8be 4797 1fbe
000003c0: b3a5 563e 98ca 98be b1c6 3ebe b395 adbe
000003d0: 4d5f 89be 79c9 6d3e aafd 0dbe 6fa7 09bd
000003e0: 50fc 263e c2ea a8be b1eb 623e 7665 763e
000003f0: 9fd3 d4be 2ea5 3fbe 06f1 4e3d 6872 5fbe

layer2.conv2.bias f4 [16]
-0.69439167 -0.91930175 -0.725069 -0.678203 -0.85629046 -0.5946422 -0.66909105 -0.4520515
-0.8631608 -0.79839176 -0.57090914 -0.45291245 -0.43831497 -0.74251467 -0.714846 -0.4649286
00000000: a7c3 31bf 5c57 6bbf 1f9e 39bf b69e 2dbf
00000010: da35 5bbf 793a 18bf 8d49 2bbf 4b73 e7be
00000020: 1bf8 5cbf 6763 4cbf 1a27 12bf 24e4 e7be
00000030: d26a e0be 7115 3ebf 2600 37bf 1f0b eebe

layer3.fc1.weight f4 [120, 400]
-0.008148069 0.0033499068 -0.002158412 -0.0074719605 0.0009558485 0.016926544 0.0021036484 -0.009145314
-0.011393571 0.012945454 -0.0040727905 -0.0022254933 -0.009331594 0.0038754179 -0.011973161 -0.011335347
-0.010327209 -0.013567451 -0.005854237 -0.0008889104 0.01316613 0.019657256 -0.0027669927 -0.020946126
0.0057347505 -0.025164124 -0.0028273289 0.03139214 0.01422251 -0.046109296 -0.0049708276 -0.031198656
-0.007489211 0.00018826997 0.014614959 -0.005512761 -0.0036956412 0.008972711 0.008129824 0.007795359
-0.04038927 0.0022927166 -0.018431531 -0.028465396 0.019517176 -0.03489127 6.640145e-05 0.025803782
-0.011562041 0.005471274 -0.0010524475 0.003929796 0.007071655 0.015724648 -0.012634014 0.01001136
0.00049183256 0.0133176595 -0.00057480496 0.00064010895 0.014101284 0.0007286647 0.034557477 0.0013168172
-0.024238298 -0.03822159 0.025030714 0.017561164 0.0028415057 -0.0004187936 -0.0052756513 0.021825282
0.021315917 -0.014369095 0.016664501 0.052540082 0.01604878 0.01962006 -0.0038257516 -0.00047758824
-0.004084297 -0.0315735 0.02809485 -0.020984156 0.0062114187 -0.029201217 -0.021514367 0.019350052
0.0019380993 -0.017695572 0.033178918 0.0058092363 0.0100265695 0.010541791 0.015531519 0.029855901
-0.027003158 -0.007694855 -0.0006143583 0.0038590685 -0.0146297645 -0.026960535 -0.023901857 0.027389858
0.01246163 -0.023717772 0.0026563357 0.00040324946 -0.018141467 0.0039056083 0.0007814478 -0.018531606
0.00044553753 -0.0064154207 0.015201591 0.015545735 -0.010547205 -0.015918832 -0.008914782 0.022404075
0.00053942855 0.027038913 0.0074794176 -0.0053557903 -0.009728384 0.008907412 -0.011113506 -0.02048678
-0.011821707 -0.009533594 0.025148207 0.0069632507 -0.029045053 -4.922425e-05 0.022080224 0.010819513
-0.010108242 -0.01973581 -0.013779887 0.0016837546 -0.016087664 -0.021350538 0.0024869938 -0.0037442283
-0.01415166 0.008717987 0.012251432 -0.015918644 -0.013007332 -0.00025608958 0.014787896 0.0030724953
0.0019249244 0.007727623 -0.007089763 -0.0049559297 -0.0035450375 0.007726272 0.007494708 0.005860653
0.011388078 0.00029954873 -0.022863792 -0.0062323185 -0.0033288493 0.0058678966 0.0035438892 0.008831067
-0.008167979 -0.010216852 0.0020149597 -0.0035398905 0.0053661293 0.0034894727 0.0064141373 -0.0116207255
0.009785789 0.01583006 0.0014979079 -0.017231315 -0.016821317 -0.013295566 0.019329922 0.01663011
0.021884114 0.010007596 -0.010523789 0.013587218 0.012578911 0.0050718654 -0.023552073 -0.026081752
-0.017460076 -0.037877522 0.0056046355 -0.0037470611 0.018807502 0.0013920928 -0.0010059546 0.020378174
0.008313407 0.01353749 0.007979682 0.005198353 0.002964663 0.008970584 -0.003940511 0.008793264
0.0053011207 0.0021561517 0.0075288294 -0.008082867 0.0076997 0.009594565 0.0043909154 -0.019120775
0.0092612365 0.016076637 -0.002049439 0.027151829 -0.00446258 -0.0057029976 -0.008689972 -0.004811635
-0.0028897147 0.0026750308 -0.0003620058 0.009745542 0.017319325 -0.026759474 -0.014383356 -0.0014486104
0.0003352176 -0.013163654 -0.0095114885 0.0015707911 0.021275211 0.0035751574 -0.0040424895 0.0037474008
0.013098736 0.013805726 0.007926826 0.017058687 0.007229212 0.0002519154 -0.018984163 -0.017519342
-0.012170643 -0.02021871 0.011972004 0.008610307 0.010830739 0.02257864 0.0044438625 -0.0018317613
00000000: 7a7f 05bc 1c8a 5b3b 2574 0dbb 59d7 f4bb
00000010: e891 7a3a 89a9 8a3c 5ddd 093b 3ad6 15bc
00000020: 1aac 3abc 2b19 543c 0b75 85bb 95d9 11bb
00000030: 8be3 18bc b9fa 7d3b 142b 44bc e4b7 39bc
00000040: 7433 29bc 044a 5ebc e6d4 bfbb c405 69ba
00000050: c0b6 573c 4108 a13c 6f56 35bb 3697 abbc
00000060: 93ea bb3b fe24 cebc b54a 39bb 0b95 003d
00000070: 8805 693c 1add 3cbd 53e2 a2bb 5394 ffbc
00000080: 0e68 f5bb 566a 4539 9573 6f3c 64a4 b4bb
00000090: 9232 72bb 4702 133c f432 053c 3670 ff3b
000000a0: 386f 25bd 6741 163b b9fd 96bc 4330 e9bc
000000b0: 7ce2 9f3c 26ea 0ebd 0241 8b38 7462 d33c
000000c0: b76e 3dbc 5f48 b33b 47f2 89ba 85c5 803b
000000d0: 57b9 e73b fad0 803c e5fe 4ebc b006 243c
000000e0: 53ee 003a 5032 5a3c 82ae 16ba fccc 273a
000000f0: 1209 673c dc03 3f3a 248c 0d3d 0e99 ac3a
00000100: 658f c6bc 3e8e 1cbd 360d cd3c 6edc 8f3c
00000110: 8e38 3a3b 8791 dbb9 5fdf acbb efca b23c
00000120: b89e ae3c 5a6c 6bbc fe83 883c 4534 573d
00000130: bb78 833c 40ba a03c 76b9 7abb cf64 fab9
00000140: 91d5 85bb 3753 01bd 2c27 e63c f7e6 abbc
00000150: 2889 cb3b 6437 efbc e63e b0bc 0084 9e3c
00000160: d207 fe3a 4ef6 90bc 9ee6 073d 685b be3b
00000170: 7b46 243c 7ab7 2c3c ea77 7e3c 5d94 f43c
00000180: ba35 ddbc 1f25 fcbb e30c 21ba 6de8 7c3b
00000190: aeb1 6fbc 57dc dcbc d4cd c3bc b260 e03c
000001a0: dd2b 4c3c c64b c2bc eb15 2e3b 3a6b d339
000001b0: 6a9d 94bc 3cf5 7f3b 13da 4c3a 98cf 97bc
000001c0: 0997 e939 7338 d2bb 1810 793c 8ab3 7e3c
000001d0: 2fce 2cbc 3668 82bc 4e0f 12bc c088 b73c
000001e0: 7068 0d3a b680 dd3c e715 f53b a07f afbb
000001f0: cd63 1fbc 65f0 113c 6c15 36bc e4d3 a7bc
00000200: d5af 41bc cb32 1cbc 9d03 ce3c fb2b e43b
00000210: e4ef edbc 2376 4eb8 96e1 b43c 5444 313c
00000220: 0a9d 25bc feac a1bc 09c5 61bc 6eb1 dc3a
00000230: 47ca 83bc 53e7 aebc d5fc 223b ba61 75bb
00000240: 5ddc 67bc e3d5 0e3c 3bba 483c d167 82bc
00000250: b41c 55bc c343 86b9 ee48 723c eb5b 493b
00000260: bf4d fc3a 0038 fd3b 3e51 e8bb 5a65 a2bb
00000270: dc53 68bb ab2c fd3b 2b96 f53b b80a c03b
00000280: 1095 3a3c c00c 9d39 d94c bbbc 7a38 ccbb
00000290: d328 5abb 7c47 c03b 9840 683b 2eb0 103c
000002a0: fdd2 05bc 9564 27bc 6a0d 043b 82fd 67bb
000002b0: 5bd6 af3b a3af 643b af2d d23b db64 3ebc
000002c0: 9354 203c 0bae 813c 7355 c43a b028 8dbc
000002d0: dccc 89bc a5d5 59bc c959 9e3c de3b 883c
000002e0: 5046 b33c e6f6 233c f86b 2cbc ec9c 5e3c
000002f0: c717 4e3c e431 a63b 47f0 c0bc 66a9 d5bc
00000300: 6f08 8fbc 7625 1bbd 17a7 b73b 4191 75bb
00000310: 3112 9a3c e276 b63a 3cda 83ba 21f0 a63c
00000320: f534 083c 59cc 5d3c 36bd 023c f256 aa3b
00000330: cb4a 423b 5bf9 123c 671f 81bb 9f11 103c
00000340: 06b5 ad3b 394e 0d3b 66b4 f63b 006e 04bc
00000350: c44d fc3b 8632 1d3c abe1 8f3b 2ca3 9cbc
00000360: 71bc 173c 27b3 833c e14f 06bb 836d de3c
00000370: d63a 92bb 36e0 babb 6260 0ebc ebaa 9dbb
00000380: 5e61 3dbb 924f 2f3b 99cb bdb9 c4ab 1f3c
00000390: 42e1 8d3c af36 dbbc 2ba8 6bbc 4ddf bdba
000003a0: 25c0 af39 5eac 57bc 13d6 1bbc 01e3 cd3a
000003b0: 5a49 ae3c 304d 6a3b dc76 84bb f496 753b
000003c0: 159c 563c 6931 623c 85df 013c a9be 8b3c
000003d0: 07e3 ec3b 8313 8439 ad84 9bbc b984 8fbc
000003e0: 6067 47bc b5a1 a5bc 3926 443c 3f12 0d3c
000003f0: 6973 313c d7f6 b83c d29d 913b b617 f0ba

layer3.fc1.bias f4 [120]
-0.020689385 0.0038072949 0.0015685679 0.002170586 -0.017473716 -0.014762969 -0.0046320087 0.0021804185
0.021468014 -0.023395035 -0.00063001324 -0.02208391 0.010499572 0.0209412 0.01770076 -0.0045870678
0.001206163 -0.0056597507 0.0076235584 -0.00785438 0.0045440393 0.009648781 0.0049862517 -0.0013024347
-0.0039107995 0.010249166 0.011171228 -0.008287297 -0.010090007 -0.02199793 0.00021344608 0.010561506
0.1338642 0.0046652765 0.01053317 0.008665647 -0.052217655 0.0115309525 0.008880023 -0.0066996138
-0.0042550554 0.017442241 -0.0070042796 0.07710697 0.006368428 0.0011227652 -0.0026601786 0.0033534907
-0.021028236 0.024036188 0.007777453 0.016611626 -0.00017786611 0.013008063 -0.026855545 -0.0018984933
0.0036963816 -0.0069724773 0.0090581 0.0061728517 0.020773849 0.003897526 -0.009783359 0.091239735
-0.16785042 0.008929253 -0.003918645 -0.01573745 0.0066033527 0.01733251 -0.02437903 -0.013323211
-0.009105347 -0.021192813 0.0034070648 0.0016792859 -0.0027903738 0.0029038093 0.008369069 -0.008264462
0.01961389 0.02761147 -0.0040230667 -0.010748168 -0.018324586 0.0013369066 0.0027122155 -0.016162975
0.01001661 0.007077722 -0.016923117 -0.005548051 -0.016192008 0.00911585 0.0127261225 0.007257411
-0.007862812 0.015760534 2.5166535e-05 -0.042867087 -0.022052035 -0.008594474 -0.0018722765 -0.012329931
0.010032823 0.007734908 0.006529324 0.010412396 -0.012288547 0.006901197 0.003471311 0.017296653
0.3101729 -0.0016272014 -0.0017368582 -0.0038998367 -0.01074686 0.008972502 -0.015597309 0.14376931
00000000: c97c a9bc cf83 793b 6898 cd3a 6440 0e3b
00000010: 0a25 8fbc 61e0 71bc 1bc8 97bb 5ae5 0e3b
00000020: b0dd af3c f2a6 bfbc 7927 25ba 51e9 b4bc
00000030: 6606 2c3c e18c ab3c 2f01 913c 1d4f 96bb
00000040: 1d18 9e3a 6e75 b9bb 0bcf f93b a8af 00bc
00000050: 2ae6 943b ec15 1e3c b663 a33b 75b6 aaba
00000060: 2a26 80bb 1eec 273c 8707 373c 71c7 07bc
00000070: 8f50 25bc 0135 b4bc 7fd0 5f39 2b0a 2d3c
00000080: b213 093e 2ddf 983b 5193 2c3c 5cfa 0d3c
00000090: 2ee2 55bd 52ec 3c3c 847d 113c 6f88 dbbb
000000a0: fe6d 8bbb 08e3 8e3c 2884 e5bb 42ea 9d3d
000000b0: 3fae d03b c029 933a 6456 2ebb 3dc6 5b3b
000000c0: 6843 acbc 8ae7 c43c 01da fe3b 1b15 883c
000000d0: 9281 3ab9 c51f 553c 2900 dcbc ddd6 f8ba
000000e0: fe3e 723b 6179 e4bb 6d68 143c a245 ca3b
000000f0: eb2d aa3c a36d 7f3b 624a 20bc e6db ba3d
00000100: fbe0 2bbe 004c 123c fa67 80bb d3eb 80bc
00000110: f060 d83b e8fc 8d3c 88b6 c7bc 9949 5abc
00000120: 982e 15bc 8d9c adbc 1049 5f3b 7c1b dc3a
00000130: b4de 36bb d64d 3e3b 6b1e 093c ab67 07bc
00000140: 4fad a03c 7331 e23c eed3 83bb 1619 30bc
00000150: 711d 96bc 243b af3a 6dbf 313b 3768 84bc
00000160: b51c 243c 3cec e73b 59a2 8abc 6dcc b5bb
00000170: 1aa5 84bc a55a 153c 3a81 503c 93cf ed3b
00000180: 06d3 00bc 3c1c 813c b91c d337 6695 2fbd
00000190: 78a6 b4bc d6cf 0cbc 2d67 f5ba 7b03 4abc
000001a0: b660 243c 1c75 fd3b f1f3 d53b c198 2a3c
000001b0: e755 49bc 7023 e23b ef7e 633b b6b1 8d3c
000001c0: fbce 9e3e d247 d5ba 4aa7 e3ba 6794 7fbb
000001d0: 9913 30bc 6701 133c db8b 7fbc 4338 133e

layer3.fc2.weight f4 [84, 120]
-0.003277927 0.0023719617 0.0016794809 -0.0019694548 0.0026213666 -0.010577023 -0.0020919673 0.0022086124
-0.0020922814 0.0034662366 -0.0068950397 -0.0017620663 0.0031238901 0.0081250165 0.0066833356 0.014984673
0.004776636 -0.010662728 0.011515861 0.0060735974 -0.0036760361 -0.0057434225 -0.002375707 -0.0071575004
0.0009194982 0.010097795 -0.008816032 -0.0070397616 -0.0059117847 -0.00031023961 0.00051157415 0.0010008779
-0.00011454945 0.005281868 -0.0032199428 -0.0037925818 -0.0041541676 0.0042156214 -0.0033683595 0.0026419535
0.005250749 -0.0024496515 -0.006258895 -0.0018643789 -0.00036196806 0.0012335982 0.00037277132 -0.0037658152
-0.0003117604 0.006908707 -0.003187773 0.010033742 -0.00017161587 0.009472396 0.0008423394 -0.00580847
0.003572041 -0.0065365513 -0.002695473 0.002862316 0.0082134325 -0.0010829788 0.0039536287 0.001925416
-0.009827265 -0.0021762245 0.0006618052 -0.003428613 -0.0032202764 0.0027691831 -0.0055233906 -3.595177e-05
-0.0002681309 -0.004687772 -3.108811e-05 0.003735884 0.0074542994 0.0036274483 -0.0061002383 -0.001014239
0.007952647 0.00028432437 0.0031176014 -0.0008014096 -0.008614094 -6.391486e-05 -0.0013915427 -0.0025671483
-0.0030577658 0.0043220366 -0.009594875 0.0011103203 -0.008390144 0.0052390704 -0.005632854 0.0019136498
0.0015977517 0.0025787912 -0.0075207064 0.0027708134 -0.0074962736 -0.0044532036 0.0014681669 -0.0007729522
-0.00040667603 0.003294245 -0.0064566606 0.0070256293 0.004181438 -0.001893289 0.0055934857 -0.0021937944
-0.001344893 0.0057802354 0.0034654532 0.0009545135 -0.0125944065 0.000283104 0.0021441847 -0.0037617807
0.01656691 0.0051415036 0.008564337 -0.002001309 -0.002778253 -0.011980087 0.010058349 -0.003697103
-0.0015226734 0.0016615936 0.0016045219 -0.006204335 -0.0002817462 -0.004073772 0.0044295858 0.016971244
0.005997783 -0.005552826 0.009582188 0.006155861 0.0033801582 -0.0075210514 0.0027213928 -0.006237295
-0.004285264 0.007713366 -0.0034964539 -0.0018951981 -0.0030679123 0.001743354 0.0060845064 -0.0108001875
-0.025989005 0.007869631 -0.00047744915 0.0052335034 0.0046494277 0.014461264 -0.010388758 -0.003867618
-0.0034976876 -0.005782679 -0.0027793385 -0.006946753 -0.00046628533 -0.004719112 0.0052237483 0.0014712991
-0.003743433 -0.004486762 -0.004893787 0.008594614 -0.0056052436 -0.007211359 0.009618441 -0.0053546345
-0.008557966 -0.014224765 0.007504663 0.0027074001 0.0060764067 -0.008416638 0.0113223065 -0.0048143985
0.008340217 -0.012054938 0.009674089 -0.012419979 0.0016113801 0.006652255 -0.00067857694 0.0011822513
0.008083215 -0.00559081 -0.005120427 0.0020829008 0.00799887 0.0092184935 -0.006101872 0.0054953494
-0.00853349 -0.004911855 0.00581426 -0.0078527015 0.0054953145 -0.0026698506 -0.0068594483 0.014462048
-0.0028354987 0.007096255 -0.00015869792 -0.010491237 -0.0040546576 0.014852571 -0.012446431 0.001088863
0.0028513016 -0.012372676 0.003567279 -0.0058267578 -0.0002916503 -0.0003273055 -0.011543109 -0.012318389
-0.0035195055 0.011115843 -0.007529254 0.00040221566 0.016094172 0.009184778 0.0073554004 -0.01114996
0.0021302386 0.016480507 -0.0013260242 -0.00090825785 -0.007523438 0.0002835193 -0.0017015301 0.0066212653
0.00021254545 -0.01414041 -0.002529557 0.0023069123 -0.0047667655 0.01426197 -0.0032158734 0.0014823371
-0.0040419735 0.0002790758 0.001923113 -0.004173389 -0.0063709947 -0.007630252 -0.0052059083 -0.013126649
00000000: 7dd2 56bb ea72 1b3b 0722 dc3a f811 01bb
00000010: 3ccb 2b3b 404b 2dbc 6319 09bb 5ebe 103b
00000020: a81e 09bb cd29 633b c9ef e1bb 22f5 e6ba
00000030: 2eba 4c3b ca1e 053c e2ff da3b 4682 753c
00000040: 5485 9c3b b9b2 2ebc 06ad 3c3c 0705 c73b
00000050: a7e9 70bb 5233 bcbb c0b1 1bbb 7789 eabb
00000060: 7b0a 713a 3971 253c 1e71 10bc cdad e6bb
00000070: a5b7 c1bb a8a7 a2b9 291b 063a e42f 833a
00000080: 453a f0b8 8513 ad3b ad05 53bb f78c 78bb
00000090: af1f 88bb 3223 8a3b b2bf 5cbb a024 2d3b
000000a0: 7a0e ac3b 558a 20bb 6b17 cdbb 2d5e f4ba
000000b0: 88c6 bdb9 b0b0 a13a 8570 c339 e5cb 76bb
000000c0: c673 a3b9 6f62 e23b f5e9 50bb 9064 243c
000000d0: c9f3 33b9 1c32 1b3c 71d0 5c3a fa54 bebb
000000e0: e718 6a3b 9130 d6bb 88a6 30bb b295 3b3b
000000f0: a291 063c bdf2 8dba 718d 813b 3e5e fc3a
00000100: 8902 21bc fd9e 0ebb ff7c 2d3a 95b2 60bb
00000110: 460b 53bb 2f7b 353b 8ffd b4bb ebca 16b8
00000120: ec93 8cb9 e29b 99bb 9b64 02b8 bcd5 743b
00000130: 3243 f43b 7cba 6d3b 82e4 c7bb 37f0 84ba
00000140: d24b 023c 5f11 9539 ac50 4c3b b015 52ba
00000150: 2122 0dbc 070a 86b8 6d64 b6ba 9a3d 28bb
00000160: cc64 48bb df9f 8d3b d333 1dbc 2b88 913a
00000170: d176 09bc 82ac ab3b ce93 b8bb 6fd3 fa3a
00000180: a76b d13a f000 293b 4270 f6bb 8996 353b
00000190: 4da3 f5bb 2eec 91bb 826f c03a f29f 4aba
000001a0: 2237 d5b9 43e4 573b 6592 d3bb 4037 e63b
000001b0: 7204 893b 3d28 f8ba 8f49 b73b c3c5 0fbb
000001c0: 1f47 b0ba 2168 bd3b a81c 633b 5138 7a3a
000001d0: c558 4ebc 936d 9439 7385 0c3b 3588 76bb
000001e0: 54b7 873c 0f7a a83b 6f51 0c3c 6528 03bb
000001f0: 5a13 36bb 2048 44bc c6cb 243c 184b 72bb
00000200: 7194 c7ba d4c9 d93a d24e d23a bc4d cbbb
00000210: 56b7 93b9 477d 85bb 0f26 913b 4707 8b3c
00000220: 0d89 c43b 7bf4 b5bb 9cfe 1c3c 1bb7 c93b
00000230: a585 5d3b 2773 f6bb 6559 323b 3962 ccbb
00000240: 666b 8cbb 67c0 fc3b c324 65bb 4c68 f8ba
00000250: 070f 49bb 4181 e43a 8a60 c73b 45f3 30bc
00000260: e5e6 d4bc a0ef 003c 2452 fab9 cf7d ab3b
00000270: 3a5a 983b f0ee 6c3c 9c35 2abc dd77 7dbb
00000280: 7639 65bb a17c bdbb 9025 36bb 96a1 e3bb
00000290: c277 f4b9 c8a2 9abb fa2b ab3b 9bd8 c03a
000002a0: 6254 75bb b005 93bb 105c a0bb 6dd0 0c3c
000002b0: 31ac b7bb 444d ecbb aa96 1d3c ee75 afbb
000002c0: b636 0cbc fd0e 69bc ade9 f53b a36e 313b
000002d0: 981c c73b f0e5 09bc 3281 393c 1ac2 9dbb
000002e0: 68a5 083c 1382 45bc 1280 1e3c 2b7d 4bbc
000002f0: f234 d33a 29fb d93b 87e2 31ba c5f5 9a3a
00000300: 766f 043c 1d33 b7bb 41c9 a7bb 4781 083b
00000310: b10d 033c 2a09 173c 36f2 c7bb 5512 b43b
00000320: 0dd0 0bbc a0f3 a0bb 8c85 be3b 9ea8 00bc
00000330: 0a12 b43b a9f8 2ebb 39c5 e0bb 3af2 6c3c
00000340: c6d3 39bb b487 e83b 2668 26b9 70e3 2bbc
00000350: efdc 84bb 3358 733c 1eec 4bbc 2eb8 8e3a
00000360: e7dc 3a3b c4b6 4abc 03c9 693b 63ee bebb
00000370: a4e8 98b9 339a abb9 4f1f 3dbc 11d3 49bc
00000380: 81a7 66bb 3a1f 363c f6b7 f6bb 79e0 d239
00000390: edd7 833c c07b 163c 9205 f13b 52ae 36bc
000003a0: 799b 0b3b 2102 873c fdcd adba 2718 6eba
000003b0: 2c87 f6bb 51a5 9439 e005 dfba 33f7 d83b
000003c0: bcde 5e39 2ead 67bc edc6 25bb 912f 173b
000003d0: 8732 9cbb 0aab 693c 67c1 52bb fb4a c23a
000003e0: 8872 84bb eb50 9239 f710 fc3a edc0 88bb
000003f0: c7c3 d0bb 3107 fabb 5396 aabb 2811 57bc

layer3.fc2.bias f4 [84]
0.008930308 -0.006251522 -0.0022198267 0.02718895 -0.0062091285 -0.016732119 0.018395739 -0.011923072
0.021848109 0.019635407 0.18154751 -0.00034704074 0.001576312 0.0051400717 0.0011249371 -0.001748085
-0.0028012528 -0.0065229633 0.007490251 0.009645766 0.010163122 0.015638318 -0.013345245 -0.012796519
-0.0103477 -0.0484567 0.014592206 0.0002770257 -0.0028459474 0.012369286 0.00021690586 0.0017070533
0.005105323 0.006213644 0.0018425254 0.0011177943 0.010420611 0.0027118775 -0.019392304 -0.012655652
-0.010428301 0.24151883 0.009321677 -0.012956697 -0.020191679 0.010703902 0.001877022 0.014765419
-0.015526346 -0.021312805 0.0086163115 0.22998324 0.01553133 -0.0020957033 -0.012089775 -0.012510974
0.0031502903 -0.0024018425 0.013632694 0.009660212 0.008562953 -0.016953016 0.018514344 -0.0070681167
0.01726796 -0.008588756 0.0011007589 0.0061267926 0.012044658 -0.008709297 0.105067246 -0.0021561543
-0.0077032624 -0.009732128 -0.013171273 -0.012502247 -0.014138771 0.011376323 0.0061644935 -0.06866066
-0.00010713664 -0.008056952 -0.006327808 0.004222067
00000000: 6d50 123c 91d9 ccbb 837a 11bb 5cbb de3c
00000010: f275 cbbb cc11 89bc a9b2 963c fd58 43bc
00000020: cefa b23c 6fda a03c 97e7 393e 05f3 b5b9
00000030: 419c ce3a 0c6e a83b a072 933a 0020 e5ba
00000040: 3995 37bb 95be d5bb c870 f53b 4609 1e3c
00000050: 3983 263c ee1b 803c 04a6 5abc 7ea8 51bc
00000060: 6689 29bc 887a 46bd 2614 6f3c c33d 9139
00000070: 1383 3abb 8ca8 4a3c 3971 6339 34bf df3a
00000080: 8e4a a73b d39b cb3b e580 f13a f482 923a
00000090: 36bb 2a3c c1b9 313b 9cdc 9ebc a759 4fbc
000000a0: 77db 2abc b650 773e f2b9 183c 5348 54bc
000000b0: 0569 a5bc 6b5f 2f3c 6806 f63a a8ea 713c
000000c0: 3762 7ebc 3198 aebc 6e2b 0d3c ba80 6b3e
000000d0: 1f77 7e3c 1158 09bb 3114 46bc d4fa 4cbc
000000e0: 1a75 4e3b 3b68 1dbb aa5b 5f3c de45 1e3c
000000f0: a14b 0c3c 0de1 8abc 65ab 973c a99b e7bb
00000100: 8975 8d3c dbb7 0cbc 5747 903a 43c3 c83b
00000110: f556 453c 70b1 0ebc 7f2d d73d 444e 0dbb
00000120: a66b fcbb 8173 1fbc 53cc 57bc 39d6 4cbc
00000130: 4ea6 67bc c263 3a3c 85ff c93b f69d 8cbd
00000140: 8cae e0b8 4e01 04bc 8059 cfbb 4459 8a3b

layer3.fc3.weight f4 [10, 84]
0.0038327163 0.0011513535 -0.0035730293 0.0061992565 0.0017094042 0.0029790606 -0.0002360872 -0.0027936022
0.00036329255 0.0069311573 -0.15652996 -4.5569708e-05 0.0021024977 0.0026814276 -0.0024314744 0.0044102413
-0.0032140668 -0.002586611 0.0021842595 0.003791752 -0.0034226133 -0.00033561897 -0.0038185918 -0.001914125
0.0021665017 0.0033520372 0.0015010434 0.097658135 0.00039443627 0.0031827393 0.0013653556 0.003509978
-0.010230921 -0.0010918743 0.002184147 0.0028506846 0.00456796 0.004484548 -0.00040662749 0.00038868148
-0.00095275027 -0.00042042165 -0.00024353445 0.0005104438 -0.0043474697 0.00063948194 0.0155661125 0.0025731937
-0.003999556 -0.010685824 -0.0017013942 0.019730723 0.004199563 -0.0049353936 -0.0003185806 -0.0034867278
0.008865282 -0.2380709 0.005930967 -0.002030926 -0.0002943725 -0.0019829737 0.0021433206 0.0011332316
0.00093237316 -0.0048319926 -0.0035439865 0.00069917366 0.001413872 0.0028348917 -0.10962886 -0.0024627936
-0.0011054177 -0.003581337 -0.0052257054 0.0019270761 -0.0029935986 0.007937289 0.0010826201 0.12828189
0.002436587 0.0013403354 0.0020765811 0.0020924646 -0.0014064935 -0.003857304 0.003615246 -0.0018815935
0.003511985 -0.00040783786 0.0014054804 -0.001977257 0.001771915 -0.0017944933 -0.03337657 0.004407028
-0.002106171 -0.010413077 -0.0033358359 0.000748055 0.0012355692 -0.0037006258 0.0005424149 0.004522742
-0.0031957487 -0.0034302538 0.0037872668 -0.0025677625 0.0013823116 0.2197463 0.0063702287 -0.07739449
0.0011647406 -0.0013323982 0.0060198726 -0.00017270056 -0.0066246516 0.0029087828 0.0028475246 -0.0015599855
-0.0035010548 0.003395135 0.0004813346 -0.0030800656 -0.0033395684 -0.15051019 0.0015658601 -0.004389992
0.0021387218 -0.0043375553 0.09662725 -0.0028821456 -0.003770762 0.0038217956 0.0035446726 -0.3278276
-0.005621714 -0.00024774292 -0.0013791644 0.005006266 0.0012678143 0.009114482 -0.002539297 -0.0032113197
0.003734383 0.0028711893 -0.0025586453 -0.00061917683 0.0024344432 0.001410286 0.0057760165 0.0035107962
-0.0011182473 -0.0039544827 -0.07648053 0.008546484 -0.0053825784 0.0006507298 0.0033938088 -0.005918089
-0.004808318 0.0024206287 0.004753607 -0.07202789 -0.0051959264 0.000116848285 -0.002016148 0.004150017
-0.0007339265 -0.00044128436 0.0022490376 -0.008294873 -0.000623849 0.002438092 -0.00080022257 0.00040350104
-0.004231965 -0.0032309801 -0.082694285 0.002778436 -0.0027756304 -0.0036327967 -0.0018058066 0.0017271579
0.000822548 -0.0010638546 -5.9043658e-05 0.00039720957 0.00021447573 0.00012631249 0.006323252 -0.0023036061
0.0014453646 -0.061997846 0.00059711613 0.15862362 0.002228783 -0.005305598 -0.00081746513 -0.0036613538
0.0005425202 0.001230405 0.0035943568 0.00025904574 -0.006338139 0.0005868625 0.0010193954 0.0004923624
0.0006044285 0.13014445 -0.0015790708 -0.0014411446 0.005956165 -0.003661533 0.033460774 -0.0064523723
0.0005025433 0.0079736635 0.000774086 0.1495758 -0.0028558087 0.0011463406 0.0033307723 0.0016875694
0.0014255256 0.03884687 -0.0037799147 -0.002848736 0.0033457514 0.0047112596 -0.004838932 -0.0027459664
-0.0037981444 0.002441646 0.0027135047 0.000614483 -0.00281304 -0.00021560429 -0.018575687 0.0049377168
-0.0009943559 0.0011757738 0.0082659805 -0.0015192342 0.00054137444 0.0017113996 0.00027989235 -0.18035302
-0.003785207 0.0024473337 -0.0026073135 0.0036989558 -0.0026978361 -0.001084689 -0.00043423843 -0.0028149786
00000000: 4f2e 7b3b 03e9 963a 7c29 6abb 2223 cb3b
00000010: 160e e03a 583c 433b 2d8e 77b9 de14 37bb
00000020: 4d78 be39 c31e e33b 6449 20be 1a22 3fb8
00000030: 0fca 093b e4ba 2f3b 5f59 1fbb c983 903b
00000040: 18a3 52bb 2284 29bb cb25 0f3b 0b7f 783b
00000050: ec4d 60bb 04f6 afb9 5741 7abb 61e3 faba
00000060: defb 0d3b daad 5b3b a9be c43a fd00 c83d
00000070: 57cc ce39 8195 503b bbf5 b23a a907 663b
00000080: 989f 27bc 391d 8fba e823 0f3b 8dd2 3a3b
00000090: d3ae 953b 1df3 923b 9e30 d5b9 f2c7 cb39
000000a0: fdc1 79ba 0a6c dcb9 485d 7fb9 4ecf 053a
000000b0: 3875 8ebb e8a2 273a 0209 7f3c 07a3 283b
000000c0: b50e 83bb 9813 2fbc 5101 dfba 53a2 a13c
000000d0: 7d9c 893b 15b9 a1bb 2a07 a7b9 9681 64bb
000000e0: b03f 113c dcc8 73be 8f58 c23b 4919 05bb
000000f0: 0256 9ab9 c7f4 01bb f476 0c3b f188 943a
00000100: 816a 743a b155 9ebb 3a42 68bb c048 373a
00000110: ac51 b93a 97c9 393b 1985 e0bd d266 21bb
00000120: aae3 90ba ddb4 6abb 653c abbb f295 fc3a
00000130: 4030 44bb 670b 023c b4e6 8d3a 545c 033e
00000140: 25af 1f3b 31ae af3a 4017 083b bb21 093b
00000150: 175a b8ba d3ca 7cbb c3ed 6c3b cd9f f6ba
00000160: 5529 663b 12d3 d5b9 1938 b83a de94 01bb
00000170: 9a3f e83a 3435 ebba dfb5 08bd d568 903b
00000180: b007 0abb 9c9b 2abc 0a9e 5abb 1f19 443a
00000190: d3f2 a13a 3386 72bb d930 0e3a 8233 943b
000001a0: c46f 51bb 1cce 60bb cb33 783b e847 28bb
000001b0: ae2e b53a 2d05 613e 5abd d03b 0181 9ebd
000001c0: 36aa 983a dda3 aeba 5a42 c53b f416 35b9
000001d0: 9b13 d9bb 47a1 3e3b 899d 3a3b 6d78 ccba
000001e0: f471 65bb ea80 5e3b a35b fc39 edda 49bb
000001f0: a9dc 5abb 581f 1abe 8c3d cd3a ecd9 8fbb
00000200: cc29 0c3b 0d22 8ebb 82e4 c53d 61e2 3cbb
00000210: e31e 77bb 1777 7a3b bd4d 683b 05d9 a7be
00000220: 5b36 b8bb 7ee3 81b9 14c5 b4ba 9a0b a43b
00000230: ca2c a63a e954 153c 566a 26bb 0175 52bb
00000240: 8dbc 743b 902a 3c3b f2ae 27bb 4150 22ba
00000250: 2e8b 1f3b 58d9 b83a bd44 bd3b 6315 663b
00000260: 2792 92ba 9b94 81bb d3a1 9cbd 8d06 0c3c
00000270: 5760 b0bb bd95 2a3a aa6a 5e3b 87ec c1bb
00000280: 188f 9dbb 69a3 1e3b 25c4 9b3b 5c83 93bd
00000290: 9742 aabb 720c f538 5a21 04bb defc 873b
000002a0: f964 40ba 2f5c e7b9 9764 133b 38e7 07bc
000002b0: cc89 23ba 65c8 1f3b 07c6 51ba fe8c d339
000002c0: 4cac 8abb dabe 53bb 9f5b a9bd 6c16 363b
000002d0: 5ae7 35bb 3714 6ebb d1b0 ecba cd61 e23a
000002e0: 43a0 573a 0971 8bba a5a5 77b8 9140 d039
000002f0: e4e4 6039 c072 0439 4833 cf3b 19f8 16bb
00000300: 6372 bd3a 74f1 7dbd c987 1c3a 3b6e 223e
00000310: c610 123b 95da adbb 284b 56ba 53f3 6fbb
00000320: ea37 0e3a 8a45 a13a 4d8f 6b3b 88d0 8739
00000330: 2ab0 cfbb add7 193a 3c9d 853a e211 013a
00000340: 8372 1e3a 9644 053e d3f8 ceba cae4 bcba
00000350: ef2b c33b 54f6 6fbb 2a0e 093d 6c6e d3bb
00000360: 1cbd 033a f8a3 023c 08ec 4a3a 662a 193e
00000370: 8528 3bbb cf40 963a 1649 5a3b 6f31 dd3a
00000380: b4d8 ba3a e51d 1f3d 72b8 77bb dcb1 3abb
00000390: 6544 5b3b e960 9a3b e78f 9ebb acf5 33bb
000003a0: 4aea 78bb 0604 203b 0ed5 313b 4215 213a
000003b0: fb5a 38bb d613 62b9 0a2c 98bc 92cc a13b
000003c0: 0c55 82ba 6c1c 9a3a 096e 073c 0a21 c7ba
000003d0: 06eb 0d3a 0b51 e03a 84be 9239 76ae 38be
000003e0: 3c11 78bb 7263 203b 76df 2abb 2e6a 723b
000003f0: 2ece 30bb 202c 8eba 7faa e3b9 817b 38bb

layer3.fc3.bias f4 [10]
-0.06746144 -0.48310974 0.40005445 0.5952599 0.3034328 0.030375514 -0.13295925 -0.24507707
-0.38478807 -0.099433914
00000000: 3929 8abd 295a f7be f0d3 cc3e f462 183f
00000010: 8b5b 9b3e 12d6 f83c 7826 08be 7cf5 7abe
00000020: f102 c5be 02a4 cbbd
