output/models_cifar10_300.pth (torch_old, 248636 bytes, 10 tensors)

layer1.conv1.weight f4 [6, 1, 5, 5]
0.006659126 -0.18619919 0.024795698 -0.12791772 -0.06752263 0.28199574 -0.20837298 0.42966568
-0.07397763 0.21740171 0.09979135 -0.5645834 0.40029356 -0.35622558 -0.058618657 0.35802752
-0.60098326 0.6462329 -0.29300088 0.120698914 0.2332796 -0.5833293 0.47141477 -0.18460716
-0.031037083 0.004817946 -0.03334661 -0.03136809 0.08200848 -0.022194713 0.04399989 0.14864904
-0.5226493 0.113626175 0.21134575 -0.06275995 0.3160316 0.41376153 -1.0268091 0.29673517
0.084653534 -0.50199056 0.70937145 0.14459768 -0.39384282 0.0015877298 0.066082925 -0.36376253
0.3720662 -0.0824925 -0.03626476 -0.009562684 -0.06299187 0.13592333 0.045571595 -0.047985904
-0.025042223 0.16116987 0.04873284 -0.05770668 -0.31198347 0.00855237 0.28485224 -0.106525525
-0.03703544 -0.3437453 0.31161022 0.20352468 -0.043823775 0.0121278325 -0.46839595 0.31723005
-0.022041343 0.05443969 -0.09373711 -0.11147428 -0.32072762 -0.10643241 -0.04913773 0.06901106
0.26399976 0.7658423 0.42433804 0.18781123 0.0072983042 -0.12524192 -0.41836932 -0.26894453
-0.041355334 -0.0792897 0.1062651 -0.014653132 -0.09275494 0.08302775 0.18929479 -0.063756324
-0.024138061 -0.029307427 -0.116712354 -0.07863872 -0.08419103 0.025570301 0.001562169 0.10514596
-0.08813271 0.012944263 0.090750836 0.048248027 -0.13580814 0.11332394 -0.2568762 -0.3682653
-0.1073771 0.006618308 -0.28765023 0.20573561 0.19503316 -0.16083124 -0.094984174 0.17480537
-0.047710203 0.030616421 0.14515156 0.03678115 -0.09704263 0.049653642 -0.23955625 0.29374158
-0.004714081 -0.079169765 -0.13531168 0.36044905 0.38931376 -0.6287902 0.0035174633 0.12524116
0.40506247 -1.0228577 0.0409382 0.3074195 -0.0057513765 -0.2841102 -0.10452188 0.60915065
-0.21265775 0.107252575 -0.11786867 0.19743563 -0.14063942 -0.002349481
00000000: cc34 da3b 00ab 3ebe 5920 cb3c ddfc 02be
00000010: 4e49 8abd bf61 903e ba5f 55be 24fd db3e
00000020: 9581 97bd 8e9e 5e3e 685f cc3d 8a88 10bf
00000030: 47f3 cc3e 3363 b6be 1e1a 70bd 624f b73e
00000040: 0ada 19bf 856f 253f 3604 96be fe30 f73d
00000050: d9e0 6e3e 1255 15bf 475d f13e a909 3dbe
00000060: 7b41 febc dcdf 9d3b 7496 08bd d47b 00bd
00000070: 10f4 a73d b0d1 b5bc 3b39 343d 7437 183e
00000080: 58cc 05bf d7b4 e83d 056b 583e 4a88 80bd
00000090: e5ce a13e 8dd8 d33e 7b6e 83bf aced 973e
000000a0: d55e ad3d 7482 00bf 5e99 353f 6a11 143e
000000b0: c4a5 c9be 5f1b d03a 7c56 873d 153f babe
000000c0: 767f be3e d4f1 a8bd 5b8a 14bd ceac 1cbc
000000d0: e201 81bd 7c2f 0b3e 48a9 3a3d de8c 44bd
000000e0: 5925 cdbc b709 253e 169c 473d d75d 6cbd
000000f0: 4cbc 9fbe 3d1f 0c3c 27d8 913e 0e2a dabd
00000100: 79b2 17bd 62ff afbe 608b 9f3e c668 503e
00000110: 8f80 33bd d1b3 463c 98d1 efbe fa6b a23e
00000120: 0c90 b4bc 27fc 5e3d 3ef9 bfbd a14c e4bd
00000130: 6936 a4be 3cf9 d9bd a544 49bd ac55 8d3d
00000140: fa2a 873e 3e0e 443f d642 d93e 9651 403e
00000150: 9d26 ef3b 6b3f 00be 8134 d6be 19b3 89be
00000160: 3664 29bd a362 a2bd 84a1 d93d b113 70bc
00000170: 4df6 bdbd 740a aa3d 7ed6 413e ad92 82bd
00000180: 2fbd c5bc 2116 f0bc e306 efbd 560d a1bd
00000190: 596c acbd cf78 d13c b2c1 cc3a c456 d73d
000001a0: ec7e b4bd 2d14 543c 93db b93d b99f 453d
000001b0: 4a11 0bbe 6216 e83d 4785 83be 458d bcbe
000001c0: 86e8 dbbd 64de d83b e446 93be 5bac 523e
000001d0: c6b6 473e f2b0 24be 1087 c2bd 2e00 333e
000001e0: c66b 43bd 4acf fa3c 9ca2 143e d5a7 163d
000001f0: 49be c6bd 9e61 4b3d 3c4e 75be 4c65 963e
00000200: 9478 9abb c223 a2bd 258f 0abe c78c b83e
00000210: 2254 c73e 65f8 20bf 3e85 663b 383f 003e
00000220: 5964 cf3e 00ed 82bf d0ae 273d 1766 9d3e
00000230: 0b76 bcbb e476 91be 910f d6bd 4cf1 1b3f
00000240: f4c2 59be 3da7 db3d 2165 f1bd 912c 4a3e
00000250: c803 10be c0f9 19bb

layer1.conv1.bias f4 [6]
-0.30917314 -0.2933092 -0.3098498 -0.2778097 -0.2926787 -0.32860285
00000000: f14b 9ebe a02c 96be a2a4 9ebe 133d 8ebe
00000010: fcd9 95be a23e a8be

layer2.conv2.weight f4 [16, 6, 5, 5]
0.1129312 0.0006560797 0.04447524 0.16224901 0.048010055 0.014846661 -0.079522476 0.07300514
0.04059448 0.07836375 -0.030134082 0.039529946 -0.05590398 -0.00606394 0.047321584 0.058842685
-0.16165139 -0.02240092 0.110784024 -0.09349711 -0.24981886 -0.32995462 -0.7209035 -0.7341825
-0.3465881 0.3155528 0.15172577 0.009251065 -0.055048503 0.1547732 0.20058995 0.15491617
0.17629227 0.10409882 0.1375338 0.43144014 0.16312523 0.13368963 0.09153224 0.1916481
0.30220497 0.31612045 0.2285338 0.10699904 -0.05379826 0.42211372 0.077189244 -0.1245197
-0.08073339 -0.028680142 0.16354 0.16982427 0.0007604213 0.16216245 -0.0675469 0.053425115
0.08322866 0.055181775 -0.13027418 0.20803964 -0.16917758 0.0064405203 0.05045482 0.17352402
-0.031101072 -0.12207467 -0.10701235 -0.08339133 0.17507967 0.22036505 -0.13511837 -0.25727478
-0.42334473 -0.41463724 -0.15248969 0.2959148 -0.14268391 -0.04517705 -0.03129205 0.16603908
0.20501569 0.036347147 0.15640745 0.09274391 0.054441657 0.01614268 0.33351353 0.1280523
0.20705895 0.050191995 -0.22195368 0.23679107 0.24373062 0.24288519 -0.04043666 -0.10042573
0.14644971 0.24168578 0.31993303 0.29921362 0.2263675 0.007951561 0.02625721 0.17902036
0.111564994 0.43105823 0.07619062 0.1903487 0.036126878 0.26186422 0.31118074 0.088587016
0.24067797 0.07382732 0.3883399 0.17038536 0.12972635 0.52619857 0.28840932 0.042668056
-0.35497996 0.4790047 0.6631895 0.14075308 -0.24051467 -0.058963932 -0.10369234 0.022315208
0.061510008 0.030466108 -0.0707157 -0.16413909 0.02262795 0.116885036 0.23892044 -0.003129606
-0.07846864 0.025939034 0.079957895 0.13081048 -0.029262373 -0.014193107 -0.08769508 0.08133132
0.22570506 0.033062212 0.046942785 -0.09673077 0.0027816473 0.23600477 -0.07605663 0.09603167
0.039614946 0.16269627 -0.15562858 0.17726518 -0.020806432 0.10284462 -0.24266453 0.028082343
0.03243674 0.3024362 -0.15729089 0.0227334 -0.01573066 -0.17686196 -0.3241919 0.010431765
-0.075920634 -0.2813875 -0.06859621 0.14606428 -0.2372831 -0.3661924 -0.12143465 0.20705663
0.15225111 0.117439985 0.2661075 0.05509195 0.059642743 0.005283178 -0.3093161 0.29339752
0.18234688 -0.2828986 0.118791334 -0.44353792 0.27849856 0.025919141 0.012236458 -0.06356906
-0.36053577 -0.53064024 0.12430003 0.24140191 0.29724273 0.533529 0.019339163 -0.41151232
-0.02425943 0.09089538 0.17313436 -0.01939053 0.10839262 0.06819149 -0.312968 0.04606792
0.22261651 -0.36292478 0.13424084 0.4191349 -0.16227138 0.670547 0.03173999 0.002629939
0.16459508 0.15422948 0.22902274 0.2814351 0.14332652 -0.13069803 0.057586115 -0.009860786
0.27490076 0.07911838 0.12681077 -0.14069107 -0.066826485 0.12260427 0.015767103 0.11978944
-0.26105678 -0.29400885 0.1165996 -0.18987654 -0.081700236 -0.15936111 -0.35389596 -0.13160321
0.1265743 -0.2549071 -0.16168594 -0.28016245 -0.26762548 0.18443383 -0.105450496 -0.07171698
0.19047068 -0.28535587 0.15630716 0.17006998 -0.38819635 -0.12675838 0.11127362 -0.23001993
00000000: 7948 e73d c3fc 2b3a ab2b 363d 9b24 263e
00000010: 31a6 443d 693f 733c aedc a2bd b883 953d
00000020: 6646 263d 2c7d a03d c0db f6bc 27ea 213d
00000030: 92fb 64bd 04b4 c6bb 47d4 413d 0705 713d
00000040: f187 25be 2282 b7bc bce2 e23d 6a7b bfbd
00000050: 84d0 7fbe d0ef a8be 228d 38bf 62f3 3bbf
00000060: ff73 b1be 2390 a13e 005e 1b3e c791 173c
00000070: 8a7a 61bd de7c 1e3e 7467 4d3e 58a2 1e3e
00000080: f685 343e c331 d53d a9d5 0c3e b9e5 dc3e
00000090: 4d0a 273e efe5 083e 4175 bb3d 663f 443e
000000a0: 9cba 9a3e 8ada a13e c404 6a3e 5022 db3d
000000b0: 905b 5cbd 4a1f d83e 6515 9e3d 2f04 ffbd
000000c0: 8c57 a5bd 9ef2 eabc 0877 273e 6ae6 2d3e
000000d0: 0257 473a ea0d 263e 0756 8abd 4bd4 5a3d
000000e0: ca73 aa3d 4906 623d 9866 05be 5808 553e
000000f0: e33c 2dbe 000b d33b b7a9 4e3d 48b0 313e
00000100: adc7 febc 4902 fabd 4a29 dbbd 13c9 aabd
00000110: 1648 333e 60a7 613e 785c 0abe 85b9 83be
00000120: a4c0 d8be 554b d4be 4226 1cbe 2582 973e
00000130: bb1b 12be 920b 39bd 182c 00bd 2606 2a3e
00000140: a2ef 513e bfe0 143d 4629 203e 85f0 bd3d
00000150: 37fe 5e3d a73d 843c 49c2 aa3e 2420 033e
00000160: 4307 543e 1f96 4d3d d347 63be 5c79 723e
00000170: 8594 793e e5b6 783e e9a0 25bd 01ac cdbd
00000180: eaf6 153e 7a7c 773e 43ce a33e 8732 993e
00000190: e2cc 673e 4447 023c 5c19 d73c 1d51 373e
000001a0: 307c e43d aab3 dc3e d409 9c3d c5ea 423e
000001b0: c7f9 133d 1113 863e 1553 9f3e 1c6d b53d
000001c0: 4974 763e c732 973d 7dd4 c63e 8079 2e3e
000001d0: fcd6 043e f3b4 063f 63aa 933e b3c4 2e3d
000001e0: efbf b5be 1b40 f53e c9c6 293f 9321 103e
000001f0: 7a49 76be 2a84 71bd a65c d4bd 62ce b63c
00000200: ebf1 7b3d 0f94 f93c 65d3 90bd 1414 28be
00000210: 405e b93c 6c61 ef3d 8fa7 743e 131a 4dbb
00000220: 2bb4 a0bd 197e d43c f7c0 a33d 2ff3 053e
00000230: a5b7 efbc 358a 68bc 7a99 b3bd 0991 a63d
00000240: 3a1f 673e 3e6c 073d 1447 403d c81a c6bd
00000250: 4c4c 363b 3cab 713e 94c3 9bbd 41ac c43d
00000260: 4843 223d da99 263e 195d 1fbe 0185 353e
00000270: 4072 aabc 33a0 d23d 0d7d 78be f10c e63c
00000280: 63dc 043d ebd8 9a3e dd10 21be 653b ba3c
00000290: 96dd 80bc 4d1b 35be 7bfc a5be fee9 2a3c
000002a0: 477c 9bbd 0612 90be 2b7c 8cbd e091 153e
000002b0: 57fa 72be 927d bbbe bbb2 f8bd a706 543e
000002c0: b7e7 1b3e 6084 f03d 3e3f 883e 19a8 613d
000002d0: f34b 743d 821e ad3b ae5e 9ebe 3338 963e
000002e0: 24b9 3a3e 16d8 90be df48 f33d 6717 e3be
000002f0: 5d97 8e3e 6154 d43c 6d7b 483c 7f30 82bd
00000300: 2598 b8be 0ad8 07bf 0491 fe3d 1032 773e
00000310: 3330 983e 5b95 083f 2a6d 9e3c beb1 d2be
00000320: b6bb c6bc 5b27 ba3d 224a 313e e4d8 9ebc
00000330: f3fc dd3d fba7 8b3d 573d a0be b7b1 3c3d
00000340: 95f5 633e 47d1 b9be 6e76 093e da98 d63e
00000350: 782a 26be f8a8 2b3f cb01 023d 0e5b 2c3b
00000360: 9d8b 283e 55ee 1d3e f084 6a3e 4318 903e
00000370: 30c4 123e b4d5 05be 6bdf 6b3d 228f 21bc
00000380: cbbf 8c3e d108 a23d afda 013e 5211 10be
00000390: 53dc 88bd f317 fb3d 032a 813c 2a54 f53d
000003a0: 3ca9 85be 5488 96be c5cb ee3d ff6e 42be
000003b0: 7452 a7bd 8f2f 23be da31 b5be fec2 06be
000003c0: b19c 013e 2f83 82be 0091 25be 7471 8fbe
000003d0: 3506 89be 39dc 3c3e 6ef6 d7bd 5ae0 92bd
000003e0: bf0a 433e 2a1a 92be fc0e 203e d326 2e3e
000003f0: acc1 c6be f3cc 01be 6ce3 e33d 588a 6bbe

layer2.conv2.bias f4 [16]
-0.61411405 -0.7992475 -0.64239824 -0.5464487 -0.7254127 -0.52239525 -0.56797 -0.36784884
-0.74577194 -0.65612745 -0.48873436 -0.39023516 -0.35242245 -0.6516399 -0.61293125 -0.41951507
00000000: 9436 1dbf 7c9b 4cbf 3674 24bf 10e4 0bbf
00000010: a6b4 39bf b2bb 05bf 7b66 11bf af56 bcbe
00000020: e9ea 3ebf f8f7 27bf 643b fabe e7cc c7be
00000030: b770 b4be dfd1 26bf 10e9 1cbf aeca d6be

layer3.fc1.weight f4 [120, 400]
-0.0066104834 -0.00597064 -0.013049183 -3.2634565e-05 -0.0062340773 -0.0074630757 0.00027089793 -0.020022146
-0.0012487647 0.01725343 -0.0101928115 -0.000106886975 0.003786545 0.0012714084 0.005820628 0.015746621
-0.021536209 -0.015171645 0.0007464131 -0.025863063 -0.005486017 -0.03201671 0.00069586193 0.002666189
-0.032771163 0.024792736 -0.021011425 -0.014510982 -0.024463635 -0.017839145 -0.016696574 0.0142119145
0.0035368572 -0.009625402 0.020309072 -0.014483815 -0.007410315 0.0021812124 -0.017469779 0.0136044575
0.025265815 0.010188794 0.0029128655 -0.032456554 0.024478005 -0.006179452 -0.03479503 0.016903913
-0.0035340537 0.004313482 0.0055368543 0.004315239 -0.002595316 -0.0037590894 -0.0062144757 0.005841597
-0.012521913 0.013878321 -0.0080476655 0.0042957715 -0.0118327215 -0.02019778 -0.005672123 0.0142657105
0.012925788 -0.023471272 -0.017189465 0.0075794277 0.007900009 0.025282538 -0.016686449 -0.006745643
0.0046017626 -0.008675865 0.0006765406 -0.0011500787 0.0028910874 -0.012967083 0.014811914 0.034085978
-0.006745791 0.006485329 0.0067836116 0.01394699 0.010926407 -0.0014692995 -0.0062059276 0.006216331
-0.0012177161 -0.016724123 0.011820843 0.023415321 -0.0033186122 -0.019005472 -0.019805344 0.029160501
0.045047052 0.0025885275 -0.007429211 0.016148146 -0.0071632504 0.020830082 -0.0077039055 0.0041509173
-0.01960353 0.037672773 0.013316163 -0.0048968475 0.012420578 -0.0029374855 0.034456525 0.02732144
-0.007084318 0.0035660365 0.0058532846 0.03702654 0.008355953 0.0061703026 -0.009707 -0.013223363
0.020723533 0.0064379247 0.01621655 0.0083643105 -0.022828247 0.037714172 0.011268869 0.0008857256
-0.026509866 0.0024747201 0.0025231703 0.001687885 0.0031465641 -0.0016815042 0.006121262 0.0062874784
-0.011684461 -0.0025122603 0.028612727 0.014465518 -0.007702504 -0.022350473 0.0036045713 0.007302073
0.032313954 -0.03634438 0.015743505 0.03082278 -0.0053550173 -0.00013622998 -0.0054216804 0.01871987
0.03953251 0.004145345 -0.007626152 0.0114859445 0.01517532 0.006029717 -0.0065115606 -0.022223985
0.010229222 0.0101514775 0.017062226 -0.019496806 -0.007828369 0.003417261 0.015245298 -0.0077805943
0.007660997 0.02140885 -0.01835902 0.0023079645 0.006654122 0.0066216006 -0.0028611869 0.008770785
0.0032211794 -0.008653289 -0.00596403 0.0031468202 0.015721709 -0.0010951383 -0.0059273075 0.01077089
0.006878685 0.00833756 0.0078030485 -0.007031343 -0.017489875 -0.015484444 0.022320502 -0.0054416996
0.010224927 0.0023410376 0.005513459 0.012200375 -0.00492955 0.0049377913 -0.010215458 -0.010902373
-0.01970205 -0.021193847 0.0055981358 0.013329394 0.029369675 -0.0029656058 -0.0058160922 0.019735243
0.0038616452 0.019434897 -0.015332328 -0.009475567 -0.0093611935 0.015657585 0.008898101 -0.005378761
-0.008154519 -0.009364074 -0.005431013 0.0048487238 -0.0014153147 -0.010285381 -0.0011416457 0.005816377
0.015117231 -0.013356447 -0.013182176 -0.017764222 0.015055002 0.031210035 0.010647755 0.0026638263
0.0019115957 0.027347475 0.03934779 0.016262924 0.015736427 -0.0073346877 0.021691008 0.007926023
0.033259984 0.010450445 -0.015375989 -0.017817577 -0.0059603015 0.02050144 -0.007623277 -0.008402117
-0.0028027254 0.0077765784 0.013004123 -0.0021628232 0.014244402 0.008654429 -0.013098622 -0.018437292
00000000: c19c d8bb 5ca5 c3bb 3ecc 55bc 19e1 08b8
00000010: 3b47 ccbb d18c f4bb 4e07 8e39 7c05 a4bc
00000020: 97ad a3ba 1157 8d3c c0ff 26bc 8228 e0b8
00000030: af27 783b 63a5 a63a f7ba be3b 0fff 803c
00000040: b46c b0bc 7e92 78bc efaa 433a c6de d3bc
00000050: 0cc4 b3bb f423 03bd 816a 363a 3bbb 2e3b
00000060: 0e3b 06bd 231a cb3c 2720 acbc 78bf 6dbc
00000070: f667 c8bc 6623 92bc 41c7 88bc 17d9 683c
00000080: 9eca 673b ddb3 1dbc 365f a63c 864d 6dbc
00000090: 3ad2 f2bb acf2 0e3b c81c 8fbc 3be5 5e3c
000000a0: 41fa ce3c e6ee 263c c6e5 3e3b 2af1 04bd
000000b0: 1986 c83c 007d cabb 3c85 0ebd 137a 8a3c
000000c0: 959b 67bb 1c58 8d3b 806e b53b d966 8d3b
000000d0: 2d16 2abb 0e5b 76bb cda2 cbbb de6a bf3b
000000e0: b628 4dbc e661 633c 5bda 03bc 8bc3 8c3b
000000f0: 08de 41bc d175 a5bc 37dd b9bb baba 693c
00000100: afc6 533c d346 c0bc ecd0 8cbc d95c f83b
00000110: 0a6f 013c 531d cf3c 05b2 88bc 8e0a ddbb
00000120: 62ca 963b 3725 0ebc df59 313a 3dbe 96ba
00000130: 6678 3d3b e373 54bc acad 723c bd9d 0b3d
00000140: cc0b ddbb e282 d43b 0f49 de3b ea81 643c
00000150: ac04 333c 8395 c0ba 185b cbbb 5db2 cb3b
00000160: c69b 9fba 0701 89bc 36ac 413c 7dd1 bf3c
00000170: 137d 59bb 5db1 9bbc d13e a2bc 01e2 ee3c
00000180: 4283 383d 49a4 293b bd70 f3bb 1e49 843c
00000190: b3b9 eabb d9a3 aa3c 0b71 fcbb 6b04 883b
000001a0: 9597 a0bc c44e 1a3d 092c 5a3c bc75 a0bb
000001b0: ae7f 4b3c d482 40bb 4922 0d3d 36d1 df3c
000001c0: 9123 e8bb 2ab4 693b e9cc bf3b 24a9 173d
000001d0: 68e7 083c 4030 ca3b 1c0a 1fbc cea6 58bc
000001e0: 66c4 a93c 3af5 d23b 92d8 843c 760a 093c
000001f0: 4e02 bbbc 2d7a 1a3d 10a1 383c 0a30 683a
00000200: 382b d9bc ea2e 223b c65b 253b 063c dd3a
00000210: 9636 4e3b eb65 dcba de94 c83b 3107 ce3b
00000220: 2e70 3fbc bca4 24bb 3d65 ea3c c800 6d3c
00000230: 4965 fcbb 5718 b7bc ac3a 6c3b 3a46 ef3b
00000240: a35b 043d d8dd 14bd 86f8 803c 0e80 fc3c
00000250: 2479 afbb f5d8 0eb9 5aa8 b1bb 6a5a 993c
00000260: d7ec 213d add5 873b cde4 f9bb 8b2f 3c3c
00000270: e8a1 783c ef94 c53b ee5e d5bb 130f b6bc
00000280: 7798 273c 6252 263c 15c6 8b3c c4b7 9fbc
00000290: 8f42 00bc 20f4 5f3b 6ac7 793c 5bf4 febb
000002a0: 1a09 fb3b 9d61 af3c a865 96bc 3841 173b
000002b0: d20a da3b 03fa d83b c082 3bbb 57b3 0f3c
000002c0: 6c1a 533b 86c6 0dbc e96d c3bb e23a 4e3b
000002d0: d0ca 803c be8a 8fba dc39 c2bb 6378 303c
000002e0: 9866 e13b 439a 083c b7b0 ff3b 2e67 e6bb
000002f0: ed46 8fbc 77b2 7dbc 7cd9 b63c 4950 b2bb
00000300: 7486 273c 186c 193b 3faa b43b 15e4 473c
00000310: 1088 a1bb 32cd a13b bd5e 27bc de9f 32bc
00000320: 3266 a1bc b89e adbc 9170 b73b 8863 5a3c
00000330: ac98 f03c 9c5a 42bb eb94 bebb ceab a13c
00000340: a813 7d3b ef35 9f3c 7234 7bbc 693f 1bbc
00000350: b15f 19bc 5644 803c 57c9 113c 5140 b0bb
00000360: 889a 05bc c66b 19bc a4f6 b1bb 0be2 9e3b
00000370: 1582 b9ba 0484 28bc 46a3 95ba 4e97 be3b
00000380: 43ae 773c 00d5 5abc 0efa 57bc 4686 91bc
00000390: 41a9 763c 30ac ff3c ec73 2e3c 9793 2e3b
000003a0: 828e fa3a d007 e03c 262b 213d d339 853c
000003b0: aee9 803c d257 f0bb 57b1 b13c 26dc 013c
000003c0: 9f3b 083d 5838 2b3c 92eb 7bbc 2bf6 91bc
000003d0: a24e c3bb a3f2 a73c afcc f9bb 08a9 09bc
000003e0: eead 37bb abd2 fe3b 3f0f 553c 27be 0dbb
000003f0: 5a61 693c 4ecb 0d3c 9a9b 56bc ce09 97bc

layer3.fc1.bias f4 [120]
0.0028521686 0.017226553 0.012212617 -0.0073276036 0.0038100444 -0.013806575 0.018979361 0.009257652
0.006551059 -0.01622031 -0.0053756814 0.0007131638 -0.000380044 0.014720623 -0.0059173084 -0.0051651867
-0.010427978 0.00020676806 0.011520671 0.0047524674 -0.010111921 -0.0011935685 -0.009153842 0.0008153077
-0.006400236 0.0053593772 0.008154728 -0.008797937 0.00043775063 -0.000211352 -0.019659122 0.0110579375
0.20877239 0.0019622548 -0.0019038785 -0.0034782626 -0.057757072 0.019631669 0.003999059 -0.0018561439
-0.005479852 -0.0041883388 -0.017438719 0.10686302 0.0098168375 -0.019429877 -0.0021914048 -0.000101542784
-0.0018047264 -0.005456955 -0.0029833114 -0.0044829957 0.008936971 -0.019138861 -0.0018470526 0.0063782963
-0.00017689518 -0.0028771383 0.008251474 -0.004936381 -0.005716751 -0.0015271123 0.009351344 0.117221355
-0.13601777 -0.023178767 -0.004727371 0.008019967 0.0019958399 0.00883801 0.01133544 0.0015628824
-0.0121383 0.014672808 -0.004053467 -0.005622793 -0.008105016 0.0041282033 -0.0053685606 -0.0068705697
-0.0121478075 -0.009034989 0.017759064 -0.010686434 -0.0033151335 -0.0010047047 -0.0042528645 -0.0051013757
-0.007968877 0.011240907 -0.0187713 -0.010839565 -0.0011817559 0.008062636 0.009939416 -0.014307749
0.0038243406 0.00539693 0.050958525 -0.014990607 -0.013191237 0.0004730208 0.0010990069 0.010911432
-0.004983034 0.0071224477 0.0032120727 0.0033164723 -0.0034595048 -0.008410051 0.004911513 -0.0071353475
0.37018043 -0.0034611765 0.010196859 0.011517509 0.0015191509 0.014714739 -0.013188738 0.23258099
00000000: 73eb 3a3b b31e 8d3c 6e17 483c 651c f0bb
00000010: f0b1 793b f934 62bc 9b7a 9b3c 68ad 173c
00000020: 44aa d63b 75e0 84bc 7c26 b0bb 9df3 3a3a
00000030: a440 c7b9 c52e 713c fbe5 c1bb ba40 a9bb
00000040: 1cda 2abc e1cf 5839 32c1 3c3c 96ba 9b3b
00000050: 78ac 25bc 8371 9cba fff9 15bc 60ba 553a
00000060: 12b9 d1bb b79d af3b 699b 053c 3925 10bc
00000070: e581 e539 5f9e 5db9 2b0c a1bc 5a2c 353c
00000080: 6ec8 553e 2c99 003b 908b f9ba 90f3 63bb
00000090: ae92 6cbd 98d2 a03c 8a0a 833b db49 f3ba
000000a0: 5590 b3bb 553e 89bb a5db 8ebc 00db da3d
000000b0: cdd6 203c 682b 9fbc ac9d 0fbb 5ef3 d4b8
000000c0: 928c ecba 42d0 b2bb a983 43bb 18e6 92bb
000000d0: 606c 123c 1ac9 9cbc cd18 f2ba 0701 d13b
000000e0: f07c 39b9 5f8e 3cbb 3131 073c 5dc1 a1bb
000000f0: 9553 bbbb 6329 c8ba 6136 193c c011 f03d
00000100: 3e48 0bbe 66e1 bdbc 10e8 9abb 2e66 033c
00000110: a3cc 023b 4dcd 103c 48b8 393c a2d9 cc3a
00000120: b8df 46bc 3866 703c f2d2 84bb 683f b8bb
00000130: e7ca 04bc e145 873b c0ea afbb 8422 e1bb
00000140: 9907 47bc 7e07 14bc 757b 913c 2716 2fbc
00000150: b642 59bb 4cb0 83ba 9d5b 8bbb 7129 a7bb
00000160: e58f 02bc c82b 383c 45c6 99bc 6e98 31bc
00000170: 26e5 9aba 2519 043c efd8 223c 0d6b 6abc
00000180: caa1 7a3b bbd8 b03b e3b9 503d 2a9b 75bc
00000190: 0f20 58bc c7ff f739 8d0c 903a ddc5 323c
000001a0: b848 a3bb 6c63 e93b a381 523b 2c59 593b
000001b0: dcb8 62bb 50ca 09bc c2f0 a03b a2cf e9bb
000001c0: 4a88 bd3e e8d4 62bb ba10 273c efb3 3c3c
000001d0: 3f1e c73a 1716 713c 9415 58bc b629 6e3e

layer3.fc2.weight f4 [84, 120]
0.0105792945 0.004402763 0.008231799 0.0059232833 -0.0008767285 0.0030485918 -0.0064604823 0.0003250412
0.00094747107 0.008274499 -0.00084818853 -0.0031254 -0.005468807 0.003068631 0.004965813 -0.0018945191
0.014764777 0.0025899217 0.005382607 -0.00070961006 0.002651727 0.0026056725 -0.00581822 -0.012046001
-0.004510907 -0.0010651936 0.0015591901 0.003901117 -0.008979104 0.002157653 0.0027183369 -0.0062873247
-0.0056689526 -0.005328625 0.008817747 0.0036771563 -0.0009480733 0.0027475457 0.002932273 0.002217698
-0.0024978213 -0.0060505792 0.00028753054 0.0047622216 -0.0031786703 0.009632311 -0.009123255 -0.0043403595
0.0009963983 -0.0006712418 -0.00041196853 0.001168317 0.0022634936 0.003169746 -0.0058573103 -0.003998825
-0.008230703 -0.004039609 0.005645933 -0.0009721793 0.00045270156 -0.0040467605 0.0017459897 0.0033858942
-0.004538891 -0.0065888683 -0.0014125964 0.001323755 0.0030248335 0.008287763 -0.00091299886 0.0030061733
-0.00540441 0.0046586245 -0.006430836 0.00016613182 0.009735297 0.007125516 -0.0046472433 0.0021279973
0.009733662 -0.0033203058 -0.010155244 -0.0018112406 -0.0022863445 -0.0031967165 0.0053817467 -0.001093225
0.00039113182 7.152241e-05 0.011212467 0.008267324 0.0006764029 -0.0002042122 0.0016246247 0.0018395332
0.0034491227 -0.010024408 -0.011915442 0.0061981706 0.0010123997 0.0028619308 0.0007959992 0.0059202225
-0.00028646452 -0.003483482 0.0065101506 0.003383374 -0.004957755 -0.00031190887 0.0008423052 0.0011031476
-0.004446559 -0.0065503344 0.0021449344 0.007743103 -0.000669236 0.0035767092 3.390646e-05 0.0068823686
0.01176704 0.000581492 0.0025088827 0.010436812 -0.0071266 0.015906228 -0.0070110075 -0.0029069884
-0.0064765443 0.0075531467 0.0029792027 -0.0047406117 -0.008803609 -0.0064371093 0.0034199117 0.0017607284
0.0063423314 0.006243998 0.0052291458 -0.0018550686 0.007340541 0.008931415 -0.0035535197 -0.012823733
0.0031814314 -0.0038444886 0.0026102206 8.827334e-05 -0.01499996 -0.00039959478 0.00017523166 0.0018636279
0.00509837 0.0009130756 0.0017308989 0.0038130197 0.007275016 0.0063857096 -0.012483093 -0.006144237
-0.009038179 0.002970333 0.0041489983 -0.00502367 -0.004093331 1.2230077e-05 0.0046862224 -0.0035655426
-0.006669377 0.0148964925 -0.00970027 0.00247913 0.01197223 0.011072195 -0.005658795 0.001584377
-0.00068702846 -0.008280563 0.0073004193 0.0034891702 0.014949668 -0.005635769 -0.0032007322 0.010119367
-0.010421287 -0.0041768393 0.010533533 -0.00035600914 0.010818065 0.0020894243 -0.0031338423 0.0038676364
0.001169779 -0.006001248 0.003501915 0.0013230143 0.005611058 -0.0020641037 0.0038134572 0.014026847
0.0077814446 0.00039329706 -0.005453981 0.003982927 -0.006695337 0.0036212425 0.0046516014 -0.0031393215
-0.0010706725 -0.0034265104 0.0016674058 0.008332512 0.010721351 -0.0015479457 -0.011176935 0.009057123
0.0037293462 -0.0027967342 -0.008498339 0.012241167 0.01028067 0.012367532 -0.0015292858 0.0019005396
0.003192342 -0.008083408 0.009080547 -0.010651916 -0.005636928 -0.0032821877 0.0034050536 0.005587055
-0.0065441015 -0.015959244 0.00341204 0.0022544917 0.0030681328 0.0014499259 -0.002652122 -0.0029219205
0.005185888 -0.0009488211 0.007124345 0.0046910373 -0.003021542 0.00367665 -0.005785647 -4.402281e-05
-0.0046159932 0.006228704 0.0036955879 -0.0058761034 -0.0073487866 -0.0012649759 0.0029142003 0.0007000133
00000000: c754 2d3c 0e45 903b abde 063c 1a18 c23b
00000010: 41d4 65ba e2ca 473b 74b2 d3bb 4b6a aa39
00000020: b55f 783a c491 073c f858 5eba 83d3 4cbb
00000030: ae33 b3bb 161b 493b 42b8 a23b 8351 f8ba
00000040: f7e7 713c adbb 293b 9560 b03b 2005 3aba
00000050: 99c8 2d3b eec3 2a3b c4a6 bebb 975c 45bc
00000060: 3bd0 93bb f79d 8bba bd5d cc3a e2a9 7f3b
00000070: 181d 13bc 6967 0d3b 2026 323b e705 cebb
00000080: 9fc2 b9bb bf9b aebb 5078 103c 72fc 703b
00000090: 1f88 78ba 2b10 343b 612b 403b cc56 113b
000000a0: 7db2 23bb f043 c6bb b2bf 9639 690c 9c3b
000000b0: 3d51 50bb d7d0 1d3c b479 15bc 9339 8ebb
000000c0: 9499 823a 46f6 2fba 7bfd d7b9 3722 993a
000000d0: 1f57 143b 83bb 4f3b aeee bfbb 9308 83bb
000000e0: 12da 06bc b25e 84bb 8501 b93b d9d9 7eba
000000f0: 9358 ed39 b09a 84bb b1d9 e43a e1e5 5d3b
00000100: faba 94bb 6fe7 d7bb df26 b9ba d981 ad3a
00000110: 493c 463b 66c9 073c 5156 6fba 3803 453b
00000120: 7a17 b1bb 60a7 983b c3b9 d2bb ac33 2e39
00000130: cc80 1f3c 297d e93b e747 98bb df75 0b3b
00000140: f079 1f3c 7d99 59bb 2e62 26bc 2667 edba
00000150: 7fd6 15bb 0180 51bb 5d59 b03b 8b4a 8fba
00000160: d310 cd39 4dfe 9538 7fb4 373c ac73 073c
00000170: a150 313a cc21 56b9 5cf1 d43a 7e1c f13a
00000180: ad0a 623b 6a3d 24bc fc38 43bc 061a cb3b
00000190: 7fb2 843a 3b8f 3b3b 9aaa 503a 6dfe c13b
000001a0: 9e30 96b9 214b 64bb 1a53 d53b 99bb 5d3b
000001b0: aa74 a2bb b387 a3b9 25ce 5c3a 7e97 903a
000001c0: 71b4 91bb 30a4 d6bb 0792 0c3b dbb9 fd3b
000001d0: ab6f 2fba 3967 6a3b c936 0e38 7e85 e13b
000001e0: 8bca 403c 446f 183a 116c 243b 2aff 2a3c
000001f0: 4186 e9bb c74d 823c 98bc e5bb 2c83 3ebb
00000200: 3139 d4bb 6380 f73b ba3e 433b 2257 9bbb
00000210: 033d 10bc 63ee d2bb 9920 603b 3ec8 e63a
00000220: 55d3 cf3b 749a cc3b 4159 ab3b c625 f3ba
00000230: ec88 f03b 1255 123c 2be2 68bb a21a 52bc
00000240: 907f 503b d1f3 7bbb 3c10 2b3b 631f b938
00000250: 64c2 75bc b480 d1b9 64be 3739 fa44 f43a
00000260: 3a10 a73b 775b 6f3a 54df e23a dbe3 793b
00000270: 4263 ee3b 373f d13b e385 4cbc 9855 c9bb
00000280: df14 14bc eba9 423b 52f4 873b 999d a4bb
00000290: 5921 86bb c82f 4d37 e28e 993b e1ab 69bb
000002a0: ca8a dabb 6b10 743c e2ed 1ebc e678 223b
000002b0: 2c27 443c 2768 353c 6a6d b9bb dfaa cf3a
000002c0: b319 34ba 33ab 07bc 5b38 ef3b 90aa 643b
000002d0: 74ef 743c 42ac b8bb 60c3 51bb b4cb 253c
000002e0: 0cbe 2abc dedd 88bb d794 2c3c bda6 bab9
000002f0: 413e 313c b9ee 083b 2661 4dbb 2c78 7d3b
00000300: 4553 993a 1ea6 c4bb 6280 653b fe68 ad3a
00000310: f7dc b73b ea45 07bb 32eb 793b dcd0 653c
00000320: 7dfb fe3b 7033 ce39 4fb7 b2bb 3783 823b
00000330: 8f64 dbbb 5e52 6d3b 766c 983b 13bd 4dbb
00000340: cf55 8cba 4e8f 60bb db8c da3a 1785 083c
00000350: 9ba8 2f3c 70e4 caba 771f 37bc 5464 143c
00000360: 0c68 743b 6a49 37bb 9e3c 0bbc 2d8f 483c
00000370: 4170 283c 30a1 4a3c 5172 c8ba 871b f93a
00000380: 9c36 513b 4570 04bc 93c6 143c 6085 2ebc
00000390: fbb5 b8bb f919 57bb 5227 5f3b 9d13 b73b
000003a0: e76f d6bb f6bc 82bc 889c 5f3b 18c0 133b
000003b0: ba12 493b 710b be3a 39cf 2dbb b17d 3fbb
000003c0: 62ee a93b 4eba 78ba 5673 e93b 46b7 993b
000003d0: 1005 46bb f4f3 703b 8695 bdbb 22a5 38b8
000003e0: c241 97bb 281a cc3b ad31 723b 548c c0bb
000003f0: 17ce f0bb 8ccd a5ba 2bfc 3e3b 1981 373a

layer3.fc2.bias f4 [84]
-0.0033690229 -0.0053933538 -0.0089371735 -0.0042480617 -0.002591842 0.0073234807 -4.6031564e-05 -0.014009186
0.010622196 -0.008429124 0.24155402 -0.0025277876 -0.0004613406 0.008530389 -0.00018962308 -0.016511476
-0.007108236 -0.010726063 0.01412192 0.00018585421 0.0091262115 0.0040993723 -0.00059325213 0.014773984
0.014861828 -0.04212884 0.006327473 0.03741356 0.011479687 -0.0007845273 -0.005917853 -0.0013614099
-0.014504515 0.009236659 0.0014717733 -0.010691692 -0.011072806 0.0062104063 0.0053091147 -0.00922939
-0.007456497 0.28492 0.015368564 0.013937974 -0.025785664 0.0054576932 -0.0054618055 -0.0053667855
0.009517325 -0.011277066 -0.016404688 0.22046702 0.0019483046 -0.012669524 0.015238435 -0.013196739
0.012148288 -0.0196178 -0.02020903 0.016511323 0.0058918446 0.010107774 -0.0017615941 0.002308701
-0.004820307 -0.0072659706 -0.00873475 -0.009739541 -0.0046207467 -0.013172515 0.12735455 -0.012427878
0.002893504 -0.013603046 0.005697586 -0.005458157 0.0031811486 -0.0016983359 -0.010987756 -0.12014139
-0.011822742 -0.0004843799 -0.0010681724 -0.008891332
00000000: d3ca 5cbb bbba b0bb 396d 12bc 5333 8bbb
00000010: e5db 29bb cff9 ef3b 0412 41b8 c986 65bc
00000020: b808 2e3c 4f1a 0abc f059 773e 3da9 25bb
00000030: 16e0 f1b9 0bc3 0b3c 8fd5 46b9 1343 87bc
00000040: 35ec e8bb 5ebc 2fbc a05f 673c dce1 4239
00000050: 1b86 153c 0754 863b 7a84 1bba 950e 723c
00000060: 067f 733c 4a8f 2cbd b156 cf3b f63e 193d
00000070: 4c15 3c3c bca8 4dba 8dea c1bb 5671 b2ba
00000080: 58a4 6dbc 5b55 173c 84e8 c03a 352c 2fbc
00000090: b76a 35bc aa80 cb3b 15f8 ad3b de36 17bc
000000a0: a155 f4bb 09e1 913e 6ecc 7b3c 1a5c 643c
000000b0: 753c d3bc 73d6 b23b f2f8 b2bb dcdb afbb
000000c0: 8eee 1b3c 71c3 38bc 2063 86bc 1bc2 613e
000000d0: 415e ff3a d693 4fbc a1aa 793c 2337 58bc
000000e0: 9d09 473c 82b5 a0bc 688d a5bc c142 873c
000000f0: 6010 c13b 149b 253c 4ae5 e6ba 934d 173b
00000100: aaf3 9dbb 6117 eebb 321c 0fbc 9992 1fbc
00000110: a269 97bb 88d1 57bc 3b69 023e 4c9e 4bbc
00000120: f1a0 3d3b 4fdf 5ebc d1b2 ba3b 57da b2bb
00000130: d17a 503b b29a deba fd05 34bc b00c f6bd
00000140: 2db4 41bc 5ff4 fdb9 eb01 8cba f3ac 11bc

layer3.fc3.weight f4 [10, 84]
0.0021772988 -0.0029371262 -0.0039556962 -0.00245773 0.017409692 0.004664057 0.00027276337 -0.00031521817
-0.00011612979 -0.008090714 -0.18746832 -0.0017485528 0.0044395495 0.0029373388 -0.011144732 -0.0178948
-0.007191011 0.0017708031 0.006671561 0.013450609 -0.0011523833 0.0042222394 0.0031975764 0.0037945085
0.0032481272 0.008897138 -0.00081900874 0.10694196 0.004540713 0.0014547284 -0.00052253495 -0.0019309724
-0.014069409 0.0032860974 0.0013642685 -0.003906706 -0.002129744 -0.0043144105 0.012977064 -0.008381676
-0.008415054 -0.0013832371 0.014676136 0.007117123 -0.0011483154 0.0022801794 0.002309454 -0.004680302
0.0014949967 0.0015917153 -0.008262107 0.030857963 0.00083475804 -0.010310917 0.010914329 0.0029802164
0.01307404 -0.24691786 -0.00081652665 0.003943979 0.0014279372 0.0059738676 0.0105339 -0.0036324554
-0.010625765 0.0027814095 -0.008962622 -0.012362167 0.004388569 -0.0049827467 -0.14837219 -0.0024036483
-0.010414884 -0.004812782 0.004568802 -0.0040936857 -0.0009771414 0.015129349 0.0033736133 0.13540964
-0.009758923 -0.003603032 -0.003369776 0.0032804213 -0.009232297 -0.01098874 -0.008182219 0.0028084193
0.0066258647 -0.0074945404 -0.003519027 -0.013337057 -0.008725569 0.0152532905 -0.04050636 0.0027720525
-0.010510919 -0.010733053 0.009183269 0.006827096 -0.003935846 -0.016979042 -0.0013123773 -0.0012988799
0.006717829 0.009348883 -0.011968022 0.0101704355 -0.0070555503 0.23336752 -0.0059545706 -0.12304768
-0.0013619926 0.011968883 4.3634434e-05 -0.003046623 0.009217918 -0.009388923 -0.005634407 -0.0032077462
0.014190296 0.012857041 0.0040577436 0.008363389 -0.009123242 -0.17534836 0.005819035 -0.00079511985
-0.006423703 0.012254118 0.119379364 0.008066587 0.0053740907 -0.006214623 -0.004668448 -0.33927885
-0.0035030604 0.00057372666 0.0003331891 -0.013360883 -0.009332916 0.015470602 0.0011563195 0.007544757
-0.006023995 -0.010182898 -0.005419697 0.01071284 0.013369398 -0.014803734 0.0026386026 0.0031870846
-0.0015889143 -0.0009671412 -0.114059 0.009438004 0.015866332 -0.010349443 -0.009893328 0.012025321
-0.0037196793 0.006346193 -0.0063929847 -0.06483098 0.0057586827 0.0048194244 0.012264356 -0.00937356
-0.0015729837 -0.0048878687 0.0002910416 0.0006000943 0.010546446 -0.0035177248 0.00034931957 -0.0040515773
-0.0035857754 0.005301326 -0.0947847 0.0051573147 -0.0029491878 -0.0036866362 0.009490336 0.001098301
-0.0034933644 -0.001904278 -0.0042008 -0.0035397445 0.0025132936 0.0023245057 -0.006351535 -0.00043450386
-0.004253775 -0.052527774 -0.001039542 0.1753274 -0.0010356654 0.004127563 1.7970968e-05 -0.003438785
0.006709632 -0.005762065 -0.0013416688 -0.002926759 0.006143315 0.0045549925 0.0022827596 0.0035037128
-0.003747066 0.14346068 -0.0013007735 0.0024150957 -0.0011592828 0.004687966 0.050612837 0.0029905806
0.0030370702 -0.0033822504 -0.0011956726 0.14516528 -0.0015508066 0.0059319823 -8.2502775e-05 -0.0075698253
-0.005023666 0.06429224 0.004458896 0.00048581528 -0.0037929502 -0.0032685683 -0.002343017 0.0056680185
0.005535559 -0.0053963056 0.004128798 0.0008567221 -0.0007790046 0.0040850607 -0.032681227 0.002802045
0.005187176 -0.0033408287 -0.0032718962 0.00488186 -0.002216694 0.0129732145 0.0017040793 -0.2122491
0.0014610846 0.005749931 0.0046604658 -0.0055294926 0.003970173 0.006411453 0.002889356 0.004188646
00000000: 03b1 0e3b cd7c 40bb c99e 81bb de11 21bb
00000010: c59e 8e3c f2d4 983b ae01 8f39 de43 a5b9
00000020: b58a f3b8 ea8e 04bc b2f7 3fbe b22f e5ba
00000030: a479 913b 5e80 403b 6598 36bc 1e98 92bc
00000040: 93a2 ebbb 4b1a e83a 1c9d da3b f15f 5c3c
00000050: 910b 97ba b65a 8a3b 6e8e 513b 4aad 783b
00000060: 88de 543b 4dc5 113c bfb2 56ba 6304 db3d
00000070: 43ca 943b 96ac be3a bafa 08ba af18 fdba
00000080: 6183 66bc 915b 573b 41d1 b23a d303 80bb
00000090: 2d93 0bbb e65f 8dbb c09d 543c 4c53 09bc
000000a0: 4bdf 09bc bc4d b5ba 2d74 703c c136 e93b
000000b0: 1283 96ba 106f 153b 355a 173b 385d 99bb
000000c0: c4f3 c33a 1aa1 d03a ca5d 07bc d7c9 fc3c
000000d0: aad3 5a3a 1fef 28bc 04d2 323c bc4f 433b
000000e0: 8034 563c 09d8 7cbe 2d0c 56ba 7e3c 813b
000000f0: 9f29 bb3a 6fc0 c33b 6196 2c3c 7d0e 6ebb
00000100: b017 2ebc 4f48 363b f6d7 12bc b08a 4abc
00000110: fccd 8f3b 4f46 a3bb e1ee 17be 8786 1dbb
00000120: 31a3 2abc 8bb4 9dbb e4b5 953b 5324 86bb
00000130: 6d13 80ba 17e1 773c d717 5d3b d3a8 0a3e
00000140: e4e3 1fbc d920 6cbb 76d7 5cbb 56fc 563b
00000150: 0f43 17bc 1e0a 34bc b70e 06bc 750d 383b
00000160: c81d d93b c394 f5bb 7a9f 66bb ac83 5abc
00000170: b0f5 0ebc f0e8 793c ffe9 25bd 53ab 353b
00000180: fd35 2cbc b0d9 2fbc 6c75 163c d5b5 df3b
00000190: 45f8 80bb a217 8bbc 1304 acba 2d3f aaba
000001a0: 3c21 dc3b 0f2c 193c 8615 44bc e6a1 263c
000001b0: 3f32 e7bb e5f7 6e3e 8f1e c3bb 6c00 fcbd
000001c0: e384 b2ba 2219 443c 1e04 3738 daa9 47bb
000001d0: c006 173c ffd3 19bc d5a0 b8bb 0d39 52bb
000001e0: 6a7e 683c 57a6 523c d2f6 843b 9906 093c
000001f0: a779 15bc 858e 33be 9bad be3b 976f 50ba
00000200: ed7d d2bb 7fc5 483c 2b7d f43d b829 043c
00000210: 2419 b03b 09a4 cbbb c8f9 98bb f5b5 adbe
00000220: 9a93 65bb 2566 163a e2af ae39 9be7 5abc
00000230: 16e9 18bc 6878 7d3c a58f 973a 023a f73b
00000240: ef64 c5bb 2bd6 26bc b797 b1bb e884 2f3c
00000250: 520b 5b3c 5c8b 72bc 68ec 2c3b 68de 503b
00000260: 1e43 d0ba bf87 7dba c497 e9bd dca1 1a3c
00000270: 1cfa 813c b690 29bc a017 22bc da05 453c
00000280: ddc5 73bb baf3 cf3b 3e7c d1bb 1bc6 84bd
00000290: 55b3 bc3b 43ec 9d3b 70f0 483c 8f93 19bc
000002a0: 932c ceba 6a2a a0bb f196 9839 a64f 1d3a
000002b0: 00cb 2c3c a189 66bb e124 b739 18c3 84bb
000002c0: 54ff 6abb bfb6 ad3b 7b1e c2bd b1fe a83b
000002d0: 2947 41bb 7e9b 71bb 5b7d 1b3c def4 8f3a
000002e0: eef0 64bb f798 f9ba dda6 89bb 0ffb 67bb
000002f0: 12b6 243b bc56 183b 8a20 d0bb 1fce e3b9
00000300: 4063 8bbb 5d27 57bd 3e41 88ba 0789 333e
00000310: 2abf 87ba 8240 873b 5cc0 9637 3d5d 61bb
00000320: 79dc db3b b4cf bcbb efda afba dece 3fbb
00000330: dd4d c93b 0c42 953b 5a9a 153b 8c9e 653b
00000340: 5691 75bb 5be7 123e b77e aaba 9546 1e3b
00000350: 13f3 97ba 829d 993b 684f 4f3d 9efd 433b
00000360: 9509 473b bfa8 5dbb 1db8 9cba 35a6 143e
00000370: 6f44 cbba 1361 c23b 5705 adb8 4c0c f8bb
00000380: 919d a4bb a6ab 833d ee1b 923b 06b5 fe39
00000390: 2593 78bb 7a35 56bb 4d8d 19bb c9ba b93b
000003a0: a263 b53b 7ed3 b0bb de4a 873b a695 603a
000003b0: 1d36 4cba f9db 853b c0dc 05bd 84a2 373b
000003c0: 30f9 a93b cef1 5abb 4f6d 56bb 03f8 9f3b
000003d0: f445 11bb 9b8d 543c 6a5b df3a d457 59be
000003e0: dd81 bf3a eb69 bc3b d2b6 983b bf30 b5bb
000003f0: 3a18 823b 2a17 d23b 5a5b 3d3b e940 893b

layer3.fc3.bias f4 [10]
-0.10554686 -0.4215478 0.36592868 0.5599611 0.3352079 -0.008991343 -0.11341364 -0.26144052
-0.3614395 -0.060878433
00000000: f428 d8bd 1dd5 d7be 015b bb3e 9c59 0f3f
00000010: 5fa0 ab3e 6d50 13bc 6945 e8bd 88db 85be
00000020: 990e b9be aa5b 79bd
