output/models_cifar10_310.pth (torch_old, 248636 bytes, 10 tensors)

layer1.conv1.weight f4 [6, 1, 5, 5]
0.0073067453 -0.18348096 0.025381671 -0.12492841 -0.06834558 0.28342247 -0.20898291 0.42828536
-0.069843225 0.21712877 0.09895277 -0.572107 0.4024816 -0.35674104 -0.058448255 0.36263233
-0.60601825 0.65800184 -0.29460052 0.12289145 0.23761553 -0.5868476 0.47693372 -0.18800281
-0.030053815 0.0031925621 -0.03672719 -0.035742145 0.08103976 -0.020797512 0.043380354 0.14995715
-0.530066 0.11679569 0.21411279 -0.062425558 0.3206688 0.41470236 -1.0347118 0.30097944
0.081536725 -0.4981284 0.7160073 0.14727393 -0.39861593 -0.0013254326 0.07045817 -0.3687741
0.37930092 -0.0810238 -0.03619374 -0.010835979 -0.061916646 0.14063086 0.04593858 -0.04765208
-0.030114083 0.16136847 0.047298666 -0.059744783 -0.3132816 0.0049899495 0.28216735 -0.10837558
-0.040005073 -0.34836042 0.31012204 0.1978986 -0.045339286 0.014529033 -0.47864002 0.3159958
-0.029996226 0.051494114 -0.09207957 -0.10960314 -0.32367125 -0.10911116 -0.048342012 0.06855025
0.26732123 0.7664336 0.42813146 0.18865307 0.0077228574 -0.12452168 -0.42320403 -0.27341643
-0.040397152 -0.0859232 0.11159599 -0.013737536 -0.09061833 0.08457237 0.19078064 -0.06699834
-0.028493538 -0.023127 -0.11541443 -0.07965856 -0.08458643 0.025676634 0.0013494459 0.10330874
-0.08517021 0.0053101345 0.0929389 0.05244258 -0.1365853 0.11749141 -0.2597873 -0.3750285
-0.110803284 0.008201248 -0.2851038 0.211943 0.2009585 -0.16169098 -0.095740534 0.1805543
-0.052178342 0.027713416 0.14652477 0.036758736 -0.10197454 0.05314564 -0.24102049 0.29824188
-0.0049498975 -0.08060113 -0.13370624 0.3596609 0.39731088 -0.6364076 0.003572574 0.12476864
0.40783197 -1.0337605 0.040294208 0.3096209 -0.004188928 -0.28766817 -0.10674585 0.6113982
-0.21693696 0.10593802 -0.12106403 0.19394208 -0.14166848 0.0041995067
00000000: 6c6d ef3b 6fe2 3bbe 39ed cf3c 77da ffbd
00000010: c4f8 8bbd c01c 913e 9eff 55be 3848 db3e
00000020: f709 8fbd 0157 5e3e c0a7 ca3d 9b75 12bf
00000030: 1112 ce3e c3a6 b6be 7067 6fbd f2aa b93e
00000040: 0324 1bbf cf72 283f e1d5 96be 83ae fb3d
00000050: 7c51 733e a53b 16bf a830 f43e cf83 40be
00000060: 6b33 f6bc 4e3a 513b 406f 16bd 5b66 12bd
00000070: 2cf8 a53d 8b5f aabc 99af 313d 5e8e 193e
00000080: 68b2 07bf 9432 ef3d 6240 5b3e f1b1 7fbd
00000090: b32e a43e de53 d43e 7071 84bf fa19 9a3e
000000a0: bafc a63d b00a ffbe 414c 373f face 163e
000000b0: 6317 ccbe 23ba adba 5f4c 903d f5cf bcbe
000000c0: bb33 c23e ceef a5bd e33f 14bd 6489 31bc
000000d0: 4f9c 7dbd 8901 103e 182a 3c3d d42e 43bd
000000e0: cfb1 f6bc c73d 253e 3fbc 413d f2b6 74bd
000000f0: 7266 a0be bb82 a33b 3d78 903e 04f4 ddbd
00000100: 5cdc 23bd 4c5c b2be 51c8 9e3e eea5 4a3e
00000110: b0b5 39bd 2e0b 6e3c 4e10 f5be 34ca a13e
00000120: a5ba f5bc 7eeb 523d 3794 bcbd 9c77 e0bd
00000130: 3db8 a5be ac75 dfbd 4602 46bd 1364 8c3d
00000140: 54de 883e fe34 443f 0c34 db3e 452e 413e
00000150: 0610 fd3b 3905 ffbd 33ae d8be 3dfd 8bbe
00000160: 7c77 25bd 81f8 afbd 708c e43d 6713 61bc
00000170: 1a96 b9bd 4734 ad3d 005c 433e 6d36 89bd
00000180: 486b e9bc d674 bdbc 675e ecbd 0724 a3bd
00000190: a63b adbd ce57 d23c e4df b03a 8893 d33d
000001a0: b86d aebd a300 ae3b c056 be3d 08ce 563d
000001b0: 04dd 0bbe 569f f03d d702 85be bc03 c0be
000001c0: d5ec e2bd 875e 063c 20f9 91be 9607 593e
000001d0: 11c8 4d3e 5292 25be 9d13 c4bd 3ae3 383e
000001e0: f5b8 55bd 3f07 e33c 970a 163e 5490 163d
000001f0: 07d8 d0bd 3eaf 593d 13ce 76be 29b3 983e
00000200: c032 a2bb 3512 a5bd 4aea 08be 7925 b83e
00000210: 556c cb3e 9ceb 22bf d821 6a3b b386 ff3d
00000220: 5acf d03e 4452 84bf 8a0b 253d a186 9e3e
00000230: 4643 89bb 3e49 93be 919d dabd 9884 1c3f
00000240: b924 5ebe 08f6 d83d 6bf0 f7bd c198 463e
00000250: 8b11 11be 049c 893b

layer1.conv1.bias f4 [6]
-0.30855206 -0.29944253 -0.305011 -0.27903092 -0.29192218 -0.3298046
00000000: 89fa 9dbe 8850 99be 672a 9cbe 24dd 8ebe
00000010: d376 95be 26dc a8be

layer2.conv2.weight f4 [16, 6, 5, 5]
0.08185252 0.023717625 0.041042313 0.15981357 0.037047658 0.017843653 -0.08293703 0.053917807
0.031025384 0.07065952 -0.01894609 0.035893843 -0.051924545 -0.009030959 0.04442594 0.068223275
-0.1527137 -0.018861363 0.09606604 -0.070295155 -0.24829745 -0.34520695 -0.7100732 -0.7122165
-0.31976092 0.31753707 0.1400624 0.0022988152 -0.0332055 0.18193507 0.21398415 0.17840397
0.17829223 0.1048634 0.17029668 0.4349934 0.18022098 0.119850986 0.0805306 0.19596155
0.326133 0.32641664 0.20979606 0.098827474 -0.07265225 0.44058588 0.087553725 -0.14380212
-0.05140792 -0.026093792 0.16184303 0.14575773 0.01248846 0.18763779 -0.085994415 0.04758394
0.07683352 0.07528874 -0.13503127 0.18689014 -0.1845723 0.015127687 0.055612892 0.16272336
-0.015372056 -0.11733634 -0.11195413 -0.09598728 0.16786662 0.21734649 -0.11756977 -0.24136418
-0.4044611 -0.41827697 -0.15193515 0.28546068 -0.15081488 -0.035673216 -0.039339688 0.16244765
0.18887831 0.04077573 0.14574295 0.106017865 0.034745358 0.008508459 0.31493446 0.12693563
0.22043023 0.049206678 -0.22573228 0.25328115 0.2509512 0.22000733 -0.0466246 -0.093455195
0.13339214 0.25160953 0.3340291 0.30899802 0.21685992 0.0045987177 0.007897731 0.18599886
0.11879318 0.42378086 0.07555136 0.19182894 0.03627772 0.26267573 0.31728902 0.09698745
0.24635844 0.07525434 0.3965444 0.16384074 0.12902963 0.53113914 0.29517373 0.054828897
-0.3726346 0.47254077 0.66587824 0.14280325 -0.22814794 -0.0633124 -0.11746861 -0.0051999986
0.07738423 0.042531177 -0.07024714 -0.18254092 -0.0106469095 0.097635075 0.21878833 0.023494307
-0.10660131 0.029693708 0.06228137 0.13649186 -0.033381507 -0.007270039 -0.099404775 0.081251666
0.21825771 0.07257382 0.07121615 -0.108848736 0.018995108 0.24459028 -0.09775222 0.063563235
0.047038205 0.15079008 -0.15434568 0.17347604 -0.01843894 0.1051665 -0.2430225 0.031434543
0.04597384 0.31910118 -0.14357494 0.017445995 0.008890138 -0.17157763 -0.31692508 0.008855255
-0.08702347 -0.26915267 -0.056390353 0.16168596 -0.2379835 -0.36530408 -0.12486693 0.22365199
0.116838306 0.11149614 0.25330466 0.096073285 0.06399247 0.006357803 -0.3185531 0.289594
0.20282477 -0.26766992 0.114071056 -0.42861354 0.27333254 0.030925307 0.0093684 -0.06650815
-0.36137477 -0.52287996 0.115354076 0.23257333 0.2722663 0.53412634 0.00041423936 -0.40421247
-0.016634999 0.08646058 0.15914077 -0.05045804 0.108118296 0.08217387 -0.31164226 0.059858892
0.20918217 -0.34817293 0.12610729 0.41860107 -0.17122565 0.65847844 0.036710083 -0.0145635
0.17652135 0.15117806 0.22891168 0.291533 0.11656371 -0.13667673 0.060642358 0.0011529052
0.28281122 0.08478336 0.12464512 -0.14707504 -0.087516785 0.09624602 0.008358908 0.102986574
-0.28328168 -0.30979678 0.1097526 -0.1843559 -0.07042529 -0.1392032 -0.3663046 -0.14545009
0.1380692 -0.2545264 -0.15848882 -0.28108683 -0.25245112 0.19095773 -0.100786746 -0.056916185
0.20329434 -0.29923066 0.16331387 0.17293863 -0.39185223 -0.12398875 0.11067731 -0.22972022
00000000: 4ba2 a73d 774b c23c fc1b 283d 2ba6 233e
00000010: 49bf 173d da2c 923c e4da a9bd ebd8 5c3d
00000020: f228 fe3c f0b5 903d d534 9bbc 6c05 133d
00000030: d5ae 54bd 96f6 13bc f9f7 353d a5b8 8b3d
00000040: fb60 1cbe 2583 9abc 46be c43d e8f6 8fbd
00000050: b041 7ebe f7be b0be 5bc7 35bf d253 36bf
00000060: b4b7 a3be 3894 a23e 856c 0f3e b8a7 163b
00000070: 7e02 08bd 304d 3a3e a91e 5b3e 88af 363e
00000080: 3d92 363e 9fc2 d63d 4162 2e3e 74b7 de3e
00000090: d98b 383e 6f74 f53d 3aed a43d 25aa 483e
000000a0: e8fa a63e 1520 a73e c7d4 563e 0f66 ca3d
000000b0: b4ca 94bd 7994 e13e 5e4f b33d dd40 13be
000000c0: 1c91 52bd a6c2 d5bc 2eba 253e 8441 153e
000000d0: 669c 4c3c 1f24 403e d71d b0bd 61e7 423d
000000e0: e45a 9d3d fc30 9a3d a345 0abe 2160 3f3e
000000f0: 8500 3dbe 1eda 773c 58ca 633d f4a0 263e
00000100: 13db 7bbc 094e f0bd 3548 e5bd fb94 c4bd
00000110: 3ae5 2b3e 1490 5e3e 6bc8 f0bd 2c28 77be
00000120: 8615 cfbe 6628 d6be e394 1bbe e727 923e
00000130: 376f 1abe 141e 12bd a722 21bd ad58 263e
00000140: 5169 413e 7404 273d a43d 153e e51f d93d
00000150: 2651 0e3d 1067 0b3c 173f a13e 6afb 013e
00000160: 76b8 613e f18c 493d 5d26 67be 11ae 813e
00000170: ad7c 803e 9a49 613e 70f9 3ebd 7065 bfbd
00000180: f397 083e f7d2 803e dd05 ab3e fd34 9e3e
00000190: 8710 5e3e d7b0 963b 7c65 013c 7c76 3e3e
000001a0: d749 f33d cef9 d83e acba 9a3d ce6e 443e
000001b0: f297 143d 6f7d 863e b573 a23e 5ba1 c63d
000001c0: 6345 7c3e f31e 9a3d de07 cb3e dec5 273e
000001d0: 5820 043e bcf8 073f 0321 973e 4494 603d
000001e0: f6c9 bebe ddf0 f13e ff76 2a3f 043b 123e
000001f0: 9d9f 69be eea9 81bd 6293 f0bd c064 aabb
00000200: a07b 9e3d 2c35 2e3d bcdd 8fbd 02ec 3abe
00000210: 6070 2ebc e6f4 c73d 0c0a 603e 2277 c03c
00000220: ca51 dabd 3840 f33c c01a 7f3d 86c4 0b3e
00000230: 0cbb 08bd 8239 eebb bb94 cbbd 4667 a63d
00000240: f37e 5f3e 95a1 943d c6d9 913d 16ec debd
00000250: a19b 9b3c e075 7a3e 5132 c8bd 712d 823d
00000260: 22ab 403d b768 1a3e cb0c 1ebe b4a3 313e
00000270: 430d 97bc 8961 d73d e4da 78be 82c1 003d
00000280: 114f 3c3d 3b61 a33e 4f05 13be e7ea 8e3c
00000290: f1a7 113c 0cb2 2fbe 0144 a2be a215 113c
000002a0: 5c39 b2bd 61ce 89be 92f9 66bd 0191 253e
000002b0: f2b1 73be 2309 bbbe 3cba ffbd 0705 653e
000002c0: ec48 ef3d 1758 e43d 26b1 813e 12c2 c43d
000002d0: 7c0e 833d 1e55 d03b 6419 a3be aa45 943e
000002e0: 4cb1 4f3e 080c 89be 169e e93d 3c73 dbbe
000002f0: 3ef2 8b3e 1257 fd3c eb7d 193c 6d35 88bd
00000300: 1d06 b9be 76db 05bf c23e ec3d b427 6e3e
00000310: 7d66 8b3e 81bc 083f 442e d939 f0f4 cebe
00000320: 1f46 88bc 3f12 b13d ccf5 223e 17ad 4ebd
00000330: 206d dd3d c64a a83d 938f 9fbe 992e 753d
00000340: da33 563e b943 b2be 4522 013e e152 d63e
00000350: c755 2fbe 0b92 283f 505d 163d bf9b 6ebc
00000360: 03c2 343e 6cce 1a3e d367 6a3e d043 953e
00000370: f4b8 ee3d fcf4 0bbe 1f64 783d 141d 973a
00000380: a2cc 903e e6a2 ad3d f145 ff3d d79a 16be
00000390: 003c b3bd a21c c53d cdf3 083c a0ea d23d
000003a0: 4c0a 91be af9d 9ebe f9c5 e03d cbc7 3cbe
000003b0: 223b 90bd 498b 0ebe 478c bbbe def0 14be
000003c0: 0362 0d3e 4951 82be e54a 22be 9dea 8fbe
000003d0: 4641 81be 6c8a 433e 4869 cebd f220 69bd
000003e0: 642c 503e c334 99be c03b 273e d316 313e
000003f0: dba0 c8be d0ed fdbd c9aa e23d c73b 6bbe

layer2.conv2.bias f4 [16]
-0.61794794 -0.80586535 -0.64729476 -0.55237186 -0.73497874 -0.5258609 -0.57520705 -0.3727106
-0.75254285 -0.66509855 -0.49284583 -0.39415044 -0.3545326 -0.65517867 -0.6174826 -0.42334726
00000000: d631 1ebf 314d 4ebf 1cb5 25bf 3e68 0dbf
00000010: 9127 3cbf d29e 06bf c540 13bf ecd3 bebe
00000020: a6a6 40bf e643 2abf 4a56 fcbe 16ce c9be
00000030: 4c85 b5be cab9 27bf 5713 1ebf f9c0 d8be

layer3.fc1.weight f4 [120, 400]
-0.003698102 -0.005593357 -0.010677999 -0.017428227 -0.010285092 0.0060929004 0.014710031 -0.0115714
-0.02456445 -0.0073372964 0.016716246 0.004350317 0.0062289196 -0.0027024916 0.01848194 0.021460854
0.003312991 0.010113961 0.011314229 -0.00440088 0.030396497 0.005715842 0.0037926964 0.0042297146
-0.009067989 -0.0073179784 -0.0015889908 0.015423871 -0.013262128 -0.0073506976 -0.0023552433 0.007863357
0.003078365 -0.036167048 0.030808287 0.015783388 -0.0038126886 0.021684956 -0.010199679 0.015807224
-0.026532732 -0.01622347 0.0003639174 -0.00554148 -0.03384274 0.004518676 -0.00074815564 0.0138333645
0.00011695029 0.0041093985 0.0028935245 -0.0033340876 -0.015777832 -0.006301388 -0.0012357382 0.01253331
-0.0152767915 -0.018114002 0.0038481527 -0.008379526 0.006789069 -0.006009384 -0.012121873 -0.027690826
-0.00032635315 -0.0029392978 0.010230131 -0.017390326 0.0010789384 0.004529465 0.016874375 0.025936952
0.021210698 0.023160966 -0.0032751253 -0.0063194707 -0.016658476 -0.017407233 0.0061699357 0.015902568
0.022462307 0.01926486 0.00013088621 0.011539833 0.02287431 -0.0016753225 0.011869422 0.02251746
-0.008505054 -0.012153754 -0.014752255 0.0034625242 0.008720582 0.0078073246 -0.044691987 -0.007739191
-0.015649559 -0.000873051 -0.0063096043 -0.0173922 -0.0075039724 0.0048463135 0.008819851 -0.0050993296
-0.01189532 -0.0054099495 0.013471668 0.004990456 -0.007069715 -0.0071631414 0.004972302 0.0048531974
0.0008549517 0.0077028754 0.022296421 0.009197953 0.0048591224 0.0011109763 -0.023424467 0.028162388
-0.012571927 0.0051393183 4.3021337e-05 -0.008757699 0.0031165339 -0.021760998 -0.02238283 -0.013276031
0.023676438 0.0027916278 -0.020194007 -0.006409421 -0.039944865 0.006182295 0.00025902098 0.01179466
-0.0030853443 -0.04930739 0.0018804763 0.010391602 0.021680811 -0.0022030869 -0.04014841 0.005152707
0.010330247 0.000114495306 -0.009280755 0.005640934 -0.018740885 0.021934444 -0.0077268993 -0.0029176841
0.023107259 0.019727599 -0.010628122 -0.010455302 0.0049366117 0.0032462303 0.00071872154 -0.009445271
-0.019717071 0.0032384887 -0.008500887 -0.016948791 -0.014901175 -0.00028327282 -0.028886247 -0.0045592533
0.005238056 -0.0031223441 -0.013277943 -0.013747988 -0.0008717361 -0.0027167678 -0.0009332581 -0.0019191914
0.006580055 -0.023958717 -0.020984361 -0.013180577 -0.01808516 0.013273475 -0.010351918 -0.021052629
0.0053595477 -0.009033614 -0.01139724 -0.013224327 -0.002185505 0.009557327 -0.024476195 -0.015432567
-0.009890087 -0.014668868 -0.007970479 0.00019975482 0.005265994 0.018682586 0.0017190139 0.0043611443
0.007433858 0.0069267447 0.0181794 0.018341308 0.0069340067 0.01456976 0.0052794367 0.002350514
-0.01540199 -0.022842836 0.0051578786 0.004680132 -0.003157131 0.0055650286 0.0057143955 -0.0051221224
0.010519815 -0.0038142914 -0.002992753 -0.006456894 0.006703997 -0.0033469752 -0.0116271535 -0.009222437
0.008968377 -0.015444237 0.0072865365 -0.009005844 0.0047646724 0.0019004577 0.007872534 -0.006527597
0.0039225053 0.023590334 0.010889864 0.015378225 -0.016242828 0.022095377 0.011409535 0.011684618
0.023252502 0.0013512047 0.02013638 -0.010640392 -0.008975608 -0.013187398 -0.015964018 -0.015232758
-0.030476347 -0.018973656 0.01598803 -0.01156151 0.0034519352 -0.02396494 -0.01661574 0.008135733
00000000: db5b 72bb 7b48 b7bb c6f2 2ebc a4c5 8ebc
00000010: cd82 28bc f4a6 c73b 5802 713c f895 3dbc
00000020: 633b c9bc b46d f0bb 82f0 883c 1b8d 8e3b
00000030: f71b cc3b 491c 31bb 7067 973c acce af3c
00000040: c41e 593b 07b5 253c 515f 393c 4235 90bb
00000050: 1302 f93c f54b bb3b e38e 783b 6b99 8a3b
00000060: e791 14bc a7cb efbb af45 d0ba 67b4 7c3c
00000070: 6649 59bc 1fde f0bb 6d5a 1abb 4fd5 003c
00000080: 65be 493b e623 14bd a961 fc3c 2a4c 813c
00000090: 4dde 79bb a6a4 b13c 8e1c 27bc 277e 813c
000000a0: 2c5b d9bc 15e7 84bc 2bcc be39 4e95 b5bb
000000b0: af9e 0abd 6711 943b e01f 44ba 56a5 623c
000000c0: 3543 f538 22a8 863b 49a1 3d3b b580 5abb
000000d0: 8340 81bc e07b cebb 7ef8 a1ba 8358 4d3c
000000e0: 824b 7abc d163 94bc 4a31 7c3b 484a 09bc
000000f0: d776 de3b 5eea c4bb d29a 46bc dfd7 e2bc
00000100: 611a abb9 3ca1 40bb 489c 273c 2876 8ebc
00000110: 2a6b 8d3a e86b 943b 213c 8a3c bb79 d43c
00000120: 0fc2 ad3c 11bc bd3c 7ca3 56bb 9013 cfbb
00000130: 5b77 88bc 9d99 8ebc 2c2d ca3b 1a46 823c
00000140: df02 b83c 57d1 9d3c 803e 0939 9111 3d3c
00000150: e862 bb3c 7f96 dbba f777 423c 8976 b83c
00000160: c858 0bbc 8a20 47bc 71b3 71bc 84eb 623b
00000170: c6e0 0e3c 96d4 ff3b f20e 37bd 0a99 fdbb
00000180: 8133 80bc 76dd 64ba ccc0 cebb 167a 8ebc
00000190: e2e3 f5bb d3cd 9e3b 2381 103c 4718 a7bb
000001a0: 97e4 42bc f245 b1bb 45b8 5c3c fb86 a33b
000001b0: 11a9 e7bb c9b8 eabb b1ee a23b 9207 9f3b
000001c0: d61e 603a 6768 fc3b fca6 b63c 03b3 163c
000001d0: 4639 9f3b 2e9e 913a abe4 bfbc cfb4 e63c
000001e0: 7cfa 4dbc ba67 a83b cf71 3438 747c 0fbc
000001f0: c33e 4c3b 1f44 b2bc 325c b7bc b683 59bc
00000200: 17f5 c13c bef3 363b e76d a5bc 1f06 d2bb
00000210: 3a9d 23bd d994 ca3b 35cd 8739 643e 413c
00000220: 7d33 4abb 8cf6 49bd 507a f63a 8a41 2a3c
00000230: f59b b13c aa61 10bb a972 24bd 0ad8 a83b
00000240: 3240 293c 331d f038 4f0e 18bc 96d7 b83b
00000250: 7c86 99bc ddaf b33c ee31 fdbb 9e36 3fbb
00000260: 6f4b bd3c c69b a13c 9321 2ebc b74c 2bbc
00000270: 4dc3 a13b b5be 543b 9668 3c3a 57c0 1abc
00000280: b285 a1bc d33c 543b 4e47 0bbc 31d8 8abc
00000290: 0f24 74bc 3c84 94b9 daa2 ecbc ca65 95bb
000002a0: 00a4 ab3b 3ea0 4cbb bb8b 59bc 3e3f 61bc
000002b0: 3885 64ba cd0b 32bb e4a5 74ba 618d fbba
000002c0: 819d d73b 1245 c4bc 65e7 abbc 59f3 57bc
000002d0: 5427 94bc fd78 593c 179b 29bc 9076 acbc
000002e0: 259f af3b b901 14bc 7dbb 3abc d9aa 58bc
000002f0: b13a 0fbb 5696 1c3c 4d82 c8bc e1d8 7cbc
00000300: 080a 22bc b155 70bc 9d96 02bc 4775 5139
00000310: 5c8e ac3b 390c 993c 8950 e13a eee7 8e3b
00000320: b897 f33b bff9 e23b f7ec 943c 8340 963c
00000330: aa36 e33b 01b6 6e3c 20ff ac3b 150b 1a3b
00000340: a158 7cbc e620 bbbc 6c03 a93b cb5b 993b
00000350: dee7 4ebb d85a b63b d33f bb3b 7ad7 a7bb
00000360: 4d5b 2c3c 31f9 79bb 1022 44bb 5a94 d3bb
00000370: 34ad db3b ed58 5bbb d17f 3ebc b419 17bc
00000380: 19f0 123c d309 7dbc e6c3 ee3b 3f8d 13bc
00000390: f820 9c3b c718 f93a cdfb 003c 74e5 d5bb
000003a0: 5c88 803b 8440 c13c 666b 323c f3f4 7b3c
000003b0: ae0f 85bc 5d01 b53c 0fef 3a3c d770 3f3c
000003c0: 087c be3c e81a b13a 0df5 a43c 0a55 2ebc
000003d0: 6e0e 13bc f50f 58bc f9c6 82bc d192 79bc
000003e0: 88a9 f9bc a46e 9bbc 54f9 823c 7d6c 3dbc
000003f0: dd39 623b 1f52 c4bc bb1d 88bc bd4b 053c

layer3.fc1.bias f4 [120]
-0.005041179 0.0013069976 0.021757456 0.00041490016 -0.0073177256 0.0111592105 -0.001000655 -0.010740714
0.0027072548 -0.0068085613 0.008721203 -0.014430221 0.00021977714 -0.0067822165 0.006956156 -0.0014403136
0.02488882 0.015952848 -0.02467877 -0.010533733 0.0049170614 -0.0031675154 -0.008874654 -0.018371932
0.008177381 0.010402123 0.025130846 0.0006761412 -0.011770308 -0.0018424548 0.012779941 -0.0057765343
0.20299439 0.019139003 -0.025548039 -0.018898234 -0.05770377 0.0073894053 -0.004764771 -0.022344971
-0.0009914337 0.0015585577 0.014342032 0.10688615 -0.0048548924 -0.015770916 -0.009050378 0.01817355
-0.0101272315 0.0113985315 -0.00975196 -0.0077243214 -0.0038169015 0.0020287493 -0.012103242 0.031332202
-0.034895014 -0.01765229 0.017218024 0.0032263491 -0.0005782463 0.021384185 0.017457416 0.117534176
-0.13555378 0.00022592909 0.0011410308 0.01611523 -0.008435283 0.0001310167 -0.0043129195 -0.015411988
-0.01674561 -0.0130417505 -0.0045725103 0.0065023666 -0.024680033 -0.010923797 0.017583841 -0.0070446017
0.012334193 0.009517605 -0.0073419507 0.0047479267 -0.0028813935 0.004676782 0.012490852 -0.0018647603
0.02972584 -0.00686329 -0.019425947 0.00801666 0.015450377 -0.004972512 0.008858534 -0.010230382
0.016287707 -0.007068506 0.016007489 -0.015824217 0.0027705426 -0.019304382 -0.018084902 -0.00061691424
0.032833256 0.004937924 -0.027963791 -0.015245005 -0.004184632 -0.011325863 -0.0271592 0.0045948443
0.3658304 0.030751718 -0.002824011 -0.0017922996 0.0024800843 0.0048396494 0.02469252 0.23009945
00000000: 7930 a5bb 904f ab3a b13c b23c f586 d939
00000010: 88c9 efbb 1fd5 363c 6928 83ba d2f9 2fbc
00000020: 336c 313b 5a1a dfbb 60e3 0e3c bc6c 6cbc
00000030: fa73 6639 5b3d debb 77f0 e33b e8c8 bcba
00000040: a3e3 cb3c 8caf 823c 222b cabc ae95 2cbc
00000050: 4d1f a13b 1796 4fbb ff66 11bc bc80 96bc
00000060: 6cfa 053c ab6d 2a3c 34df cd3c 113f 313a
00000070: 40d8 40bc 867e f1ba f562 513c 1549 bdbb
00000080: c3dd 4f3e 66c9 9c3c 1f4a d1bc 78d0 9abc
00000090: ca5a 6cbd d322 f23b cc21 9cbb cd0c b7bc
000000a0: fff2 81ba 8548 cc3a d8fa 6a3c 20e7 da3d
000000b0: ca15 9fbb 0232 81bc 0948 14bc b2e0 943c
000000c0: b0ec 25bc e8c0 3a3c afc6 1fbc 4e1c fdbb
000000d0: fb24 7abb c4f4 043b ad4c 46bc 3256 003d
000000e0: 13ee 0ebd 899b 90bc d00c 8d3c 2871 533b
000000f0: 7495 17ba e32d af3c db02 8f3c c2b5 f03d
00000100: 9cce 0abe 61e7 6c39 a48e 953a 1604 843c
00000110: 2434 0abc 8761 0939 6453 8dbb 9082 7cbc
00000120: 172e 89bc 11ad 55bc ffd4 95bb ce11 d53b
00000130: c82d cabc baf9 32bc fd0b 903c 67d6 e6bb
00000140: 5b15 4a3c bbef 1b3c bf94 f0bb 7f94 9b3b
00000150: c3d5 3cbb b13f 993b 6ea6 4c3c f96a f4ba
00000160: 9b83 f33c 73e5 e0bb 2a23 9fbc 4f58 033c
00000170: 9423 7d3c 74f0 a2bb 6223 113c 559d 27bc
00000180: cc6d 853c ed9e e7bb 2322 833c caa1 81bc
00000190: fe91 353b 3924 9ebc ca26 94bc 6ab8 21ba
000001a0: 2a7c 063d 4fce a13b 5214 e5bc 2fc6 79bc
000001b0: 3d1f 89bb 1d90 39bc f87c debc 5990 963b
000001c0: 1f4e bb3e 07eb fb3c 0b13 39bb 98eb eaba
000001d0: e988 223b ec95 9e3b f847 ca3c 319f 6b3e

layer3.fc2.weight f4 [84, 120]
0.00150816 -0.007528528 0.0036112533 5.2634703e-05 0.0009919786 -0.0002551956 -0.0020843465 -0.007486436
0.0044890554 -0.009453692 -0.0017460521 -0.008815083 -0.0071306336 0.005675555 0.004570513 0.0047814115
0.007952339 -0.004723102 0.0018019645 -0.0059893387 0.006665152 0.008762583 -0.0013894998 -0.00926453
0.0012951094 -0.0010246796 0.005209872 0.007435841 -0.003458606 -0.0073184767 -0.002289103 0.010720124
-0.010880049 0.014054295 -0.0025976489 -0.016092451 5.758247e-05 0.0016751561 -0.0044708485 -0.01572792
0.009248771 0.00036830932 -0.003772471 -0.0006419558 -0.0054385616 0.0073366705 -0.0054604406 0.0032880632
0.0066688564 0.006608336 -0.002040637 0.007188937 -0.00874943 -0.0075389226 0.001319822 -0.0018476043
-0.017807003 -0.01263329 0.007641467 0.013792926 0.0052992394 -0.0029074745 0.005189138 -0.0004385868
0.009047658 -0.007815536 -0.0075765285 0.0052731545 0.0050694877 0.0038812696 0.005750286 -0.0024068684
-0.009073317 -0.003791878 -0.009606185 -0.0010170997 -0.00020657646 -0.014988147 0.0021634945 -0.00026757782
-0.003755612 0.008775415 0.0065418617 -0.0059293993 -0.003545232 0.005792497 -0.0018132756 0.0040074517
-0.0020693138 -0.0045230463 -0.006199911 -0.0045714136 4.3166772e-05 0.0069122356 -0.0003048997 0.006814927
0.017522095 -0.0016236188 -0.010994188 -0.0018872579 0.0011479737 0.00677661 0.0069617922 -0.006626799
-0.011507708 0.0034269465 -0.0111162085 -0.0053281733 -0.0019316546 -0.0018976463 -0.0032712987 -0.0012734659
-0.0026805669 -0.0005512027 0.0031276096 -0.0016011972 0.0001480387 -3.5589845e-05 0.0026308484 0.0032828157
0.0066932114 -0.003139721 -0.0010355001 -0.0005050616 0.0035647515 -0.0027317568 -0.006271994 0.012743786
0.002444534 0.013590699 0.007618113 0.0041162143 -0.0015369733 -0.0019635924 -0.003990567 0.005977353
0.0069745006 0.0027068956 -0.009333882 -0.006099753 -0.011536598 -0.004886991 0.0041064443 0.006788661
0.004730109 0.003944725 -0.006550141 0.004046265 0.00138801 -0.00035321078 -0.0054225842 -0.010997925
-0.0063051637 0.013715255 0.0024462126 0.011099477 0.0069349185 0.00011189238 -0.0019252416 0.009223352
-0.0040105297 -0.002163966 -0.00039045847 0.00875712 0.00034245182 -0.0028331552 0.00017531408 0.003881623
0.007971787 0.008946817 -0.0060667847 -0.0035387126 -0.0009888941 0.0034315002 0.0039977366 0.007510488
0.0040154653 -0.0048730266 -0.009374089 -0.00060611265 0.002029129 0.0039030272 0.006387527 0.0020746929
-0.006940372 0.0025416191 0.0034125715 0.003972579 -0.0027063112 -0.004605182 -0.012468557 -0.012176362
0.010804791 -0.0030969619 0.004401003 -0.0028573137 0.0020396942 0.0048012068 0.007218479 -0.001370867
-0.0050646085 0.008238641 -0.0006669034 0.0004091056 0.0027865032 0.001302482 0.0021257373 0.0057663606
-0.0018900884 -0.0057400623 0.0037679588 2.9270266e-05 -0.009726601 0.00068183616 -0.011222558 -0.0044526057
0.0016520008 0.0043457514 -0.0039535305 0.0010885611 -0.004674977 -0.01354563 0.0039059022 0.008328682
0.0070795543 0.0024144491 0.00024202534 0.013414842 0.009474026 -0.0019314607 -0.0051614447 -0.005928709
-0.005211394 0.0015085862 -0.0019668175 -0.0046724696 0.0010587387 0.003841068 0.0025733828 -0.0008926782
0.0020323554 0.0018150826 0.0057272757 0.00045273645 0.0015821662 -0.0066720108 0.003289625 0.00092158513
-0.0023515716 0.005200788 0.0019144893 -0.004036043 0.0017469488 0.00022724419 0.0008319644 0.008142911
00000000: 74ad c53a dfb1 f6bb c7aa 6c3b 15c4 5c38
00000010: 4705 823a c6cb 85b9 8899 08bb c750 f5bb
00000020: ed18 933b a8e3 1abc c9db e4ba 236d 10bc
00000030: 17a8 e9bb 02fa b93b 3ec4 953b 63ad 9c3b
00000040: 874a 023c 40c4 9abb e52f ec3a 3742 c4bb
00000050: 5967 da3b f090 0f3c e01f b6ba 41ca 17bc
00000060: a9c0 a93a 8b4e 86ba 93b7 aa3b 5ba8 f33b
00000070: c8a9 62bb d5cf efbb c704 16bb 75a3 2f3c
00000080: 3c42 32bc fc43 663c 513d 2abb 51d4 83bc
00000090: b584 7138 e990 db3a 3280 92bb d7d7 80bc
000000a0: 2888 173c a419 c139 903b 77bb ed48 28ba
000000b0: f635 b2bb 7468 f03b 7fed b2bb 8c7c 573b
000000c0: 6c86 da3b be8a d83b 35bc 05bb 2d91 eb3b
000000d0: c559 0fbc 1109 f7bb e1fd ac3a 502b f2ba
000000e0: fedf 91bc dcfb 4ebc 4565 fa3b bafb 613c
000000f0: 3ea5 ad3b 548b 3ebb a509 aa3b 20f2 e5b9
00000100: a13c 143c bc0c 00bc 8744 f8bb 6dca ac3b
00000110: f21d a63b e65c 7e3b e56c bc3b 8dbc 1dbb
00000120: 40a8 14bc 2881 78bb 4363 1dbc 3450 85ba
00000130: 729c 58b9 d890 75bc 6ac9 0d3b b049 8cb9
00000140: b720 76bb c2c6 0f3c 1d5d d63b 684b c2bb
00000150: 1f57 68bb fdce bd3b 6fab edba f150 833b
00000160: 539d 07bb 1036 94bb 9f28 cbbb cccb 95bb
00000170: f80d 3538 0980 e23b f2da 9fb9 c04f df3b
00000180: 7f8a 8f3c 9bcf d4ba f720 34bc de5d f7ba
00000190: 9b77 963a 530e de3b bf1f e43b 9e25 d9bb
000001a0: d38a 3cbc 9f96 603b c220 36bc f597 aebb
000001b0: 932f fdba 72ba f8ba 4963 56bb 6dea a6ba
000001c0: 73ac 2fbb 967e 10ba 95f8 4c3b 43df d1ba
000001d0: d63a 1b39 4e46 15b8 506a 2c3b 8224 573b
000001e0: ba52 db3b c7c3 4dbb 9eb9 87ba 1c66 04ba
000001f0: 9b9e 693b 4607 33bb 4d85 cdbb 50cb 503c
00000200: 7a34 203b 86ab 5e3c 5da1 f93b 4fe1 863b
00000210: 4474 c9ba 9daf 00bb 4dc3 82bb acdd c33b
00000220: 5a8a e43b 2c66 313b 23ed 18bc 70e0 c7bb
00000230: 0004 3dbc 0d23 a0bb 5a8f 863b 6a73 de3b
00000240: 08ff 9a3b c042 813b 91a2 d6bb 8896 843b
00000250: e3ed b53a 262f b9b9 efaf b1bb a430 34bc
00000260: 8c9b cebb f3b5 603c a350 203b 95da 353c
00000270: 503e e33b c4a7 ea38 6358 fcba 8b1d 173c
00000280: c36a 83bb 53d1 0dbb 73b6 ccb9 067a 0f3c
00000290: 1b8b b339 75ac 39bb 84d4 3739 d462 7e3b
000002a0: 199c 023c ac95 123c e1cb c6bb bfe9 67bb
000002b0: c89d 81ba 05e3 603b 72ff 823b 8a1a f63b
000002c0: 2a94 833b e9ad 9fbb c795 19bc 88e3 1eba
000002d0: 23fb 043b eec9 7f3b 764e d13b 92f7 073b
000002e0: 0f6c e3bb 4b91 263b 73a5 5f3b 682c 823b
000002f0: 5e5c 31bb 11e7 96bb eb48 4cbc 5d7f 47bc
00000300: 9406 313c 66f6 4abb 4a36 903b c541 3bbb
00000310: 64ac 053b 7153 9d3b fe88 ec3b aaae b3ba
00000320: 04f5 a5bb 5dfb 063c 21d3 2eba 397d d639
00000330: c49d 363b 0bb8 aa3a f44f 0b3b bdf3 bc3b
00000340: d8bc f7ba 2217 bcbb dcef 763b 6b89 f537
00000350: 525c 1fbc 40bd 323a d2de 37bc 2ae7 91bb
00000360: f387 d83a ce66 8e3b 9e8c 81bb 0dae 8e3a
00000370: 8d30 99bb 7dee 5dbc 2afa 7f3b 0675 083c
00000380: 9bfb e73b bc3b 1e3b 2fc8 7d39 edc9 5b3c
00000390: f238 1b3c 1129 fdba 5621 a9bb 9e45 c2bb
000003a0: 57c4 aabb c1bb c53a b9e5 00bb 841b 99bb
000003b0: 60c5 8a3a 6dba 7b3b 33a6 283b 9f02 6aba
000003c0: 4431 053b 11e8 ed3a dfab bb3b 425d ed39
000003d0: b060 cf3a e2a0 dabb c096 573b 8896 713a
000003e0: d31c 1abb 5f6b aa3b 9aef fa3a c840 84bb
000003f0: e0f9 e43a 6648 6e39 3018 5a3a d869 053c

layer3.fc2.bias f4 [84]
-0.0001814607 0.005804206 0.0045452765 0.013820603 -0.0034855886 -0.012699812 -0.0038184554 -0.0075656353
-0.0016375497 0.007354404 0.24086854 -0.01602167 -4.2528387e-05 0.0036832893 0.00398676 -0.0074015274
-0.0012227622 -0.0018583011 -0.014893487 -0.00105185 -0.0055884686 0.0015900834 -0.00495918 0.016780408
-0.0074194707 -0.04407361 -0.009175878 0.036692332 -0.007045283 0.008972134 0.013299917 0.007999791
0.008502774 0.0013062074 -0.0036703194 0.002759604 -0.0038568946 -0.015483287 0.012663666 -0.008218251
0.0069835912 0.28052458 -0.010002006 -0.00033938105 0.01067766 -0.0071240473 -0.0038981014 -0.008012608
0.0031332911 0.00598777 -0.0044017266 0.21895477 -0.0019511087 0.009615728 -0.016843418 0.014258681
-0.008977999 -0.016597152 0.019622305 -0.011687762 0.0013339376 0.00030707283 0.009259086 -0.0009387479
0.0075340737 0.0053778174 0.0121806525 -7.121853e-05 -0.0040388396 0.0060174335 0.12699227 -0.0004491217
0.0054374477 0.008943584 0.0128964335 -0.0124490205 0.0097360285 0.012632279 -0.008768173 -0.11701549
0.0039048044 -0.0032897282 -0.009083051 0.00027254003
00000000: 7c46 3eb9 3531 be3b 8bf0 943b cf6f 623c
00000010: 796e 64bb df12 50bc 0d3f 7abb 26e9 f7bb
00000020: 0da3 d6ba 36fd f03b 3ea6 763e e13f 83bc
00000030: 8260 32b8 5763 713b 5ea3 823b 8388 f2bb
00000040: 1745 a0ba 3d92 f3ba d003 74bc 3bde 89ba
00000050: 791f b7bb 586a d03a 9e80 a2bb 1177 893c
00000060: 081f f3bb 8886 34bd 6c56 16bc b34a 163d
00000070: 1edc e6bb dcff 123c e5e7 593c 8e11 033c
00000080: 384f 0b3c 0c35 ab3a be89 70bb 79da 343b
00000090: f4c3 7cbb 9dad 7dbc 447b 4f3c d8a5 06bc
000000a0: 9cd6 e43b eba0 8f3e 74df 23bc f4ee b1b9
000000b0: 5af1 2e3c d770 e9bb 4a77 7fbb 5047 03bc
000000c0: e757 4d3b 0e35 c43b 5c3c 90bb ae35 603e
000000d0: 58bc ffba 498b 1d3c 35fb 89bc 3e9d 693c
000000e0: 7518 13bc c0f6 87bc f5be a03c 077e 3fbc
000000f0: 85d7 ae3a 9efe a039 6cb3 173c 4e16 76ba
00000100: 64e0 f63b 6738 b03b 5c91 473c 285b 95b8
00000110: 3e58 84bb e42d c53b 430a 023e 1878 ebb9
00000120: 9e2c b23b 1c88 123c 904b 533c faf6 4bbc
00000130: dd83 1f3c 9ef7 4e3c 62a8 0fbc d1a5 efbd
00000140: bfe7 7f3b 7b98 57bb 14d1 14bc b4e3 8e39

layer3.fc3.weight f4 [10, 84]
0.0055769887 -0.0043776897 0.0006541232 -0.0029515084 0.008759752 -0.0031643747 0.0065286765 -0.0050141304
-0.0005341753 0.0025034598 -0.1832999 0.003629339 -0.007355802 -0.0043586507 0.0054973406 0.003710064
0.0028346076 0.0063375332 0.005548738 -0.0037752502 0.0004188763 -0.0028056179 0.0045494433 -0.0023952688
-0.00726433 0.013794082 0.0039096433 0.10395003 0.0031501092 -0.0007968796 -0.0016645868 -0.0020608506
0.0032977273 0.0046715057 0.005955381 0.005084955 0.0033511668 0.006173291 -0.0051043513 2.7439753e-05
-0.002798323 0.009819357 0.00092075055 0.0076254494 -0.0019892387 0.0013447551 0.006640631 0.004626005
0.0013008281 -0.0058779605 -0.0054864166 0.0296713 -0.003976776 -0.000836282 0.0014229649 -0.003432291
0.0044064755 -0.2487434 -0.0005862949 -0.0002778399 -0.0025995201 -0.003665825 0.0020789711 -0.0035080488
0.004224134 -0.0061679995 -0.0033703223 -0.004910978 -0.0012133586 -0.0037479554 -0.14202847 -0.0046505514
0.0010823389 -0.0038408733 -0.0044660387 -0.00055420946 -0.0049575856 0.008605695 0.0005831957 0.13516082
-0.00032095658 0.0031700577 0.0025944684 -0.0019302723 -0.004094362 0.0021938991 -0.0006743815 0.005572211
0.01317611 -0.0010908935 -0.0022772758 0.0024545419 0.004322913 -0.0019434044 -0.036130432 -0.0017725051
0.0033232602 0.0015480096 -0.0035161902 0.00015328864 -0.002662576 -0.0021555074 -0.0013674621 0.0022399921
0.0012195251 0.0013961699 -0.003553755 0.0022184553 0.0030818973 0.23481378 -0.0040331366 -0.12250894
-0.0024568783 0.0013819366 0.0025219657 0.0043584504 -0.002889588 -0.0035449958 -0.0037638776 -0.004846248
0.0037855946 -0.0015290126 0.003343321 0.0011531987 0.0025809736 -0.1688289 -0.0014944245 -0.0035531619
0.000779011 -0.0003821982 0.11711257 -0.0033360026 -0.00044922836 0.0046873204 0.0023963219 -0.33837214
0.0028431318 0.0005211673 0.0015223521 0.0008162143 -0.0028988495 0.021684738 0.00054341386 0.001643843
0.0042809057 0.002024102 -0.0026333241 -8.551431e-05 -0.0006945235 -0.00037728137 0.001704067 0.0034049023
0.0061688363 0.0007090597 -0.11214201 -0.0007680471 0.005315411 0.0020607233 0.0047575603 0.001809729
0.0013876462 0.014817607 -0.0014179759 -0.04790704 0.00021321615 -0.0045248764 -0.0012296581 0.0030836605
0.0030022995 -0.0004834376 -0.007574949 0.00036462673 0.005599119 -0.004605936 0.004445359 -0.0004303542
0.0048872824 0.0017078684 -0.09618604 0.0021549074 -0.0022375619 -0.0069984193 0.0013535803 0.0051807826
-0.0026051572 0.004489217 0.004189023 -0.003734447 0.0028095073 -0.0033142772 0.0015964545 0.00173559
-0.004291329 -0.057296768 0.0013011427 0.17351452 0.0024597116 0.0015906561 -0.0028733793 0.0005306312
0.0013194765 7.326053e-05 0.0024809672 0.0007002818 0.006375998 0.0047251536 -0.0043748985 0.004704279
0.0004337083 0.13593316 -0.00032827657 -0.00081897853 -0.0062729577 0.008246305 0.053430278 0.0025446704
-0.0006364453 -0.0032620623 -0.0022393274 0.14822757 -0.0024276723 -0.00026020125 -0.0009442514 -0.0033154613
0.00051101315 0.056016296 -0.002408834 0.007653207 0.00010518369 -0.0035615051 -0.0056685726 -0.0015500233
0.0026838311 -0.0072597545 -0.0024866408 -0.00096557714 0.0006399336 -0.0035436265 -0.022300096 -0.0023851744
0.004729575 -0.0026021767 -0.00089204684 0.003853205 0.0010107785 0.01154642 -0.00051204587 -0.2206355
0.00037866508 -0.0010387463 0.0020021924 0.0022195044 0.007601527 7.028167e-05 0.0008335231 -0.0048567927
00000000: 2cbf b63b b972 8fbb 7779 2b3a 186e 41bb
00000010: 1085 0f3c 6661 4fbb 82ee d53b 934d a4bb
00000020: e607 0cba 1611 243b f8b2 3bbe 34da 6d3b
00000030: f108 f1bb 03d3 8ebb 0923 b43b 8c24 733b
00000040: d3c4 393b 15ab cf3b 30d2 b53b 306a 77bb
00000050: a09c db39 75de 37bb 7f13 953b f1f9 1cbb
00000060: 9e09 eebb 9300 623c 771c 803b c1e3 d43d
00000070: 1072 4e3b afe5 50ba 442e daba 560f 07bb
00000080: af1e 583b 6e13 993b 5b25 c33b b29f a63b
00000090: 409f 5b3b 5149 ca3b 6742 a7bb 6c2e e637
000000a0: 1264 37bb 5ee1 203c 865e 713a e8de f93b
000000b0: e35d 02bb 7e42 b03a a699 d93b be95 973b
000000c0: 8c80 aa3a e89b c0bb 66c7 b3bb 3a11 f33c
000000d0: 9d4f 82bb ef39 5bba c782 ba3a 4af0 60bb
000000e0: 3264 903b 97b6 7ebe 96b1 19ba 0aab 91b9
000000f0: b65c 2abb 563e 70bb 593f 083b 4be7 65bb
00000100: 9b6a 8a3b ee1c cabb a0e0 5cbb 45ec a0bb
00000110: 8f09 9fba 42a0 75bb e96f 11be a763 98bb
00000120: 44dd 8d3a 29b7 7bbb d957 92bb 5e48 11ba
00000130: 3e73 a2bb e7fe 0c3c 9ae1 183a 9967 0a3e
00000140: 1046 a8b9 bec0 4f3b f507 2a3b 3101 fdba
00000150: ff29 86bb 85c7 0f3b fac8 30ba 1897 b63b
00000160: 9ce0 573c 50fc 8eba 593e 15bb 61dc 203b
00000170: 39a7 8d3b d5b9 feba 81fd 13bd 6753 e8ba
00000180: 0ecb 593b 95e6 ca3a e26f 66bb 1bbc 2039
00000190: 9d7e 2ebb 6a43 0dbb 6a3c b3ba d5cc 123b
000001a0: 79d8 9f3a b0ff b63a 1ee6 68bb 8163 113b
000001b0: a8f9 493b 0673 703e 6728 84bb f8e5 fabd
000001c0: 9403 21bb 1922 b53a 9047 253b 55d1 8e3b
000001d0: 3e5f 3dbb 2953 68bb 63ab 76bb 46cd 9ebb
000001e0: bd17 783b 2669 c8ba 9e1b 5b3b ed26 973a
000001f0: 8d25 293b 7ce1 2cbe 91e0 c3ba 2adc 68bb
00000200: 8b36 4c3a c661 c8b9 b7d8 ef3d d6a0 5abb
00000210: 6986 ebb9 1898 993b 9c0b 1d3b 1d3f adbe
00000220: d653 3a3b f29e 083a a989 c73a 37f7 553a
00000230: a0fa 3dbb 31a4 b13c e373 0e3a 3876 d73a
00000240: d746 8c3b cca6 043b d993 2cbb 2556 b3b8
00000250: af10 36ba d9cd c5b9 005b df3a c824 5f3b
00000260: f323 ca3b 31e0 393a b6aa e5bd c556 49ba
00000270: e62c ae3b 330d 073b 4fe5 9b3b 6e34 ed3a
00000280: aee1 b53a 8cc5 723c 60db b9ba 2c3a 44bd
00000290: c692 5f39 6a45 94bb 7b2c a1ba 3d17 4a3b
000002a0: 3ac2 443b e575 fdb9 4737 f8bb 5f2b bf39
000002b0: d078 b73b 64ed 96bb 60aa 913b 2aa1 e1b9
000002c0: 7f25 a03b 8eda df3a 30fd c4bd 5939 0d3b
000002d0: 0fa4 12bb ff52 e5bb 9e6a b13a 8ec3 a93b
000002e0: 49bb 2abb 481a 933b 1244 893b a0bd 74bb
000002f0: b61f 383b 5834 59bb 2040 d13a bd7c e33a
00000300: 479e 8cbb 04b0 6abd 1b8b aa3a caad 313e
00000310: 1d33 213b 907d d03a 4e4f 3cbb 0f1a 0b3a
00000320: 49f2 ac3a 73a3 9938 b997 223b 1e93 373a
00000330: bfed d03b 76d5 9a3b 4f5b 8fbb 5a26 9a3b
00000340: 5863 e339 1032 0b3e 891c acb9 b8b0 56ba
00000350: 628d cdbb 831b 073c b5d9 5a3d 7cc4 263b
00000360: 1fd7 26ba 53c8 55bb aec1 12bb f8c8 173e
00000370: 9519 1fbb 9f6b 88b9 a487 77ba 3648 59bb
00000380: 83f5 053a 5871 653d 87dd 1dbb c1c7 fa3b
00000390: 1096 dc38 2468 69bb 6fbf b9bb 272a cbba
000003a0: 37e3 2f3b 3ce3 edbb e9f6 22bb c91e 7dba
000003b0: 38c1 273a 303c 68bb b1ae b6bc 9650 1cbb
000003c0: 8dfa 9a3b 4889 2abb 40d8 69ba 0d86 7c3b
000003d0: 197c 843a 322d 3d3c d13a 06ba 46ee 61be
000003e0: 9187 c639 8b26 88ba 3737 033b 1b75 113b
000003f0: 3b16 f93b 2f64 9338 ca80 5a3a bb25 9fbb

layer3.fc3.bias f4 [10]
-0.10681191 -0.42382327 0.36739716 0.56455094 0.3330603 -0.0058128005 -0.11838256 -0.25959745
-0.3619644 -0.061985247
00000000: 34c0 dabd 5dff d8be 7b1b bc3e 6986 103f
00000010: e186 aa3e 4e79 bebb 8e72 f2bd f5e9 84be
00000020: 6653 b9be 3ee4 7dbd
