output/models_cifar10_170.pth (torch_old, 248636 bytes, 10 tensors)

layer1.conv1.weight f4 [6, 1, 5, 5]
00000000: 925c 113c 5155 49be f957 4e3d 6940 f4bd
00000010: faee 81bd 238a 903e 0c7b 59be a24c d63e
00000020: 312b b5bd 4aef 533e ef57 ba3d 69ba 01bf
00000030: a712 ba3e 64f1 a2be cddf 4fbd e200 923e
00000040: 39bd f9be e0eb 063f 9cfe 79be 8540 ca3d
00000050: eca3 543e 3e90 01bf c654 de3e 326b 41be
00000060: 29cd 3ebc 6ecf 2939 b5c0 b1bc 417c 1fbd
00000070: dd0a a63d ec2f eebc 86bd 233d 7a13 063e
00000080: 753f e1be 6746 913d 34bf 493e de4d 7dbd
00000090: cd88 8a3e 1980 c23e 7d26 63bf 63ea 823e
000000a0: 1cdc 953d ea77 e4be eee5 213f 626c e83d
000000b0: d878 aabe 1557 4f3c 23fe 123d e675 9cbe
000000c0: 4d09 a83e d7ae 97bd 5344 e7bc 22bc 05bc
000000d0: 5715 33bd 11ba dd3d 7579 0d3d b87c 43bd
000000e0: 8339 81bc fe71 023e 17ec 3c3d 2825 58bd
000000f0: a4a3 92be 9803 f33c f3a0 7b3e 4bff bbbd
00000100: 46a4 2bbd c40d b3be 2bcd a13e a631 3a3e
00000110: 0b45 94bd a009 423c cca9 d3be a770 8a3e
00000120: e275 18bc 0e19 273d f789 9cbd 2fc2 c2bd
00000130: 39d6 99be cf97 adbd 86a2 48bd 03d6 753d
00000140: fc8b 723e 6807 393f 1e62 b13e d91e 4d3e
00000150: 2a9d 56bc 33f2 cfbd 2f33 c1be f1ba 4cbe
00000160: 4434 8abd a792 0cbd 1c38 b53d 70b5 3abd
00000170: 8478 c3bd 5f1a a93d 519b 1e3e 0f78 91bd
00000180: 8f6f 143b 5268 50bd c7b8 a7bd c7e1 97bd
00000190: ba5f a6bd 8e31 433d 314a 89bc ce62 9c3d
000001a0: cca1 b8bd ae53 2abc 9299 8c3d d82f 543d
000001b0: 3daf e6bd 0025 df3d 353a 62be 90ab a6be
000001c0: 9133 aebd 91db 1abc 698a 85be d644 3e3e
000001d0: 6bd2 0a3e 9b34 1fbe 0d38 a2bd b707 1e3e
000001e0: 0aeb 06bd d92e 4c3d 612d fc3d 9fb6 3a3d
000001f0: ca4c c1bd d998 1a3d 5562 44be 90fa 8b3e
00000200: 66b9 cdbc ebaf 6abd fd77 f5bd 4498 b73e
00000210: 3561 8d3e 17ea 06bf 05d5 173b 4a4e 0d3e
00000220: de1b a13e 0f77 61bf f985 4c3d c2cf 863e
00000230: cb97 09bc b902 8cbe 522e cbbd 8048 0a3f
00000240: 91f6 38be 12a9 c33d 40e6 f3bd 3679 563e
00000250: 109f 0abe 9571 b43b
0.008872168 -0.19661452 0.050376866 -0.11926348 -0.06344409 0.2823039 -0.21238345 0.4185534
-0.08846129 0.2069675 0.09098803 -0.50675064 0.36342356 -0.3182479 -0.050750542 0.285163
-0.48777178 0.52703667 -0.24413532 0.098755874 0.20765656 -0.5061072 0.43424052 -0.18888548
-0.011645594 0.0001619437 -0.021698335 -0.038936857 0.08107541 -0.029075585 0.039975666 0.13093367
-0.43993726 0.07093506 0.19701844 -0.061841838 0.27057496 0.37988356 -0.88730603 0.25569448
0.07317373 -0.44622737 0.6324147 0.113487974 -0.3329532 0.012655039 0.035886895 -0.305587
0.32819596 -0.07406395 -0.028230822 -0.00816253 -0.043721523 0.10826505 0.03453966 -0.047726363
-0.015774494 0.12738797 0.04612359 -0.05276981 -0.28640473 0.0296648 0.24573116 -0.09179553
-0.04190471 -0.3497144 0.31601843 0.18183002 -0.072397314 0.011843115 -0.41340482 0.27039072
-0.009305449 0.04079538 -0.07643502 -0.09509694 -0.3004625 -0.08476221 -0.04898312 0.06001855
0.23686212 0.72276926 0.3464517 0.20031299 -0.013098994 -0.10153618 -0.37734362 -0.19993187
-0.0674825 -0.034319546 0.08848593 -0.04558319 -0.09544471 0.08256983 0.15488936 -0.071029775
0.0022649502 -0.050880738 -0.0818954 -0.074161105 -0.08123727 0.04765468 -0.01675901 0.07636033
-0.09015235 -0.010395927 0.06865229 0.05180344 -0.11263893 0.10895729 -0.22092517 -0.32552767
-0.08505929 -0.009451763 -0.2608216 0.18580946 0.1355683 -0.15547411 -0.07920847 0.1543263
-0.032938994 0.049849365 0.12313343 0.045584317 -0.094384745 0.037743423 -0.19178136 0.27339602
-0.025112819 -0.057296675 -0.119857766 0.35858357 0.27613226 -0.5270094 0.002316774 0.13799396
0.31466573 -0.88072294 0.049932454 0.26330382 -0.008398007 -0.27345827 -0.09920944 0.54016876
-0.18062808 0.09553732 -0.11909151 0.20944676 -0.1353724 0.005506704

layer1.conv1.bias f4 [6]
00000000: e103 8cbe 41e6 83be a6a7 91be 17e9 86be
00000010: e824 8abe e98f 94be
-0.2734671 -0.25761607 -0.28448218 -0.26349708 -0.26981282 -0.29016045

layer2.conv2.weight f4 [16, 6, 5, 5]
00000000: 698f 343d e947 1a3c 40e8 b83c cb46 063e
00000010: df79 393c cb26 843d 380f 77bd cdf6 883d
00000020: 6c6a fe3c a94d ef3d e464 fbbb 78df c53b
00000030: 590d 86bb c724 0a3d 7b17 2d3d a95f f23d
00000040: 7708 a4bd 0ea6 6d3d 83f7 e03d 02aa e2bc
00000050: 9c23 80be 7f69 8abe fc77 26bf 848d 2ebf
00000060: 7cef c5be 0625 8b3e 79a1 093e 9d01 533b
00000070: c0ee 3abd 7876 003e 7197 133e 1f88 493e
00000080: 1e9e e23d ad1a fa3d 3426 153e d2e5 b73e
00000090: e346 193e 7806 173e c83b d13d 3f1a 123e
000000a0: b4cf a73e d3ac 253e 0f92 543e 275e 6c3d
000000b0: 5329 8fbd 4697 c03e b164 c2bb 8347 45be
000000c0: 6705 13be 6166 46bd 1ef8 dc3d 38e6 343e
000000d0: f5b7 b1bb b0c0 0a3e 10eb 8bbc 2a4a a13d
000000e0: 7615 163b f75f 9a3d 6a6d 9dbd 85fd 263e
000000f0: bfc2 4ebd 0bb3 e5bc 3c52 553d b2e7 a83d
00000100: b842 d7bc 84f1 62be 1621 70bc adc3 a7bd
00000110: de81 f33d 301f ea3d af0d b3bd 778f 8cbe
00000120: fd33 ebbe 5ea7 ddbe 6a80 36be f5b3 9e3e
00000130: cda9 04be d7f4 8dbd 7492 9ebd 07f9 203e
00000140: afdb 503e 002e af3c d597 323e 3337 503d
00000150: d9da 43bc 4627 ad3d f6c8 813e e095 eb3d
00000160: 6f51 6a3e 69c3 6fbc 8b73 29be e3ec 583e
00000170: fc81 1b3e 5788 853e 451b 75bd e46d 9abd
00000180: b64f 5a3e a3a4 763e fb7e 903e ca6f ad3e
00000190: 9ea7 6f3e 3693 50bd 2038 ba3c f6c8 c63d
000001a0: eb30 093e fbca c73e 8516 883d 2026 2f3e
000001b0: 3d58 59bb 610a 5d3e 94dc b03e 349f 663d
000001c0: 5295 823e 8ec4 543d 2be7 ab3e ca3a 093e
000001d0: f572 303e 90a4 063f 3832 933e 6106 883a
000001e0: a0ab 7ebe bcac 0a3f 1c57 123f d23f f23d
000001f0: f477 80be 3836 fbbc cf9d c4bd 9314 413d
00000200: 00e9 b53d d619 373d 85c3 14bd acec 1fbe
00000210: c62d 39bb afad 123e c110 933e e1f5 023d
00000220: 4121 d0bd e56b 053d e5c2 e73d 8727 3e3e
00000230: 2460 70bd 1dcb 183d dd5c 59bd 31fd e73d
00000240: ea73 8f3e 1776 643d dc45 a23d 401c 0abe
00000250: 2c9a 983c e5f8 823e e10a 12bd ca0e 623d
00000260: 6234 ee3c 07c1 123e 5630 f7bd 5c15 f53d
00000270: 3ec1 adbd 2ec0 c33d b3ed 43be 08f0 c3bc
00000280: 70f2 2b3e 7ade b03e 0cbc 5ebe 1737 21bd
00000290: f7f3 c43c 6c79 3abe b773 a6be 78e2 dd3d
000002a0: 91ec 9cbc 7f93 58be 42f0 acbd bc91 883d
000002b0: ee79 9fbe 9dcb c2be 50cb 0fbe eac4 2b3e
000002c0: faad 203e 1ac6 183e 8d56 8f3e 1785 7b3d
000002d0: f181 153e 4a16 f43d de73 81be 4ba3 a13e
000002e0: 950c 2c3e 3676 63be 798f 873e 01db cdbe
000002f0: 94c7 6f3e 3c1f 17bc 021e c93b fa51 10be
00000300: 67a7 d0be fef0 fdbe 5cc2 b63d 692d 843e
00000310: e6ce 9a3e b357 093f 112d 57bd d4dd e4be
00000320: 5d3a 11bd 6bd2 a43d f53b 1d3e 68d8 4bbd
00000330: 9215 c43d 22c3 b53d ecd8 9cbe ad71 803d
00000340: 2a44 1d3e e7f4 a1be 63cc 113e 3627 ba3e
00000350: 67ee 70be 7153 233f 9244 ff3c 6748 35bc
00000360: 7850 353e 3981 6c3e 3be9 833e 1d8f 813e
00000370: 1683 d23d 29a8 abbd c4e5 0c3d b6ac 333c
00000380: c443 923e d384 073d 8935 a53d 1e3c c1bd
00000390: e8da 04bd 5d98 073e b748 3cbd 275b 9b3d
000003a0: 07c0 55be 2fd8 67be 444d 233e 3cc2 84be
000003b0: 921d efbd 75d5 c9bd 291a 84be 62a2 b4bd
000003c0: c09e 9e3d b40b 5dbe c3d5 10be 0b24 4ebe
000003d0: 861b 89be ce7c 173e 647e cbbd 46d1 7abd
000003e0: 996e 493e 3ea5 7abe c5e1 0f3e 75a8 1b3e
000003f0: 3952 c7be b1ca d3bd 62c3 213e 08d7 62be
0.04408208 0.009416559 0.022571683 0.13112943 0.01132056 0.06452712 -0.060317248 0.066876985
0.031056605 0.116847344 -0.007671939 0.0060386024 -0.0040909466 0.03372648 0.04225872 0.11834652
-0.08009427 0.05801969 0.10984709 -0.027668957 -0.25027168 -0.27033612 -0.6502683 -0.68184686
-0.38659275 0.27176684 0.13440503 0.0032197007 -0.045637846 0.12545192 0.14413239 0.19680832
0.11065315 0.12212119 0.14565355 0.35917526 0.14968447 0.14748561 0.102164805 0.14267825
0.32775652 0.16179208 0.20758842 0.05770698 -0.06990304 0.37615412 -0.0059324135 -0.19265561
-0.1435753 -0.04843748 0.10789512 0.17665946 -0.0054235407 0.13550067 -0.01707986 0.07875474
0.0022900975 0.07537835 -0.07686885 0.16307648 -0.050478693 -0.028039476 0.052080378 0.082473174
-0.026276931 -0.22162443 -0.014656326 -0.08191619 0.118900046 0.1143173 -0.08742844 -0.27453205
-0.459381 -0.43291754 -0.17822424 0.3099667 -0.12955399 -0.06931465 -0.077427775 0.15719996
0.20396303 0.02138424 0.17440732 0.050833892 -0.011954033 0.084547564 0.25348634 0.11503196
0.22882627 -0.014633992 -0.16547982 0.21184115 0.15186304 0.26080582 -0.05984046 -0.07540491
0.2131947 0.24086241 0.28221878 0.3387435 0.23403785 -0.05092164 0.02273184 0.09706299
0.13397567 0.3902205 0.0664492 0.17104387 -0.0033164166 0.2158599 0.34543288 0.05630417
0.25504547 0.05194526 0.33574805 0.13401332 0.17231353 0.5259485 0.2874925 0.0010377878
-0.24870157 0.5416982 0.5716417 0.11828579 -0.25091517 -0.030665502 -0.09600412 0.04713876
0.08882332 0.044702373 -0.036319274 -0.15617627 -0.0028256043 0.14324068 0.2872372 0.03197277
-0.10162593 0.0325736 0.1131647 0.18569766 -0.058685437 0.03730308 -0.053067077 0.11327589
0.28018123 0.05577668 0.07923481 -0.13487339 0.018628202 0.25580516 -0.035654906 0.055189885
0.029077712 0.14331447 -0.12069766 0.119669646 -0.08484124 0.0955814 -0.19133644 -0.023918167
0.16791701 0.34544736 -0.21751422 -0.03935918 0.024042113 -0.18210381 -0.32510158 0.10834211
-0.019155772 -0.21150015 -0.08444263 0.066684216 -0.31147712 -0.3804597 -0.14042401 0.16774336
0.15691367 0.1491932 0.2799572 0.06140622 0.1460035 0.11918314 -0.25283712 0.31569895
0.16801675 -0.22213063 0.26476648 -0.4020615 0.23415977 -0.009223755 0.0061376104 -0.14093772
-0.40752718 -0.49597925 0.0892379 0.25815895 0.30235976 0.53649443 -0.052533213 -0.4470049
-0.03545605 0.080479465 0.15354903 -0.049766928 0.09574427 0.08875109 -0.30634248 0.06271682
0.15358034 -0.31632158 0.14238124 0.3635804 -0.23528443 0.63799196 0.031160627 -0.011064625
0.17706478 0.2309617 0.25763878 0.253045 0.10278909 -0.083816834 0.03439881 0.01096647
0.28567326 0.033085655 0.08066852 -0.094352946 -0.032435328 0.13241716 -0.045967784 0.07585745
-0.20874034 -0.22641061 0.15947443 -0.2592944 -0.11675562 -0.09855167 -0.2580121 -0.088200346
0.07745123 -0.21586496 -0.14144044 -0.20130937 -0.2677881 0.14793703 -0.099362165 -0.061234735
0.19671096 -0.24477097 0.14050968 0.1520098 -0.38929918 -0.10341395 0.15797189 -0.2215234

layer2.conv2.bias f4 [16]
00000000: 9425 08bf d609 31bf efd7 13bf 8c71 dfbe
00000010: e4b8 1cbf 38e6 eabe 2658 eabe 2ccc 9fbe
00000020: 08af 26bf c700 0abf 9d6a d9be 4e63 afbe
00000030: ff0a 93be 8c14 09bf ee74 07bf 560d bcbe
-0.5318234 -0.69155633 -0.57751364 -0.43641317 -0.6121962 -0.45878768 -0.45770377 -0.31210458
-0.65110826 -0.53907436 -0.42464152 -0.3425545 -0.28719327 -0.5354698 -0.52912796 -0.36728925

layer3.fc1.weight f4 [120, 400]
00000000: 48a8 2abc c53d bebc d33f 0fbc c321 28bc
00000010: 9924 74bb 981f 0b3c 3e85 353c 8da3 acbb
00000020: cafc 01bb f4b8 623b dd67 003d 053b fe3b
00000030: 4830 a6bc 96d7 823b 7e34 14bb 8624 723b
00000040: 73c1 213c 422e 84bc dffa 33bb ba2f 0c3c
00000050: 24de 253c 0209 6c3c 9e5a 2b3c d45d 7bbc
00000060: 3075 d7bc 7eda 02bd 646a 03bc 521c 0d3d
00000070: 200b 90bb 47f0 0e3d 9f9b dc3c 03de 3b3b
00000080: 909d a23c 19f2 a53b ef50 b83c 84ec d83b
00000090: c894 08bc b32b 94bb 1b74 b93c d029 fe3b
000000a0: b3c2 45bc 1da8 51bc 253c 0fbc 9949 cdbb
000000b0: 0dc2 00bc 962d 653b 5537 b53c d475 4a3c
000000c0: 5333 8fbc 665b cb3b c25e 7dbc 8352 00bc
000000d0: 63e9 b4bc 97e6 2abc 5eee 26bd c41d 01bd
000000e0: bad8 47bc ed61 8f3c 89c5 88bc 7a1d dd3c
000000f0: c353 99bc 7e86 d33b 21f0 06bc 1eeb 1bbc
00000100: 5063 d6bc e679 613c e87b bfbb 6f04 57bc
00000110: 597d 463a 28e2 143a c7c3 763c 7d47 713c
00000120: 11d3 b63b bbd8 b13c dc05 2ebb ec21 be3b
00000130: d204 cc3c c029 3fba e649 a13b d7ac f2bc
00000140: c7f5 493b d3ed 113d 4d03 7a3c c8ef cd3b
00000150: f8ca 8fbc 0115 883c 4d18 5a3b afb6 7c3a
00000160: 0f93 863c fad4 95ba 4518 b73b d819 6abc
00000170: c06d 963c a52f a4ba 3a1f d4bb f941 023a
00000180: 25a9 c3bc 9de9 bbbb 2d5c 4aba 8020 2f3d
00000190: 6490 a43b 9643 e7bc a1a4 9a3b fff8 01bb
000001a0: 382f bcbc a3e0 103d 9b1f 5f3c 833c 7fbc
000001b0: 9ef5 843c c05f a0bc 2d96 073d 6f57 253d
000001c0: 00b0 a8bb 88f1 053d 69a7 c53c be2d 71bc
000001d0: 601d 553c ab02 c3bc d172 0dbc 53f5 d9bc
000001e0: 5c88 153c cd9d a0bb 05aa 10bd 4075 8437
000001f0: 0858 9abc df4d 4a3c 5b77 ec3c 12c4 7a3c
00000200: 846f 463c 4fec 373a 99a0 da3c 0116 623b
00000210: ab27 0dbc 8447 23bc d4a7 46bc 36f0 263c
00000220: 58af 543b 8607 7fbc 3f77 f23b bf27 17bc
00000230: 3869 d8bb 9aa2 54bc 5da3 96bc 87fc fd39
00000240: 56ee 68bb c9dd 8cb9 0ebf 7bbb 2993 fb3a
00000250: 819d 80bc 9e19 e6bc 5d4b fc3c 3449 293c
00000260: 730b e4bb ade4 9dbc 6621 9bbc 7c2f 4d3b
00000270: ee16 65bc 83cd d03b 087b 93bb 1f97 0c3b
00000280: 5123 8cbc 8be6 47ba d1bc b53b 6e90 13bc
00000290: c010 413c f952 c53b d53b c03b 740c b8bc
000002a0: fb46 073d 9694 77bb 8cce 56bc a3ae ec3b
000002b0: 77f0 5cbc 72ee ff3c e53b e63b 45fa 553d
000002c0: 62a9 ed3c e519 71bb 1b45 84bc b077 02bd
000002d0: 27cc 3e3b 258b 893a 24f9 29bc 8f0a e5bb
000002e0: 5181 ebbb 44e8 b3bc 0476 94ba db1b 583c
000002f0: be47 4c3c 7ee0 fabb 4266 48bc 1738 75bc
00000300: fede cbba ba1d fd3b 82cd 003d 7666 58bc
00000310: e8d9 343c 78bc f33c 581d be3c 0f14 293c
00000320: 9b92 a8bb 2502 b3bc 870d c63b d452 a3bc
00000330: cc5b a6bc d13b a93c 9dc6 27bc a1c8 d1bc
00000340: ef7d a5bc ede4 4ebc 4c36 1b3a c6e0 1f3b
00000350: 4893 293c c4a2 7c3b d707 b13c 6c96 413c
00000360: 1b70 83bb 5a72 8ebc 383c 263c c55e b2bb
00000370: 49c2 853b 65dc 3b3b 4f9d 97bb 913e fd3a
00000380: 54e8 033c cfb2 27bd eba7 11b9 7b02 b73c
00000390: e529 3dbc a65d 49bc 3c2c 003b 22e2 af3c
000003a0: 91bb af3c 6931 20bc e8de bbba 42ca 0cbc
000003b0: 5c2f 8a3b 20fa 143d 21f9 9bbc b825 243c
000003c0: 2f6e a4bc b3b0 72bc 26f2 2dbc a4bc 95bb
000003d0: 123c 0d3b f878 dabb c909 8e3a fd3f 113d
000003e0: 77b0 703c 92ae ebbb ed07 5b3b 52a1 37bd
000003f0: 7821 bbbc e707 73bc 34c4 703c 9210 adbb
-0.010416098 -0.023222813 -0.008743244 -0.010261956 -0.003725326 0.008491419 0.011079131 -0.00526852
-0.0019834512 0.0034595104 0.03134905 0.0077585005 -0.020286694 0.003992985 -0.0022614296 0.003694804
0.009872782 -0.016135339 -0.0027462763 0.008556301 0.010123763 0.0144064445 0.010458617 -0.015342195
-0.026300997 -0.03194665 -0.008020971 0.034450836 -0.0043958575 0.034897115 0.026929675 0.0028666265
0.019850522 0.0050642607 0.02249953 0.0066199917 -0.008336253 -0.004521811 0.022638371 0.0077564493
-0.012070346 -0.012796429 -0.008742367 -0.006264877 -0.007858765 0.0034969798 0.02212111 0.012357194
-0.017480528 0.006205964 -0.015464487 -0.007832172 -0.022083944 -0.010430953 -0.04075467 -0.031522527
-0.012197668 0.01750275 -0.016695755 0.026991595 -0.018716699 0.0064552417 -0.008235962 -0.0095165055
-0.026170403 0.013761973 -0.005843628 -0.013123616 0.0007571779 0.0005679452 0.015061325 0.014726517
0.0055793603 0.02170979 -0.0026553785 0.0058023836 0.024904642 -0.0007292293 0.0049221395 -0.029623432
0.003081666 0.035627197 0.015259576 0.0062846877 -0.017552838 0.016611578 0.0033278645 0.0009640259
0.016427545 -0.001143127 0.00558761 -0.014288388 0.01836288 -0.0012526406 -0.006473449 0.0004968937
-0.023884365 -0.005734636 -0.0007719424 0.042755604 0.0050220955 -0.02823047 0.0047193323 -0.001983225
-0.022971734 0.03537048 0.013618375 -0.015578392 0.0162304 -0.019576907 0.033102203 0.040366586
-0.005147934 0.032701045 0.024127679 -0.014720378 0.013007492 -0.023804983 -0.008633331 -0.026606238
0.009126749 -0.004901624 -0.035318393 1.5790225e-05 -0.018840805 0.0123476675 0.028865507 0.015305536
0.012111548 0.0007016109 0.026687907 0.0034497979 -0.008615415 -0.009965781 -0.012124974 0.010189107
0.0032453146 -0.015565759 0.007399469 -0.009225785 -0.00660434 -0.01297822 -0.018388445 0.00048444068
-0.003554245 -0.00026868124 -0.0038413438 0.0019193637 -0.015700104 -0.028088387 0.030797655 0.010332394
-0.0069593727 -0.01927408 -0.018936824 0.003130882 -0.013982518 0.006372155 -0.0045007505 0.002145238
-0.017106684 -0.0007625601 0.0055461903 -0.009006603 0.011783779 0.006021854 0.0058665075 -0.022466876
0.033026677 -0.0037777773 -0.013110768 0.0072229668 -0.013485066 0.03124163 0.007026183 0.05224063
0.029011432 -0.0036789116 -0.016146233 -0.031852424 0.0029113383 0.0010493739 -0.010374341 -0.006989784
-0.0071870466 -0.021961339 -0.0011326675 0.013190235 0.012468277 -0.007656156 -0.012231411 -0.014966986
-0.0015554128 0.007724491 0.031445988 -0.013208022 0.011038281 0.029752955 0.023207352 0.010319724
-0.00514443 -0.021851609 0.006044093 -0.019936956 -0.020307444 0.020658405 -0.010240224 -0.025608363
-0.020201651 -0.012627822 0.00059208716 0.002439545 0.010350056 0.0038549164 0.021610184 0.0118156485
-0.0040111667 -0.017388511 0.010146193 -0.0054434263 0.0040819985 0.00286653 -0.004626907 0.0019321014
0.008050997 -0.04094201 -0.00013890832 0.02234005 -0.011545633 -0.012290394 0.0019557616 0.021470133
0.021451743 -0.009777405 -0.0014333399 -0.008593144 0.0042170715 0.03637135 -0.019039692 0.0100187585
-0.02007207 -0.014812636 -0.010616815 -0.004569607 0.0021550697 -0.0066672526 0.0010836656 0.035461415
0.01469051 -0.0071924413 0.0033421472 -0.04483158 -0.022843108 -0.014833427 0.014695216 -0.0052815164

layer3.fc1.bias f4 [120]
00000000: 74c5 bb3c 5f8d 3e3b 4568 71bc bd68 d43a
00000010: f394 163c 0dc1 20bc 9713 563b 8a7c 2cbc
00000020: 2289 453c 3349 823b 3700 ccbb dd3b 1d3c
00000030: 53fa 993d 8fa1 56bc fa95 bf3a 42f5 3d3c
00000040: 84cc 093c 2ce8 1ebb 9677 b6bc b705 2f3b
00000050: 58dd d9bb c80a 203c 5cd2 8fbc 0194 9c3c
00000060: a94c 8f3b 2188 753c a898 d6ba a5a6 2bbb
00000070: f26c e83c d324 3d3c b2db b53b 63bb aeba
00000080: 9415 753e 8e3c 2dbc 910f 973c 22a4 6d3c
00000090: 11a0 45bd 4446 7fbe 6b13 923b 76d1 6bbb
000000a0: d544 5ebc 42f6 aabc 8218 ebbc 5e6b f93d
000000b0: 69ad 62bc 6aae 85bc 98da 73bb bb14 163b
000000c0: 3535 213c 7f43 993a 54dc 293c 3197 9f3b
000000d0: 24aa c13c c837 1ebc f6ec f1ba f292 c8bc
000000e0: 5c60 80bc 3e78 acba 56fb d4b9 be35 913c
000000f0: b83e 96bc 8c95 97bb eeb5 e6bd 5746 093e
00000100: e111 7ebd 57eb d7b9 199c ed3b 724a 4bbb
00000110: f76c 253b 5249 1e3c 17c7 09bc 13a9 23bc
00000120: 7f66 d13a 7d92 dcbb 6289 f5bb f5cd 0ebc
00000130: 32d3 dc3a e6bc a0bb 0c6a 9bbc 73ea 67ba
00000140: 7147 88bc 736a 8dbc 493d 8cbb 4ce3 3bbb
00000150: ae5d 513b 15f9 fcbb adff 69bc 6c63 57bc
00000160: fd5b e0bb aaa7 9e3b 2dd2 48bc c732 83bc
00000170: 5321 00bc 2c95 c9bb 8e78 883c 6693 1dbd
00000180: 0d72 da3b 678f 55bc e62c 013e 0e1b 103c
00000190: f76d 063c 7523 3c3c b558 d4bb bd3a 58bc
000001a0: 45cb 213c bcdb 69bb 3ff6 98bc c260 3dba
000001b0: 6616 67bb 8714 853c 040c 4bbb 8064 9fba
000001c0: d173 d43e 03f9 c1bb 0fdc 0a3a e76e b6bb
000001d0: 04ca 78bb 057e 933b c2ce b7bb f887 8d3e
0.022921301 0.0029075963 -0.014734332 0.0016205531 0.009190786 -0.009811652 0.0032665485 -0.010527739
0.012056621 0.003976011 -0.0062256115 0.009596792 0.07518449 -0.013100042 0.001461684 0.011594119
0.008410577 -0.0024247272 -0.02227382 0.0026706287 -0.0066487007 0.009768195 -0.017556362 0.019113543
0.0043731523 0.014986069 -0.0016372399 -0.0026191857 0.028372262 0.011544424 0.0055498714 -0.0013330992
0.23934013 -0.010573519 0.01844004 0.014504464 -0.048248354 -0.24929148 0.004457881 -0.0035983003
-0.0135662155 -0.020869378 -0.02869821 0.12178682 -0.0138352895 -0.016318519 -0.003720915 0.002290054
0.009839346 0.0011693089 0.010367472 0.0048703183 0.0236407 -0.009656854 -0.0018457461 -0.024484131
-0.015670948 -0.0013158394 -0.0004062305 0.017725822 -0.018340454 -0.0046259817 -0.11265169 0.13405739
-0.06202877 -0.00041183337 0.0072512743 -0.0031019715 0.002524195 0.009661036 -0.008409283 -0.009989041
0.0015975981 -0.00673133 -0.007493184 -0.008716096 0.0016847609 -0.004905331 -0.018971466 -0.00088468863
-0.016635628 -0.017262673 -0.0042797667 -0.0028669415 0.0031946707 -0.0077201226 -0.014282149 -0.013146263
-0.0068469034 0.0048417645 -0.012257141 -0.016015423 -0.007820445 -0.006151816 0.016659047 -0.03847065
0.006666428 -0.013034678 0.12614784 0.008795513 0.008204929 0.011483063 -0.0064803013 -0.013197598
0.009875123 -0.003568395 -0.018672107 -0.0007224196 -0.0035261153 0.01624514 -0.0030982504 -0.0012160689
0.4149461 -0.005919577 0.00052970735 -0.00556742 -0.0037962208 0.0045011067 -0.0056093642 0.27642798

layer3.fc2.weight f4 [84, 120]
00000000: c9f5 69bb f8aa 54ba 0fc1 7f3a 0dba a23c
00000010: 21da f5bb acfc 523c 5ad8 1c3b b193 49ba
00000020: 0a4a cd3b 38b4 fb38 fe5b f73a 4d72 cdbb
00000030: d271 c43b 2383 0f3c 2873 de3a b850 5ebb
00000040: 1527 02bb cf58 20bb a9d8 a83b 0fa4 ca3b
00000050: a72f 263c 61c4 803a 426b babb 89a5 f3bb
00000060: a7ba bf3b 8d4c 20bb 3d4b c23b 14c2 c83a
00000070: 34a9 a2ba bdee c23a 8331 053b fbca ccb9
00000080: 8c73 9a3b f13e 283c bbda 1dbc f083 3cbb
00000090: 0d88 c73b c071 853a f2d0 4939 fefa 85ba
000000a0: d1ed 98bb 616a 2cbc be49 343b 721c 84ba
000000b0: 1a2f a33b e51f 363b 5cb0 373c 61c6 bc3b
000000c0: 96de 453b 951c ebba 1128 7abb 708e 3eb9
000000d0: abe3 19bc c1d0 313a 2819 973b 520e 1f3c
000000e0: aab0 e6ba 8c70 1a3a 0791 2d3b f68f 49bc
000000f0: 1bf9 0c3c 95ab e53a ef8f 84b8 b3cf 9d3b
00000100: ef58 63bc d129 63ba 2deb 08bc a4b8 ac3b
00000110: 8816 8f3b 753d 4dbc 3e6c 0d3c cb06 91bb
00000120: c9a8 e0bb 32a0 803b 338e a83b 59a0 223b
00000130: b88e 433b 5d66 da3a d2c8 883c c8a8 0bbc
00000140: 56e1 df3b c5ab 163c f391 07bc 3e76 623b
00000150: c9ba a43b 1475 8bba 4746 243c b5cc 41bb
00000160: 9946 3d3c 419a 3fbc 1571 4fba 9d41 2d3b
00000170: 1537 90bb 9275 b1ba d1ec 1e3b 5b9e a03b
00000180: 96c2 e53b 0575 73ba 7b21 b23a 52ed 11bc
00000190: 2c2f 423a a9e6 4a39 4fb7 863b 11c6 1f3c
000001a0: fff5 753c a6ca c7bb 1dfe fd3b 737d 10bb
000001b0: 525d 99ba beea 0bbc fa7f 5a3b 5fac 1fbb
000001c0: 61d9 12bc 9f7e d038 80db 453c 489f 4abc
000001d0: 301a d0bb 633f 1b3c fb3b adbb d9b4 62bc
000001e0: 77bd 463b ac40 913b 005f f039 6a44 c6bb
000001f0: 1307 773b 2f7c 0cba 512b bcbb 48a7 aa3b
00000200: d643 9ebb da45 003b c31f d1b9 68e2 013c
00000210: e3a2 bd3a 604f 5b39 dcba ea3a 6b81 cc3b
00000220: 9ada 45bb 4ef0 d03a a546 233b d13a 0cbb
00000230: 973a 003b c376 1fbc 6b5d bf3b 2dc3 ce3a
00000240: fc61 8e3b 208c 01bc a004 b9bb 109a b1bb
00000250: 35cd 84bb e701 67bb 1299 c8ba fb5f 9a3a
00000260: 13dd f63a a113 55bb dd73 93ba e386 a53b
00000270: fabb 7fba 3800 4c3b 061e 103c 9f70 09bb
00000280: a25d 683b bc8e 303c a3e1 823a d4d7 36bc
00000290: f44e 1ebb a648 aeba aa68 c7bb 11dd bcbb
000002a0: 8721 943b 391e 803b ec92 a339 d07b b2b7
000002b0: c458 cb3b 98d6 9eba e5b4 0d3b c0e6 bdba
000002c0: a83f a8ba 2a6e 233b 83f3 4abb 3b13 d53b
000002d0: f435 493b 7bb6 30bb e9ba 70ba 3d5b 003b
000002e0: f159 b73a bac0 b13b 6176 e63b cd92 28bc
000002f0: 0c93 193b 1753 a6ba dc35 3ebc f973 983b
00000300: 1c3b d2b9 66b4 78ba ab8f 783b fca3 fe3a
00000310: 5073 44bb 42b5 1cbb 4397 f3ba 1d12 9aba
00000320: 7899 b8bb c970 483b 9a83 7d3a 9406 54bb
00000330: 30f4 dfbb acf9 753a 92ef 9f39 dc1b 7b3b
00000340: c035 5dba 1f5e 7fbb 5ee4 043c c3a9 19bb
00000350: b8fa a3bb 34bf 8db9 52eb 833a 76c9 78ba
00000360: 760a a8bb e3c1 4d3b faf1 1f3b 6564 da3b
00000370: 19a1 19ba e5b1 af3b 13d9 b739 b2e9 4eb9
00000380: 6ada a8bb ff01 cd3a f971 b9bb aee8 b53b
00000390: d702 48bb 1409 a53b b22e 9dba 862b a73b
000003a0: 5ee8 c33b eaa2 643a 3dc6 ccbb 97dc 303c
000003b0: 94e7 083c d653 0fbc bf45 3c3a c843 d73b
000003c0: 3eee 7e3b e8f2 d13a 9bec a2bb 9416 e7bb
000003d0: 7d36 433c de0b e639 7c74 d63b 469d 123b
000003e0: fb0a 533b b1ef e5bb 5a18 7b3b 06c3 82bb
000003f0: bbf1 c53c e896 c5bb c502 5bbb c4b8 5b3b
-0.0035699478 -0.00081126345 0.0009756246 0.019864107 -0.0075028096 0.0128776245 0.0023932667 -0.0007689549
0.0062649297 0.00012002181 0.001887202 -0.006269729 0.0059950138 0.008759293 0.0016971575 -0.0033922624
-0.001985972 -0.0024466997 0.005152781 0.006184108 0.010143197 0.000982415 -0.0056890557 -0.007435505
0.005851108 -0.002445969 0.0059293793 0.0015316629 -0.0012410046 0.0014872175 0.00203237 -0.00039061144
0.0047134813 0.010268913 -0.009634669 -0.0028765164 0.0060892166 0.0010180995 0.00019246692 -0.0010221896
-0.004667022 -0.01052341 0.0027509774 -0.0010079278 0.00497998 0.0027790007 0.011211481 0.0057609533
0.0030192486 -0.0017937595 -0.0038170854 -0.00018172874 -0.009392659 0.0006783121 0.004611153 0.009708004
-0.0017600257 0.00058914046 0.0026484148 -0.012302389 0.008604313 0.0017522449 -6.32106e-05 0.0048160194
-0.013876184 -0.0008665594 -0.0083568515 0.0052710343 0.0043666996 -0.0125268595 0.008631764 -0.0044258586
-0.0068560583 0.003925347 0.0051439046 0.0024814813 0.0029839706 0.0016662587 0.016697321 -0.008524127
0.006832282 0.0091962265 -0.008274543 0.003455534 0.0050271493 -0.001063975 0.010026521 -0.0029571478
0.011552476 -0.011694492 -0.0007913274 0.0026436814 -0.0044010975 -0.0013539067 0.002425004 0.00490169
0.007011722 -0.00092871516 0.00135903 -0.008906679 0.0007407542 0.00019350149 0.0041112076 0.009751813
0.015012263 -0.0060971556 0.00775124 -0.002204743 -0.0011700785 -0.008539854 0.003334044 -0.0024364216
-0.00896296 9.941798e-05 0.012076259 -0.012367077 -0.006350778 0.009475562 -0.0052866912 -0.013837063
0.0030325332 0.0044327583 0.00045847148 -0.006050636 0.0037693426 -0.0005359081 -0.0057424684 0.0052079298
-0.004829864 0.0019572885 -0.0003988725 0.007927515 0.00144681 0.00020915037 0.0017908472 0.0062410138
-0.003019011 0.0015940757 0.0024913934 -0.0021397362 0.0019566172 -0.009732905 0.0058399937 0.001577472
0.0043451767 -0.007906944 -0.0056463033 -0.005419977 -0.004052783 -0.0035248937 -0.0015304408 0.0011777872
0.0018834196 -0.003251292 -0.001124974 0.00505148 -0.0009755489 0.003112806 0.008796221 -0.0020971668
0.00354562 0.010776218 0.0009985458 -0.011159856 -0.0024155946 -0.0013296797 -0.006085475 -0.005763658
0.0045205983 0.003909853 0.00031199248 -2.1276908e-05 0.00620565 -0.0012118397 0.0021622714 -0.0014488325
-0.0012836354 0.002493749 -0.0030967898 0.0065025366 0.0030702325 -0.0026964236 -0.0009183125 0.0019585632
0.0013988597 0.005424586 0.007033155 -0.010288906 0.0023433594 -0.0012689558 -0.011609521 0.004652497
-0.0004009836 -0.00094873307 0.003792743 0.0019427533 -0.0029975958 -0.002391175 -0.0018584508 -0.0011754666
-0.0056335293 0.0030584803 0.0009670794 -0.0032352554 -0.0068345293 0.00093832123 0.00030505337 0.0038316166
-0.00084384903 -0.0038966013 0.008111088 -0.0023447133 -0.0050042532 -0.00027036073 0.0010064638 -0.0009490469
-0.0051282 0.0031396083 0.0024405704 0.0066648 -0.0005860492 0.005361783 0.00035066213 -0.00019732749
-0.00515299 0.0015640854 -0.0056593386 0.005551419 -0.003051927 0.0050364826 -0.0011992066 0.005101624
0.005978628 0.0008721786 -0.006249218 0.01079478 0.008355994 -0.008748015 0.0007182024 0.0065693595
0.0038899328 0.0016017826 -0.004972053 -0.007052252 0.0119148465 0.0004387786 0.0065446477 0.0022371574
0.003220259 -0.007017099 0.0038314075 -0.0039905338 0.024163118 -0.0060299523 -0.0033418399 0.0033526877

layer3.fc2.bias f4 [84]
00000000: 84f2 0b3c 32ff c73b b37a 613c 5b3f 3bbc
00000010: affb 6abd fdcc 88bc 09af 4dbc 7fb6 873c
00000020: cb6b f8bb 9707 38bc 4001 8f3e 952e 26bc
00000030: c96e c6bb 2acd 693c 28c1 20bc be76 9fbb
00000040: 3df3 333c 7213 d03b c658 02bc 566a 653c
00000050: ac29 3bbb 00ba 553c 233f c6ba f801 9dbc
00000060: 6946 2bbc cc84 adbc c6ce 7f3b 2898 7e3d
00000070: 27a1 203c c5eb 423b 908a 353c 7664 33bc
00000080: 8689 20bc 18cb c83b 2502 93bb 72d8 7c3c
00000090: 2845 a7bd eded 38bb 7b86 4c3c 8af9 17be
000000a0: 094a 43bb f7c1 9d3e 5961 ebbb 60a9 7cbb
000000b0: 8792 53bc 8881 c93b 6ff1 19bd 65a8 99bb
000000c0: e444 503b 958d 7e3b e1e8 653c b03a 583e
000000d0: 3010 f93a b26c 37bc 68cd d7bb fd5d 8abc
000000e0: 10cc ff3b 70d4 bfbc 3ca3 fa3b 9ec0 ec3a
000000f0: 4861 f73a 2f66 3dbc 32c0 8f3c 74c6 bf3b
00000100: 8bf9 e4ba fa42 173c 64da 11bb 5c0e 86bc
00000110: f185 563b fe3f d6ba f245 023e 52c2 5dbc
00000120: 69fb 6e3b 39e9 263c 2aa2 8a3c f1fa a8bb
00000130: 86d0 3ebb 3610 e1bd 4116 5bbc 46c1 2cbe
00000140: 1e48 ba3b 2253 03bc 4308 b0bb 5d96 8e3c
0.008541707 0.0061034197 0.013762164 -0.011428679 -0.05736893 -0.016699309 -0.012553939 0.016566513
-0.0075812093 -0.011232278 0.2793064 -0.010142942 -0.006055687 0.014270106 -0.009811677 -0.00486645
0.0109832855 0.0063499743 -0.007955736 0.014002403 -0.0028558774 0.013044834 -0.0015125017 -0.019165978
-0.010453799 -0.021181487 0.0039033159 0.062156826 0.009804047 0.002974258 0.011080399 -0.010949245
-0.009798413 0.0061277263 -0.0044863396 0.015432464 -0.081674874 -0.0028217987 0.0124832345 -0.14841285
-0.0029798767 0.30812046 -0.0071832356 -0.0038553104 -0.012913353 0.0061494745 -0.037583765 -0.0046892636
0.0031779343 0.0038841714 0.014032573 0.21116138 0.0019002017 -0.011195349 -0.0065857656 -0.01689052
0.0078063086 -0.023416728 0.0076488536 0.0018062775 0.0018873597 -0.011560007 0.0175477 0.005852515
-0.0017469389 0.009232277 -0.0022255415 -0.016364269 0.0032733644 -0.0016345975 0.12721995 -0.013535099
0.003646577 0.010187441 0.016923029 -0.0051568677 -0.002911599 -0.1098942 -0.013372005 -0.16870603
0.0056848666 -0.008015426 -0.0053720786 0.017405683

layer3.fc3.weight f4 [10, 84]
00000000: ccb1 3fb8 ff96 4dbb c972 6f39 d79f 9e3a
00000010: ab34 883d c9b3 2e3c 1af3 4a3c 5956 28bc
00000020: 6a32 d1bb 27e1 bc3b 404c 56be ad69 7e3a
00000030: 101b 7c39 8274 33bc 125d 2dbc ba2c 083b
00000040: f577 203b ed81 31bb 145b c8bb 9089 223c
00000050: 4d0b a0ba b5c7 47bc dd10 bbba a0ef d1b9
00000060: 4801 e93b 6e31 613c 2a5c 8d3b d4d3 c83d
00000070: 2906 093c a190 583b ba90 ee3a 9472 953b
00000080: 00a4 7c3c 285d a83a b2c2 f3bb 95bb 31bb
00000090: ec42 01bc ea17 b53a a6f2 a33b fa2a 473b
000000a0: de87 28bb 8e80 6a3c 4b75 323b d0b7 8cba
000000b0: 87b0 c5bb 65ae 00bc 2ba8 22bb 6009 a6bb
000000c0: 2aa6 28bc ff1e 6aba f1d0 37bb 24b2 303d
000000d0: 5ff2 813b 5e21 9d3a 43ac d539 897a ac3b
000000e0: a41c 173c e5db 81be 9044 813a 50a2 e43b
000000f0: 6ffe 6fbb c225 633b 1669 e43b 456b cfbb
00000100: 21d3 4fbc c042 223a 4a78 033b 6432 e7bb
00000110: a8da 24bb 69b4 d23b f07c 24be e9ad c4bb
00000120: f1ab 023b 0b03 11bc a08d 82bc e163 103b
00000130: 1f0e df3a 31a0 653d 42a4 703c 841f 113e
00000140: d26b d5bb ab97 a63b e416 f1b8 e637 d5b9
00000150: 7141 523a 66a5 0b39 6555 1939 ebf0 81bb
00000160: 719a de3c 8c75 99bb dc47 f8bb 2513 6e3b
00000170: 6b41 d93b fe7b a6bb d6e8 79bd 967b 71bb
00000180: 1f32 a43a ff72 f13b 8328 823b f047 1ebb
00000190: 037c e8bb 7e87 3f3a 3fb4 1a3b fe19 d5bb
000001a0: bdcb 073b 6efc c03b 53db c5ba b2b0 15ba
000001b0: 004b 4cbb 39f5 833e 81dc b8bb f3bc 14be
000001c0: 717a eabb e018 afbb 8fce 9f3a 5156 b5bb
000001d0: 5b19 4dbb d38f 1fb9 656c 8f3b 347d a23b
000001e0: 3cce b13d d15f a8b9 c70f 1ebb 4dc2 843d
000001f0: 5047 813b f53b 2dbe 1b0f bdbb 2f63 91bb
00000200: 0de8 173b d30a 803b 00f7 273e 7ea8 32bb
00000210: c01d ef3a b6cf b73b 3ac8 6c3b 4441 a4be
00000220: fc4b 99bb 6e29 bbb9 338e b53b 2eda 54bb
00000230: 3431 b9bb 3cd8 073d 13a7 483b a877 9fbb
00000240: 751e 4939 1a0f ea3a 6f19 9ebb 7e96 133c
00000250: 6509 d13b 2c44 4a3b dec0 3b3b 6ba5 683b
00000260: 5e87 5a3b 6b81 93bb 5a0d 0ebe e4d5 89b9
00000270: 1a8c 233b 69ae d33b 96df 493b c138 53bb
00000280: 7da0 1dbb 26e3 d7bc 11c6 13bc 59fe 08bd
00000290: 118b f33b be88 18ba 89c1 6abb 0f6b 2d3b
000002a0: 23f9 883b 2e1c 44bb d8d7 d2ba a274 f03b
000002b0: b049 9ebd dda1 5eba 8f88 cdbb 104e 9539
000002c0: fd4d fcbb 370d d63b 3ebe 94bd 5955 df3b
000002d0: cb02 c0b9 e862 5dbb 7db2 663b 1e98 f93b
000002e0: 4768 bc3b 9ddb 5dba 1b0d 0c3b 42d2 193a
000002f0: 8021 c2bb fa9f 94b7 cb2c 673b 55a3 8e3a
00000300: a784 91bb 4f58 73bd d919 1e3c 7c4b 3c3e
00000310: 9485 7b3a 8e7c 3b3b dc95 1dbc b103 1a3b
00000320: 7e89 c6ba 033e ebb8 2c8d c1ba a509 8bbb
00000330: 2c8d b2bc 0106 273b 0ac4 32bb 29c0 8bbd
00000340: f1af 02bc 2d9a 0d3e 8207 7c3b 1236 d93b
00000350: f572 913b a75e a2bb 87d6 0d3c 6f5d cdbb
00000360: 49ce 753a 9bd2 08bc 2eb2 dbbb 6103 fd3d
00000370: 5493 23ba ae2b 1f3b bc48 473b 3a59 143a
00000380: 94d5 69ba 34a8 d43c e0bd d03b cea6 c13b
00000390: e3b9 49bb f4c7 de3b 7fa3 2e39 438d 0c3b
000003a0: f65d 8f3b 5157 9bbb 7e30 1dbc 6ba2 b03b
000003b0: 3162 dbba 20f5 ce3b 568d 533b 392d 983b
000003c0: 1a0a 0dbc 5a27 dfb9 fdd8 303c 6c6d b8ba
000003d0: 562e 243b 50d3 383d 20b0 073b d8d6 79be
000003e0: 87e3 abbb 3c74 043c e64c 7f3b a8e3 85bb
000003f0: 8f47 5dbb ff0e eb3a 88d5 103b 5a20 7fb7
-4.5703535e-05 -0.0031370518 0.00022835577 0.0012102079 0.066506706 0.010662981 0.0123870615 -0.010274493
-0.0063841837 0.005764145 -0.20927525 0.0009705078 0.00024042674 -0.010953071 -0.010581272 0.0020778612
0.0024485562 -0.0027085498 -0.006114373 0.009920493 -0.0012210399 -0.01219361 -0.0014271993 -0.0004004212
0.0071107484 0.013744695 0.0043139653 0.09806028 0.008363285 0.003304519 0.0018201091 0.004560778
0.01541996 0.0012845146 -0.007438981 -0.0027119864 -0.007889491 0.0013816331 0.005003291 0.0030390606
-0.0025715749 0.014312876 0.0027230557 -0.0010735933 -0.0060330066 -0.007854079 -0.0024819474 -0.0050670356
-0.010293523 -0.00089310104 -0.0028048123 0.04313864 0.0039656605 0.0011988094 0.0004075487 0.0052636308
0.009223137 -0.2536308 0.0009862352 0.006977357 -0.003662016 0.0034659957 0.006970535 -0.006329926
-0.012684614 0.0006189756 0.0020060712 -0.0070555676 -0.0025154743 0.006430198 -0.16063285 -0.006002177
0.001993891 -0.008850823 -0.015936673 0.0022032189 0.0017017758 0.056060974 0.0146876 0.14172179
-0.0065130973 0.005083998 -0.00011496039 -0.00040668173 0.0008020616 0.00013317689 0.00014623029 -0.0039654872
0.027173253 -0.004683202 -0.0075769257 0.003632733 0.006630113 -0.005080699 -0.061013065 -0.0036847345
0.0012527144 0.007368445 0.0039721145 -0.0024151765 -0.0070948615 0.00073062617 0.002360597 -0.0065033427
0.0020720803 0.005889467 -0.0015095271 -0.00057102286 -0.0031172633 0.25773028 -0.0056415205 -0.14525203
-0.0071557094 -0.0053435415 0.0012192297 -0.0055339714 -0.003129563 -0.00015217 0.0043769353 0.004958773
0.08681914 -0.00032114846 -0.002411829 0.064823724 0.0039452687 -0.16917403 -0.005769623 -0.0044368724
0.0023179085 0.0039075403 0.16402817 -0.0027261074 0.0018243119 0.005609478 0.0036130087 -0.32081044
-0.0046782475 -0.00035698287 0.005540633 -0.0032478678 -0.0056516174 0.0331652 0.0030617162 -0.004866559
0.000191802 0.0017857284 -0.0048248093 0.009008048 0.0063792937 0.0030863388 0.0028648893 0.0035498987
0.0033344845 -0.004501512 -0.1387228 -0.00026290037 0.0024955333 0.0064600003 0.0030803434 -0.0032229873
-0.0024051957 -0.02635343 -0.009019391 -0.03344569 0.0074323495 -0.0005818716 -0.0035820922 0.0026461517
0.00418009 -0.0029924023 -0.0016086055 0.0073381225 -0.077288985 -0.00084927474 -0.0062723826 0.00028477656
-0.0076997266 0.006532337 -0.07262848 0.006815594 -0.00036623175 -0.0033780877 0.0035201602 0.0076170107
0.0057497355 -0.0008463206 0.0021370116 0.00058678177 -0.0059244037 -1.771747e-05 0.0035274501 0.0010882417
-0.004440862 -0.05941039 0.009649717 0.1838817 0.0009594795 0.0028608176 -0.009618249 0.0023500735
-0.0015147177 -0.00011217224 -0.0014766804 -0.004243093 -0.021795832 0.0025485756 -0.0027277493 -0.06823761
-0.007976518 0.13828345 0.0038456623 0.00662876 0.004438753 -0.004955131 0.008657104 -0.0062672417
0.0009376747 -0.0083509935 -0.0067045903 0.1235416 -0.000623991 0.002428751 0.0030408343 0.0005659048
-0.000892007 0.025959112 0.006370291 0.0059097772 -0.0030780963 0.0067987386 0.0001665484 0.0021446503
0.0043752147 -0.0047406335 -0.009594081 0.0053904555 -0.0016737637 0.0063158423 0.0032280288 0.004644063
-0.008608365 -0.00042563194 0.010793922 -0.0014070696 0.0025052032 0.0451234 0.0020704344 -0.24398363
-0.005245629 0.008084353 0.0038955747 -0.0040859766 -0.0033764576 0.0017933546 0.002209993 -1.5206717e-05

layer3.fc3.bias f4 [10]
00000000: c50c 0bbe a6ec b3be acca a73e aae1 083f
00000010: 55b7 ac3e 2dee 01bd fe6f babd 7038 8abe
00000020: 0917 a7be 0361 50bd
-0.1357909 -0.35141486 0.32771814 0.53469336 0.3373362 -0.031721283 -0.09103392 -0.26996183
-0.32634762 -0.050873768
