output/models_cifar10_140.pth (torch_old, 248636 bytes, 10 tensors)

layer1.conv1.weight f4 [6, 1, 5, 5]
0.010348233 -0.19985262 0.053901188 -0.118309446 -0.05990377 0.26974756 -0.20805481 0.4105751
-0.08823991 0.2050343 0.085740864 -0.48369572 0.35202754 -0.31355038 -0.0450186 0.2734584
-0.45797566 0.4972538 -0.22970504 0.0950942 0.20783406 -0.4968833 0.42492783 -0.18329185
-0.011383619 0.00084465294 -0.016122064 -0.036302123 0.08086075 -0.02208446 0.0371979 0.118634515
-0.41706803 0.054572333 0.1966346 -0.05038878 0.25525284 0.3659982 -0.8549813 0.24410884
0.07137001 -0.4323016 0.61501354 0.10793101 -0.3184142 0.021421066 0.022484578 -0.29073432
0.31340924 -0.0676576 -0.018820772 0.0024014236 -0.028110223 0.10377584 0.037109755 -0.04801832
0.0022241287 0.12116088 0.05059269 -0.04776912 -0.28356677 0.04686137 0.22858334 -0.085648626
-0.031861257 -0.3466493 0.31337166 0.18158501 -0.07103228 0.01007739 -0.3968786 0.2504689
0.0012695984 0.037772927 -0.071922116 -0.08957314 -0.2979942 -0.08918595 -0.05002173 0.058564622
0.22840951 0.7089343 0.32406986 0.20524067 -0.015626237 -0.10458489 -0.36901248 -0.17376888
-0.08116847 -0.030232742 0.0764448 -0.06262115 -0.09376505 0.08170382 0.1583889 -0.07432414
0.018569944 -0.06097818 -0.07171101 -0.07337971 -0.07988041 0.054676212 -0.022405792 0.070711836
-0.09482836 -0.004318776 0.05843393 0.058288123 -0.10988428 0.1014389 -0.20335172 -0.31148633
-0.07041983 -0.019488243 -0.26345795 0.1805705 0.1297753 -0.14536673 -0.076715685 0.15839307
-0.02495836 0.06251664 0.119453415 0.047043443 -0.0976354 0.03286124 -0.1828981 0.26766914
-0.032961376 -0.05566426 -0.117447354 0.3552126 0.24511072 -0.4998025 -1.1863949e-05 0.14347169
0.29238722 -0.8458407 0.05424844 0.2578939 -0.011432933 -0.26013693 -0.09772076 0.5217161
-0.17260838 0.094728045 -0.12077344 0.21120234 -0.12981842 0.0039099874
00000000: a38b 293c 2aa6 4cbe 7ec7 5c3d 394c f2bd
00000010: a85d 75bd 5a1c 8a3e 520c 55be e636 d23e
00000020: 20b7 b4bd 83f4 513e e898 af3d f7a6 f7be
00000030: f43c b43e ad89 a0be 6c65 38bd bd02 8c3e
00000040: c97b eabe 0d98 fe3e cc37 6bbe bfc0 c23d
00000050: 74d2 543e 7d67 febe 2490 d93e dcb0 3bbe
00000060: 5c82 3abc b36b 5d3a 6b12 84bc 89b1 14bd
00000070: 529a a53d 78ea b4bc d35c 183d a7f6 f23d
00000080: f189 d5be 3d87 5f3d 955a 493e 7764 4ebd
00000090: 80b0 823e 1e64 bb3e 0ee0 5abf abf7 793e
000000a0: 712a 923d a356 ddbe 8771 1d3f ef0a dd3d
000000b0: 3007 a3be 3b7b af3c 9431 b83c 21db 94be
000000c0: 2d77 a03e 1190 8abd 052e 9abc 3461 1d3b
000000d0: 6947 e6bc 6d88 d43d 6600 183d dcae 44bd
000000e0: b0c2 113b 3223 f83d 483a 4f3d 8ea9 43bd
000000f0: aa2f 91be b5f1 3f3d c011 6a3e 8c68 afbd
00000100: f380 02bd 047c b1be 4072 a03e 6cf1 393e
00000110: 5f79 91bd a31b 253c ac33 cbbe 763d 803e
00000120: a768 a63a c9b7 1a3d e74b 93bd 1f72 b7bd
00000130: b292 98be 20a7 b6bd 96e3 4cbd 75e1 6f3d
00000140: 2fe4 693e b87c 353f 7cec a53e 9c2a 523e
00000150: 9802 80bc 9a30 d6bd 34ef bcbe 78f0 31be
00000160: a83b a6bd a8aa f7bc 178f 9c3d 843f 80bd
00000170: e407 c0bd 5554 a73d b330 223e 4137 98bd
00000180: ff1f 983c 42c4 79bd 39dd 92bd 1a48 96bd
00000190: 5798 a3bd 2af4 5f3d 5a8c b7bc 5ed1 903d
000001a0: 5f35 c2bd 8584 8dbb 6b58 6f3d 87bf 6e3d
000001b0: 020b e1bd 33bf cf3d 6f3b 50be 237b 9fbe
000001c0: 4638 90bd cfa5 9fbc f6e3 86be 79e7 383e
000001d0: d1e3 043e 04db 14be 1d1d 9dbd cb31 223e
000001e0: 7975 ccbc b908 803d fea3 f43d a0b0 403d
000001f0: 12f5 c7bd 8299 063d a449 3bbe ee0b 893e
00000200: 8202 07bd 3500 64bd 3d88 f0bd 6dde b53e
00000210: 4efe 7a3e 1de6 ffbe 460b 47b7 3eea 123e
00000220: c7b3 953e 0489 58bf 9d33 5e3d ab0a 843e
00000230: 3251 3bbc ab30 85be d221 c8bd 308f 053f
00000240: 40c0 30be c700 c23d 1158 f7bd 6d45 583e
00000250: 1fef 04be 5a1f 803b

layer1.conv1.bias f4 [6]
-0.2671609 -0.24710272 -0.27379337 -0.25452 -0.26342466 -0.28166628
00000000: 50c9 88be 7f08 7dbe a52e 8cbe 7250 82be
00000010: 99df 86be 9036 90be

layer2.conv2.weight f4 [16, 6, 5, 5]
0.024441512 -0.0071918587 0.04683412 0.14341591 0.005920618 0.061795685 -0.045115706 0.07837801
0.03844529 0.17088799 -0.008525649 0.017937336 0.01873394 0.045309406 0.06463932 0.15194577
-0.06508127 0.063587636 0.12015137 -0.0509901 -0.2828664 -0.23863389 -0.6962669 -0.64598507
-0.43212432 0.22137992 0.10648182 -0.019546092 -0.033801492 0.11205925 0.14126779 0.1959756
0.09235486 0.10219387 0.13650432 0.32442445 0.16940977 0.123278044 0.069852434 0.13687888
0.31094384 0.10265431 0.18434209 0.020219395 -0.0627207 0.35116228 0.008973834 -0.15649876
-0.19029726 -0.02809401 0.0859265 0.1462158 0.00878521 0.11675668 0.0077595734 0.086978056
-0.019562278 0.07304759 -0.046069928 0.1251493 -0.01925097 -0.046286292 0.033850607 0.08745971
-0.034764003 -0.25502506 0.034226686 -0.08735656 0.091486074 0.10747753 -0.082140766 -0.28650662
-0.45322484 -0.43349072 -0.18632188 0.2896598 -0.09612436 -0.0788146 -0.06998633 0.17259069
0.1881537 0.034058798 0.18716277 0.024405275 -0.024748541 0.08534835 0.23920053 0.14203982
0.23641272 -0.024765858 -0.14149056 0.2021967 0.12176244 0.24416953 -0.048332755 -0.07747391
0.22214875 0.25876546 0.25555122 0.34029478 0.2372565 -0.042843543 0.015523436 0.07332439
0.1345115 0.36884943 0.06588655 0.16900702 -0.02584325 0.19916062 0.33536288 0.056905057
0.2518808 0.06994021 0.29942957 0.1277292 0.16397819 0.52549106 0.28347334 -0.010395739
-0.22500533 0.54741687 0.5402301 0.12065753 -0.22991665 -0.082300656 -0.07991823 0.07403339
0.07671857 0.06262881 -0.02784017 -0.16266556 -0.025841312 0.18762848 0.32804164 0.03871508
-0.11852588 0.06444552 0.11754811 0.20520905 -0.06718554 0.050664447 -0.06321393 0.09246716
0.32516873 0.026198052 0.07541558 -0.15623367 0.04391374 0.22507806 -0.054326452 0.08909531
0.035347857 0.13227142 -0.11038229 0.109825455 -0.074502826 0.08120753 -0.20874994 -0.034987528
0.18944009 0.32100406 -0.20869948 -0.017559437 0.01071976 -0.19702578 -0.3147421 0.120613426
-0.012183356 -0.18657015 -0.106358446 0.07995366 -0.33329716 -0.37730742 -0.124981515 0.15131979
0.19214709 0.14471795 0.28241798 0.07371149 0.16981061 0.17659958 -0.23500693 0.33458862
0.14644384 -0.21763232 0.2975212 -0.44831684 0.17591432 0.0062466376 0.0036371097 -0.14970604
-0.38972706 -0.49434477 0.10687036 0.30714098 0.3201747 0.53152144 -0.03681674 -0.47940162
-0.03667602 0.06782185 0.13035373 -0.062270097 0.090105355 0.08838003 -0.3042631 0.08869503
0.13217877 -0.2896589 0.14136511 0.33501068 -0.248458 0.6161561 0.039834782 -0.009632427
0.19772065 0.25323632 0.2575971 0.25174162 0.09985868 -0.075469285 0.041668817 -0.009202588
0.26955456 0.030314133 0.04753762 -0.1121616 -0.018604308 0.124402635 -0.035139084 0.082809314
-0.18254583 -0.20567875 0.16773133 -0.25847027 -0.11131732 -0.08666776 -0.23760135 -0.06489136
0.055975635 -0.19696991 -0.13774064 -0.20437157 -0.26974627 0.14972205 -0.1037693 -0.06538963
0.17984925 -0.22320236 0.107335575 0.15680633 -0.39294454 -0.078284875 0.17574663 -0.21932156
00000000: 9139 c83c afa9 ebbb 22d5 3f3d 9fdb 123e
00000010: be01 c23b 791d 7d3d 3fcb 38bd a684 a03d
00000020: cf78 1d3d 43fd 2e3e 2aaf 0bbc 52f1 923c
00000030: eb77 993c 5b96 393d 9f61 843d ac97 1b3e
00000040: 5449 85bd 3c3a 823d ec11 f63d ffda 50bd
00000050: ddd3 90be 715c 74be 8c3e 32bf 475f 25bf
00000060: 663f ddbe 6bb1 623e 2413 da3d 201f a0bc
00000070: 6f73 0abd 527f e53d 81a8 103e d4ad 483e
00000080: 8b24 bd3d 054b d13d cac7 0b3e f61a a63e
00000090: c179 2d3e 3379 fc3d cb0e 8f3d fa29 0c3e
000000a0: 0834 9f3e 6c3c d23d 2cc4 3c3e 25a3 a53c
000000b0: b673 80bd 8bcb b33e fd06 133c 3641 20be
000000c0: 49dd 42be 6925 e6bc 3cfa af3d 98b9 153e
000000d0: d7ef 0f3c 201e ef3d 0544 fe3b 8d21 b23d
000000e0: 1241 a0bc fa99 953d d2b3 3cbd 2327 003e
000000f0: 36b4 9dbc b296 3dbd efa6 0a3d 141e b33d
00000100: b364 0ebd a592 82be 4831 0c3d ffe7 b2bd
00000110: 0d5d bb3d 2e1d dc3d 6b39 a8bd ffb0 92be
00000120: 160d e8be 7ff2 ddbe 2acb 3ebe 4a4e 943e
00000130: d9dc c4bd 8d69 a1bd fe54 8fbd 9dbb 303e
00000140: 5dab 403e 3d81 0b3d 99a7 3f3e 92ed c73c
00000150: 74bd cabc 1ecb ae3d fcf0 743e e372 113e
00000160: 2d16 723e c5e1 cabc e7e2 10be a70c 4f3e
00000170: 965e f93d 9407 7a3e 91f8 45bd a4aa 9ebd
00000180: f67a 633e e87c 843e 9cd7 823e 1e3b ae3e
00000190: 5ef3 723e b67c 2fbd 0256 7e3c 192b 963d
000001a0: 62bd 093e d5d9 bc3e 87ef 863d 2d10 2d3e
000001b0: 39b5 d3bc c3f0 4b3e afb4 ab3e 4715 693d
000001c0: 85f6 803e d03c 8f3d d54e 993e 72cb 023e
000001d0: e6e9 273e 9586 063f 6b23 913e e452 2abc
000001e0: cc67 66be 8323 0c3f 854c 0a3f 4c1b f73d
000001f0: 456f 6bbe 3f8d a8bd 2bac a3bd d19e 973d
00000200: a01e 9d3d 8943 803d 1111 e4bc cd91 26be
00000210: 29b1 d3bc ae21 403e 13f5 a73e b493 1e3d
00000220: b2bd f2bd 03fc 833d 10bd f03d 5222 523e
00000230: 9398 89bd 8685 4f3d 4e76 81bd 6c5f bd3d
00000240: 847c a63e 4c9d d63c 7c73 9a3d b8fb 1fbe
00000250: e5de 333d dd7a 663e 6a85 5ebd 9a77 b63d
00000260: eac8 103d 2972 073e 1c10 e2bd 2bec e03d
00000270: f094 98bd 2250 a63d 8bc2 55be 154f 0fbd
00000280: 95fc 413e a55a a43e 51b5 55be cfd8 8fbc
00000290: efa1 2f3c 20c1 49be e025 a1be 2c04 f73d
000002a0: b39c 47bc 3f0c 3fbe 75d2 d9bd bfbe a33d
000002b0: eda5 aabe 702e c1be 4ff6 ffbd 93f3 1a3e
000002c0: 35c2 443e f130 143e 1799 903e 0df6 963d
000002d0: d5e2 2d3e 85d6 343e a8a5 70be 334f ab3e
000002e0: 60f5 153e 02db 5ebe b354 983e c989 e5be
000002f0: e222 343e 98b0 cc3b 935c 6e3b 8a4c 19be
00000300: 4e8a c7be c21a fdbe d9de da3d 9541 9d3e
00000310: f0ed a33e ca11 083f 26cd 16bd 2174 f5be
00000320: 9839 16bd 2fe6 8a3d 737b 053e ee0e 7fbd
00000330: 2889 b83d 9700 b53d 5fc8 9bbe bda5 b53d
00000340: df59 073e 2c4e 94be 04c2 103e 8586 ab3e
00000350: c66b 7ebe 68bc 1d3f cc29 233d 54d1 1dbc
00000360: 4877 4a3e 31a8 813e c4e3 833e 47e4 803e
00000370: b582 cc3d a48f 9abd ecac 2a3d 74c6 16bc
00000380: 0e03 8a3e 5855 f83c cfb6 423d fbb4 e5bd
00000390: 1068 98bc cfc6 fe3d 00ee 0fbd ee97 a93d
000003a0: 4bed 3abe 739d 52be c3c1 2b3e 3756 84be
000003b0: 56fa e3bd de7e b1bd c54d 73be c3e5 84bd
000003c0: b546 653d 7bb2 49be e20b 0dbe c846 51be
000003d0: 2f1c 8abe bd50 193e 0085 d4bd 00eb 85bd
000003e0: 672a 383e 298f 64be c1d2 db3d d791 203e
000003f0: 0730 c9be d253 a0bd edf6 333e d595 60be

layer2.conv2.bias f4 [16]
-0.50669223 -0.6533006 -0.55912346 -0.4193598 -0.5887365 -0.44167766 -0.42451686 -0.29209337
-0.6286204 -0.5160308 -0.40070632 -0.33326852 -0.27134648 -0.5089195 -0.5092995 -0.3587953
00000000: 95b6 01bf b53e 27bf b722 0fbf 54b6 d6be
00000010: 6fb7 16bf 9323 e2be 465a d9be 438d 95be
00000020: 44ed 20bf 981a 04bf 6129 cdbe 2ca2 aabe
00000030: eded 8abe 8c48 02bf 7461 02bf 04b4 b7be

layer3.fc1.weight f4 [120, 400]
-0.010396712 0.0008280319 -0.0021755605 0.01384428 0.00019443163 0.00066496426 -0.012757704 0.017357038
0.0024417327 0.0011126804 0.012520145 -0.006262414 -0.0009790265 -0.020419665 -0.016199121 0.006155989
0.006631861 -0.00644435 0.002717901 -0.009117181 0.015895754 0.0024784869 -0.00070455996 -0.03253683
-0.0036851286 -0.024986656 0.01614848 0.009936234 -0.004318651 0.03164918 0.004170805 0.005224804
0.016466338 -0.0069867643 0.011481751 -0.008536937 0.001262844 0.00745477 0.006964537 -0.022316454
0.006126116 0.027061846 0.011574677 0.0077758185 0.02585369 -0.028642362 -0.019149043 0.02800558
-0.02176336 -0.018228782 -0.013828181 0.006166608 -0.016048029 -0.0054808883 0.013757684 -0.031692155
0.0062975693 0.001639842 -0.005126366 -0.014032672 -0.006298468 0.013451226 -0.016115297 0.032815017
-0.012325416 -0.0016300533 0.0043192212 -0.023292292 -0.006397965 0.0059379255 0.00900128 -0.018890861
0.0074868174 0.007819766 -0.014646936 -0.0022684194 0.0067892354 0.010516171 -0.018676955 -0.020301247
-0.0026478004 0.0058068465 0.024488006 0.0012935038 -0.004717252 -0.018180527 0.0022684336 0.014706929
0.018891184 0.008661214 -0.01010914 -0.003075222 -0.0013554271 -0.0036728643 0.012277601 0.00077624683
-0.004133375 -0.012227091 -0.03671496 -0.0049168575 -0.00010911652 -0.02809749 -0.03309202 0.01109049
-0.003195733 0.009565683 0.0033843776 -0.027709903 -0.027040824 0.0024616322 0.0031736065 -0.010610809
0.01665075 -0.027117662 -0.01869029 0.018871758 -0.0051037595 0.01517505 -0.004677639 0.007644066
0.02438913 0.0026856204 0.013671375 -0.0042963573 -0.006345124 -0.004468444 0.0010165046 -0.0043236045
0.015489018 0.00926905 0.0040378245 -0.00064339535 -0.030652797 0.021490533 0.006124537 0.0039684526
0.021014122 -0.037096873 -0.031061107 0.005335566 -0.0010038213 0.0028294174 -0.0045254333 -0.014243799
0.010731146 0.0115527185 0.0009787617 -0.012758353 -0.005340912 -0.013157645 0.016174689 -0.0067915064
-0.026294556 0.006268527 0.022675026 -0.016145056 -0.0061948225 0.004314799 0.008139213 -0.005121922
-0.007296553 0.0055523324 -0.008602719 -0.010366712 0.026548577 -0.0004961708 0.0038825008 0.012029856
-0.0064329584 0.007399064 -0.0074948757 -0.0074005933 0.0016157927 -0.020482339 -0.010076895 -0.020778717
-0.010748434 -0.0061750896 0.009975716 0.009173108 -0.023136593 -0.0027579959 0.01926491 0.008761838
0.0057908446 -0.0056593027 -0.010102095 -0.020183034 0.009323286 0.003752624 -0.0049024248 0.011532924
0.0033929283 -0.022743361 -0.005382757 0.010230975 0.005987532 -0.012613099 -0.035140082 -0.024183255
-0.0023326837 -0.003539665 -0.002280049 0.020687932 -0.015726479 0.00059229956 -0.009417759 -0.011056995
-0.024630573 -0.023125952 0.00982856 0.006493357 -0.0013839188 -0.0076032113 -0.017481063 -0.008624873
-0.00022433406 0.025255436 0.02126495 0.010059751 -0.0036344323 -0.0066054547 0.0059377914 -0.0019578752
-0.022996912 -0.010723796 0.008602415 -0.00018110898 0.01694129 0.027193613 0.014478449 0.0057111885
-0.011999128 0.01013658 -0.0011681167 -0.0031889367 0.018400725 -0.0032116447 -0.017801158 -0.03495138
0.0057130107 -0.00076192326 0.013091554 0.017074145 0.0011987397 -0.026864817 -0.019909885 -0.005326673
-0.0045384774 0.02965668 -0.011917525 -0.015316415 0.04844076 -0.01870756 0.00585513 -0.017159127
00000000: f956 2abc 4810 593a d993 0ebb 1ed3 623c
00000010: 58e0 4b39 ff50 2e3a b005 51bc 5930 8e3c
00000020: 7a05 203b 5cd7 913a 4b21 4d3c f034 cdbb
00000030: ae52 80ba 2447 a7bc 05b4 84bc 2eb8 c93b
00000040: 1550 d93b 202b d3bb d01e 323b 3b60 15bc
00000050: d037 823c 1c6e 223b 38b2 38ba 5745 05bd
00000060: 3382 71bb d1b0 ccbc d149 843c 96cb 223c
00000070: 7883 8dbb 92a2 013d 40ab 883b d534 ab3b
00000080: 6ae4 863c 3af1 e4bb f41d 3c3c 82de 0bbc
00000090: 0386 a53a 2547 f43b c536 e43b ffd0 b6bc
000000a0: 96bd c83b ceb0 dd3c b7a3 3d3c 4bcc fe3b
000000b0: 1ecb d33c 63a3 eabc 74de 9cbc f56b e53c
000000c0: 1349 b2bc 8754 95bc 988f 62bc 4211 ca3b
000000d0: 2877 83bc 0699 b3bb e967 613c a2cf 01bd
000000e0: d75b ce3b f8ef d63a 13fb a7bb 4be9 65bc
000000f0: 6163 cebb 8862 5c3c 3a04 84bc 0a69 063d
00000100: 8bf0 49bc 83a7 d5ba 4188 8d3b 7acf bebc
00000110: 05a6 d1bb ee92 c23b 1b7a 133c 02c1 9abc
00000120: fa53 f53b 7a1e 003c b4f9 6fbc c3a9 14bb
00000130: 3c78 de3b 054c 2c3c 6a00 99bc cd4e a6bc
00000140: b886 2dbb 5c47 be3b 129b c83c c98a a93a
00000150: 2e93 9abb 54ef 94bc 00aa 143b 55f5 703c
00000160: afc1 9a3c c4e7 0d3c cea0 25bc aa89 49bb
00000170: 96a8 b1ba 70b4 70bb fe27 493c 0b7d 4b3a
00000180: 4371 87bb 2354 48bc 6d62 16bd 971d a1bb
00000190: 7cd5 e4b8 b52c e6bc 7f8b 07bd e3b4 353c
000001a0: 816f 51bb 62b9 1c3c 6fcc 5d3b e1ff e2bc
000001b0: b884 ddbc 5653 213b 48fc 4f3b f5d8 2dbc
000001c0: 2767 883c dc25 debc 611c 99bc f298 9a3c
000001d0: 703d a7bb c6a0 783c e146 99bb 137b fa3b
000001e0: b6cb c73c 3c01 303b e7fd 5f3c 75c8 8cbb
000001f0: c2ea cfbb 066c 92bb 3c3c 853a 06ad 8dbb
00000200: a6c5 7d3c 37dd 173c ba4f 843b 88a9 28ba
00000210: 931b fbbc ea0c b03c 57b0 c83b cb09 823b
00000220: cf25 ac3c e4f2 17bd dd73 febc f9d5 ae3b
00000230: a792 83ba bf6d 393b 164a 94bb d35e 69bc
00000240: b0d1 2f3c 9d47 3d3c cb49 803a 6908 51bc
00000250: d102 afbb 2a93 57bc c880 843c 498b debb
00000260: ae67 d7bc 3768 cd3b fac0 b93c a342 84bc
00000270: f0fd cabb 2863 8d3b 555a 053c ccd5 a7bb
00000280: ec17 efbb 57f0 b53b 6bf2 0cbc 24d9 29bc
00000290: 677c d93c 7511 02ba 8e71 7e3b e018 453c
000002a0: 91cb d2bb d973 f23b 9397 f5bb ad80 f2bb
000002b0: 02c9 d33a 94ca a7bc 9019 25bc 2138 aabc
000002c0: 331a 30bc 6858 cabb 2f71 233c ce4a 163c
000002d0: f488 bdbc 7ebf 34bb 72d1 9d3c d08d 0f3c
000002e0: 20c1 bd3b ac71 b9bb 4283 25bc e456 a5bc
000002f0: b2c0 183c 95ee 753b 85a4 a0bb 97f4 3c3c
00000300: e45b 5e3b 4950 babc d761 b0bb d29f 273c
00000310: 0f33 c43b 2ca7 4ebc 0cef 0fbd f61b c6bc
00000320: f0df 18bb b9f9 67bb e06c 15bb bd79 a93c
00000330: d1d4 80bc 8d44 1b3a f24c 1abc 6628 35bc
00000340: 0ec6 c9bc a372 bdbc f807 213c 3ac6 d43b
00000350: 9c64 b5ba 5c24 f9bb 7234 8fbc 574f 0dbc
00000360: 373b 6bb9 7de4 ce3c d533 ae3c a7d1 243c
00000370: a82f 6ebb 9272 d8bb ce91 c23b b24f 00bb
00000380: 0564 bcbc dcb2 2fbc 25f1 0c3c 12e8 3db9
00000390: 76c8 8a3c 24c5 de3c 0437 6d3c ec24 bb3b
000003a0: fe97 44bc e613 263c 7e1b 99ba 7bfd 50bb
000003b0: 1ebd 963c 757a 52bb bcd3 91bc 2e29 0fbd
000003c0: 3534 bb3b cebb 47ba f57d 563c 14df 8b3c
000003d0: 081f 9d3a 9b13 dcbc 0e1a a3bc 5f8b aebb
000003e0: 82b7 94bb 91f2 f23c b941 43bc b3f1 7abc
000003f0: d169 463d 9940 99bc 64dc bf3b 4c91 8cbc

layer3.fc1.bias f4 [120]
-0.03121117 0.013200697 0.001154123 0.0044031153 -0.016161919 0.0028487772 0.020392459 -0.020710288
-0.012235389 0.0054857763 -0.013764231 0.0052849385 0.095985 0.016004063 -0.0063094916 -0.02310046
-0.010717776 -0.0060531558 0.028090145 -0.0007793325 0.009173465 -0.0008803273 0.028155874 -0.01668868
-0.009656484 0.018067434 0.012826283 -0.0020192782 0.020078002 0.010662461 -0.0048282812 0.020728765
0.25350472 -0.011004074 -0.012335755 0.0068449783 -0.055803347 -0.28893888 0.014069113 0.014053648
-0.0028289948 -0.009721303 -0.017976766 0.13612811 0.0033618142 0.016158309 -0.010659629 0.002037173
0.012265979 -0.0129267005 1.8543918e-05 0.021242006 0.0010980538 -0.013113434 -0.017644746 0.0056506013
-0.023346592 0.017918313 0.017974827 -0.00023349604 -0.009494356 -0.014139176 -0.102457285 0.14294787
-0.058610402 0.010746918 0.010188145 -0.022861302 0.0033859622 -0.0039167246 0.010442987 0.02417034
0.0050780023 0.031452905 0.011645062 0.014425168 0.0066738864 -0.01030215 -0.017762996 0.034930322
0.0004596403 0.0037506968 0.017153334 0.011794551 0.016410276 0.0021680088 0.0038723105 0.011101714
0.0026722616 0.0025735155 -0.008951385 0.00010996041 -0.012494497 -0.009638908 -0.005340377 -0.036480136
-0.00025623734 -0.006895014 0.12532863 0.0015571974 -0.004501702 0.000550831 0.007582745 -0.0066476655
-0.0008727038 0.0005156102 0.0056408443 -0.011711641 0.0066878595 0.004494809 -0.01942415 -0.0111899795
0.4226994 0.003004298 0.013121594 -0.010250757 0.01103999 0.012569912 0.0012136745 0.27850348
00000000: 91ae ffbc bc47 583c f145 973a 0248 903b
00000010: 0066 84bc 8db2 3a3b 160e a73c 9fa8 a9bc
00000020: f176 48bc 07c2 b33b 5e83 61bc 472d ad3b
00000030: c993 c43d f41a 833c dabf cebb 2d3d bdbc
00000040: 9c99 2fbc 8d59 c6bb 4e1d e63c 1e4c 4cba
00000050: 4d4c 163c c4c5 66ba 26a7 e63c b3b6 88bc
00000060: 3b36 1ebc 2802 943c 5525 523c de55 04bb
00000070: 9f7a a43c 9ab1 2e3c 8f36 9ebb 5fcf a93c
00000080: 5fcb 813e 6e4a 34bc e81b 4abc d74b e03b
00000090: 0d92 64bd ccef 93be 2382 663c 4641 663c
000000a0: a866 39bb 1a46 1fbc 0344 93bc 2b65 0b3e
000000b0: e251 5c3b 6e5e 843c b9a5 2ebc 1782 053b
000000c0: 3ff7 483c 83ca 53bc c38e 9b37 b703 ae3c
000000d0: 92ec 8f3a bbd9 56bc b78b 90bc ae28 b93b
000000e0: 5a41 bfbc 6dc9 923c f23f 933c 9ed6 74b9
000000f0: 378e 1bbc 01a8 67bc 20d5 d1bd ed60 123e
00000100: 7611 70bd d713 303c 2dec 263c a047 bbbc
00000110: 05e7 5d3b de57 80bb 1019 2b3c e000 c63c
00000120: 5f65 a63b c3d4 003d eeca 3e3c 8a57 6c3c
00000130: 9eb0 da3b 59ca 28bc b483 91bc 1913 0f3d
00000140: e0fb f039 40ce 753b 2685 8c3c ef3d 413c
00000150: d86e 863c 2715 0e3b 97c6 7d3b f7e3 353c
00000160: 1c21 2f3b 6da8 283b d4a8 12bc 8c9a e638
00000170: b8b5 4cbc 83ec 1dbc 54fe aebb 326c 15bd
00000180: 9857 86b9 92ef e1bb 2656 003e e01a cc3a
00000190: 0383 93bb a565 103a ad78 f83b a9d4 d9bb
000001a0: 29c6 64ba 042a 073a d5d6 b83b 2fe2 3fbc
000001b0: d525 db3b 3149 933b 651f 9fbc 2d56 37bc
000001c0: 0e6c d83e c2e3 443b f4fb 563c cbf2 27bc
000001d0: 13e1 343c 08f2 4d3c 2914 9f3a 0298 8e3e

layer3.fc2.weight f4 [84, 120]
-0.0034118525 0.0011257514 -0.0062450557 0.00678616 -0.0027209755 0.010775306 0.006194445 -0.003375403
-0.003647253 -0.010598515 -0.012082066 0.008564134 0.0046402644 0.0028268236 -0.0010499696 0.0012913859
0.0034479396 -0.0020194277 -0.0027008562 0.0032058267 0.006505815 0.001732826 -0.0049117706 -0.0069405558
-0.001316406 -0.008435492 -0.0074518765 0.002683822 0.0026362003 -0.0033134378 0.004295237 0.0019056118
-0.002968762 0.01160688 -0.005398672 -0.0021714082 0.0012085125 -0.0031579179 2.0787029e-05 -0.00859463
0.0009898959 0.005143572 0.0012697398 0.004434903 0.002343397 0.008682185 0.003924735 -0.002089895
-0.0036918821 0.0050482904 0.001446122 0.0057998104 -0.00918701 0.0011390345 0.00056340534 0.009410223
-0.0045118043 0.005611384 -0.0020781155 0.0034980506 0.014109165 -0.0052889944 0.011105628 0.0032798091
-0.0026402334 0.00326365 0.0058252057 -0.0015261369 -0.009499336 8.681558e-05 0.00036805283 0.00025703918
-0.0073282206 0.0061499933 -0.009538098 0.0047763884 -2.049e-05 -0.00014358474 -0.001198354 0.010240183
0.0072315326 0.009742978 0.0010354704 -0.012789905 -0.0027610427 0.0068155956 0.0045798607 0.0057016555
-0.0027852398 0.0031283393 -0.003417045 0.0005118657 -0.0050465562 -0.0068321936 -0.00872911 0.0011572558
-0.0024925645 0.002156487 0.001332276 -0.0071486016 0.00011703088 0.00045138926 0.0068966337 -0.0041385144
0.001541684 0.004793246 0.004126329 -0.004514035 -0.003258204 -0.0010467164 0.0036359811 -0.0034196961
0.0018269761 0.0039037783 0.00051769096 0.00087595475 -0.0024497632 0.001898174 -0.011308737 0.0047894847
0.009976832 -0.004252027 0.008246262 0.004373437 -0.0046450715 -0.018951058 -0.007176346 0.009596844
0.014783445 0.0012419388 -0.0031344006 -0.0124106165 -0.0067756176 -0.011061626 0.021930827 -0.0015003547
-0.0060942443 -0.00789394 0.0020922995 0.0030027288 0.003446615 -0.002146851 -0.0037425358 0.013439699
-0.003704365 0.008318331 0.0096281795 0.00899996 0.0015897764 -0.0018947533 0.011003317 -0.0024433401
-0.0031285645 -0.007040414 0.0050572674 -0.007378442 -0.006721577 0.019870391 -0.013350179 0.013253701
-0.005995219 -0.008494044 -0.009942883 -0.008575149 0.0075751543 -0.00615891 0.002218018 -0.0010209105
0.0057204105 -0.0019671875 0.0044643427 -0.018689437 0.00692286 0.007641498 0.0028638956 -0.008795556
-0.002244493 -0.009043979 0.0034767548 0.014240392 0.0045152707 0.006609589 0.003959615 0.0058612577
0.0049912035 -0.009878632 -0.0111540975 0.016052539 0.0074634817 0.011810987 -0.005524022 -0.0020055056
0.0016424434 -0.004023795 0.010313106 -0.018642204 0.0026005388 0.005638062 0.0027991203 0.015428809
-0.013317242 -0.0038728046 0.0032785486 0.007300164 0.0050398535 -0.006138257 0.007876557 0.0028444738
0.001048416 0.0075729564 -0.010794513 0.0045567644 0.009307958 -0.0020587856 0.011193378 -0.0077180304
0.003270485 0.014033476 -0.007866587 0.017383486 0.0015909408 -0.0030300708 0.000979751 0.010336109
-0.0026969325 0.0015552542 0.0060643307 0.009316724 0.0012761963 0.0011987102 -0.004250163 -0.007743169
-0.008937579 0.008421335 -0.007479902 -0.007402975 -0.011582595 0.0020924504 0.007765635 -0.022971269
0.007881086 -0.0022345318 0.00590603 0.0019145254 -0.0043337923 -0.011551794 -0.0012938866 0.004764939
0.009763246 -0.0008310187 0.001215324 -0.012650182 -0.013399355 0.00041848756 0.016213676 -0.0026742918
00000000: 6399 5fbb f38d 933a 53a3 ccbb 705e de3b
00000010: 6552 32bb e98a 303c c5fa ca3b dd35 5dbb
00000020: c006 6fbb 65a5 2dbc dcf3 45bc 9550 0c3c
00000030: 5c0d 983b 3b42 393b 229f 89ba b843 a93a
00000040: d4f6 613b 6058 04bb d900 31bb d918 523b
00000050: bb2e d53b fe1f e33a ebf2 a0bb 9a6d e3bb
00000060: 418b acba 0535 0abc df2e f4bb 10e3 2f3b
00000070: 1ac4 2c3b 4326 59bb 0fbf 8c3b b9c5 f93a
00000080: 908f 42bb c92a 3e3c 58e7 b0bb 2f4e 0ebb
00000090: f366 9e3a 12f5 4ebb ce5f ae37 7ed0 0cbc
000000a0: 65bf 813a 698b a83b 666d a63a aa52 913b
000000b0: ad93 193b b93f 0e3c 109b 803b 9ff6 08bb
000000c0: 81f3 71bb 216c a53b cd8b bd3a 560c be3b
000000d0: 1d85 16bc a84b 953a 7eb1 133a 562d 1a3c
000000e0: c2d7 93bb b3df b73b fe30 08bb 8d3f 653b
000000f0: 212a 673c 4d4f adbb 61f4 353c 11f2 563b
00000100: c407 2dbb f6e2 553b 5ee1 be3b a808 c8ba
00000110: 1aa3 1bbc c210 b638 37f7 c039 37c3 8639
00000120: 9221 f0bb e285 c93b af45 1cbc 4083 9c3b
00000130: f1e1 abb7 3c8f 16b9 1612 9dba 71c6 273c
00000140: 7ef6 ec3b 03a1 1f3c 9fb8 873a c08c 51bc
00000150: 9cf2 34bb 5c55 df3b a812 963b f4d4 ba3b
00000160: 9288 36bb d304 4d3b 81f0 5fbb ba2e 063a
00000170: 955d a5bb 98e0 dfbb 8a04 0fbc 10af 973a
00000180: 4b5a 23bb d953 0d3b c49f ae3a d13e eabb
00000190: 7a6e f538 71a8 ec39 28fd e13b 609c 87bb
000001a0: 5512 ca3a a910 9d3b 2836 873b 78ea 93bb
000001b0: 9887 55bb f931 89ba a449 6e3b fb1c 60bb
000001c0: 2577 ef3a 88d6 7f3b a7b5 073a 54a0 653a
000001d0: 358c 20bb 27cc f83a 4848 39bc 1cf1 9c3b
000001e0: de75 233c 9654 8bbb 541b 073c 0c4f 8f3b
000001f0: af35 98bb 403f 9bbc 8e27 ebbb 153c 1d3c
00000200: 4336 723c 8dc8 a23a 846a 4dbb e655 4bbc
00000210: 0006 debb d23b 35bc 47a8 b33c 8da7 c4ba
00000220: 3ab2 c7bb 9655 01bc f61e 093b 6ec9 443b
00000230: 9be0 613b 2fb2 0cbb 5545 75bb 2f32 5c3c
00000240: efc4 72bb 9c49 083c 83bf 1d3c 9174 133c
00000250: 0b60 d03a 5f59 f8ba 4247 343c 7220 20bb
00000260: 9a08 4dbb 46b3 e6bb 6fb7 a53b dcc6 f1bb
00000270: ad40 dcbb 3bc7 a23c b6ba 5abc 0d26 593c
00000280: 8b73 c4bb 9a2a 0bbc 79e7 22bc c87e 0cbc
00000290: 0039 f83b afd0 c9bb 2b5c 113b 12d0 85ba
000002a0: 4872 bb3b eeeb 00bb 9f49 923b 971a 99bc
000002b0: 29d9 e23b 8865 fa3b 32b0 3b3b 3c1b 10bc
000002c0: 5818 13bb 332d 14bc 44da 633b 8850 693c
000002d0: d6f4 933b 4095 d83b a8bf 813b cb0f c03b
000002e0: 408d a33b fcd9 21bc adbf 36bc 9d80 833c
000002f0: 3990 f43b df82 413c db02 b5bb cd6e 03bb
00000300: 4147 d73a 0ada 83bb 4df8 283c 89b7 98bc
00000310: cd6d 2a3b 7ebf b83b 7271 373b 1ec9 7c3c
00000320: 9030 5abc e1ce 7dbb ebdc 563b 3736 ef3b
00000330: 5b25 a53b 6f23 c9bb ad0c 013c 5a6a 3a3b
00000340: 016b 893a 9026 f83b 78db 30bc e950 953b
00000350: 6880 183c b1ec 06bb 6e64 373c 88e7 fcbb
00000360: a255 563b aaec 653c dbe2 00bc d067 8e3c
00000370: 1d87 d03a 2794 46bb fd6a 803a c958 293c
00000380: 05bf 30bb acd9 cb3a 4bb7 c63b 2ca5 183c
00000390: 0b46 a73a 0a1e 9d3a f444 8bbb 69ba fdbb
000003a0: ec6e 12bc a4f9 093c f719 f5bb a894 f2bb
000003b0: edc4 3dbc 7e21 093b de76 fe3b 3e2e bcbc
000003c0: ac1f 013c 3971 12bb 5f87 c13b d0f0 fa3a
000003d0: 7c02 8ebb bc43 3dbc a197 a9ba 3523 9c3b
000003e0: 06f6 1f3c b9d8 59ba 824b 9f3a b542 4fbc
000003f0: f888 5bbc 7368 db39 8bd2 843c 2c43 2fbb

layer3.fc2.bias f4 [84]
0.0026551827 -0.0065310234 0.008661242 0.016744632 -0.058896966 -0.0011728905 0.020917512 0.0023334324
-0.015957287 0.022208637 0.29069048 0.015359995 0.0028705038 0.013339396 -0.010330691 -0.014025302
0.020357821 0.018996477 0.01783339 -0.00019037953 -0.022232454 -0.021535154 -0.020054478 0.0046614665
0.008398179 -0.023029655 0.0011341855 0.05323928 0.0033628838 -0.012038595 0.007070104 0.007216206
0.012222291 0.026286859 -0.009312334 -0.017291507 -0.095675394 -0.015897773 0.017387949 -0.18233354
0.0036619452 0.31440917 0.0022854193 0.011892112 -0.0125061 -0.00638764 -0.041927423 0.015895661
0.018055553 -0.0019335592 0.0014642276 0.21712199 0.00332208 -0.024071915 0.0059046256 -0.014744113
0.011133094 -0.016779002 -0.014500503 -0.0020424444 0.0023345393 -0.0038881989 0.008286734 0.015552914
0.0073267003 -0.0025746482 -0.0027931528 0.0025943008 0.0054016653 0.009495166 0.13565703 -0.008009159
-0.010926331 0.0027020855 -0.022743203 0.007826126 -0.0057654055 -0.13220687 -0.007904305 -0.16412838
0.005328533 0.0018393827 0.016768105 -0.025235323
00000000: 9302 2e3b 3202 d6bb e2e7 0d3c 0a2c 893c
00000010: f23d 71bd adbb 99ba 345b ab3c 80ec 183b
00000020: dbb8 82bc e3ee b53c 62d5 943e 7da8 7b3c
00000030: 101f 3c3b 7b8d 5a3c 0f42 29bc 61ca 65bc
00000040: 72c5 a63c 809e 9b3c 5417 923c 9ea0 47b9
00000050: d620 b6bc 7e6a b0bc 4a49 a4bc 37bf 983b
00000060: 8498 093c b0a8 bcbc f3a8 943a 6e11 5a3d
00000070: d463 5c3b 873d 45bc 55ac e73b ec75 ec3b
00000080: 0140 483c 8a57 d73c c292 18bc eba6 8dbc
00000090: 76f1 c3bd 0c3c 82bc 2c71 8e3c a5b5 3abe
000000a0: 3ffd 6f3b 3dfa a03e f9c6 153b 22d7 423c
000000b0: 63e6 4cbc 684f d1bb 17bc 2bbd 9e37 823c
000000c0: 3de9 933c 7b6f fdba 53eb bf3a 3a55 5e3e
000000d0: 41b7 593b 7732 c5bc 977b c13b 4b91 71bc
000000e0: 9567 363c 1e74 89bc 8593 6dbc 88da 05bb
000000f0: 12ff 183b 27d1 7ebb 15c5 073c a6d1 7e3c
00000100: d114 f03b 6ebb 28bb 540d 37bb 2505 2a3b
00000110: 7400 b13b 9d91 1b3c ade9 0a3e d938 03bc
00000120: 5b04 33bc 7915 313b f44f babc 2739 003c
00000130: baeb bcbb 3d61 07be 0f81 01bc 4511 28be
00000140: f99a ae3b 7117 f13a 445d 893c 4fba cebc

layer3.fc3.weight f4 [10, 84]
0.0049831974 -0.004482691 -0.004067653 0.0034450653 0.07670827 -0.001559187 -0.0016530959 -0.008959215
-0.0031601842 0.0016425736 -0.20784083 0.0057636416 0.0049459343 0.0050646793 -0.009238423 0.005858617
0.0024192086 0.0062574605 0.00024239285 -0.000117736745 -0.0037605816 -5.486725e-05 0.0011674934 0.0098907
-0.0017401881 0.016136002 0.008386894 0.09088875 0.0003768578 -0.0045215753 -0.0011930087 0.00709877
0.0056699063 0.00014501193 -0.0050987266 -0.006607355 -0.029350625 -0.0017005821 -0.0013996833 0.005344374
0.006854154 0.014020954 0.0027913642 0.0004898778 -0.00049590605 -0.0021537347 0.0055964203 -0.0011728447
0.00257558 0.011254811 8.905674e-05 0.04249204 -0.0034501988 -0.0025951576 0.008522079 -0.0060050646
-0.0035209637 -0.2483158 0.0043966295 0.0008410137 -0.0050941603 0.00032136188 0.005439483 0.0040988433
0.00066093367 -0.005278162 0.0070536695 0.009645285 0.009647513 0.003133451 -0.16155812 -0.008381174
-0.010762513 0.0058447784 0.0023078022 -0.0031246813 -0.0023462833 0.07875749 -0.006926677 0.14198327
0.0041511673 0.0041237017 0.0015398127 0.00046801692 0.006999788 0.0047666617 0.0022271378 -0.0013082944
0.017046425 0.0020646264 0.001914515 0.004593416 0.0011128118 0.00079549034 -0.065676324 0.002948569
0.0035302157 0.00015783914 0.005789341 0.005149522 -0.005233219 0.0015974615 -0.00034365742 0.0019779801
0.0040266947 0.005726347 0.0017507727 -0.00070653716 -0.0015020929 0.25748882 -0.010662892 -0.155665
0.00039872687 0.0061364914 -0.0035012958 -0.008226728 0.0060183075 0.00015677014 -0.0032365904 4.9648315e-05
0.1247404 -0.0005729504 -0.00022994177 0.085703015 -0.00064968655 -0.15890996 0.0013484983 -0.003133966
0.0079020625 0.0017251411 0.17391768 -0.007189985 -0.006149073 -0.0014491915 -0.0047694887 -0.30901524
-0.004980026 -0.0039007734 0.0063824756 -0.00022430273 -0.009129807 0.033305705 -0.0030907574 -0.0027520384
-0.00018169408 0.007326938 0.002030707 0.0044940007 0.0047872793 0.0027444637 0.0006745653 -0.0034901197
-0.0035946872 -0.0035409944 -0.14407264 0.006123972 -0.00019241174 -0.0009971806 0.0036684738 -0.005420239
0.0021161002 -0.019696074 0.0010156191 -0.025784682 0.0020130137 -0.00054749363 -0.0023346723 0.006356175
0.003948033 -0.004302199 -0.0007367373 -0.000814681 -0.08317175 0.0025621345 0.0007257634 -0.0006875643
0.00066133897 0.0015379828 -0.0701294 0.0015379215 -0.00094563304 0.0007409635 0.0018178069 0.004770098
-0.0041133272 0.005280611 0.00073447183 0.003484486 0.00096361246 0.00061659096 -0.0015894175 0.00015533007
-0.0044729374 -0.060319256 0.0031302052 0.18563241 0.00212009 0.001260711 -0.0019452088 -0.0003999252
0.003018799 0.0008649357 0.00050447375 0.0006488187 -0.04647548 0.0007873126 0.0023316073 -0.08733263
-0.0024128167 0.1308566 0.00082035497 -0.0010957082 0.00081013236 0.00012339362 0.003720825 -0.005138177
-0.0017740232 -0.0022238337 -0.0038578946 0.11607442 -0.002815136 -0.00086164655 0.0034936003 -0.00067202264
-0.004299892 0.01780549 -0.0004937136 -0.0016452832 0.0015591546 0.006049567 0.0012589104 0.0057989876
0.0013927281 0.0022201883 -0.0011851257 -1.5230269e-05 -0.00071372534 0.0010106472 0.008469591 1.9994039e-05
-1.2587722e-05 -0.002899972 -0.0014925732 -0.0007207687 0.003245078 0.029477065 0.0017542283 -0.23630266
-0.0018505537 -0.0027381233 -0.0011391534 8.1421815e-05 0.0063484753 -0.006864206 -0.004309395 0.001530646
00000000: 174a a33b 8ae3 92bb f249 85bb 9bc6 613b
00000010: 3a19 9d3d a25d ccba b2ac d8ba acc9 12bc
00000020: 181b 4fbb a04b d73a 3ad4 54be eedc bc3b
00000030: 8111 a23b 9cf5 a53b c15c 17bc a4f9 bf3b
00000040: 968b 1e3b 620b cd3b d62a 7e39 6fe9 f6b8
00000050: 1774 76bb 4321 66b8 9406 993a 9a0c 223c
00000060: 0617 e4ba a62f 843c 2f69 093c e223 ba3d
00000070: ff94 c539 b929 94bb bb5e 9cba cc9c e83b
00000080: 9fca b93b 580e 1839 3813 a7bb 8382 d8bb
00000090: b970 f0bc 11e6 deba 9475 b7ba dc1f af3b
000000a0: d098 e03b 25b8 653c 52ef 363b 256b 003a
000000b0: b1ff 01ba ac25 0dbb 2d62 b73b 23ba 99ba
000000c0: 10cb 283b 1966 383c f9c3 ba38 220c 2e3d
000000d0: bb1c 62bb 8513 2abb 31a0 0b3c 22c6 c4bb
000000e0: f8bf 66bb 7f46 7ebe 9a11 903b 7977 5c3a
000000f0: eaec a6bb 767c a839 b13d b23b 974f 863b
00000100: 8242 2d3a 6ff4 acbb 7822 e73b 4207 1e3c
00000110: 9a10 1e3c 965a 4d3b 7e6f 25be 3151 09bc
00000120: 4055 30bc 8e85 bf3b 7f3e 173b 74c7 4cbb
00000130: 1ac4 19bb 9b4b a13d 2ef9 e2bb 1064 113e
00000140: 8406 883b 1e20 873b 8ad3 c93a 2b60 f539
00000150: 7a5e e53b a831 9c3b 2cf5 113b 137b abba
00000160: f2a4 8b3c af4e 073b 77f0 fa3a 5e84 963b
00000170: c5db 913a 7488 503a 4f81 86bd c73c 413b
00000180: 315b 673b 9f81 2539 83b4 bd3b 52bd a83b
00000190: 6c7b abbb ea61 d13a eb2c b4b9 00a1 013b
000001a0: 5df2 833b 15a4 bb3b 2f7a e53a e836 39ba
000001b0: e0e1 c4ba 93d5 833e 69b3 2ebc a566 1fbe
000001c0: 370c d139 9f14 c93b ff75 65bb 66c9 06bc
000001d0: 3935 c53b aa62 2439 fa1c 54bb 793d 5038
000001e0: e577 ff3d 0d32 16ba 861c 71b9 1085 af3d
000001f0: ba4f 2aba 4bb9 22be 18c0 b03a 3963 4dbb
00000200: a777 013c 211e e23a 7a17 323e f799 ebbb
00000210: 2a7e c9bb ccf2 bdba 5f49 9cbb 3f37 9ebe
00000220: 7c2f a3bb 1ea4 7fbb 1624 d13b ce32 6bb9
00000230: 3095 15bc 906b 083d 4e8e 4abb 8b5b 34bb
00000240: 2285 3eb9 d016 f03b 9c15 053b 6942 933b
00000250: 9cde 9c3b 76dc 333b 50d5 303a 7eba 64bb
00000260: d894 6bbb 0710 68bb c787 13be 9aab c83b
00000270: 22c2 49b9 d4b3 82ba c76a 703b 439c b1bb
00000280: 45ae 0a3b a959 a1bc 861e 853a 663a d3bc
00000290: c4ec 033b ad85 0fba 4d01 19bb 7647 d03b
000002a0: 805e 813b 76f9 8cbb 9a21 41ba 5190 55ba
000002b0: f355 aabd 7ce9 273b 2841 3e3a a93d 34ba
000002c0: b55d 2d3a 2496 c93a 01a0 8fbd 1594 c93a
000002d0: 5ce4 77ba 383d 423a 7a43 ee3a 7b4e 9c3b
000002e0: 17c9 86bb fa08 ad3b 9289 403a f95b 643b
000002f0: f09a 7c3a b8a2 213a 0054 d0ba 19e0 2239
00000300: b891 92bb 5311 77bd 2124 4d3b 6c16 3e3e
00000310: 35f1 0a3b 713e a53a 60f6 feba 0dad d1b9
00000320: 0bd7 453b dabc 623a a93e 043a 7c15 2a3a
00000330: 135d 3ebd a763 4e3a e1cd 183b 73db b2bd
00000340: 5920 1ebb 46ff 053e 170d 573a de9d 8fba
00000350: 105f 543a 3963 0139 16d9 733b 275e a8bb
00000360: 5786 e8ba bdbd 11bb bbd4 7cbb 6db8 ed3d
00000370: 257e 38bb 1fe0 61ba e3f4 643b ad2a 30ba
00000380: 1ce6 8cbb d2dc 913c 8f6c 01ba 8ba6 d7ba
00000390: 8c5c cc3a 723b c63b 0602 a53a 6f05 be3b
000003a0: 338c b63a 9480 113b 3856 9bba 8285 7fb7
000003b0: 4c19 3bba b177 843a 0ac4 0a3c dfb8 a737
000003c0: db2f 53b7 750d 3ebb 72a2 c3ba f8f1 3cba
000003d0: 60ab 543b e379 f13c 22ee e53a 53f9 71be
000003e0: 478e f2ba 1672 33bb a54f 95ba 01c1 aa38
000003f0: df06 d03b 22ed e0bb d335 8dbb f59f c83a

layer3.fc3.bias f4 [10]
-0.14625852 -0.350165 0.30374935 0.50916106 0.34475774 -0.027108975 -0.07567782 -0.26030704
-0.31326425 -0.032991733
00000000: cbc4 15be d448 b3be 0985 9b3e 6158 023f
00000010: 1684 b03e a413 debc f9fc 9abd f746 85be
00000020: 2c64 a0be 5722 07bd
