output/models_cifar10_430.pth (torch_old, 248636 bytes, 10 tensors)

layer1.conv1.weight f4 [6, 1, 5, 5]
0	0xb989071a	-0.00026135967
1	0xbe36dabb	-0.17856877
2	0x3c4cc3c1	0.012497843
3	0xbe00cf1f	-0.1257901
4	0xbd9ded8d	-0.07711325
5	0x3e999346	0.29995173
6	0xbe54c862	-0.20779565
7	0x3ee0c0e0	0.43897152
8	0xbd8de3e5	-0.06928233
9	0x3e696a85	0.2279454
10	0x3ddfdfe6	0.10931377
11	0xbf1dfce7	-0.61714023
12	0x3ee16ff4	0.44030726
13	0xbec26e46	-0.37974757
14	0xbd75c718	-0.060004324
15	0x3ed17c50	0.40915155
16	0xbf2e5e6d	-0.6811283
17	0x3f3dafbf	0.7409629
18	0xbeae69e1	-0.34065154
19	0x3e18bb19	0.14915122
20	0x3e7a1f4a	0.24425998
21	0xbf2085d3	-0.627042
22	0x3f04dfcc	0.51903987
23	0xbe4bd6cf	-0.19906162
24	0xbd0ad199	-0.033891294
25	0x3c1be7ee	0.009515746
26	0xbd72f056	-0.059311233
27	0xbcecc5e6	-0.02890296
28	0x3daf7228	0.085666955
29	0xbc95df28	-0.018294886
30	0x3d6553de	0.055988185
31	0x3e3a70e0	0.18207121
32	0xbf19c37c	-0.6006391
33	0x3e0bc4a0	0.13649225
34	0x3e609ba2	0.21934369
35	0xbda2b164	-0.07943991
36	0x3eb2309d	0.34802714
37	0x3eed51e5	0.46351543
38	0xbf90bc1b	-1.1307405
39	0x3eabde9e	0.3356828
40	0x3dacd250	0.084385514
41	0xbf0a7038	-0.5407748
42	0x3f47355a	0.77815783
43	0x3e30ac78	0.17253292
44	0xbee261e7	-0.4421532
45	0xbc3856dc	-0.011251178
46	0x3daae2dd	0.08344052
47	0xbece55ad	-0.4029974
48	0x3ed03be7	0.40670702
49	0xbda694e5	-0.08133868
50	0xbd20d447	-0.039264943
51	0xbcc108f3	-0.023563838
52	0xbd84ff48	-0.064940035
53	0x3e14d00e	0.14532492
54	0x3d4f1752	0.05055935
55	0xbd65519d	-0.055986036
56	0xbd1e2f42	-0.038619287
57	0x3e419144	0.1890307
58	0x3d47d37a	0.048785664
59	0xbd80bd6d	-0.0628613
60	0xbeac1079	-0.33606318
61	0x3c37e146	0.011223143
62	0x3e8c31ec	0.27381837
63	0xbdcaa810	-0.09895337
64	0xbd231885	-0.039818306
65	0xbeb4dadd	-0.3532323
66	0x3ea3054e	0.31839985
67	0x3e59800d	0.21240254
68	0xbcf11135	-0.02942715
69	0x3c0a1766	0.00842843
70	0xbf04214a	-0.51613295
71	0x3eb2fcce	0.349585
72	0xbcbe2e9f	-0.02321559
73	0x3d5660b2	0.05233831
74	0xbdbadf4d	-0.091246225
75	0xbdee5627	-0.11637526
76	0xbeae2b1a	-0.3401726
77	0xbe0d9905	-0.13827904
78	0xbd22ab18	-0.03971395
79	0x3d8741a9	0.066043206
80	0x3e92bf0a	0.28661376
81	0x3f4d5dfd	0.8022154
82	0x3efd0181	0.4941521
83	0x3e33939a	0.17536774
84	0x3d10cf6e	0.03535407
85	0xbe0d8433	-0.13819961
86	0xbee14159	-0.4399517
87	0xbe9bff7c	-0.30468357
88	0xbd03f1d1	-0.032213036
89	0xbdea9a49	-0.11455209
90	0x3de867ac	0.11347899
91	0xb8ecbfd3	-0.00011289087
92	0xbdbed50b	-0.093179785
93	0x3da6f804	0.08152774
94	0x3e53ae53	0.20671968
95	0xbd879ef9	-0.066221185
96	0xbd0d6584	-0.03452064
97	0xbc6507f4	-0.013978947
98	0xbe0ddcb9	-0.1385373
99	0xbda2764f	-0.07932722
100	0xbdc40110	-0.09570515
101	0x3cf5d767	0.030009938
102	0x3bdca279	0.0067332354
103	0x3df2e037	0.11859172
104	0xbdc2a916	-0.09504907
105	0x3cb3ac5d	0.021932775
106	0x3dcfc2a2	0.10144545
107	0x3d46a4c0	0.04849696
108	0xbe197823	-0.14987235
109	0x3e00af1b	0.12566797
110	0xbe8d3f53	-0.27587375
111	0xbed1866e	-0.40922874
112	0xbdf20b3c	-0.11818549
113	0x3c9591e8	0.01825805
114	0xbe9ad7f4	-0.30242884
115	0x3e68bf49	0.2272922
116	0x3e68b6bf	0.22725962
117	0xbe29505f	-0.16534565
118	0xbde59449	-0.11209924
119	0x3e3fc22a	0.18726411
120	0xbd8950a3	-0.06704833
121	0x3d119227	0.035539772
122	0x3e233081	0.15936472
123	0x3d373293	0.044725966
124	0xbddd0fdc	-0.107940406
125	0x3d3b1d18	0.045682043
126	0xbe865211	-0.26234487
127	0x3ea696de	0.32536978
128	0x36bd3fd1	5.640068e-06
129	0xbdbea982	-0.09309675
130	0xbe04f084	-0.12982374
131	0x3eb6004d	0.35547104
132	0x3ef4aa1a	0.47786027
133	0xbf382e54	-0.7194569
134	0x3c85989d	0.016308123
135	0x3ddcaddd	0.10775349
136	0x3eee75b1	0.46574166
137	0xbf91b2b9	-1.1382667
138	0x3d4a8db8	0.04945156
139	0x3eafd3df	0.34341332
140	0xbc072d5f	-0.008250563
141	0xbe9935e8	-0.2992394
142	0xbdc639d2	-0.09678997
143	0x3f2a744e	0.66583717
144	0xbe803589	-0.25040844
145	0x3dfdf9b6	0.12401144
146	0xbdf10992	-0.117694035
147	0x3e4efb44	0.20213038
148	0xbe320a70	-0.17386794
149	0x3c8e6a91	0.0173848

layer1.conv1.bias f4 [6]
0	0xbeaa4b2f	-0.33260486
1	0xbea7b354	-0.32754004
2	0xbea3321d	-0.3187417
3	0xbe9757b6	-0.29559106
4	0xbe9b3150	-0.3031106
5	0xbeb52591	-0.35380223

layer2.conv2.weight f4 [16, 6, 5, 5]
0	0x3d9ab4e7	0.07554036
1	0xbd540443	-0.051761877
2	0x3da88527	0.08228522
3	0x3e110722	0.14162877
4	0x3d923e5b	0.071407996
5	0x3d6ca1f2	0.05777163
6	0xbd9e1cf1	-0.07720364
7	0x3d237544	0.039906755
8	0x3be0f05d	0.006864591
9	0x3ce08afd	0.027410025
10	0xbc5d4af4	-0.01350664
11	0x3be0f337	0.006864931
12	0xbd26f33c	-0.04075931
13	0x3c87af4e	0.016563084
14	0x3d396f3d	0.0452721
15	0x3cdc9d5c	0.026930504
16	0xbe1e71a9	-0.15473045
17	0xbde0998f	-0.10966789
18	0x3e0b44ec	0.1360051
19	0xbdd0c2cb	-0.10193404
20	0xbe728171	-0.2368219
21	0xbeae3168	-0.3402207
22	0xbf29ae7d	-0.66281873
23	0xbf3c78db	-0.7362191
24	0xbea6306f	-0.32458827
25	0x3eb33a4f	0.35005423
26	0x3e264900	0.16238785
27	0x3d1448a7	0.0362021
28	0x3cecb12d	0.028893078
29	0x3e311ada	0.172954
30	0x3e8992ad	0.26869717
31	0x3e29a9ff	0.16568755
32	0x3e61ec8a	0.22062889
33	0x3db45458	0.0880515
34	0x3e0fc39c	0.14039463
35	0x3ed99952	0.42499787
36	0x3e4a2a34	0.19742662
37	0x3e266fba	0.16253558
38	0x3d8d0b0a	0.06886871
39	0x3e5c86d2	0.21535805
40	0x3eb8da9a	0.3610428
41	0x3ea57695	0.32317033
42	0x3e5dd317	0.21662556
43	0x3e0b2789	0.135893
44	0xbd560ed0	-0.05226022
45	0x3ee42032	0.44555813
46	0x3e15ae89	0.14617361
47	0xbe08a339	-0.13343515
48	0xbbf37e0f	-0.007430799
49	0xbd3c6984	-0.045999065
50	0x3e603d56	0.21898398
51	0x3de39808	0.11112982
52	0xbc885d4e	-0.016646054
53	0x3e50f9b1	0.2040775
54	0xbd58abe8	-0.052898318
55	0x3d5b9ecc	0.053618237
56	0x3e0c94f0	0.1372869
57	0x3d213793	0.03935964
58	0xbe1ff2bf	-0.15619944
59	0x3df5ca80	0.120015144
60	0xbe7f1aa6	-0.2491251
61	0xbbb6068d	-0.00555498
62	0x3dc8ad7d	0.09798715
63	0x3e557928	0.20846999
64	0xbc2f66ff	-0.0107057085
65	0xbd7c5447	-0.06160381
66	0xbe111b55	-0.14170583
67	0xbdd1f8bd	-0.10252521
68	0x3e840bd6	0.2579028
69	0x3e4c742c	0.19966191
70	0xbe125754	-0.14291126
71	0xbe0ff493	-0.14058141
72	0xbeaa9f57	-0.33324692
73	0xbed4e482	-0.41580588
74	0xbdb0a023	-0.08624294
75	0x3e92991d	0.2863244
76	0xbe06cdb0	-0.13164401
77	0xbce20d11	-0.027594121
78	0x3c367611	0.011136548
79	0x3e1799c9	0.14804758
80	0x3e161c6b	0.14659278
81	0x3d7887d3	0.060676407
82	0x3e3102cb	0.17286222
83	0x3e059a98	0.13047254
84	0x3d90df9b	0.07073899
85	0xbd01f5dd	-0.031728614
86	0x3eaab1a6	0.3333866
87	0x3e0a4a59	0.13504924
88	0x3e21da19	0.15805854
89	0x3de509f3	0.11183538
90	0xbe716334	-0.23572999
91	0x3e8b5a82	0.2721749
92	0x3e8bb36e	0.2728533
93	0x3e32baf7	0.17454134
94	0x3bf3e620	0.0074432045
95	0xbe076760	-0.13223028
96	0x3df1b12f	0.11801373
97	0x3e627ac0	0.22117138
98	0x3eaea3fe	0.3410949
99	0x3e91cbae	0.28475708
100	0x3e6609ac	0.22464627
101	0x3d709a38	0.058740824
102	0xbd826d0f	-0.063684575
103	0x3e876a69	0.26448372
104	0x3dc2283c	0.0948033
105	0x3ecb0893	0.3965498
106	0x3dc24705	0.09486202
107	0x3e566790	0.20937943
108	0x3d6988d9	0.057015274
109	0x3ea36e53	0.31920108
110	0x3e9e6fff	0.3094482
111	0x3e0fe5f7	0.14052568
112	0x3e4c16fe	0.19930646
113	0x3d81f457	0.06345432
114	0x3edc1428	0.42984128
115	0x3e2fb1e9	0.17157711
116	0x3db69cb7	0.0891661
117	0x3f04cd4f	0.51875776
118	0x3eb2d8bd	0.34930983
119	0x3db9d308	0.09073454
120	0xbee92989	-0.455395
121	0x3ed37aa0	0.41304493
122	0x3f3f4c03	0.7472536
123	0x3e0c09d1	0.1367562
124	0xbe356602	-0.17714694
125	0xbd5ca932	-0.053872295
126	0xbdf29670	-0.118451
127	0xbc0be939	-0.008539491
128	0x3d6d2712	0.05789859
129	0x3c7d83e5	0.015473341
130	0xbdb93b6e	-0.090445384
131	0xbe3d85f5	-0.18508132
132	0x3cef92ee	0.029244866
133	0x3db4dd87	0.088313155
134	0x3e198aa7	0.14994298
135	0x3c64b6c2	0.0139595885
136	0xbd8c72ff	-0.06857871
137	0x3ca3ad8e	0.019980218
138	0x3d8fa909	0.07014663
139	0x3df9b89a	0.12193413
140	0x3ca20f58	0.019782707
141	0xbd41bd90	-0.04729992
142	0xbde0708f	-0.10958969
143	0x3df61ef8	0.120176256
144	0x3e34f949	0.1767322
145	0x3d156076	0.036468945
146	0x3dd6282d	0.10456882
147	0xbd8d5627	-0.06901198
148	0x3cda923f	0.026681064
149	0x3e78098b	0.2422239
150	0xbdaaf0d4	-0.083467156
151	0x3d25b5b2	0.04045648
152	0x3d635e5c	0.05550991
153	0x3e35b316	0.17744097
154	0xbe51214a	-0.20422855
155	0x3e4829db	0.19547217
156	0x3d3aca9b	0.045603376
157	0x3dc5367c	0.09629533
158	0xbe813629	-0.25236633
159	0x3d32d974	0.04366441
160	0xbca9854e	-0.020693447
161	0x3ea61944	0.3244115
162	0xbe0a40f4	-0.1350134
163	0x3ca1f17f	0.019768475
164	0xbd7f5479	-0.06233642
165	0xbe1570a6	-0.14593753
166	0xbea566db	-0.32305035
167	0xbd6280ba	-0.055298544
168	0xbd49226d	-0.049105097
169	0xbe7847ba	-0.24246112
170	0xbd808c44	-0.062767535
171	0x3e1aa23f	0.15100954
172	0xbe310cf3	-0.17290096
173	0xbecb5707	-0.39714834
174	0xbe0e951e	-0.13924071
175	0x3e63ab57	0.2223333
176	0x3db0aeea	0.08627112
177	0x3da3e4fd	0.080026604
178	0x3e968bdc	0.2940358
179	0x3d56b70b	0.052420657
180	0x3d04fc86	0.032467388
181	0x3c8d527f	0.017251251
182	0xbec42bfb	-0.38314804
183	0x3eb24f6d	0.34826222
184	0x3e62464f	0.22097133
185	0xbea4c0ef	-0.32178447
186	0x3d6a8293	0.05725343
187	0xbec2eaf0	-0.38069868
188	0x3e8d8ca9	0.27646378
189	0x3dcc080f	0.099624746
190	0x3c7e3083	0.015514496
191	0xbdb0c5ac	-0.08631453
192	0xbeab89bb	-0.33503518
193	0xbefaf35d	-0.49013796
194	0x3d668769	0.05628148
195	0x3e413a40	0.18869877
196	0x3e7ce26e	0.24695751
197	0x3f01a16e	0.5063695
198	0x3cda943c	0.026682012
199	0xbeaf347d	-0.34219733
200	0xbd5f469e	-0.054510705
201	0x3dc42efc	0.09579274
202	0x3e2d9492	0.16951206
203	0xbd88e361	-0.06683994
204	0x3dfdf67d	0.124005295
205	0x3d72ec16	0.05930718
206	0xbeb0f37f	-0.34560773
207	0x3d431e00	0.047636032
208	0x3e863bff	0.26217648
209	0xbeb620e6	-0.35571975
210	0x3e1a2dba	0.15056506
211	0x3ee836d4	0.4535433
212	0xbe306b71	-0.17228486
213	0x3f25109e	0.6447848
214	0x3d08c25d	0.033388484
215	0x3bf10a8a	0.0073559927
216	0x3e3728f9	0.17886724
217	0x3e2bc72e	0.167752
218	0x3e3f7d53	0.18700151
219	0x3e8c5ac2	0.27412993
220	0x3dd5ba7a	0.10435958
221	0xbe407887	-0.18795978
222	0x3cfc61ba	0.030808318
223	0x3c6630a1	0.01404968
224	0x3e9f5dfb	0.3112639
225	0x3dd2c855	0.102921166
226	0x3e1fe606	0.1561509
227	0xbdf41792	-0.11918558
228	0xbddfe175	-0.109316744
229	0x3dc8f0ac	0.098115295
230	0x3d4624e9	0.048375044
231	0x3ddfddc2	0.10930969
232	0xbe8b8943	-0.2725316
233	0xbe94115f	-0.28919503
234	0x3d35077a	0.044196583
235	0xbe07affe	-0.1325073
236	0xbda37d9a	-0.07982941
237	0xbe62da4a	-0.22153583
238	0xbec52128	-0.3850186
239	0xbe0893d3	-0.1333764
240	0x3e47231f	0.19446991
241	0xbe98d903	-0.29853067
242	0xbe3c93bf	-0.18415736
243	0xbea0cb68	-0.31405187
244	0xbe89b795	-0.26897874
245	0x3e57ff90	0.21093583
246	0xbe02a1b5	-0.12756999
247	0xbcd23125	-0.0256582
248	0x3e4efcf9	0.20213689
249	0xbe9b7b1b	-0.3036736
250	0x3e48857f	0.19582175
251	0x3e4cf47d	0.2001514
252	0xbecfaef6	-0.40563172
253	0xbe165ee6	-0.14684638
254	0x3d84c828	0.06483489
255	0xbe776dbd	-0.24162956

layer2.conv2.bias f4 [16]
0	0xbf2b5382	-0.669243
1	0xbf61de5d	-0.88229924
2	0xbf32f18a	-0.6989981
3	0xbf24998b	-0.6429679
4	0xbf527c64	-0.82221055
5	0xbf11bc85	-0.5692828
6	0xbf23fee1	-0.6406079
7	0xbed79acf	-0.42110297
8	0xbf5498bc	-0.83045554
9	0xbf4090b3	-0.75220793
10	0xbf0bcdbd	-0.54610807
11	0xbede42b2	-0.4341026
12	0xbed0797c	-0.40717685
13	0xbf36b43d	-0.7136877
14	0xbf2f7c9a	-0.685495
15	0xbee85a7e	-0.4538154

layer3.fc1.weight f4 [120, 400]
0	0x3b5c921d	0.0033656426
1	0xbb01b25f	-0.0019790155
2	0x3cf3d9fe	0.029767033
3	0x3bb0f3a3	0.0054001375
4	0x3c2ae104	0.0104296245
5	0x3c10403e	0.008804379
6	0xbb9e6de4	-0.0048348773
7	0xbc0698a3	-0.008215102
8	0x3bf37978	0.0074302517
9	0xbb79e92d	-0.0038133368
10	0x3b9106dd	0.004425867
11	0xbc3e9c26	-0.011633908
12	0x3b00319e	0.0019560824
13	0xba64889c	-0.0008717866
14	0xbc737a8c	-0.01486076
15	0xbcb5f6f7	-0.022212489
16	0xbc69994c	-0.01425774
17	0xbcaeca56	-0.021336716
18	0x3c7db566	0.015485143
19	0xbbff1e70	-0.007785611
20	0x3ad8d6b3	0.0016543478
21	0xbadc447a	-0.0016805076
22	0x3b183ed9	0.002323082
23	0x3ca729f8	0.020405754
24	0x3c800920	0.015629351
25	0x3b4cc343	0.0031244315
26	0x3d8bee98	0.068326175
27	0x3c363416	0.011120817
28	0x3c8a58df	0.01688808
29	0x3ca9a4cf	0.02070847
30	0x3cbd4ebb	0.02310883
31	0xbbfbe4fa	-0.0076872082
32	0x3cc6c880	0.024265528
33	0x3b87ca74	0.0041440073
34	0xbc179c55	-0.009253581
35	0x3cf586eb	0.02997156
36	0xbcf987b2	-0.030460212
37	0x3b858ee4	0.004075872
38	0xbcbf25d9	-0.023333477
39	0xba7142ef	-0.00092033943
40	0x3d1da3fd	0.03848647
41	0xbbfb2ca3	-0.007665233
42	0x3cd711a3	0.026253527
43	0xbd1dd1b1	-0.038530055
44	0xbcbe8963	-0.02325887
45	0x3cb152bb	0.021645894
46	0xbc2c21cf	-0.0105061075
47	0xbbaeabdd	-0.0053305463
48	0xbaf09df4	-0.001835762
49	0x3bf6dcd6	0.00753365
50	0x3ba0755b	0.0048968024
51	0x3c9386a8	0.018008545
52	0xbb899600	-0.0041987896
53	0xbc485615	-0.012227555
54	0xbbe67b21	-0.007033721
55	0x3c6324ea	0.0138637815
56	0xbc8aee28	-0.016959265
57	0xbc35ec97	-0.011103771
58	0xbc861801	-0.016368868
59	0x3cbecdb7	0.023291452
60	0x3c8a2f25	0.016868183
61	0xbd0f2701	-0.034949306
62	0x3cccbc19	0.024992036
63	0x3cca8b32	0.024724577
64	0x3d121db8	0.035672873
65	0x3bb3a431	0.0054822196
66	0xbbdbf751	-0.006712832
67	0x3ce80bf2	0.028326008
68	0x3cd62bb6	0.02614389
69	0xbb7ca3d4	-0.0038549798
70	0xbc512696	-0.012765547
71	0xb982749a	-0.00024882407
72	0x3cb1689d	0.021656329
73	0x3cf4ae81	0.029868366
74	0xbbc2697f	-0.0059329863
75	0x3bfe813b	0.0077668703
76	0xbc56d648	-0.013112612
77	0xbce571de	-0.028008398
78	0x3c2ca842	0.010538163
79	0x3a8ae2a4	0.0010596109
80	0x3833e2e1	4.2888223e-05
81	0x3c73012c	0.014831822
82	0x3b9eb789	0.0048436564
83	0x3c89e2e2	0.016831819
84	0x3abaed0f	0.0014261323
85	0x3a8a89d0	0.0010569636
86	0xbb7682be	-0.003761455
87	0xba02f349	-0.0004995359
88	0x3ca43e98	0.020049378
89	0xbb83c9d3	-0.004021862
90	0xbc04c83f	-0.008104383
91	0xbc2fa4c5	-0.010720436
92	0xbc2afc4e	-0.010436131
93	0xbcd038ea	-0.025417764
94	0xbc179e78	-0.0092540905
95	0xbc44b716	-0.012006542
96	0x3c527718	0.012845777
97	0xb9d46d9e	-0.00040517462
98	0x3c2b824d	0.010468078
99	0x3cac5f14	0.02104143
100	0xbbb18373	-0.0054172813
101	0xbd010e40	-0.03150773
102	0xbbe02951	-0.006840863
103	0x3c5a77c0	0.013334215
104	0xbcaa725b	-0.020806482
105	0x3c484347	0.012223071
106	0x3cbcd082	0.023048643
107	0x3c5c9132	0.013462352
108	0xbc8ccc0c	-0.01718714
109	0xbc39ebae	-0.011347694
110	0xbc00fea4	-0.007873211
111	0x3cdbd66b	0.02683564
112	0x3c6dead2	0.014521318
113	0xbc2ef361	-0.010678143
114	0x3c94497d	0.018101448
115	0xbcab07d3	-0.020877754
116	0x3cc66efa	0.02422284
117	0xbc9f617d	-0.019455666
118	0xbcd4ecc3	-0.025991803
119	0x3addbdd4	0.0016917535
120	0x3bc015ae	0.0058619594
121	0xbc016a7f	-0.007898926
122	0xbbbffc6a	-0.0058589475
123	0x3afcd06d	0.001928819
124	0xbabbecae	-0.0014337504
125	0xbbd4a8c5	-0.0064898455
126	0xbca01cbb	-0.01954495
127	0x3cbc6d61	0.023001375
128	0xbbf8c75e	-0.007592126
129	0xbc9a8e1f	-0.018866597
130	0x3c078c4e	0.008273197
131	0xbc5a3199	-0.013317489
132	0xbc03e915	-0.008051177
133	0xbc34f7e2	-0.011045428
134	0xbc1f8952	-0.00973733
135	0xbb8c052f	-0.004273079
136	0xbb65b2b9	-0.0035049154
137	0x3b65725e	0.0035010795
138	0x39fb124f	0.00047888092
139	0xbc051577	-0.008122793
140	0x3cc216b8	0.023692474
141	0x3aec8d51	0.0018047487
142	0x3bca118a	0.0061666416
143	0x3ba278ae	0.004958234
144	0x3bcdf902	0.0062857876
145	0x3bd178f7	0.006392594
146	0x3c2977dc	0.010343518
147	0x3d0dfa7f	0.03466272
148	0x3b8e39eb	0.0043404005
149	0x3c227c02	0.009917261
150	0xbbbd1aee	-0.0057710325
151	0x3ab41330	0.0013738628
152	0x3c10cba3	0.008837613
153	0xbc703398	-0.014660738
154	0xbb8b7773	-0.004256183
155	0x3b9a9be6	0.0047182916
156	0xbd0a826b	-0.033815783
157	0x3c4fe615	0.012689133
158	0xbb52ca7f	-0.0032164154
159	0x3c3aeca8	0.011408962
160	0x3c7a48f3	0.0152761815
161	0xbaaf1486	-0.0013357557
162	0x3c5b1815	0.013372441
163	0xbc9314b9	-0.017954217
164	0x3c6a9401	0.014317513
165	0x3c3f42a2	0.011673601
166	0x3bca8911	0.0061808904
167	0x3b3a249b	0.0028403166
168	0xbb2d1c2a	-0.0026414492
169	0xbad98818	-0.0016596345
170	0xbc147616	-0.009061357
171	0x3b62cf9c	0.0034608608
172	0x3c92a91e	0.017902907
173	0xbb1d26b0	-0.0023979358
174	0xbc51a5a2	-0.012795838
175	0x3c9dab96	0.019246858
176	0xbb6a0ccd	-0.0035713196
177	0x3bce3333	0.0062927245
178	0x399fe67a	0.00030498562
179	0x3cd1391e	0.02553993
180	0x3c586911	0.0132086435
181	0xbc4f0284	-0.012634877
182	0xbc7e7b95	-0.015532394
183	0xbc9f4729	-0.019443111
184	0x3c850864	0.016239353
185	0xbc42f42c	-0.011899035
186	0xbcccde63	-0.025008386
187	0xbc69a156	-0.014259657
188	0xbbfbea1e	-0.007687821
189	0x3c51dd84	0.012809161
190	0x3c69d7a4	0.014272604
191	0xbb991c34	-0.0046725515
192	0xbb98af31	-0.0046595563
193	0x3abfe4e3	0.0014640357
194	0x3c261f63	0.010139319
195	0x3c74a232	0.0149312485
196	0x3b3255ec	0.0027211858
197	0x3c92eb2e	0.017934408
198	0x3ccd07d4	0.025028147
199	0x3c7e20af	0.015510722
200	0xbbfe411c	-0.0077592265
201	0xbc8679cf	-0.016415505
202	0xbbe93c84	-0.0071178097
203	0x3bdc3b31	0.0067209234
204	0x3bb8de5f	0.005641743
205	0x3c17aeaf	0.009257956
206	0x3b742b9c	0.0037257439
207	0xbbbb30b2	-0.005712592
208	0x3b012041	0.0019703063
209	0x3b4145d1	0.0029491077
210	0xbbc3fc63	-0.0059810146
211	0xbc494633	-0.012284803
212	0x3c5df088	0.013546117
213	0x3ca1b374	0.01973889
214	0xbc19436f	-0.009354456
215	0x3bc4cb8b	0.0060057095
216	0xbc8cb5f6	-0.01717661
217	0x3b86bc55	0.0041118064
218	0xbbc7c68e	-0.0060966676
219	0x3b8c7e49	0.0042875153
220	0xbb6c8201	-0.003608823
221	0x3c2e2f73	0.01063143
222	0xbb52957a	-0.0032132552
223	0xbc2d65c6	-0.010583347
224	0x3b6ad035	0.0035829667
225	0xbc2b5e24	-0.010459457
226	0xb91ea9ec	-0.00015131355
227	0xb8f35c47	-0.00011604331
228	0x3bdd83f5	0.0067601153
229	0x3c49e796	0.012323281
230	0xbb1e4eea	-0.0024155923
231	0xbae489cc	-0.0017436086
232	0xbd18596c	-0.037194654
233	0xbac970e3	-0.0015368726
234	0x3c3ceb18	0.01153066
235	0x3c8bc1a6	0.017060112
236	0x3bafd8b4	0.005366409
237	0x3a55e445	0.000815932
238	0x3c837eda	0.016051698
239	0xbca2a902	-0.01985598
240	0x3b9a6624	0.004711883
241	0xbbfeae3d	-0.0077722357
242	0xbc0ff3a2	-0.008786114
243	0xbca9da64	-0.02073402
244	0xbc887934	-0.016659357
245	0xbbdf8086	-0.006820741
246	0x3c1cd2f8	0.009571783
247	0xbd2579bf	-0.04039931
248	0x3bf6be58	0.007530015
249	0xbcc19e04	-0.023634918
250	0xbcea1d16	-0.028578322
251	0x3bb7a2fc	0.005604146
252	0xbb905c23	-0.004405515
253	0xbc04d303	-0.00810695
254	0x3b1b7c2f	0.0023725142
255	0xbccc8681	-0.02496648

layer3.fc1.bias f4 [120]
0	0xbbe9b6a9	-0.0071323705
1	0x3b9d21e6	0.004795301
2	0xbb87fc75	-0.0041499683
3	0x3c60d359	0.013722264
4	0x3c0b16c8	0.008489318
5	0xbc266c3a	-0.010157639
6	0xbbb98526	-0.0056616245
7	0x3c2e60f9	0.010643237
8	0x3b172da3	0.0023067973
9	0x3bae1e95	0.0053137043
10	0x3c97f194	0.01854781
11	0x3b92b173	0.00447672
12	0xbc5d9835	-0.0135250585
13	0x3bdbb809	0.0067052883
14	0x3ac09f13	0.0014695845
15	0x3bb17127	0.0054151
16	0xbcc92eba	-0.024558414
17	0x3ba7ede6	0.0051247953
18	0x3b105008	0.0022020359
19	0x3c84e48e	0.016222265
20	0xbb82da1e	-0.0039932868
21	0xb9162bb8	-0.00014321401
22	0xbcbb3e3e	-0.022856828
23	0xbbc85d5a	-0.006114644
24	0x3b046845	0.002020375
25	0x3c137692	0.009000437
26	0x3c21d810	0.0098781735
27	0xbc79df27	-0.015250958
28	0xb9c58255	-0.00037671873
29	0x3b4da2f5	0.0031377648
30	0xbc7a0f09	-0.015262374
31	0xbcbe019e	-0.02319413
32	0x3e2c68a1	0.16836788
33	0x3c0df608	0.008664615
34	0xba3d77f0	-0.000722765
35	0xbb803388	-0.003912393
36	0xbd6608b6	-0.05616065
37	0xbc926b51	-0.017873438
38	0xbb469423	-0.0030300699
39	0x3c73bf68	0.014877178
40	0xbbb941ba	-0.005653587
41	0x3bf94500	0.0076071024
42	0x3b2e8660	0.0026630387
43	0x3dca25cf	0.09870493
44	0xbcc528fc	-0.024067394
45	0xbb91bfb5	-0.004447902
46	0xbbfc40fe	-0.0076981774
47	0xbc0f4bf8	-0.00874614
48	0x3c6b3303	0.014355424
49	0xbc7a1d24	-0.015265737
50	0x3c4744f7	0.012162439
51	0xbb7b6163	-0.0038357608
52	0xba21ffeb	-0.00061797973
53	0x3ba835a6	0.0051333485
54	0x3c0d6a83	0.008631351
55	0x3ca8c7da	0.02060311
56	0xbc536750	-0.01290305
57	0xbbd194e0	-0.006395921
58	0x3b05fcc7	0.0020444856
59	0xbb354f9f	-0.0027665866
60	0xbc0d0fee	-0.008609755
61	0x3c838bc9	0.016057866
62	0xbbcc7f06	-0.0062407283
63	0x3dcd6fab	0.100310646
64	0xbe2c1122	-0.1680341
65	0xbc1d9a45	-0.0096193
66	0x3ca1ba3a	0.01974212
67	0xbb711f81	-0.003679246
68	0x3ba9cf58	0.005182188
69	0x3a556c4c	0.00081414427
70	0xbac51043	-0.0015034754
71	0xbbe4e64b	-0.006985461
72	0x3c6ed620	0.014577419
73	0xbcc89066	-0.024482917
74	0xbc67d9db	-0.014151062
75	0x3a80fe5e	0.0009841432
76	0xbbc096df	-0.0058773602
77	0xbad71e5a	-0.0016412244
78	0x3b914292	0.0044329846
79	0xbc98173f	-0.018565772
80	0x3bc78d60	0.0060898513
81	0xbc82c15a	-0.015961338
82	0xbbfe93b2	-0.0077690715
83	0x3979d9a4	0.00023827568
84	0x3c2d5157	0.010578475
85	0xbb1c0e73	-0.0023812323
86	0xbcbc8f8a	-0.023017664
87	0x3c17db1e	0.00926855
88	0x3b147a35	0.002265585
89	0xbc190cb4	-0.009341408
90	0xbc8e8759	-0.017398523
91	0xbc731762	-0.014837118
92	0x3c1ce015	0.00957491
93	0xbbb3fa2f	-0.0054924707
94	0x3c255b5e	0.010092584
95	0x3a8df4f6	0.001083045
96	0xbc29918b	-0.010349642
97	0x3bba0200	0.005676508
98	0x3afc31e2	0.001924094
99	0xbd25b10d	-0.040452052
100	0xbcd6c5f5	-0.02621744
101	0xba67a60a	-0.00088366924
102	0x3c8c421f	0.017121373
103	0xba30e50d	-0.00067479984
104	0x3c0f3c1e	0.00874236
105	0xbc8b05e2	-0.016970579
106	0x3b81798a	0.003951256
107	0xbb0338bd	-0.0020022832
108	0xbb982476	-0.0046430184
109	0xbc0a698d	-0.008448017
110	0x3962b280	0.00021619536
111	0x3b5ab756	0.0033373437
112	0x3ea96359	0.3308361
113	0x3c5f7649	0.013639041
114	0x3ab8e163	0.0014105256
115	0xbc5bcff7	-0.013416282
116	0x3c7a6821	0.015283615
117	0x3be8c3b7	0.007103409
118	0x3ca42873	0.020038819
119	0x3e3625aa	0.17787805

layer3.fc2.weight f4 [84, 120]
0	0xbbd9ad5e	-0.0066429814
1	0x39d28cae	0.00040159136
2	0x3a31cab4	0.0006782219
3	0x3b35a724	0.0027718032
4	0x3b52ba4c	0.0032154499
5	0x3a90626c	0.001101566
6	0xbaa46b94	-0.0012544268
7	0x3b470d0a	0.0030372762
8	0xbc1cf3c9	-0.009579607
9	0xbbc09728	-0.005877394
10	0x3b0a6cd1	0.0021121989
11	0x3bd05ff2	0.006359094
12	0xbbfa451a	-0.007637632
13	0xbc254495	-0.010087152
14	0x3b4b2ab3	0.0031000793
15	0xbb80da94	-0.0039323065
16	0xbb2bd182	-0.0026217406
17	0xba4d2e28	-0.0007827007
18	0x3b845388	0.004038278
19	0xbb641a8e	-0.0034805867
20	0xbc079e66	-0.008277511
21	0xba4c6b78	-0.00077979965
22	0xbc4a88b1	-0.012361691
23	0x3bcf0036	0.006317164
24	0x3bb763c7	0.005596611
25	0xbbaeee8f	-0.005338497
26	0x3bbcec17	0.005765449
27	0xbbadf86d	-0.0053091557
28	0xbbadbf5f	-0.005302354
29	0x3c526823	0.012842211
30	0x3ad9f18b	0.0016627772
31	0x3b03ef7f	0.0020131764
32	0x3c69f906	0.014280563
33	0x3a97e0c1	0.0011587368
34	0xbb64909f	-0.003487624
35	0x3c0b863f	0.0085158935
36	0x3a8a982d	0.0010573916
37	0xbbb93abf	-0.005652755
38	0x3ab60a1a	0.0013888509
39	0xbc2f4074	-0.010696519
40	0x39658402	0.00021888319
41	0x3c5fdf83	0.013664129
42	0xbb7e4075	-0.0038795744
43	0x3b6e50ca	0.0036364072
44	0x3ac01399	0.0014654278
45	0x3ba08fbe	0.004899948
46	0x3ab3eb1c	0.0013726684
47	0xbb50ef91	-0.0031881074
48	0xbbcb0695	-0.006195853
49	0x3b720418	0.003692871
50	0x3be1f190	0.0068952516
51	0xbb5d231c	-0.003374285
52	0x3a35d9db	0.0006937065
53	0xbb826e15	-0.003980408
54	0x3c1fcaeb	0.009752969
55	0x3b6b81f8	0.0035935622
56	0x3b9d6092	0.004802772
57	0x3bd38903	0.006455542
58	0xbaf1fffc	-0.001846313
59	0x3aebeb21	0.0017999151
60	0x389d1371	7.4899646e-05
61	0xbc32bc45	-0.010909145
62	0xba839223	-0.0010038059
63	0x3b3982c3	0.00283067
64	0x3c25dc18	0.010123275
65	0xbc01e5ea	-0.007928351
66	0x3b48f0ed	0.003066118
67	0xbb9f3d64	-0.0048596133
68	0xbb2dcd41	-0.0026520046
69	0x3b1423f7	0.0022604445
70	0x3b48bcc9	0.0030630103
71	0x3a9dc52b	0.001203691
72	0xbb8c4e34	-0.0042817835
73	0xbba23cb8	-0.004951086
74	0xb9cee6ad	-0.0003946325
75	0x3b30f586	0.0027001812
76	0xbb29cdd0	-0.0025910027
77	0x3bbb9fdd	0.0057258443
78	0x3b83385f	0.0040045227
79	0xbb82d112	-0.0039922083
80	0x3a84f5ce	0.0010144056
81	0xbb205eec	-0.002447064
82	0x3b1858d7	0.0023246312
83	0x3c28dcaf	0.010306521
84	0xbb4943cc	-0.0030710576
85	0xbaee3bac	-0.0018175743
86	0xbac40cdd	-0.0014957447
87	0xba1bab3c	-0.00059382967
88	0xbab10aa0	-0.0013507195
89	0xbb30125f	-0.0026866419
90	0x3bbd640d	0.0057797492
91	0xbbbde657	-0.005795281
92	0x3c0d2b67	0.008616305
93	0xbb107584	-0.00220427
94	0x37df686c	2.6632297e-05
95	0xbbe43c22	-0.006965176
96	0xbb93a65a	-0.0045059146
97	0xbb6d241a	-0.0036184848
98	0xb89e2876	-7.5415635e-05
99	0xba963ffb	-0.001146316
100	0xbc1a1d22	-0.00940636
101	0x3c74c859	0.014940345
102	0x3c059ba8	0.008154787
103	0xbb621db0	-0.0034502558
104	0xbb23e9fe	-0.0025011296
105	0xbb836023	-0.004009263
106	0x3b1e9d46	0.002420263
107	0x3b24e582	0.0025161211
108	0xbab1be67	-0.0013560773
109	0xbb1331bb	-0.0022460062
110	0x3bb76b48	0.0055975057
111	0xbb56d9f1	-0.0032783712
112	0x396045e4	0.00021388341
113	0xbbc5e2fa	-0.0060390206
114	0xbb612464	-0.0034353966
115	0x3878a2ed	5.9279544e-05
116	0xbc0b7858	-0.008512579
117	0xba879692	-0.0010344556
118	0x3b321301	0.0027171972
119	0x3b5879a8	0.0033031497
120	0x3b55677b	0.00325629
121	0xbb8da3b0	-0.0043224916
122	0xbba353b1	-0.004984342
123	0xbb6ae69e	-0.0035843025
124	0xbb05f0bc	-0.0020437678
125	0xbb8824a5	-0.004154759
126	0xbbd06d7b	-0.0063607073
127	0xbae43ba5	-0.0017412795
128	0x39a7a2c3	0.0003197399
129	0x3bb4e22c	0.005520126
130	0xbb4d43df	-0.0031320972
131	0xbb8a582d	-0.004221937
132	0xbbc820c9	-0.006107424
133	0x3b96df39	0.004604247
134	0xbb440392	-0.0029909355
135	0xb9d3af13	-0.00040375497
136	0x3b50e898	0.0031876918
137	0xb932cf3e	-0.00017052607
138	0xbb730443	-0.0037081398
139	0xbb46d8cf	-0.003034163
140	0xba268c00	-0.0006353259
141	0x3c1d12e9	0.009587028
142	0x3ba76ae9	0.00510918
143	0xbc4a058a	-0.012330422
144	0x3b17ccd1	0.0023162852
145	0x3b5b432c	0.0033456786
146	0xbb4b676f	-0.0031036993
147	0x3ba4333b	0.00501099
148	0xbaff8f39	-0.001949764
149	0xbc0e2f67	-0.008678294
150	0x3b20826a	0.0024491795
151	0xbb15522d	-0.0022784576
152	0xbb9327c9	-0.0044908267
153	0x3bf0a358	0.007343691
154	0xbbc2b2cc	-0.0059417244
155	0xbc078ad7	-0.008272848
156	0xbb46a046	-0.0030307933
157	0x3b15a06e	0.002283122
158	0xbbb974eb	-0.0056596897
159	0x3a268652	0.0006352413
160	0xbb94bb2e	-0.004538915
161	0xbb8a0bcc	-0.004212832
162	0xbbd91e86	-0.006625953
163	0xb8e5ced1	-0.000109580935
164	0xbb66cde5	-0.0035217938
165	0x3b4842a6	0.0030557304
166	0x3b5cd72e	0.0033697593
167	0x3ac8464c	0.0015279739
168	0x3a5a39d4	0.0008324657
169	0x39afc4e9	0.0003352531
170	0xbb944923	-0.00452532
171	0x3b05998c	0.002038571
172	0xbaf2c360	-0.0018521361
173	0xb979f7d0	-0.00023838808
174	0x396e1b14	0.00022707536
175	0xbb1751d1	-0.0023089538
176	0x3ad9ea1f	0.001662556
177	0x3b044ed1	0.002018858
178	0xb87814f4	-5.914732e-05
179	0x3ba79c94	0.005115101
180	0x3a67d3e0	0.00088435225
181	0xba186bf8	-0.00058144284
182	0xb8c0d75f	-9.1953894e-05
183	0xbaacae54	-0.0013174512
184	0x397fef90	0.00024407939
185	0x3b18df7b	0.0023326564
186	0xb9eb9d84	-0.0004494005
187	0xbc120bec	-0.008913975
188	0x3b3923ac	0.0028250022
189	0xbbf855db	-0.007578594
190	0x3ba40dcc	0.0050065275
191	0x3b3d1521	0.0028851705
192	0x3b2d2dc8	0.0026424993
193	0x3bc3313d	0.0059567974
194	0xbbd7330e	-0.0065673655
195	0xbab65fc8	-0.0013914043
196	0xbb6d5dd5	-0.0036219258
197	0x398ca3c4	0.00026824896
198	0xbae39e9c	-0.0017365995
199	0x3c44c1bc	0.0120090805
200	0xbaaf662d	-0.0013381891
201	0x3bad594d	0.0052901865
202	0xbbdde3ed	-0.0067715556
203	0xbbd89745	-0.0066098296
204	0xbab0d329	-0.0013490665
205	0x3b8bfd19	0.004272115
206	0x3ba4bab2	0.0050271386
207	0x3c0cbcb6	0.008589914
208	0xb8ca595f	-9.648757e-05
209	0x3bc5a4e2	0.0060316185
210	0x3b605bdd	0.0034234442
211	0x3ba2e0d9	0.0049706516
212	0xbbe97fdd	-0.007125838
213	0x3959a119	0.00020754746
214	0xbab73a10	-0.0013979096
215	0xbaa667a0	-0.0012695678
216	0x3b2492f7	0.0025112012
217	0x3bd040bb	0.0063553727
218	0x3bb0ab27	0.0053914967
219	0x3a691fc8	0.00088929804
220	0x3a64ee1d	0.00087329914
221	0xbb607456	-0.003424903
222	0xbb853409	-0.004065041
223	0xbbb3f3ce	-0.0054917103
224	0xbc18d584	-0.00932825
225	0xbb344c81	-0.002751142
226	0xbbb3a097	-0.0054817903
227	0x3ba2171f	0.004946604
228	0x3a83c119	0.0010052054
229	0x3b1dfc1a	0.0024106563
230	0xbb87804a	-0.0041351663
231	0x3b8945fb	0.0041892505
232	0xbb7ed037	-0.003888143
233	0xb8c60e50	-9.444042e-05
234	0xbb1888e9	-0.0023274964
235	0xb9271b84	-0.00015936611
236	0x3b3bcb9f	0.0028655303
237	0xbac1cd35	-0.0014785888
238	0xb950e3ba	-0.0001992126
239	0xbb9983ec	-0.0046849158
240	0xbb3bcd16	-0.0028656176
241	0x3bacc2df	0.005272254
242	0xbb174981	-0.0023084583
243	0xb90e7309	-0.00013585029
244	0x3a9fb9dc	0.0012186128
245	0x3a7d2bae	0.0009657693
246	0x3bc1013d	0.00589004
247	0x3ab9b97c	0.0014169659
248	0x3be2a82b	0.00691702
249	0x3aeebdea	0.0018214558
250	0xbb8ddf7a	-0.004329619
251	0xbb1cafcd	-0.0023908496
252	0x3bb56cc0	0.0055366457
253	0x3ba2d48d	0.0049691857
254	0x39db5390	0.00041833194
255	0x3c30f12b	0.010799686

layer3.fc2.bias f4 [84]
0	0x3c3c0e57	0.011478028
1	0xbc1cc01f	-0.00956729
2	0xbba95f17	-0.0051688063
3	0xbc47d468	-0.012196638
4	0x39ec6027	0.00045085067
5	0x3c238e0c	0.009982597
6	0x3aa3c938	0.0012495881
7	0xbba63aa6	-0.0050729094
8	0x3b6fb1d4	0.00365745
9	0x3aff0c3c	0.0019458602
10	0x3e546769	0.20742573
11	0x3c7a1fea	0.015266398
12	0x3bdc66f2	0.006726139
13	0x3ba68997	0.00508232
14	0x3bca057e	0.0061652055
15	0x3c2dce7e	0.010608314
16	0x3c27a340	0.010231793
17	0x3b3a8c28	0.0028464887
18	0xbb659037	-0.0035028586
19	0xbb7e9888	-0.003884824
20	0xbc81287e	-0.015766378
21	0x3bb60fb0	0.0055560693
22	0xbc83915a	-0.01606052
23	0xbc82c0ba	-0.01596104
24	0xbbd12222	-0.006382243
25	0xbd58e10f	-0.052949008
26	0x3bb0b916	0.0053931577
27	0x3c58675e	0.013208238
28	0x3c043f06	0.008071667
29	0x3cae5361	0.021279993
30	0xbc0e0338	-0.00866776
31	0x3b71e80d	0.0036911995
32	0xbbb59788	-0.0055417456
33	0x3b2f7a40	0.0026775748
34	0x3c4dabb3	0.012553143
35	0x3a969cf3	0.0011490866
36	0xbba87a6d	-0.0051415474
37	0x3cb0fca6	0.021604847
38	0xbc560995	-0.013063808
39	0xbc3efe51	-0.011657313
40	0xbc52bb4e	-0.01286204
41	0x3e83b6fc	0.25725543
42	0x3c62e5ca	0.013848731
43	0xbbaf7ab4	-0.0053552035
44	0x3c3ed6ec	0.011647921
45	0xbc1eb093	-0.009685653
46	0x3b5b3bed	0.0033452467
47	0xbc74ca45	-0.014940803
48	0x3b93ca20	0.004510179
49	0x3c6420f6	0.013923874
50	0x3c2f475d	0.010698167
51	0x3e6b8dd1	0.23003317
52	0x3bcb0e8c	0.0061968025
53	0xbcb13a75	-0.02163432
54	0x3b0482c0	0.0020219535
55	0x3b82db8c	0.003993457
56	0x3ba546f0	0.005043857
57	0xbc291e39	-0.010322147
58	0xbc4fb761	-0.012677998
59	0x3c5d83b2	0.013520168
60	0x3b1e29d8	0.0024133828
61	0x3b85ff29	0.0040892554
62	0xbc6709ef	-0.014101489
63	0xbc90bcbc	-0.01766812
64	0x3ad1e72d	0.001601433
65	0x3bb31bfd	0.005465983
66	0xbcd67bbe	-0.026182052
67	0x3ac278c2	0.0014837014
68	0x3c8064f4	0.015673138
69	0xbc8b11f5	-0.016976336
70	0x3de62783	0.11238005
71	0x3bec1a56	0.007205288
72	0x3c2f10f0	0.010685191
73	0x3b7d6bfa	0.0038669095
74	0xbc14a1fc	-0.009071823
75	0xbc7083e7	-0.0146798855
76	0x3c9bac6e	0.01900312
77	0xbc41f1be	-0.011837421
78	0xbb8aadb1	-0.0042321314
79	0xbda2584f	-0.07927
80	0x3b029218	0.0019923504
81	0xbab8e984	-0.0014107679
82	0xbc2295d1	-0.009923414
83	0xbb8449d9	-0.0040371236

layer3.fc3.weight f4 [10, 84]
0	0xba640386	-0.0008698035
1	0xbb6cb728	-0.0036119912
2	0x3b84a774	0.0040482823
3	0xbb6b8c9d	-0.0035941966
4	0x3bf1886f	0.0073710005
5	0xbc243873	-0.010023224
6	0xbaa4918e	-0.0012555586
7	0x3a4950bf	0.00076795736
8	0x3b0178eb	0.001975591
9	0x3bc3a44b	0.005970513
10	0xbe2b7ae4	-0.16746098
11	0x3a7d7b59	0.00096695643
12	0xb9156849	-0.00014248597
13	0x3b0e0d77	0.0021675506
14	0xbba42be3	-0.0050101145
15	0x3bbdd761	0.0057934974
16	0xbb560f51	-0.0032662938
17	0xbb13fdd4	-0.0022581713
18	0x3b0936e3	0.0020937256
19	0xba87c461	-0.0010358208
20	0xbb279ecb	-0.0025576826
21	0xbb56c61a	-0.0032771886
22	0x3a881ba9	0.001038422
23	0xbbd8deb8	-0.006618347
24	0xba9bae77	-0.0011877556
25	0x3c3c8f9d	0.011508849
26	0x3b7ab939	0.0038257374
27	0x3dc2b7df	0.09507727
28	0x3bd01765	0.006350445
29	0xb9df41a5	-0.00042582783
30	0xbbbe86b1	-0.0058143963
31	0xbac20bea	-0.0014804576
32	0xbb3b4ae4	-0.0028578574
33	0x3c08dbd2	0.0083531905
34	0x3b8264aa	0.0039792852
35	0xbbc73370	-0.00607913
36	0xbaeabe41	-0.0017909483
37	0xbb29f4cd	-0.0025933266
38	0xbc09d04f	-0.008411481
39	0x3af33bd3	0.0018557258
40	0xba0f9de1	-0.0005478543
41	0x3be9521b	0.0071203834
42	0x3b8a80a5	0.0042267614
43	0x3a3c395a	0.0007180177
44	0x3b83cb6f	0.004022054
45	0xbb1e8ae8	-0.0024191681
46	0x3c8f10e8	0.017464116
47	0xbb94a64d	-0.004536426
48	0x3aaa4d3a	0.0012992986
49	0x3b1dbd96	0.00240693
50	0x3a1ec55b	0.000605663
51	0x3ca40456	0.020021599
52	0x3bf00452	0.007324734
53	0x3b1d804c	0.002403277
54	0x3bf6d978	0.0075332485
55	0xbb8270c6	-0.003980729
56	0x3b0da293	0.0021611794
57	0xbe732644	-0.23745066
58	0xbba53d82	-0.0050427327
59	0x3b5e7d9a	0.0033949376
60	0x3a84e06f	0.0010137687
61	0x3b49d243	0.0030795492
62	0x393e023b	0.00018120643
63	0xba755ed2	-0.00093601376
64	0xbab16bf0	-0.0013536196
65	0xbb5cde89	-0.0033701977
66	0x39085380	0.00013001077
67	0x3b1cc8b7	0.0023923346
68	0x3b03399c	0.0020023352
69	0xbb2bc1ca	-0.0026208037
70	0xbdf9ad10	-0.12191212
71	0x3abd16a9	0.0014426309
72	0x3b96d4d6	0.0046030087
73	0xbb4210c4	-0.0029612044
74	0x3a2eea6a	0.00066725037
75	0xbb721e60	-0.0036944374
76	0x3baba9d1	0.0052387496
77	0xb8a108e9	-7.678738e-05
78	0x3bb9a82e	0.0056658005
79	0x3e04e87a	0.12979308
80	0xbb50e77b	-0.0031876254
81	0xbba6ea0a	-0.0050938176
82	0x3ba0749d	0.004896714
83	0xb9b2e145	-0.00034118645
84	0xbb0f47ce	-0.0021862867
85	0x3a31be64	0.00067803846
86	0xba6a1fb6	-0.0008931117
87	0x3a692385	0.00088935375
88	0x3b3a49c4	0.0028425315
89	0x3ae4008c	0.0017395183
90	0xbaa16280	-0.001231268
91	0x3b22e9f4	0.0024858685
92	0x3b3ff135	0.0029288058
93	0xba557d1a	-0.0008143947
94	0xbce54dc7	-0.027991189
95	0xbb323b83	-0.0027196116
96	0xbb3b6e94	-0.0028599845
97	0xbb28a9e6	-0.0025736033
98	0x39c25fd9	0.00037073976
99	0xb9eee34e	-0.00045564253
100	0xba5e178c	-0.00084721367
101	0xbb63d8b7	-0.0034766623
102	0xbaf077fd	-0.0018346306
103	0xb8e1809a	-0.0001075279
104	0x3ac85179	0.001528307
105	0x3b0abead	0.002117078
106	0x390e668e	0.0001358038
107	0x3ae544f1	0.001749186
108	0xbb1fe424	-0.0024397457
109	0x3e657f23	0.2241178
110	0x3aaa6c16	0.0013002183
111	0xbdc686c0	-0.0969367
112	0x3ad3ec55	0.0016168455
113	0xbb9356f4	-0.0044964496
114	0x3b22444f	0.0024759953
115	0xbb218a24	-0.0024648989
116	0x3adebad0	0.001699293
117	0xba0f00ea	-0.00054551533
118	0xbb392462	-0.0028250446
119	0x3b0a69d8	0.0021120217
120	0x3aa6ceb9	0.0012726403
121	0xbb705122	-0.0036669453
122	0x3b3d5fb8	0.0028896164
123	0x3af00567	0.0018312157
124	0x3aff493f	0.0019476785
125	0xbe282e14	-0.16423827
126	0xba303f2b	-0.000672328
127	0x3a422fa9	0.00074076146
128	0xbb3faeee	-0.0029248553
129	0x3ad670eb	0.0016360556
130	0x3de68ced	0.11257348
131	0x3b34b9be	0.0027576531
132	0xbafbe62e	-0.0019218379
133	0xbb2dc8f2	-0.0026517478
134	0xbb8d193a	-0.0043059858
135	0xbea8ed74	-0.32993662
136	0xbaab6357	-0.001307587
137	0x3bb5a787	0.0055436525
138	0xbaff4ecb	-0.0019478438
139	0x3a4c063f	0.0007782913
140	0xbab3fbf4	-0.0013731704
141	0x3b3dff4a	0.0028991275
142	0x3ace9e10	0.0015763659
143	0xbabe1ae2	-0.0014503861
144	0x3a3dac9d	0.0007235499
145	0xbada04dc	-0.0016633528
146	0xba071b49	-0.0005153907
147	0x3b948cb0	0.004533373
148	0x3aae6dc9	0.0013307865
149	0xb940bcea	-0.00018380923
150	0x3be2ac41	0.006917507
151	0xbb442331	-0.0029928202
152	0xbb463e0f	-0.0030249392
153	0x3b5f191f	0.0034042073
154	0xbdc31073	-0.09524622
155	0xbaa85920	-0.0012843944
156	0xba4da752	-0.0007845062
157	0x3a9735f1	0.0011536462
158	0xba48ccd3	-0.0007659916
159	0x3b52b063	0.0032148592
160	0xbb4f6a2d	-0.003164898
161	0x3bd52323	0.0065044328
162	0x3afdc7b0	0.001936188
163	0xbd7b697c	-0.061379895
164	0x3a4d321b	0.00078275957
165	0x3adb502d	0.0016732268
166	0x3b00ef44	0.0019673863
167	0xbac79d90	-0.0015229452
168	0x3bdb5cc2	0.006694407
169	0xbaf9ff3d	-0.0019073259
170	0xbb9ae184	-0.0047265906
171	0xbb3da0a1	-0.0028934854
172	0x3971c3cf	0.00023056495
173	0x3b27a828	0.0025582407
174	0x3bbc3421	0.005743519
175	0xba6c65a2	-0.000901783
176	0x3bb49e4d	0.005512035
177	0xba86a3e7	-0.0010272235
178	0xbda56f82	-0.08077909
179	0x39e326bf	0.00043325682
180	0xb8958333	-7.1293114e-05
181	0xbae5d55a	-0.0017534897
182	0x3b5da51e	0.0033820341
183	0xba10a69d	-0.00055179914
184	0x3c20bef3	0.009811151
185	0x3bd16efd	0.0063914047
186	0x3b4793b5	0.003045303
187	0xbae04164	-0.0017109332
188	0xbc3d04d2	-0.011536794
189	0x3b6d0b6d	0.003617014
190	0xbab2e288	-0.0013647834
191	0xbbdc4e98	-0.0067232363
192	0xbb129c62	-0.0022371043
193	0xbd599acb	-0.053126138
194	0x3aa15f6b	0.0012311762
195	0x3e2e1671	0.17000748
196	0x3a19a137	0.00058605097
197	0x3c0e802e	0.008697553
198	0xbb251276	-0.0025188006
199	0x3bb9be68	0.00566845
200	0xbac60002	-0.0015106204
201	0x3b958d4b	0.0045639626
202	0x3bf76639	0.0075500277
203	0x3bad2df4	0.005285019
204	0xb92ca4ae	-0.00016464546
205	0x3c7bce3d	0.015368995
206	0xbb8edf3f	-0.004360109
207	0xbc00311e	-0.00782421
208	0xbbb5646e	-0.005535654
209	0x3e0001ef	0.12500738
210	0x3b57080a	0.0032811188
211	0xbc01b3c2	-0.007916393
212	0x3b7b614a	0.003835755
213	0xbba19cce	-0.0049320227
214	0x3d07378f	0.03301197
215	0xbb8b0ba0	-0.004243329
216	0xbb93d890	-0.0045119002
217	0x3c43a786	0.011941796
218	0x3b14b815	0.002269273
219	0x3e1a81a6	0.1508852
220	0xbaa51a47	-0.0012596332
221	0xbc7d8624	-0.015473876
222	0xb9291ec0	-0.00016128551
223	0x3aabf6c0	0.0013119802
224	0x3b99d6ee	0.004694811
225	0x3d366a9a	0.044535257
226	0xbb5368e9	-0.0032258576
227	0x3ba4f501	0.0050340896
228	0x3b4c6529	0.0031188226
229	0x3b9ab6cb	0.0047214977
230	0xba42e219	-0.0007434204
231	0xbc5281ac	-0.012848299
232	0x3bc033ce	0.0058655506
233	0x3b4f5e85	0.0031642031
234	0xbbe0332e	-0.0068420386
235	0xbb52b46f	-0.0032151004
236	0x3c28ca99	0.010302209
237	0xbc289217	-0.010288737
238	0xbc8a2e3b	-0.016867748
239	0x3abe6aa3	0.001452763
240	0x3b39c64d	0.0028346956
241	0x3b105b18	0.0022026952
242	0xbc0e9f3e	-0.0087049585
243	0xbba8ced3	-0.0051516085
244	0x3c084bf6	0.008318892
245	0xbb537bab	-0.0032269757
246	0xbb1511c2	-0.002274618
247	0xbe48e456	-0.19618353
248	0x3a88925d	0.0010419596
249	0x3a7295c6	0.00092538854
250	0xbc0af9a3	-0.00848237
251	0xbaefe8f1	-0.0018303675
252	0x3a4c6b61	0.0007797983
253	0x3b0e519c	0.0021716123
254	0x39e59efd	0.0004379674
255	0x3a1229c1	0.000557568

layer3.fc3.bias f4 [10]
0	0xbd994771	-0.074843295
1	0xbef0d66a	-0.47038585
2	0x3ec5f0af	0.3866019
3	0x3f16d3e3	0.58917063
4	0x3ea29b8f	0.31759307
5	0x3ca2e62a	0.019885141
6	0xbe07ef35	-0.13274844
7	0xbe8252d8	-0.2545383
8	0xbec30ae7	-0.38094255
9	0xbda99790	-0.082808614
