output/models_cifar10_410.pth (torch_old, 248636 bytes, 10 tensors)

layer1.conv1.weight f4 [6, 1, 5, 5]
000000 90 4c df bb 00 94 34 be bb ee 7a 3c d3 83 03 be
       -0.006814547 -0.17634583 0.015315707 -0.12843256
000010 ec 4b 98 bd 2a a2 96 3e 2c df 52 be df 4b de 3e
       -0.07436356 0.29420596 -0.20592946 0.4341726
000020 5e 74 90 bd 12 b3 5f 3e 14 db d2 3d 1f 94 1c bf
       -0.07053445 0.21845654 0.10295692 -0.61163515
000030 e1 e4 db 3e e5 a9 c1 be 63 5e 74 bd e5 68 ce 3e
       0.42948058 -0.37824932 -0.059660327 0.40314403
000040 c0 1e 2c bf 43 87 3a 3f f8 8f ad be bb 9d 14 3e
       -0.6723442 0.72862643 -0.33898902 0.14513294
000050 2b b3 7b 3e 3e 27 20 bf 9a 43 02 3f bd b7 44 be
       0.24580066 -0.6255988 0.508844 -0.19210716
000060 7a ec ef bc df 44 d8 3b da 92 62 bd 97 73 e3 bc
       -0.029287565 0.006600007 -0.05531583 -0.027765078
000070 a6 5e b6 3d 7e 5c ca bc 7c 06 50 3d ae 8f 33 3e
       0.089047715 -0.024702307 0.050787434 0.17535278
000080 75 c8 16 bf e0 00 0f 3e e8 88 5d 3e d4 ae 9c bd
       -0.58899623 0.13965178 0.21634257 -0.07650533
000090 29 ed b0 3e 55 75 e9 3e 50 23 8f bf 8f c1 a7 3e
       0.3455594 0.4559733 -1.1182652 0.3276486
0000a0 08 f2 ac 3d f3 a4 09 bf 89 af 44 3f 45 c3 2a 3e
       0.08444601 -0.5376732 0.76830345 0.16676052
0000b0 a6 d4 de be cc 45 53 bc b9 05 a5 3d 04 f3 cb be
       -0.43521613 -0.012895059 0.08057732 -0.39833844
0000c0 7a 6b cd 3e 61 4a a5 bd 36 3b 27 bd fe fe ae bc
       0.4012106 -0.08070827 -0.040827952 -0.021361824
0000d0 e5 45 85 bd 73 02 11 3e e7 6c 66 3d 9c 87 76 bd
       -0.06507472 0.1416109 0.0562562 -0.06018792
0000e0 02 53 0c bd c7 d7 3e 3e 49 28 47 3d b4 34 7e bd
       -0.03425885 0.18637 0.048622403 -0.06206198
0000f0 e0 0e ae be e9 9a d1 3b b5 48 8d 3e f2 b4 d0 bd
       -0.33995724 0.0063966406 0.27594534 -0.101907626
000100 8a 2e 2c bd df 34 b4 be b6 7f a0 3e 0c 0a 55 3e
       -0.04203657 -0.35196587 0.31347436 0.20804614
000110 3b fe 0f bd 82 47 42 3c c2 c4 01 bf fc ed b1 3e
       -0.035154562 0.011857869 -0.50690854 0.3475188
000120 a0 ac c1 bc cc d5 3f 3d 68 c7 b9 bd f3 f9 e8 bd
       -0.023641884 0.046834752 -0.09071237 -0.11375799
000130 57 67 ac be c5 09 0a be 95 47 39 bd 94 a5 82 3d
       -0.33672592 -0.1348029 -0.04523428 0.06379238
000140 7e 7e 92 3e 7f 61 4c 3f a3 84 f8 3e 38 00 37 3e
       0.2861213 0.7983627 0.48538694 0.17871177
000150 6c 91 f4 3c 35 ee 04 be d0 6b e0 be 6f ef 97 be
       0.029854499 -0.12981494 -0.43832254 -0.2967486
000160 b1 31 09 bd f2 c2 d6 bd f9 7b e7 3d d0 6c 20 bb
       -0.033494655 -0.104864016 0.11302943 -0.002447892
000170 ff 20 c0 bd b7 ba a5 3d 50 d1 54 3e 94 88 89 bd
       -0.093812935 0.08092254 0.20782971 -0.06715503
000180 46 3a 0f bd 91 f0 80 bc 43 96 04 be e0 d0 a4 bd
       -0.034967683 -0.015739711 -0.12947945 -0.08047652
000190 88 4e b5 bd e4 94 f8 3c 03 03 d2 3b e4 2b f0 3d
       -0.08852869 0.030344434 0.0064090504 0.117271215
0001a0 4a f2 b7 bd 44 4b 99 3c 73 b7 c8 3d 9c 45 44 3d
       -0.0898176 0.018712647 0.09800615 0.047917947
0001b0 51 b9 17 be 3d 10 03 3e c4 b8 88 be cf cb cd be
       -0.14816786 0.12799163 -0.26703465 -0.40194556
0001c0 b8 5e ed bd b3 2b 83 3c 8f ce 96 be e9 4a 65 3e
       -0.11590332 0.016012048 -0.29454467 0.22391857
0001d0 75 7a 61 3e 2f 79 28 be 13 b4 d0 bd 34 8c 41 3e
       0.2201937 -0.16452478 -0.101905964 0.1890114
0001e0 6f bf 89 bd 58 79 06 3d 1b 39 22 3e 81 1d 41 3d
       -0.06725966 0.032830566 0.15842097 0.047147278
0001f0 0d bd e6 bd 5d 50 34 3d d9 1f 83 be cf c7 a6 3e
       -0.11266527 0.044021953 -0.25610235 0.32574317
000200 cc 90 ea ba 8a bd c6 bd 73 22 0a be e2 b4 b6 3e
       -0.0017895936 -0.097041205 -0.13489704 0.35684878
000210 db f4 ee 3e 53 cc 34 bf cb 94 0f 3c 09 e3 de 3d
       0.46671185 -0.70624274 0.008763502 0.10883147
000220 b1 b9 ea 3e a7 1b 8f bf b8 47 38 3d 9a 65 ae 3e
       0.45844796 -1.1180314 0.04499027 0.3406189
000230 3f 7a e2 bb 89 9c 98 be 60 7a cc bd 05 19 27 3f
       -0.0069115455 -0.29806927 -0.09984279 0.6527255
000240 a0 6b 79 be d3 cc f5 3d e0 66 fc bd 72 06 49 3e
       -0.24357462 0.12001958 -0.12324309 0.19631365
000250 f2 96 2b be 5f d3 72 3c
       -0.167568 0.014820903

layer1.conv1.bias f4 [6]
000000 e4 73 a8 be 29 49 a5 be ac 4d a0 be 45 b0 97 be
       -0.32900918 -0.3228238 -0.3130926 -0.2962667
000010 c2 39 98 be 4d 3f b3 be
       -0.29731566 -0.35009232

layer2.conv2.weight f4 [16, 6, 5, 5]
000000 5e 67 6f 3d f8 fd a4 bc 03 5a 86 3d 82 1a 17 3e
       0.058448188 -0.020140633 0.06560137 0.14756206
000010 b1 80 9c 3d 73 7b 66 3d fb 0e a6 bd 10 bf db 3c
       0.076417334 0.056270074 -0.08108326 0.026824504
000020 df ac fd bb 11 e8 44 3d 30 3b 07 bd f1 f9 68 bc
       -0.007741555 0.04807288 -0.03301543 -0.014219747
000030 af e5 b5 bc 3b 38 7e bb c6 27 87 3d 4f 3e 7a 3c
       -0.022204248 -0.003879084 0.06599383 0.015273645
000040 20 01 1e be 0e d1 b0 bd b7 e7 c2 3d 7d 99 9c bd
       -0.15430117 -0.08633624 0.09516852 -0.07646463
000050 49 1a 71 be 01 a2 b4 be 3c bd 30 bf c7 76 39 bf
       -0.23545183 -0.3527985 -0.6903875 -0.72446865
000060 f8 13 a6 be ee 0b ae 3e ba 25 3c 3e b7 e3 a1 3c
       -0.3243711 0.33993477 0.18373767 0.019761903
000070 9a b3 0d 3c 5f 99 33 3e 7b 8a 73 3e be 82 33 3e
       0.008648777 0.17538975 0.23783295 0.17530343
000080 9c 21 57 3e f2 1f b7 3d 2f a8 0f 3e af db e7 3e
       0.21008915 0.0894164 0.14029 0.45284793
000090 66 86 31 3e 33 4d 30 3e 3c 1d 8c 3d fd 36 4e 3e
       0.17336425 0.17216949 0.068415135 0.20138164
0000a0 09 6e bb 3e 0a 19 a5 3e c5 94 5f 3e d0 68 df 3d
       0.36607388 0.32245666 0.21834095 0.10908663
0000b0 c6 ea 75 bd 49 b8 e9 3e 93 c9 00 3e 58 59 1f be
       -0.06003835 0.4564841 0.12576894 -0.15561426
0000c0 f9 4f 6f bc 8d 27 92 bd 0d 34 3b 3e 46 ed e7 3d
       -0.014606469 -0.0713645 0.18281575 0.11324553
0000d0 0d 3b 7a bc 47 62 35 3e 5f 2c 76 bd 35 12 b7 3c
       -0.015272868 0.17713271 -0.06010091 0.022347549
0000e0 74 7a 17 3e 05 96 47 3d 34 65 13 be 62 ce 08 3e
       0.14792806 0.048727054 -0.14394075 0.13359979
0000f0 cc c3 7a be 8b d9 27 3c bc d9 ca 3d 4a ab 42 3e
       -0.24488753 0.010244737 0.09904811 0.19010654
000100 ab 73 1c 3c cf 47 a7 bd 5a ea 0f be 98 af 02 be
       0.009549062 -0.08167993 -0.14054242 -0.12762296
000110 b4 09 7c 3e b9 3b 5a 3e 07 d7 14 be 8a 4e 3c be
       0.24613076 0.21311845 -0.14535151 -0.18389335
000120 f8 94 be be dc 89 c6 be 28 6e e5 bd 6a de 8a 3e
       -0.3722303 -0.38777053 -0.11202651 0.27122813
000130 9c cd 15 be 34 7e c6 bc 2c f6 a8 3b 59 ef 1f 3e
       -0.14629215 -0.0242301 0.005156299 0.15618648
000140 b4 94 0f 3e 57 5d 80 3d f9 be 2d 3e dc 1a 13 3e
       0.1402157 0.06267803 0.16967382 0.14365715
000150 59 52 52 3d c2 2f 07 bd 07 fe ab 3e b4 25 13 3e
       0.051348064 -0.03300453 0.33592245 0.14369851
000160 de 42 38 3e cf 13 d0 3d d2 53 66 be 1c 92 88 3e
       0.17994258 0.10160028 -0.22492912 0.26673973
000170 39 c9 97 3e 5b ca 3b 3e 00 e7 95 bc 05 43 f4 bd
       0.29645708 0.18338911 -0.018298626 -0.119268455
000180 08 11 f0 3d fe e0 65 3e b5 74 af 3e cb c0 97 3e
       0.117219985 0.22449109 0.34268728 0.29639277
000190 4c e6 70 3e bb a0 81 3d 6d 86 3c bd 73 df 82 3e
       0.23525351 0.06329485 -0.046026636 0.25561103
0001a0 ad 40 d5 3d 90 ae cd 3e d3 d0 a0 3d 3c 0a 59 3e
       0.104127266 0.40172243 0.0785233 0.2119531
0001b0 5f 71 2b 3d f3 a3 a3 3e 25 57 a0 3e 36 1b 06 3e
       0.041856166 0.3196102 0.31316486 0.13096318
0001c0 5e 81 5b 3e 92 f2 60 3d 57 6b de 3e c8 73 35 3e
       0.21436068 0.054918833 0.4344127 0.17719948
0001d0 27 0a ca 3d 87 43 05 3f 3f 8f ad 3e fa dd 99 3d
       0.09865218 0.52056164 0.3389835 0.07513042
0001e0 2b 81 df be 27 1e d8 3e f9 3a 3c 3f 3b f7 16 3e
       -0.43653235 0.42210504 0.73527485 0.14742748
0001f0 d1 42 3a be 30 10 9a bd 09 f7 cf bd 2d 73 6f bc
       -0.18189551 -0.07522619 -0.1015454 -0.014614862
000200 bc a1 34 3d 37 bb bd 3c 60 98 9a bd cc 32 47 be
       0.044099554 0.02316056 -0.075485945 -0.19452971
000210 fc 7b 90 3b 81 24 ce 3d e5 a6 1a 3e ca 58 c6 3b
       0.0044093113 0.10065556 0.15102728 0.006053065
000220 11 6d ce bd 87 c2 24 3d 98 39 96 3d 77 dd e4 3d
       -0.100793965 0.04022458 0.07335204 0.111750536
000230 5e af 0b 3c db 56 1a bd f3 de da bd f1 a5 cf 3d
       0.0085256975 -0.037680488 -0.106870554 0.10139073
000240 fd 11 3c 3e 8d c6 21 3d 11 eb bc 3d 42 ec 42 bd
       0.18366237 0.039495993 0.09224523 -0.047588594
000250 5e 7a 18 3d e0 85 84 3e 0a 3f 7a bd ef 81 0e 3d
       0.037226073 0.2588339 -0.061095275 0.034791883
000260 76 e2 a3 3d 6a a9 4b 3e f2 54 39 be 64 e6 6c 3e
       0.08002178 0.19888845 -0.1809881 0.23134762
000270 41 70 7c 3c 47 49 af 3d 59 dd 86 be 50 b2 b4 3d
       0.015407623 0.085588984 -0.2634075 0.08823073
000280 d4 74 92 ba ec 93 a5 3e 51 98 09 be 5d 8a a0 3c
       -0.0011173734 0.32339418 -0.1343701 0.019597227
000290 1b c3 00 bd a8 05 1e be 3e 8e a5 be 96 56 86 bd
       -0.031436067 -0.15431845 -0.32335085 -0.06559484
0002a0 9f e5 71 bd 13 f6 80 be 81 1e a3 bd 68 c1 1e 3e
       -0.059056874 -0.2518774 -0.079648025 0.15503466
0002b0 3f ee 41 be c6 f1 b8 be d4 39 fa bd e1 f1 73 3e
       -0.1893854 -0.36121958 -0.12218061 0.23822738
0002c0 32 87 94 3d 76 6c d5 3d 85 0e 9f 3e 6d ce 87 3d
       0.07252349 0.10421078 0.31065765 0.066311695
0002d0 02 05 b0 3c dc bc af 3c 1e 41 ca be 99 d8 ac 3e
       0.021486763 0.02145236 -0.39502805 0.33759
0002e0 c7 a2 51 3e ed e2 a1 be 05 02 98 3d 05 02 cd be
       0.20472251 -0.31618443 0.0742226 -0.40040603
0002f0 94 d0 a0 3e 84 67 a5 3d 4f a5 16 3c 5b b1 22 bd
       0.31409132 0.08076385 0.009194686 -0.03971992
000300 e4 db b3 be e2 84 f3 be 7d 73 9f 3d 7a 98 48 3e
       -0.351287 -0.4756232 0.077856995 0.19589415
000310 82 c4 93 3e 78 51 06 3f cc 96 e8 3c 63 96 b5 be
       0.2886086 0.5246806 0.028392218 -0.35466298
000320 3a 45 28 bd 71 e9 a1 3d 2f a4 3e 3e 4c 84 4b bd
       -0.041081645 0.079058535 0.18617319 -0.049686715
000330 2f ef ea 3d c5 d6 57 3d f7 c8 a0 be 0c e6 fe 3c
       0.11471402 0.052695055 -0.31403324 0.031115554
000340 10 17 80 3e df 55 bc be 8a b6 0b 3e d8 1a e1 3e
       0.25017595 -0.36784264 0.13643852 0.43965793
000350 bc bf 28 be 1d 63 27 3f 4c 12 27 3d cf b5 f7 3b
       -0.16479391 0.6538561 0.040788934 0.007559515
000360 d0 a3 14 3e ad eb 30 3e f3 38 53 3e 5e f7 93 3e
       0.14515615 0.17277403 0.20627193 0.28899664
000370 a3 3a d3 3d 18 7f 31 be 40 a8 d3 3c f9 d3 f5 3b
       0.103139184 -0.17333639 0.025837064 0.0075020758
000380 16 00 94 3e dc 30 ce 3d c8 29 0a 3e 59 0e 0d be
       0.28906316 0.10067913 0.13492501 -0.13775004
000390 d0 28 c7 bd ab 84 c7 3d 88 9d 1f 3d e1 e5 c2 3d
       -0.09724581 0.09742101 0.038968593 0.09516502
0003a0 8b 41 97 be 4a 22 9c be 16 ad 4a 3d 75 f4 2a be
       -0.29542193 -0.3049491 0.049481474 -0.16694815
0003b0 6b 2a 8c bd 3e e0 4e be d6 94 cb be 1d 69 08 be
       -0.06844028 -0.20202729 -0.3976199 -0.13321348
0003c0 7f b2 44 3e e0 d5 8b be 73 9c 34 be 51 b4 99 be
       0.19208716 -0.2731161 -0.17637806 -0.30020383
0003d0 90 f1 8c be 93 e7 4d 3e 4f dd 0b be 16 29 bb bc
       -0.27528048 0.2010787 -0.13658641 -0.02284674
0003e0 43 f7 43 3e ce 1c a3 be b6 4e 4c 3e 29 3c 4c 3e
       0.19137292 -0.31857914 0.19951901 0.19944824
0003f0 24 43 ce be 2d 45 09 be 54 2b ad 3d 18 00 6f be
       -0.402856 -0.13405295 0.0845553 -0.2333988

layer2.conv2.bias f4 [16]
000000 6f 75 28 bf 2b 0d 5f bf 09 96 31 bf 3f 19 21 bf
       -0.6580419 -0.8712947 -0.6936956 -0.6292915
000010 64 31 50 bf f6 e0 10 bf 15 4b 21 bf b1 1f d5 be
       -0.81325364 -0.56593263 -0.6300519 -0.4162574
000020 d6 5f 51 bf 1a 06 3e bf 89 a9 09 bf 7e 13 da be
       -0.8178686 -0.7422806 -0.53774315 -0.42592996
000030 3c a9 cb be 96 74 33 bf 4c 79 2c bf 64 3a e8 be
       -0.39777553 -0.7009977 -0.67372584 -0.4535705

layer3.fc1.weight f4 [120, 400]
000000 fb d8 12 3b 56 95 d4 ba bc e9 4b ba 83 55 67 bc
       0.0022407162 -0.0016218822 -0.00077786646 -0.014119509
000010 90 6d 84 bc 6c 76 7f 3b e5 e6 03 3b af f8 00 bc
       -0.016165525 0.0038980497 0.0020126638 -0.007871791
000020 4b f5 c2 bb 23 1e e3 bb e3 f8 2e bc e4 cc 08 3c
       -0.0059496514 -0.006931083 -0.010679456 0.008349631
000030 52 5c 3f 3c f9 df aa bb 42 9a 8a 3c 73 79 cc b9
       0.011679726 -0.005214688 0.016919259 -0.000390004
000040 f3 ba f0 ba e0 df bd 39 0d 44 cd 3c cb a1 ad 3b
       -0.0018366262 0.0003621569 0.025056863 0.0052988282
000050 4b ff dc bb 73 69 0e bc 31 e9 c6 bc 8c 84 da ba
       -0.0067443005 -0.008692133 -0.024281116 -0.0016671582
000060 ea a0 6f bb d5 1e 7b bc 94 a0 f5 bb 8d 28 63 3c
       -0.0036564418 -0.015327175 -0.007495949 0.0138646485
000070 2c b0 24 bc 8b 7b d7 ba b4 ec ef ba 9e 30 ed bb
       -0.010051768 -0.0016440017 -0.0018304796 -0.0072384616
000080 ad 65 c0 bc e5 f1 0c 3d 7f fb c5 3c d1 d7 80 3c
       -0.023485983 0.034410376 0.024167774 0.01572791
000090 7a d1 6a bb 7a c0 b4 bb 9a 68 92 bc a1 ef 00 3d
       -0.0035830424 -0.005516109 -0.017872144 0.031478528
0000a0 ee 57 81 3c 00 0e 29 bd fc dc f0 bb 47 7f 0b bd
       0.015788998 -0.041273117 -0.007350562 -0.034056928
0000b0 a8 72 62 bc cb 16 36 bb ae 63 f4 bb fb 36 53 bb
       -0.0138212815 -0.0027784582 -0.007458172 -0.0032228816
0000c0 43 e2 34 3b d1 f1 f7 bc 98 93 3d 3c 31 ba f4 3b
       0.0027600683 -0.030266674 0.011570834 0.007468485
0000d0 f3 c3 96 bc 70 c5 17 3b 0d 5a 0e bb 30 3a 82 3c
       -0.018403983 0.0023158453 -0.0021721155 0.015896887
0000e0 a8 65 d9 3b 7d 02 b0 3c dc 5a 1a 3c 92 e1 a3 bc
       0.006634433 0.021485562 0.009421077 -0.020005021
0000f0 97 34 db 3b 83 d1 f9 bc 51 ac fa bb 76 32 83 bd
       0.006689619 -0.03049541 -0.0076499362 -0.06406109
000100 9c 7c 9a bc 16 6c 78 3c 9c 36 30 bb db 2c 39 bd
       -0.018858247 0.015162488 -0.0026888018 -0.045208793
000110 64 58 e8 ba 79 f8 41 bc a2 34 63 3c 82 14 be 3c
       -0.0017726538 -0.011839026 0.013867529 0.023203138
000120 74 85 76 3b 85 97 1e 3d 93 ea 59 3c a3 2e 14 bd
       0.0037616165 0.03871872 0.013300556 -0.03617729
000130 15 3d 5c 3b 59 f0 34 bc 25 61 e8 bb 07 1c bd 3b
       0.0033605744 -0.0110436315 -0.0070916587 0.0057711634
000140 70 bb f7 bc eb 49 f8 3a 53 02 9c 3c b8 fc 96 bb
       -0.030240744 0.0018942928 0.019044077 -0.004607763
000150 d0 17 69 3c cd 56 3f bb d3 03 2a 3a 89 e2 5a 3c
       0.014226869 -0.0029196024 0.0006485555 0.013359674
000160 5a 77 de 3c a0 3a 87 3d 34 63 e5 bb 5e 82 c4 3a
       0.02715652 0.06602979 -0.0070003513 0.0014992466
000170 ce 0e b7 bb ca a1 37 3c 15 dc f9 3b 23 7d dc 3b
       -0.0055864817 0.011208007 0.007625113 0.0067287846
000180 d2 24 4b 3b c4 73 f9 3b 49 b7 90 bc 58 42 48 3c
       0.0030997288 0.0076126773 -0.017665522 0.012222849
000190 6b b5 16 3a e0 af da 3c 2c 0b 9b 3c 26 41 9e 3c
       0.0005749079 0.026695192 0.018926226 0.019318175
0001a0 02 f6 cc 3a dc 40 85 bb bc 4e 03 3d f0 1e 0b bc
       0.0015637281 -0.0040665697 0.03205751 -0.008491263
0001b0 bc b9 20 bd 70 e0 4b b9 03 a9 94 3c 65 b6 2b 3c
       -0.03923963 -0.00019443198 0.018146997 0.010480498
0001c0 cf c7 f5 3c 9f e3 07 3c b1 5c 64 bc db f0 a4 ba
       0.030002503 0.008294015 -0.013938115 -0.0012583988
0001d0 4a f1 d1 3b f2 17 b1 3b d0 bb 0f bd 2a 23 dc bc
       0.0064069377 0.005404466 -0.03509122 -0.026872236
0001e0 82 3a 06 bd ec 8d 32 bc 16 d4 15 bc d5 e2 20 bc
       -0.03277064 -0.010898095 -0.0091448035 -0.009819706
0001f0 c4 45 b3 bc b5 b2 9b 3b a4 5e 75 bc ff 99 33 3b
       -0.021883853 0.004751528 -0.014976177 0.0027405021
000200 69 8c e0 3c 7e 38 7f 3c c5 9c 04 3c 7a a8 eb bb
       0.027410703 0.015577434 0.008094017 -0.007191715
000210 7e 4d 1e bc 71 57 6e ba ae d6 81 3a 90 d2 56 3c
       -0.00966203 -0.0009092009 0.0009905898 0.013111725
000220 1f 6b da 3a bb a0 51 bc 15 14 e1 bb 47 6a 09 bd
       0.0016664005 -0.012794669 -0.006868849 -0.03354862
000230 a1 28 5c bc 84 83 c1 3c 40 9a bd 3a 7d 1a d8 39
       -0.013437421 0.023622282 0.0014465526 0.00041218466
000240 5d 20 23 bd 3f a1 73 bb c7 ef 83 3b 65 b0 ad bc
       -0.039825786 -0.0037174968 0.0040263864 -0.021202276
000250 c8 3b a3 3b 65 5d 94 bc 23 4b c9 3c 0f 33 92 3c
       0.0049814917 -0.01811094 0.02457196 0.017846612
000260 5c ea 11 3c d5 3e f4 3b db 31 32 3b 1b c0 2c 3b
       0.008905973 0.007453779 0.002719036 0.002635962
000270 51 98 dd bb 1d c8 09 3c e8 83 c4 3b cc f2 2c 3c
       -0.0067625423 0.008409527 0.0059971698 0.010555934
000280 05 af 94 bc 8e a9 78 bc 76 3a 16 bc 45 5d 58 3a
       -0.018149862 -0.015177144 -0.009169212 0.00082536443
000290 4f 2f dc bc 20 f4 95 3b 96 a3 5e 3a 24 c2 2e bc
       -0.026878027 0.004576221 0.0008493004 -0.010666404
0002a0 a6 9e 0c 3c b9 7d 7e 3a 86 83 a1 3c 6a 38 e8 3a
       0.008582747 0.0009708065 0.019716036 0.0017717008
0002b0 76 fa 3b bb d8 4c a0 3c 95 e0 2d 3c 24 8f f2 bb
       -0.0028683222 0.019567892 0.010612627 -0.0074023176
0002c0 0b af be bb 0a 88 91 3b 4c 0c a0 bb 9d 19 01 bb
       -0.0058192066 0.004441266 -0.0048842784 -0.0019699105
0002d0 c5 a6 a2 bc 8f 47 05 bb 56 43 74 3c 70 d8 62 3c
       -0.019854913 -0.0020336842 0.014908632 0.013845548
0002e0 bd 4d f5 3b 25 96 28 3a 5f 2b 14 bb 0c 08 cc 3b
       0.0074860738 0.00064310647 -0.002260886 0.006226545
0002f0 40 ea 24 bc 4c 3e 2e 3c 6f 31 bc 3c b3 ed 82 38
       -0.010065615 0.01063497 0.02297279 6.243158e-05
000300 3f b4 b9 bc 6f 8d b8 bc b8 30 36 bb cd e7 19 3c
       -0.022668956 -0.022528378 -0.0027800035 0.0093936445
000310 b2 20 b8 3b 66 dc b0 3a b1 1f 77 bb e9 ad ae bc
       0.005619132 0.0013493418 -0.0037708099 -0.021323161
000320 35 bd cd 3c 68 5f ca 3c 58 73 f0 3c ab 6f 0d 3c
       0.025114635 0.024703696 0.029351875 0.008632581
000330 03 d8 21 3a fd 8d 0c 3c 1a 4f 74 bc 2f 7f 30 bc
       0.0006173851 0.0085787745 -0.014911437 -0.01077251
000340 60 97 7c bc fc 93 04 bb bf 17 bd 3c 29 23 58 3c
       -0.01541695 -0.0020229807 0.023082612 0.013191977
000350 04 ab 9d bc fb 30 c7 b8 dc da c1 3c 1b 3f 08 3c
       -0.019246586 -9.498183e-05 0.02366393 0.008315827
000360 73 e2 d2 bb 56 21 c1 3b 7e 0a 88 bb bb 0a bb bc
       -0.0064356863 0.0058938665 -0.0041516414 -0.022832265
000370 7d b7 bd 3c 09 0b 8a 3c 4c ab f3 3a bf 38 79 bb
       0.023158783 0.016850965 0.0018590479 -0.0038028208
000380 e9 fe 9d bb 1f a7 a0 bc 90 13 25 bc fb 62 36 bc
       -0.0048216474 -0.01961094 -0.010075465 -0.011131997
000390 b8 3e 6b 3b cd e7 d2 bc d6 dc 90 3a fa 88 50 3c
       0.0035895538 -0.025745297 0.0011052142 0.01272797
0003a0 53 a6 71 bc dd 39 b3 bc 87 f3 42 bc aa 54 03 bb
       -0.014749127 -0.021878177 -0.011898882 -0.0020039477
0003b0 f3 28 22 3c 86 34 8f 3b 61 8e 1b 3d d1 34 83 3c
       0.009897458 0.004370275 0.03797758 0.016016396
0003c0 3a d2 ef 3b 2d 63 6f 3b ef 50 ab 3c 44 dc f6 bb
       0.007318762 0.003652762 0.020912616 -0.007533582
0003d0 c9 1e 3a bc 1f b2 d9 39 64 85 db 3b 20 e2 af ba
       -0.011359879 0.00041522176 0.006699251 -0.0013418831
0003e0 f2 8b 8c 3b 8e 0a 53 3c 00 cb 72 bc 91 c0 a4 bb
       0.0042891437 0.012880934 -0.014818907 -0.0050278385
0003f0 21 d4 2c 3c 20 32 d3 3b 70 e6 80 3c 10 36 5b bc
       0.010548622 0.0064451844 0.015734881 -0.013379589

layer3.fc1.bias f4 [120]
000000 3a fd cc bc 96 c3 15 3c d9 5f bd bb 6e d1 c3 bc
       -0.025023092 0.00914087 -0.005779248 -0.023903575
000010 73 a3 2b bc f4 c0 33 3c 5b ae a0 3b 52 68 0c 3c
       -0.010475981 0.010971297 0.0049035973 0.008569794
000020 a1 78 b1 bc d8 35 2d bc dd 67 d2 bc 6c d2 92 3c
       -0.021663966 -0.010571919 -0.025684291 0.017922603
000030 9c bc 29 3c a3 e4 b3 3c 7e 37 70 bc 02 db 9d bb
       0.010359909 0.021959608 -0.014661668 -0.0048173675
000040 85 0f 1c 3c 9e f4 47 bb 7e ce a9 3c bf 13 11 bc
       0.0095251845 -0.0030510793 0.020728346 -0.0088548055
000050 52 52 e5 3b ca 9d 23 3b c3 71 35 bc 8d b7 d3 39
       0.0069983387 0.0024965876 -0.011074486 0.00040381812
000060 c7 8c 39 3c 21 a3 1b bd 3f 19 3a bc 2f 46 52 bc
       0.011325068 -0.03799737 -0.011358558 -0.012834116
000070 00 7e e1 bc 78 7a a1 3c 9a 5b 0d 3c c4 38 a6 3a
       -0.027525902 0.019711718 0.008627797 0.0012681712
000080 cc 16 2e 3e dd cf 8e 3c 0c 68 57 3c b7 0a 28 bc
       0.17000884 0.017433101 0.013147365 -0.010256461
000090 d1 d2 6c bd 00 24 97 3b 74 e0 e9 3c a4 58 81 bb
       -0.057818238 0.004612446 0.02854941 -0.0039473344
0000a0 ff 7e 60 3b f8 54 64 bb 43 19 90 3c af f0 d4 3d
       0.0034255383 -0.0034840684 0.01759017 0.10397469
0000b0 2b ba e6 bb 26 24 4e 3c 0d 46 c1 3b a3 4a a0 bc
       -0.007041236 0.012581861 0.0058982433 -0.01956684
0000c0 bc ad 43 bc b1 6b 73 3c 60 c1 31 bb e4 8e 39 3a
       -0.011943277 0.014857219 -0.0027123317 0.00070784823
0000d0 a0 7f 57 3b 91 15 31 bc 82 d6 86 3c 85 75 82 3c
       0.0032882467 -0.0108083645 0.016459707 0.015925178
0000e0 3e 4e 7c 3b 13 e5 6a bc 00 66 98 bb bf 66 dd 3c
       0.0038498784 -0.014336842 -0.004650831 0.027026532
0000f0 f2 8d fd bc 7e 10 a0 bb 52 f4 61 3c 46 bd d7 3d
       -0.030951474 -0.0048847785 0.013791161 0.10534148
000100 1c a0 2a be e4 ee a5 3c 02 4e 4c 3c 21 b8 be 3c
       -0.1666264 0.020255513 0.01246977 0.023281159
000110 eb e9 9d 3c b1 dd 4f 3a de 57 0c 3c 14 d5 bc 3b
       0.01927658 0.0007929458 0.008565871 0.0057627056
000120 bf 91 f1 3b bf b3 97 ba 66 b9 2a 3b ed 7e 23 ba
       0.0073721106 -0.0011573954 0.0026050447 -0.000623687
000130 34 fd 52 bc e9 88 aa bb 11 0e 2c 3c e1 56 90 3b
       -0.012877751 -0.0052043092 0.010501401 0.004404888
000140 74 8d 88 bc 0b 90 2b bc 28 50 8c bc ac 22 ac bb
       -0.016669013 -0.010471354 -0.017128065 -0.0052531566
000150 56 3f 02 bd 96 12 9e bc 74 1c 09 3c 1e 6b 51 3c
       -0.031798683 -0.019295972 0.0083686 0.012781886
000160 05 82 1b bc 20 5a 90 3c 52 e0 2a bc 38 d4 fc bb
       -0.009491448 0.0176211 -0.010429459 -0.007715728
000170 01 d4 4d 3c 0b 5c d2 3c a6 54 95 bb b4 cb bc 3a
       0.012562753 0.025678655 -0.00455721 0.001440397
000180 5e b5 9d bb 35 54 54 3a fc 02 07 bd 46 47 18 bd
       -0.0048128804 0.0008099706 -0.03296183 -0.037177347
000190 1a 0c a1 3b 4e 34 ba 3a f0 69 39 bc 6f bf a6 bb
       0.0049147727 0.0014206262 -0.011316761 -0.0050887386
0001a0 de 2b a6 3b 89 2c be bc d1 d7 9f 3c 08 87 06 3c
       0.0050711473 -0.023214595 0.019512089 0.008210905
0001b0 6f a3 d9 bc 4f 61 60 3b 88 92 be 37 79 41 f3 3b
       -0.026567189 0.0034237688 2.2717999e-05 0.0074235764
0001c0 ed a7 ad 3e ec 4e 72 bb 19 04 99 3c 06 e7 83 3c
       0.3391718 -0.003697331 0.018678712 0.016101371
0001d0 6d fa 04 3b 4d 28 7b bc d5 c3 b7 3b c4 fd 40 3e
       0.0020290867 -0.015329433 0.005608062 0.18846804

layer3.fc2.weight f4 [84, 120]
000000 dc 50 fb 3a fd 5f 88 3b 3f 50 2d b9 e4 a7 3e 3a
       0.0019173878 0.0041618333 -0.0001652846 0.00072729425
000010 38 61 2b bb 20 3a 42 bb 08 7b 8f 3b cf f2 26 ba
       -0.0026150476 -0.0029636696 0.00437868 -0.0006368579
000020 ce 58 39 bb 40 8e b4 ba 29 f8 3f ba 40 9f 0a bb
       -0.0028281691 -0.0013775304 -0.00073230505 -0.002115205
000030 d6 5c 06 3b 24 4c 03 3a f1 bb b5 b8 f8 c1 9c 3a
       0.0020502112 0.0005008599 -8.6657594e-05 0.0011959663
000040 c8 64 0f 3b 2f 40 49 bb 6a 74 dd 3a 39 ab 25 bb
       0.0021880139 -0.0030708422 0.0016895656 -0.0025279059
000050 f6 b9 c4 b7 28 98 41 bb 47 5b 6e ba c8 bb b3 3a
       -2.3451616e-05 -0.0029540155 -0.0009092581 0.0013712579
000060 a9 70 ce ba d7 e0 3a bb d9 12 5f 3b 9f 38 92 b9
       -0.0015750128 -0.0028515363 0.0034038334 -0.00027889476
000070 dd 68 0c bb c9 88 c5 3a 50 57 07 3b 6d 9a 18 3a
       -0.0021424808 0.0015070672 0.0020651408 0.0005821351
000080 12 7d e5 3b 80 f8 b6 3b 50 6e 8d 3b e6 30 00 bc
       0.007003435 0.0055838227 0.004316129 -0.007824158
000090 eb c3 df b9 82 76 8d bb 95 af 80 3a 89 de d9 38
       -0.00042679845 -0.0043171057 0.0009817953 0.00010388817
0000a0 30 41 97 ba ad 8c 00 bb 8c 06 28 bb 58 33 6d 3b
       -0.0011539813 -0.00196151 -0.0025638668 0.0036193933
0000b0 b9 c3 27 bb a8 c0 2c bb b1 92 83 39 6c 81 a9 bb
       -0.0025598838 -0.002635995 0.0002509556 -0.005172899
0000c0 aa 1e 00 bb 86 c4 28 3b 4f 19 94 3a 3a fc 67 bb
       -0.0019549527 0.0025751903 0.0011299046 -0.0035398141
0000d0 d3 ee 25 3b 7c d9 ab 3b bb 66 45 ba a2 38 dd 39
       0.0025319352 0.005244432 -0.00075302616 0.000421946
0000e0 53 ec 87 3a 96 18 79 b9 04 f9 5d bb 89 76 cc 3b
       0.0010370113 -0.0002375565 -0.0033870349 0.0062397164
0000f0 c4 c7 ff ba 65 97 46 ba cf ae 71 bb af 2a 14 3b
       -0.0019514491 -0.000757566 -0.0036877876 0.002260845
000100 50 de 2e 3c 78 87 22 3b 48 09 48 b9 2d 9c e8 3a
       0.010673121 0.0024799984 -0.00019076944 0.0017746739
000110 4b 91 2b 3b cd e8 71 bb 29 05 7d 3a 20 5f 07 39
       0.002617913 -0.0036912442 0.0009651953 0.0001291004
000120 72 69 94 b7 74 16 9c ba f7 70 6e ba 6a ba 5a 3b
       -1.7692077e-05 -0.0011908547 -0.00090958126 0.0033375272
000130 87 b2 1d bb 3f c0 22 3a f8 e5 86 ba af b6 61 bb
       -0.002406271 0.00062084565 -0.0010291925 -0.0034441163
000140 41 fb 46 3b f1 6a 10 ba 06 dd fb bb 98 0c 35 3b
       0.0030362161 -0.00055090996 -0.00768626 0.0027625915
000150 16 24 31 3b 65 8d 2f bb 14 9a cc 39 89 f7 7b bb
       0.0027029566 -0.0026787159 0.0003902471 -0.0038447103
000160 42 08 bf ba d3 64 2a 3a 1b fc bf 3b 71 38 ca 3a
       -0.0014574605 0.00065000093 0.0058589107 0.0015428198
000170 af a4 bc b9 01 37 d9 3a b0 66 5a 3b a4 29 85 bb
       -0.00035980853 0.0016572179 0.0033325367 -0.004063802
000180 67 50 33 3a 9f f6 a0 3b 87 26 e4 b9 45 90 04 3b
       0.0006840289 0.004912212 -0.00043516254 0.0020227593
000190 5f 2c 43 39 d1 b0 b9 ba 8f 82 46 bb 2f 30 d1 bb
       0.00018613179 -0.0014167075 -0.0030290221 -0.0063839178
0001a0 af 53 14 bb 4a 03 44 bb 3c 77 85 3b 42 26 d0 3b
       -0.0022632887 -0.0029909187 0.0040730517 0.006352217
0001b0 bb a5 08 bc e1 11 a1 3b af 1f 0a 3b d4 c4 a5 3b
       -0.0083402945 0.0049154614 0.0021076014 0.005058864
0001c0 13 f1 88 bb db b6 83 3a 3f 3e 03 3b 0b 5d 80 39
       -0.004179129 0.0010049002 0.0020026115 0.00024483385
0001d0 ce d1 49 bb 3c e6 3f 3b ab 4e a1 bb b5 d0 a0 39
       -0.003079522 0.0029281517 -0.004922708 0.00030673077
0001e0 78 df 24 3b 7c 1e 2c bc fb 54 1b bb e4 3f cb ba
       0.0025157612 -0.010505315 -0.0023701775 -0.0015506712
0001f0 b3 14 07 bc 6f cc c0 3b 31 21 41 3c d3 12 cd 3b
       -0.008244681 0.0058837454 0.011787699 0.0062583475
000200 e5 6c 97 bb f2 fd f9 bb c4 7f 7f bb b7 8d 4b 3c
       -0.0046211355 -0.0076291496 -0.0038986066 0.012423924
000210 4d 88 66 3c 70 a7 a7 bb de 97 b0 bb 29 1f 06 bb
       0.014070583 -0.0051163957 -0.0053891977 -0.002046535
000220 41 00 c5 3b b1 ac 56 bb 15 74 b0 3b 29 bf c3 39
       0.006011993 -0.003275674 0.005384932 0.00037335724
000230 a1 bf 0e 3c 3b 6c 52 3a b6 5a 10 3c e9 b5 fd 3b
       0.00871268 0.0008026992 0.00881069 0.0077426326
000240 ff e8 9c 3b 25 0b f2 3b 14 57 95 3b a6 ee 65 ba
       0.0047885175 0.0073865824 0.0045574997 -0.0008771218
000250 3a 3b 65 3c 78 bc 86 3a ad 20 01 ba 79 41 46 bb
       0.0139911715 0.0010279557 -0.00049258285 -0.0030251427
000260 96 15 c1 ba d9 b2 22 3b 5c ec cd b9 0c bb c9 3b
       -0.0014731165 0.002482584 -0.00039276748 0.006156331
000270 e7 6d e6 3b ee ef cd 3b 45 0e 6f bb 4d db 8e ba
       0.0070321443 0.0062847054 -0.003647701 -0.0010899097
000280 37 9b 5d bb 74 9e 5c 3a 07 8d df ba 1c b7 b6 bb
       -0.003381444 0.00084159453 -0.0017055579 -0.0055760276
000290 32 7a a9 3b 2a 09 9b bb 1a 77 a6 bb 30 3c af bb
       0.0051720375 -0.004731317 -0.005080116 -0.005347751
0002a0 2b 20 d5 bb 7f 61 52 3b 61 4d 9c bb 25 a9 fb 3a
       -0.006504079 0.003210157 -0.0047699665 0.0019200189
0002b0 bd b8 77 3b 07 71 0c 3b 6c fe e4 3a f7 46 ca 3b
       0.0037799322 0.0021429674 0.0017470843 0.0061730104
0002c0 c7 57 90 bc d4 2d 4b 3b 44 21 74 3b be 34 bc bb
       -0.01761998 0.0031002657 0.0037251273 -0.005743592
0002d0 0b f9 e2 3b 57 9c 67 3b 6e ab 33 bb ed fe ee 39
       0.006926661 0.0035340989 -0.0027415412 0.00045584832
0002e0 3d c8 75 3c 5e 28 d4 ba 2a d0 7a 3a 94 3c 9d bb
       0.015001354 -0.0016186347 0.0009567762 -0.0047984812
0002f0 5d 6b b3 3a 6d fc e3 3b d3 7e 13 3a 22 20 bb ba
       0.0013688613 0.0069575817 0.0005626503 -0.0014276544
000300 f7 f1 19 3b 24 c6 bc 3b eb a4 f1 38 21 76 1a 3b
       0.002349017 0.005760925 0.00011522494 0.0023568945
000310 85 39 75 3b 6b 9f 3f bb 1c 8a 5c 3b 7f 5f b3 b8
       0.0037418318 -0.0029239308 0.0033651656 -8.553173e-05
000320 81 af e5 bb 1e e2 a5 3b 25 11 67 3b 9c 8f 43 3c
       -0.007009447 0.0050623557 0.0035258022 0.011936095
000330 35 ed 03 3c fb 8d c6 bb 8b 98 36 3c c1 2c ad bb
       0.00805216 -0.006059406 0.0111447675 -0.005284876
000340 45 50 b7 3b 92 e0 6f bb 29 67 25 ba c1 a7 9f bb
       0.0055942857 -0.003660236 -0.00063096225 -0.0048722927
000350 78 b9 50 3b e2 e0 21 bb 7b 76 65 3b 6f 42 91 3b
       0.003184883 -0.002470069 0.0035013247 0.0044329683
000360 97 66 94 b8 40 bb e7 39 12 04 dc 3a 6d a1 7b bb
       -7.076299e-05 0.00044199266 0.0016785881 -0.0038395778
000370 ce d2 ca bb e9 d8 bf bb 5f ed f9 3a 8d 4b fc 3b
       -0.0061896807 -0.005854715 0.0019067934 0.007699436
000380 ef 42 90 bb ee 39 9a 3b 6d a1 1b bc de 8b 2c bc
       -0.0044025104 0.004706613 -0.009498936 -0.010531394
000390 b9 1c 15 bb f4 a8 8a bb 05 a2 ae 3a 84 29 ce 3a
       -0.0022752716 -0.0042315666 0.0013323432 0.0015728925
0003a0 ce 48 00 bc 24 84 8a 3a af 6f 5a 3a 55 ed 09 bc
       -0.007829858 0.0010567945 0.0008332682 -0.008418401
0003b0 c4 cc f2 bb 41 f4 35 3a 71 6e 96 bb 14 d9 9f bb
       -0.007409664 0.0006940999 -0.0045908024 -0.0048781727
0003c0 7b d5 5a 3c 29 3d 8b ba a4 5d fb 3a c9 3b b4 3a
       0.013356562 -0.0010623086 0.0019177687 0.0013750728
0003d0 05 20 ef bb 65 d8 89 3b cc 0d fb 3c 13 73 b7 3c
       -0.007297518 0.0042067044 0.030646227 0.022393739
0003e0 d2 c3 0b 3c 6e 36 21 bc 0f 19 cd bb 18 ba 8f 3b
       0.008530574 -0.009839637 -0.0062590907 0.004386198
0003f0 92 53 ad 3c b9 fc bd bb 26 bf 81 bc 26 41 9c 3b
       0.021158013 -0.005797949 -0.015838217 0.0047685085

layer3.fc2.bias f4 [84]
000000 2f 96 80 bc 68 0b 25 3c 7d 74 cb 3a a1 15 32 3c
       -0.015696613 0.01007352 0.0015522387 0.010869415
000010 4d 2e 24 3b 39 8f 40 bc 32 52 1f 3c 19 a0 95 39
       0.0025052011 -0.011752897 0.009724187 0.00028538777
000020 6f 5a 6a bc 30 bf 45 bc ab 25 5e 3e d4 3e d3 bb
       -0.014303788 -0.012069508 0.21694057 -0.0064466987
000030 94 56 05 3c 32 5f 8d bc db cf 25 3b 9f 0b 81 3a
       0.008138318 -0.017257307 0.0025300893 0.0009845382
000040 44 0b bb ba 7e 81 3e bc 93 69 7c 3b e5 ee bb 3b
       -0.0014270325 -0.011627553 0.0038515076 0.0057352656
000050 6b 2d f3 ba 1d 76 1c 3c 57 d4 f2 3a 2d 06 2f bc
       -0.0018552964 0.009549645 0.0018526417 -0.010682625
000060 fb 8c fe ba ee f5 45 bd db 57 05 3b 4a 5a 83 3c
       -0.0019420678 -0.04833024 0.0020346555 0.016034264
000070 d7 76 66 3b 9a 6d 7c bb 44 ab c3 b8 b6 ea 29 bc
       0.003516605 -0.0038517476 -9.330225e-05 -0.010370901
000080 88 ce 3c bb a7 76 8b bc 67 12 81 3b 8e ef fb bb
       -0.0028809626 -0.017024351 0.0039389613 -0.0076884693
000090 2f 2d 58 bc cc 09 93 bb 05 db 44 bc 5f 6b f6 bb
       -0.013194366 -0.004487252 -0.012015109 -0.007520124
0000a0 a3 30 e7 3a f4 55 87 3e ea bb 84 bb d2 84 16 3b
       0.0017638396 0.26432765 -0.0040507214 0.002296735
0000b0 d5 94 a8 3a b3 37 be ba 22 46 89 3b 6e 80 87 bb
       0.0012861738 -0.0014512449 0.0041892687 -0.004135183
0000c0 44 fe 09 bc 1b 82 3e bc 45 d4 8a b9 a2 03 69 3e
       -0.008422438 -0.011627699 -0.00026479564 0.22755292
0000d0 a1 b1 8b 3b 1a c5 3b 3b df 9f 96 bb 98 69 5f ba
       0.0042631184 0.0028651417 -0.004596695 -0.00085225096
0000e0 4f c8 a9 3b 0e 72 45 bc a8 02 6f 3c 0f 67 9e 3b
       0.0051813493 -0.012051119 0.014588036 0.004834063
0000f0 72 cb 75 bb 91 a4 6e 3b ee d7 82 3a 0d b3 9f 3b
       -0.0037505296 0.0036414007 0.0009982565 0.0048736394
000100 d8 00 dc 3a 4b e9 f1 3b 53 c7 11 3c 01 63 c1 bb
       0.001678492 0.007382547 0.00889762 -0.0059016948
000110 63 15 86 bc df e8 84 b7 7d f6 ef 3d 17 83 0a bb
       -0.01636762 -1.5844065e-05 0.11716936 -0.0021135265
000120 53 92 5c 3c 56 d0 fd 3b 64 24 a9 bc a8 82 46 bb
       0.013462621 0.007745783 -0.020647235 -0.003029028
000130 f9 3e f2 3b 6e 01 b0 3b 45 9b ec bb 4b e5 a5 bd
       0.007392761 0.005371264 -0.007220658 -0.08100375
000140 d7 42 34 3b 55 1f aa bb d8 bb 88 3b 39 75 eb bb
       0.002750566 -0.0051917234 0.0041727833 -0.007185605

layer3.fc3.weight f4 [10, 84]
000000 e6 60 d5 39 fe 94 15 3a 4b 29 08 3b b7 b2 d8 3b
       0.0004069872 0.00057061005 0.0020776566 0.0066131013
000010 25 f9 19 3c ac 15 77 ba 56 b8 94 bb 9f f6 32 3b
       0.00939778 -0.00094255316 -0.004538576 0.0027307642
000020 a2 fe 44 bb a8 d5 e9 39 74 2c 2e be 88 58 16 3c
       -0.0030059 0.0004460041 -0.17009145 0.009176381
000030 a1 50 fa 3b 65 63 81 ba b3 b3 17 3b 4a 60 71 bb
       0.0076390062 -0.0009871541 0.002314788 -0.0036831074
000040 15 f9 8a bb c0 70 1b bc a1 ba 1c 3b e0 db bc bb
       -0.0042411187 -0.009487331 0.002391495 -0.005763516
000050 6d 74 5c bb b2 e4 fc 3a 3f e7 22 b9 3b d0 c2 3a
       -0.003363873 0.0019294231 -0.0001553567 0.0014863083
000060 ea 5d d5 ba 21 74 46 3c 92 1f 84 bb e5 c8 cf 3d
       -0.0016278599 0.012112648 -0.004032084 0.101457395
000070 ec 60 86 38 4b 40 1b 3a 37 67 b9 3b 91 4d 9e 3a
       6.407671e-05 0.0005922361 0.005658056 0.001207756
000080 b8 96 34 3b e3 40 d4 ba e6 df 51 b8 83 3f 7e bb
       0.0027555656 -0.0016193654 -5.0038005e-05 -0.003879518
000090 f6 53 4e bb 6e d4 b7 bb 3d 47 1d 3c ed 74 55 bb
       -0.003148315 -0.0056100404 0.009599504 -0.0032570914
0000a0 07 67 05 3a 65 e3 c0 ba be 3a 8c bb 79 57 18 3b
       0.00050888996 -0.0014716206 -0.0042794636 0.0023245497
0000b0 55 7a 2b 3b 2b ee 8a bb 66 53 09 3c 97 0e 0d bb
       0.0026165445 -0.0042398176 0.0083817 -0.0021523589
0000c0 ed ad 4b ba d0 b6 fe ba 92 73 27 bb 93 16 a2 3c
       -0.00077697524 -0.0019433144 -0.0025551063 0.019786155
0000d0 2d dc f0 ba a5 bc 94 39 b0 e8 cd 3a 5a bb 6c 3b
       -0.0018376164 0.0002836931 0.0015709605 0.0036122412
0000e0 39 2f 4c bb 52 df 75 be 59 69 88 39 8e 9d 27 ba
       -0.0031156077 -0.24010971 0.00026018432 -0.0006394022
0000f0 af 91 ba 3b ee 11 a3 3b ba 86 26 bb 41 09 a9 3a
       0.0056936364 0.0049765026 -0.0025409893 0.0012896435
000100 32 6f 5c 3b 4d 6c 76 3b 04 92 f4 bb 4a c1 58 b8
       0.0033635614 0.0037601173 -0.0074636955 -5.1678428e-05
000110 1c 3b af bb f2 21 1f 3b 22 20 07 be 7b 87 74 bb
       -0.0053476226 0.0024281708 -0.13195851 -0.0037312198
000120 27 eb 1c 3c b2 e4 b7 3a 69 62 70 39 76 41 1a 3a
       0.009577549 0.0014029949 0.00022924844 0.0005884388
000130 c9 a4 40 3b c4 a1 c7 3b 99 d8 bf ba 03 f3 00 3e
       0.0029395095 0.006092282 -0.0014636695 0.12592702
000140 81 d8 46 ba f9 7f 10 3b 19 1d ef b6 c6 15 74 39
       -0.0007585362 0.0022048934 -7.1261425e-06 0.00023277765
000150 84 39 b9 b9 0f 2d 4e bb 2a 72 4a 3b d0 9b d6 bb
       -0.00035328802 -0.0031459962 0.00308908 -0.006549336
000160 25 53 8b 3a 96 88 69 3a 58 cb 25 3b 8d cc 94 bb
       0.0010629637 0.00089085975 0.0025298204 -0.004540986
000170 c0 95 31 3b 3e b1 ef ba 12 f6 2c bd 2e d3 ef bb
       0.0027097315 -0.0018287075 -0.04222686 -0.0073188758
000180 aa e1 f5 bb a1 5c 6e 3b 1c 3a c5 bb bf d6 6c 3b
       -0.007503708 0.003637113 -0.00601889 0.003613874
000190 20 f9 c2 3b 50 05 d3 3b 3a c0 a1 bb f1 45 e0 3b
       0.005950108 0.0064398423 -0.0049362453 0.006844275
0001a0 98 d9 40 3b 9e d9 8b bb 2f c3 2c 38 ff b6 ec 3a
       0.002942657 -0.0042678853 4.1189774e-05 0.0018059908
0001b0 c7 59 ac 39 13 28 67 3e 96 55 b3 3b 42 38 c4 bd
       0.00032873286 0.22573881 0.005472849 -0.09581043
0001c0 88 a8 11 3b cf dc 2b 3a 6e 11 19 bc 1d 0e 51 bb
       0.0022225697 0.00065560354 -0.0093425345 -0.0031899281
0001d0 a4 73 a3 ba 3c b6 9d 3b 0f 29 65 3b c7 5e 6a 3b
       -0.0012470377 0.004812984 0.00349671 0.0035762058
0001e0 47 3e 8f 3b 89 5d 1f 3c db e2 d3 bb 92 c4 ae 3b
       0.0043714377 0.00972689 -0.0064662523 0.0053334916
0001f0 9e 31 1f 3b 5e 14 1f be a0 56 e3 3b 5f b8 cf ba
       0.0024291049 -0.15535113 0.0069378167 -0.0015847794
000200 95 96 a8 bb 8b 93 3f 3b 89 3e e8 3d 12 91 af 3a
       -0.005144904 0.002923223 0.11340053 0.0013394675
000210 94 d4 d2 3a ea f9 12 3a b1 73 20 3c 0a 8f a8 be
       0.0016085082 0.0005606698 0.009793208 -0.3292163
000220 4b d3 0e 3a ad 53 b8 b9 10 67 54 bb fe be 41 bb
       0.0005448355 -0.00035157558 -0.0032410063 -0.0029563303
000230 45 d8 2d bb 5e f0 74 3c ca 99 1d ba c1 c2 88 3b
       -0.0026526612 0.014949886 -0.0006011991 0.004173607
000240 84 78 fe ba 34 75 eb ba 60 1c 0f 3b 9a a8 a2 bb
       -0.0019414579 -0.0017964006 0.0021836981 -0.0049639465
000250 f4 04 64 ba 67 c4 ca bb cc bf 1e 3b b8 0c 3f bb
       -0.0008698248 -0.0061879638 0.0024223207 -0.0029151868
000260 81 22 6b 3b 44 b2 8f bb 1b fe bb bd 93 a3 4f 3b
       0.003587872 -0.0043852646 -0.09179326 0.0031683191
000270 fc c0 0c bc b2 26 25 bb be 35 48 3a 6b 9e 8c bb
       -0.008590933 -0.0025200066 0.0007637403 -0.004291346
000280 b0 ec 5b bb 21 2e c2 3b 95 61 19 bb 4b 39 72 bd
       -0.0033557825 0.005925909 -0.002340411 -0.05913667
000290 7e 29 f4 3a 78 c5 ec bb 1c 02 1a 3b b1 50 a8 3a
       0.0018628088 -0.0072256885 0.0023499792 0.0012841431
0002a0 20 91 37 3a 45 62 42 3b a5 5c 7a 3b 63 a2 58 bb
       0.00070025213 0.0029660624 0.0038202193 -0.0033055774
0002b0 a5 7a 16 3c 2c b0 f9 3b 96 7e 0d bb 3c 91 77 bb
       0.009184514 0.0076198783 -0.0021590344 -0.0037775775
0002c0 3b 77 d8 3b b0 e0 64 ba 23 44 b7 bd ac 6e 60 ba
       0.0066060103 -0.0008730991 -0.08948543 -0.0008561413
0002d0 38 85 81 ba c4 9c 92 3a c3 75 0b 3b e7 37 94 3b
       -0.0009881621 0.0011185636 0.0021279908 0.0045232656
0002e0 a7 67 1e bb 54 83 1e bb af a2 99 ba 21 b2 87 ba
       -0.0024170668 -0.0024187164 -0.0011721457 -0.0010352769
0002f0 fc f7 a3 bb 00 ba 42 3b 7e 47 98 bb 13 f4 51 3b
       -0.0050039273 0.0029712915 -0.0046471944 0.0032036349
000300 cc 96 d9 3a 5c 62 76 bd e6 ca 41 bb 2b 02 2b 3e
       0.0016600727 -0.060152397 -0.00295704 0.16700046
000310 87 dd b5 bb 8b 93 ce ba 42 3e 2c 3b 45 5e 38 3b
       -0.0055500898 -0.0015760524 0.0026282226 0.002813236
000320 85 a3 c8 3b a0 3c df b8 b3 69 a2 bb 07 d0 b6 3b
       0.0061230087 -0.00010644761 -0.004956448 0.005578998
000330 ee 25 0f 3c 69 68 83 3a 96 8e 88 3a 54 1e 55 3b
       0.0087370705 0.0010025623 0.001041847 0.0032519298
000340 03 3d b3 bb a0 e2 ff 3d 88 a7 33 3b ba cf bf bb
       -0.0054699196 0.12494397 0.0027413089 -0.0058536204
000350 55 ab d3 3b d7 7b 5c 3b d2 1d ef 3c b6 4d da 3a
       0.0064596334 0.003364315 0.029189024 0.001665524
000360 10 49 cb 3b 1e 7c f8 3b 9c 90 0e bb 39 82 1b 3e
       0.006203778 0.0075831553 -0.0021753674 0.15186395
000370 b2 4a 94 3a 75 a0 c4 bb f1 01 db 3b b0 f3 b6 3b
       0.0011313765 -0.0060005733 0.006683581 0.005583249
000380 05 d3 64 bb c1 30 27 3d 9b 98 08 bc cd a6 41 bb
       -0.0034915817 0.04081798 -0.008337165 -0.0029548884
000390 54 cd 0f 3b 57 64 50 bb d6 62 b4 3a 1d f9 1d bb
       0.0021942453 -0.0031798088 0.0013762366 -0.0024104782
0003a0 09 8f 99 bb b2 18 69 3a 8c 56 94 bb 9b 2d b1 3b
       -0.0046862406 0.00088919245 -0.0045269188 0.005407048
0003b0 28 7b 9a 3b 36 62 a2 3b 55 c6 88 bc 82 52 9c 3b
       0.0047143884 0.0049555553 -0.016696135 0.004770578
0003c0 6c 28 1f 3b 54 24 30 3a d3 c5 03 3c ff 0d a1 3b
       0.0024285568 0.00067192805 0.00804277 0.0049149985
0003d0 5d 3a 1b bb 9f 32 a4 3b 86 6c c3 3b c1 e1 43 be
       -0.002368591 0.0050109173 0.0059638647 -0.19129087
0003e0 67 c1 65 bb 8c 12 9b 3b e1 26 44 bb 69 6f 2d ba
       -0.0035057904 0.0047324356 -0.00299304 -0.00066160277
0003f0 4a 9d c3 37 41 37 8a 38 ec f2 36 bc b4 2a 33 3b
       2.3319055e-05 6.5906446e-05 -0.0111663155 0.0027338685

layer3.fc3.bias f4 [10]
000000 30 2b a1 bd dc ab ed be 2c ce c3 3e fc 03 16 3f
       -0.078695655 -0.4642018 0.38243234 0.5859983
000010 7b 9a a5 3e 5d fc 69 3c 34 8f 03 be b7 00 85 be
       0.32344422 0.0142813595 -0.12847596 -0.25977108
000020 75 3e c3 be d1 b0 98 bd
       -0.38133588 -0.074556
