output/models_cifar10_130.pth (torch_old, 248636 bytes, 10 tensors)

layer1.conv1.weight f4 [6, 1, 5, 5]
0.011524075 -0.20702983 0.05088848 -0.1216527 -0.05630814 0.272862 -0.2045571 0.4074268
-0.08807779 0.20219098 0.08514492 -0.4799326 0.34660047 -0.31062123 -0.048138864 0.26039118
-0.45675206 0.48367348 -0.22476515 0.09074473 0.20615476 -0.4908091 0.42185974 -0.18094209
-0.0077823186 0.00034209352 -0.017946329 -0.03846351 0.08232128 -0.02525524 0.035186328 0.11659079
-0.40896776 0.050429754 0.2020457 -0.05558942 0.2501775 0.36277753 -0.84251 0.23474109
0.06481411 -0.4285325 0.60870093 0.103773706 -0.31554815 0.02286925 0.019357402 -0.2859471
0.30688417 -0.06398057 -0.01837864 -0.005342827 -0.03419007 0.09679229 0.033703797 -0.04968558
-0.00034627784 0.11359035 0.04593386 -0.056558087 -0.2840612 0.05099962 0.22822478 -0.08455737
-0.03655857 -0.35097048 0.3068967 0.17840932 -0.0766238 0.0011500166 -0.39522108 0.24579234
0.0026785755 0.032270763 -0.06544137 -0.08807635 -0.29093686 -0.08771478 -0.0462747 0.05648855
0.2261087 0.70733714 0.318591 0.20736523 -0.013325943 -0.10000322 -0.36755797 -0.1659659
-0.08412575 -0.024828482 0.078366004 -0.06979822 -0.09603808 0.079851635 0.14946724 -0.07653976
0.021783581 -0.068018176 -0.06890836 -0.07997308 -0.08105457 0.049259778 -0.01760034 0.069713145
-0.09400955 -0.009492809 0.048561115 0.06274235 -0.101668045 0.107448354 -0.2062807 -0.3121214
-0.073839985 -0.019076323 -0.25587615 0.17235267 0.12021045 -0.14331014 -0.07943662 0.158691
-0.02789078 0.06169431 0.11465377 0.052413233 -0.086482175 0.02588902 -0.17903543 0.26378924
-0.036736354 -0.053763967 -0.11664272 0.35350263 0.23308435 -0.49263853 -0.0031226794 0.14449199
0.28256038 -0.8344961 0.05243105 0.25467712 -0.012760065 -0.25672433 -0.09965779 0.5107607
-0.16875958 0.0919794 -0.12074273 0.21243608 -0.1330902 0.0014162459
00000000: 79cf 3c3c a1ff 53be 7070 503d 0d25 f9bd
00000010: 5da3 66bd 91b4 8b3e 6b77 51be 3f9a d03e
00000020: 2162 b4bd 270b 4f3e 7660 ae3d bab9 f5be
00000030: 9e75 b13e bf09 9fbe 422d 45bd fe51 853e
00000040: 68db e9be 0da4 f73e d628 66be 5fd8 b93d
00000050: 3c1a 533e 554b fbbe 00fe d73e e248 39be
00000060: d202 ffbb 045b b339 2e04 93bc ea8b 1dbd
00000070: 0f98 a83d 14e4 cebc 8a1f 103d 27c7 ee3d
00000080: 3964 d1be 6e8f 4e3d 11e5 4e3e bbb1 63bd
00000090: 4417 803e fabd b93e bcae 57bf f85f 703e
000000a0: 43bd 843d 9d68 dbbe d3d3 1b3f 4f87 d43d
000000b0: 878f a1be 4b58 bb3c 6a93 9e3c a967 92be
000000c0: ec1f 9d3e 3f08 83bd cd8e 96bc e212 afbb
000000d0: e30a 0cbd 093b c63d fe0c 0a3d 1b83 4bbd
000000e0: a08c b5b9 0fa2 e83d 2525 3c3d 74a9 67bd
000000f0: 7870 91be fae4 503d c2b3 693e 6a2c adbd
00000100: 70be 15bd 67b2 b3be 9021 9d3e efb0 363e
00000110: f0ec 9cbd 27bc 963a 6b5a cabe fdb0 7b3e
00000120: 0a8b 2f3b 592e 043d 2006 86bd 6061 b4bd
00000130: adf5 94be cea3 b3bd 8a8a 3dbd 8a60 673d
00000140: 0a89 673e 0c14 353f 5c1e a33e 8d57 543e
00000150: 0e55 5abc 7dce ccbd 8f30 bcbe f7f2 29be
00000160: 1f4a acbd 1a65 cbbc 5b7e a03d 5ff2 8ebd
00000170: 9daf c4bd 4189 a33d f10d 193e e1c0 9cbd
00000180: 7b73 b23c 1d4d 8bbd d41f 8dbd edc8 a3bd
00000190: f0ff a5bd 9fc4 493d 972e 90bc c4c5 8e3d
000001a0: 1488 c0bd ba87 1bbc 05e8 463d 107f 803d
000001b0: 5637 d0bd e20d dc3d 3f3b 53be 60ce 9fbe
000001c0: 6b39 97bd f345 9cbc 3302 83be 387d 303e
000001d0: e530 f63d e5bf 12be abaf a2bd e57f 223e
000001e0: 347b e4bc 2cb3 7c3d 99cf ea3d 42af 563d
000001f0: 911d b1bd 3615 d43c 1055 37be 620f 873e
00000200: dc78 16bd 9b37 5cbd 61e2 eebd 4cfe b43e
00000210: aaad 6e3e 1e3b fcbe dea5 4cbb b5f5 133e
00000220: c1ab 903e 89a1 55bf f1c1 563d 0a65 823e
00000230: 970f 51bc 5f71 83be 6219 ccbd 37c1 023f
00000240: 50cf 2cbe b25f bc3d f747 f7bd d888 593e
00000250: cc48 08be 54a1 b93a

layer1.conv1.bias f4 [6]
-0.25834408 -0.24342628 -0.27015132 -0.25337708 -0.25839487 -0.27987882
00000000: ad45 84be bd44 79be 4651 8abe a4ba 81be
00000010: 554c 84be 474c 8fbe

layer2.conv2.weight f4 [16, 6, 5, 5]
0.0077916165 -0.008663506 0.039225046 0.13272794 -0.0036176078 0.08000643 -0.04663596 0.08018791
0.048803557 0.16333076 0.019569105 0.0005796723 0.029604005 0.05548385 0.08437034 0.15622129
-0.08831624 0.08154006 0.10887325 -0.045088496 -0.26895517 -0.2392088 -0.6687141 -0.6530517
-0.43681383 0.20358224 0.1103926 -0.042680796 -0.044613585 0.097771175 0.13347211 0.17227915
0.07637037 0.13021503 0.11204669 0.319587 0.17901738 0.12179824 0.061541304 0.12067079
0.30081072 0.09211759 0.18431857 0.002230463 -0.0672545 0.33352622 -0.008020406 -0.16421491
-0.18265136 -0.021234013 0.09104307 0.15802447 0.006411191 0.11554526 0.03383143 0.09960161
-0.020347018 0.08534346 -0.03709575 0.10587703 0.007369859 -0.058046944 0.014737739 0.0766088
-0.021828229 -0.25358874 0.045072585 -0.091217145 0.08187854 0.112125054 -0.069491275 -0.2691031
-0.45316544 -0.42822245 -0.19649571 0.30014953 -0.09943411 -0.09082055 -0.065688975 0.19266976
0.18911628 0.033913996 0.18023436 0.019087646 -0.03159645 0.11054077 0.23571104 0.12008628
0.23728617 -0.018694608 -0.13173968 0.19493079 0.12366081 0.24543194 -0.025417065 -0.037581395
0.22515818 0.24738736 0.25283664 0.35367998 0.22393468 -0.045596045 0.016713936 0.066022635
0.12768404 0.35750145 0.07806333 0.16804278 -0.028103942 0.19549125 0.33414483 0.05846545
0.25276905 0.07631324 0.29418415 0.11602454 0.16176407 0.52719426 0.28243047 -0.00999857
-0.21894129 0.55166394 0.52338755 0.11241309 -0.2383855 -0.0371387 -0.08337644 0.073481455
0.068048544 0.06574512 -0.013064525 -0.16393845 -0.033572562 0.1656921 0.32878992 0.040291406
-0.08980489 0.052088577 0.13230422 0.21270286 -0.06508652 0.02759992 -0.04646276 0.08750575
0.33591825 0.040916197 0.10678272 -0.15890914 0.05110064 0.22936833 -0.060235802 0.0989998
0.043468997 0.11526704 -0.12067777 0.08016703 -0.08199071 0.052955847 -0.22321893 -0.033540968
0.17725149 0.3002842 -0.22329934 -0.028443623 0.01861629 -0.17554402 -0.3357015 0.13391191
-0.035610087 -0.17973784 -0.11339537 0.07308218 -0.3159472 -0.37250727 -0.12904051 0.15739323
0.16091625 0.15686119 0.2727157 0.086297326 0.18535818 0.19821572 -0.22310132 0.34130457
0.15717682 -0.20817393 0.3169546 -0.45638573 0.15490238 0.022388358 0.010220911 -0.13666523
-0.41189218 -0.47230572 0.100184865 0.27850628 0.3232853 0.5223253 -0.06530586 -0.4631771
-0.030617367 0.073198155 0.11502268 -0.080458745 0.097623765 0.075166136 -0.27766386 0.08319851
0.114848986 -0.295696 0.12055024 0.3348904 -0.2593828 0.6203025 0.034043677 -0.012895537
0.20058191 0.24306686 0.28394005 0.2447845 0.09885418 -0.0838908 0.03892871 -0.0042539416
0.26907888 0.03553324 0.05824708 -0.11688975 -0.024559995 0.10999352 -0.03161264 0.04925012
-0.20535144 -0.21921797 0.18115324 -0.27085683 -0.115622096 -0.10751691 -0.24043465 -0.06598716
0.04795974 -0.21825965 -0.124727905 -0.20378655 -0.27483585 0.12292421 -0.11206641 -0.057567034
0.19897412 -0.21117543 0.103351444 0.1577843 -0.39310873 -0.06334696 0.18875585 -0.20914869
00000000: d150 ff3b 61f1 0dbc 71aa 203d d5e9 073e
00000010: 6315 6dbb 69da a33d 5905 3fbd 8f39 a43d
00000020: 3de6 473d 2e40 273e 634f a03c 26f5 173a
00000030: 1984 f23c 0943 633d 5bca ac3d 79f8 1f3e
00000040: 25df b4bd 7afe a63d f0f8 de3d b7ae 38bd
00000050: 7eb4 89be 27f3 74be d930 2bbf 652e 27bf
00000060: 10a6 dfbe dd77 503e 8415 e23d 0fd2 2ebd
00000070: bcbc 36bd 413c c83d eaac 083e f269 303e
00000080: 1268 9c3d 1757 053e bc78 e53d e8a0 a33e
00000090: 5550 373e 5b71 f93d bc12 7c3d 3f22 f73d
000000a0: dd03 9a3e 26a8 bc3d 02be 3c3e f62c 123b
000000b0: babc 89bd f3c3 aa3e 0568 03bc f427 28be
000000c0: f508 3bbe f4f2 adbc ca74 ba3d 2bd1 213e
000000d0: f814 d23b fea2 ec3d d392 0a3d eefb cb3d
000000e0: caae a6bc 8dc8 ae3d b7f1 17bd 0ed6 d83d
000000f0: dc7e f13b a2c2 6dbd 8f76 713c 13e5 9c3d
00000100: 1dd1 b2bc 62d6 81be 089e 383d 0ed0 babd
00000110: f0af a73d d2a1 e53d 7151 8ebd e2c7 89be
00000120: 4d05 e8be f93f dbbe 2c36 49be 33ad 993e
00000130: 1ca4 cbbd 2000 babd f187 86bd 394b 453e
00000140: b3a7 413e 67e9 0a3d 5b8f 383e b25d 9c3c
00000150: 476b 01bd 3363 e23d 3c5e 713e ccef f53d
00000160: 25fb 723e 6f25 99bc c4e6 06be f09b 473e
00000170: e141 fd3d 8352 7b3e 7337 d0bc f3ee 19bd
00000180: de8f 663e 1d53 7d3e ce73 813e 8b15 b53e
00000190: 224f 653e ebc2 3abd aaeb 883c e036 873d
000001a0: 9bbf 023e 6e0a b73e abdf 9f3d 6813 2c3e
000001b0: 3d3a e6bc dc2e 483e 0815 ab3e 7879 6f3d
000001c0: f26a 813e 1e4a 9c3d 4e9f 963e 469e ed3d
000001d0: 7ba5 253e 34f6 063f ba9a 903e 0bd1 23bc
000001e0: 2532 60be d939 0d3f bafc 053f d638 e63d
000001f0: 541b 74be c01e 18bd 44c1 aabd 727d 963d
00000200: 095d 8b3d 61a5 863d 970c 56bc 7bdf 27be
00000210: 6283 09bd 31ab 293e 2757 a83e 9a08 253d
00000220: a0eb b7bd d55a 553d c27a 073e c7ce 593e
00000230: 154c 85bd 3a19 e23c bc4f 3ebd 3736 b33d
00000240: 7afd ab3e be97 273d e6b0 da3d 14b9 22be
00000250: e84e 513d 88df 6a3e d1b9 76bd 68c0 ca3d
00000260: 8c0c 323d 2011 ec3d e825 f7bd 9d2e a43d
00000270: bfea a7bd 3be8 583d 8193 64be 4162 09bd
00000280: 6a81 353e dabe 993e 95a8 64be 9a02 e9bc
00000290: 3181 983c d0c1 33be 11e1 abbe 3420 093e
000002a0: e2db 11bd 320d 38be d53b e8bd 1cac 953d
000002b0: d5c3 a1be 46b9 bebe 3223 04be b12b 213e
000002c0: 3bc7 243e 38a0 203e 64a1 8b3e a7bc b03d
000002d0: 89ce 3d3e 10f9 4a3e ac74 64be 79bf ae3e
000002e0: f6f2 203e 8c2b 55be e047 a23e 64ab e9be
000002f0: bb9e 1e3e ca67 b73c 9c75 273c f8f1 0bbe
00000300: 88e3 d2be 0ed2 f1be b92d cd3d 6098 8e3e
00000310: a785 a53e 1cb7 053f 14bf 85bd 8d25 edbe
00000320: 46d1 fabc eae8 953d 0391 eb3d 8ec7 a4bd
00000330: f8ee c73d b4f0 993d f529 8ebe fb63 aa3d
00000340: f235 eb3d 7765 97be 0be3 f63d c176 ab3e
00000350: d3cd 84be 25cc 1e3f 6271 0b3d cd47 53bc
00000360: 5865 4d3e 85e6 783e 9760 913e caa8 7a3e
00000370: 0f74 ca3d f1ce abbd b673 1f3d a664 8bbb
00000380: b5c4 893e 4d8b 113d 7d94 6e3d e563 efbd
00000390: 0b32 c9bc 4844 e13d 417c 01bd 7eba 493d
000003a0: a647 52be ad7a 60be 3c80 393e bfad 8abe
000003b0: 47cb ecbd d331 dcbd 8034 76be 4724 87bd
000003c0: 6f71 443d 757f 5fbe 5871 ffbd 6cad 50be
000003d0: 49b7 8cbe b0bf fb3d 1383 e5bd 69cb 6bbd
000003e0: dfbf 4b3e 5f3e 58be eca9 d33d 3592 213e
000003f0: 8c45 c9be 0dbc 81bd 3749 413e 132b 56be

layer2.conv2.bias f4 [16]
-0.50107557 -0.64464796 -0.55003476 -0.41202936 -0.57575506 -0.4359268 -0.4158891 -0.28290144
-0.6209812 -0.4999918 -0.39386806 -0.32677844 -0.26806995 -0.5008102 -0.49940434 -0.35077375
00000000: 7d46 00bf a607 25bf 14cf 0cbf 83f5 d2be
00000010: af64 13bf cc31 dfbe 6bef d4be 75d8 90be
00000020: a0f8 1ebf edfe ffbe 13a9 c9be 814f a7be
00000030: 7740 89be 1935 00bf edb1 ffbe 9e98 b3be

layer3.fc1.weight f4 [120, 400]
-0.0077828225 0.0018026149 -0.010390494 0.009878852 0.007661363 -0.0047811694 0.0098864995 -0.0047913822
-0.0038189979 -0.010921392 -0.005019878 -0.0021374777 -0.0051140767 0.003322272 -0.005605694 -0.022858813
0.002574275 -0.0043102913 0.0076630907 0.003105018 0.004940766 -0.008256449 -0.0010264209 -0.020626834
-0.00712153 -0.04438271 -0.00964604 0.0039512278 -0.023524448 -0.008120892 -0.0070948154 0.0046692095
-0.028327769 -0.064091295 -0.0075608185 0.013878527 0.03756725 0.02575847 0.009124078 -0.0019208686
-0.037913833 0.006392039 -0.0006005303 0.0066135954 0.018132063 -0.0023131582 0.011299009 0.010319911
-0.00060332794 0.015483578 -0.020998351 -0.018079385 -0.004129585 -0.011710777 -0.014158529 0.035145804
0.022328915 -0.022529142 -0.03979919 -0.016580967 0.059286077 0.021712108 -0.0003192628 -0.0013863675
0.009179185 -0.02466342 -0.009370481 0.00046515377 -0.019922527 0.014770727 0.019749513 0.006067321
-0.0014222991 0.009519327 -0.00464428 0.04258864 -0.009016528 -0.005299125 0.008484555 0.011576897
0.011520752 -0.0016922352 0.0038270247 0.00211853 0.021653935 0.002386003 -0.0026421985 0.0073842006
0.0046566543 0.01901517 -0.009913117 -0.019162135 -0.0018630369 0.005903221 0.020505873 -0.015641658
-0.027753692 -0.031195197 0.00046024917 0.0189035 0.0012284282 -0.00289629 0.019463493 -0.008992419
0.005586079 -0.024433184 -0.009584382 -0.0151629485 -0.005934653 -0.013035884 -0.0026056615 -0.0064252703
0.004230759 -0.01558781 -0.037512884 0.017037813 0.012247439 0.017586423 0.0017372984 -0.00782765
-0.025168609 -0.026565535 -0.012243734 -0.00036846448 -0.03463321 0.008409442 0.006543876 -0.0073542097
-0.0049809273 0.0104494495 0.025634974 -0.00082744425 0.015544247 0.0034972643 -0.024026733 0.026378123
0.001085139 0.008529696 -0.016406568 -0.0026329104 0.034806497 0.020540226 -0.010973914 -0.011851227
0.011216615 0.018528888 0.019310948 -0.0053389026 0.0021092072 -0.010501348 -0.0015962899 0.017057281
-0.017794846 0.016913632 0.014658035 -0.012963526 -0.004372479 0.0037051649 0.0064894725 -0.012393266
-0.0073332204 0.020872492 -0.0014685303 -0.011294994 0.0042898254 0.0024967517 0.02829315 -0.0038270291
-0.0060523464 -0.0024715052 0.005349321 -0.01807847 -0.009104121 -0.01906586 -0.007908591 0.01609173
0.0024046293 0.029861597 0.03180246 -0.0069471425 -0.010383825 0.0061059115 0.008373544 -0.047187343
-0.029800573 -0.019289844 0.0056782155 -0.0024135564 -0.004185045 0.027099345 -0.02588139 -0.011472663
-0.02891337 -0.013413537 -0.0070360275 0.04240981 0.028826516 0.0029665686 -0.02096008 -0.04340094
0.0052964543 0.0030435803 -0.010621335 -0.012225603 -0.0022738904 0.026372733 -6.557237e-05 -0.013395743
-0.013340211 0.016447987 0.018299382 -0.009320594 -0.015990403 -0.0086669875 -0.013055634 -0.009269545
0.0072612013 0.010725429 -0.0074559124 -0.007682263 0.02750878 0.013890819 0.008161156 0.020325106
0.023493662 0.011655255 0.0027257588 -0.0049317284 0.0074757272 -0.0036846437 -0.010091236 -0.002870645
-0.0015716422 0.03443442 0.033005577 -0.00610296 0.006478157 -0.017952688 -0.011357043 0.018615216
0.010564998 0.012848028 0.0051871473 0.029362716 0.02682932 0.0003249523 -0.007695459 -0.013357375
0.0146416295 0.016853077 0.0027954995 -0.005953786 0.017117655 -0.007039988 0.0039268453 0.0056865555
00000000: 0c07 ffbb b845 ec3a e43c 2abc e9da 213c
00000010: 2c0c fb3b 5bab 9cbb fcfa 213c 0701 9dbb
00000020: 2748 7abb a3ef 32bc ca7d a4bb ed14 0cbb
00000030: fc93 a7bb 7aba 593b f8af b7bb 6842 bbbc
00000040: 2bb5 283b 583d 8dbb aa1a fb3b 8f7d 4b3b
00000050: 26e6 a13b 0f46 07bc f888 86ba 9bf9 a8bc
00000060: b95b e9bb a5ca 35bd 6d0a 1ebc 4d79 813b
00000070: 58b6 c0bc 7d0d 05bc a07b e8bb 2b00 993b
00000080: a30f e8bc 4c42 83bd bec0 f7bb c362 633c
00000090: 1ee0 193d 6d03 d33c 287d 153c a8c5 fbba
000000a0: 894b 1bbd 4f74 d13b e86c 1dba dcb6 d83b
000000b0: b189 943c 5b98 17bb 7b1f 393c d814 293c
000000c0: a728 1eba d5ae 7d3c bc04 acbc 381b 94bc
000000d0: 7851 87bb 8fde 3fbc 2df9 67bc 0cf5 0f3d
000000e0: 21eb b63c 098f b8bc 7a04 23bd cfd4 87bc
000000f0: f5d5 723d 97dd b13c ba62 a7b9 c6b6 b5ba
00000100: 4b64 163c f10a cabc a586 19bc e2df f339
00000110: 9134 a3bc eb00 723c bbc9 a13c 61d0 c63b
00000120: 706c baba f4f6 1b3c 0b2f 98bb 6d71 2e3d
00000130: 0fba 13bc 48a4 adbb ce02 0b3c 07ad 3d3c
00000140: 89c1 3c3c fecd ddba d2ce 7a3b 09d7 0a3b
00000150: 9863 b13c 7d5e 1c3b bc28 2dbb 2af7 f13b
00000160: d996 983b b4c5 9b3c a06a 22bc e9f9 9cbc
00000170: 2531 f4ba cf6f c13b effb a73c ef22 80bc
00000180: b65b e3bc 128d ffbc 994d f139 83db 9a3c
00000190: 3603 a13a afcf 3dbb e771 9f3c f054 13bc
000001a0: 6d0b b73b 1a28 c8bc d007 1dbc 046e 78bc
000001b0: 7a77 c2bb 7694 55bc bfc3 2abb 138b d2bb
000001c0: 2ea2 8a3b 0464 7fbc 1ca7 19bd e292 8b3c
000001d0: 7ba9 483c 6711 903c 10b6 e33a 8b3f 00bc
000001e0: 662e cebc f79f d9bc f199 48bc 772e c1b9
000001f0: 8edb 0dbd c2c7 093c 036e d63b 95fb f0bb
00000200: 0c37 a3bb 2b34 2b3c 7000 d23c d8e8 58ba
00000210: 4cad 7e3c 5c32 653b b6d3 c4bc ef16 d83c
00000220: 393b 8e3a 23c0 0b3c 1167 86bc e88c 2cbb
00000230: 4291 0e3d fa43 a83c eecb 33bc a62b 42bc
00000240: e5c5 373c e5c9 973c fe31 9e3c f6f1 aebb
00000250: a03a 0a3b d90d 2cbc 9a3a d1ba b6bb 8b3c
00000260: 7fc6 91bc 758e 8a3c 4128 703c f864 54bc
00000270: 0347 8fbb 5ad2 723b a4a5 d43b 200d 4bbc
00000280: 834b f0bb cafc aa3c b37b c0ba a30e 39bc
00000290: aa91 8c3b 8ba0 233b 09c7 e73c e5ce 7abb
000002a0: c352 c6bb faf8 21bb 5b49 af3b 4d19 94bc
000002b0: 7329 15bc 0230 9cbc 0993 01bc ced2 833c
000002c0: fc96 1d3b 4fa0 f43c 4c43 023d dba4 e3bb
000002d0: eb20 2abc 1914 c83b 3031 093c 8447 41bd
000002e0: 5520 f4bc bc05 9ebc 5310 ba3b c22c 1ebb
000002f0: b422 89bb 72ff dd3c 3505 d4bc d6f7 3bbc
00000300: bbdb ecbc 74c4 5bbc 7a8e e6bb e9b5 2d3d
00000310: 9625 ec3c c36a 423b 79b4 abbc 2fc5 31bd
00000320: e18d ad3b ce76 473b 1c05 2ebc e54d 48bc
00000330: 8d05 15bb a10b d83c e683 89b8 d279 5bbc
00000340: e690 5abc eebd 863c 96e8 953c 68b5 18bc
00000350: 4efe 82bc fbff 0dbc 4ce7 55bc 4adf 17bc
00000360: 5fef ed3b b6b9 2f3c ba50 f4bb 7ebb fbbb
00000370: 185a e13c 5196 633c 5fb6 053c d680 a63c
00000380: c875 c03c aff5 3e3c a5a2 323b 569a a1bb
00000390: f2f6 f43b 107a 71bb b655 25bc 6e21 3cbb
000003a0: 90ff cdba 1b0b 0d3d db30 073d 57fb c7bb
000003b0: b846 d43b 8411 93bc e412 3abc f07e 983c
000003c0: d018 2d3c 8980 523c f2f8 a93b 148a f03c
000003d0: 29c9 db3c 5c5e aa39 302a fcbb e4d8 5abc
000003e0: 72e3 6f3c 770f 8a3c b334 373b fa17 c3bb
000003f0: 533a 8c3c b3af e6bb c4ac 803b 4956 ba3b

layer3.fc1.bias f4 [120]
-0.007916133 -0.0012849609 0.008573284 0.0185982 0.015230706 0.003950421 0.00044582272 -0.011047054
0.010195576 -0.018879661 0.0042890375 -0.007230822 0.09441913 -0.008437583 0.002527273 -0.0026031327
0.006369849 0.007826224 0.006510504 0.012670416 0.0067114597 -0.0043105516 -0.0069043883 0.00019093284
-0.0009261749 0.0010432765 0.0046832114 -0.0012859884 0.018211186 -0.017236682 -0.00016210834 -3.727643e-05
0.2542384 0.005202988 0.0065941084 -0.0029741463 -0.054697122 -0.29515922 -0.006145348 0.006219966
0.0026510758 0.008054867 0.0036808322 0.13525185 0.010777443 0.0009300307 -0.006677219 0.0054037287
0.0036556777 0.0100609 -0.0022159643 0.025355384 0.0040950365 -0.0009805782 0.0030872421 -0.0085218465
0.0015537698 0.00637914 -0.010964653 0.017138775 0.0028581712 -0.005716382 -0.09816298 0.14039426
-0.053181544 -0.009043586 0.006475651 0.0027196046 -0.0006341895 -0.0006344292 0.020275932 0.0198397
-0.019477436 0.0036520765 -0.013594357 0.005870933 -0.018700784 -0.008822108 0.0075838957 0.020480566
-0.0065425304 -0.012675316 -0.0040521575 0.0062377327 -0.013034835 -0.0015070544 0.005333366 -0.017651152
0.008504294 0.0077569424 -0.009034796 0.021495817 -0.022974182 0.0022232654 -0.012170839 -0.041527875
0.005419582 -0.0076586767 0.13215956 -0.0019764754 -0.0005019455 -0.009867163 0.002626781 -0.011085045
0.008166778 -0.0030952813 -0.011041259 -0.0052926377 -0.003380485 0.017669417 0.014883223 -0.012087588
0.42679265 -0.0013776266 -0.027568337 -0.0011308391 0.0056881127 -0.013939107 -0.014720542 0.28869307
00000000: abb2 01bc 226c a8ba f676 0c3c 415b 983c
00000010: 368a 793c 8972 813b 50bd e939 b4fe 34bc
00000020: 580b 273c 85a9 9abc 0e8b 8c3b 88f0 ecbb
00000030: d15e c13d ca3d 0abc 9ba0 253b 5299 2abb
00000040: 2bba d03b 9039 003c 1156 d53b 9497 4f3c
00000050: ceeb db3b 873f 8dbb 353e e2bb 2535 4839
00000060: 8cca 72ba 8dbe 883a a075 993b 9c8e a8ba
00000070: a02f 953c f133 8dbc a0fb 29b9 4359 1cb8
00000080: 892b 823e d47d aa3b 6413 d83b e5e9 42bb
00000090: 170a 60bd 1c1f 97be ea5e c9bb dbd0 cb3b
000000a0: acbd 2d3b 90f8 033c 1e3a 713b 767f 0a3e
000000b0: df93 303c 4ecd 733a 93cc dabb c311 b13b
000000c0: 1894 6f3b 79d6 243c b639 11bb 18b6 cf3c
000000d0: a82f 863b bf86 80ba 5453 4a3b 379f 0bbc
000000e0: dda7 cb3a 1b08 d13b 17a5 33bc 9e66 8c3c
000000f0: 2850 3b3b 7d50 bbbb ac09 c9bd 83c3 0f3e
00000100: e4d4 59bd 8d2b 14bc b331 d43b 653b 323b
00000110: bd3f 26ba d34f 26ba b619 a63c de86 a23c
00000120: 258f 9fbc ad57 6f3b deba 5ebc f560 c03b
00000130: 6332 99bc 9a8a 10bc 5482 f83b dcc6 a73c
00000140: b962 d6bb 21ac 4fbc f6c7 84bb e565 cc3b
00000150: 1090 55bc 5b88 c5ba 84c3 ae3b 2699 90bc
00000160: 9855 0b3c f32d fe3b ae06 14bc ff17 b03c
00000170: 5a34 bcbc 34b4 113b 3368 47bc 2219 2abd
00000180: c096 b13b a3f5 fabb d654 073e c187 01bb
00000190: fe94 03ba e2a9 21bc 1226 2c3b 0c9e 35bc
000001a0: f3cd 053c 34da 4abb 66e6 34bc dd6d adbb
000001b0: 218b 5dbb 74bf 903c c3d8 733c 050b 46bc
000001c0: 9184 da3e 7a91 b4ba fed6 e1bc aa38 94ba
000001d0: 5963 ba3b da60 64bc 6e2e 71bc 94cf 933e

layer3.fc2.weight f4 [84, 120]
-0.0072109625 -0.003647762 0.0031909058 -0.0034045642 -0.001414867 0.0035060968 0.0015177077 -0.0034252086
-0.0036419393 0.008729426 -0.008934217 0.0074912608 0.0027883677 -0.0039156126 -0.007043423 -0.0024632348
-0.00026750282 0.0035747797 -0.0025769456 -0.0018246453 -0.003848628 -0.0009224558 0.017495275 -0.005274759
0.005557985 0.0063239583 0.0037262898 0.0022984983 0.0005871886 -0.0023077833 0.006407986 0.0012266051
-0.0072034416 -0.005112573 -0.0062296344 -0.00056302996 -0.011464396 0.017986761 -0.0025849051 0.009525312
0.00075516524 -0.0034787648 -0.0067506814 -0.014616868 -0.0067831054 0.007816596 0.0051535536 0.0014530416
-0.008226045 -0.0029793736 -0.00085636746 0.0016099011 0.00122069 -0.009845543 -0.006958998 0.012296319
-0.002991901 -0.0009896109 0.00967418 -0.009222082 0.0071166977 -0.004182702 0.0008736891 0.006219773
0.0017028721 0.010581836 -0.005544751 -0.0009952257 -0.0060681403 -0.0071885674 0.009555163 -0.0046645505
0.011896603 -0.0022173745 0.013431369 0.001035756 0.007324176 0.003375765 -0.007023684 0.00220522
0.008243445 -0.0063697826 0.001835074 -0.0049281903 0.0047031236 -0.0064928853 -0.00024721777 -0.0028197928
0.00053544884 0.0034166358 0.00073733635 0.002357794 0.004089724 0.004499704 -0.0071967733 0.0030577108
0.002621955 0.005158957 0.0009512156 0.0059911036 -0.0022547154 -0.0019728285 -0.0035253975 -0.004718633
-0.00849594 -0.008674337 0.0066534244 0.0047479784 -0.0012859699 -0.007979487 -0.003375954 0.000102974474
-0.0067210286 0.00934083 0.014082835 0.003051747 0.005154058 -0.005807574 0.0044595106 0.005382532
0.003199773 -0.00056741823 -0.0014327085 0.0073019424 0.0051117223 -0.0015330733 -0.0028350817 0.000109966895
0.004642509 -0.0019549339 0.0062676994 -0.015644383 -0.00067337457 -0.002430353 -0.004050188 -0.010068823
-0.005537987 0.002542774 -0.0009917489 0.00022703368 0.0016671055 0.00074766355 -0.010059914 0.0030724152
-0.00043747723 0.0016692267 0.013383697 -0.0070036114 0.0019769082 0.002189754 0.0048753666 0.0007707097
-0.0034895937 0.0024099066 0.008328481 0.00017517166 0.008936277 -0.010996248 0.0033864428 0.004690572
-0.001827258 0.00019038108 0.00892528 0.0070300847 0.010438986 -0.007981352 -0.0071246177 -0.0023654338
0.007123142 -0.0033156658 -0.003395134 0.0062510567 0.0026760027 0.009028757 2.0357407e-05 -0.0003806028
-0.0022047744 -0.003936905 -0.007853315 0.0026391076 -0.006286043 -0.008577331 -0.0051464536 -0.008277974
0.007928214 -0.00676136 -0.0032760089 0.002793562 0.018458677 -0.004489118 -5.024856e-05 0.003990282
-0.010297347 0.0041774954 -0.008373567 0.0034665696 -0.007107146 -3.3576136e-05 -0.0017161091 -0.005448055
-0.009647441 0.003681276 -0.0035028185 0.015325948 -0.008673519 0.007536221 0.0063042208 -3.327889e-05
0.0073570227 -0.0056530912 -0.0006599052 0.0071207867 -0.0013846359 0.004093992 0.00086658535 -0.0033918633
0.0032895014 0.004700589 -0.0010656507 -0.0057848203 -0.004090191 -0.011704567 0.0074278866 -0.0009618558
0.004867064 0.006021734 -0.0086120665 -0.0011346383 -0.0044498127 0.0024531088 0.002944036 -0.0037227767
0.003931462 -0.0029351746 -0.01474681 -0.006049563 0.004009454 0.0039174147 -0.002472649 -0.0016082035
0.0020968253 -0.005406722 -0.010763002 0.015919935 -0.003938219 0.008886977 0.00059912633 -0.00525568
-0.008812066 0.009806223 -0.009119224 -0.001101044 0.0045935754 -1.5788293e-05 -0.0010776931 0.005990835
00000000: f049 ecbb 4a0f 6fbb 841e 513b 1c1f 5fbb
00000010: 0f73 b9ba 8bc6 653b d2ed c63a 7779 60bb
00000020: 9aad 6ebb de05 0f3c d260 12bc 4079 f53b
00000030: 0cbd 363b 8a4e 80bb 84cc e6bb 396e 21bb
00000040: 9f3f 8cb9 da46 6a3b f9e1 28bb f028 efba
00000050: 4339 7cbb f6d0 71ba 4052 8f3c e3d7 acbb
00000060: c21f b63b 3539 cf3b c534 743b 67a2 163b
00000070: 8fed 193a 2e3e 17bb 15fa d13b 0ac6 a03a
00000080: d90a ecbb 5f87 a7bb f621 ccbb 4d98 13ba
00000090: 29d5 3bbc f958 933c 8367 29bb 0e10 1c3c
000000a0: 48f6 453a fdfb 63bb d234 ddbb 977b 6fbc
000000b0: d044 debb 2e11 003c 24df a83b fc73 be3a
000000c0: 89c6 06bc 9841 43bb d97d 60ba 5103 d33a
000000d0: 8fff 9f3a 334f 21bc 4e08 e4bb 8076 493c
000000e0: c513 44bb d5b5 81ba 7480 1e3c 3718 17bc
000000f0: 3033 e93b 0c0f 89bb 4808 653a 3dcf cb3b
00000100: e832 df3a 705f 2d3c beb0 b5bb 3c72 82ba
00000110: 40d7 c6bb 138e ebbb 428d 1c3c 16d9 98bb
00000120: f8e9 423c 5f51 11bb 3f0f 5c3c 34c2 873a
00000130: a4ff ef3b f03b 5d3b ef26 e6bb 7485 103b
00000140: 840f 073c 9cb9 d0bb de86 f03a a87c a1bb
00000150: a91c 9a3b 45c2 d4bb 029d 81b9 46cc 38bb
00000160: 5d5d 0c3a a3e9 5f3b ce49 413a 3885 1a3b
00000170: 1703 863b 4172 933b e9d2 ebbb e063 483b
00000180: 1bd5 2b3b 780c a93b 005b 793a 0551 c43b
00000190: d9c3 13bb 924a 01bb 5b0a 67bb c39e 9abb
000001a0: 8e32 0bbc ce1e 0ebc f804 da3b ee94 9b3b
000001b0: fd8d a8ba 65bc 02bc 1c3f 5dbb 00f4 d738
000001c0: 133c dcbb 480a 193c b1bb 663c d2ff 473b
000001d0: 5fe3 a83b 764d bebb 1621 923b f35f b03b
000001e0: 48b3 513b cbbe 14ba b8c9 bbba 2245 ef3b
000001f0: 3c80 a73b 67f1 c8ba c7cc 39bb 079e e638
00000200: 3020 983b 591e 00bb 4661 cd3b a628 80bc
00000210: 6785 30ba 8f46 1fbb 71b7 84bb b4f7 24bc
00000220: 0178 b5bb aba4 263b 92fd 81ba e40f 6e39
00000230: c782 da3a dafe 433a 56d2 24bc 935a 493b
00000240: 335d e5b9 f4c9 da3a 4b47 5b3c 8d7e e5bb
00000250: 048f 013b fa81 0f3b 8ac1 9f3b 7409 4a3a
00000260: abb1 64bb 86ef 1d3b 2e74 083c 49ae 3739
00000270: 7669 123c 9b29 34bc 15ef 5d3b 5fb3 993b
00000280: 9b80 efba 08a1 4739 563b 123c a05c e63b
00000290: 4808 2b3c 37c4 02bc a075 e9bb 6505 1bbb
000002a0: 3f69 e93b a44b 59bb e580 5ebb aad5 cc3b
000002b0: e05f 2f3b 5aed 133c 33c5 aa37 a58b c7b9
000002c0: fa7d 10bb 2701 81bb 31ab 00bc e1f4 2c3b
000002d0: 27fb cdbb ef87 0cbc 95a3 a8bb 57a0 07bc
000002e0: 57e5 013c 668e ddbb 4fb2 56bb 3114 373b
000002f0: a736 973c 7319 93bb fbc1 52b8 e9c0 823b
00000300: 34b6 28bc 5fe3 883b 4931 09bc 632f 633b
00000310: 10e3 e8bb 1ad4 0cb8 11ef e0ba 9985 b2bb
00000320: 4d10 1ebc 9041 713b 8b8f 65bb af19 7b3c
00000330: 601b 0ebc 67f2 f63b a393 ce3b f094 0bb8
00000340: 2e13 f13b 913d b9bb 7dfd 2cba 7d55 e93b
00000350: ac7c b5ba e526 863b 8f2b 633a 064a 5ebb
00000360: ad94 573b 6607 9a3b 4ead 8bba 978e bdbb
00000370: 0207 86bb 83c4 3fbc a165 f33b 0d25 7cba
00000380: e47b 9f3b f751 c53b a019 0dbc 25b8 94ba
00000390: bccf 91bb 56c4 203b baf0 403b d4f9 73bb
000003a0: 7ed3 803b 0f5c 40bb 9b9c 71bc 6a3b c6bb
000003b0: bd61 833b a85d 803b 2b0c 22bb 5bca d2ba
000003c0: e46a 093b df2a b1bb 4d57 30bc 866a 823c
000003d0: 2d0c 81bb af9a 113c b00e 1d3a d737 acbb
000003e0: 7c60 10bc 48aa 203c cc68 15bc e850 90ba
000003f0: b485 963b 1a71 84b7 6141 8dba c44e c43b

layer3.fc2.bias f4 [84]
-0.013360517 0.00066627923 -0.012355705 0.018270712 -0.058284454 0.005527633 -0.0025539615 -0.009299567
-0.013984426 0.0014030447 0.29288322 -0.011415335 -0.0049163033 0.009994105 -0.0013254806 0.007331897
0.014213085 0.0067147086 -0.015871767 -0.006290539 -0.011376711 0.0062175067 -0.011985847 0.001445375
0.0038926504 -0.02461862 8.530715e-05 0.05330995 0.0069859093 0.00657561 -0.0048685297 -0.0062482418
0.0031856343 -0.012611041 -0.016328724 -0.00025569252 -0.0990701 -0.008102131 -0.0052295025 -0.19057816
-0.010212092 0.31794402 0.00646637 -0.015268305 0.0028171455 0.007438603 -0.040394753 -0.0071959933
-0.016256273 -0.0065615512 -0.00090423325 0.21815237 0.014174129 -0.019522343 -0.002024697 0.0062414748
-0.01916773 -0.023910208 0.012113016 0.008116349 0.014871552 -0.0007787842 -0.0037049714 0.004288187
-0.010197554 -0.0069194185 0.0028777875 0.017990604 0.009043837 0.008500147 0.13191901 0.0031125627
-0.0058685117 0.0049245623 -0.0053786254 -0.0037243078 -0.0039540213 -0.14800034 0.0047599287 -0.1720761
0.002621501 0.010022385 0.0011236944 0.006858544
00000000: 12e6 5abc 3ea9 2e3a 956f 4abc 76ac 953c
00000010: aebb 6ebd 2521 b53b 5d60 27bb 365d 18bc
00000020: ef1e 65bc 5ee6 b73a caf4 953e 6307 3bbc
00000030: f118 a1bb 51be 233c c0bb adba 6940 f03b
00000040: 00de 683c 0f07 dc3b 8205 82bc de20 cebb
00000050: 6265 3abc 3abc cb3b 4960 44bc bd72 bd3a
00000060: d61b 7f3b fdac c9bc ede6 b238 895b 5a3d
00000070: 0eea e43b 3778 d73b 3088 9fbb 0dbe ccbb
00000080: 13c6 503b 8a9e 4ebc d1c3 85bc 780e 86b9
00000090: 44e5 cabd cdbe 04bc 3f5c abbb ec26 43be
000000a0: 9e50 27bc 8fc9 a23e d8e3 d33b ea27 7abc
000000b0: dc9f 383b 86bf f33b f874 25bd 5ecc ebbb
000000c0: e02b 85bc 4802 d7bb 110a 6dba 5663 5f3e
000000d0: 9b3a 683c 52ed 9fbc c7b0 04bb 4985 cc3b
000000e0: a505 9dbc 57df c3bc ac75 463c 6ffa 043c
000000f0: cfa7 733c 5327 4cba 1bcf 72bb eb83 8c3b
00000100: a413 27bc 4abc e2bb 4399 3c3b 0861 933c
00000110: 9a2c 143c 3344 0b3c c715 073e 23fc 4b3b
00000120: a54c c0bb 395e a13b 2e3f b0bb 8413 74bb
00000130: bc90 81bb 678d 17be 2df9 9b3b b834 30be
00000140: 7dcd 2b3b ee34 243c ed48 933a a3bd e03b

layer3.fc3.weight f4 [10, 84]
0.0062696775 -0.0019038817 0.002611082 -0.005520434 0.07635627 0.0014153586 -0.0065957964 -0.0015952542
0.014354312 0.0026149526 -0.20733492 -0.00083572225 0.005526711 -0.00718278 -0.0065809353 -0.00034811744
-0.012116732 -0.0065609366 0.007448778 -0.0010003177 0.005217904 -0.0031232834 0.006104083 -0.0039878204
-0.0030492789 0.0170089 0.0010494586 0.10033182 -0.0015349584 -0.0058912053 0.00540062 0.003736029
0.0046588858 0.009051444 0.004519553 -0.0021714156 -0.029906774 -0.002267017 -0.0029771724 0.0146496035
0.0012098441 0.0064704795 -0.004750285 0.00018947596 -0.0033785703 -0.011297625 0.0061686025 -0.00871855
0.005489881 0.0123740425 0.004894951 0.04325011 -0.0011138368 0.0028847812 0.009581535 0.0028938854
0.0027292517 -0.24178806 0.0032728782 0.005677598 -0.004145072 0.0013451048 0.0029757146 -0.0025471558
-0.0016773039 -0.0022652696 0.0076991543 -0.0034565544 -0.0033298691 -0.00921673 -0.1670479 -0.00089616573
0.0028414186 0.010597059 0.0018539284 0.008626601 0.0027041212 0.08792784 0.0029483042 0.14234054
-0.0010457601 -0.0016745905 0.0017276452 -0.001706681 -0.0013050883 -0.004215373 0.006967693 0.005143811
0.019988023 -0.001254346 -0.0014429281 -0.007999539 -0.008437475 0.0058466243 -0.07167124 -0.0007191836
0.0027212435 0.0120171895 -0.0011350586 0.00061298074 0.0009944801 0.004166606 0.00078527845 0.0016004656
-0.0055376687 0.00016842279 -0.003166467 -0.00018997588 0.0031896727 0.2572819 0.008338958 -0.15510091
0.003578108 -0.0016107509 -0.009186981 0.00089880207 0.0023208566 -0.005111017 0.0012713224 0.0061381087
0.12607339 -0.0025278188 -0.00040657815 0.09623669 0.0062235706 -0.15917921 0.0042810957 -0.0024203528
0.0054142782 0.0009889662 0.1771691 -0.011122625 -0.009665629 -0.0006786341 -0.003992456 -0.30224225
-0.005822044 0.0002626092 0.008183075 -0.008768539 0.0017484736 0.03154404 0.008103602 -0.0013845592
-0.0065318197 0.0042479387 -0.0017852889 0.0061153905 -0.0013384037 0.0015767543 0.00400686 0.008337443
-6.2942185e-05 0.0074578817 -0.13569564 -0.008618774 -0.0006457057 -0.0005130566 0.007946447 7.999459e-05
0.0051400177 -0.029804068 -0.007896568 -0.027639413 -0.0023972485 -0.005122524 -0.0074382676 0.0012533605
0.005951926 -1.1496637e-05 0.0020767415 -0.0069288365 -0.08516038 -0.0014923268 0.00074031786 0.004912173
0.0061838287 -0.0053635067 -0.07551002 -0.0009269356 0.0016812254 -0.014105907 -0.000331371 0.006533678
-0.0073019546 -0.0025866556 -0.0010724415 0.00067060126 0.004327322 -0.0019440501 -0.005526722 0.0009951108
-0.0003039073 -0.05919616 -0.0022013248 0.18354076 -0.0047375457 0.0036875107 0.0042627025 0.0012880893
0.0029776415 0.0055776257 -0.0005216339 -0.0034209879 -0.045674134 0.0014969325 -0.0028617661 -0.09592365
-0.0050639245 0.13889611 -0.0034686956 0.0022416566 -0.0005965655 -0.000107947984 -0.0073972447 0.0002414976
0.0020621934 -0.0023291747 -0.0005522759 0.10817827 -0.0013951788 0.0044633644 -0.0002460155 0.0044176984
0.00095734786 0.014897696 0.00058327656 0.0014897711 0.00023326471 0.010270279 -0.00016672978 0.0060798456
-0.0021204525 -0.0016144611 -0.0021038414 -0.008430376 0.005051176 -0.009831875 0.002706794 -0.0010928573
0.0057662833 -0.0064795525 -0.00030743447 -0.0037861974 -0.0031212226 0.028038427 0.00040403663 -0.23857068
-0.0027774589 -0.0038313994 0.0017427277 -0.0007050463 0.00042034913 -0.00015282539 -0.0007324494 0.003154896
00000000: de71 cd3b ab8b f9ba b01e 2b3b c2e4 b4bb
00000010: ad60 9c3d 8e83 b93a 8d21 d8bb d917 d1ba
00000020: 592e 6b3c a05f 2b3b 9b4f 54be 5f14 5bba
00000030: 6919 b53b 875d ebbb e3a4 d7bb 8883 b6b9
00000040: 4285 46bc 20fd d6bb e114 f43b 181d 83ba
00000050: f4fa aa3b 00b0 4cbb c204 c83b 43ac 82bb
00000060: 69d6 47bb 4056 8b3c fd8d 893a c57a cd3d
00000070: a830 c9ba 030b c1bb aff7 b03b 2ad8 743b
00000080: 91a9 983b 824c 143c c218 943b 4f4e 0ebb
00000090: 0dff f4bc 3c92 14bb aa1c 43bb e404 703c
000000a0: a293 9e3a 5106 d43b 47a8 9bbb 11ae 4639
000000b0: 016b 5dbb ac19 39bc fd21 ca3b 40d8 0ebc
000000c0: 76e4 b33b 7fbc 4a3c d365 a03b 0727 313d
000000d0: 29fe 91ba 990e 3d3b dffb 1c3c 57a7 3d3b
000000e0: 3fdd 323b 4a97 77be c97d 563b 250b ba3b
000000f0: 62d3 87bb 3a4e b03a 3504 433b 2fee 26bb
00000100: fbd8 dbba eb74 14bb 3049 fc3b 5c87 62bb
00000110: ef39 5abb c401 17bc 9b0e 2bbe aaec 6aba
00000120: 1837 3a3b 499f 2d3c 84ff f23a 9656 0d3c
00000130: a037 313b 8313 b43d 5638 413b b8c1 113e
00000140: e311 89ba ef7d dbba 2772 e23a b6b2 dfba
00000150: 7f0f abba 1d21 8abb 3f51 e43b 6a8d a83b
00000160: ecbd a33c de68 a4ba a220 bdba 8010 03bc
00000170: 563d 0abc 0a95 bf3b 5fc8 92bd 9887 3cba
00000180: e456 323b bfe3 443c 3fc6 94ba 71b0 203a
00000190: 3759 823a 0688 883b 25db 4d3a b7c6 d13a
000001a0: 5575 b5bb a69a 3039 8084 4fbb 4334 47b9
000001b0: d409 513b 74ba 833e 20a0 083c c6d2 1ebe
000001c0: b17e 6a3b d51f d3ba fe84 16bc 969d 6b3a
000001d0: 8319 183b 517a a7bb 80a2 a63a 3022 c93b
000001e0: 6219 013e c3a9 25bb ff29 d5b9 be17 c53d
000001f0: 18ef cb3b e0ff 22be 6f48 8c3b c89e 1ebb
00000200: 426a b13b 33a0 813a d16b 353e ac3b 36bc
00000210: 965c 1ebc 5de6 31ba 26d3 82bb 7fbf 9abe
00000220: d8c6 bebb cfae 8939 4e12 063c eba9 0fbc
00000230: 0a2d e53a 5334 013d f8c4 043c 197a b5ba
00000240: e008 d6bb 4b32 8b3b 5b00 eaba 9d63 c83b
00000250: 606d afba 18ab ce3a fa4b 833b c599 083c
00000260: d4ff 83b8 3f61 f43b ccf3 0abe c235 0dbc
00000270: 9344 29ba a57e 06ba d031 023c c5c2 a738
00000280: 986d a83b a927 f4bc 9b60 01bc 0d6c e2bc
00000290: 281b 1dbb d9da a7bb b6bc f3bb cd47 a43a
000002a0: 6008 c33b aee1 40b7 f119 083b 4b0b e3bb
000002b0: 9168 aebd 2e9a c3ba e411 423a 4bf6 a03b
000002c0: b7a1 ca3b 5bc0 afbb ffa4 9abd 98fd 72ba
000002d0: 905c dc3a 761c 67bc ddbb adb9 7718 d63b
000002e0: 3c45 efbb e184 29bb 2a91 8cba 4acb 2f3a
000002f0: 35cc 8d3b 7fcf feba 8119 b5bb 616e 823a
00000300: bf55 9fb9 ac77 72bd 1a44 10bb 1cf2 3b3e
00000310: 6a3d 9bbb 2aaa 713b 24ae 8b3b 1bd5 a83a
00000320: 8924 433b 84c4 b63b 42be 08ba a732 60bb
00000330: cd14 3bbd b834 c43a 788c 3bbb 9e73 c4bd
00000340: 47ef a5bb c83a 0e3e 0e53 63bb c2e8 123b
00000350: d562 1cba 2262 e2b8 9664 f2bb 853a 7d39
00000360: dd25 073b 11a5 18bb 9cc6 10ba 928c dd3d
00000370: 6fde b6ba 6a41 923b a4fb 80b9 57c2 903b
00000380: 87f6 7a3a 7715 743c 07e7 183a 6c44 c33a
00000390: 8598 7439 ac44 283c 2fd4 2eb9 7139 c73b
000003a0: 4af7 0abb 539c d3ba 9ae0 09bb 8f1f 0abc
000003b0: 5684 a53b df15 21bc 7864 313b 353e 8fba
000003c0: 17f3 bc3b 6d52 d4bb 282f a1b9 da21 78bb
000003d0: 6d8d 4cbb d8b0 e53c e1d4 d339 df4b 74be
000003e0: 0706 36bb 3718 7bbb 3d6c e43a dbd2 38ba
000003f0: 4e62 dc39 c13f 20b9 d901 40ba 5fc2 4e3b

layer3.fc3.bias f4 [10]
-0.14791253 -0.34466693 0.30274147 0.5005752 0.3515254 -0.027359061 -0.07708034 -0.26545984
-0.30796227 -0.030743444
00000000: 6276 17be 2f78 b0be ee00 9b3e b225 003f
00000010: 23fb b33e 1c20 e0bc 4cdc 9dbd 5aea 87be
00000020: 3bad 9dbe add9 fbbc
