output/models_cifar10_440.pth (torch_old, 248636 bytes, 10 tensors)

layer1.conv1.weight f4 [6, 1, 5, 5]
0.00031923127 -0.17698728 0.010833934 -0.12422725 -0.081835985 0.3012778 -0.21147344 0.4377449
-0.06619703 0.22229917 0.11279341 -0.62249434 0.44049302 -0.38018617 -0.062693074 0.4122143
-0.6876563 0.7466486 -0.34913036 0.14816336 0.24133806 -0.6291988 0.5212395 -0.19942924
-0.03611228 0.0075036203 -0.056293547 -0.026378814 0.08968699 -0.019075183 0.05971184 0.1868938
-0.6026996 0.1412713 0.21647695 -0.07481417 0.3520942 0.4663922 -1.1426877 0.32892117
0.08799917 -0.5463563 0.7801966 0.17386888 -0.44446346 -0.007933217 0.07896072 -0.40842998
0.41368464 -0.07848067 -0.04061297 -0.025215771 -0.06434089 0.14375599 0.0563096 -0.06147489
-0.035307717 0.19353198 0.0465183 -0.05997798 -0.33854553 0.009568092 0.2757789 -0.10152861
-0.044139862 -0.35664392 0.31577882 0.20883037 -0.034022655 0.003500418 -0.5174433 0.34937754
-0.02714783 0.05723366 -0.08736817 -0.11928359 -0.34210205 -0.1409423 -0.044878837 0.06477035
0.29109973 0.80312383 0.5027656 0.17291154 0.037972234 -0.13954572 -0.44666693 -0.30516487
-0.028541304 -0.11308725 0.11751586 0.0009753016 -0.09100908 0.08340221 0.20780352 -0.06109999
-0.03156026 -0.011794976 -0.14064208 -0.08502557 -0.099531725 0.024884906 -0.0011586869 0.122044444
-0.09337402 0.022593984 0.10210207 0.04424728 -0.15392248 0.12794407 -0.2811835 -0.41034284
-0.12441745 0.013005287 -0.3025263 0.22535546 0.23123726 -0.16542016 -0.113159895 0.18636781
-0.0658444 0.041102454 0.161194 0.03891199 -0.11201272 0.045588925 -0.26547122 0.32311034
0.006518827 -0.09849603 -0.12920107 0.35854954 0.48345637 -0.72378755 0.014674906 0.10816222
0.4739683 -1.1426759 0.052163348 0.34511313 -0.007136604 -0.29873654 -0.09258557 0.6750764
-0.25263584 0.12174554 -0.11675919 0.19773003 -0.17859498 0.015823921
00000000: 7f5e a739 273c 35be d080 313c db6a febd
00000010: a099 a7bd 1541 9a3e 7e8c 58be 1920 e03e
00000020: 4f92 87bd 65a2 633e 3b00 e73d ca5b 1fbf
00000030: 4d88 e13e c3a7 c2be 3a65 80bd c10d d33e
00000040: 3e0a 30bf 5d24 3f3f 37c1 b2be 23b8 173e
00000050: 5321 773e 2c13 21bf f46f 053f 2e37 4cbe
00000060: 78ea 13bd eee0 f53b 1094 66bd 6218 d8bc
00000070: d0ad b73d 8f43 9cbc 6794 743d 1761 3f3e
00000080: 854a 1abf 6ca9 103e 22ac 5d3e 2c38 99bd
00000090: b145 b43e f5ca ee3e 9743 92bf 5b68 a83e
000000a0: e938 b43d 02de 0bbf f7ba 473f af0a 323e
000000b0: b790 e3be 53fa 01bc 28b6 a13d bc1d d1be
000000c0: 79ce d33e 79ba a0bd c959 26bd 4e91 cebc
000000d0: 28c5 83bd c534 133e e5a4 663d 18cd 7bbd
000000e0: d39e 10bd 3f2d 463e f989 3e3d 78ab 75bd
000000f0: d755 adbe 7dc3 1c3c e432 8d3e 3bee cfbd
00000100: 00cc 34bd 089a b6be c3ad a13e a1d7 553e
00000110: 575b 0bbd 4567 653b 2a77 04bf 9de1 b23e
00000120: 2065 debc d86d 6a3d 15ee b2bd f44a f4bd
00000130: 0028 afbe 2e53 10be dfd2 37bd 51a6 843d
00000140: 060b 953e 8699 4d3f 3fb5 003f b90f 313e
00000150: c688 1b3d 13e5 0ebe 87b1 e4be 923e 9cbe
00000160: 74cf e9bc 4a9a e7bd 28ac f03d 62ab 7f3a
00000170: f862 babd c7ce aa3d 72ca 543e fc43 7abd
00000180: 5545 01bd b73f 41bc 7a04 10be e321 aebd
00000190: 4ad7 cbbd 6edb cb3c 15df 97ba 70f2 f93d
000001a0: e13a bfbd 0517 b93c e41a d13d a33c 353d
000001b0: db9d 1dbe c503 033e 49f7 8fbe 7518 d2be
000001c0: 93ce febd 2114 553c bae4 9abe 95c3 663e
000001d0: 76c9 6c3e e763 29be 60c0 e7bd 34d7 3e3e
000001e0: 6ed9 86bd 0c5b 283d 0a10 253e 2e62 1f3d
000001f0: ed66 e5bd 74bb 3a3d d8eb 87be b86e a53e
00000200: e29b d53b 49b8 c9bd 494d 04be ce93 b73e
00000210: 9887 f73e 244a 39bf 046f 703c 2784 dd3d
00000220: f9ab f23e 3443 92bf 3ca9 553d abb2 b03e
00000230: 2cda e9bb fff3 98be 819d bdbd cfd1 2c3f
00000240: 7c59 81be ba55 f93d 711f efbd be79 4a3e
00000250: 9ae1 36be 2ba1 813c

layer1.conv1.bias f4 [6]
-0.34394562 -0.33138564 -0.32465088 -0.29994705 -0.3056283 -0.36111757
00000000: a419 b0be 61ab a9be a438 a6be a992 99be
00000010: 507b 9cbe 67e4 b8be

layer2.conv2.weight f4 [16, 6, 5, 5]
0.07184817 -0.036543433 0.08750181 0.13935913 0.073241934 0.034288015 -0.05997703 0.050236847
-0.016047264 0.03561198 -0.033774197 0.0054221554 -0.014882559 0.00049466843 0.07424572 0.040095907
-0.1800929 -0.11232428 0.12633991 -0.09791958 -0.24876988 -0.3487549 -0.64768094 -0.7497229
-0.32945496 0.36139888 0.15788923 0.034266178 0.025578413 0.17747867 0.27335057 0.17089719
0.20293702 0.072502226 0.15223742 0.41093358 0.21228138 0.17320633 0.06735698 0.20678997
0.3609718 0.34726042 0.22843744 0.13367058 -0.05156099 0.4556095 0.15331182 -0.12723416
-0.016559087 -0.04818016 0.20606807 0.10245826 -0.0051588323 0.2080125 -0.03827927 0.00570413
0.15336157 0.042791102 -0.17210461 0.1274561 -0.24897116 -0.014688543 0.0915219 0.20729673
-0.0016774511 -0.035296123 -0.14282525 -0.09345702 0.25197434 0.18578216 -0.13458292 -0.14625739
-0.33400986 -0.3891772 -0.09052701 0.2819092 -0.12916161 -0.029011436 0.025638696 0.1603938
0.14830449 0.046765815 0.16466379 0.15104295 0.06655213 -0.04332644 0.34407026 0.15940304
0.16022651 0.11520647 -0.2202714 0.28522938 0.26907492 0.17545646 -0.0026266098 -0.13871756
0.10448396 0.2163261 0.3544698 0.28543 0.2225565 0.050478943 -0.083415836 0.26052842
0.08816524 0.41086376 0.0957353 0.20954093 0.04826039 0.31838885 0.28304967 0.13993697
0.1904785 0.0673036 0.42708147 0.1783173 0.08633183 0.51182497 0.35508257 0.11020382
-0.44655472 0.41376725 0.7553408 0.12932773 -0.19122753 -0.057041153 -0.1179242 -0.022524582
0.037499655 0.02121323 -0.083299465 -0.19008309 0.0053340574 0.07187028 0.13126628 0.017099092
-0.10185424 0.029564023 0.068808086 0.12084788 0.016111389 -0.012316063 -0.11432462 0.12843016
0.16453207 0.06141939 0.09400089 -0.06616305 0.066309966 0.23147264 -0.052326728 0.020221403
0.06678663 0.18520275 -0.17467874 0.19899085 0.039495263 0.08066674 -0.23020487 0.05925872
-0.013172988 0.3392293 -0.12532417 0.030178364 -0.046548527 -0.1457188 -0.31352255 -0.050973095
-0.05852353 -0.23972997 -0.07288782 0.14707379 -0.17387123 -0.41760084 -0.14993253 0.21084434
0.07930903 0.077193424 0.29433298 0.055365432 0.024077667 0.03755513 -0.40347937 0.362471
0.20510204 -0.30881065 0.06490159 -0.35506234 0.28765598 0.09496626 0.034861058 -0.08440077
-0.33086586 -0.48575768 0.071177095 0.18346278 0.27582434 0.5265487 0.022634074 -0.332364
-0.05346389 0.10142333 0.17848381 -0.06763607 0.11837137 0.062737525 -0.34564745 0.05251971
0.2635756 -0.3545571 0.15786566 0.42700776 -0.14593177 0.64433914 0.030219948 0.022380428
0.15195021 0.16600883 0.18198884 0.26648587 0.1151234 -0.16784848 0.024689054 0.025099948
0.30234176 0.10488582 0.14738786 -0.12973037 -0.09313301 0.09001937 0.04356304 0.11919122
-0.29256445 -0.3001509 0.05230212 -0.13703747 -0.06835573 -0.23047963 -0.38261467 -0.13267188
0.19050807 -0.29770333 -0.18215628 -0.31245205 -0.2855359 0.20803204 -0.13638 -0.029917812
0.19048184 -0.303991 0.19837801 0.20929399 -0.4066496 -0.15405723 0.05805937 -0.23538396
00000000: 2225 933d 91ae 15bd 2634 b33d 29b4 0e3e
00000010: deff 953d 9771 0c3d 79aa 75bd 27c5 4d3d
00000020: 8d75 83bc dedd 113d d056 0abd 56ac b13b
00000030: fad5 73bc a3ac 013a 240e 983d 9b3b 243d
00000040: 466a 38be 460a e6bd 405f 013e 108a c8bd
00000050: 88bd 7ebe 0190 b2be 6bce 25bf d7ed 3fbf
00000060: 52ae a8be 4609 b93e b7ad 213e b15a 0c3d
00000070: d289 d13c f8bc 353e 9bf4 8b3e acff 2e3e
00000080: b9ce 4f3e 0c7c 943d 20e4 1b3e e365 d23e
00000090: 4a60 593e 005d 313e 75f2 893d c0c0 533e
000000a0: 4cd1 b83e 1ecc b13e 81eb 693e f1e0 083e
000000b0: 9e31 53bd a645 e93e c6fd 1c3e ac49 02be
000000c0: eca6 87bc 8f58 45bd 8203 533e a3d5 d13d
000000d0: 6c0b a9bb 3b01 553e b9ca 1cbd b6e9 ba3b
000000e0: d10a 1d3e b945 2f3d 313c 30be da83 023e
000000f0: 4cf2 7ebe 37a8 70bc d56f bb3d 9845 543e
00000100: ebdd dbba ab92 10bd c840 12be 6566 bfbd
00000110: c802 813e ae3d 3e3e 1bd0 09be 7fc4 15be
00000120: 5703 abbe 3c42 c7be 3a66 b9bd 6756 903e
00000130: f142 04be 64a9 edbc 3e08 d23c 463e 243e
00000140: 22dd 173e 838d 3f3d a09d 283e 01ab 1a3e
00000150: 7c4c 883d 1177 31bd fa29 b03e 8d3a 233e
00000160: 6b12 243e 5ff1 eb3d d38e 61be 9609 923e
00000170: 30c4 893e dcaa 333e 3323 2cbb fa0b 0ebe
00000180: b0fb d53d 9784 5d3e 117d b53e e223 923e
00000190: dae5 633e 02c3 4e3d ecd5 aabd fb63 853e
000001a0: fa8f b43d bc5c d23e de10 c43d e691 563e
000001b0: b0ac 453d dd03 a33e e3eb 903e a34b 0f3e
000001c0: cc0c 433e 78d6 893d 6caa da3e cf98 363e
000001d0: bece b03d f606 033f 62cd b53e 8ab2 e13d
000001e0: d2a2 e4be 4dd9 d33e 045e 413f 7d6e 043e
000001f0: 26d1 43be fca3 69bd 3e82 f1bd 7985 b8bc
00000200: 3d99 193d 5ec7 ad3c e998 aabd 24a5 42be
00000210: 51c9 ae3b ba30 933d ab6a 063e 6513 8c3c
00000220: f598 d0bd 4030 f23c 41eb 8c3d 187f f73d
00000230: 08fc 833c 50c9 49bc 0723 eabd 3283 033e
00000240: 187b 283e e692 7b3d 8a83 c03d 7e80 87bd
00000250: 85cd 873d 2a07 6d3e 8d54 56bd 5ba7 a53c
00000260: 6ec7 883d caa5 3d3e fcde 32be 42c4 4b3e
00000270: c9c5 213d 9b34 a53d d3ba 6bbe 46b9 723d
00000280: 84d3 57bc 76af ad3e fb54 00be 9e38 f73c
00000290: aba9 3ebd 4f37 15be 0786 a0be 2ac9 50bd
000002a0: 5eb6 6fbd c67b 75be 3646 95bd 839a 163e
000002b0: 4d0b 32be c7cf d5be ea87 19be 94e7 573e
000002c0: c66c a23d 9617 9e3d d0b2 963e ddc6 623d
000002d0: 873e c53c 68d3 193d d994 cebe cd95 b93e
000002e0: 4506 523e 6e1c 9ebe 20eb 843d bbca b5be
000002f0: a547 933e ac7d c23d 78ca 0e3d 50da acbd
00000300: 4067 a9be 3bb5 f8be 4cc5 913d abdd 3b3e
00000310: d938 8d3e e5cb 063f 186b b93c 9d2b aabe
00000320: f4fc 5abd 09b7 cf3d 76c4 363e c884 8abd
00000330: b06c f23d 887c 803d b4f8 b0be e81e 573d
00000340: 62f3 863e 8288 b5be 89a7 213e c3a0 da3e
00000350: 236f 15be 69f3 243f d38f f73c 2957 b73c
00000360: d698 1b3e 38fe 293e 485b 3a3e d670 883e
00000370: d1c5 eb3d 79e0 2bbe b340 ca3c 689e cd3c
00000380: 8acc 9a3e 60ce d63d d8ec 163e 0ad8 04be
00000390: 85bc bebd 135c b83d 296f 323d 871a f43d
000003a0: 02cb 95be 61ad 99be bf3a 563d 8d53 0cbe
000003b0: 17fe 8bbd da02 6cbe 12e6 c3be 23db 07be
000003c0: 8c14 433e 926c 98be 2d87 3abe b7f9 9fbe
000003d0: c331 92be 5a06 553e 33a7 0bbe 3316 f5bc
000003e0: ac0d 433e b5a4 9bbe 9b23 4b3e 2a51 563e
000003f0: 6034 d0be 2ec1 1dbe a9cf 6d3d 7e08 71be

layer2.conv2.bias f4 [16]
-0.67607754 -0.8888464 -0.70464575 -0.64506704 -0.82510084 -0.5747858 -0.645518 -0.429786
-0.83506626 -0.7591786 -0.54848045 -0.43202955 -0.41144028 -0.7179397 -0.6899787 -0.45637015
00000000: 6b13 2dbf 708b 63bf aa63 34bf 1d23 25bf
00000010: cf39 53bf 2a25 13bf ab40 25bf e90c dcbe
00000020: e7c6 55bf 8759 42bf 3769 0cbf fa32 ddbe
00000030: 4da8 d2be e5ca 37bf 72a2 30bf 59a9 e9be

layer3.fc1.weight f4 [120, 400]
0.009256255 -0.0023542757 0.020984774 -0.004675118 0.012095474 -0.004643015 -0.0051888432 -0.008117599
-0.020740252 -0.0077005713 0.013115709 -0.011266343 0.0067835534 0.008368396 0.00034752578 0.0039767968
-0.0026568805 -0.015138315 0.012334662 0.021874864 -0.006699215 0.003133245 -0.01023179 0.0027469583
0.012215685 0.00925839 0.0066633206 0.00737494 0.0058707776 -0.013271644 -0.010000383 0.011343534
0.0047900556 0.011879521 -0.008815002 -0.04499272 -0.0073888674 -5.9785616e-05 -0.019355042 -0.022881415
-0.049571216 0.007715907 0.010059108 -0.030117532 -0.025059149 0.03348344 0.0011260775 0.0011952062
0.010651685 -0.001684798 0.0037577506 0.008199004 -0.007314142 0.008919275 -0.039330807 -0.014120485
0.0053721406 -0.0071569774 0.028670492 -0.0023483657 -0.003554106 0.0014289176 -0.03239108 0.010193753
-0.013136971 0.035903964 -0.008771843 -0.016926007 0.019145418 0.016037816 -0.006009055 0.01661311
0.001795775 0.038797513 0.028017156 0.016016653 -0.02377256 0.0062357713 0.0152519895 -0.013397298
0.026726808 -0.020462831 -0.011475539 0.027340606 0.015928453 0.016010655 -0.00907416 -0.010154976
0.012105643 0.0133669665 -0.032213017 -0.007486483 0.014508484 -0.040225524 -0.0068710796 -0.012449228
0.000527629 0.012709701 -0.023979276 -0.009635934 -0.045615133 0.0017596534 0.012183262 -0.017421164
0.0039582266 -0.017077692 0.014267082 0.0062554963 -0.009551037 0.0016325831 0.0088590225 -0.0024260904
0.0050560073 -0.0064571365 0.009513939 -0.01637118 -0.003889708 0.009488374 -0.007635507 -0.016109884
-0.011567892 0.012548418 0.0044519184 0.0060378783 0.00024855338 -0.021514308 0.0105925705 -0.004236012
-0.018788582 0.028254008 0.0020522047 -0.006146265 -0.01677746 -0.021607868 0.031234566 -0.0014502013
-0.020782964 0.011770302 -0.00869137 -0.0054399353 -0.0021867475 -0.008589196 0.019113593 0.0016125925
0.005536288 -0.018517297 -0.029667933 0.01990853 -0.0015560536 0.03238467 -0.0060613924 -0.0027051587
-0.012297434 0.0008109549 -0.0015978045 -0.0024489074 -0.012767262 0.0075550955 0.004236271 -0.020145554
-0.005720005 -0.0005271038 0.018418903 -1.4201567e-05 -0.017716605 0.005147706 0.0006074951 0.017110938
-0.014775755 -0.0042638006 0.015386118 0.015491532 0.009807243 0.0110874735 0.011933256 0.013153024
-0.00090595166 0.0060323672 -0.004832509 -0.02796762 0.02363794 -0.0007686293 0.005312017 0.019156786
-0.010522703 -0.011724529 0.013698984 0.007713423 -0.013200982 0.00065706536 0.013164095 -0.008803551
-0.005301719 -0.002988665 0.016313007 0.00022370755 -0.024135968 -0.0014197229 0.009734296 0.00016162428
-0.010119094 -0.006163894 -0.0047075385 0.0039287405 -0.013587403 -0.015216761 -0.0020729783 -0.013906755
-0.013835068 0.03095361 0.010427148 0.007815506 -0.0035709278 0.013449219 0.012459875 -0.00041353167
-0.016151322 0.016643545 -0.019131353 -0.016263966 -0.019554054 0.013057399 -0.0069819875 -0.007421262
-0.0093360115 -0.0010172214 -0.004678646 0.022143384 0.005255274 -0.012504635 -0.013153584 -0.014434872
0.0036777556 -0.017757261 -0.02722036 0.016227303 -0.006643374 -0.017915921 0.0075878142 -0.009071589
-0.011346768 -0.0077047446 -0.010054704 0.013736515 -0.022522392 -0.00016998821 0.0011443497 0.007324512
0.034034435 -0.018304875 0.015265302 0.014031201 -0.0028368162 0.008301518 0.026012952 0.002373135
00000000: 8ca7 173c 314a 1abb 43e8 ab3c bb31 99bb
00000010: 182c 463c 6f24 98bb 2c07 aabb aeff 04bc
00000020: 76e7 a9bc 1355 fcbb 45e3 563c 7896 38bc
00000030: 9248 de3b 991b 093c 1f34 b639 ca4f 823b
00000040: 0f1f 2ebb b206 78bc 5217 4a3c ea32 b33c
00000050: 1785 dbbb 2157 4d3b 3da3 27bc 5006 343b
00000060: 4c24 483c 81b0 173c fc57 da3b 7ba9 f13b
00000070: a75f c03b 4f71 59bc a5d8 23bc 3bda 393c
00000080: e6f5 9c3b 53a2 423c cc6c 10bc 494a 38bd
00000090: 501e f2bb 51c2 7ab8 778e 9ebc ce71 bbbc
000000a0: 300b 4bbd b8d5 fc3b f5ce 243c 0bb9 f6bc
000000b0: d848 cdbc ee25 093d e498 933a 77a8 9c3a
000000c0: 6884 2e3c 71d4 dcba 9844 763b 1e55 063c
000000d0: 78ab efbb 2722 123c 5719 21bd 9b59 67bc
000000e0: c808 b03b 1485 eabb 61de ea3c 0ae7 19bb
000000f0: 01ec 68bb 854a bb3a 82ac 04bd b303 273c
00000100: 733c 57bc 0910 133d c7b7 0fbc 69a8 8abc
00000110: dad6 9c3c bd61 833c 9be7 c4bb 3818 883c
00000120: 3660 eb3a 24ea 1e3d 3c84 e53c 5b35 833c
00000130: acbe c2bc 7155 cc3b 7be3 793c 5780 5bbc
00000140: 2ef2 da3c aba1 a7bc e603 3cbc 68f9 df3c
00000150: 637c 823c c728 833c c9ab 14bc 0e61 26bc
00000160: bf56 463c 1f01 5b3c ccf1 03bd 2c51 f5bb
00000170: feb4 6d3c 85c3 24bd cb26 e1bb d9f7 4bbc
00000180: 9550 0a3a 5a3c 503c 3070 c4bc 09e0 1dbc
00000190: efd6 3abd 2ca4 e63a 4e9c 473c d4b6 8ebc
000001a0: 03b4 813b 84e6 8bbc 7bc0 693c e8fa cc3b
000001b0: f47b 1cbc 66fc d53a 6f25 113c 0bff 1ebb
000001c0: ddac a53b 6396 d3bb 5ae0 1b3c da1c 86bc
000001d0: 79ea 7ebb 2075 1b3c 4633 fabb e0f8 83bc
000001e0: 4187 3dbc e197 4d3c 66e1 913b 65d9 c53b
000001f0: 4550 8239 c63e b0bc 768c 2d3c 3fce 8abb
00000200: 83ea 99bc f374 e73c 487e 063b 9c66 c9bb
00000210: e270 89bc fc02 b1bc a2df ff3c ae14 beba
00000220: 0941 aabc 3ad8 403c 3f66 0ebc 7c41 b2bb
00000230: 894f 0fbb b3b9 0cbc 1c94 9c3c a05d d33a
00000240: c069 b53b 96b1 97bc 2a0a f3bc 3717 a33c
00000250: 7ff4 cbba caa5 043d a59e c6bb 0849 31bb
00000260: 2d7b 49bc 4396 543a 6c6d d1ba d97d 20bb
00000270: c72d 51bc bc90 f73b 6bd0 8a3b 4a08 a5bc
00000280: e16e bbbb 562d 0aba 3de3 963c 4443 6eb7
00000290: 6a22 91bc 16ae a83b 4e40 1f3a 3d2c 8c3c
000002a0: 0216 72bc 5ab7 8bbb 0e16 7c3c 32d0 7d3c
000002b0: 8fae 203c 3ca8 353c b483 433c c87f 573c
000002c0: 637d 6dba 2aab c53b 065a 9ebb 5a1c e5bc
000002d0: 5aa4 c13c d77d 49ba 6e10 ae3b b1ee 9c3c
000002e0: 6a67 2cbc 3d18 40bc b471 603c e2c0 fc3b
000002f0: ee48 58bc e93e 2c3a 37ae 573c c53c 10bc
00000300: 0bba adbb 7add 43bb dba2 853c 0a93 6a39
00000310: cbb8 c5bc ff15 baba 997c 1f3c b079 2939
00000320: 8eca 25bc 7efa c9bb b241 9abb aabc 803b
00000330: b39d 5ebc b94f 79bc ceda 07bb 28d9 63bc
00000340: 7bac 62bc 6d92 fd3c a1d6 2a3c 9c0c 003c
00000350: 3a06 6abb 1d5a 5c3c 8124 4c3c 48cf d8b9
00000360: c74f 84bc 0b58 883c 5bb9 9cbc 023c 85bc
00000370: d32f a0bc b3ee 553c 28c9 e4bb 0f2e f3bb
00000380: 12f6 18bc 4954 85ba 544f 99bb 0b66 b53c
00000390: 6f34 ac3b 3ee0 4cbc 2182 57bc 3e80 6cbc
000003a0: 8006 713b ad77 91bc 3bfd debc 1fef 843c
000003b0: a9b0 d9bb 69c4 92bc 33a3 f83b 01a1 14bc
000003c0: cbe7 39bc 1578 fcbb 7cbc 24bc 1f0f 613c
000003d0: e180 b8bc dd3e 32b9 01fe 953a 7602 f03b
000003e0: b167 0b3d 1bf4 95bc 511b 7a3c 1fe3 653c
000003f0: e1e9 39bb 1703 083c 1d19 d53c 9986 1b3b

layer3.fc1.bias f4 [120]
-0.014260773 -0.02875664 -0.0042222524 -0.018209288 0.002480419 -0.019608062 -0.008776162 -0.003450654
-0.000911743 -0.01607438 -0.011790053 0.010500596 0.016900929 0.00064708624 -0.0022228986 -0.012497212
0.024273701 0.02027284 -0.002651954 -0.017727096 -0.0034630694 -0.008403309 0.0035128866 -0.008752954
-0.0153777655 -0.016414694 -0.021166315 0.0035023147 -0.0013266774 -0.00477191 0.031579614 0.008558519
0.16394465 -0.01438017 0.018792091 -0.0070775687 -0.054694768 0.011329704 0.004711029 -0.016691322
-0.0017138257 -0.010763015 -0.014955153 0.09018612 -0.0244114 -0.00036943652 0.022215493 0.017170252
-0.009705707 0.013720003 -0.018337715 0.013341578 0.0014753023 -0.0032998149 0.013530215 0.01458987
0.015009802 0.007625155 -0.0038408628 0.021485807 0.012214241 0.0025186958 -0.01282501 0.10036131
-0.16408354 0.006508035 0.004041579 -0.0003235186 -0.0068856324 -0.009716198 0.008101956 0.0061359126
-0.0064338353 0.019882228 -0.0013433041 -0.009358934 -0.0036492848 0.008624792 -0.020466503 0.010614021
-0.0110327415 0.00058675086 -0.011760982 -0.0062935967 -0.006435068 0.0015749014 0.027986867 -0.012345412
-0.02037826 0.0049491515 -0.015367297 0.014922374 0.006355115 0.013634911 0.0032221477 -0.0026869806
-0.016105022 1.5366343e-06 -0.021022629 -0.03893104 0.01610906 -0.0013100948 -0.008222828 -0.019738587
-0.0043028067 -0.00060960074 -0.00016970414 -0.024435043 -0.016867043 -0.0006446641 -0.005286443 -0.015447512
0.33018175 -0.010541304 0.0013261302 0.009592912 -0.0054662777 -0.015386168 -0.008657395 0.17935784
00000000: 04a6 69bc 0c93 ebbc d25a 8abb a52b 95bc
00000010: 868e 223b 16a1 a0bc e4c9 0fbc 5e24 62bb
00000020: 0902 6fba 6bae 83bc 112b 41bc b10a 2c3c
00000030: d173 8a3c 39a1 293a 0dae 11bb 1bc1 4cbc
00000040: a4d9 c63c 3a13 a63c 68cc 2dbb 6a38 91bc
00000050: aaf4 62bb 08ae 09bc 7538 663b 8d68 0fbc
00000060: 06f3 7bbc 1c78 86bc fb64 adbc 1787 653b
00000070: e8e3 adba af5d 9cbb a059 013d 0839 0c3c
00000080: 1be1 273e ce9a 6bbc dff1 993c f3ea e7bb
00000090: 9f07 60bd 39a0 393c fa5e 9a3b 3dbc 88bc
000000a0: 73a2 e0ba 5b57 30bc 7506 75bc 80b3 b83d
000000b0: 6bfa c7bc eeb0 c1b9 44fd b53c a1a8 8c3c
000000c0: b004 1fbc ddc9 603c fa38 96bc a296 5a3c
000000d0: ee5e c13a b541 58bb d6ad 5d3c 5a0a 6f3c
000000e0: aceb 753c 70dc f93b fcb6 7bbb 0103 b03c
000000f0: 3d1e 483c b410 253b fe1f 52bc 3b8a cd3d
00000100: 8405 28be 5b41 d53b 396f 843b ee9d a9b9
00000110: dfa0 e1bb b030 1fbc 11be 043c c40f c93b
00000120: ecd2 d2bb 0ee0 a23c ce11 b0ba 3756 19bc
00000130: d728 6fbb 004f 0d3c 5ea9 a7bc 6ee6 2d3c
00000140: acc2 34bc 2fd0 193a 22b1 40bc 843a cebb
00000150: 43dd d2bb ec6c ce3a b744 e53c 6944 4abc
00000160: 4ff0 a6bc 7e2c a23b 1ec7 7bbc f97c 743c
00000170: 923e d03b f664 5f3c ab2a 533b 0e18 30bb
00000180: aeee 83bc 5a3e ce35 a637 acbc 2776 1fbd
00000190: 26f7 833c 7db7 abba 0ab9 06bc d1b2 a1bc
000001a0: 8ffe 8cbb 9dcd 1fba 9cf2 31b9 002c c8bc
000001b0: c12c 8abc adfe 28ba e639 adbb 9017 7dbc
000001c0: 950d a93e 6fb5 2cbc 8cd1 ad3a 972b 1d3c
000001d0: 761e b3bb 4416 7cbc bfd7 0dbc 95a9 373e

layer3.fc2.weight f4 [84, 120]
-0.0010331667 0.006165735 -0.0006142055 0.011170167 0.006391142 0.0034079603 0.0018087616 0.0033020403
0.00044625843 -0.0047598477 0.008029258 -0.0078201415 0.002070197 -0.0025828904 -0.005475294 0.0060627623
-0.013390295 -0.0131904725 -0.008828125 0.009144013 -0.002476124 -0.006198894 -0.004672396 0.0030258948
-0.0032894518 -0.002993695 0.0012637597 -0.003959804 -0.0040446213 -0.00040147276 -0.0060376525 -0.007689089
0.01165012 0.004270231 -0.0014488399 -0.0012033446 1.2929932e-05 -0.0010119191 0.0026322254 0.010147632
0.011755253 0.004426089 0.0065824245 0.0011661272 -0.003997671 -0.004554373 -0.008202363 -0.0095747365
0.006190418 -0.008401983 0.0056616045 0.0072139264 -0.008363436 -0.004886948 -0.013589924 -0.010598427
0.0049690683 -0.009057785 0.006168934 -0.011698799 0.0006601605 -0.00024037242 0.010780257 0.013151452
0.0068593044 -0.0018974333 0.0020937903 0.01202115 6.224533e-05 0.008108556 -0.0045829955 -0.002880703
0.008359005 -0.015713112 0.002367801 0.01063218 0.0039108703 0.010903927 0.0034211571 -0.009719866
-0.0028655704 -0.0049449955 0.007883843 -0.0021601303 -0.0026055775 0.0035450086 -0.009082988 0.004696561
-0.00079844357 -0.008782311 -0.007031688 0.0059011737 -0.005027181 -0.0013231339 -0.0022944333 -0.0029609744
-0.0073680673 0.0025949487 0.0072383774 0.014061444 -0.0022519948 0.0072941976 0.011602852 0.009170845
-0.0025664505 0.0065215784 0.00039654382 0.006264158 0.009835304 0.0018378549 0.013776195 -0.00482113
-0.011316629 -0.00063987426 -0.0010491733 0.005262319 0.011275249 0.0037233955 0.0031747518 0.003428772
-0.0017206369 0.004754033 0.0018971824 0.010698962 0.007784264 -0.0023636383 0.0077595133 0.01065616
0.007175561 0.0056088315 -0.0019542703 0.003942207 -0.005596215 0.0014233221 0.007900463 -0.008297915
-0.0035071683 -0.012047839 0.0030518319 -0.009491123 -0.0024664293 -0.008175537 0.004725421 -0.010333526
0.0064316923 0.002581064 -0.0032302183 0.00035965262 -0.0023365137 -0.00484758 0.0028918595 0.01074585
0.01176503 -0.0071508577 -0.009527747 0.009373496 0.01121484 -0.010585987 0.008264785 0.004999404
-0.0030296966 0.006496075 2.2689572e-05 0.0009996631 -0.009796487 0.0041092094 0.003111329 0.0029541077
-0.0009636623 -0.0051535345 -0.0071832277 -0.0050041666 -0.0017877591 0.008519431 0.0031513658 -0.0077100513
-0.0021153204 -0.011050556 0.0009493176 -0.0075002504 0.004866523 -0.00038272256 0.011421116 0.00044717587
-0.011171114 0.010552508 0.006943248 0.013181112 0.005961865 -0.0034226966 -0.008824166 0.006748533
-0.004217987 -0.0068615233 0.0019082291 -0.010586083 -0.006004808 -0.002874831 0.0016856928 -0.005335789
-0.0035417154 0.0077101463 -0.006735106 0.002886503 0.0012905251 0.0076296646 -0.0017143672 -0.009594218
-0.00639366 0.0078822 -0.008795824 -0.0028964817 0.0015260909 -0.0025960146 -0.006006071 -0.0020619854
-0.003023831 0.007521794 -0.0058469838 0.0066307946 -0.00022032029 0.0071426597 -0.0034825585 0.010416128
0.011540546 0.003500002 -0.007977241 0.011036566 0.0016384741 0.003460674 0.0016118365 -0.011021862
-0.0011332807 0.0010110827 -0.00639546 0.007208925 0.010588691 0.008134488 -0.0051476285 -0.00010413218
0.011548387 -0.0032940982 0.0052280594 -0.009271456 -0.0016605486 0.0036277778 -0.0048445323 -0.015093471
-0.0062375376 -0.0051164874 0.0070295674 0.0034854573 0.006260163 0.00383404 0.002513752 0.015412217
00000000: 526b 87ba ef09 ca3b a202 21ba 1303 373c
00000010: c96c d13b 1658 5f3b f813 ed3a 0b67 583b
00000020: cbf7 e939 7ff8 9bbb 268d 033c 0d20 00bc
00000030: 24ac 073b b645 29bb 186a b3bb 23aa c63b
00000040: f862 5bbc da1c 58bc d7a3 10bc c5d0 153c
00000050: 7846 22bb 1820 cbbb e61a 99bb 174e 463b
00000060: d893 57bb de31 44bb bda4 a53a 3ec1 81bb
00000070: be88 84bb c37c d2b9 80d7 c5bb c1f4 fbbb
00000080: 25e0 3e3c 4bed 8b3b 00e7 bdba 8bb9 9dba
00000090: a3ed 5837 5fa2 84ba 6a81 2c3b 4142 263c
000000a0: 1b99 403c ba08 913b 61b1 d73b bcd8 983a
000000b0: e5fe 82bb da3c 95bb 3463 06bc 5bdf 1cbc
000000c0: fdd8 ca3b 79a8 09bc fb84 b93b cd62 ec3b
000000d0: cb06 09bc b122 a0bb 46a8 5ebc 06a5 2dbc
000000e0: 91d3 a23b 1b67 14bc c524 ca3b 52ac 3fbc
000000f0: 9f0e 2d3a 7b0c 7cb9 ad9f 303c 3079 573c
00000100: 04c4 e03b 4cb3 f8ba f937 093b 5cf4 443c
00000110: b589 8238 c0d9 043c f42c 96bb 2dca 3cbb
00000120: 35f4 083c c9b8 80bc 1c2d 1b3b 9832 2e3c
00000130: c226 803b 62a6 323c 7e35 603b 1340 1fbc
00000140: 4bcc 3bbb a109 a2bb 3c2b 013c f990 0dbb
00000150: 56c2 2abb 6053 683b d0d0 14bc 9ce5 993b
00000160: a44e 51ba afe3 0fbc 136a e6bb a25e c13b
00000170: 0dbb a4bb 026d adba 345e 16bb e80c 42bb
00000180: d46f f1bb 0410 2a3b e92f ed3b f961 663c
00000190: 3496 13bb 2a04 ef3b e319 3e3c 5041 163c
000001a0: e531 28bb f7b2 d53b 36e7 cf39 9143 cd3b
000001b0: 4124 213c 2de4 f03a 8db5 613c 92fa 9dbb
000001c0: 6269 39bc 3cbd 27ba 6a84 89ba 886f ac3b
000001d0: d2bb 383c 3604 743b 7f0f 503b 40b5 603b
000001e0: fe86 e1ba b8c7 9b3b e1aa f83a b34a 2f3c
000001f0: 2413 ff3b 45e7 1abb 8443 fe3b 2d97 2e3c
00000200: f820 eb3b 4aca b73b 3713 00bb a12d 813b
00000210: 7460 b7bb c48e ba3a f270 013c faf3 07bc
00000220: 85d8 65bb 4d64 45bc 3e01 483b a880 1bbc
00000230: d1a3 21bb b0f2 05bc b4d7 9a3b f34d 29bc
00000240: f2c0 d23b 1127 293b 12b2 53bb c28f bc39
00000250: 3220 19bb 73d8 9ebb 5a85 3d3b 5d0f 303c
00000260: 1dc2 403c be51 eabb 441a 1cbc 4b93 193c
00000270: 73be 373c d970 2dbc 0569 073c 0ad2 a33b
00000280: e08d 46bb 07dd d43b 7c55 be37 2107 833a
00000290: 7281 20bc 8ca6 863b 70e7 4b3b b499 413b
000002a0: 489e 7cba fbde a8bb 4861 ebbb fef9 a3bb
000002b0: 3e53 eaba 1595 0b3c 2587 4e3b 99a4 fcbb
000002c0: 30a1 0abb 640d 35bc a0db 783a a9c4 f5bb
000002d0: 5b77 9f3b 27a8 c8b9 a21f 3b3c ee72 ea39
000002e0: 0c07 37bc 6de4 2c3c 3084 e33b 97f5 573c
000002f0: c05b c33b 524f 60bb 3c93 10bc cc22 dd3b
00000300: 0a37 8abb a1d6 e0bb 8b1d fa3a 4071 2dbc
00000310: fbc3 c4bb a967 3cbb 77f2 dc3a d8d7 aebb
00000320: 201c 68bb 65a5 fc3b 2ab2 dcbb 7c2b 3d3b
00000330: d626 a93a 4402 fa3b 9eb4 e0ba 1131 1dbc
00000340: e881 d1bb 5824 013c 5c1c 10bc e6d2 3dbb
00000350: 1d07 c83a e621 2abb 93ce c4bb 6022 07bb
00000360: 772b 46bb 6279 f63b 0e98 bfbb 2347 d93b
00000370: c705 67b9 f90c ea3b a33b 64bb 68a8 2a3c
00000380: 8f14 3d3c 4a60 653b f9b2 02bc b7d2 343c
00000390: 11c2 d63a 7acc 623b 4244 d33a 0a95 34bc
000003a0: 978a 94ba 4e86 843a 0291 d1bb d938 ec3b
000003b0: 307c 2d3c 8446 053c 70ad a8bb 8a61 dab8
000003c0: 7235 3d3c cce1 57bb 2450 ab3b 4ee7 17bc
000003d0: c4a6 d9ba 03c0 6d3b e2be 9ebb 9b4a 77bc
000003e0: 4264 ccbb 35a8 a7bb 4958 e63b 456c 643b
000003f0: 0e22 cd3b 8444 7b3b c3bd 243b 8683 7c3c

layer3.fc2.bias f4 [84]
-0.0066553075 0.0062921112 -0.00535687 0.0057328125 0.0053202705 -0.012802257 0.00092663046 -0.006035303
0.0077083423 -0.0049897344 0.20613262 -0.0065789158 0.010635282 0.005692763 0.009336451 -0.0026686657
0.0005210837 -0.004097028 0.0085059935 -0.022176465 0.0012349345 0.0019573139 0.0042544883 0.0027941312
-0.015364268 -0.04818281 0.00765368 0.014951127 0.0013135421 0.00036286892 -0.005464298 0.0010809933
-0.005361868 0.0008743316 -0.0027929381 0.002630543 0.0044531613 -0.0027756738 0.0016239702 -0.0037219843
-6.079699e-05 0.25511575 -0.0005856152 -0.005913812 -0.0046373983 0.0066450424 0.0060206424 -0.0029574526
-0.0034589707 0.008437774 0.014707443 0.23159024 0.005684589 -0.0025625292 -0.004778466 0.0029399104
0.0068416214 -0.011648249 0.0048582954 -0.0008076892 -0.0104952715 -0.0034942732 -0.020053351 -0.0027262075
0.008131538 0.0015179362 -0.0068126787 0.0009818923 -0.002909236 -0.009694932 0.11013174 -0.0022646429
0.005289809 -0.0013251266 -0.0025970344 -0.0064439927 -0.0016877827 -0.009800477 -0.005280568 -0.085163355
-0.015509203 -0.00335146 0.0027377764 0.0019967905
00000000: c414 dabb 0e2e ce3b af88 afbb 51da bb3b
00000010: aa55 ae3b 8fc0 51bc 1ee9 723a cbc3 c5bb
00000020: 4396 fc3b ed80 a3bb 6e14 533e f293 d7bb
00000030: 9b3f 2e3c 5b8a ba3b eaf7 183c c8e4 2ebb
00000040: 5699 083a 5d40 86bb b95c 0b3c 6bab b5bc
00000050: 87dd a13a 4746 003b 3c69 8b3b be1d 373b
00000060: 69ba 7bbc 575b 45bd b9cb fa3b 92f5 743c
00000070: 292b ac3a 713f be39 db0d b3bb 1eb0 8d3a
00000080: 9cb2 afbb 6733 653a ba09 37bb 3065 2c3b
00000090: d3eb 913b 14e8 35bb 66db d43a 89ec 73bb
000000a0: 4500 7fb8 889e 823e f983 19ba a7c8 c1bb
000000b0: 51f5 97bb a8be d93b cf48 c53b d2d1 41bb
000000c0: e6af 62bb 973e 0a3c 7df7 703c fe25 6d3e
000000d0: ca45 ba3b 1bf0 27bb ae94 9cbb 83ab 403b
000000e0: ae2f e03b 4cd8 3ebc 5632 9f3b 1bbb 53ba
000000f0: 5cf4 2bbc 2d00 65bb ed46 a4bc 2caa 32bb
00000100: 243a 053c 7df5 c63a e43c dfbb d7b2 803a
00000110: e1a8 3ebb 7ed7 1ebc c08c e13d 676a 14bb
00000120: 2256 ad3b dfaf adba 0233 2abb 2128 d3bb
00000130: 9738 ddba 2e92 20bc 9d08 adbb 206a aebd
00000140: 501a 7ebc 2ba4 5bbb 446c 333b 96dc 023b

layer3.fc3.weight f4 [10, 84]
-0.0029121782 -0.0005267184 0.00056065345 0.0014474803 0.005638201 -0.0033621644 -0.0012361491 -0.00014494832
0.00048795636 0.003290479 -0.16528559 -0.001727474 -0.0060983314 -4.2051888e-05 -0.0011792231 0.0022360717
0.0006972524 -0.002805096 0.0022918798 0.0009414491 0.0008598754 0.00090139837 0.0014231157 0.0008299875
-0.0031814787 0.013407367 0.0005527748 0.10176592 0.004138368 0.0023582887 -0.003746428 0.00064238574
0.0022315553 -0.0035269125 -0.00018799101 0.00092036946 0.0001642062 0.0018426267 0.0013126534 -0.0004125499
-0.000646099 -0.00031027506 0.00026976128 -0.00071669434 -0.0022342151 -0.0015831863 0.014251147 -0.0026862167
-0.00040979515 -0.0006443138 0.0024085403 0.0218208 0.00028028787 -0.0012707688 0.0037011635 -0.0016873784
-1.2951847e-05 -0.24187596 -0.003769476 -5.0252565e-05 -0.000629176 -0.0012370276 -0.00017863575 0.0002759277
0.0028787984 -0.002177294 -0.0017699661 0.003225544 -0.0007098884 0.003341776 -0.12695818 -0.0019713717
0.003639878 -0.002129897 0.00021872944 -0.00034347936 -0.00071972585 0.0044271806 0.0025456017 0.13352667
-0.0009192902 0.00063522265 2.6799327e-05 -0.0008601413 0.0072874757 -0.0035940176 -0.0037832924 0.0034543318
0.011528207 0.0041024666 0.0069948076 -0.0050680004 0.00025350243 0.006570704 -0.020329047 0.00092575606
0.0054597654 0.002999493 -0.00484966 -0.004361819 -0.00041142563 0.005627376 -0.007300001 -0.0027234503
0.0036926847 0.0034016601 0.004113824 -0.00058065675 -0.0005530526 0.22024342 0.0014116653 -0.0819351
-0.0004302193 -0.0009480893 0.002513253 -0.00079354725 -0.0016629639 0.003629704 0.005596944 0.0053479443
0.0057203146 -0.0012833625 -0.0025834686 -0.0018605969 -0.0037041744 -0.15845387 0.007928975 0.004846145
0.0032152992 0.0036542471 0.10686185 0.000164745 0.00072892586 -0.004652283 0.00070803514 -0.32727286
-0.004101871 0.0008228505 0.0026724315 -0.0007497751 0.002754957 0.014196304 -0.0049234745 -0.007126903
0.0056377165 0.0022691803 0.0039730333 -0.003188813 0.005320262 0.0029034377 -0.008274837 -0.0065802075
-0.0015038832 -0.0026538672 -0.090904705 -0.00456653 -0.006983556 0.005667589 0.0029780152 0.0042399727
0.004837239 0.0023375887 -0.0028670765 -0.067235164 0.0024443844 0.0032672533 0.0054103318 -0.0020456847
-0.0035247118 -0.0077633527 0.0032656526 -0.0030119964 0.0022933232 0.010075926 -0.0003687478 0.006874856
-0.011532804 0.0007268679 -0.084304646 -0.00067592296 -0.002032 -0.007090365 -0.0023845478 0.004589457
-0.00074102037 4.339822e-07 -0.004338852 0.009983123 -0.00023836434 -0.008012773 -0.0022579285 -0.00040389455
0.0044292454 -0.056330588 0.0007052275 0.16695756 -0.0012949454 -0.0039625033 0.012271353 -0.0021467241
0.0046751495 -0.00021355182 -0.00039360666 -0.0033102331 -0.0024013307 -0.0020846743 0.0019148012 0.0072758924
-0.00053668296 0.13558525 -0.00021487214 0.00070284004 -0.006480126 0.003490369 0.029297821 0.007492016
-0.0029417346 -0.005830193 -0.006013819 0.15242592 -0.0029217806 0.006818195 0.0031016483 0.0033654775
-0.0057501723 0.046625458 0.002922058 -0.004253088 0.005123994 -0.0010603897 0.0037357577 0.0060087205
-0.006695093 -0.00077581155 -0.008006996 -0.008398753 -0.0033807766 0.006075686 -0.017336449 0.00012615282
-0.0021909988 0.0068553044 0.005305793 0.0024531346 0.006416591 0.0047937613 0.0055935043 -0.19009122
0.0033954126 0.001979819 -0.00532412 0.0023430865 -8.831209e-05 0.0057586 0.00027776434 -0.0032985334
00000000: 3eda 3ebb 7913 0aba d1f8 123a 61b9 bd3a
00000010: a8c0 b83b c257 5cbb 4806 a2ba 45fd 17b9
00000020: 65d4 ff39 14a5 573b a040 29be 696c e2ba
00000030: 83d4 c7bb df60 30b8 2990 9aba 0f8b 123b
00000040: d1c7 363a b4d5 37bb 5d33 163b 94cb 763a
00000050: 4369 613a d24b 6c3a d787 ba3a 8593 593a
00000060: 5b80 50bb 93aa 5b3c 17e8 103a a76a d03d
00000070: 269b 873b 858d 1a3b a286 75bb c765 283a
00000080: 493f 123b c623 67bb 741f 45b9 f344 713a
00000090: c42e 2c39 4b84 f13a 570d ac3a 834b d8b9
000000a0: f85e 29ba 6aac a2b9 bf6e 8d39 8be0 3bba
000000b0: e96b 12bb eb82 cfba a57d 693c 3d0b 30bb
000000c0: c6d9 d6b9 2be7 28ba 9ad8 1d3b 89c1 b23c
000000d0: 9af3 9239 ed8f a6ba 388f 723b 062b ddba
000000e0: c24b 59b7 55ae 77be 5009 77bb 48c6 52b8
000000f0: 49ef 24ba c223 a2ba 2b50 3bb9 64aa 9039
00000100: 39aa 3c3b efb0 0ebb 35fe e7ba a663 533b
00000110: ce17 3aba b301 5b3b 5301 02be 2132 01bb
00000120: 058b 6e3b be95 0bbb bd5a 6539 0515 b4b9
00000130: fcab 3cba e211 913b 1cd4 263b 37bb 083e
00000140: 85fc 70ba 1285 263a 1ecf e037 1b7b 61ba
00000150: c7cb ee3b 9c89 6bbb 1df1 77bb 1262 623b
00000160: cee0 3c3c fc6d 863b b334 e53b 7811 a6bb
00000170: 85e8 8439 0f4f d73b 1a89 a6bc 70ae 723a
00000180: d5e7 b23b 2493 443b e6e9 9ebb 97ed 8ebb
00000190: 9db4 d7b9 da65 b83b d934 efbb ea7b 32bb
000001a0: f800 723b 63ee 5e3b 42cd 863b 3737 18ba
000001b0: bbfa 10ba 7e87 613e a107 b93a 97cd a7bd
000001c0: 0f8f e1b9 3289 78ba 63b5 243b 0e06 50ba
000001d0: cff7 d9ba 54e0 6d3b 9266 b73b cf3d af3b
000001e0: 7a71 bb3b 8036 a8ba 694f 29bb 46df f3ba
000001f0: bcc1 72bb bb41 22be 88e8 013c 69cc 9e3b
00000200: c5b7 523b 187c 6f3b 63da da3d 66bf 2c39
00000210: 6315 3f3a 2e72 98bb 6f9b 393a 4f90 a7be
00000220: fd68 86bb 90b4 573a f623 2f3b 8e8c 44ba
00000230: 828c 343b 9d97 683c 1955 a1bb cc88 e9bb
00000240: 98bc b83b 87b6 143b 3830 823b 68fb 50bb
00000250: 9855 ae3b 9a47 3e3b 2f93 07bc c89e d7bb
00000260: f21d c5ba 81ec 2dbb 3f2c babd d5a2 95bb
00000270: 50d6 e4bb 2fb7 b93b ce2a 433b 78ef 8a3b
00000280: b481 9e3b 3b32 193b 90e5 3bbb 97b2 89bd
00000290: f731 203b 6a1f 563b 2749 b13b e510 06bb
000002a0: dafe 66bb b963 febb 8f04 563b ea64 45bb
000002b0: 944b 163b 7f15 253c 7e54 c1b9 7946 e13b
000002c0: 16f4 3cbc 478b 3e3a eaa7 acbd 6c30 31ba
000002d0: 4e2b 05bb 4b56 e8bb 1346 1cbb 2863 963b
000002e0: 0941 42ba 0ffe e834 ee2c 8ebb 4190 233c
000002f0: 71f1 79b9 0148 03bc c1f9 13bb cfc1 d3b9
00000300: 3423 913b e7ba 66bd 04df 383a ecf6 2a3e
00000310: 28bb a9ba e3d7 81bb c90d 493c 0eb0 0cbb
00000320: ff31 993b e1ec 5fb9 fe5c ceb9 7ff0 58bb
00000330: a55f 1dbb 089f 08bb 11fa fa3a 9c6a ee3b
00000340: 2fb0 0cba dcd6 0a3e 4d4f 61b9 cc3e 383a
00000350: 3d57 d4bb adbe 643b fc01 f03c 967f f53b
00000360: 1eca 40bb 340b bfbb 920f c5bb 8a15 1c3e
00000370: 587b 3fbb 2a6b df3b 0645 4b3b 588f 5c3b
00000380: f16b bcbb 56fa 3e3d 0080 3f3b 7d5d 8bbb
00000390: 2de7 a73b c6fc 8aba 9dd3 743b cde4 c43b
000003a0: 8362 dbbb d55f 4bba c62f 03bc ec9a 09bc
000003b0: 0590 5dbb 8c16 c73b 2b05 8ebc e447 0439
000003c0: dc96 0fbb 76a2 e03b 38dc ad3b c5c4 203b
000003d0: 4442 d23b fc14 9d3b b749 b73b 46a7 42be
000003e0: 9285 5e3b dabf 013b f575 aebb 788e 193b
000003f0: 3134 b9b8 a3b2 bc3b e6a0 9139 352c 58bb

layer3.fc3.bias f4 [10]
-0.07419515 -0.46572575 0.39426327 0.5915689 0.31882825 0.021973703 -0.1380179 -0.25753325
-0.38705397 -0.08857462
00000000: a0f3 97bd 9b73 eebe e0dc c93e 0f71 173f
00000010: 753d a33e 3202 b43c 9054 0dbe 66db 83be
00000020: f02b c6be 9c66 b5bd
