output/models_cifar10_290.pth (torch_old, 248636 bytes, 10 tensors)

layer1.conv1.weight f4 [6, 1, 5, 5]
000000 d9 cb 14 3c 9d 00 3f be 3a 9a 01 3d 3b 08 02 be
       0.009081804 -0.18652578 0.031641223 -0.12698452
000010 b9 90 87 bd 0c e4 90 3e 30 a4 56 be 7f 21 da 3e
       -0.066194005 0.28298986 -0.2096107 0.4260368
000020 3f c2 9b bd 2c 39 5d 3e b6 37 c7 3d 19 8d 0f bf
       -0.07605409 0.2160384 0.09727423 -0.5607467
000030 1c af c9 3e 9a ce b3 be 2a 05 68 bd e2 10 b6 3e
       0.3939141 -0.35118562 -0.05664555 0.35559756
000040 39 bb 16 bf b5 d4 24 3f 71 44 93 be d5 e0 fb 3d
       -0.5887943 0.64387065 -0.28763154 0.12298743
000050 ee 79 6f 3e d8 06 13 bf f0 f4 ef 3e 4a 91 3f be
       0.23386356 -0.5743232 0.4686656 -0.18707767
000060 86 b4 d7 bc 77 fb 75 3b 0a 84 0a bd c7 70 ed bc
       -0.026331197 0.0037533918 -0.03381733 -0.02898444
000070 b9 a4 b3 3d f2 43 c2 bc fa e3 24 3d 4d da 18 3e
       0.08771653 -0.02371404 0.040256478 0.14927025
000080 6b a0 03 bf 7f 77 f4 3d 5e 75 59 3e 2a 45 8c bd
       -0.51416653 0.119368546 0.21236178 -0.068491295
000090 a1 38 a2 3e 3b 48 d4 3e d9 bb 81 bf f3 8b 97 3e
       0.3168383 0.41461357 -1.0135452 0.2959896
0000a0 ef 7c b1 3d 34 a1 fe be b8 98 34 3f ba 56 14 3e
       0.08666407 -0.49732363 0.7054553 0.14486209
0000b0 e7 0d c5 be d3 44 88 3b 61 7d 89 3d 35 af b8 be
       -0.3848717 0.004158595 0.06713367 -0.36071172
0000c0 3e 52 bd 3e 89 6b 97 bd 6e e3 2f bd 61 57 32 bc
       0.36976808 -0.073935576 -0.042941503 -0.010885091
0000d0 85 d9 76 bd 2e f3 0c 3e f2 91 42 3d a6 3e 42 bd
       -0.060266037 0.1376464 0.047502466 -0.047423027
0000e0 49 b3 cc bc da b0 24 3e 5a fa 55 3d 8a e7 70 bd
       -0.024987834 0.16083089 0.052240707 -0.058814563
0000f0 9d 0d a0 be f4 7f ad 3b 4d 8a 8f 3e 65 98 db bd
       -0.31260386 0.005294794 0.28035203 -0.10722426
000100 1b 3d 1e bd 0b bd b1 be 76 29 9e 3e 5c ed 4a 3e
       -0.038632493 -0.3471454 0.30891007 0.19817108
000110 6a 52 4f bd a0 16 0b 3c 2f 65 ef be e0 77 a0 3e
       -0.050615706 0.008489281 -0.46756884 0.31341457
000120 1e ff b3 bc 62 43 4f 3d b0 f3 c7 bd f3 ac ce bd
       -0.021972235 0.05060137 -0.097632766 -0.10091581
000130 d3 13 a4 be f3 b3 d8 bd 6f ff 53 bd a9 0e 90 3d
       -0.32046375 -0.105811976 -0.051757272 0.07034046
000140 3e eb 87 3e ef 8a 43 3f 8e 68 d6 3e f1 95 41 3e
       0.26546663 0.7638387 0.41876644 0.18904854
000150 1f 7c fe 3b 71 cc f2 bd 82 2a d3 be f9 32 89 be
       0.007766261 -0.118554 -0.41243368 -0.26796702
000160 98 22 32 bd 34 a9 99 bd 4f 42 e0 3d 0a 6b 58 bc
       -0.043490022 -0.07502976 0.10950147 -0.013209114
000170 c3 38 bd bd 41 ff a1 3d 74 42 3c 3e 23 ce 84 bd
       -0.09239342 0.07910014 0.18384725 -0.0648463
000180 48 15 c0 bc 22 17 db bc aa d2 ed bd 3c c4 94 bd
       -0.023447648 -0.026744429 -0.116124466 -0.07263991
000190 aa 79 9e bd f4 89 e9 3c 33 b0 9c 3a 97 83 cf 3d
       -0.07738049 0.028508164 0.0011954367 0.10132521
0001a0 a0 92 b4 bd 86 61 0d 3c 85 47 ba 3d 17 43 6c 3d
       -0.08817029 0.008629208 0.090956725 0.05768117
0001b0 44 0d 0a be 2a b3 e3 3d ea f0 84 be 74 32 bb be
       -0.13481623 0.11118157 -0.25965053 -0.3656193
0001c0 39 7b dc bd cb 83 ad 3b ef e7 8e be 99 aa 51 3e
       -0.1076569 0.005295252 -0.27911326 0.20475234
0001d0 ee 2c 49 3e 1a b4 21 be 89 1b b6 bd af 9e 39 3e
       0.19646046 -0.1579136 -0.08891971 0.18126939
0001e0 aa 9e 46 bd 1e 30 f7 3c 04 6c 14 3e cb 1b 1a 3d
       -0.048491158 0.030174311 0.1449433 0.03762416
0001f0 ca 54 ca bd d6 25 49 3d ca 13 6f be bf 24 97 3e
       -0.098794535 0.04910835 -0.23347393 0.29520223
000200 92 6d ed bb 89 77 9a bd 69 37 06 be 25 96 ba 3e
       -0.007245728 -0.07542331 -0.13107075 0.36442676
000210 95 11 c3 3e bf ac 1e bf 3d 72 8b 3b 7e 40 00 3e
       0.38099352 -0.6198234 0.0042555616 0.12524602
000220 10 a8 cd 3e 89 40 81 bf 93 78 2a 3d 12 58 9d 3e
       0.40167284 -1.009782 0.041618895 0.30731255
000230 9f e7 fa bb aa d8 91 be d6 17 d7 bd 6a 51 1a 3f
       -0.007657006 -0.28485614 -0.10502593 0.6028048
000240 13 16 54 be c5 ba e6 3d 03 38 f4 bd 64 97 48 3e
       -0.20711546 0.11266092 -0.11924746 0.19589001
000250 e0 f3 0e be 12 a2 43 39
       -0.13960218 0.00018657025

layer1.conv1.bias f4 [6]
000000 f4 0e 9c be f6 be 95 be 1b 06 9c be 24 52 8e be
       -0.30480158 -0.29247254 -0.30473408 -0.27797043
000010 de 60 94 be 17 83 a6 be
       -0.28980154 -0.3252189

layer2.conv2.weight f4 [16, 6, 5, 5]
000000 e8 b3 bd 3d 73 78 8c 3c 00 e2 31 3d 66 85 07 3e
       0.0926283 0.017147278 0.04342842 0.13234481
000010 74 2c 5b 3d 67 36 e2 3c 8c 2d a3 bd 09 39 a1 3d
       0.05350919 0.027613832 -0.07967672 0.07872207
000020 91 a4 a7 3c 9d f3 97 3d 74 9b 2b bc 15 9b 2a 3d
       0.020464214 0.074195124 -0.010474075 0.041651804
000030 e7 57 57 bd 8c bd f8 bc 1f 9f 7b 3d 31 3d c8 3d
       -0.052574065 -0.03036382 0.061431047 0.09777296
000040 26 5e 23 be c4 47 8a bc b2 61 bd 3d 63 5d 96 bd
       -0.15953884 -0.016879924 0.092471495 -0.07342031
000050 f0 bb 69 be 59 56 b2 be f6 eb 32 bf 9c c8 3c bf
       -0.22825599 -0.34831503 -0.698913 -0.73743606
000060 bc 32 aa be e1 bd 96 3e 09 57 0d 3e f4 d0 b5 3b
       -0.33241832 0.2944174 0.13802733 0.005548591
000070 62 7c 34 bd 5a 3f 30 3e 16 23 4a 3e 85 1e 20 3e
       -0.044063933 0.17211667 0.19739947 0.15636642
000080 0d c6 21 3e bf c6 e1 3d 78 e6 1b 3e f3 32 d9 3e
       0.15798207 0.11024236 0.15224636 0.42421684
000090 f3 96 11 3e 6f 23 f9 3d cd 5a af 3d 62 e3 42 3e
       0.14217739 0.121649615 0.08562241 0.19032052
0000a0 80 b4 a6 3e a4 c1 a3 3e 62 31 66 3e f5 af cc 3d
       0.32559586 0.31983674 0.22479776 0.09994499
0000b0 8f 01 b9 bd ed cf dd 3e 73 41 7c 3d 66 6e 18 be
       -0.090335004 0.43322697 0.061585855 -0.14885864
0000c0 81 4e c2 bd 85 e7 ea bc c2 ca 26 3e 63 cc 2d 3e
       -0.0948763 -0.02867485 0.16288283 0.16972499
0000d0 cb 59 6f 3b 36 ea 2d 3e f9 f7 a8 bd f7 c4 63 3d
       0.0036522027 0.16983876 -0.08250422 0.055607762
0000e0 e3 e4 8c 3d e1 d9 6a 3d 18 ef 14 be bc ae 56 3e
       0.06879594 0.05733669 -0.14544332 0.20965093
0000f0 4c e0 42 be b0 d7 b1 bc 73 0c 36 3d 4a 50 35 3e
       -0.19030875 -0.021709293 0.044445466 0.17706409
000100 13 e5 36 bd cd c5 13 be 82 31 c6 bd 87 af 8e bd
       -0.044652056 -0.14430924 -0.096774116 -0.06967073
000110 6a e4 32 3e b8 4e 59 3e b2 0f 00 be ee 82 6f be
       0.17469946 0.21221435 -0.12505987 -0.2338979
000120 6b 70 da be 26 77 d4 be f6 19 13 be 14 0c 9e 3e
       -0.42663893 -0.41497153 -0.14365372 0.3086859
000130 82 cf 15 be d7 5e 57 bd 54 4c 14 bd 63 c8 39 3e
       -0.14629939 -0.05258068 -0.036205605 0.18142848
000140 96 bc 51 3e c7 fc 2a 3d de 52 16 3e 85 74 cc 3d
       0.20482096 0.041744974 0.14680049 0.09983162
000150 92 e5 c9 3c e0 24 1e 3c d2 9c a8 3e 61 93 05 3e
       0.0246456 0.009652346 0.32932144 0.13044502
000160 de d3 58 3e 6d 4d 57 3d 37 dd 4a be bc 05 7c 3e
       0.21174571 0.052564073 -0.1981095 0.24611562
000170 ee f7 60 3e 74 fc 68 3e 78 17 35 bd e3 db cf bd
       0.21969578 0.22752553 -0.044211835 -0.10149362
000180 13 e8 1c 3e e9 36 7b 3e f0 42 a7 3e 16 e5 92 3e
       0.15322904 0.24532665 0.32668257 0.28690404
000190 e4 90 6a 3e a1 a5 9a 3b d5 a5 a6 3c 46 49 35 3e
       0.22906834 0.0047194515 0.020342747 0.17703733
0001a0 5b 97 f3 3d b8 9b d8 3e da fc 9d 3d 5d a7 3e 3e
       0.11894103 0.42306304 0.07714243 0.18618532
0001b0 27 56 1e 3d e8 4f 8c 3e 7b e9 a2 3e 4f ec a9 3d
       0.03865638 0.27404714 0.31818756 0.082970254
0001c0 81 7f 76 3e a8 ac 86 3d b3 84 bf 3e 90 44 2b 3e
       0.24072076 0.065759 0.3740593 0.16725373
0001d0 8f 6f 0e 3e 6f 32 08 3f 4c c0 93 3e 5c 2f 03 3d
       0.13909744 0.53201956 0.28857648 0.032027587
0001e0 82 66 b5 be c3 22 f9 3e 48 26 28 3f 3d 87 0f 3e
       -0.3542977 0.48659334 0.6568341 0.14016433
0001f0 44 c1 71 be 89 80 15 bd 6d 64 dc bd 02 d6 b0 3c
       -0.23608881 -0.036499534 -0.10761342 0.021586422
000200 dd 5a 90 3d 98 65 24 3d 52 9b a1 bd 8f 5f 3b be
       0.07048581 0.04013595 -0.07890953 -0.18298171
000210 93 a7 cd bb e7 58 de 3d 6b da 5d 3e 70 c6 bd b8
       -0.00627608 0.108568005 0.21665351 -9.049184e-05
000220 f8 83 9b bd c7 a6 04 3d 40 19 ab 3d 9c ee 0e 3e
       -0.075935304 0.032385614 0.083544254 0.1395821
000230 f3 ea 23 bd dc 26 4e 3b da 24 a7 bd 25 2e a5 3d
       -0.040018987 0.0031456267 -0.08161326 0.08065442
000240 2a 3b 4b 3e 14 00 23 3d dc 2b 64 3d ea e0 df bd
       0.19846788 0.039794996 0.05570589 -0.10931571
000250 13 1b 56 3c 6e 25 60 3e d5 cb 74 bd 50 77 7a 3d
       0.013067978 0.21889278 -0.059764702 0.06114894
000260 6e e3 51 3d 43 90 16 3e c4 f6 20 be f9 da 2a 3e
       0.051242284 0.14703469 -0.15719134 0.16685094
000270 63 9d 04 bd 6e 64 ec 3d 5f 4f 7d be 5f 93 00 3d
       -0.03237666 0.11542593 -0.24737309 0.031390544
000280 7b 78 43 3d fa 8d 97 3e 9f 2a 23 be 53 f0 1f 3c
       0.04772232 0.29600507 -0.15934227 0.009761888
000290 23 6c 20 bc 5e 68 27 be cb 86 a4 be 2d 25 9c 3b
       -0.009791407 -0.16348407 -0.3213409 0.004765174
0002a0 57 32 8a bd 45 63 94 be 7d ef 96 bd 6f ba 13 3e
       -0.06747883 -0.28981987 -0.073698975 0.14426588
0002b0 ee fc 81 be 01 93 bd be 01 64 eb bd 3e 64 65 3e
       -0.25388283 -0.37026218 -0.114936836 0.2240152
0002c0 b0 f6 1c 3e 81 ce f9 3d 7b ad 90 3e e0 47 60 3d
       0.15328479 0.121975906 0.28257355 0.054756045
0002d0 03 af aa 3d c7 9d 39 3c 9f f2 a7 be ac bc 95 3e
       0.08334162 0.011329121 -0.32802293 0.29245508
0002e0 3d a0 31 3e ce 77 90 be aa cd 0d 3e 17 3c e0 be
       0.17346282 -0.28216404 0.13847986 -0.43795845
0002f0 e1 c2 91 3e cb 4f 23 3d 8c a6 c8 3c 77 d6 a9 bd
       0.28468993 0.03987102 0.024493478 -0.08292859
000300 5e 6f be be 7f 95 08 bf 21 0e 11 3e e0 21 70 3e
       -0.3719434 -0.5335311 0.14165546 0.23450422
000310 e9 1e 96 3e c3 e3 07 3f df 2e c4 bb 28 0a da be
       0.29320458 0.5308191 -0.005987033 -0.42585874
000320 1f 9e 89 bb cf 1a ab 3d f3 d9 28 3e 7c 75 10 bd
       -0.0041997577 0.08354723 0.16489391 -0.03526829
000330 a8 0b da 3d 3a a4 bc 3d fa 85 a2 be 0a bd 29 3d
       0.106467545 0.09211011 -0.3174284 0.041440047
000340 4a ec 51 3e e0 b8 be be 52 e6 fe 3d 96 e4 d0 3e
       0.20500293 -0.37250423 0.12446274 0.40799397
000350 5f f1 2f be a7 6e 2b 3f bb 94 49 3d e9 5a 68 3b
       -0.1718192 0.6696572 0.049214106 0.0035454577
000360 4a 5b 1e 3e 2c 93 29 3e 1d 79 73 3e f8 21 91 3e
       0.15464512 0.16560048 0.2377667 0.2834623
000370 48 bd 05 3e ba 82 f7 bd 0f 79 84 3d 4f 5f 29 bc
       0.13060486 -0.12085481 0.064684026 -0.010337665
000380 f6 fe 90 3e 58 46 c1 3d ad 96 08 3e c1 b5 0b be
       0.2831952 0.09437245 0.13338728 -0.13643552
000390 9c f8 9f bd d3 50 e6 3d 4a eb 57 bc 1b b8 d5 3d
       -0.0781109 0.11245885 -0.013178656 0.10435506
0003a0 2d 99 84 be bb f4 98 be c4 d0 0e 3e 26 5d 42 be
       -0.25898114 -0.29874215 0.13946825 -0.18980846
0003b0 3b 5e ab bd da 8e 24 be d8 af b4 be 4f 56 e2 bd
       -0.083675824 -0.16070119 -0.35290408 -0.11051618
0003c0 6d 13 e1 3d 6c a2 81 be ce b2 2a be 02 ab 8d be
       0.10990033 -0.2531923 -0.16669771 -0.2766953
0003d0 78 25 81 be ff 2c 47 3e a7 06 cd bd 36 a3 74 bd
       -0.252239 0.19450758 -0.100110345 -0.059725963
0003e0 f4 1c 40 3e 80 48 91 be 90 5e 1c 3e 14 58 2f 3e
       0.18761045 -0.28375626 0.15270448 0.17123443
0003f0 26 56 c5 be 09 f9 f6 bd 2b 12 f0 3d 28 32 6b be
       -0.3854229 -0.120592184 0.11722215 -0.22968352

layer2.conv2.bias f4 [16]
000000 be b3 1a bf 7c e6 4a bf ad 92 23 bf 5d bc 0a bf
       -0.60430515 -0.7925794 -0.63895684 -0.5419367
000010 14 bb 38 bf 3e 47 05 bf 14 0b 0f bf 2f 2f b9 be
       -0.7216046 -0.5206183 -0.5587628 -0.3616881
000020 4c 0a 3c bf 8d 4b 26 bf 77 66 f8 be c6 e4 c7 be
       -0.7345321 -0.6495903 -0.48515674 -0.39041728
000030 ae 4a b3 be dd a2 25 bf c2 9c 1a bf 65 56 d5 be
       -0.35017914 -0.64701635 -0.60395443 -0.41667476

layer3.fc1.weight f4 [120, 400]
000000 b8 cc f1 bb 28 10 3e bb 63 52 1b 3c b5 1f 3f bb
       -0.0073791407 -0.002900133 0.009480092 -0.0029163186
000010 f0 67 49 3c c4 89 87 3b b2 82 7f bc 7d d0 27 ba
       0.012292847 0.004136296 -0.015595125 -0.00064016116
000020 76 04 35 3b 71 b8 25 bc 34 01 81 bc b6 49 2a bc
       0.0027621067 -0.010114775 -0.015747644 -0.010393551
000030 c7 ec 03 bd 32 4a 89 3c 25 33 91 3b 3a 0d a8 3c
       -0.03220823 0.016759012 0.0044311457 0.02051412
000040 96 e3 8a 3b 40 14 bc bc 57 17 d1 ba 88 2b 03 bb
       0.004238556 -0.022958875 -0.001595239 -0.002001496
000050 13 5c e8 3c e8 49 02 bc 9f 81 0c bc 1e d2 22 3b
       0.028364217 -0.007952191 -0.008575826 0.0024844478
000060 9a 14 53 3b 21 73 ca 3a 18 ba 2b 3c db 09 70 bc
       0.0032208324 0.0015445688 0.01048138 -0.014650787
000070 ae 10 8a bc 00 ab 3e bb 87 f9 8d bc 48 8c ee bb
       -0.016853657 -0.0029093623 -0.017330898 -0.0072799064
000080 59 5f c6 bb ee ea 7b 3c 9a ed b4 3c 1b 4e 17 bb
       -0.006053847 0.015375836 0.022085954 -0.0023087326
000090 28 96 1e bb c7 01 10 bd 4b d9 05 3d 33 83 6b bd
       -0.0024198387 -0.035157945 0.03267793 -0.05749817
0000a0 c4 55 ff 39 25 75 02 3c a4 10 a7 bb ea c4 09 3c
       0.0004870129 0.0079625 -0.0050984193 0.008408764
0000b0 54 1b d4 bb d5 2a 8c bc aa 42 e0 bc ec 92 b7 bc
       -0.0064729843 -0.017110268 -0.027375538 -0.022408925
0000c0 ae 3c 67 3b 93 ad 83 3c e5 4d 7f 3c 44 d5 6c bc
       0.003528397 0.016073978 0.015582536 -0.014455143
0000d0 da e5 48 bc 21 1a 12 bc 1d e3 c9 bc f5 64 c6 ba
       -0.012261832 -0.008917362 -0.024644429 -0.0015136289
0000e0 31 dd c5 bc 52 b8 d7 bc ae b5 6b b9 af ec 0a bc
       -0.024153324 -0.026333008 -0.00022479027 -0.008479281
0000f0 6b c2 cf bc 11 d0 ae bc bc 63 e1 bb 8e ed c7 bc
       -0.02536126 -0.021339448 -0.0068783443 -0.024405267
000100 98 ce 33 bb 8e 54 bd bb 26 c4 e7 bc e7 7c f8 3c
       -0.0027436372 -0.005777902 -0.028291773 0.030332996
000110 a1 4e a1 3c 6d 36 91 3c 51 3b 93 3c 19 20 c1 b9
       0.019690813 0.017726148 0.01797262 -0.00036835743
000120 47 22 9e bb aa 6b a4 3c 26 10 53 3c ec c1 a4 3b
       -0.0048258635 0.02007087 0.012882268 0.005028
000130 ed e0 fb 3b 62 33 e8 3b 96 52 15 3c 1e 85 18 bc
       0.0076867254 0.0070862034 0.009113928 -0.009309081
000140 4d fc 2b 3b cb b9 f9 b8 a2 6e 5a 3c 8a 22 a1 3b
       0.0026242912 -0.00011907852 0.013332041 0.0049174475
000150 a0 08 ef 3b 5e d3 63 3c 55 8f ed 3a a7 bb 8a 3a
       0.0072947294 0.013905374 0.0018124381 0.0010584489
000160 bd 12 e3 3b 0e 80 c7 3b 34 f1 f9 3b 2d 54 2f 3c
       0.006929724 0.0060882634 0.0076276306 0.010701221
000170 07 03 1d bd d5 33 be 3b 97 1a 8e 3b 2b d5 04 bc
       -0.038332965 0.0058045187 0.004336666 -0.008107464
000180 82 0a 05 3d 10 10 a2 bc d9 54 d0 bb 78 70 0d bc
       0.032480724 -0.01978305 -0.006357771 -0.008632772
000190 6e d1 ab bb 1b 8b 07 3d be d3 1b bc 2a 6e 80 bc
       -0.005243472 0.033091646 -0.0095109325 -0.01567753
0001a0 51 14 7b 3c 4b c8 f0 3b 15 53 f4 3c 22 f4 fc 3b
       0.015324668 0.0073480955 0.029824773 0.0077195326
0001b0 a4 a1 7f bc 85 6c c6 3b 3e d1 6e 3b f4 19 0f 3c
       -0.015602503 0.006055417 0.0036440636 0.008734215
0001c0 da b6 53 3c fd 1a ab bb 27 ef 96 3b af 64 29 3b
       0.012922013 -0.005221723 0.004606146 0.0025847366
0001d0 50 44 aa bc 0c 3c 77 3c 01 f7 a8 bc ee 39 01 bd
       -0.020784527 0.01509 -0.020625593 -0.031549387
0001e0 48 d2 52 3c 76 d7 f3 3b 92 12 c6 3c 67 a1 ee 3c
       0.012867518 0.0074414564 0.024178777 0.029129697
0001f0 9e ff 1f bb 01 34 e4 bc 51 b7 79 bc e2 8f 92 3b
       -0.0024413834 -0.027856829 -0.01524146 0.0044727186
000200 d1 df e5 3a 23 9f a2 3c d5 bd 92 bb 76 6f ce 3c
       0.0017538016 0.019851273 -0.004478196 0.025199633
000210 f2 67 8f bc f5 07 eb bb c9 ef fa b9 89 3a 26 3c
       -0.01750562 -0.0071725794 -0.0004786237 0.010145792
000220 2a f2 15 3c 99 36 8a bc 93 b0 78 bc 4a c4 61 bb
       0.009151975 -0.016871737 -0.015178817 -0.0034449273
000230 ac bf 8b 3c 68 cf d3 bc 4d 50 0b 3b e1 57 3c bd
       0.01705917 -0.025855735 0.002125758 -0.045982245
000240 7e ef 9b bb 95 17 a2 3c 93 c9 24 bd cd f8 70 3c
       -0.0047587743 0.019786635 -0.0402313 0.014707756
000250 1e 22 2a bc cd be 34 3c cc 0f 37 3b fa 7e 08 3b
       -0.010384111 0.011031819 0.0027933 0.0020827637
000260 c7 b4 98 3c 2b de 1d 3c d6 b2 ee bc 05 6f e1 3b
       0.018640889 0.0096354885 -0.02913801 0.0068796896
000270 05 d0 cc 3a c3 a6 74 3b 0e bf 83 bc 2a ed 9a bc
       0.001562596 0.0037330843 -0.016082313 -0.018911917
000280 d5 5e 8e 3b d4 35 fe 3b 47 23 83 bb 36 ee 04 bd
       0.004344801 0.0077578817 -0.004002008 -0.03245374
000290 0a 4e ba bc b8 42 f8 bb 30 1e 40 bc 77 f5 eb bb
       -0.02274229 -0.007576313 -0.011725947 -0.0072008925
0002a0 f5 41 9c 3a c6 61 5b 3c a0 16 d5 3b d2 4a 7d bc
       0.0011921512 0.01339001 0.0065029413 -0.015459733
0002b0 a6 0a 9d 3b 2c 8f 8a 3c 25 59 1a 3b b3 af 02 bc
       0.004792529 0.016913973 0.002355167 -0.00797646
0002c0 fb 21 0c 39 6c da a4 3b 58 12 8b bc 6c 38 54 bd
       0.00013364099 0.0050309207 -0.01697652 -0.05181162
0002d0 21 c6 a0 ba 7c 7d 86 bc 19 d8 f4 ba 13 11 51 3c
       -0.0012266078 -0.016417257 -0.0018680125 0.0127604185
0002e0 4e 3a cd bb 58 eb d7 3b 03 ab 81 bc 5d b8 96 bc
       -0.006263054 0.0065893345 -0.015828615 -0.018398458
0002f0 29 a9 5d 3b 11 3b 14 ba 5e 7c 2c 3c b5 4c 4e bc
       0.003382275 -0.00056545535 0.010527698 -0.012591531
000300 80 a1 bf bc 1c 0f 16 bc e1 d8 a7 3c d3 8a 93 bc
       -0.023392439 -0.009158876 0.020489158 -0.018010532
000310 54 b0 50 3c 5b b4 43 bc e6 c9 9c 3c 3f 65 6c 3c
       0.012737352 -0.011944856 0.019139241 0.014428436
000320 f7 e7 a0 bc 72 80 1f bc 77 8b 16 bc b5 2a 63 3c
       -0.01964186 -0.009735214 -0.009188524 0.013865163
000330 0b 0b 82 3c 70 b2 1f 3b 75 16 c0 3c 51 49 69 bc
       0.015874406 0.0024367832 0.023448208 -0.014238671
000340 2c 13 44 bc b6 14 8f 3c da 26 8c bb 1e 71 00 bc
       -0.011967462 0.01746593 -0.0042770924 -0.007839469
000350 e5 2f 63 3b 27 31 1e 3c 5f fd e4 bc 86 1b 44 3c
       0.0034665999 0.0096552735 -0.027952848 0.011969453
000360 16 dd b6 bc 49 f3 27 bc c2 60 42 bc 90 fe a0 bb
       -0.022322219 -0.010250875 -0.011863889 -0.0049131587
000370 76 f4 b2 bc b3 89 80 3c b9 bc 70 3b 29 f1 bb 3b
       -0.021845084 0.01569066 0.0036733581 0.0057355356
000380 46 74 95 3c 4e 6f a9 3c ac ee c0 bc a8 eb 8e 3c
       0.01824392 0.020682957 -0.023551308 0.017446354
000390 e1 32 a4 bb 8c b5 5c ba 39 6c 9e 39 1c 37 e2 3b
       -0.005010948 -0.00084193866 0.0003021674 0.006903542
0003a0 c5 11 15 ba 65 15 3e 3c f6 f3 e7 3c 97 a9 80 3c
       -0.0005686547 0.011601781 0.028314572 0.015705867
0003b0 a7 fc f1 3c db 0f 20 bb 4c f3 b1 b9 3d d4 f6 3c
       0.02953942 -0.0024423513 -0.0003394134 0.0301305
0003c0 d9 2f 43 bc ad 03 41 bb bf c8 cc 3c 0c 3e 50 bc
       -0.011913263 -0.0029451654 0.024998067 -0.012710106
0003d0 87 43 d5 3b a8 3e 44 3c cd 84 a2 3b 19 b9 25 3c
       0.006508294 0.011977829 0.0049596787 0.0101149315
0003e0 a8 2e b4 3b 97 ec 2f bb 23 18 af 3c cf 36 f8 3c
       0.005498726 -0.00268439 0.021373814 0.030299572
0003f0 6e 5b 18 bc 98 5f 9d 3d 72 73 d0 bc a4 31 89 3c
       -0.009299142 0.07684249 -0.025445674 0.016747303

layer3.fc1.bias f4 [120]
000000 83 e6 52 3c 73 23 60 bc 92 5c e7 3b d1 64 ab bb
       0.012872341 -0.013680327 0.007060596 -0.005230524
000010 55 38 bc ba 8c 2d ab bb c3 38 52 bc d0 2a d7 3b
       -0.001436005 -0.0052239355 -0.012830916 0.006566383
000020 b8 33 77 3c 3b 81 63 3a 0a 29 b1 bc 67 4c ff 3b
       0.015088014 0.00086786196 -0.021626014 0.0077910903
000030 28 6c 4a bc c2 24 43 3c 27 a8 7e 3c 73 54 04 bc
       -0.012354888 0.011910619 0.01554302 -0.008076775
000040 79 38 b8 bc ef 93 9c 3c 98 fb 31 3b f1 4b 13 bc
       -0.022487866 0.019113509 0.0027158018 -0.008990274
000050 a1 1a 28 3c 87 b2 ab 3c 37 a2 62 3c 2a ce ce bb
       0.010260255 0.020959152 0.01383262 -0.0063111978
000060 8d dd 8b 3a 70 5c a3 bc bc 44 12 bc 9b d4 e0 3c
       0.0010670886 -0.019941539 -0.00892752 0.027445128
000070 00 15 7b 3b 45 1e 8d bc 09 ce f4 bc 0c 5f a5 3c
       0.0038312078 -0.017226348 -0.029883401 0.020186923
000080 cc 75 59 3e fd bf ac 3c c8 3f 1e bb e5 17 d7 bb
       0.21236342 0.02108764 -0.0024146903 -0.0065641277
000090 d3 b0 67 bd 97 49 df 3a 8e d9 92 39 c1 b5 59 bc
       -0.056565117 0.0017035481 0.0002800938 -0.013287962
0000a0 15 6b bc bc 32 5b 15 bc 8b c0 3c bc 2e 86 e0 3d
       -0.02300028 -0.009115981 -0.011520515 0.10963093
0000b0 fc e9 34 bc 92 c4 b1 3a 42 f0 88 3c 9a 82 90 3a
       -0.011042114 0.0013562611 0.016716126 0.001102525
0000c0 d4 75 66 3b a2 c8 ce 3c 3a 20 02 3c e9 bd 00 bc
       0.0035165446 0.025242154 0.007942254 -0.007857778
0000d0 e3 99 26 3b 62 fc 06 3c 34 79 fa 3b 6d ec d1 3a
       0.0025421313 0.008238884 0.007643843 0.0016015895
0000e0 b6 e1 30 bc 71 da 86 bc 3b 02 fd bb 1c b1 ce 3c
       -0.010796001 -0.016461583 -0.007721213 0.025230937
0000f0 5b 67 f8 3c 83 cb d0 ba 63 84 de 3c d5 b2 f3 3d
       0.030322721 -0.0015929792 0.027162736 0.11899344
000100 ff 03 0b be d1 b7 16 3b 91 b8 f0 3a 2d d1 85 3c
       -0.13575743 0.0022997747 0.0018365552 0.016335094
000110 1a 2c 42 3b 79 f3 23 3c ae 01 2f 3a 45 88 11 bc
       0.0029628337 0.010006779 0.00066759705 -0.008882587
000120 df 6d 4b 3c 4c fd af 3b d7 ec 18 bb e9 fd 90 3b
       0.012416332 0.0053707715 -0.0023334527 0.0044247997
000130 98 be ce 3a d0 e0 00 bd e1 0e f0 bb 4e b2 88 3c
       0.0015773354 -0.031464398 -0.0073259925 0.016686585
000140 12 69 6e bc 49 f4 7e 3c 1a 5c bf 3c 45 af a8 39
       -0.014551418 0.015561172 0.023359347 0.00032174043
000150 f1 91 f9 38 54 b1 b5 3a de 23 5f 3c 0b e4 09 3c
       0.00011900429 0.0013862052 0.013619391 0.008416186
000160 89 65 bc bb ef f6 ff bc 3d fe 7d bc 27 30 c2 bc
       -0.0057494086 -0.031245677 -0.01550251 -0.023704601
000170 15 93 dd 3b 9d f4 ae 3c 20 0c a1 bc e3 5c 23 bc
       0.0067619183 0.021356875 -0.019659102 -0.009970876
000180 e1 c7 0f 3c af 2e 34 3b 3b e6 a5 3d 25 42 7e bc
       0.008775682 0.0027493646 0.081005536 -0.0155187
000190 2a f6 64 bb 48 c9 4a 3b 42 03 f9 3c 1a 1d db 3b
       -0.0034936764 0.0030942727 0.030397061 0.006686819
0001a0 dd 50 8f bc 30 7f 3c bc f6 f8 82 bc 65 00 53 3b
       -0.017494613 -0.011504933 -0.015987854 0.003219628
0001b0 9b ea 09 3d d6 5a eb bb 73 7f 2b 3c 7a 86 95 3b
       0.033671003 -0.0071824593 0.010467398 0.00456315
0001c0 f5 ef bd 3e 2c d6 10 3b 21 6c 66 bc e0 c0 44 bc
       0.37097135 0.0022100313 -0.014063866 -0.012008876
0001d0 89 43 22 bc f7 68 24 3c fa aa 95 bb 6a c2 6f 3e
       -0.009903797 0.010034791 -0.004567501 0.23414007

layer3.fc2.weight f4 [84, 120]
000000 51 1c 0b bb 0c 47 87 b9 e5 e6 82 3b d7 b9 be bb
       -0.0021226595 -0.0002580214 0.00399481 -0.0058204937
000010 9c 51 0d 3c ed 76 52 bc 8a 1c a3 ba 17 f1 28 3c
       0.008625414 -0.012845737 -0.0012444418 0.010311387
000020 f5 ae a6 3b 73 9b c9 3b 08 6c 64 ba 2b d4 00 3c
       0.0050867745 0.006152564 -0.00087136077 0.007863085
000030 c7 d3 ed b9 e5 2e d0 bb 74 9d 34 bb 0c 75 80 3b
       -0.0004536195 -0.0063532465 -0.002755967 0.003920203
000040 cc d0 59 3b 31 59 2e bb 6d 9c 1c bb f2 50 d9 bb
       0.0033236025 -0.0026603455 -0.0023896948 -0.006631964
000050 0d c5 88 bb b2 97 4e bb 21 f7 38 3b 66 ac cc bb
       -0.004173881 -0.0031523523 0.0028223472 -0.0062461374
000060 db 08 09 b8 5d 91 2e bb 82 4a 5f ba 1a 73 62 3a
       -3.2671593e-05 -0.0026636936 -0.00085178774 0.0008638367
000070 ea 00 e1 3a bd f3 81 bb 56 60 31 bc 1f 67 8f 3a
       0.001716641 -0.0039658234 -0.010826191 0.0010940767
000080 59 a7 2b 3b 2d 16 bc 3b 8e 4e 99 3b 58 2d f0 3b
       0.0026192276 0.0057399482 0.004678554 0.007329624
000090 d8 af 22 3c 60 95 38 3a ad 33 67 3c 73 be 21 3b
       0.00992962 0.00070413016 0.014111442 0.0024680167
0000a0 c3 af 18 b9 da df b7 bb b0 09 49 bc af 04 25 3b
       -0.00014561326 -0.005611402 -0.012270376 0.0025179794
0000b0 58 5c cf 3b 72 c9 7d 38 5f 2c 05 3a 53 eb 33 bc
       0.006328147 6.050751e-05 0.0005080159 -0.010981399
0000c0 95 b6 94 3b 67 a2 37 bc 86 5a 00 3c 8d 6e 49 b6
       0.004538367 -0.011208153 0.0078340825 -3.0015683e-06
0000d0 41 84 a5 3b 3b 38 7b bb b3 81 a9 3b af 2c c6 bb
       0.0050511663 -0.0038333077 0.005172932 -0.006047807
0000e0 9a 4b b5 bb ec c5 80 bb bc 2f 02 bc 45 f9 5a bb
       -0.005532694 -0.003929844 -0.007945951 -0.0033412736
0000f0 fe 26 ee bb 78 b7 02 bc 82 c7 86 3b 3e 0d 8d 3a
       -0.007267832 -0.007978313 0.0041131387 0.0010761393
000100 46 93 1c 3c 1e 19 14 bb 1f a5 50 3b 75 60 ae 3b
       0.009556597 -0.0022597979 0.00318367 0.005321557
000110 78 f2 0b bc 67 9d f5 3a 1a 7c 82 3b e8 fd 52 3b
       -0.008541696 0.0018738926 0.003982079 0.0032194797
000120 dc f6 c1 ba 64 2d 97 3c 0f c9 0b bb a2 b8 00 3c
       -0.0014798301 0.018454261 -0.0021329557 0.00785652
000130 1f 2d 09 3b 3a 67 87 3b f8 f8 0f bc bb 39 2c 3c
       0.0020931435 0.0041321786 -0.008787386 0.010511811
000140 4b 82 ef bb b4 30 a3 bb 6e f0 ae ba 2b 1a 0b 3c
       -0.0073092333 -0.004980171 -0.00133468 0.008490126
000150 5d 03 26 3b 0b b7 75 bb e5 0b 32 3c 45 ef 35 ba
       0.0025331595 -0.0037493135 0.010867094 -0.0006940256
000160 8e 66 8b b9 28 09 ee 3b 1d b4 81 3b 1d 3a b7 39
       -0.00026588555 0.007264275 0.0039582388 0.00034947778
000170 fb 42 10 bc dd 05 43 3c 54 11 0f bc c9 1a 04 bb
       -0.008805032 0.011903253 -0.008732159 -0.0020157567
000180 80 a7 8c 3b 34 c3 a4 3a 73 18 46 ba ec eb c7 bb
       0.0042924285 0.0012570382 -0.0007556744 -0.006101122
000190 62 bd 51 bc 09 ca b1 ba f7 e2 87 3b 07 f6 f8 3b
       -0.0128015 -0.001356424 0.0041469294 0.007597688
0001a0 2f 1b d5 3a f1 6c 15 bb 99 d6 c0 3b 09 35 b0 3b
       0.0016258712 -0.002280053 0.005884957 0.005377416
0001b0 f8 34 0c bb 17 96 ed ba 5f 55 d4 3a 4f 21 6b bb
       -0.0021393877 -0.0018126395 0.0016199759 -0.0035878008
0001c0 f0 0e c9 ba 11 32 86 bb 22 1e a6 3b 28 66 c5 ba
       -0.0015339535 -0.004095324 0.00506951 -0.0015060352
0001d0 be ab 03 3a a1 d5 c5 3b 19 97 75 39 03 01 a0 bb
       0.0005022845 0.0060374294 0.00023421309 -0.004882933
0001e0 d3 d3 04 3b d7 83 ab 3a 27 21 bd 3c 04 75 ca 3a
       0.0020267859 0.0013085556 0.023087097 0.001544625
0001f0 85 56 2a bc d6 d0 0d 3d 5f 21 cd bc e2 29 07 bd
       -0.010396604 0.03462299 -0.025040327 -0.032998927
000200 71 29 60 bc 06 43 e4 bc 53 6d 25 bb 57 dd e5 bc
       -0.013681755 -0.02786399 -0.0025242164 -0.028059645
000210 a9 0c 6d 3c 37 05 52 3c 8f ed 97 3c 51 a4 b9 bb
       0.01446835 0.012818626 0.018545894 -0.00566534
000220 ad 6a b0 ba 43 33 0a 3c 7a 0c 36 3b 34 98 46 ba
       -0.0013459526 0.008435073 0.0027778433 -0.00075757806
000230 c3 63 d7 3c dd f1 12 ba 50 95 b3 bb 47 00 92 3a
       0.026292687 -0.00056054984 -0.005480446 0.0011138999
000240 86 15 81 3c 02 b9 6b 3c a8 c4 8d 3a 4d 4f fb ba
       0.015757333 0.014387371 0.0010816054 -0.0019173414
000250 08 ac 15 3b 2f 1b b2 bb 4b 88 b9 bb 94 97 37 bb
       0.0022838134 -0.0054353694 -0.0056619993 -0.0028013932
000260 f7 d9 82 bc 5a 31 29 ba 61 1d 85 ba e2 76 ab bc
       -0.015973074 -0.00064541923 -0.001015585 -0.020930711
000270 92 a9 15 bb 86 e1 63 3c 20 58 0a bd 28 6d 88 bb
       -0.0022836667 0.013908749 -0.03377545 -0.004163403
000280 75 e6 ae bc 36 00 84 3c 06 ce 58 3c fa e8 93 bb
       -0.021350125 0.016113382 0.013232714 -0.004513857
000290 a0 80 6e 3c 9a 32 4d bc 84 65 17 3c c3 ca 9b 3c
       0.014557034 -0.012524271 0.009240512 0.019017583
0002a0 e7 cb 34 3c 17 b3 f6 3c db 2f 38 bb 48 ac f2 bb
       0.011034942 0.030114694 -0.0028104696 -0.0074057914
0002b0 b1 9a a3 bc c0 16 2f bb 18 fe 6c bc ff a8 97 3c
       -0.019971224 -0.002671644 -0.014464878 0.0185132
0002c0 f9 62 96 bc d5 b7 23 bc 82 f9 51 ba e9 ae 8d 3c
       -0.01835774 -0.009992559 -0.0008009897 0.017295318
0002d0 69 9f 71 3c b6 32 2a 3c fb a3 5e 3c 65 36 8f 3a
       0.014747479 0.010388067 0.013588901 0.0010926245
0002e0 ad d4 74 bb f9 4e 69 3b 4b 74 82 3a 8d 48 d7 bb
       -0.003735821 0.003560005 0.0009952871 -0.006569928
0002f0 6c 6f c0 3b 52 31 a0 bc ca 32 8f bc 65 38 c4 bc
       0.0058726575 -0.019554768 -0.017480273 -0.023952672
000300 dc 48 bf bb ce 5c 15 bd ba e5 b2 3b 51 51 0c bc
       -0.005837543 -0.03646546 0.0054595144 -0.008564309
000310 fe 4e fb 3b ec bc d5 bc 0d e4 59 3a a8 49 93 bc
       0.0076693287 -0.026091062 0.0008311875 -0.017979458
000320 c5 a7 1c 3b 62 0c b8 3c 48 c6 25 bc 7d 43 5b bc
       0.002390371 0.022466842 -0.010118075 -0.01338279
000330 ac 81 32 3c dd fb e9 3b 28 ea 0c 3c 1a 82 1b bc
       0.010895174 0.00714062 0.008600749 -0.009491468
000340 86 64 bd 3b d2 1e 95 3b 3b 1e 2f 3c 6f 28 93 3b
       0.0057798056 0.004550793 0.01068836 0.004490904
000350 c1 90 72 3c ac 9b 84 bc b9 11 27 3c 76 15 e0 3a
       0.01480502 -0.016187511 0.0101970965 0.001709624
000360 52 2a a5 3b b4 2e 65 bc d1 db 1d 3c 21 b3 22 3c
       0.0050404454 -0.013988186 0.009634928 0.009930403
000370 e0 7b 0f bc 46 0a ce bc d6 36 6c bc e3 78 eb bb
       -0.008757561 -0.025151383 -0.014417371 -0.0071860417
000380 f3 aa 35 3a 9a 57 54 3c 72 5b ea bc 0f 95 7f bb
       0.00069300755 0.012960339 -0.028608058 -0.0038998758
000390 93 1d c0 3c e5 07 72 3c 2f 97 94 bc 34 ce 80 ba
       0.023451602 0.01477239 -0.018138496 -0.0009827078
0003a0 1d 01 da bb e3 42 50 3c e9 32 9a bc 95 4d 14 3c
       -0.0066529647 0.01271126 -0.018823104 0.0090517
0003b0 14 2e 31 3a 10 dc 59 bc 52 b3 8d 3c a6 a7 a5 3c
       0.00067588803 -0.013297096 0.01729742 0.020221543
0003c0 3f b0 80 bc 5c a5 9b b8 8a 6c bb bb 86 9e ab 3b
       -0.01570904 -7.4217765e-05 -0.005719726 0.0052374033
0003d0 15 da 20 bb d9 56 a2 bb 03 a1 62 3b ca 0f 38 3b
       -0.002454405 -0.0049542007 0.0034580834 0.0028085583
0003e0 05 9b b2 bb a2 05 86 ba bf 3d ac 3c b1 8e f9 3a
       -0.0054506087 -0.0010225067 0.021025537 0.0019039718
0003f0 ff 19 80 bb 9d 52 76 3b 71 6c 82 bc c1 d1 69 3b
       -0.003909349 0.0037585862 -0.01592085 0.0035678002

layer3.fc2.bias f4 [84]
000000 73 ff 3a bc 59 47 01 3c 7b 3e 6d 3b ea 98 18 bc
       -0.011413443 0.007890546 0.0036200571 -0.009313801
000010 63 75 2b 3b da 08 64 3b b1 fe e2 bb 8b ea d1 bb
       0.0026162497 0.0034795315 -0.0069273342 -0.0064061335
000020 d0 6b bc 3b 33 d7 fa 3b 3f 9d 7c 3e 09 e1 3b bb
       0.005750157 0.0076550483 0.2466936 -0.0028668067
000030 c2 c7 66 bb 0d 8f bf 3b b9 0d 78 bc 1d 86 cd bb
       -0.003521428 0.0058459104 -0.0151399905 -0.006272091
000040 97 ce 00 bc 81 1e aa bb 5b 8e b7 3a a3 94 1c bc
       -0.007861755 -0.0051916246 0.0014004217 -0.009556922
000050 d9 6b 6c 3c a6 2e 1e 3c 47 f7 e8 bb da 4a 11 bc
       0.01443001 0.009654677 -0.007109556 -0.008867944
000060 3d 06 a2 3b c7 47 2b bd 77 4c 6b 3b 81 fa 10 3d
       0.0049445913 -0.0418165 0.003590373 0.03539515
000070 5a b8 2e 3c 98 4f d4 3b 23 46 36 3c a0 3b 35 bb
       0.01066407 0.006479215 0.01112512 -0.0027653947
000080 b9 93 94 3b 80 04 09 3b 5a f7 dd bb 4c 34 01 bc
       0.0045342115 0.0020907223 -0.0067738714 -0.007886004
000090 a8 be 5c b9 84 b4 de 3b 96 cd 94 3b 1f 0a 41 bb
       -0.0002105186 0.0067964215 0.0045411093 -0.0029455496
0000a0 9b 68 bb 3b 56 a4 91 3e 83 28 7f bc 92 ef b3 3b
       0.005719257 0.2844569 -0.015573624 0.0054912055
0000b0 6e 3b 31 bb a3 19 09 3c 1e 00 07 bc d5 59 c5 3b
       -0.002704348 0.008367929 -0.008239774 0.0060226717
0000c0 ad 51 67 b8 a9 dd be bb fd f9 bc ba d6 7b 5e 3e
       -5.515076e-05 -0.005824764 -0.0014417764 0.21726927
0000d0 51 61 16 ba 8a 6c 8d 3b 34 7a b0 3b 07 57 ed 3a
       -0.0005736547 0.0043159174 0.0053856615 0.0018107601
0000e0 86 59 f1 bb 77 9f 92 bc be ce 12 3b 71 cd 29 3c
       -0.0073654084 -0.017898304 0.002240106 0.010363922
0000f0 ff d0 0b 3c 72 71 94 bb ac 16 37 ba 9d 72 1c 3c
       0.008533715 -0.0045301253 -0.00069842744 0.00954881
000100 81 ea c8 bb dc 53 1a 3a de 58 f9 bb 51 a5 84 3b
       -0.0061314707 0.000588713 -0.0076094707 0.0040480276
000110 14 dc 1b bc 35 7e 34 3b 19 41 04 3e 4e 2f c6 3a
       -0.00951292 0.0027541046 0.12915458 0.0015120299
000120 66 49 1d 3c 8a 9b 59 bc 4b f1 4f 3b 36 61 3b ba
       0.009600019 -0.013281712 0.0031729515 -0.00071479694
000130 5a 1a 2c bc 21 53 d6 bb d4 44 90 3b 57 ee ec bd
       -0.01050433 -0.0065406715 0.004402736 -0.11568897
000140 35 d3 5d 3c d2 2d 72 bc e3 d4 69 3b 27 4d 61 bb
       0.013539125 -0.014781432 0.003567987 -0.0034378262

layer3.fc3.weight f4 [10, 84]
000000 5f 6a d5 bb fa 3f 66 3c 87 c0 8c ba c6 5e 3a bb
       -0.0065129246 0.014053339 -0.001073853 -0.0028437837
000010 ec 67 a2 3c 2d 57 ca 3a 1a 67 51 bb 05 7e 72 bb
       0.019824944 0.0015437357 -0.0031952322 -0.0037001383
000020 b1 4a 19 3c 72 65 e3 3b e6 aa 45 be b8 2a be bb
       0.009356187 0.0069395835 -0.19303474 -0.0058034323
000030 10 b5 a4 bb 0b 80 d9 39 dc f2 93 bb cc 9c 0e b9
       -0.005026467 0.00041484865 -0.004515035 -0.00013600587
000040 2f 8c fc 3a 22 4c 5d 3b 4e 9e d2 3b c5 45 3e bb
       0.0019267852 0.0033767303 0.006427563 -0.0029033285
000050 a2 cd 27 3b a1 20 a9 bb 4f 55 16 bb e2 40 1b bb
       0.0025604744 -0.0051613604 -0.0022939031 -0.0023689796
000060 59 3f 03 ba 2e 71 a5 3c 82 44 50 bb 01 aa d1 3d
       -0.0005006693 0.02019557 -0.0031779115 0.10237504
000070 17 af 0f 3c 19 a4 08 3b d0 df 3b ba 6f 4c f1 39
       0.008769772 0.0020849763 -0.00071668345 0.0004602405
000080 a1 df 36 3b 7e 8b 24 bb fc 9b 6f 3b 38 4f 0e 3b
       0.002790429 -0.0025107558 0.003656148 0.0021714699
000090 cc b3 d2 ba 01 44 81 3a 1b 8d 0b 3b 10 40 ce bb
       -0.0016075312 0.0009862186 0.0021293822 -0.006294258
0000a0 76 20 c8 3b 7e 4b a7 3b 02 ee 11 bc 82 32 73 bb
       0.0061073853 0.005105435 -0.008906843 -0.0037108962
0000b0 7f a5 c4 bb 16 84 07 39 17 67 58 3b 29 21 57 bb
       -0.006001174 0.00012923809 0.003302043 -0.0032826161
0000c0 a0 d1 46 bb 5b ad 48 bb 57 7a 19 ba a4 a7 c2 3c
       -0.0030337349 -0.0030620906 -0.0005854717 0.023761578
0000d0 a2 aa 0e 3b ed a3 45 bb 6c bb 55 3b d9 98 3d bb
       0.0021769186 -0.0030157522 0.0032612933 -0.0028930216
0000e0 5d 27 a6 b9 d3 10 7b be d2 f2 12 bc 94 f4 b3 3a
       -0.00031691315 -0.24518137 -0.008969026 0.0013729506
0000f0 43 86 1f 3b 03 0b ac 39 18 0e 37 3a 96 95 fb 39
       0.00243415 0.000328146 0.0006982996 0.000479859
000100 c9 7e 04 3b fe e7 0b bb 0d 06 35 bb 4d 24 d1 3b
       0.0020217171 -0.0021347995 -0.0027622015 0.006382501
000110 ea 86 14 39 d3 0e 97 3b 15 95 19 be c0 a4 9c 3b
       0.0001416464 0.0046099215 -0.14998277 0.004780382
000120 87 bb 83 bb c6 c6 e8 bb ec c2 6e 3b 8f 5b 32 bb
       -0.0040201577 -0.0071037738 0.00364321 -0.0027215218
000130 f6 72 8a ba 4d 63 5c 3c 32 00 ec bb 83 89 13 3e
       -0.0010562825 0.0134514095 -0.0072021717 0.14407925
000140 c0 78 db 3b 4a 8a 79 3a e4 2d 37 bb 28 ce 3f 39
       0.006697744 0.0009519203 -0.0027950937 0.00018291979
000150 17 a6 a6 b9 ee 91 c5 bb 5e 47 e9 bb e0 e0 f9 b9
       -0.00031785734 -0.006029359 -0.0071191033 -0.00047660526
000160 f8 5e 48 3c 0b 42 02 bc aa 36 d4 3b 37 8c 1d 3c
       0.012229674 -0.007950316 0.006476243 0.009615949
000170 69 2f ca bb fb 21 b3 bb ef d9 2b bd 96 d7 bd ba
       -0.0061702025 -0.0054666973 -0.041955885 -0.0014483805
000180 15 0d 9f 39 fa a7 f9 bb e5 39 73 3b 0b 58 01 bb
       0.0003033659 -0.0076189013 0.0037113365 -0.0019736316
000190 be 33 49 3b 59 cb 2c 3b 13 04 fb bb 52 ee 8a 3b
       0.0030701007 0.0026366322 -0.007660398 0.004239836
0001a0 5c 56 05 bb c9 83 e1 bb 2e a2 58 3a f2 01 6f 3b
       -0.0020345664 -0.006882165 0.0008263913 0.0036469665
0001b0 af 0c ae ba a3 42 74 3e 3d ea 02 bb 63 77 00 be
       -0.0013278926 0.23853545 -0.0019976043 -0.12545542
0001c0 9c 6c eb ba 19 d7 79 3a d5 14 33 bb 7b a4 e4 bb
       -0.0017961445 0.0009530648 -0.002732565 -0.0069776154
0001d0 57 f7 aa 3a 38 27 ed 3a 7c 0e 23 3c f1 41 3f bb
       0.0013043684 0.0018093353 0.009952184 -0.0029183591
0001e0 a7 ec 09 ba 71 80 c5 3a 10 ff e7 bb b8 11 cd 3b
       -0.0005261399 0.0015068186 -0.0070799664 0.0062582158
0001f0 76 86 f8 bb 6c f5 2d be bd b9 c6 3b f0 4c 14 bb
       -0.0075843884 -0.16988152 0.006064622 -0.0022628866
000200 26 0a 87 3b c6 7e 5d ba e8 c2 05 3e 0d d9 30 3b
       0.004121083 -0.00084493717 0.13062632 0.002698484
000210 60 80 f8 ba 47 36 1f bb 50 b6 45 b9 9a 38 ac be
       -0.0018959157 -0.0024293826 -0.00018855301 -0.33636934
000220 59 df 54 3b ed 1d 0b ba 64 04 78 ba e2 15 8e 3b
       0.0032481758 -0.00053068885 -0.00094611035 0.0043361047
000230 c4 3f 63 3b 17 9c 89 3b 63 78 06 3a ba a0 fc ba
       0.0034675458 0.0041995156 0.00051296334 -0.0019273974
000240 b4 04 d2 bb ec 2f 38 bb b1 eb 22 bb c4 a8 26 bc
       -0.006409252 -0.0028104736 -0.0024859721 -0.010172073
000250 c9 cf c3 3b 4a 45 67 3b 0d cd c5 3b f6 de 72 bb
       0.0059756977 0.0035289102 0.006036407 -0.0037059165
000260 63 fd bd 3b ec e8 cb bb db ec ee bd b7 10 eb ba
       0.0057980283 -0.006222835 -0.1166627 -0.0017934059
000270 1c b2 50 3b 96 57 15 3b 7c d1 6a bb 86 01 7b 3b
       0.0031844443 0.00227878 -0.0035830429 0.0038300469
000280 5f 12 f0 b7 4d da 6b 3c 94 cc 18 3a b6 1b 6b bd
       -2.8618784e-05 0.014395309 0.00058288244 -0.057399474
000290 15 23 5d ba 9d b7 03 3c 1e 14 1a bb 20 80 0d 3c
       -0.00084357086 0.008039382 -0.0023510526 0.008636504
0002a0 55 30 b0 3a 13 b5 28 bc 4d c0 02 3c 92 46 95 3b
       0.0013442138 -0.010297078 0.007980418 0.004555532
0002b0 7d 11 47 3c 18 a8 da 3b 07 8e 3c bb 4c 4f d1 bb
       0.012150166 0.0066728704 -0.0028771178 -0.0063876268
0002c0 88 e7 be bb 89 fe 80 3b 2b f4 c5 bd b5 05 b1 3b
       -0.0058259405 0.003936593 -0.09665712 0.0054022917
0002d0 85 e3 b7 3b 85 df 86 3b 77 bf 0c bb 29 bd 10 3b
       0.0056118392 0.004116001 -0.0021476427 0.0022085404
0002e0 fd 87 7a bb f8 41 88 bb c3 6d ef ba 9f 33 25 3a
       -0.0038228028 -0.0041582547 -0.0018266964 0.00063019426
0002f0 e6 9d 0c bb e2 5a 00 3c d1 22 12 3b a7 9d 59 b8
       -0.002145642 0.007834168 0.0022298584 -5.1883657e-05
000300 09 e4 a7 ba 8e d1 6f bd bb 22 3f 3b cb c0 31 3e
       -0.0012809049 -0.058549456 0.0029164988 0.17358701
000310 44 db 82 bb 3c fe 66 bb 4a c7 d1 3a b9 1c 94 3b
       -0.0039934237 -0.003524675 0.0016004827 0.0045200256
000320 e1 67 49 bb 2f 52 87 b9 2d f0 29 bc 5c cf 84 3a
       -0.0030732083 -0.00025810438 -0.010372204 0.0010132599
000330 c0 5f 63 3c 16 67 4e bb 56 06 05 3c 40 99 d5 ba
       0.013877809 -0.003149455 0.008119186 -0.0016296282
000340 05 46 c5 3a d0 70 11 3e b3 be 8a bb 70 01 99 3b
       0.0015050775 0.14203191 -0.004234159 0.004669361
000350 ac 77 80 b9 90 cf cf 3b e2 f5 33 3d fe 53 12 3a
       -0.00024503225 0.006341882 0.043935664 0.0005581974
000360 db 50 03 bb 0b 1c a3 3b 4a 01 89 39 44 2e 11 3e
       -0.0020037207 0.004977708 0.00026131637 0.14177805
000370 3e 1f 1d bb 83 7f 92 3b 41 d7 5e ba be 35 7d ba
       -0.002397492 0.004470767 -0.0008500703 -0.00096591923
000380 bb 4e da bb 06 c8 75 3d ae 57 2e 3c 96 d3 10 3a
       -0.0066622174 0.06000521 0.010641022 0.0005524693
000390 49 b7 ab 3b fa 26 88 3b f7 64 a2 38 a5 63 2f 3c
       0.005240355 0.004155037 7.743568e-05 0.010704909
0003a0 4f ba 87 bb c1 40 47 ba 9b 68 90 bb 56 d3 84 39
       -0.0041420828 -0.00076008966 -0.004407001 0.0002533446
0003b0 0b be cd bb 17 a9 a1 3b 9b d0 18 bd 87 76 0f 39
       -0.0062787584 0.004933487 -0.037308317 0.00013681698
0003c0 d8 7e 62 3b 90 df f3 ba 08 22 41 3a 91 e4 14 ba
       0.0034560468 -0.0018606056 0.0007367437 -0.0005679811
0003d0 5b e3 ae 3b f8 b7 7c 3c f5 4e 09 3c 4f 9f 61 be
       0.0053371615 0.015424721 0.008380641 -0.22033428
0003e0 cd f0 89 bb 9e e7 85 bb 57 0a 81 3b b6 27 dd ba
       -0.004209614 -0.004086449 0.003938 -0.0016872797
0003f0 44 f3 dd 3b e9 0a e3 bb 30 1c 29 3b b8 97 63 3b
       0.0067733843 -0.006928791 0.0025804155 0.0034727883

layer3.fc3.bias f4 [10]
000000 2a 78 dd bd eb 44 d7 be fa 05 b6 3e a8 56 0f 3f
       -0.10813935 -0.42044768 0.35551435 0.559916
000010 d7 03 aa 3e bf 85 19 bc 9e a2 df bd 01 92 83 be
       0.33206055 -0.009370266 -0.10919689 -0.2569733
000020 07 8d b7 be 83 73 5c bd
       -0.35849783 -0.053821098
