output/models_cifar10_90.pth (torch_old, 248636 bytes, 10 tensors)

layer1.conv1.weight f4 [6, 1, 5, 5]
000000 3b d1 03 bc d1 03 23 be 2d 5a 65 bc c0 d6 ec bd
       -0.00804549 -0.15919425 -0.01399855 -0.11564398
000010 ae 98 d0 bd 4c 13 9b 3e 59 1b 34 be dd 84 e2 3e
       -0.10185371 0.3028816 -0.17588557 0.44241992
000020 d6 4a 86 bd 85 15 64 3e 0f 9a 04 3e 75 91 33 bf
       -0.065572426 0.22273834 0.12949394 -0.70143825
000030 aa da fa 3e 5e 40 cf be 9d 73 77 bd bb 49 fa 3e
       0.48994952 -0.40478796 -0.06041299 0.48884377
000040 38 3b 54 bf dd 7b 67 3f 2f 37 df be 45 52 3f 3e
       -0.8290286 0.90423375 -0.4359679 0.18683727
000050 d4 27 87 3e 2e 0b 34 bf c9 07 14 3f 53 2a 69 be
       0.26397574 -0.7032956 0.5782438 -0.22770052
000060 8b 06 42 bd dc 49 3a 3c 50 ca 88 bd 27 ea fd bc
       -0.04736952 0.0113701485 -0.06679213 -0.030995442
000070 16 82 f6 3d 53 47 d9 bc 43 25 6d 3d e3 94 6a 3e
       0.12036531 -0.026523268 0.057896864 0.22908358
000080 37 05 36 bf ed 83 4d 3e 07 5f 71 3e 16 d0 b0 bd
       -0.7110171 0.20069857 0.23571406 -0.08633439
000090 70 eb d3 3e 3c c8 02 3f b0 6a a7 bf 28 b2 ce 3e
       0.41390562 0.51086783 -1.3079433 0.40370297
0000a0 cc 20 ac 3d a5 02 1a bf 5e 47 62 3f 02 d2 4d 3e
       0.08404693 -0.60160285 0.8839015 0.20099643
0000b0 d8 be 05 bf 7d a8 7d bc 0b 05 db 3d 3d 33 ef be
       -0.5224433 -0.015482065 0.10694321 -0.4671878
0000c0 b8 3c f2 3e 2d 95 c2 bd 7a 24 53 bd 52 2c 4f bd
       0.4731195 -0.09501109 -0.05154846 -0.050579377
0000d0 e2 d0 93 bd 21 c0 08 3e 02 9f a0 3d 06 20 e5 bd
       -0.072175756 0.13354541 0.07842828 -0.111877486
0000e0 bd 42 28 bd 56 ff 4b 3e 2a ff 95 3d 82 d1 68 bd
       -0.04107927 0.19921622 0.07324059 -0.056840427
0000f0 78 f3 b1 be 1d f5 36 3c 5e 07 89 3e f2 0f 9f bd
       -0.34756064 0.011166838 0.26763433 -0.07766713
000100 d9 73 21 bd 6d d7 c8 be d1 16 a2 3e 4f 0c 69 3e
       -0.03941712 -0.39226857 0.31658033 0.22758602
000110 55 d0 25 bc b4 88 e8 bb fa 05 0e bf fe b9 ce 3e
       -0.010120471 -0.0070963744 -0.5547787 0.40376276
000120 a0 5c fd bc 81 f3 73 3d d3 a8 c9 bd 4d 58 f4 bd
       -0.030927956 0.059558395 -0.09846654 -0.119309045
000130 fb 37 b4 be c4 6e 67 be 4c 94 96 bc 72 b8 83 3d
       -0.3519896 -0.22600847 -0.01838126 0.064316645
000140 f4 c4 9a 3e 77 0d 57 3f b6 cb 22 3f 13 a1 f1 3d
       0.30228388 0.8400492 0.6359209 0.117983006
000150 87 b6 95 3d b9 a2 fd bd c4 cf f7 be 81 cd b5 be
       0.07310205 -0.123845525 -0.484007 -0.3550835
000160 0e 20 8f bb 5b e8 00 be 73 c2 0f 3e 57 d0 8e 3c
       -0.004367835 -0.12588637 0.1403902 0.017433329
000170 7d 82 9d bd 98 7e b4 3d f4 0e 4d 3e d8 1f 99 bd
       -0.07690904 0.08813208 0.20025235 -0.07476777
000180 6b b2 5c bd d5 51 6e bc c6 ab 10 be f3 82 84 bd
       -0.05388109 -0.014545877 -0.14128026 -0.06470289
000190 2f 93 02 be d0 e2 51 3d 9a 40 aa bc e9 4c 17 3e
       -0.12751459 0.051241696 -0.020782758 0.14775433
0001a0 f1 12 c7 bd 50 41 17 3d 10 7c c8 3d f3 f2 a2 3d
       -0.0972041 0.03692752 0.09789288 0.07956495
0001b0 58 33 20 be 30 5d 07 3e 57 76 9f be 3c 65 e1 be
       -0.15644586 0.13219142 -0.31144974 -0.44022548
0001c0 eb 89 22 be ad 1c f2 3c b3 e5 a0 be d7 22 80 3e
       -0.15872924 0.02955469 -0.31425247 0.2502658
0001d0 f1 b9 83 3e f2 df 2d be 57 75 02 be 04 3b 4c 3e
       0.257278 -0.1697996 -0.12740074 0.19944388
0001e0 c5 9c be bd 85 15 23 3d 73 5e 3c 3e 00 4c 24 3d
       -0.09307245 0.039815444 0.18395405 0.04011154
0001f0 0d 2c f6 bd 88 5a 42 3d c3 be 9d be 5e 2c c0 3e
       -0.12020121 0.04744962 -0.30809602 0.3753385
000200 07 01 b4 3c 62 73 f1 bd 48 d9 cc bd 86 0d a6 3e
       0.021973146 -0.11789586 -0.100023806 0.32432193
000210 a4 69 1b 3f 95 64 64 bf da a8 15 3d 5f 55 88 3d
       0.6070807 -0.89215976 0.036537983 0.06656908
000220 ef 92 0f 3f 40 76 a8 bf e2 17 d3 3d b2 df d1 3e
       0.5608358 -1.3161087 0.1030729 0.40990978
000230 8f 1b 8c bc 3a aa a0 be b1 ff 8c bd bd d7 3d 3f
       -0.017102985 -0.31379873 -0.06884707 0.74157315
000240 25 15 a8 be 5e 13 1e 3e e7 10 f5 bd b8 09 54 3e
       -0.32828632 0.15437075 -0.119661145 0.20706832
000250 9d b5 5e be 1c c6 52 3d
       -0.21748967 0.051458463

layer1.conv1.bias f4 [6]
000000 4d f9 c4 be da 5e c3 be 03 4f af be 04 35 9f be
       -0.3847145 -0.38158303 -0.3423997 -0.31095135
000010 5d 4e aa be 81 b1 cb be
       -0.3326291 -0.39783862

layer2.conv2.weight f4 [16, 6, 5, 5]
000000 24 bb 98 3d 56 a5 2c bd 8b 9c 73 3d 94 51 6c 3d
       0.07457569 -0.042149864 0.059475463 0.057694986
000010 b5 9c 99 3d 1e 4a dd 3c 0c 0a 44 bd 35 c0 70 3d
       0.075005926 0.02701288 -0.047861144 0.058777053
000020 6f 56 ac 3c 86 fa e1 bc aa 2d d0 bc 2a 10 97 bd
       0.021037308 -0.02758528 -0.0254124 -0.0737613
000030 94 3c cd bc d1 93 12 bd 63 44 82 3d d0 55 13 bd
       -0.0250533 -0.0357855 0.063607 -0.03597051
000040 2b 5f 38 be ea b9 0d be 04 16 0d 3e f1 37 b5 bd
       -0.18005054 -0.13840452 0.1377793 -0.088485606
000050 fc 45 6b be 6e 02 8a be b0 57 26 bf 99 7e 46 bf
       -0.22975916 -0.2695498 -0.6497755 -0.7753692
000060 47 5e 93 be 7b 6b a4 3e 6e 39 38 3e 9d 71 4b 3d
       -0.28782865 0.3211325 0.17990658 0.049668897
000070 cc 1f 3d 3d 2a ff 2e 3e 3a 1c 92 3e cb 08 2d 3e
       0.046172902 0.17089525 0.2853716 0.16897886
000080 0d 9d 88 3e 1a fe a6 3d e3 51 15 3e af d5 b8 3e
       0.2668232 0.08153935 0.14582019 0.36100528
000090 b9 9c 57 3e 28 0e 32 3e 75 ad d6 3d 3b 60 31 3e
       0.21055879 0.17388213 0.10482303 0.17321865
0000a0 c2 7e ec 3e 1e 61 b2 3e 35 57 a3 3e a5 10 2f 3e
       0.4619046 0.3483972 0.3190247 0.17096193
0000b0 ed 39 f1 ba 05 07 e1 3e 30 47 4d 3e 5c 87 53 bd
       -0.0018404104 0.43950668 0.20046687 -0.05164276
0000c0 4e 81 22 3c 3a ea 63 bd 74 4a 24 3e 9b 3a bb 3d
       0.009918524 -0.055643298 0.16044027 0.091420375
0000d0 1a a0 c5 bc 03 eb 3f 3e 3c 7b 34 bd e6 13 27 bd
       -0.024124194 0.18741994 -0.044062838 -0.04079046
0000e0 de 4d 2b 3e 5d 91 27 3d e9 9c 2a be fa df 89 3d
       0.16728923 0.040910114 -0.16661419 0.06732173
0000f0 fb d9 11 be 9b a5 08 bb 4b 90 40 3d 0b da 29 3e
       -0.14243309 -0.0020850662 0.04701261 0.16587083
000100 50 69 ee 3a 2c 81 87 bd bc b0 31 be 68 70 52 bd
       0.0018189345 -0.066164345 -0.17352575 -0.05137673
000110 2e 6d a2 3e 9a e5 3c 3e ca 02 14 be a8 dc 82 bd
       0.31723922 0.18446961 -0.14454189 -0.06389743
000120 2d 2d b4 be b0 4d af be a4 a0 1f bd ec 69 77 3e
       -0.35190716 -0.34238958 -0.03897156 0.241615
000130 f5 2a b2 bd 64 2d a9 3c 66 2e 85 3d 13 68 05 3e
       -0.086996 0.020651527 0.065029904 0.13027982
000140 4f 59 a8 3d b9 28 92 3d 4d af 5a 3e 71 c4 5c 3e
       0.08220159 0.071366735 0.21355934 0.21559311
000150 18 a4 ce 3d e0 d9 58 bd cd 74 91 3e b0 4e 57 3e
       0.10089892 -0.052942157 0.28409424 0.2102611
000160 e4 6f 2a 3e 32 86 55 3e 1e 3a 6c be 65 3e 78 3e
       0.16644245 0.20851973 -0.23069045 0.24242552
000170 fc ef 9d 3e 53 8c 23 3e ec 98 b0 3d fd 77 f5 bd
       0.30847156 0.15971498 0.086229175 -0.119857766
000180 73 ad 31 3d 50 59 0a 3e 1c 3b d4 3e bc 64 87 3e
       0.043378305 0.13510633 0.41451347 0.26444042
000190 b0 73 47 3e de b0 ab 3d ab a8 a4 bd 95 c2 8d 3e
       0.19477725 0.08383344 -0.08039983 0.27687517
0001a0 73 a5 e8 3d 5a c8 b9 3e 84 0e 08 3e 31 5c 36 3e
       0.11359682 0.3628567 0.13286787 0.17808606
0001b0 90 00 f0 3d 71 6e cd 3e e1 73 9c 3e 28 af 72 3e
       0.11718857 0.40123323 0.3055716 0.2369963
0001c0 f1 34 45 3d e5 8a 31 3e 99 79 f2 3e c8 63 5c 3e
       0.048146192 0.1733814 0.47358397 0.21522439
0001d0 4a 57 18 bd 45 df fa 3e fe 52 a0 3e df 70 28 3e
       -0.03719262 0.48998466 0.31313318 0.16449307
0001e0 63 20 06 bf f8 fe ad 3e f6 9b 50 3f c2 be 25 3e
       -0.5239317 0.33983588 0.8148798 0.1618605
0001f0 05 76 0e be 19 38 28 bd 85 46 0a be 14 a5 46 bd
       -0.13912208 -0.041069124 -0.13503464 -0.048497275
000200 ab 61 15 3c 56 da 88 bc 6d b5 03 bd 93 41 3c be
       0.009117524 -0.016705673 -0.032155443 -0.1838439
000210 2d 68 c3 3c 55 ff 30 3b 1d 51 7d 3d 13 94 33 3d
       0.023853386 0.0027007659 0.061844934 0.043842386
000220 6d 6d 1c be 3a 95 24 3d 6f 8b 23 bc 16 d7 38 3d
       -0.15276118 0.040181376 -0.009981974 0.045126997
000230 dd 50 6b 3d 8c 23 94 bd 19 e4 a6 bc cc eb 44 3e
       0.057450164 -0.072333425 -0.020372437 0.19230574
000240 e8 df e7 3d 19 8a b9 3d 78 9b 11 3e 5c 1b 4e bc
       0.113220036 0.09059543 0.14219463 -0.012579765
000250 aa f4 34 3e ea d2 39 3e 46 58 27 bd 7a 3a e0 3c
       0.17671457 0.18146864 -0.04085567 0.027371634
000260 4c a5 64 3d 00 84 1b 3e b8 0c 17 be 1d ed 62 3e
       0.055821702 0.15187073 -0.14750946 0.22160764
000270 6d 3e b9 3d 2a 38 b5 3d 30 47 7b be 13 5d 48 3d
       0.0904511 0.08848603 -0.24538875 0.048916887
000280 79 51 93 bc 98 ef b0 3e bc 7c 0e be 85 3a 0c 3d
       -0.017983185 0.34557796 -0.1391477 0.034235496
000290 45 1b b1 bd 73 9e 2f be 5f 1a 8a be c9 d9 d0 bc
       -0.086477794 -0.17150287 -0.26973245 -0.025494473
0002a0 42 64 44 3d ec 9d 17 be b5 c4 53 bd f3 75 fc 3d
       0.047947176 -0.14806336 -0.051701266 0.123271845
0002b0 aa 25 f5 bd a6 1e d3 be 72 44 21 be ff cf 2a 3e
       -0.119700745 -0.4123432 -0.15748766 0.16680907
0002c0 6a d1 81 3d 3e de 0c 3d fb a9 84 3e 65 5b 04 3b
       0.06338771 0.034391634 0.25910935 0.0020196077
0002d0 65 fb 05 bd b5 fb a3 3d 0c af df be 8b 75 af 3e
       -0.03271045 0.08006994 -0.43688238 0.34269366
0002e0 f7 75 84 3e 81 16 8d be c5 a1 3c 3d 37 5d 8d be
       0.2587125 -0.27556232 0.046052713 -0.2761018
0002f0 21 63 90 3e d4 06 f0 3d c2 8d 84 3c 32 d9 f1 bc
       0.2820063 0.11720052 0.016180877 -0.029522512
000300 5b 3c af be 3f 95 ff be 2d 22 0d 3d 81 87 11 3e
       -0.34225735 -0.49918553 0.03445642 0.14211847
000310 7d 4e 8c 3e 80 fe 04 3f 75 f1 f3 bb 0c 78 ab be
       0.27403632 0.51950836 -0.0074445554 -0.33490026
000320 dd 2e cc 3b 1f f1 0b 3e d1 b4 8a 3e 70 b6 a3 bc
       0.0062311725 0.13666199 0.27091077 -0.019984454
000330 a1 2a a8 3d ad 98 c3 bc 06 35 ab be d5 a0 ad 3b
       0.08211256 -0.023876512 -0.3343889 0.0052987137
000340 e8 5c 99 3e fe 32 ac be 3d 60 2e 3e e7 24 e6 3e
       0.29953694 -0.33632654 0.170289 0.4495003
000350 ee a4 dc bc 79 72 27 3f 6a 79 eb 3c 8e 68 ad 3d
       -0.026934113 0.65409046 0.028744418 0.08467208
000360 49 97 28 3e 31 e6 14 3e fd 28 2f 3e 63 88 73 3e
       0.1646396 0.14540936 0.1710548 0.23782496
000370 7a 97 bd 3d 25 e9 4e be c5 fc 26 3d 11 ea 3b bc
       0.092574075 -0.20206125 0.040768404 -0.01146938
000380 89 35 b2 3e 66 b0 15 3e 99 66 14 3e ba ec 18 be
       0.3480647 0.14618072 0.14492263 -0.14934054
000390 77 23 dd bd d3 ce b6 3d 85 4f 37 3e 8b a3 33 3d
       -0.1079778 0.08926167 0.17901428 0.04385714
0003a0 54 79 b0 be 48 ca a0 be 34 5d 80 3c 8d 19 6a bd
       -0.34467566 -0.31404328 0.015669443 -0.057153273
0003b0 16 eb b3 bd 5d ec 92 be dd d2 cb be 16 16 28 be
       -0.087850735 -0.28695956 -0.39809313 -0.16414675
0003c0 ce 80 61 3e 0f 1b b8 be a4 30 7f be 2f c3 d8 be
       0.22021791 -0.35958144 -0.24920899 -0.42336413
0003d0 00 9e 8d be 30 2a 59 3e fa f8 01 be ea 58 dc bd
       -0.27659607 0.212075 -0.12692633 -0.107591465
0003e0 98 7e 30 3e 4f 5d 9d be c8 19 70 3e eb ff 86 3e
       0.17235792 -0.3073525 0.23447335 0.26367125
0003f0 59 05 e7 be 81 d4 3c be 01 59 6b 3c 3f e0 45 be
       -0.45121267 -0.18440439 0.014364482 -0.19323824

layer2.conv2.bias f4 [16]
000000 e9 3a 40 bf 40 b3 7c bf cc 4a 45 bf 56 2d 44 bf
       -0.7508989 -0.98711014 -0.77067256 -0.7663168
000010 5c 1c 6f bf 0b 92 25 bf ba 09 3b bf d9 64 04 bf
       -0.9340265 -0.6467597 -0.73061717 -0.5171638
000020 24 f5 71 bf e6 3c 64 bf 12 91 1c bf 1e 60 f7 be
       -0.9451468 -0.89155424 -0.6115886 -0.4831552
000030 bf 1f 01 bf f4 84 48 bf a9 2f 48 bf fa eb fd be
       -0.50439066 -0.7832787 -0.78197724 -0.49594098

layer3.fc1.weight f4 [120, 400]
000000 e7 51 63 3c 8f e1 39 bc 82 12 77 bc 79 f5 aa 3a
       0.0138745075 -0.011345281 -0.015080096 0.0013043127
000010 d5 f2 b4 39 3c c2 96 3c d8 23 d6 bb ab fe 33 3c
       0.000345132 0.018403165 -0.0065350346 0.010986011
000020 25 1a 14 3c d1 c7 b3 3a e3 18 61 3c 18 a6 11 3c
       0.0090394365 0.0013716166 0.013738844 0.0088896975
000030 88 8c 17 3c a9 01 a6 bc f2 31 d3 bb 9f 06 5d bc
       0.009249814 -0.020264463 -0.006445163 -0.013490348
000040 6f ef 71 bb 6f 98 5e 3c 7d 70 be bb 6e a2 9a bc
       -0.0036916395 0.013586148 -0.0058117495 -0.01887628
000050 eb fa 8d bc 60 8f f9 bb 3a 33 15 bb 0f 48 8a 3c
       -0.017331561 -0.0076159686 -0.002276613 0.016880063
000060 27 d5 6f bc bb db f2 3b d1 18 5c 3c b4 ce 00 ba
       -0.014638222 0.007411448 0.013433651 -0.00049136137
000070 2b 1b 91 bc 0a 65 98 bc 54 8b d7 bc 99 f9 e3 3b
       -0.01771315 -0.018602867 -0.026311554 0.0069572446
000080 17 e9 19 bc 4a a3 15 bd ce a0 63 3c 7b 6a c9 3b
       -0.009393952 -0.036532678 0.013893319 0.0061467267
000090 d9 40 24 3c 48 40 01 bc c1 ef be bc ef 29 b5 3a
       0.0100252265 -0.007888861 -0.023307683 0.0013821701
0000a0 d3 b5 6b bc 81 e9 8d 3c 2f e8 1e bd dd a6 b7 bc
       -0.014386612 0.017323257 -0.038795646 -0.022418434
0000b0 58 a9 9e 3a 63 b0 9e bc ee f3 0a bb 83 5d fe bc
       0.0012104912 -0.019371217 -0.0021202522 -0.03105045
0000c0 bb 27 4c bc 5d 50 6e bb 08 24 46 bc 7a c3 9e bc
       -0.012460644 -0.0036363818 -0.012093551 -0.01938032
0000d0 f6 dd 0f bd 79 85 87 3b ea 03 20 3c 5c a0 83 bc
       -0.035123788 0.004135784 0.009766558 -0.016067676
0000e0 cc 87 53 bc 8b 54 0b bc f4 0c 00 3c 80 9f b1 3a
       -0.0129107945 -0.008504043 0.007815588 0.0013551563
0000f0 75 1f 8d 3c 82 23 1e bd e0 2b c5 3c e9 2c bb 3c
       0.017226914 -0.03860808 0.024068773 0.022848563
000100 12 a9 c3 bc 59 20 8d bc a5 4e e4 bb 09 e8 54 3c
       -0.02388433 -0.017227339 -0.006967383 0.012994775
000110 be 93 a5 bb 92 e4 a6 bc 8f d3 d9 bc c8 b6 09 3c
       -0.0050530126 -0.020372663 -0.026590137 0.008405395
000120 c1 bb 1a 3c 02 7e 36 bb a4 f7 62 bc 96 26 17 bd
       0.009444178 -0.0027846103 -0.013852987 -0.036902033
000130 fc 43 8c bc 1c 5c 04 3d d2 c9 0d 3b 74 55 26 3a
       -0.017122261 0.032314405 0.0021635187 0.0006345131
000140 63 78 88 bc 69 06 bd bc 22 8d 1a 3c 09 49 57 bc
       -0.016658967 -0.023074346 0.009433063 -0.0131399715
000150 0d 6b 31 3c 5b 20 d5 3c 56 9b bf bb c2 e4 a7 bb
       0.010828746 0.026016405 -0.005847375 -0.0051237056
000160 78 d3 dd 3b 4a 50 02 3d 22 9d 22 3c 20 51 1d 3c
       0.006769594 0.03181485 0.009925159 0.009601861
000170 7c e0 9b bc d5 71 08 3a 53 1f e4 3c 7a 27 a2 bb
       -0.01902794 0.00052049506 0.027846968 -0.0049485536
000180 50 7b 01 3c 83 55 1b bc d3 7e df bc 98 7a de bb
       0.007902935 -0.009480837 -0.027282154 -0.0067895167
000190 ed 73 2e 3c 5c b1 25 3c 97 67 9f 3c a1 d2 08 bb
       0.010647756 0.010113087 0.019458575 -0.0020877498
0001a0 ed 5e 1f bc e3 6f c0 39 a7 26 44 3c a7 d5 b6 b8
       -0.009727222 0.00036704456 0.011972106 -8.718232e-05
0001b0 7a ce d3 bb 81 87 bf bc c5 46 a0 bc a4 5a 8e 3b
       -0.006463823 -0.023380043 -0.019564996 0.0043443013
0001c0 05 c3 ac b9 94 18 fb bb dd 91 93 bc d9 2f 07 bc
       -0.00032951697 -0.007662842 -0.018013889 -0.008251154
0001d0 ce 1d 82 bb bc a0 75 3a d7 c1 31 3c d7 e5 d0 3b
       -0.003970838 0.00093699596 0.010849438 0.0063750553
0001e0 da 82 b9 bb 6e 54 9d bc 2a b6 ad bc 15 77 8d bc
       -0.0056613507 -0.019205298 -0.021205027 -0.017268697
0001f0 c4 92 4e ba 2e d3 b5 3c 53 fa b2 3a 16 a4 4a bc
       -0.0007880146 0.022195425 0.0013654925 -0.012368223
000200 79 43 34 3d 62 f3 0e bc e9 06 1a 3b 1e 0a 41 3c
       0.04400966 -0.008725019 0.0023502654 0.011782197
000210 56 04 64 3c 74 61 13 3d fb 38 8b bc 42 49 94 bc
       0.013917049 0.03598161 -0.016994944 -0.018101338
000220 2e 10 5e bc 2b 50 ec 3c 70 24 21 bc ad 14 72 bc
       -0.013553662 0.02884682 -0.0098353475 -0.014775437
000230 98 82 11 bc 62 c6 2b 3c 47 5d d2 3c f2 b8 a4 bb
       -0.008881234 0.01048431 0.025679244 -0.00502693
000240 b9 d5 0a bb f0 a3 02 bb ef 03 23 bc d9 98 55 3c
       -0.0021184518 -0.001993414 -0.009949668 0.01303693
000250 d3 cb 82 ba b6 c6 69 bb 7c d9 7a 3a ff ab 31 3c
       -0.0009978957 -0.003567142 0.0009569151 0.01084423
000260 df be e6 3b 34 a5 a9 39 d8 a2 1a bc 40 60 06 3b
       0.0070417966 0.00032357278 -0.009438239 0.0020504147
000270 b6 4c e9 3b 86 fe 24 bc 65 cc 21 bc 60 e0 04 3b
       0.0071197404 -0.010070449 -0.009875392 0.002027534
000280 e4 57 c5 3c d2 bc 2e bc 64 41 21 bc 8e 92 cb 3c
       0.024089761 -0.010665135 -0.0098422505 0.024850156
000290 05 17 28 bc f2 c6 dc 3b 7f 0f fa 3b d3 8e e0 3b
       -0.0102593945 0.0067375833 0.007631242 0.0068529635
0002a0 84 fd 0a bc 9f cd 8b 3b b7 8d c4 3c 5e 90 d7 bb
       -0.008483294 0.0042664553 0.023993356 -0.006578489
0002b0 64 86 8d 3b c6 77 62 3c 2f d0 0e bc db 2c a8 3c
       0.004318999 0.0138225015 -0.008716627 0.020529201
0002c0 1f 04 de 3b e0 92 46 ba 3c da 33 bc a6 60 12 3b
       0.0067753936 -0.00075749867 -0.010977324 0.002233544
0002d0 fa ce 07 3c 2f 18 e1 3c d7 ff d7 b9 3c c2 12 3a
       0.008289093 0.027477352 -0.0004119861 0.0005598401
0002e0 4e 2a ba 3c df 8a a1 3c b3 a0 52 3c a4 0f 8f 3c
       0.02272525 0.01971954 0.0128556965 0.017463513
0002f0 fe bd c1 3c 8e 07 35 3c 5e 9e c0 3c f4 78 8f ba
       0.023650166 0.011049164 0.023513015 -0.0010946081
000300 06 bb ba bc 27 a1 a4 bc b0 2d 30 3b 36 ae a3 3c
       -0.022794258 -0.020096375 0.00268827 0.019980531
000310 1c bb 7d 3c 2e 4b 7b 3a 67 f2 4e 3c 9b 3b d4 3b
       0.015486505 0.0009586093 0.012631035 0.006476832
000320 9e 0a 8a 3b 35 99 7c bc a5 cf 29 bc b4 0a b3 3c
       0.0042126914 -0.015417387 -0.010364448 0.02185569
000330 6d 78 55 3b 04 89 50 3c 88 25 58 3c e0 c4 91 3c
       0.0032573 0.01272798 0.013192542 0.017794073
000340 1c 1c b7 3b 64 c9 87 bc bd 7e 0f bd f4 36 be 3a
       0.0055880677 -0.016575523 -0.035032976 0.0014512227
000350 c3 fa ad bb f5 be 4b 38 fb cc 75 bc 47 ff ab bc
       -0.005309434 4.8576814e-05 -0.015002484 -0.02099575
000360 48 d7 c4 ba 76 72 4c 3c 2e b1 79 bc ca e9 b7 bb
       -0.0015017772 0.0124784615 -0.015239997 -0.0056125866
000370 19 f2 70 3c 55 74 91 bb d5 66 e4 bc ba 50 cd bc
       0.014706158 -0.0044389167 -0.027881065 -0.025062907
000380 82 c2 ae 3b 23 65 08 3c 51 ba 2c bb 8c b3 cd 3a
       0.0053332457 0.008324894 -0.002635617 0.0015693768
000390 6b 64 8e ba 77 e3 b7 3c 98 42 9d bc 1b 02 98 bc
       -0.0010863667 0.02244733 -0.019196793 -0.018555691
0003a0 58 90 3e bc ab 34 34 bc bc 85 90 3c 79 14 93 bc
       -0.011631094 -0.010998885 0.017641895 -0.017954098
0003b0 b2 ea 57 3c 3a 20 51 3c 8e 77 9d bc 0d 7b 94 bc
       0.013178514 0.012764031 -0.019222047 -0.018125081
0003c0 31 1e 51 bc cc 60 3c 37 39 b7 ae bc 76 6b 94 3b
       -0.012763546 1.12282105e-05 -0.021327602 0.004529412
0003d0 44 2f 43 3c 67 45 cd bb 94 08 cb bc bc 7f 87 bc
       0.0119131245 -0.006264377 -0.024784364 -0.0165404
0003e0 60 56 a0 39 aa 4f 63 3b 00 23 42 3c 9d 8d 98 3c
       0.00030581933 0.0034684935 0.011849165 0.018622214
0003f0 b1 6c ee 3b c2 2e ab bc 24 26 9d bc 80 77 60 bb
       0.0072761406 -0.02089632 -0.019183226 -0.0034250915

layer3.fc1.bias f4 [120]
000000 a8 74 11 3c a8 5a cc 3b d8 2b 85 bc eb 70 a2 bc
       0.008877911 0.006236393 -0.016256258 -0.019829234
000010 12 2c 1d bc a1 91 13 3c a3 87 5c bb a2 fd 87 3b
       -0.009593027 0.009006889 -0.0033650182 0.0041501084
000020 1d 63 61 bc eb 12 c5 3c 75 35 85 3b de 9e 2c bc
       -0.013756541 0.024056872 0.0040652105 -0.010535924
000030 fe a7 ca bc e1 74 21 bc 8e c6 aa bc 9a 0a 73 bb
       -0.024738308 -0.009854526 -0.020846631 -0.0037085176
000040 4e 0c 94 bc b8 9c af ba b6 b1 00 3c e7 64 28 ba
       -0.018072274 -0.0013398146 0.00785487 -0.0006423727
000050 05 9a aa bb 4d 55 8e bb 38 1f b2 3b e7 b1 0c bc
       -0.005206349 -0.0043436647 0.0054358505 -0.008587337
000060 01 38 1c bc 17 fb a7 ba 51 8f 07 3c 95 53 68 3c
       -0.009534837 -0.001281592 0.008273915 0.014180084
000070 c5 f1 95 3b 48 fd ea 3b 3a eb 81 3b f4 ae cc bc
       0.0045759403 0.0071713068 0.003964809 -0.024985768
000080 bb 79 31 3b 8c b4 93 bc 6d 0b 7e 3c 91 0e c6 3c
       0.0027080614 -0.018030427 0.015505654 0.024176868
000090 4e 1a 33 bd 19 d2 44 bc 2b 90 5f 3c 58 f3 28 bc
       -0.043726258 -0.012012982 0.013645212 -0.010311924
0000a0 30 9e 89 3a f0 6b 88 bc 1c af b5 bc e9 25 31 3d
       0.0010499414 -0.016653031 -0.022178225 0.043249045
0000b0 78 f6 6e bc c2 c1 dc 3b e2 91 c0 3b 33 46 11 bd
       -0.01458513 0.006736965 0.0058767656 -0.035467338
0000c0 aa a0 8d 3c 33 3d 01 bb 66 a2 4d 3c c8 ad 69 bb
       0.017288525 -0.0019720315 0.012550926 -0.003565656
0000d0 8f d2 e7 3b 67 f6 2c bc f6 c9 87 3c db 4e 9e bc
       0.007074661 -0.010556794 0.016575795 -0.01932471
0000e0 71 d8 30 bc d7 07 07 bc 2e 56 08 3c db 39 cf bb
       -0.010793791 -0.008241615 0.008321328 -0.0063240356
0000f0 2d c4 dd 3c 15 25 7b bc 27 48 19 bd 20 76 9e 3d
       0.027071083 -0.015328665 -0.037422325 0.07737374
000100 37 f7 35 be 3e b5 ac bb 40 b4 40 bb 8e d4 98 3c
       -0.17770086 -0.005270629 -0.0029404312 0.018656041
000110 79 a6 ae bc bf 5a e3 bc f2 cd 98 bc 17 c9 12 bc
       -0.021319615 -0.027753232 -0.01865289 -0.008959076
000120 62 f9 9e bb 93 3a 45 bc cd 30 5f bb 91 1a 18 bc
       -0.004851506 -0.012037891 -0.0034056187 -0.009283678
000130 f8 bd 87 3a 8a a5 0c 3c 87 16 05 bb 83 33 cc bb
       0.0010356298 0.008584389 -0.0020307617 -0.0062317266
000140 6f 48 5c bc 7a 0b 98 3c 31 5b 1c b9 f8 04 42 3c
       -0.013445004 0.01856016 -0.00014911291 0.011842005
000150 1a b1 1f 3c d4 30 ef bc 79 e2 79 bb 06 6c 67 3a
       0.009746814 -0.029198088 -0.0038129373 0.00088280474
000160 e0 42 6b bb 1c 39 ca bb fe 4a 88 bc 9b e1 9a bc
       -0.0035898015 -0.0061713587 -0.016637322 -0.018906405
000170 d7 4c d6 bc 8d 2c 2c bc c8 29 01 3b 5d 6b 3e 3c
       -0.026159687 -0.010508669 0.0019708741 0.011622277
000180 72 84 b7 bb 42 69 64 3c e1 4d 52 3b 6a b1 68 bd
       -0.0056005055 0.013941111 0.0032089876 -0.05680982
000190 6e 05 d0 3a 0e 2e ad 3c 20 3b 99 3a d6 c7 86 bc
       0.0015870759 0.021140125 0.0011690594 -0.016452711
0001a0 e0 b1 7a bc 69 2d 96 3b c5 69 cf 3b 37 0d 2f 3c
       -0.015301198 0.00458305 0.0063297474 0.010684303
0001b0 a4 a1 15 3c c2 1d 87 3a 57 00 f2 bb ec e2 9e bc
       0.009132776 0.0010308551 -0.0073852944 -0.019395314
0001c0 d3 50 88 3e a0 93 1f ba 58 51 04 3a 2c 2d e6 3c
       0.26624164 -0.00060873665 0.00050475216 0.028097712
0001d0 83 9d b0 3b 41 f5 0c 3c 71 55 34 bc 71 44 ce 3d
       0.0053898706 0.008603395 -0.011006699 0.10071648

layer3.fc2.weight f4 [84, 120]
000000 b0 e9 f7 3b f7 50 51 bc 21 9e cb bb 08 41 fa bb
       0.0075656995 -0.012775651 -0.006213919 -0.007637147
000010 2e 94 65 3c 9a 57 82 bb b6 2a 30 3c cb 62 13 3c
       0.01401238 -0.003977728 0.010752371 0.008995722
000020 0b 34 b6 3b 3d f4 3f 3c 86 4c 50 ba 66 1f 2c bc
       0.005560403 0.011715946 -0.0007945973 -0.010505533
000030 cc 6d d3 39 29 7c 71 bc 4e c6 2c 3a f5 e4 50 b9
       0.0004032686 -0.014739075 0.0006590829 -0.00019921719
000040 ac 1e 07 bb 0a 89 a9 3b 5e 65 23 3b 71 01 24 bc
       -0.0020617647 0.005173807 0.0024932246 -0.010010109
000050 a2 78 11 3b a2 3e 65 bc d7 8e 5a bc 52 b3 ea 3b
       0.0022197147 -0.013991984 -0.01333972 0.00716249
000060 8b 65 76 bb 6a 49 9f ba ad a4 af bb b3 d6 08 3c
       -0.0037597145 -0.0012152616 -0.005360207 0.0083519695
000070 4e be 91 bb cb 58 78 3b dd e4 64 3c 4b 90 e5 ba
       -0.004447735 0.0037894722 0.013970581 -0.0017514316
000080 ac 1e 9c 3a 0c 60 f6 bb 97 31 31 ba 8a 01 2e bb
       0.0011910996 -0.007518774 -0.00067594036 -0.002655121
000090 40 d6 c5 3b 6e 3e eb 38 f6 1d 70 3c 1e 3b 26 3c
       0.0060375035 0.00011217302 0.014655581 0.010145931
0000a0 fd af 09 bc 98 85 10 ba 25 38 aa bb bb 3a 43 3b
       -0.008403775 -0.0005513071 -0.005194681 0.0029789645
0000b0 08 9b ab bb 84 d3 c7 3a 99 b7 e3 bb 2b e3 06 bc
       -0.005236987 0.0015245532 -0.006949377 -0.008232872
0000c0 8a 6f 5a 3c 54 92 7c 3b 62 7c 04 3a 14 df be bb
       0.013332257 0.0038539367 0.0005053935 -0.005824933
0000d0 f7 59 16 bb af 64 d6 3b eb fc 19 bc 44 c6 43 bb
       -0.0022941807 0.006542764 -0.009398679 -0.0029872814
0000e0 db 09 86 3b 39 e6 c6 3a 70 2d b4 bb 3d d8 dc 3a
       0.0040905303 0.0015174813 -0.0054985806 0.0016849112
0000f0 a8 2a ff 3b c4 fe 98 bb d0 43 6f bb ff b7 ab 3a
       0.0077870674 -0.0046690423 -0.0036508925 0.00131011
000100 e0 70 b1 bb 8e 6b c4 3b 99 a0 47 bc 0c 17 f8 bb
       -0.005415067 0.005994267 -0.012184286 -0.007571107
000110 cf 34 e0 bb ac cd 09 3b 32 53 b6 3b 9d e7 7d ba
       -0.006842233 0.002102713 0.005564117 -0.0009685697
000120 eb 9e d1 3b b2 bd e8 39 06 d9 fb ba 5e e0 1b bb
       0.0063971183 0.00044391822 -0.0019214458 -0.0023784856
000130 c5 7e 66 bb 89 df f4 3a 1e 43 a6 bb 4f 8c 23 bc
       -0.0035170775 0.0018682341 -0.005073919 -0.009982183
000140 98 ec 0b bc 92 2f 1d bb 70 48 20 3c 39 a5 04 3b
       -0.008540295 -0.0023984653 0.009782895 0.0020240082
000150 98 95 de ba e2 a8 3f ba 5d 51 dd bb 06 ef 6a bb
       -0.0016981838 -0.0007311237 -0.006754084 -0.0035848035
000160 a6 cf 0f bc af fc 2b 3c f6 e2 a8 3c 7b ca 0d ba
       -0.008777535 0.010497256 0.020616036 -0.0005408895
000170 6a e8 50 ba 39 00 73 3a 6b ef 2f 3c 42 b1 95 bb
       -0.00079692027 0.00092697475 0.010738234 -0.00456825
000180 58 4c 91 b7 71 5f 25 3a ef 20 93 bb f0 1b 8c 3b
       -1.7320897e-05 0.00063084724 -0.00449001 0.0042757913
000190 af e5 9a bb 39 61 bc bb 58 64 06 bb 89 67 dc bb
       -0.0047270874 -0.0057488945 -0.0020506587 -0.0067262095
0001a0 f4 3d 82 3b d3 d0 b8 3a f8 7d 88 3b d0 f1 fb b9
       0.0039746705 0.001410032 0.0041654073 -0.00048054615
0001b0 5b 05 04 39 a9 4e 0a 3b 2f da 99 bb c0 e7 1d bb
       0.00012590496 0.0021104014 -0.004695199 -0.0024094433
0001c0 a1 8e 9c 39 88 7b ef bb ad bc 02 3c 66 01 f4 3b
       0.00029860905 -0.0073084272 0.007979554 0.007446456
0001d0 21 f1 6b 3a 12 5b 9e 3b 3e 25 04 bc f9 85 42 3b
       0.00090004696 0.004832634 -0.00806552 0.0029681905
0001e0 ce a7 d9 3b 93 e1 f4 bb ae 05 42 3c 73 32 d1 bb
       0.0066423183 -0.0074731796 0.011842174 -0.006384188
0001f0 24 46 33 3a 19 de bd bc 8f 03 f8 3a 10 d1 31 bc
       0.000683876 -0.023177193 0.0018921959 -0.010853067
000200 72 c0 6d bb f7 b3 d3 3b 3d f8 19 bb d6 78 55 bc
       -0.0036278036 0.0064606625 -0.0023493909 -0.013029298
000210 c9 e5 9c 3b 9e 68 5b bc 33 1d 3c 3c da 1c 25 3c
       0.0047881347 -0.013391642 0.011481571 0.0100776795
000220 b2 f5 a6 bc cb 69 f8 bb 6f 0f 41 bc 69 6c 59 bb
       -0.020380829 -0.007580971 -0.011783465 -0.003317619
000230 52 97 08 3b b3 2d ca bb 18 83 46 ba 55 71 8a bb
       0.0020842147 -0.0061699986 -0.0007572635 -0.004224936
000240 95 4a 3b 3b 98 b4 1d 3a a3 f6 16 bb f7 ac f7 3b
       0.002857839 0.0006015985 -0.002303519 0.007558461
000250 08 47 af bb ff 45 38 bc 62 4f 51 3b fd a4 9f bb
       -0.0053490438 -0.011247157 0.0031938185 -0.004871963
000260 42 4e c5 3a 6f 5b ca bb 23 d3 5a 3b 94 42 30 3c
       0.001505323 -0.0061754505 0.0033390007 0.010758061
000270 6c c4 8a 3a d4 d4 43 3c 68 3a 44 3c ae 93 b3 bb
       0.0010587103 0.011952598 0.011976816 -0.0054802513
000280 a5 a8 5e bc 57 59 98 3b 0b 3b 6d bb 5c 4e 44 3c
       -0.013590013 0.004649322 -0.0036198522 0.011981573
000290 1b f6 ba ba d4 5c 8c 3a 9d 0f 8c 3b e3 30 2e bc
       -0.0014264019 0.0010708817 0.004274322 -0.010631773
0002a0 7c 80 18 3c a9 a2 47 bc 87 05 00 3b 43 e9 83 3c
       0.009307977 -0.012184777 0.0019534545 0.016102439
0002b0 7f 2f 33 3c c9 29 b7 3b c8 32 88 37 92 67 b2 bc
       0.010936617 0.005589698 1.623611e-05 -0.021777902
0002c0 03 8f 3c bc f1 dd e6 bb dc da 3b bc c4 1e 92 bb
       -0.011508706 -0.0070455004 -0.011465754 -0.004459234
0002d0 4f c2 c3 b9 de 05 e2 b9 ae 96 10 3c 6f a0 42 3a
       -0.0003733807 -0.0004311045 0.008824987 0.0007424419
0002e0 da 12 41 3b 44 c0 5d bc 25 35 dd 3b ba 41 df bb
       0.00294607 -0.013534609 0.00675072 -0.006813255
0002f0 32 a8 4a 3c 3e 22 a1 bc e4 b5 8a bb 7c d0 5f bc
       0.012369202 -0.019669648 -0.004233109 -0.013660546
000300 24 3a 6b ba fe 19 43 3c a8 fc f2 3b 2c c2 81 bb
       -0.0008973202 0.0119080525 0.007415373 -0.0039599147
000310 36 b4 49 bb 77 76 bc 3c a5 28 2f 3b 13 92 7c bc
       -0.003077758 0.023005707 0.0026727107 -0.015415686
000320 c4 cf 7c bc a1 31 66 bb 24 c4 02 3c 98 54 44 38
       -0.015430395 -0.0035124796 0.007981334 4.6808826e-05
000330 d2 46 0a 3c c2 df 6b 3a e9 4f 48 bc e9 68 89 bb
       0.008439736 0.0008997881 -0.012226083 -0.0041934145
000340 79 21 dc ba 63 16 ee 3b b5 87 2c 3a d3 18 ca bb
       -0.0016794644 0.0072658523 0.0006581501 -0.00616751
000350 43 81 71 3a db 26 19 3b 13 94 20 3c 9f 0e e3 bb
       0.0009212682 0.0023369107 0.009800929 -0.006929233
000360 9d 05 3f 3a 1f a8 90 3c 9a b6 53 bb c6 a3 a6 bc
       0.0007286908 0.017658291 -0.0032304884 -0.020341765
000370 d1 65 81 bb 04 d2 d9 3b b9 86 aa 3b 15 73 58 3c
       -0.003948905 0.0066473503 0.0052040485 0.013211031
000380 af 8e 28 3c e0 e8 7a bc 06 8b 97 39 43 57 f2 3b
       0.010287925 -0.015314311 0.00028904545 0.0073956563
000390 6a 84 72 3c 62 d9 cc bc 82 01 36 bc b6 0f 9a 3c
       0.014802078 -0.025006 -0.011108758 0.01880632
0003a0 2c 0b ed bb ef 50 d2 3b f1 07 1b 3c 14 a4 6c 3c
       -0.007233998 0.0064183394 0.009462343 0.014443416
0003b0 c1 1c 7a bc 09 bc 2b bc 5a 0f 09 bc 12 3e 79 bc
       -0.0152656445 -0.010481843 -0.0083654765 -0.015212553
0003c0 54 5e 40 bb f9 9d 86 bb 14 bb 20 3b 2b c1 bc 3b
       -0.00293531 -0.0041081873 0.002452557 0.005760332
0003d0 fc 71 75 38 0b 7b 2d bc 62 c1 c4 3b 6b 91 30 bc
       5.8518708e-05 -0.010588418 0.0060044983 -0.010776858
0003e0 bd b1 82 3a f2 27 38 3b 9f 32 5a bb ef c7 06 bb
       0.0009971183 0.002809998 -0.0033294333 -0.0020565947
0003f0 4e 80 fb 3b 69 be 20 bb f2 39 f9 3b fb 01 88 3b
       0.007675207 -0.0024527556 0.0076057846 0.0041506267

layer3.fc2.bias f4 [84]
000000 3c 09 a4 bb 1f dc ae 3a 52 e6 54 3b 2b f6 63 3c
       -0.0050059836 0.0013340748 0.0032485914 0.0139136715
000010 8a ca 0e 3c 26 6f b6 3b 08 d5 9e 3a 2b b4 0c 3c
       0.008715281 0.005567449 0.0012117932 0.008587877
000020 1a 89 4b bb c2 a2 b4 3b c8 a8 16 3e 7d c3 d0 bb
       -0.003105706 0.0055125663 0.14712822 -0.0063709603
000030 6e 6c 4c 3c 2f 14 31 3c a6 fe 7d bc 2f c5 56 ba
       0.0124770235 0.010808035 -0.015502607 -0.0008192835
000040 d3 da ba bb 9f 89 db b8 ef b6 4c 3c 16 a7 e7 bb
       -0.0057023554 -0.00010468368 0.012494787 -0.0070694787
000050 60 cd 4d bc 30 7a a0 bb 49 e1 8e bb 77 f6 23 bc
       -0.012561172 -0.0048973784 -0.004360352 -0.010007492
000060 67 30 0f 3c 52 1a 2b bd 45 6f 40 3c ed 22 17 bd
       0.008739567 -0.041773148 0.011745279 -0.036898542
000070 6e d1 a7 bb bf 99 87 bc 57 ec 1c bc 46 47 12 3c
       -0.0051214015 -0.016552804 -0.009577832 0.008928126
000080 54 7a bb 3a 56 24 1e 3c ca bc 14 bc f5 f5 9a 3c
       0.0014303424 0.009652218 -0.009078214 0.01891611
000090 2e 68 1b 3c 65 50 be 3b d4 fa 1b 3a df e5 14 3b
       0.009485288 0.0058079236 0.0005950157 0.0022720022
0000a0 6f b9 0d 39 5b e9 54 3e 7d e6 58 3b 20 99 8d ba
       0.00013515887 0.20792143 0.0033096366 -0.0010803081
0000b0 ef b5 7b 3c 5d 8e 97 3c 5c 2f c3 3b ac a0 6e 3c
       0.015363201 0.018500501 0.0059565734 0.014564674
0000c0 b1 ef bb bb 05 07 66 bc 05 da 05 bb 5a 2a 6f 3e
       -0.0057353606 -0.0140397595 -0.002042414 0.23356
0000d0 bc 78 27 bb a6 be ba 3b 7b a6 56 3c 2f 69 89 3b
       -0.002555414 0.0056989966 0.0131012155 0.004193447
0000e0 5b c0 35 3c 98 56 3d 3b 2a 80 bc bb 90 90 d8 3b
       0.011093224 0.0028890725 -0.005752583 0.00660903
0000f0 4c d4 72 3c c1 a7 0c 3c d7 27 1a 3c a9 f2 eb 3a
       0.014821123 0.0085849175 0.009408913 0.0018001396
000100 54 a0 2d 3c dd 09 5f bc bc fb 8a 3a 1c 55 cb 3b
       0.010597307 -0.013613191 0.0010603587 0.006205214
000110 63 32 3c bb f9 8c 5c bc 8c 23 9d 3d 74 e9 16 bc
       -0.0028716556 -0.013461345 0.07672796 -0.009210933
000120 a6 dc 1a bc dc aa ce bb e1 23 09 3c b1 e0 2c 3c
       -0.009452021 -0.006306989 0.008370371 0.0105516175
000130 c0 56 49 3c 9a f7 98 bb bd 6c d0 3b 32 03 21 bd
       0.012288749 -0.0046681883 0.006360619 -0.039309688
000140 50 e1 c1 3b c1 1d ce bb c5 dd bb 3b ce c8 5d 3a
       0.005916752 -0.006290168 0.005733224 0.0008460403

layer3.fc3.weight f4 [10, 84]
000000 af 25 89 3b b9 21 c6 b9 51 ee 0b bb 42 f5 00 ba
       0.0041854004 -0.00037790628 -0.0021351764 -0.0004919359
000010 ef 1b 17 3b 29 0f 6a 3a b6 5a 89 3b 68 85 b4 ba
       0.0023057421 0.00089286506 0.004191722 -0.0013772668
000020 1e a3 88 bb b6 ef 87 bb 36 5a 10 be 96 6d e2 3b
       -0.0041698357 -0.004148449 -0.14096913 0.0069100363
000030 d7 53 58 bb d7 1b a5 3a 76 f2 2c bb 1e 45 16 3b
       -0.0033008957 0.0012596798 -0.0026389635 0.002292938
000040 f5 18 f2 3b 64 a8 1f bb f5 5e 9e 3b 61 5f 30 bb
       0.007388229 -0.0024361843 0.004833097 -0.002691232
000050 4a d7 db 38 f8 23 0d 39 da 07 87 3b c8 f7 8f bb
       0.000104828345 0.00013460207 0.004120809 -0.0043935515
000060 bf 91 d5 3b 4d b8 b6 3b c1 15 84 3b a9 c0 b2 3d
       0.0065176184 0.0055761696 0.0040309136 0.08728153
000070 91 e9 ab 3b ed 89 20 bb 5c 53 ad 3a a9 d8 74 3b
       0.005246349 -0.0024496273 0.0013223696 0.0037360585
000080 cc d4 67 bb 19 f8 38 3b 84 29 d1 ba 5c 72 52 b8
       -0.003537464 0.002822405 -0.0015957807 -5.0174407e-05
000090 57 1c d0 3b 39 3e 1e bb 29 75 94 38 4b ac a1 3a
       0.0063510346 -0.0024145974 7.079013e-05 0.0012334673
0000a0 43 9d 0b bc f6 ef e6 3b e2 41 a4 3b b2 42 60 bb
       -0.008521381 0.0070476485 0.0050127367 -0.003421944
0000b0 91 61 3d 3a a6 13 94 b9 ad 70 94 3c 7a 43 c5 3b
       0.00072243164 -0.000282434 0.018120134 0.0060200067
0000c0 ef 41 32 bc 03 43 c1 bb 24 fe a5 3b ec 16 dd 3a
       -0.010879978 -0.005897881 0.0050656963 0.0016867793
0000d0 e3 63 13 bb 2e f0 77 bb 58 57 27 3b 5d 1a d1 3b
       -0.0022489957 -0.0037832367 0.0025534239 0.0063813166
0000e0 f1 31 f8 3a 4e 50 7c be 69 32 8c 3b 59 71 db 3a
       0.0018935782 -0.24640009 0.0042784703 0.0016742154
0000f0 fa ef bb 39 e9 18 a4 3b d5 07 aa 3b c7 e4 e4 b8
       0.00035846216 0.0050078523 0.005188922 -0.000109145
000100 a9 cf 04 bb e1 5d ef 3a e3 41 55 bb 0e 8b 14 bb
       -0.0020265377 0.0018262231 -0.0032540492 -0.002266589
000110 e1 4d 82 bb a4 3d bc bb 1b 8f c3 bd 1f 74 49 3b
       -0.003976569 -0.005744653 -0.095487796 0.003073938
000120 0d ec ad ba 8b 4c 50 bb 1e ef 40 ba 03 c0 af bb
       -0.0013269201 -0.0031783904 -0.000735985 -0.0053634658
000130 f1 5d 0a 38 52 50 c9 bb 4a 69 a2 3b 86 33 04 3e
       3.2989254e-05 -0.006143608 0.004956399 0.1291028
000140 c9 9f 89 bb 06 4d e5 3a fb 59 70 bb 67 23 19 bc
       -0.004199956 0.0017494268 -0.0036674726 -0.0093468195
000150 a5 ca 62 3a 23 79 f4 3a 03 0b 8e 3a 9d 20 40 ba
       0.0008651412 0.0018651824 0.0010837022 -0.00073290785
000160 6b 95 26 bb 06 24 2e 3a 31 6c 16 bc e1 db fc b9
       -0.002541865 0.0006642941 -0.009181068 -0.00048229008
000170 05 b2 11 3b 9f 56 ef 3a 87 28 af bc 35 13 ad b9
       0.0022231352 0.0018260068 -0.02138163 -0.00033011442
000180 81 93 c1 ba d5 b9 30 bb b7 5c bc 3b ef 22 a7 ba
       -0.0014768691 -0.0026966233 0.005748357 -0.00127515
000190 65 6f 3e bb 4e c6 a6 3a 26 16 ea ba a9 16 04 3c
       -0.0029058096 0.0012723894 -0.0017859384 0.008062043
0001a0 ad bc d3 3a ba e1 e3 3a e5 6d 35 ba 23 28 40 3b
       0.0016154252 0.0017385997 -0.00069209776 0.0029320798
0001b0 65 ed 64 3a 1e 09 56 3e 3c 85 3f bb 73 be 0a bd
       0.00087328843 0.20901915 -0.00292237 -0.033873033
0001c0 91 74 3c bb 15 10 90 bb b8 d1 ed bb 6d 01 13 ba
       -0.0028756002 -0.0043964484 -0.0072576664 -0.00056078174
0001d0 29 21 8e 3a 67 4e d4 bb 09 c8 2f 3b bc 35 5d bb
       0.0010843623 -0.006479073 0.002682211 -0.0033753952
0001e0 40 6e 38 bb 50 93 92 3a 24 b7 91 3a e0 90 88 38
       -0.0028141886 0.0011182819 0.0011117202 6.5119704e-05
0001f0 6f d7 1e 3c ea ef 1f be 6a 40 d2 3a 27 9b 89 b9
       0.009694918 -0.15618864 0.0016040925 -0.00026246274
000200 b6 80 3a 3b 96 79 af ba 74 17 a7 3d e9 7e 8f bb
       0.0028458065 -0.0013387676 0.0815877 -0.0043791425
000210 a2 9e 1c 3c 15 05 32 3a 9d 6c 20 3a a6 8d a1 be
       0.009559305 0.00067909184 0.00061197 -0.31553382
000220 51 54 c0 b9 e1 c6 bc 3a 96 9f 4a bb c4 e9 bb ba
       -0.00036683914 0.0014402532 -0.0030917875 -0.0014336635
000230 4e 8c f1 ba 0c 3d b3 3c b5 bd 62 ba e2 25 11 3a
       -0.0018428655 0.021879695 -0.00086494844 0.0005536956
000240 69 36 0a 3c b7 bd 13 bb 88 91 8d bb b8 97 48 3b
       0.008435824 -0.0022543499 -0.004320327 0.003060801
000250 ba 79 80 bb 3e 43 d5 b9 bd 66 6f 3b 56 96 9c 3a
       -0.003920761 -0.00040676625 0.0036529743 0.0011946659
000260 d4 47 7e 3b 86 39 6c 3b 86 7d 85 bd f9 9f 6b ba
       0.0038800137 0.0036045029 -0.06518082 -0.00089883764
000270 14 24 dd b9 d3 66 e1 3a fe 36 a0 ba 28 0f 05 3c
       -0.00042179285 0.0017196782 -0.001222342 0.008121289
000280 c0 41 f0 ba 82 87 d0 3b 92 f9 76 b8 e4 c1 b6 bd
       -0.0018330142 0.00636381 -5.88834e-05 -0.089237005
000290 54 1b 45 3a d9 c5 81 3b 1d a9 be ba 7e cf 82 3b
       0.0007519026 0.003960353 -0.0014546249 0.00399202
0002a0 7b 87 e8 ba 5c fd 87 3a d9 7c fc ba 22 eb 0b bc
       -0.0017740572 0.001037519 -0.0019263282 -0.008539947
0002b0 38 f8 e8 bb 12 96 0c bb f1 58 de bb 52 e9 95 b9
       -0.007109668 -0.0021451754 -0.006785505 -0.00028593332
0002c0 fe 7b fc 3a 49 d1 b0 3b 8c 37 a8 bd fb ec 86 bb
       0.0019263027 0.0053960425 -0.0821372 -0.0041176057
0002d0 df 6b 3e 3b 86 22 ef bb 5e dc fb 3b 38 fc 07 3b
       0.0029055995 -0.0072978167 0.007686182 0.00207497
0002e0 7d 03 ec bb 0f 3e cc 3b c2 2c a5 bb 78 ea b6 3b
       -0.0072025643 0.006232984 -0.005040736 0.00558215
0002f0 6f 3c 11 bb ea d5 3c 3a 8f 26 b2 3a 2f 14 bf 3b
       -0.0022161265 0.00072035065 0.0013591814 0.0058312635
000300 55 c4 11 bc cf 99 7c bd e9 2a 06 bc d7 be 17 3e
       -0.008896907 -0.06167012 -0.0081889415 0.14818893
000310 e8 9d e3 bb 43 52 a7 3b de d7 04 ba 5d a0 09 bc
       -0.006946314 0.005106242 -0.0005067567 -0.00840005
000320 88 01 25 3b dc ac 97 ba 2d c1 65 3b bd 9d 82 bb
       0.0025177915 -0.0011571902 0.0035057769 -0.003986089
000330 78 f3 3a bc 10 3d 52 3b af 29 d8 b9 01 1a fe bb
       -0.011410587 0.0032079853 -0.00041229787 -0.0077545648
000340 13 84 f8 3b 59 14 f9 3d ad a8 0a bc 76 9c d2 3b
       0.007584104 0.12162084 -0.008463067 0.006427343
000350 9f a7 c3 bb 9c cf ce b9 da aa 16 3d 7d 2d d9 bb
       -0.0059709097 -0.00039446063 0.03678403 -0.006627737
000360 76 e7 e7 3b e3 9e d5 3b c4 27 d9 bb 27 93 25 3e
       0.007077153 0.006519185 -0.006627055 0.16169415
000370 ed a9 19 3c 4d 0f fd 3b a5 b7 8f b9 1d d7 e9 bb
       0.009378892 0.0077227713 -0.0002741191 -0.007136239
000380 81 45 4c bb 4f 82 09 3d 04 e3 28 3b 0c f0 c4 bb
       -0.0031169357 0.033571538 0.0025770077 -0.006010061
000390 e5 25 b6 bb 77 0d 31 bc d2 01 09 bc 54 4f 91 bb
       -0.0055587166 -0.010806433 -0.00836225 -0.0044345055
0003a0 75 30 21 3b e4 b1 4f 38 f1 14 28 3b 23 92 e0 3b
       0.0024595533 4.951832e-05 0.0025647248 0.0068533584
0003b0 cd ea 3e b9 73 0e d8 3b 21 85 df bc e0 51 ef 39
       -0.00018207282 0.0065935194 -0.02728516 0.00045646634
0003c0 1a 74 a0 3b f5 cb 35 3c 3d ec c7 39 a2 a9 c6 ba
       0.004896653 0.01109599 0.0003813225 -0.0015156756
0003d0 53 89 ae 3a f7 1c c4 3b ad 5c ba bb a4 0b 25 be
       0.0013316072 0.005984898 -0.0056873173 -0.16117722
0003e0 e9 0b 3e ba 0f 6a 2a ba e5 b0 14 bb 76 80 bb 3b
       -0.00072496996 -0.00065007893 -0.0022688445 0.005722101
0003f0 05 a0 f6 3b 1e d1 14 3b 77 d0 66 3b 36 e8 b4 bb
       0.0075264 0.0022707651 0.003521947 -0.0055208458

layer3.fc3.bias f4 [10]
000000 79 9e 13 bd 86 cc 03 bf 75 7b d3 3e 52 6b 1e 3f
       -0.036039803 -0.51483953 0.41305128 0.6188251
000010 33 ec 91 3e b4 d3 43 3d 5f a8 15 be 73 a6 6e be
       0.28500518 0.047809318 -0.1461501 -0.23305683
000020 1a a5 cd be dc 93 e3 bd
       -0.40165025 -0.11112186
