output/models_cifar10_10.pth (torch_old, 248636 bytes, 10 tensors)

layer1.conv1.weight f4 [6, 1, 5, 5]
-0.007284464 -0.17082974 0.0014101594 -0.12532493 -0.09901329 0.31033117 -0.1885859 0.4409765
-0.0696722 0.22889774 0.12304842 -0.6870431 0.47923756 -0.39903533 -0.066924825 0.4731112
-0.7873509 0.8575592 -0.40603143 0.17377849 0.2568211 -0.6839037 0.5589789 -0.21048933
-0.0411031 0.012150201 -0.067731775 -0.028529443 0.10574206 -0.02385994 0.05956538 0.2158429
-0.6796794 0.18245746 0.23560351 -0.083628155 0.39768478 0.49646842 -1.260973 0.38305664
0.08120998 -0.5831373 0.8542997 0.18750806 -0.50128084 -0.015383851 0.0925276 -0.44596907
0.45528644 -0.08739702 -0.044495955 -0.045916848 -0.07203327 0.13649295 0.06867166 -0.08704625
-0.041915063 0.19715746 0.071531326 -0.06622045 -0.34604263 0.013096614 0.26952487 -0.08481726
-0.038597535 -0.3843342 0.32449186 0.21881883 -0.0124280695 -0.0042108526 -0.5479732 0.38720652
-0.027447931 0.056987826 -0.098114945 -0.113216534 -0.35681254 -0.19754153 -0.02522954 0.06126299
0.30071944 0.82400185 0.5892366 0.13708827 0.069423534 -0.13545136 -0.46764812 -0.3332926
-0.010262356 -0.12746722 0.13144097 0.008481957 -0.07869045 0.084563404 0.21272276 -0.07253141
-0.04486971 -0.021517385 -0.13866436 -0.07485185 -0.11511079 0.0455394 -0.013399329 0.13704002
-0.09705826 0.028084867 0.10604791 0.068643205 -0.1538715 0.13139403 -0.29960436 -0.43330675
-0.14200872 0.02395241 -0.314717 0.25469053 0.24851218 -0.1721051 -0.12072869 0.19997026
-0.08626469 0.039570656 0.18425204 0.044815324 -0.1221673 0.051343534 -0.29258576 0.3620999
0.019407498 -0.10891416 -0.10204815 0.33701718 0.5783282 -0.84093463 0.03144323 0.07350361
0.54161435 -1.2690818 0.08363907 0.39781612 -0.011275708 -0.3004253 -0.07308333 0.7236654
-0.30874592 0.1521851 -0.12393275 0.20336165 -0.21769324 0.038571972
00000000: 83b2 eebb feed 2ebe 19d5 b83a 2e55 00be
00000010: 7bc7 cabd bae3 9e3e aa1c 41be acc7 e13e
00000020: 4cb0 8ebd 2b64 6a3e cf00 fc3d 0ee2 2fbf
00000030: a05e f53e 5c4e ccbe e20f 89bd a23b f23e
00000040: d48f 49bf 0089 5b3f 5ae3 cfbe fdf2 313e
00000050: 0e7e 833e 5014 2fbf 3e19 0f3f 848a 57be
00000060: b95b 28bd a311 473c f5b6 8abd 94b6 e9bc
00000070: 4b8f d83d ec75 c3bc d4fa 733d ec05 5d3e
00000080: 78ff 2dbf 21d6 3a3e 0c42 713e 3d45 abbd
00000090: 579d cb3e 1c31 fe3e 9067 a1bf 0020 c43e
000000a0: 6b51 a63d 7c48 15bf 63b3 5a3f 1d02 403e
000000b0: f153 00bf 8c0c 7cbc 1c7f bd3d 0f56 e4be
000000c0: 4e1b e93e 35fd b2bd 6441 36bd 4e13 3cbd
000000d0: 2e86 93bd cfc4 0b3e baa3 8c3d 4e45 b2bd
000000e0: 21af 2bbd a5e3 493e 047f 923d 969e 87bd
000000f0: 802c b1be 2e93 563c 2aff 893e acb4 adbd
00000100: 7318 1ebd 74c7 c4be cc23 a63e 0b12 603e
00000110: 1a9f 4bbc 31fb 89bb f947 0cbf ef3f c63e
00000120: 7cda e0bc 116c 693d 7df0 c8bd 12de e7bd
00000130: 22b0 b6be 5448 4abe 2eae cebc e7ee 7a3d
00000140: e6f7 993e c9f1 523f 36d8 163f de60 0c3e
00000150: ed2d 8e3d c3b3 0abe 936f efbe 54a5 aabe
00000160: 7123 28bc c486 02be 7698 063e e8f7 0a3c
00000170: 7528 a1bd 942f ad3d ffd3 593e 598b 94bd
00000180: 4dc9 37bd 3a45 b0bc 08fe 0dbe ed4b 99bd
00000190: 35bf ebbd 8687 3a3d dc88 5bbc 3854 0c3e
000001a0: 7bc6 c6bd 3c12 e63c a62f d93d cf94 8c3d
000001b0: 7e90 1dbe 288c 063e be65 99be 62da ddbe
000001c0: bc6a 11be d837 c43c 9622 a1be cc66 823e
000001d0: fa79 7e3e 523c 30be 9a40 f7bd 01c5 4c3e
000001e0: 8bab b0bd d714 223d 91ac 3c3e 4690 373d
000001f0: d932 fabd 994d 523d cdcd 95be 2865 b93e
00000200: 79fc 9e3c 630e dfbd 9ffe d0bd 848d ac3e
00000210: 510d 143f 7e47 57bf 9eca 003d 1089 963d
00000220: 3da7 0a3f 4671 a2bf f64a ab3d 8eae cb3e
00000230: bfbd 38bc 58d1 99be b7ac 95bd 2342 393f
00000240: f213 9ebe 69d6 1b3e 74d0 fdbd 093e 503e
00000250: faea 5ebe a5fd 1d3d

layer1.conv1.bias f4 [6]
-0.36956668 -0.36938915 -0.3314984 -0.31482637 -0.32429677 -0.3871534
00000000: d837 bdbe 9320 bdbe 29ba a9be ec30 a1be
00000010: 3a0a a6be f838 c6be

layer2.conv2.weight f4 [16, 6, 5, 5]
0.0920726 -0.06700395 0.042188875 0.061068427 0.056174967 0.04423714 -0.039399464 0.028206674
0.022961117 -0.01769719 -0.019690355 -0.047554314 -0.004728559 -0.0064061843 0.0636268 -0.015498839
-0.16882555 -0.1617162 0.11652293 -0.1071284 -0.23938386 -0.2962524 -0.59716415 -0.7541192
-0.32723004 0.33660075 0.18230726 0.04542862 0.0673828 0.17833215 0.31301844 0.16422716
0.26594502 0.082542636 0.12702145 0.39801323 0.21469635 0.16477248 0.088512674 0.18978015
0.463984 0.31527424 0.29887223 0.16625129 0.0011496838 0.4119762 0.18832585 -0.07340895
0.0024925927 -0.09924519 0.19578584 0.09690855 -0.0020505204 0.21049821 -0.06274533 -0.025240026
0.17600736 0.02097331 -0.18916564 0.10306142 -0.14175947 -0.0044745468 0.09149641 0.18593879
0.010155215 -0.08580936 -0.1537617 -0.050464995 0.33163175 0.17289376 -0.15927447 -0.05634521
-0.37533066 -0.3725957 -0.019669995 0.2349756 -0.08600121 0.008965856 0.054367207 0.14636911
0.0849841 0.051847447 0.21320465 0.20486483 0.07471138 -0.04340178 0.2930888 0.20902362
0.1456587 0.17316929 -0.23446237 0.25558406 0.2925946 0.17259921 0.08865832 -0.117187954
0.054371186 0.17310832 0.4007666 0.266676 0.21893992 0.09669883 -0.1290949 0.27675655
0.1008924 0.3659029 0.09856171 0.1865482 0.08127149 0.38143435 0.31083503 0.222569
0.089936 0.14008342 0.45724744 0.23122148 -0.01449207 0.47827205 0.33338723 0.15683885
-0.53445375 0.36039805 0.8142343 0.16157691 -0.12780811 -0.024839465 -0.10558057 -0.03706077
0.013597964 0.0065536783 -0.04854206 -0.17503378 0.024652181 -0.022214377 0.063923106 0.06113592
-0.11744119 0.031321023 -0.0007794057 0.042302776 0.060646724 -0.034045883 -0.072360314 0.15808849
0.1366181 0.056902416 0.13450874 -0.013280112 0.15843177 0.18978834 -0.054416507 0.0057136416
0.04974192 0.18925321 -0.16374981 0.20497651 0.08228697 0.09221372 -0.20516041 0.10060755
-0.0077304165 0.34834367 -0.112765566 0.0037923532 -0.087892994 -0.13737182 -0.27008456 -0.0472756
0.018333472 -0.19775327 -0.06049295 0.1520408 -0.13780013 -0.42721027 -0.16843627 0.17251024
0.07317148 0.05516945 0.25647992 0.0011018094 -0.01383638 0.04900826 -0.4506428 0.36127472
0.23092556 -0.28251424 0.05353981 -0.29366544 0.27055484 0.111908175 0.005251442 -0.042567067
-0.36719158 -0.48175094 0.06262511 0.1658002 0.26796848 0.5241636 -0.021191165 -0.28558245
-0.009243161 0.11017903 0.2305009 -0.042020876 0.08540092 0.03545397 -0.35418218 0.011278949
0.27194083 -0.33348337 0.17173174 0.4417674 -0.05771219 0.64390296 0.032241777 0.06918221
0.16634241 0.14349417 0.16305016 0.25539958 0.09288275 -0.21094574 0.036426008 0.011367263
0.36194116 0.11144679 0.13818689 -0.1315912 -0.13332179 0.096575774 0.13440229 0.07696808
-0.34280938 -0.31790176 0.012542804 -0.11126382 -0.047925863 -0.24919212 -0.4069182 -0.15234703
0.21554016 -0.31309852 -0.23057091 -0.40645912 -0.24922603 0.19174837 -0.13168865 -0.08657967
0.17686698 -0.29044276 0.23388791 0.26704323 -0.442189 -0.18204178 0.015175894 -0.1934175
00000000: 8f90 bc3d 5e39 89bd 3ece 2c3d e322 7a3d
00000010: b917 663d 0132 353d 5561 21bd af11 e73c
00000020: f418 bc3c b3f9 90bc ab4d a1bc 50c8 42bd
00000030: 07f2 9abb f8ea d1bb c54e 823d d8ee 7dbc
00000040: 9be0 2cbe ee98 25be 93a3 ee3d 2266 dbbd
00000050: 0b21 75be 65ae 97be c0df 18bf f50d 41bf
00000060: b28a a7be ef56 ac3e c1ae 3a3e 5c13 3a3d
00000070: feff 893d b49c 363e f443 a03e 2a2b 283e
00000080: f229 883e 1d0c a93d e911 023e 64c8 cb3e
00000090: 5cd9 5b3e 1eba 283e 2246 b53d ba55 423e
000000a0: 508f ed3e a06b a13e c805 993e c73d 2a3e
000000b0: fdb0 963a 8bee d23e 7ed8 403e 6e57 96bd
000000c0: c45a 233b 1041 cbbd 157c 483e fd77 c63d
000000d0: 0662 06bb d88c 573e a080 80bd 2cc4 cebc
000000e0: 463b 343e 38d0 ab3c a3b4 41be de11 d33d
000000f0: 6529 11be 389f 92bb 7862 bb3d bd66 3e3e
00000100: 0f62 263c d1bc afbd b573 1dbe 62b4 4ebd
00000110: a3cb a93e 100b 313e d918 23be 3cca 66bd
00000120: 572b c0be ddc4 bebe f822 a1bc 729d 703e
00000130: 6721 b0bd 87e5 123c 26b0 5e3d c9e1 153e
00000140: 250c ae3d fd5d 543d 5252 5a3e 16c8 513e
00000150: 4802 993d 11c6 31bd bc0f 963e 4a0a 563e
00000160: 8e27 153e 4a53 313e e716 70be eadb 823e
00000170: f6ce 953e d9bd 303e 7e92 b53d 3d00 f0bd
00000180: 52b4 5e3d 4f43 313e 4831 cd3e c289 883e
00000190: c931 603e 090a c63d 7431 04be 09b3 8d3e
000001a0: ada0 ce3d a057 bb3e b9da c93d 7e06 3f3e
000001b0: ab71 a63d 5d4b c33e c525 9f3e 21e9 633e
000001c0: 5e30 b83d 0772 0f3e 561c ea3e 53c5 6c3e
000001d0: 2670 6dbc 13e0 f43e bbb1 aa3e 5d9a 203e
000001e0: f6d1 08bf 1886 b83e a971 503f 6b74 253e
000001f0: 21e0 02be 227c cbbc a03a d8bd 09cd 17bd
00000200: ffc9 5e3c 3dc0 d63b 0ad4 46bd 0e3c 33be
00000210: 5ff3 c93c edfa b5bc 1eea 823d a969 7a3d
00000220: 0285 f0bd 794a 003d 0851 4cba ad45 2d3d
00000230: b368 783d b273 0bbd a531 94bd f3e1 213e
00000240: 9de5 0b3e 8212 693d a9bc 093e d494 59bc
00000250: f03b 223e e057 423e d8e3 5ebd 8039 bb3b
00000260: 2fbe 4b3d 98cb 413e 08ae 27be 5de5 513e
00000270: 1286 a83d 8cda bc3d 9215 52be 550b ce3d
00000280: 6f4f fdbb 1a5a b23e a2f1 e6bd 2189 783b
00000290: 3e01 b4bd 33ab 0cbe 8648 8abe 0fa4 41bd
000002a0: 1430 963c d57f 4abe 75c7 77bd 95b0 1b3e
000002b0: 7a1b 0dbe 4ebb dabe 8f7a 2cbe 86a6 303e
000002c0: eeda 953d 5cf9 613d 5651 833e 976a 903a
000002d0: fcb1 62bc e3bc 483d a7ba e6be 00f9 b83e
000002e0: c077 6c3e b5a5 90be 8f4c 5b3d 515b 96be
000002f0: 2a86 8a3e 1d30 e53d 4a14 ac3b ce5a 2ebd
00000300: 8900 bcbe 0fa8 f6be 9841 803d 87c7 293e
00000310: 2a33 893e 962f 063f 1899 adbc dd37 92be
00000320: a170 17bc 8ba5 e13d 6e08 6c3e 151e 2cbd
00000330: ade6 ae3d 2f38 113d 5e57 b5be 57cb 383c
00000340: d43b 8b3e 55be aabe 72da 2f3e 562f e23e
00000350: 9e63 6cbd d3d6 243f f40f 043d 67af 8d3d
00000360: aa55 2a3e 23f0 123e 9ff6 263e bcc3 823e
00000370: 5039 be3d 2902 58be 7033 153d c23d 3a3c
00000380: 5a50 b93e 373e e43d dd80 0d3e d8bf 06be
00000390: 8285 08be 85c9 c53d c1a0 093e 71a1 9d3d
000003a0: b684 afbe 05c4 a2be 5580 4d3c 49de e3bd
000003b0: e94d 44bd 382c 7fbe 9557 d0be dc00 1cbe
000003c0: 8fb6 5c3e 734e a0be c81a 6cbe 691b d0be
000003d0: 1c35 7fbe af59 443e 64d9 06be af50 b1bd
000003e0: 9e1c 353e eab4 94be 5080 6f3e e4b9 883e
000003f0: 9966 e2be 2969 3abe 50a4 783c 3d0f 46be

layer2.conv2.bias f4 [16]
-0.72589743 -0.96506673 -0.75711614 -0.7361828 -0.91202617 -0.62987673 -0.70677537 -0.4935937
-0.9125844 -0.85860926 -0.5973904 -0.47350866 -0.4816436 -0.7678245 -0.7535076 -0.4857237
00000000: 6ad4 39bf 9d0e 77bf 5dd2 41bf 7a76 3cbf
00000010: 8c7a 69bf 9a3f 21bf 3bef 34bf 50b8 fcbe
00000020: 229f 69bf d1cd 5bbf 94ee 18bf ba6f f2be
00000030: fd99 f6be 2590 44bf e0e5 40bf c7b0 f8be

layer3.fc1.weight f4 [120, 400]
0.019690478 -0.007248889 -0.013482743 -0.014288561 -0.005326813 -0.00021224741 0.0063528926 -0.03224175
-0.010454819 0.018171998 -0.020155037 -0.02762876 -0.01984703 -0.022673223 0.005358868 0.008372639
-0.009800838 -0.020353535 -0.015612721 -0.004747607 0.02015246 0.0033939246 -0.016441448 0.0048033735
-0.0046675527 0.0048077456 0.017025433 -0.00890617 -0.013898628 0.0015913277 -0.022682318 0.0042538107
-0.023265671 0.017948726 0.0130777 0.0047410955 0.012661139 0.0043926192 -0.010470623 -0.01736891
-0.0011201763 -0.029581243 0.010642355 -0.016903842 0.028202431 -0.028585743 -0.0024541754 -0.009578967
0.0028610656 0.023995265 -0.014305394 -0.03704695 0.014570866 0.0071108053 2.0946727e-06 0.01160273
-0.022418924 -0.0038175306 -0.018510876 -0.012818282 -0.0017469685 -0.017753085 -0.023272675 -0.021568947
-0.014734184 -0.019213175 -0.011433552 -0.026830673 -0.0012598385 0.006234376 -0.0101590855 0.001085924
-0.008744102 -0.013149059 -0.010296707 -0.0096547585 -0.0061662835 0.0019713822 -0.019062027 -0.005602163
-0.017638523 -0.0089332005 0.0008726739 0.017754162 0.018441314 -0.0037175752 0.0037339032 0.011525213
0.008533891 0.0117165465 0.023495687 0.0024848348 0.018089147 -0.0055285967 -0.016987165 0.018338583
0.0039215432 0.011116662 0.01524818 -0.010896269 0.018270098 0.016823277 -0.01262861 -0.012711284
0.011817591 0.0112078395 0.024585648 -0.013827009 -0.0068135816 0.0056750095 -0.004861418 0.003040234
-0.00419932 0.009222839 -0.016287396 -0.00041021206 0.0079831 0.0063708397 -0.009281663 0.009084488
-0.017802646 -0.013597329 -0.008722616 -0.0020739213 0.001320045 -0.0067707584 0.009537318 0.014080813
-0.0029475288 0.012325178 -0.029721415 -0.01655113 -0.015174892 0.0024429804 -0.00093505456 -0.010894632
-0.0030781229 -0.009975526 -0.008312182 -0.0013600982 0.012751232 0.012891948 -0.016938346 -0.0026695637
0.0032418019 0.008405506 0.0036235868 -0.01991216 -0.012630614 0.005016568 -0.015843822 -0.00016267103
-0.0009720286 -0.0019060741 0.004074176 -0.0037753875 0.011914345 0.009103413 0.0030888964 -0.035538696
0.013399405 0.01976827 0.014574682 -0.00073281286 0.002852664 -0.003957814 0.014749601 0.017032275
0.004961701 -0.020367136 -0.012694205 0.014313895 -0.00037374636 -0.0062404014 0.01983643 0.0027928108
-0.005293547 -0.0061226455 -0.0019842184 -0.008614489 -0.0221371 -0.008837972 -0.02256751 -0.0021440734
-0.0010301011 0.0004180368 -0.009863156 -0.005591619 -0.007577168 -0.019507889 0.019332953 -0.0001882398
-0.0025878223 -0.026739495 -0.017238807 0.00816565 0.013613975 0.0033655986 -0.0050248397 0.015531278
0.022386635 -0.01230574 -0.02053584 -0.0095238015 -0.0049163494 -0.010871001 -0.036979683 0.00152651
-0.0019153465 0.017744977 -0.011376485 1.9273702e-05 -0.0093272375 -0.0024562979 0.0031987804 0.011408818
0.013502753 0.010491026 0.011297563 -0.0031072295 -0.024162717 -0.0016210487 -0.008180045 -0.014900906
-0.010465534 0.008430871 -0.0029152203 -0.027225157 -0.02198907 -0.018479096 0.0028252343 -0.026353082
0.011706265 0.013093337 0.042286906 -0.0006002303 0.012878763 -0.0042243563 -0.011396241 0.014316649
-0.00069027016 -0.0045233304 -0.026476925 -0.0031738968 -0.028239258 0.020771455 0.014522134 0.010313125
-0.004560151 -0.019833814 -0.006991657 0.007344835 -0.004402774 0.027218467 0.020555811 0.0070628985
00000000: ed4d a13c 1788 edbb b9e6 5cbc 921a 6abc
00000010: 8c8c aebb bb8e 5eb9 ed2b d03b ed0f 04bd
00000020: b04a 2bbc 71dd 943c 2d1c a5bc b655 e2bc
00000030: 3d96 a2bc 32bd b9bc 7199 af3b 652d 093c
00000040: b293 20bc 75bc a6bc 80cc 7fbc d091 9bbb
00000050: c616 a53c 9b6c 5e3b 37b0 86bc 9e65 9d3b
00000060: 45f2 98bb 4b8a 9d3b ec78 8b3c 2feb 11bc
00000070: 12b7 63bc 1994 d03a 45d0 b9bc 8d63 8b3b
00000080: a697 bebc 3509 933c d943 563c 315b 9b3b
00000090: aa70 4f3c f6ef 8f3b fa8c 2bbc 3f49 8ebc
000000a0: e1d2 92ba 5d54 f2bc 465d 2e3c ed79 8abc
000000b0: c908 e73c a62c eabc 3bd6 20bb 19f1 1cbc
000000c0: b780 3b3b b891 c43c 2c61 6abc 8bbe 17bd
000000d0: a4ba 6e3c c201 e93b 3492 0c36 6019 3e3c
000000e0: e4a7 b7bc 892f 7abb 1fa4 97bc c503 52bc
000000f0: 89fa e4ba eb6e 91bc 56a6 bebc 5cb1 b0bc
00000100: a667 71bc f364 9dbc cb53 3bbc 00cc dbbc
00000110: 2a21 a5ba bd49 cc3b 4b72 26bc 9055 8e3a
00000120: 6c43 0fbc 276f 57bc 85b3 28bc fe2e 1ebc
00000130: 890e cabb 4e32 013b f827 9cbc 5992 b7bb
00000140: aa7e 90bc 8f5c 12bc 27c4 643a 2d71 913c
00000150: 3d12 973c 90a2 73bb 80b4 743b 3fd4 3c3c
00000160: bcd1 0b3c c2f6 3f3c 077a c03c 9cd8 223b
00000170: b12f 943c 3b29 b5bb ab28 8bbc cc3a 963c
00000180: 4a80 803b a922 363c 81d3 793c 4486 32bc
00000190: 2cab 953c f8d0 893c 3be8 4ebc fd42 50bc
000001a0: 929e 413c 16a1 373c d767 c93c ae8a 62bc
000001b0: 7744 dfbb 6ef5 b93b 884c 9fbb aa3e 473b
000001c0: 739a 89bb 641b 173c 256d 85bc bb11 d7b9
000001d0: 8ccb 023c 7ac2 d03b 1e12 18bc 1bd7 143c
000001e0: dbd6 91bc 55c7 5ebc 4ee9 0ebc a0ea 07bb
000001f0: 5c05 ad3a 3ddd ddbb 6942 1c3c 36b3 663c
00000200: 542b 41bb 8bef 493c 537a f3bc 3c96 87bc
00000210: 1ca0 78bc 691a 203b 731e 75ba 667f 32bc
00000220: 55ba 49bb 6370 23bc d12f 08bc 5345 b2ba
00000230: 8bea 503c c038 533c 49c2 8abc d9f3 2ebb
00000240: 6974 543b 3fb7 093c b379 6d3b d31e a3bc
00000250: a3f0 4ebc 0662 a43b e7ca 81bc ac92 2ab9
00000260: bccf 7eba 3cd5 f9ba aa80 853b 7e6c 77bb
00000270: 6334 433c 7b26 153c 156f 4a3b 0691 11bd
00000280: 2e89 5b3c 11f1 a13c a6ca 6e3c 3d1a 40ba
00000290: c3f3 3a3b 8db0 81bb 4fa8 713c 4587 8b3c
000002a0: c495 a23b fbd8 a6bc 5bfb 4fbc d484 6a3c
000002b0: 63f3 c3b9 487c ccbb 0280 a23c 9707 373b
000002c0: 7e75 adbb 79a0 c8bb a909 02bb c923 0dbc
000002d0: dd58 b5bc 24cd 10bc 80df b8bc 9583 0cbb
000002e0: 7504 87ba f32b db39 1399 21bc e639 b7bb
000002f0: e449 f8bb 02cf 9fbc 2460 9e3c 3d62 45b9
00000300: 7498 29bb c90c dbbc 6638 8dbc 38c9 053c
00000310: 260d 5f3c 6091 5c3b 69a7 a4bb e776 7e3c
00000320: 2d64 b73c 049e 49bc c73a a8bc b809 1cbc
00000330: 5419 a1bb 481c 32bc 0278 17bd 2d15 c83a
00000340: 5d0c fbba ea5d 913c 7064 3abc f6ad a137
00000350: 45d1 18bc d7f9 20bb a1a2 513b 0dec 3a3c
00000360: a73a 5d3c 8de2 2b3c 6a19 393c a9a2 4bbb
00000370: e4f0 c5bc 5e79 d4ba 9805 06bc ee22 74bc
00000380: a277 2bbc a321 0a3c 480d 3fbb 4b07 dfbc
00000390: 6c22 b4bc 7961 97bc 9127 393b 6be2 d7bc
000003a0: a2cb 3f3c 7085 563c 0935 2d3d c658 1dba
000003b0: 7201 533c 786c 8abb 4db7 3abc 6190 6a3c
000003c0: 3ff3 34ba 7238 94bb 23e6 d8bc 2701 50bb
000003d0: 0456 e7bc e628 aa3c 3fee 6d3c 62f8 283c
000003e0: 526d 95bb 867a a2bc 451a e5bb f1ac f03b
000003f0: 2545 90bb 43f9 de3c a964 a83c e36f e73b

layer3.fc1.bias f4 [120]
-0.019620467 -0.006932969 -0.017326936 0.010305266 0.001737302 -0.007812619 0.0027308166 -0.029714113
-0.0059244446 -0.0059556654 -0.0012354773 -0.00785388 0.032693777 -0.00028008598 -0.025171768 -0.02623587
-0.01516458 -0.008700761 0.011529384 0.0020434356 0.0084944125 -0.008300627 0.018329091 0.009136627
-0.024806757 -0.0039399737 0.008410959 -0.009731576 -0.0051450823 0.0035492345 0.0020860895 0.009117404
-0.02677805 -0.018068016 0.007060792 0.0020385992 -0.044109102 -0.00017242704 -0.010936076 -0.034307778
-0.021131247 0.01540518 -0.014652402 0.054010767 -0.019509686 -0.006577223 0.002288181 0.015187505
0.012387296 -0.01704936 -0.006183482 0.0059552803 -0.0037475266 0.0014372759 1.673405e-05 -0.008319323
0.006123612 -0.0072512594 0.02182942 0.010428905 0.024275396 0.0023466672 -0.014828962 0.08348002
-0.1755751 0.012914601 0.021968303 0.009442238 0.007399251 -0.0017139869 0.013950583 0.017815817
0.00463335 -0.015525494 0.0028707723 0.011618876 -0.009447918 -0.014566928 -0.034480143 -0.0032413136
0.013296661 0.017147662 0.001921821 0.010378871 -0.0067773927 -0.009735272 -0.012876865 -0.016382966
-0.015958205 0.005260447 -0.011115808 0.010205777 -0.0009720703 0.006866632 -0.0021563498 0.017436972
-0.015852313 0.0032686847 -0.027804883 -0.055933014 -0.00017139655 0.0018864971 0.006904626 0.0011764658
-0.030331412 0.0009093025 -0.0030442753 -0.019733032 5.6900306e-05 0.015864827 -0.010666133 -0.00068069814
0.2880829 1.2796878e-05 0.0035922998 -0.023538982 0.00578578 0.01596601 0.0032519526 0.11264088
00000000: 1abb a0bc f62d e3bb 38f1 8dbc 6bd7 283c
00000010: 2fb6 e33a 8000 00bc 80f7 323b 036b f3bc
00000020: d821 c2bb be27 c3bb bdef a1ba 8fad 00bc
00000030: e9e9 053d 81d8 92b9 0635 cebc 9bec d6bc
00000040: dc74 78bc a38d 0ebc bee5 3c3c 29eb 053b
00000050: 262c 0b3c 5aff 07bc e426 963c cbb1 153c
00000060: 8a37 cbbc e51a 81bb 1ece 093c 3071 1fbc
00000070: 1498 a8bb 469a 683b c6b6 083b 2a61 153c
00000080: a45d dbbc 6003 94bc 375e e73b 059a 053b
00000090: bfab 34bd 88cd 34b9 3a2d 33bc 5086 0cbd
000000a0: 701b adbc 0266 7c3c a110 70bc 653a 5d3d
000000b0: c7d2 9fbc bf85 d7bb 4ff5 153b 03d5 783c
000000c0: 16f4 4a3c 19ab 8bbc ce9e cabb 8324 c33b
000000d0: 1099 75bb fa62 bc3a 1960 8c37 c54d 08bc
000000e0: 95a8 c83b f99b edbb 9dd3 b23c ffdd 2a3c
000000f0: 32dd c63c 8bca 193b 2df5 72bc 93f7 aa3d
00000100: f6c9 33be c397 533c dff6 b33c 9eb3 1a3c
00000110: 6b75 f23b dba7 e0ba fc90 643c 7af2 913c
00000120: 5bd3 973b a45e 7ebc 9123 3c3b 195d 3e3c
00000130: 71cb 1abc 20aa 6ebc 0d3b 0dbd 386c 54bb
00000140: 3dda 593c 4179 8c3c 9de5 fb3a 240c 2a3c
00000150: e414 debb b180 1fbc 7df9 52bc 9235 86bc
00000160: c8ba 82bc d45f ac3b 141f 36bc 2236 273c
00000170: 89d2 7eba 7c01 e13b 8c51 0dbb fbd7 8e3c
00000180: b6dc 81bc 6e37 563b 11c7 e3bc 041a 65bd
00000190: e9b8 33b9 5744 f73a 3340 e23b a433 9a3a
000001a0: 9579 f8bc 425e 6e3a 7782 47bb 2ba7 a1bc
000001b0: 3da8 6e38 f4f6 813c 01c1 2ebc e170 32ba
000001c0: 9a7f 933e 2cb2 5637 ca6c 6b3b d3d4 c0bc
000001d0: a496 bd3b 26cb 823c b61e 553b 43b0 e63d

layer3.fc2.weight f4 [84, 120]
-0.0011152854 -0.013028646 0.0026583483 0.0068593663 -6.334487e-05 0.0077931085 -0.004754615 0.00292941
0.0013181886 -0.008466994 -0.014526109 0.003424232 -0.002024261 -0.0026189622 0.010121925 -0.0058017806
-0.004150438 -0.0054160883 0.0013324654 -0.008321419 0.0043362454 0.0027103059 0.015042033 0.005711681
-0.007696713 -0.00085632125 0.0069589666 0.00095366745 -0.007032425 0.0045149266 -0.002011459 -0.012444869
-0.006364794 -0.007562707 -0.0035669594 0.011613379 0.011679247 0.003012232 -0.0013904196 -0.0029581236
0.012063113 -0.005250916 -0.012792745 -0.009395472 -0.018915677 -0.0026054317 0.013467317 -0.0057981936
-0.008195583 -0.006948401 0.0023409862 -0.017535646 0.012281997 -0.0045669097 0.0031858587 0.00036470807
-0.010274682 -0.009009556 0.0060956553 0.008465222 -0.006744149 0.014322829 -0.000100469435 0.006867121
-0.0053333384 0.0008015471 0.0073466166 -0.012716662 0.004765267 0.0034412132 0.0046901098 0.008151972
-0.002354195 0.0036671155 0.003067313 -0.00529176 0.001217622 0.0065006013 0.0072947354 0.0047602486
0.013537535 0.00018419615 0.009750396 -0.0021752184 -0.004656922 -0.020498956 0.002448503 0.0005715777
0.00057146116 -0.007981794 -0.005867057 -0.007416382 0.0023869819 -0.0062406235 -0.009051702 0.00048064324
-0.0021237102 -0.0025803766 -0.0026962387 0.0069066873 0.0049641663 -0.0055600917 0.0010340717 -0.0004519514
-0.0078872135 0.0013776415 -0.004613492 -0.00500732 0.009449804 0.0027119014 -0.013035963 -0.003031924
0.0035783798 -0.0016069491 0.005546877 0.006301864 -0.002276142 0.0008557936 0.0035922243 -0.002191368
0.005582895 0.005871736 0.0015321865 -0.00065957435 -0.010350458 0.0002745122 -0.0045915525 0.00063679175
0.006761716 0.013290942 -0.0017570392 0.0010844632 -0.0039117667 0.0022672755 0.0067190905 0.0044244556
0.0051950226 0.00076361076 0.0030931958 -0.0035092041 0.0025731623 0.0014848829 0.00504289 -0.0018673221
-0.0020167273 0.0072555644 0.0021051026 0.0046402374 -0.005806363 0.008321929 0.0017735272 0.0001622747
0.004517924 -0.00013549763 -0.003533475 0.0036449898 0.002665534 0.0023315859 0.005341502 -0.007381561
-0.007891722 -0.0027970646 0.009658598 -0.020070039 0.011320286 -0.00015792789 -0.015497308 0.006140144
0.0024820827 -0.0024843183 0.0045937398 0.0030545832 0.0032262453 0.0028984584 -0.002580989 -0.0055165333
-0.0028408978 -0.00021250095 0.0034145664 -0.010890256 -0.004755228 -0.0015102986 0.00043263097 0.0011004356
0.013340914 0.0014140588 0.002015922 -0.0044087907 0.0015533194 0.00067963434 -0.0057765497 0.0029673171
0.0025945962 0.0013503948 -0.0013258903 0.0018004567 0.021364197 -0.0039126123 0.010538658 -0.0025378456
-0.0048538903 0.004134568 0.0021281699 0.0013164586 0.00019275323 0.0018704071 -0.0057555228 -0.0044488553
-0.004189022 0.0043799356 0.009292967 -0.0014297509 -0.0009071812 0.009023383 -0.0037559154 0.01386668
0.0014015095 -0.0019408562 0.005666998 -0.001048933 -0.003202388 0.016829567 0.002599821 -0.005040505
-0.008174525 -0.014133826 0.0017004154 0.0013524089 -0.0037382818 -0.002374981 -0.0075744875 0.0062570823
0.010719334 -0.0070690284 0.0032410081 0.001299673 -0.007122003 -0.009977464 0.005816255 0.0033379705
0.008215696 -0.0045003556 0.0038355177 0.003583717 -0.0029454757 0.0022583278 -0.0076909293 0.0022572856
0.005730607 0.0066261617 -0.0067572133 0.011634073 -0.003897619 -0.0055288 0.0039025377 0.0031988588
00000000: c52e 92ba 1a76 55bc af37 2e3b 89c4 e03b
00000010: 05d8 84b8 555d ff3b 9acc 9bbb 58fb 3f3b
00000020: 12c7 ac3a 26b9 0abc ebfe 6dbc 1469 603b
00000030: 77a9 04bb e5a2 2bbb 6ed6 253c dd1c bebb
00000040: 6600 88bb 7179 b1bb 1fa6 ae3a 9056 08bc
00000050: 1017 8e3b 639f 313b dc72 763c 0e29 bb3b
00000060: b534 fcbb bf7a 60ba 0b08 e43b 8aff 793a
00000070: 4270 e6bb f3f1 933b afd2 03bb 90e5 4bbc
00000080: c38f d0bb 96d0 f7bb a6c3 69bb 0b46 3e3c
00000090: 505a 3f3c de68 453b bd3e b6ba 14dd 41bb
000000a0: 5da4 453c e00f acbb a998 51bc 77ef 19bc
000000b0: 0df5 9abc e4bf 2abb 06a6 5c3c c6fe bdbb
000000c0: c446 06bc 6aaf e3bb 3b6b 193b eaa6 8fbc
000000d0: 6e3a 493c 04a6 95bb d7c9 503b 4a36 bf39
000000e0: 2457 28bc d19c 13bc 10be c73b b7b1 0a3c
000000f0: 06fe dcbb 4daa 6a3c 1eb3 d2b8 9605 e13b
00000100: 49c3 aebb ea1e 523a e3bb f03b 8c59 50bc
00000110: f525 9c3b fa85 613b 7eaf 993b d98f 053c
00000120: d748 1abb fd53 703b f904 493b 8066 adbb
00000130: 9d98 9f3a ff02 d53b ad08 ef3b dcfb 9b3b
00000140: 8acc 5d3c c724 4139 20c0 1f3c 1c8e 0ebb
00000150: 1899 98bb 6ded a7bc 1077 203b eed5 153a
00000160: 1cce 153a 12c6 02bc 7140 c0bb 1f05 f3bb
00000170: e96e 1c3b 257e ccbb 974d 14bc d8fe fb39
00000180: f22d 0bbb 891b 29bb 61b3 30bb 7e51 e23b
00000190: 72aa a23b 6e31 b6bb b089 873a e4f3 ecb9
000001a0: 5f39 01bc fa91 b43a c72c 97bb 7214 a4bb
000001b0: 5ad3 1a3c 28ba 313b cb94 55bc 3eb3 46bb
000001c0: 4083 6a3b 44a0 d2ba 94c2 b53b de7f ce3b
000001d0: 532b 15bb 5657 603a 866b 6b3b 0e9d 0fbb
000001e0: b8f0 b63b b167 c03b a6d3 c83a 49e7 2cba
000001f0: f894 29bc 67ec 8f39 bc74 96bb 5fee 263a
00000200: 6391 dd3b 40c2 593c 744c e6ba 8c24 8e3a
00000210: 472e 80bb 9296 143b d12b dc3b 06fb 903b
00000220: 023b aa3b 0d2d 483a 37b7 4a3b adfa 65bb
00000230: 80a2 283b 67a0 c23a d43e a53b efc0 f4ba
00000240: 122b 04bb 16c0 ed3b c3f5 093b 220d 983b
00000250: 4e43 bebb b358 083c b375 e83a 4828 2a39
00000260: 180b 943b 5e14 0eb9 e091 67bb c8e0 6e3b
00000270: 3db0 2e3b 85cd 183b c407 af3b 06e1 f1bb
00000280: 484c 01bc f54e 37bb 193f 1e3c ec69 a4bc
00000290: b978 393c 7299 25b9 6ce8 7dbc 4333 c93b
000002a0: 70aa 223b f2cf 22bb 1587 963b 672f 483b
000002b0: 6a6f 533b 10f4 3d3b cf25 29bb 09c4 b4bb
000002c0: 5b2e 3abb cad2 5eb9 ebc6 5f3b 0b6d 32bc
000002d0: bed1 9bbb 36f5 c5ba bfd2 e239 7e3c 903a
000002e0: d993 5a3c f157 b93a 8f1d 043b 9e77 90bb
000002f0: c098 cb3a 7d29 323a 3649 bdbb 5277 423b
00000300: 1a0a 2a3b bbff b03a 7fc9 adba 4dfd eb3a
00000310: f803 af3c 5f35 80bb 56aa 2c3c fc51 26bb
00000320: 620d 9fbb 457b 873b c478 0b3b 058d ac3a
00000330: cd1d 4a39 7328 f53a d398 bcbb b4c7 91bb
00000340: 1044 89bb 9085 8f3b 8741 183c 7b66 bbba
00000350: e6cf 6dba d0d6 133c ce25 76bb 1231 633c
00000360: dbb2 b73a 5464 feba 3ab2 b93b 5a7c 89ba
00000370: 28df 51bb 29de 893c c261 2a3b d22a a5bb
00000380: 71ee 05bc 9091 67bc 79e0 de3a 5043 b13a
00000390: f6fd 74bb 92a5 1bbb 6833 f8bb 3608 cd3b
000003a0: 25a0 2f3c 4fa3 e7bb 1867 543b ca59 aa3a
000003b0: b15f e9bb 8478 23bc 4996 be3b dac1 5a3b
000003c0: 209b 063c b877 93bb 4f5d 7b3b cbdc 6a3b
000003d0: e208 41bb 7400 143b 3104 fcbb f8ee 133b
000003e0: d1c7 bb3b 4620 d93b 9d6b ddbb d79c 3e3c
000003f0: 326f 7fbb f02a b5bb b8c1 7f3b f2a3 513b

layer3.fc2.bias f4 [84]
0.0060461825 0.012345419 0.002925449 0.0060705463 -0.013857769 0.005369208 0.0023565441 0.0014657693
0.010461114 -0.0024002707 0.16227645 -0.0045404066 -0.006132418 0.0007785091 0.0031026322 0.015702998
-0.0010064302 -0.012823813 -0.0065105883 -0.006536702 -0.0035609796 0.013291175 -0.010407944 -0.0017721927
0.0063085207 -0.037323903 -0.0020262718 -0.02928005 -0.011356279 0.0015330688 0.005787928 0.002650567
-0.0128550315 -0.0042916154 0.004133379 -0.008293349 -0.00863565 0.0030656557 0.0049298103 -0.011088652
0.0064198673 0.22231269 0.003143558 -0.013539247 0.0078024273 -0.0027221534 0.0033272777 -0.0053138793
-0.0026711826 -0.006649808 -0.0054047713 0.23036298 0.009554704 0.011973063 0.0016753016 -0.00016091045
-0.004988073 0.0026753778 -0.0033822441 -0.0054637855 0.0031421983 0.009065407 -0.013647237 0.00047207478
-0.0015696037 0.008412658 -0.010755488 0.006143095 0.0012607798 -0.015056804 0.093227044 -0.006230668
0.01572413 -0.0039290953 0.0021313522 0.0006794591 0.0149938185 -0.010454841 0.0060142116 -0.046832666
0.0020914976 -0.010124598 -0.0094199525 0.0024318383
00000000: 0e1f c63b 7144 4a3c e4b8 3f3b 6feb c63b
00000010: b20b 63bc 2ef0 af3b 4070 1a3b 0e1f c03a
00000020: 1865 2b3c dc4d 1dbb cc2b 263e b1c7 94bb
00000030: 73f2 c8bb dc14 4c3a 8855 4b3b 93a3 803c
00000040: 32ea 83ba f81a 52bc c656 d5bb d531 d6bb
00000050: 535f 69bb 3ac3 593c 1586 2abc eb48 e8ba
00000060: b5b7 ce3b f3e0 18bd 33cb 04bb b7dc efbc
00000070: b00f 3abc 41f1 c83a a9a8 bd3b 23b5 2d3b
00000080: e99d 52bc aea0 8cbb 4c71 873b d4e0 07bc
00000090: 8b7c 0dbc 2be9 483b 3f8a a13b 2dad 35bc
000000a0: c05d d23b f0a5 633e 2704 4e3b b8d3 5dbc
000000b0: 81ab ff3b 2866 32bb 750e 5a3b 0d20 aebb
000000c0: 020f 2fbb a2e6 d9bb 821a b1bb 46e4 6b3e
000000d0: 558b 1c3c ab2a 443c cb95 db3a 12ba 28b9
000000e0: fd72 a3bb 6455 2f3b a4a8 5dbb 8e09 b3bb
000000f0: 57ed 4d3b 1387 143c a998 5fbc ce80 f739
00000100: 29bb cdba 3fd5 093c c937 30bc 044c c93b
00000110: c040 a53a d0b0 76bc d2ed be3d a22a ccbb
00000120: e4cf 803c a4bf 80bb 28ae 0b3b ba1d 323a
00000130: a2a8 753c c84a 2bbc dd12 c53b 9cd3 3fbd
00000140: 8211 093b a4e1 25bc 2556 1abc 7a5f 1f3b

layer3.fc3.weight f4 [10, 84]
-0.0031477732 -2.217223e-05 0.00049270166 0.0062377397 -0.0057805427 -0.0028694468 0.0063039646 0.00826244
0.004049024 0.0026770341 -0.15012564 -0.0029868376 -0.006671983 -0.0105189765 0.006438944 0.011477866
-0.011538482 -0.010869606 0.0025088757 0.0008858139 -9.805059e-06 -0.003821404 0.000730081 -0.00560165
-0.006368008 0.0072661 0.0083803935 0.09266244 0.0038798212 0.0062353904 -0.0027671356 -0.0063664936
-0.00086971343 -0.0034055975 -0.004976325 0.0018886077 -0.00610821 0.008348694 0.0015728014 -0.012170197
0.0023934143 0.006210607 0.0007470726 -0.008269357 -0.0046283486 0.00033645172 0.023017203 -0.0034207527
0.0050473437 -0.00092220446 0.009249976 0.009532105 -0.0016727867 0.00647962 0.00851144 0.0038138141
0.0015706891 -0.24050896 -0.0028598735 0.002460136 0.013759052 -0.001396259 0.002129673 7.8801684e-05
-0.0064102146 0.0025418883 -0.003067866 -0.011999868 0.0018158443 -0.006355544 -0.10337883 -0.008331088
0.0111786 -0.003523848 -0.005333487 -0.007264461 0.0030531518 -0.0059321313 0.0028489486 0.12696047
0.0014463121 -0.0042287353 0.0019846195 0.007580757 0.00019717647 0.006626768 -0.0008844221 -0.006979529
0.0015627315 0.00088148826 -0.001463851 -0.004046371 0.0029266414 -0.009229433 -0.027749944 -0.0026671856
0.0036778175 -0.00042802328 -0.005955525 0.0001406598 0.005860756 -0.0011794006 -0.009733977 -0.00050107826
-0.0021789744 0.0041063996 -0.0077929175 0.008829606 0.0067419796 0.20772932 -0.00342452 -0.050655868
-0.0058189323 -0.002241133 0.00808565 0.0049431445 -0.0042751795 -0.0014310586 0.0034989184 -0.010899513
-9.3378396e-05 0.0018193213 -0.0011635433 0.0041922857 -0.002712752 -0.15531741 0.0015144702 0.007318457
-0.0007697086 -0.005620055 0.082707204 0.00019547228 4.4082455e-05 -0.011142742 6.875215e-05 -0.32478565
-0.0017232574 -0.0051797326 -0.008521766 -0.0029480015 0.0009177887 0.01567074 -0.0043429304 -0.006912975
-0.0072268983 -0.004737763 -0.0049129683 0.00025284887 0.003240128 0.004792037 -0.00019123462 0.0069094943
-0.0040281834 0.0005944319 -0.06180646 0.0060016266 -0.0025978098 0.006305543 0.008072589 0.005405602
0.0032286246 -0.0022902559 -0.0053676576 -0.08603772 0.0030552996 -0.0013334437 -0.0035705168 -0.0038851632
-0.008203406 -0.0012273485 0.0030975377 0.0008282012 0.004710274 -0.0009940786 -0.0010882379 -0.0012146857
-0.005072627 0.009488106 -0.08481224 -0.0035516587 -0.005976086 -0.004256652 -0.0016427716 -0.0012219246
0.0020587859 0.0071188845 0.0064358297 0.0048350655 0.0004294461 -0.0026727507 0.004642711 -0.003881329
-0.0047291215 -0.062169023 -0.0023164384 0.15677555 0.005634929 0.008503351 -0.011882257 -0.00040830177
0.0067985905 0.00069831504 0.00041634604 0.0012951287 0.00056364614 3.4805307e-05 0.0054855817 0.0021997606
0.0050503807 0.119433105 -0.0009302713 0.01831287 -0.004583035 0.0009161454 0.032892983 0.00043840072
-0.0014126651 0.008077435 0.0058579454 0.16316085 -0.00423902 -0.00033783895 0.0026967665 -0.0016786169
0.004419257 0.033071302 0.0051981094 0.0042997487 -0.008935155 -0.016890325 0.004744135 0.0037273841
-0.0044540763 -0.006852627 0.0058428966 -0.001798531 -0.002047496 0.0062127677 -0.016002446 0.0017864782
-0.0034653083 -0.0047532427 0.00016869466 -0.0055052303 -0.0064632306 0.011388564 0.008704 -0.1734828
-0.003482584 -0.00068829727 0.0053974055 0.0076100444 0.0011063855 0.0008772303 -0.0037964692 -0.0065002306
00000000: df4a 4ebb 80fe b9b7 a628 013a f465 cc3b
00000010: b56a bdbb 540d 3cbb 7d91 ce3b 2f5f 073c
00000020: adad 843b 2e71 2f3b 89ba 19be d2be 43bb
00000030: a6a0 dabb c957 2cbc c7fd d23b a90d 3c3c
00000040: e70b 3dbc 6f16 32bc f36b 243b f735 683a
00000050: 6880 24b7 8570 7abb e862 3f3a 0c8e b7bb
00000060: b9aa d0bb 7718 ee3b eb4d 093c cec5 bd3d
00000070: 9944 7e3b 3f52 cc3b d558 35bb 059e d0bb
00000080: 7bfd 63ba 7230 5fbb 7110 a3bb 298b f73a
00000090: 6127 c8bb f6c8 083c 7526 ce3a 8265 47bc
000000a0: d4da 1c3b 5982 cb3b 32d7 433a 327c 07bc
000000b0: 67a9 97bb c965 b039 938e bc3c b52e 60bb
000000c0: 3064 a53b 18c0 71ba 368d 173c 8c2c 1c3c
000000d0: 6841 dbba fe52 d43b 9173 0b3c 2ff1 793b
000000e0: 95df cd3a fb47 76be b76c 3bbb 3c3a 213b
000000f0: a66d 613c ad02 b7ba fc91 0b3b 5542 a538
00000100: c70c d2bb cf95 263b 400e 49bb 189b 44bc
00000110: a001 ee3a 2b42 d0bb 48b8 d3bd 1e7f 08bc
00000120: 7226 373c 5cf0 66bb 88c4 aebb b70a eebb
00000130: 6317 483b 5362 c2bb 6db5 3a3b ed01 023e
00000140: 2e92 bd3a 3491 8abb 6410 023b 0068 f83b
00000150: 28c1 4e39 5c25 d93b 90d8 67ba 88b4 e4bb
00000160: 91d4 cc3a ad13 673a b0de bfba 6c97 84bb
00000170: e5cc 3f3b 0c37 17bc da53 e3bc f3cb 2ebb
00000180: 8a07 713b 5068 e0b9 9126 c3bb 147e 1339
00000190: 960b c03b 1e96 9aba 427b 1fbc cb5a 03ba
000001a0: 20cd 0ebb fa8e 863b bb5b ffbb 0daa 103c
000001b0: d3eb dc3b ffb6 543e e96d 60bb 877c 4fbd
000001c0: beac bebb f9df 12bb ad79 043c 1afa a13b
000001d0: ce16 8cbb 5c92 bbba 1c4e 653b df93 32bc
000001e0: 25d4 c3b8 4b76 ee3a 0982 98ba 715f 893b
000001f0: 6dc8 31bb 870b 1fbe 3081 c63a abcf ef3b
00000200: 45c6 49ba 7028 b8bb 6562 a93d b1f7 4c39
00000210: 2de5 3838 0c90 36bc 082f 9038 4e4a a6be
00000220: ecde e1ba bfba a9bb e19e 0bbc 4233 41bb
00000230: c297 703a ec5f 803c 244f 8ebb 3d86 e2bb
00000240: 9ecf ecbb 3d3f 9bbb f7fc a0bb cd90 8439
00000250: 5458 543b 8506 9d3b 2786 48b9 0a69 e23b
00000260: dafe 83bb a6d3 1b3a c528 7dbd 4ba9 c43b
00000270: 0440 2abb ba9e ce3b e442 043c 7a21 b13b
00000280: 5597 533b 1e18 16bb 2de3 afbb 8b34 b0bd
00000290: 6c3b 483b f2c6 aeba 55ff 69bb 399e 7ebb
000002a0: 9467 06bc fbde a0ba 0f00 4b3b a41b 593a
000002b0: a458 9a3b be4b 82ba 34a3 8eba 1736 9fba
000002c0: 4838 a6bb 0074 1b3c 0ab2 adbd f2c2 68bb
000002d0: 0bd3 c3bb 637b 8bbb 4552 d7ba fc28 a0ba
000002e0: b2ec 063b 8845 e93b a7e3 d23b 786f 9e3b
000002f0: 4827 e139 5129 2fbb e221 983b e55d 7ebb
00000300: bff6 9abb f2a4 7ebd 63cf 17bb c589 203e
00000310: 36a5 b83b a451 0b3c ccad 42bc 5611 d6b9
00000320: b6c6 de3b 210f 373a 0549 da39 4fc1 a93a
00000330: a7c1 133a eafb 1138 65c0 b33b dc29 103b
00000340: aa7d a53b 5899 f43d 73dd 73ba df04 963c
00000350: 492d 96bb 7a29 703a cbba 063d 26d9 e539
00000360: 2d29 b9ba 3857 043c 02f4 bf3b a313 273e
00000370: 7ae7 8abb fa1f b1b9 3cbc 303b 0905 dcba
00000380: 6acf 903b c675 073d e754 aa3b e8e4 8c3b
00000390: c264 12bc 945d 8abc b074 9b3b 2147 743b
000003a0: 80f3 91bb 008c e0bb c575 bf3b b0bc ebba
000003b0: 482f 06bb 7994 cb3b 9017 83bc 4328 ea3a
000003c0: 3a1a 63bb 17c1 9bbb a1e3 3039 3865 b4bb
000003d0: 82c9 d3bb 1997 3a3c 399b 0e3c 7aa5 31be
000003e0: 103c 64bb d96e 34ba b8dc b03b ae5d f93b
000003f0: 2304 913a eef5 653a 2fce 78bb e3ff d4bb

layer3.fc3.bias f4 [10]
-0.047400326 -0.49710602 0.40323627 0.60797286 0.29147047 0.04282307 -0.13208522 -0.23962872
-0.40123832 -0.10900602
00000000: d826 42bd ae84 febe fc74 ce3e 1ca4 1b3f
00000010: 9e3b 953e 3e67 2f3d 5941 07be 3b61 75be
00000020: 1c6f cdbe 8c3e dfbd
