output/models_cifar10_350.pth (torch_old, 248636 bytes, 10 tensors)

layer1.conv1.weight f4 [6, 1, 5, 5]
000000 1d 25 e8 3b 66 c6 39 be 36 39 91 3c 9e a9 fd bd
       0.0070845024 -0.18142089 0.017727476 -0.123858675
000010 f7 ad 8e bd 6c 38 92 3e fb 9d 52 be 1e e2 dd 3e
       -0.06966775 0.2855867 -0.20568077 0.43336576
000020 aa 9d 88 bd 78 4a 5d 3e 10 1f ca 3d 9a 60 16 bf
       -0.06670697 0.21610439 0.09869206 -0.5874115
000030 87 63 d4 3e 36 04 bd be c1 ae 6a bd db 1f c2 3e
       0.41482183 -0.36917275 -0.057295565 0.3791493
000040 34 b5 21 bf 0e ff 2f 3f 7d 4b a1 be a1 63 08 3e
       -0.6316712 0.6874856 -0.31502905 0.13319255
000050 b0 74 7b 3e bd 31 1a bf 8f 90 f8 3e 3e ed 43 be
       0.24556231 -0.60232145 0.4854779 -0.1913347
000060 02 43 fd bc 67 df 06 3c 13 f7 28 bd fe 4f 0a bd
       -0.03091574 0.008231974 -0.041251253 -0.033767693
000070 25 86 b3 3d 08 af bc bc c9 ea 51 3d be dd 29 3e
       0.087658204 -0.02303268 0.0512493 0.16588494
000080 ae 1f 0d bf 0f 18 f7 3d cf d5 58 3e df 69 89 bd
       -0.55126464 0.12065136 0.21175312 -0.067096464
000090 88 d3 aa 3e e3 73 de 3e f6 fa 88 bf ca 7a 9f 3e
       0.3336451 0.4344779 -1.0701587 0.31148368
0000a0 3a 1c ab 3d da 63 04 bf 8e f3 3c 3f 56 02 20 3e
       0.08354993 -0.5171486 0.73809135 0.15625891
0000b0 53 3a d2 be 18 63 68 bb 95 36 8e 3d f1 95 c4 be
       -0.41060123 -0.0035459455 0.069440044 -0.38395646
0000c0 59 9e c6 3e e8 72 a6 bd 72 53 12 bd 8e 0d 8e bc
       0.38792685 -0.081273854 -0.03572411 -0.017340448
0000d0 8d 62 7a bd bf e0 12 3e 38 6f 4f 3d 15 d6 5f bd
       -0.06112914 0.14343546 0.050643176 -0.054647524
0000e0 fb 9c ea bc 55 83 34 3e f0 ba 59 3d 21 0e 89 bd
       -0.028639307 0.17628224 0.053156793 -0.06692148
0000f0 9e f7 a5 be 5a b6 98 3b 12 b0 90 3e c4 95 cd bd
       -0.3241548 0.00466041 0.2825933 -0.10038331
000100 7b be 24 bd 08 54 b4 be e2 97 a1 3e 76 af 4f 3e
       -0.04022072 -0.3522036 0.3156119 0.20281777
000110 07 92 2d bd 30 db f9 3b 2d c0 fb be e3 e2 aa 3e
       -0.04237559 0.007625006 -0.49170056 0.33376226
000120 3e 21 d2 bc b0 fc 39 3d 11 17 bf bd 0c fa ea bd
       -0.025650617 0.045406997 -0.093305714 -0.11473474
000130 d6 30 a3 be f8 e8 f1 bd 6e ff 52 bd 89 c7 89 3d
       -0.31873196 -0.118120134 -0.051513128 0.067275114
000140 93 e1 8c 3e 6b d0 46 3f 4e f5 e6 3e b7 5e 3b 3e
       0.2751585 0.7766177 0.45109028 0.1829785
000150 1d 7b 5d 3c ce bb 01 be 80 71 dc be d8 fc 93 be
       0.013518122 -0.12669298 -0.43055344 -0.28903842
000160 76 fa 14 bd 25 dc c0 bd c3 d6 df 3d d5 7a 91 bb
       -0.03637167 -0.09416989 0.109296344 -0.0044396915
000170 f3 67 bb bd db 77 a4 3d cf 8b 4c 3e 38 d5 74 bd
       -0.09150686 0.08030673 0.19975208 -0.059773654
000180 4d 28 e1 bc c8 29 b6 bc 89 e9 ff bd a4 a5 aa bd
       -0.027485037 -0.02223672 -0.12495715 -0.08332375
000190 b7 e5 ae bd 0c 08 c6 3c 2d aa e5 3b e6 0d eb 3d
       -0.085399084 0.024173759 0.007008812 0.1147726
0001a0 8f db aa bd c6 b0 44 3c 1a 62 bf 3d 77 36 54 3d
       -0.08342659 0.012005037 0.09344883 0.051809754
0001b0 ff 6e 11 be 58 f9 01 3e e5 85 85 be 80 8d c4 be
       -0.14202498 0.12692773 -0.26078716 -0.38389206
0001c0 2c 49 e4 bd 56 d7 1f 3c f4 24 97 be 9e 46 5d 3e
       -0.11146769 0.00975593 -0.2952038 0.2160897
0001d0 5a 73 58 3e fb ce 26 be 24 46 c8 bd 89 4d 3a 3e
       0.21137753 -0.16289894 -0.09779003 0.1819364
0001e0 78 81 59 bd e3 7a fb 3c 89 13 1b 3e 89 59 14 3d
       -0.053101987 0.030698245 0.15144171 0.0362182
0001f0 40 39 ea bd 65 a5 43 3d b4 8d 81 be 68 13 9f 3e
       -0.11436701 0.047765154 -0.25303423 0.31069493
000200 3b c7 b8 ba 07 b2 bf bd 0a 76 08 be 56 94 b5 3e
       -0.0014097461 -0.09360128 -0.13326278 0.35464734
000210 cb 37 d8 3e f5 c3 29 bf a1 31 1b 3c 33 0e f0 3d
       0.42230067 -0.6631463 0.009472282 0.11721458
000220 d0 d9 dc 3e ae 0e 89 bf 89 ed 26 3d dc bd a6 3e
       0.43134928 -1.0707605 0.040753875 0.32566726
000230 36 8a 95 bb e1 12 93 be ec 2a d0 bd 2f c2 20 3f
       -0.004563595 -0.2872534 -0.10164437 0.627963
000240 53 98 69 be 35 2a e7 3d 8e f9 f6 bd 47 d8 50 3e
       -0.22812013 0.11287347 -0.120593175 0.20395003
000250 9f 11 18 be a0 29 17 3c
       -0.14850472 0.009226233

layer1.conv1.bias f4 [6]
000000 40 59 a4 be fc 32 9f be ff fd 9e be e3 59 91 be
       -0.32099342 -0.31093585 -0.3105316 -0.2838889
000010 55 e7 98 be 21 36 ae be
       -0.29863992 -0.34025672

layer2.conv2.weight f4 [16, 6, 5, 5]
000000 ac 06 c2 3d 0e 59 43 3b be 14 9c 3d d0 a1 0e 3e
       0.09473929 0.002980772 0.07621144 0.13928914
000010 29 58 31 3d 01 a0 79 3d 12 cc 9f bd e6 75 62 3d
       0.043296967 0.060943607 -0.07802595 0.055288218
000020 fe 63 3f 3d 33 ac 3b 3d c2 3c 9b bc ef 19 15 3d
       0.04672622 0.04581852 -0.01894987 0.036401685
000030 4f 8b 16 bd 64 d8 e9 39 1e 45 45 3d d2 b4 3a 3d
       -0.03675395 0.00044602447 0.04816162 0.0455826
000040 69 80 f8 bd 1d db 22 bd 80 eb b6 3d ee 08 b7 bd
       -0.12133867 -0.039759744 0.08931637 -0.0893725
000050 61 b9 73 be 35 1d b8 be 01 ad 2d bf f8 a6 31 bf
       -0.23801185 -0.35959783 -0.6784211 -0.693954
000060 f0 fe a5 be d1 ff b0 3e 52 15 28 3e 80 da 06 3d
       -0.32421064 0.34570172 0.16414383 0.03292322
000070 2a ad 76 bc 98 65 26 3e e6 94 72 3e 17 93 3d 3e
       -0.015055934 0.16249692 0.23689613 0.18513142
000080 84 5d 5e 3e 1b 05 c1 3d 5d 8a 20 3e 5c 06 d5 3e
       0.21715361 0.09424802 0.15677781 0.41606414
000090 81 c0 5c 3e a5 e0 0a 3e 20 8d a8 3d 4d d5 4b 3e
       0.2155781 0.13562258 0.082300425 0.19905587
0000a0 76 e4 b1 3e 4b b8 a4 3e 45 b4 4f 3e f8 81 c5 3d
       0.34744614 0.32171854 0.20283611 0.0964393
0000b0 19 58 70 bd ca 68 dc 3e cb d7 dc 3d f2 fd 06 be
       -0.058677766 0.43048698 0.10783347 -0.1318281
0000c0 9d d9 59 bd 43 d5 8b bd 9b cd 4a 3e dc 97 16 3e
       -0.053186048 -0.06827786 0.19804995 0.14706367
0000d0 45 f4 78 3c 8f 46 33 3e 50 47 7f bd 13 e1 5d 3d
       0.015194957 0.17507385 -0.06232387 0.054169726
0000e0 60 78 c4 3d a0 1d 4b 3d 0e 85 0b be be 23 1a 3e
       0.09593272 0.0495888 -0.13624975 0.15052697
0000f0 8d 23 58 be e2 7c a5 3c 38 53 af 3d d0 9a 3f 3e
       -0.21107312 0.02020115 0.085607946 0.187114
000100 e5 f0 16 bd 8b 11 16 be a2 4a 00 be 39 88 c3 bd
       -0.03685083 -0.1465513 -0.1252847 -0.09547467
000110 3e 4f 4c 3e b3 8d 70 3e 0b 66 05 be a8 d2 58 be
       0.19952103 0.23491554 -0.13027208 -0.21174109
000120 ec 96 c5 be 2b f8 d0 be 95 c9 f9 bd 46 70 9c 3e
       -0.38591707 -0.40814337 -0.12196652 0.30554408
000130 55 a2 ec bd ba 4b 6e bd 4e 58 35 bb 70 b7 14 3e
       -0.115544 -0.058177687 -0.0027671042 0.14523101
000140 b7 3a 37 3e b0 5b 40 3d eb fe 27 3e 8a 51 f8 3d
       0.17893492 0.04696244 0.16405837 0.12124927
000150 ba f7 4d 3d e9 42 1f bc b0 bf af 3e 60 62 fb 3d
       0.05028508 -0.0097205425 0.34325933 0.12274623
000160 e1 1a 43 3e 3c ff 58 3d fb ad 62 be be 43 6c 3e
       0.19053222 0.052977785 -0.22136681 0.23072717
000170 eb a6 88 3e 81 fc 51 3e 26 62 e6 bb 05 88 f3 bd
       0.26689848 0.20506479 -0.007030743 -0.11891178
000180 60 5f ea 3d dc 78 79 3e d4 26 b0 3e 57 ff 8f 3e
       0.114439726 0.2436251 0.34404624 0.28124496
000190 98 27 74 3e 56 22 ce 3c 83 c8 c9 bc 3a ce 5c 3e
       0.23843229 0.025162857 -0.024631744 0.21563044
0001a0 d3 4c f7 3d 5f 59 df 3e bc 81 b0 3d 8b 8d 62 3e
       0.120752 0.43622872 0.08618495 0.22124307
0001b0 c9 53 4d 3d c3 b3 8d 3e 5e 32 a7 3e 97 1e cc 3d
       0.050128732 0.2767621 0.32655615 0.09966772
0001c0 e8 de 6f 3e 56 42 6c 3d e1 23 d4 3e be 53 30 3e
       0.23424876 0.05768045 0.41433623 0.17219445
0001d0 2f 40 ee 3d 00 a9 07 3f 56 d5 9c 3e e9 6d 66 3d
       0.11633336 0.5299225 0.30631512 0.056257162
0001e0 ad 64 ca be 6d 69 e5 3e 87 b4 2f 3f d7 28 0a 3e
       -0.39529935 0.44806996 0.6863484 0.13492142
0001f0 f3 35 51 be 86 40 65 bd 44 64 08 be ba c9 1a 3c
       -0.20430736 -0.055969737 -0.13319498 0.009447509
000200 7b 53 3d 3d bd 6c 26 3c 83 d9 8a bd 4b 5c 5a be
       0.04622219 0.010157761 -0.06779768 -0.2132427
000210 da 01 15 3b ce c8 c4 3d ee 52 24 3e 4b 5c 4c 3a
       0.00227367 0.09608613 0.1604726 0.0007795735
000220 63 73 da bd 54 78 1c 39 aa 89 80 3d 26 dc fd 3d
       -0.106665395 0.00014922145 0.06276257 0.123955056
000230 79 87 99 bc b0 bc 0f bd 3e f0 e7 bd 08 3d a0 3d
       -0.018741356 -0.035092056 -0.113251194 0.07824141
000240 e8 72 3f 3e c4 39 51 3d bd 6f 98 3d b3 0b 9c bd
       0.18696177 0.05108048 0.074431874 -0.07619419
000250 ce f0 ce 3c ab 4d 74 3e 28 2d a3 bd 80 b1 4b 3d
       0.025261309 0.23857753 -0.07967597 0.049729824
000260 02 bf 74 3d db 57 20 3e 9f 97 24 be 60 88 31 3e
       0.05975247 0.15658514 -0.16073464 0.17337179
000270 bf ce a4 3a ee 99 db 3d a3 10 8d be f2 7d 0c 3d
       0.0012573822 0.10722719 -0.27551755 0.0342998
000280 ff d5 33 3c e6 f9 98 3e db ac 0f be 33 f8 0b 3d
       0.010976314 0.29878157 -0.14030783 0.034172248
000290 23 22 86 b9 06 c2 40 be e9 ef a3 be 6c d6 1f bd
       -0.00025583906 -0.18824014 -0.32018974 -0.039022848
0002a0 b2 23 b8 bd dc fd 7a be a7 3d c9 bd cb c4 24 3e
       -0.08991183 -0.24510902 -0.098262124 0.16090696
0002b0 4b 9b 61 be 56 87 a9 be 33 8b 02 be b2 cd 61 3e
       -0.22031896 -0.33111066 -0.12748413 0.22051123
0002c0 8e 95 03 3e 9b 83 db 3d 1c f4 89 3e d7 65 8b 3d
       0.1285002 0.10718461 0.26944053 0.06806534
0002d0 03 57 c8 3c d8 c2 d0 bb 30 f8 9c be a8 cd 9e 3e
       0.024455553 -0.0063708834 -0.30658102 0.31016278
0002e0 8c 76 29 3e 25 97 8c be 71 6b d8 3d 33 24 e6 be
       0.16549128 -0.27459064 0.10567368 -0.44949493
0002f0 93 91 95 3e ce 11 18 3c 7a cd 12 3c 4d 18 5d bd
       0.29212627 0.009281589 0.008960122 -0.053978253
000300 40 1b ac be 50 c9 06 bf 70 80 9b 3d 0e 74 54 3e
       -0.3361454 -0.5265093 0.07592857 0.20747396
000310 f1 7e 94 3e aa 97 08 3f 6f 95 dc 3c 14 27 c4 be
       0.290031 0.5335642 0.026926724 -0.38311064
000320 5f a6 d3 bc 23 e6 92 3d 34 31 23 3e 42 2f 29 bd
       -0.025836168 0.07172801 0.15936738 -0.041304834
000330 d0 14 da 3d a6 cc 65 3d 94 8b 9b be f0 e9 76 3d
       0.10648501 0.05610337 -0.30379927 0.060281694
000340 93 5d 66 3e e3 23 bc be fa 02 05 3e a2 be da 3e
       0.22496633 -0.3674613 0.12989417 0.42723566
000350 f9 7a 4e be 6f 38 29 3f c1 10 e5 3c e7 8f 97 3c
       -0.20164098 0.66101736 0.02796209 0.018501235
000360 e7 22 25 3e d0 0e 30 3e b2 c6 56 3e f8 a4 9e 3e
       0.16126595 0.1719315 0.20974234 0.30985236
000370 74 08 d4 3d 6d 84 0e be 65 7d 0c 3d 7e 77 89 bb
       0.10353175 -0.13917704 0.034299273 -0.004195153
000380 04 39 89 3e e6 ce a8 3d 75 16 07 3e 2e df 15 be
       0.26801312 0.08242588 0.1319216 -0.14635918
000390 e6 c7 98 bd 7f 16 c2 3d 64 78 8f 3c 86 8f bb 3d
       -0.074600026 0.09476947 0.017513461 0.09158234
0003a0 1c 9e 8a be b3 2e 98 be a5 6f e2 3d 68 03 16 be
       -0.27073753 -0.2972313 0.11056451 -0.14649737
0003b0 5a 93 9f bd d9 40 35 be f0 3e cb be 61 76 18 be
       -0.07791777 -0.17700519 -0.39696455 -0.14888908
0003c0 76 cb 2a 3e 77 52 80 be 0b 05 2f be ae 8d 95 be
       0.16679177 -0.25062916 -0.17091767 -0.29209656
0003d0 17 62 8c be fe ca 23 3e 02 59 ee bd 18 5c 6a bd
       -0.27418587 0.15995404 -0.11638071 -0.057216734
0003e0 fc c5 44 3e 99 6c 98 be 04 66 28 3e 0b 50 35 3e
       0.1921615 -0.29770353 0.16445166 0.17706315
0003f0 b6 be c9 be 89 a3 06 be 8a a9 c2 3d 51 68 6b be
       -0.39403313 -0.13148321 0.09504993 -0.22989012

layer2.conv2.bias f4 [16]
000000 cb 28 21 bf 44 14 56 bf af 79 2b bf c1 7e 16 bf
       -0.6295287 -0.8362467 -0.6698255 -0.5878716
000010 ee 34 45 bf 43 72 0c bf 2e 78 18 bf f0 61 c7 be
       -0.7703389 -0.5486185 -0.5955838 -0.38941908
000020 e8 4d 47 bf 0c e0 31 bf 19 91 03 bf 60 40 d0 be
       -0.7785325 -0.69482493 -0.51393276 -0.40674114
000030 d8 39 bf be 8d 91 2c bf c2 91 23 bf d7 c5 de be
       -0.3734882 -0.6740959 -0.63894284 -0.43510315

layer3.fc1.weight f4 [120, 400]
000000 04 de f8 3c f9 c1 b1 3b 8a bc 1f 3c 37 d3 9f bc
       0.030379303 0.0054247347 0.009749541 -0.019509895
000010 fc 20 ac bb e8 e7 93 bb b1 d5 2b bb 5f 9c 06 3c
       -0.0052529555 -0.0045137294 -0.00262199 0.008215993
000020 a8 7a 4a bc c3 a5 25 bc 71 69 d9 3a b7 3e 05 ba
       -0.012358345 -0.010110321 0.001658721 -0.00050828926
000030 38 4e c5 3b 1e 96 ac 3c 9e ac 72 bb 2f 66 9a 3c
       0.0060212873 0.021067675 -0.0037029157 0.018847553
000040 02 1f af 3c 31 82 43 3b 58 b4 b8 3c 80 d2 99 3c
       0.02137709 0.0029832239 0.022546932 0.018777132
000050 27 bd 04 3c 8b 9a fe 3b 08 cd d7 b9 ff 27 17 3b
       0.008101738 0.007769888 -0.00041160756 0.002306461
000060 17 6a 67 3c 7b 30 91 3c 44 2d bc bc c8 d8 fc bc
       0.014124415 0.017723313 -0.022970803 -0.030865088
000070 27 f9 77 bd 6d 45 17 bd 05 3a 09 bc 5e fe 40 3c
       -0.060540345 -0.036931444 -0.008375649 0.011779396
000080 b9 00 f0 bb e0 21 6e bc d2 0b 0f 3c 8c 1d cd bc
       -0.007324305 -0.014534444 0.0087308455 -0.025038503
000090 05 eb 61 bc 85 0b 43 bb 12 53 25 3c c1 85 f3 bc
       -0.013788943 -0.0029761505 0.010090606 -0.029726865
0000a0 52 42 22 bb a1 b8 d7 bb 02 a4 0d bd 37 6f d7 3c
       -0.0024758768 -0.006583289 -0.03458024 0.026298149
0000b0 c8 fb 41 3c d1 28 75 3c 35 6b d6 3a a8 8c a5 bc
       0.0118398145 0.014963345 0.0016358854 -0.020208672
0000c0 e3 6d 6c bc a5 6a 4f bc 32 5c bd bc e1 71 a2 bb
       -0.014430496 -0.012659703 -0.023115251 -0.004957423
0000d0 30 29 25 3c 20 a7 ce bc 77 8f 89 3a da 08 7a bc
       0.010080621 -0.025226176 0.0010495026 -0.015260899
0000e0 c6 58 11 bc 45 de eb 3c c3 ca d6 3b 33 5d 8d bc
       -0.008871263 0.02879251 0.006554933 -0.017256355
0000f0 24 42 9e bb 5a cd 63 bd 10 82 16 bc 13 c0 f8 bb
       -0.004829662 -0.05561576 -0.009186283 -0.0075912564
000100 b9 93 11 bd 7a 71 12 bc 06 d1 9a bc 41 53 41 bc
       -0.03554127 -0.008938188 -0.018898498 -0.011799634
000110 fa 3d 57 3b 78 4e bc 3b 9a 1f e8 bc 09 96 a9 3b
       0.0032843337 0.005746659 -0.028335381 0.0051753563
000120 af 22 bd 3c 3c 2c da 3c 80 bb ef 3a 58 c7 79 bc
       0.023087827 0.02663242 0.0018290132 -0.015245281
000130 d8 c1 d3 bc 59 83 b4 bb 8d 4e fe 3a 5c 75 ac 3c
       -0.025849268 -0.005508822 0.0019402072 0.021052055
000140 e6 3b 31 3c 7d 2d 2a bc 4f 65 c0 3a c2 df 89 3b
       0.010817504 -0.010386822 0.001467863 0.004207582
000150 db a4 a5 3c e8 fe 9a bc ba 3e b1 bb 2f da cd 3c
       0.02022021 -0.018920377 -0.005409089 0.025128452
000160 19 97 0e bc 8b 2a 30 3d c1 38 23 bc 67 85 37 39
       -0.008703017 0.043009322 -0.009962262 0.00017501936
000170 67 07 5f 3c 07 73 56 3c 56 9b 0c 3c 52 9b ce 3b
       0.013612605 0.013088948 0.008581957 0.0063051367
000180 89 8d 8d ba 37 29 ce bb 66 69 b8 bb 46 9f 39 bc
       -0.0010799627 -0.0062915343 -0.005627799 -0.011329478
000190 23 b9 ef 3b 27 c3 c0 3c 34 c9 98 bb e1 49 26 ba
       0.007315771 0.023530556 -0.004662657 -0.0006343406
0001a0 32 b0 63 bc aa b1 d4 3a 98 3d ca bc ce 47 6e 3a
       -0.013896989 0.0016227264 -0.024687573 0.0009089679
0001b0 b7 e1 72 bc 20 69 80 bc 1f 97 89 3c 58 8c 47 3c
       -0.014824322 -0.015675128 0.016795693 0.012179457
0001c0 50 5b 69 bb 8d e9 f1 3c 9d 4f 23 bc 97 d4 96 3b
       -0.0035607405 0.029530311 -0.009967712 0.0046029794
0001d0 6c c9 1b 3c b0 89 80 3c ab 3a 70 3c ae e6 da 3b
       0.009508472 0.015690655 0.014662425 0.006680331
0001e0 01 ff c5 3b 00 07 56 bc 38 77 e1 bc c6 87 e7 bb
       0.0060423617 -0.013063192 -0.027522668 -0.007065746
0001f0 1c 15 8c 3c 16 84 3e 3c 3c 6f b1 bc 82 5f c5 bc
       0.01709991 0.011628171 -0.021659486 -0.024093393
000200 a3 50 0a bc 3d d2 ba 3c c3 f9 a1 bc 54 c4 a8 bc
       -0.008442077 0.022805328 -0.019772416 -0.020601429
000210 59 54 8e 3b 30 07 c2 3b de f8 88 3c f5 90 2e bb
       0.004343551 0.005921267 0.016720232 -0.0026636694
000220 57 89 b9 3b 6e ae 10 3c 1c 76 8d 3b c6 7b c5 3b
       0.005662124 0.00883065 0.0043170583 0.006026718
000230 0a de 84 3c dd 29 c1 3c d7 a1 d3 3c 69 47 4b bc
       0.016219158 0.023579532 0.025834007 -0.012407162
000240 5c ae 60 bc 41 a0 07 3c a2 5d ec bc bb d1 5f 3c
       -0.0137134455 0.008277954 -0.028853241 0.0136608435
000250 b7 35 ca bc a7 fb 96 bc a8 9d 24 bc d0 a3 67 bc
       -0.024683816 -0.018430544 -0.010047354 -0.014138177
000260 50 66 0f bb 66 fa 0a 3c 4f 48 c6 3c 88 bb 8e bc
       -0.0021881051 0.008482551 0.024204401 -0.017423406
000270 74 44 ad 3b 30 d1 37 bc 18 0c 8b 3c 5f 08 a1 39
       0.0052877013 -0.011219308 0.01697354 0.0003071455
000280 fb aa b3 bc be ca f3 bb 71 a6 86 bc 7f 03 f1 39
       -0.021932116 -0.0074399402 -0.016436787 0.00045969707
000290 94 9b 74 bb 01 e9 48 3c 72 8e 2a bb 12 a9 be bc
       -0.0037324177 0.012262584 -0.0026024845 -0.023273978
0002a0 58 17 0c bb e7 2b 91 bc 79 41 03 3d 4b 83 14 bc
       -0.0021376219 -0.01772113 0.03204486 -0.009064506
0002b0 58 cf dc 3c ba a2 b3 bb dc a9 77 bc b7 79 8c bc
       0.026954338 -0.005482045 -0.015116181 -0.017147882
0002c0 0a af a1 bc 67 f3 97 bb c2 9a 87 bb d7 ff eb bc
       -0.019736785 -0.00463717 -0.0041383216 -0.028808517
0002d0 9c 07 78 bc 92 b4 e0 bb 25 58 c1 3c 20 9a fc 3c
       -0.015138533 -0.006857463 0.0236016 0.030835211
0002e0 90 bf 29 3c 35 bf fa bc fb 38 02 bd d3 c9 4c bc
       0.010360613 -0.030608753 -0.031792622 -0.0124992905
0002f0 a5 d1 4c 3c 58 6f a2 3b fd ff 8d bc f6 7a 97 bb
       0.012501155 0.004957121 -0.017333979 -0.0046228124
000300 dc 8b 08 bd 7f 72 a8 3a 75 67 29 3c 68 98 6d 3c
       -0.033336505 0.0012851505 0.0103396075 0.0145016685
000310 9f 4c 71 3c 59 86 d0 bc da 6e 81 3b ca bf 30 3c
       0.014727741 -0.025454687 0.003949982 0.010787914
000320 e5 eb 29 bd cf ec bd bb fc 07 81 ba ff f4 c2 3b
       -0.041484732 -0.005796052 -0.0009844298 0.005949616
000330 de 7b 92 3c 0b a9 fc bc 80 ff 74 bc 7f a3 37 bc
       0.01788133 -0.030842325 -0.014953494 -0.011208414
000340 73 0b 24 bc eb b8 22 ba ca 89 54 bb 69 aa 05 bd
       -0.010012495 -0.00062073645 -0.0032430761 -0.03263322
000350 6d 99 47 3c 9e d9 8e 3c 5d 9c d9 bc e5 4b ba 3c
       0.012182576 0.017437752 -0.026563818 0.022741267
000360 49 7d 29 3d 43 4b e1 3c 9b b1 3d 3d fe b4 ab 3c
       0.041379247 0.027501708 0.046311956 0.020960327
000370 a9 01 49 bb f3 22 a8 bc 92 57 84 bb a3 a5 ba 3c
       -0.0030671156 -0.020524478 -0.0040387595 0.02278406
000380 f9 28 93 3c 39 ed 60 bb 1e c0 63 38 5f 78 1d bb
       0.017963873 -0.0034321083 5.429994e-05 -0.0024028046
000390 03 39 b5 bc 46 d8 14 bd 84 92 8c 3b e8 cc 4f 3c
       -0.022121912 -0.036339067 0.004289927 0.012683131
0003a0 b7 45 74 bc 7e f1 16 bb 06 1c 3b 3b 31 b9 15 bd
       -0.014909199 -0.0023032124 0.0028550639 -0.036553565
0003b0 81 49 04 bc 9d 1f a7 bb 23 19 b8 bb fe ef bb 3c
       -0.008074165 -0.005100204 -0.005618231 0.022941586
0003c0 91 c2 29 bc 0f 71 a9 3a 28 6c ad 3b c5 3b 48 bb
       -0.01036133 0.0012927371 0.0052924342 -0.0030553204
0003d0 17 61 9a 3c 5b 2f 4e 3c cd 89 1a 3b d7 e0 1d 3b
       0.018845124 0.012584533 0.002358067 0.0024090314
0003e0 b1 8e 96 bc 94 41 49 ba 58 40 37 3c 92 80 c3 3c
       -0.018378587 -0.00076773134 0.011184774 0.023865018
0003f0 2c fe f4 3c 56 01 d6 3c ef 01 d7 3c 55 cf b8 3c
       0.029906355 0.026123684 0.02624604 0.022559801

layer3.fc1.bias f4 [120]
000000 f4 5f 0e 3c 23 47 86 b6 fc ef 20 3c 75 3a 4f 3b
       0.008689869 -4.0017926e-06 0.009822842 0.0031620536
000010 ec 71 44 ba 07 84 cf 3b b6 83 14 bb 1c da 6c bc
       -0.00074937823 0.0063328776 -0.0022661514 -0.014456298
000020 41 31 ac 3a f2 86 5e 3c 9d f8 8f bb 21 8c 22 bc
       0.0013137237 0.013581978 -0.0043936507 -0.009921105
000030 5f b4 d4 bb 31 ea 12 bb 65 58 82 3c 53 60 94 bb
       -0.0064912285 -0.002241742 0.01591129 -0.0045280843
000040 86 8c 8a 3b cf 2c 80 ba dd 67 4e ba 9b b9 17 bc
       0.0042281775 -0.0009778979 -0.0007873753 -0.00926056
000050 aa e7 f4 3b 4e 8d e3 3b 8c c7 37 bb db f1 71 3c
       0.0074739056 0.006944335 -0.0028042523 0.0147671355
000060 dd 54 ea 3a 90 ae 97 3a b2 5b 96 3c 41 62 83 3c
       0.0017878074 0.001157241 0.01835427 0.016038062
000070 7b 6e 8e bc 99 e5 2a 3b af aa 35 3a 37 4b 1f bc
       -0.017386666 0.0026076792 0.0006930036 -0.009722522
000080 f4 3d 3e 3e 5a c5 ec 3b 94 76 8e ba 60 63 38 3a
       0.1857832 0.0072256746 -0.0010869079 0.0007033851
000090 ed ed 6b bd e7 ae 77 3c d6 3f aa 3b eb a1 10 bc
       -0.05759995 0.015117384 0.005195598 -0.008827667
0000a0 39 9e 2c 3c 44 f0 65 3c 0d 22 9d 3a 47 bf dd 3d
       0.01053577 0.014034335 0.0011988297 0.10827499
0000b0 82 27 59 bb 99 f3 10 3b 00 54 2c bc e8 f7 6a ba
       -0.003313512 0.0022117852 -0.010518074 -0.00089633325
0000c0 89 5f 28 3b 11 f5 57 3a 83 39 21 b9 a1 1a 18 3b
       0.002569171 0.0008238117 -0.00015375581 0.0023209231
0000d0 15 81 f3 bb a1 30 46 3b 73 5c b7 3b 6d 59 22 bb
       -0.0074311593 0.0030241387 0.0055957376 -0.002477254
0000e0 9b 5d d3 3a 44 3a cf bb 4c 18 65 ba ee e2 1a 3c
       0.0016125919 -0.0063240845 -0.0008739277 0.009453518
0000f0 e5 a4 68 bc e2 c1 3b bc b1 44 2a bc e6 a7 e0 3d
       -0.01419947 -0.0114597995 -0.010392354 0.10969524
000100 f7 93 16 be 13 92 6a bc 05 93 8d 3b 60 49 82 bb
       -0.14704882 -0.014317053 0.0043205046 -0.003976032
000110 16 9d 08 3c 60 85 e5 3b 13 5c 99 3c 64 20 fb 3b
       0.008338233 0.007004425 0.018720662 0.0076637734
000120 c5 3e 7b bc c1 f1 8a 3c c0 04 cf 3b 8f 0c a4 3b
       -0.01533479 0.01696098 0.006317705 0.00500638
000130 25 7d e6 ba 07 7b cd bb 2e 73 0f bc e1 5e 3a bc
       -0.0017584903 -0.0062707695 -0.008755488 -0.01137516
000140 f4 5b f5 bb b8 40 ea bb 05 6e 36 bc 8c 8a 2b bc
       -0.0074877683 -0.0071488284 -0.011134629 -0.010470044
000150 eb 86 90 bb b9 7b 8c b9 6e c1 3c 3c 1e 3b 00 3c
       -0.0044106147 -0.0002679506 0.011520727 0.007826595
000160 62 c1 48 3c 3a ca 15 3b c9 bc 00 bc f1 08 0c bc
       0.012253137 0.0022856132 -0.00785751 -0.008547054
000170 4b f5 c9 b9 a0 a7 8b bc 2f eb 58 b8 05 c1 42 ba
       -0.00038520465 -0.017047703 -5.1717445e-05 -0.0007429275
000180 71 93 71 3c b3 1f a1 3a 00 7d d8 bb ca 62 ef bc
       0.014744625 0.0012292772 -0.006606698 -0.029221911
000190 2f 3a b1 ba b4 c5 11 bb 9a 60 0f 3c 27 59 05 3c
       -0.0013521368 -0.0022243084 0.008751059 0.008138931
0001a0 9e ff 06 3c 33 c4 59 3a e7 a3 83 bb 7a 24 19 bc
       0.008239655 0.0008307129 -0.0040173414 -0.009347076
0001b0 b7 21 01 bc 68 32 12 3b 6d d9 03 bc c0 fe fc 3b
       -0.007881573 0.0022307876 -0.008047444 0.0077207983
0001c0 38 c8 b6 3e 19 65 4e bb 8a b4 4b 3c 9a dd 2a bc
       0.3569963 -0.0031493364 0.012433181 -0.0104288105
0001d0 65 64 27 ba e2 6e 8a ba 99 53 f6 3b 2f 49 53 3e
       -0.00063855044 -0.001056161 0.00751729 0.20633386

layer3.fc2.weight f4 [84, 120]
000000 b4 ce b3 3c bc 9d 06 bb bf 38 02 3c c0 47 51 39
       0.02194915 -0.0020540794 0.0079481 0.00019958522
000010 7d 02 3b ba bc e2 49 bb 23 2f c7 bb 8a 24 39 bc
       -0.00071338547 -0.003080531 -0.006078617 -0.0113002155
000020 bc fa 04 bc 5f bb 3d 3c 2c 64 8d 3b 2a 14 e8 3b
       -0.00811642 0.011580317 0.00431492 0.007082482
000030 59 ca a4 3b 69 ae d6 bb 19 57 1d 3c 37 a1 74 3a
       0.0050290045 -0.006551553 0.009603285 0.0009331884
000040 96 78 4d 3b 32 bd c3 bb cc 00 75 b9 c9 e8 34 39
       0.0031352392 -0.0059734816 -0.00023365318 0.00017252857
000050 db e8 40 bb fb d3 15 3c ce 99 89 3c f6 64 81 3c
       -0.0029435668 0.009144778 0.016796973 0.015795212
000060 9e a4 94 bb 2e a8 97 bc e0 5a 37 3c 14 4a 29 3c
       -0.0045362255 -0.018512812 0.0111911 0.010332603
000070 0d f5 dd 3b ed 95 ee 3b b6 f2 50 3b 4e 15 93 ba
       0.006773597 0.007281056 0.0031882948 -0.0011221559
000080 b2 7d e2 3b 66 d4 bb 3b 74 8f 5f 3a 15 15 9b 3a
       0.0069119567 0.005732107 0.0008528151 0.0011831844
000090 98 c2 0b 3c 97 14 73 3b b6 68 1c bc 93 a4 24 bc
       0.0085302815 0.003709113 -0.009546449 -0.010049003
0000a0 12 bd 08 ba 4a 5e 97 bb f7 52 b2 3b 8a 97 e4 3b
       -0.0005216162 -0.0046193944 0.005442019 0.0069760727
0000b0 9c 7b 00 bc 2c 49 33 b9 fd c5 21 3b 1a 75 f4 ba
       -0.007841971 -0.00017098029 0.002468466 -0.0018650622
0000c0 5d 60 6f bc 39 f4 8e 3b 17 f2 f7 39 ce 15 1d bb
       -0.014610377 0.0043626097 0.00047291882 -0.0023969295
0000d0 23 5a ab bc c7 ab 01 3b 55 86 44 3c 80 5d c1 bb
       -0.020917004 0.0019786225 0.011994918 -0.0059010386
0000e0 23 bc dc bb 6e 7f 30 bb 19 a1 2f 3c b0 fa 30 3b
       -0.006736295 -0.0026931423 0.010719561 0.002700489
0000f0 53 2d 2f 3c cd a2 0c bb 77 c6 3e 3c 41 8f f8 ba
       0.0106919585 -0.0021459342 0.011643997 -0.0018963591
000100 5e 6c 92 ba ea bd 4c bc 21 3e d3 3a 80 4c da bb
       -0.0011171212 -0.012496451 0.0016116538 -0.0066619515
000110 6c 22 e5 3a d3 ef 54 bc 94 c7 44 3c 47 f6 8c bb
       0.0017481572 -0.012996632 0.012010474 -0.0043018195
000120 79 7f 12 bc 4c 36 2e 3c df ac f5 3b fb 5a 70 3b
       -0.008941525 0.010633063 0.0074974145 0.0036675322
000130 e4 0e 3e bb f9 4a ba b7 91 be 8f bb 03 cb a0 bb
       -0.0029000575 -2.220784e-05 -0.004386731 -0.0049070134
000140 56 a9 7f 3b 7e 03 ac bb 68 4d 1e bb f5 37 39 3c
       0.0039010844 -0.0052494397 -0.0024155024 0.011304845
000150 88 8c af bb 31 f8 64 bb 8a f0 13 3b f3 dc 91 b9
       -0.005357329 -0.0034937973 0.0022573792 -0.00027821175
000160 59 94 10 3b 2a fa 94 bb a6 54 a6 39 cb c3 c8 3b
       0.0022061078 -0.0045464234 0.00031725055 0.006126856
000170 1a b7 e8 bb fd d6 b3 bb e5 55 86 ba 80 6e 53 bb
       -0.0071019055 -0.005488275 -0.0010248987 -0.0032261908
000180 a3 14 63 3b b6 4f ea 39 07 2b be 39 59 2f 25 bb
       0.0034649752 0.00044691347 0.00036271682 -0.0025205223
000190 b7 45 8f bc 5e 1a 4d bb 19 0e af 3b b3 54 a0 3b
       -0.017489297 -0.0031296234 0.0053422567 0.0048929094
0001a0 3e fb 30 3c ea e9 89 bb ec 34 9a bb 39 a7 08 ba
       0.010802088 -0.004208793 -0.004706016 -0.00052129064
0001b0 c8 c1 00 bc 1b fb c0 ba c2 4a 47 bc bc f3 ec bb
       -0.007858701 -0.0014723273 -0.01216382 -0.007231204
0001c0 7b 41 6d 3c 90 5c 15 bb 45 55 4b 3c 55 37 78 bb
       0.014480944 -0.0022790767 0.012410467 -0.0037874777
0001d0 a0 5e b4 bb 8d fa c2 bb 49 01 bc bc 1b aa 1b 3b
       -0.0055044442 -0.005950278 -0.022949832 0.0023752514
0001e0 83 1c f1 bb d8 27 56 bb 05 68 12 bc bb 4c f2 ba
       -0.007358135 -0.0032677557 -0.008935933 -0.0018486002
0001f0 d0 56 65 bc 2f 1a 52 3c 69 e2 91 bb 79 2f 4c 3c
       -0.0139977485 0.0128236255 -0.004452039 0.01246249
000200 d2 74 3d 3b 0f a8 8d 3b 0c 29 51 bb 9b c9 10 bc
       0.0028908742 0.0043230127 -0.0031915335 -0.008837129
000210 ea 7d cf bb c1 0a 28 3c c7 39 00 3c 7b 15 3b 3b
       -0.006332149 0.01025647 0.007826275 0.002854674
000220 5d 37 14 bb 36 e3 13 bc 1d c8 1c 38 2e 43 a9 3b
       -0.0022616007 -0.009026339 3.737967e-05 0.005165479
000230 af 49 88 3c 7c 49 db b9 c6 36 86 bc 37 25 51 ba
       0.016636698 -0.00041825685 -0.01638354 -0.0007978263
000240 cc ae 4b 3c bd 96 34 3c 20 b0 c1 ba 52 60 95 bb
       0.012431812 0.011022267 -0.0014777221 -0.0045586014
000250 e2 fa d9 bb 8c 0f 99 bb 5b 2a b6 bb 6d 24 2a 3b
       -0.006652222 -0.004671043 -0.0055592484 0.0025961653
000260 29 c7 74 bc 94 ce 31 bc 25 08 1c 3c 66 19 2a 3b
       -0.014940062 -0.010852475 0.009523426 0.002595508
000270 4c fa ca 3b 74 17 14 bb 3d 67 44 bb ce 57 7f bb
       0.0061943885 -0.0022596987 -0.0029968761 -0.0038962248
000280 99 9e 4d bb 0c 74 18 3c b5 10 20 3b 0f 85 21 3c
       -0.003137505 0.0093050115 0.002442402 0.009858384
000290 2f d9 84 3b 48 eb 8c 3b 47 93 99 3b bc 98 2b 3c
       0.0040542106 0.0043005086 0.0046867463 0.010473426
0002a0 e3 dc 11 3b fa af 06 3a c2 f7 0e bb fa 6e c5 3a
       0.0022256903 0.0005137917 -0.0021815156 0.0015062981
0002b0 06 8a 94 3c 11 93 eb 39 e2 97 09 bb b8 ef 0e 3c
       0.018132221 0.00044932266 -0.002099507 0.008724146
0002c0 50 d1 77 bb f8 f2 3f 3b 93 fa c1 3b c0 41 9e bb
       -0.003781397 0.0029289108 0.0059197634 -0.0048296154
0002d0 b5 4c 45 3a fd 34 e8 ba 0a f6 4d bb 9e 3e c1 bb
       0.0007526384 -0.0017715987 -0.0031427168 -0.005897357
0002e0 f6 66 23 3b db 71 a7 bb f3 2e 6c bb be 1f 8d 3b
       0.0024933196 -0.005110008 -0.0036038726 0.0043067625
0002f0 ad fa 9f bb 5b a5 1d 3c 3b bf 1b bb 47 2f 28 ba
       -0.004882178 0.009621943 -0.0023765105 -0.0006415736
000300 42 29 da 3b 9b b5 e9 bb 31 f3 95 ba 5b 8e b9 3b
       0.0066577503 -0.0071322448 -0.0011440275 0.005662722
000310 e4 b1 05 bc 9f b7 c7 ba a3 06 2e bc a2 d7 8e bb
       -0.008160088 -0.0015237218 -0.0106216995 -0.0043592015
000320 bd 9a 57 3b b0 d6 0c 3c ca 2f d2 bb 17 64 37 bb
       0.0032898628 0.008596107 -0.0064143883 -0.0027983242
000330 bc 59 13 3b 31 66 71 3b c7 fe 0e bb 13 b5 13 3b
       0.0022483906 0.0036834592 -0.002181934 0.0022538349
000340 ba bf 2d ba 6d a0 d1 ba 73 5c 04 3c e2 8b 03 3b
       -0.0006627996 -0.0015993245 0.008078682 0.002007239
000350 79 ff 7f bc a4 6b d8 3a 0b dd 0f 3c 62 80 cb bb
       -0.015624874 0.0016511572 0.008780728 -0.006210373
000360 71 19 01 3b 30 e6 aa bb 4c 74 ef 3b 32 67 a3 3b
       0.0019699002 -0.005215429 0.007307565 0.004986667
000370 a0 d7 44 3b cf e5 9c 3b 1b 52 b9 3a 00 eb c4 3b
       0.003003575 0.0047881375 0.0014138849 0.0060094595
000380 09 48 4e bb 89 e7 e0 3b fc 14 94 3b 19 dc 4a 3b
       -0.0031476042 0.0068635386 0.004519103 0.0030953942
000390 bc 51 b8 3b 85 54 fe 39 d2 57 81 39 9a 4e 90 bb
       0.005624978 0.00048509627 0.0002467023 -0.0044039013
0003a0 76 6b 8e 3a c7 6e 25 3b b6 a5 15 bc 4d 4b 3e ba
       0.0010865766 0.002524303 -0.009133747 -0.00072591455
0003b0 8d 48 0f 3b 79 aa 44 3b 60 1b 82 3c a9 23 01 bc
       0.0021863312 0.0030008836 0.015882194 -0.007882037
0003c0 37 e1 95 3c 7f 7b 5d 3b 98 47 3d 3c 94 28 88 3a
       0.018295867 0.0033795533 0.011552714 0.001038807
0003d0 8b 5d 27 3b 43 ca ba ba ac bc 04 bc 21 6f 38 bb
       0.0025537934 -0.0014250953 -0.0081016235 -0.002814241
0003e0 ad 6c 24 bc 39 72 ad ba 3a 18 9e 3b 78 39 43 3c
       -0.010035676 -0.0013232894 0.0048246654 0.011915557
0003f0 2f 33 f4 bb 47 72 e6 bb 98 e4 fb 3b 89 0c 06 3b
       -0.0074523906 -0.007032666 0.0076871626 0.002045425

layer3.fc2.bias f4 [84]
000000 3a 8d 9c ba 5f 68 cd 3b 6c 23 1b bb 79 39 e9 bb
       -0.0011943944 0.0062685455 -0.0023672236 -0.007117447
000010 af f4 82 3b 18 ab ee bb 69 2a b3 bb df a6 06 3b
       0.0039964537 -0.0072835796 -0.005467702 0.002054624
000020 c8 d8 c0 ba 59 f9 20 3b 0e 68 6b 3e 01 01 13 3b
       -0.0014713043 0.0024562685 0.22988912 0.0022431018
000030 72 d5 9d bb e5 a2 4d 3b 57 df 25 3c e0 36 90 bb
       -0.0048167044 0.003137761 0.010124049 -0.004401073
000040 87 3b 80 bc 97 49 c7 3b ef 17 8c bb 67 14 1e bc
       -0.015653385 0.0060817706 -0.004275314 -0.009648419
000050 b9 85 10 bc a5 83 a6 3a 4d 47 bb 3b 72 8e 46 3c
       -0.0088209445 0.0012704028 0.005715287 0.012118923
000060 8f 7b b5 ba 11 62 2a bd 99 f8 98 3b ab aa b6 3c
       -0.0013846027 -0.04159743 0.004668307 0.022298178
000070 be 3d b5 ba bb e0 2f 3c 06 7b 87 bb 70 32 ef 3a
       -0.0013827605 0.010734732 -0.0041345386 0.0018249284
000080 d2 30 52 bc 16 62 5f bb 61 c6 1b bc 9b bd b2 bb
       -0.0128290225 -0.0034085563 -0.009507746 -0.0054547316
000090 fd b2 da bb e9 e1 12 bc 5b e8 7d bb a4 c7 44 3c
       -0.006674169 -0.008964994 -0.003874323 0.012010489
0000a0 56 96 60 3c 7e f5 8b 3e 9f ec ff bb 31 c3 d2 3b
       0.013707718 0.27335733 -0.00781019 0.00643196
0000b0 e3 e5 15 3a d9 02 de 39 7c 69 a7 bb f0 d0 cb bb
       0.0005718155 0.0004234526 -0.0051090103 -0.0062199757
0000c0 77 bd 1b bb 99 d7 ec 3b 7a 83 29 3c 56 b5 60 3e
       -0.0023764053 0.0072278497 0.010346288 0.21944174
0000d0 f7 e1 87 ba e0 1c 26 b8 c1 5f 82 3b d3 8c c4 ba
       -0.0010367025 -3.9604376e-05 0.0039787 -0.0014995582
0000e0 cb fe 5a 3c 71 24 86 bc 1b 17 94 3b c5 10 84 bb
       0.013366411 -0.016374798 0.004519356 -0.0040303194
0000f0 53 04 81 ba fb 53 c1 3b da 3b 36 3c f6 be 12 3c
       -0.0009843208 0.005899904 0.011122668 0.008956661
000100 b2 b8 8d 3b 2d be 65 39 1a 05 23 3c f4 05 2c 3c
       0.004324996 0.00021909988 0.009949947 0.010499466
000110 35 39 eb ba 19 42 5c 3c 45 c6 04 3e 28 a3 5c 3b
       -0.0017946126 0.013443493 0.12966259 0.0033666585
000120 e2 ae 00 bc 3d 46 c2 bb b8 09 2b 3b 3f 60 40 3c
       -0.007854195 -0.005928783 0.0026098322 0.011741697
000130 23 a4 e1 bb 10 fe a8 3b 43 be d8 3b 6a d3 c2 bd
       -0.0068860217 0.0051572397 0.006614478 -0.0951298
000140 61 35 94 b9 6f 71 dc bb 78 14 b9 bb 65 c0 59 3b
       -0.0002826853 -0.0067273895 -0.005648192 0.0033226248

layer3.fc3.weight f4 [10, 84]
000000 c9 d5 a7 3b 2f a9 9d ba ca e8 8c 3b 22 34 bf 3a
       0.0051219207 -0.001202857 0.0043002116 0.001458768
000010 5c ca e7 3b 57 84 21 b8 8c 74 0b ba 64 e8 14 bb
       0.0070736837 -3.8508642e-05 -0.0005319796 -0.0022721523
000020 18 ba 15 ba da fd 70 3b 70 ca 33 be ec 29 12 b9
       -0.0005711629 0.00367724 -0.17557693 -0.00013939262
000030 75 4f 80 3b 4c f1 43 bb 43 59 a7 39 14 95 9e 3a
       0.003915722 -0.0029898463 0.00031919227 0.0012098872
000040 4f 55 2a 3a 58 2d 0d bb 61 80 fa b9 78 eb 5a ba
       0.00064976973 -0.002154192 -0.00047779366 -0.00083511276
000050 13 ca cd ba 6d f5 2b 3a d9 57 5a bb fd 20 b9 3b
       -0.0015700482 0.00065597036 -0.0033316521 0.0056496845
000060 52 a6 96 b9 e2 97 86 3c b8 90 03 3b f6 fc b8 3d
       -0.00028734148 0.016429845 0.0020075273 0.090326235
000070 ac d1 ee 3b a3 32 a5 bb e1 a6 ce bb 13 34 bf bb
       0.0072881784 -0.0050414368 -0.0063065146 -0.005835065
000080 20 59 1d 3b 80 f7 d3 bb bf 91 67 bb a5 0c 90 3b
       0.0024009421 -0.0064687133 -0.0035334674 0.0043960386
000090 63 30 a0 3b c4 0f 85 3b 50 25 4e 3b f3 26 0f 3b
       0.0048885806 0.0040607173 0.0031455345 0.0021843284
0000a0 b2 d1 b0 38 d4 03 43 bb 6c a7 88 39 73 0a 21 bb
       8.431393e-05 -0.002975692 0.0002606468 -0.0024572879
0000b0 4f 1a 14 3b 20 f6 3b 39 87 e9 3b 3c c4 94 86 39
       0.002259869 0.00017925398 0.0114692515 0.0002566931
0000c0 72 fc 59 ba 68 14 10 3a d4 f0 59 b9 8f 08 c0 3c
       -0.00083155103 0.0005496205 -0.00020784448 0.023441581
0000d0 85 76 50 3a e2 27 e9 39 61 a4 a3 b9 09 f8 2a bb
       0.0007952231 0.00044470938 -0.00031212255 -0.0026087782
0000e0 f3 db 53 bb 19 e8 75 be 3f 96 23 ba 21 08 02 ba
       -0.0032327145 -0.2401432 -0.0006240345 -0.0004960318
0000f0 e1 f0 8a 3a ce df 4d bb 05 fb 2f 3b 87 94 56 3a
       0.0010600352 -0.0031413916 0.00268525 0.00081855844
000100 43 d0 d9 b9 da 4e 19 3b 48 26 ed 3b 9e c9 f7 3a
       -0.00041544632 0.0023392946 0.0072372295 0.0018904691
000110 5a 4a 5e bb ab 44 61 3b 9a 92 10 be 3b b2 01 ba
       -0.0033918829 0.0034373205 -0.14118424 -0.0004947518
000120 f6 dd fd 3a d6 50 e2 ba c6 20 96 3b 13 d7 08 bb
       0.0019368518 -0.0017266523 0.0045815436 -0.0020880147
000130 3b 1c 5e 3b 1d d2 1d 3c 81 e2 0a bb 3c 2d 0b 3e
       0.0033891338 0.009632614 -0.0021192136 0.13591474
000140 99 09 9a bb 8a cd 06 3b 47 ee 9a 3a c2 b0 b0 3b
       -0.004700851 0.0020569288 0.001182028 0.005392165
000150 1c d9 8f 3b 20 7d 91 ba d8 52 86 ba 0f 5c 58 3b
       0.004389895 -0.0011099912 -0.0010248078 0.0033013856
000160 19 60 88 3b 0f 0f 6a 3b 39 f0 2a 3a b6 3b 90 ba
       0.0041618464 0.0035714542 0.00065207813 -0.0011004123
000170 80 ff e3 3a a6 e2 b4 3a 20 b9 22 bd 6a 3d 13 3a
       0.001739487 0.0013800457 -0.03972733 0.00056167564
000180 06 9c c1 39 83 e0 92 bb f6 e1 0e 3b e4 e0 08 3b
       0.00036928075 -0.0044823303 0.0021802164 0.0020885998
000190 be 00 b0 3b 4d 89 a4 bb 0e 68 d7 3a 7e 15 90 3b
       0.005371182 -0.0050212503 0.0016434209 0.0043970933
0001a0 ee b9 03 3a d1 5e f5 3a 46 14 a3 b9 9b 25 be 3a
       0.0005024959 0.0018720274 -0.00031104888 0.0014507057
0001b0 89 15 8a 3a b4 80 6c 3e 2d 07 17 bb f2 a0 d7 bd
       0.0010534982 0.23095971 -0.0023045049 -0.10528745
0001c0 4f 7f a1 3b fe 21 60 bb 5e bc 12 bb 59 8e 88 3b
       0.0049285064 -0.0034199948 -0.0022390108 0.00416736
0001d0 8f 6f 7d 3b 7e ea 82 bb f0 85 d2 3a d9 21 5d bb
       0.003867123 -0.003995239 0.0016061645 -0.0033742099
0001e0 18 7e b3 3b c8 26 6e 3a 36 d1 88 b8 fe 96 93 bb
       0.005477678 0.00090847583 -6.523954e-05 -0.0045040837
0001f0 56 f6 95 ba d1 ba 25 be 2b 0d 06 bb 44 74 3e bb
       -0.0011441212 -0.16184546 -0.0020454626 -0.0029061
000200 46 11 ff ba 04 b9 29 3b 62 73 f4 3d da 07 57 ba
       -0.0019460104 0.0025897631 0.1193607 -0.0008202769
000210 e8 d9 b8 3a 97 7c d6 ba f8 25 25 3b ce 56 aa be
       0.0014103027 -0.0016364035 0.0025199633 -0.33269352
000220 f0 13 34 ba ea 06 d4 3b d8 2e 32 3a 48 e1 0e 3a
       -0.0006869426 0.006470551 0.00067971414 0.00054504396
000230 e2 e9 85 bb 8f 86 c1 3c 01 83 d5 b9 0a 0a 12 bc
       -0.004086719 0.023623733 -0.0004072413 -0.008913526
000240 f4 7b c3 3a 3a 28 49 ba 64 35 99 3a 4f 78 62 bb
       0.001491426 -0.0007673536 0.0011688885 -0.0034556573
000250 24 07 6d ba a4 82 0e bb bd cd b8 b9 7d 17 8b bb
       -0.00090418966 -0.0021745348 -0.00035248502 -0.0042447434
000260 6a d7 49 3b fa 26 1b bb 14 05 d8 bd a4 d2 0d bb
       0.0030798563 -0.0023674355 -0.105478436 -0.0021640444
000270 c4 2d 52 bb c5 22 03 3b 95 40 4c 3b 9a 17 71 bb
       -0.0032070735 0.0020009738 0.0031166424 -0.003678775
000280 87 9b 21 3b 3c 29 65 3b 0e f8 fd 3a 5d 7c 76 bd
       0.0024659352 0.0034967205 0.0019376294 -0.060177196
000290 34 f0 f7 b9 62 e5 9e 39 7c f5 25 3b e9 39 43 3b
       -0.00047290477 0.00030307012 0.0025323322 0.0029789156
0002a0 02 64 17 bc 5e 6a 4f 3b 6a 53 c1 3a 6b e4 00 bc
       -0.009240152 0.0031649093 0.0014749591 -0.007866959
0002b0 4a 3e 90 3c fc 9f f3 bb ff c4 9d bb bf ae 36 ba
       0.017607827 -0.007434843 -0.0048147435 -0.0006968788
0002c0 be 92 9f 3a 08 70 7a 3a a6 4f b4 bd 58 0d a3 3b
       0.001217447 0.0009553437 -0.08804254 0.004975956
0002d0 be bc 8e bb ef 14 51 3c 13 1e 81 bb e9 29 89 bb
       -0.004355996 0.012761339 -0.0039403527 -0.0041859043
0002e0 40 a4 0b bc 69 72 00 3c 0e 1a cf b9 c5 08 05 bc
       -0.008523047 0.0078397775 -0.0003950153 -0.008119767
0002f0 76 54 06 bb c9 a7 c5 b8 ee 98 58 bb 74 63 04 bc
       -0.002049712 -9.4249444e-05 -0.0033050138 -0.008080352
000300 5f 87 1b bb 91 f4 6f bd 90 3b c0 3b a4 ec 30 3e
       -0.002373181 -0.058582846 0.0058664754 0.17277771
000310 bb 59 22 bc 0a 71 00 3c 83 c2 ed 3a 47 86 40 b9
       -0.009909089 0.007839451 0.0018139634 -0.00018360569
000320 e4 cd 03 bc 8f 90 ce 3b ea be 87 3a b2 8d 2d 3b
       -0.008044694 0.006303854 0.001035658 0.0026482162
000330 40 cc c4 bb 7c 65 5f bb d3 9f b4 bb fd 30 83 bb
       -0.006005794 -0.003408759 -0.0055122166 -0.0040036426
000340 4e 0c 17 3b ce a2 0b 3e 2f bb a3 3a 24 fc 1f 3c
       0.0023048106 0.13636324 0.0012491698 0.009764705
000350 01 58 4b bb 16 33 36 bb a0 49 0d 3d 5c 9e bd bb
       -0.0031027796 -0.0027801446 0.034494042 -0.0057867
000360 b8 c2 b3 ba cd 19 02 3b 7c 10 35 37 ec e5 11 3e
       -0.0013714647 0.0019851804 1.0792279e-05 0.14247864
000370 57 11 b6 ba 8a 29 9a bb 45 93 87 3b 41 0a e4 bb
       -0.0013890666 -0.004704659 0.004137429 -0.00695923
000380 9d c9 d8 3b ee a3 51 3d bd bd 5b 3b df 9a 05 3c
       0.006615831 0.051181726 0.003352984 0.0081546
000390 ce 82 13 bb 8f ef 07 3b 79 b6 d4 ba 1a 48 5d bb
       -0.0022508386 0.0020742153 -0.0016228697 -0.00337649
0003a0 6a d4 94 3b dd d9 46 bb ed 2b 9f bb 9c e7 f5 3b
       0.0045419233 -0.003034226 -0.0048575313 0.0075044166
0003b0 bc dc b7 ba 27 df 19 bb 4e 00 d3 bc 73 49 25 3b
       -0.0014027576 -0.0023478956 -0.025756981 0.002522078
0003c0 ce e8 e5 3a cd b7 e4 bb 03 31 5d bb 77 88 1e 3c
       0.0017540695 -0.0069799186 -0.0033751137 0.00967609
0003d0 11 e5 8c bb 55 1f 80 3c cd ab 63 b8 5e 1a 4f be
       -0.004299768 0.01563994 -5.428102e-05 -0.20224902
0003e0 ce 64 58 3b 92 3e af bb 2e db 1f bc ea 2c e6 bb
       0.0033019069 -0.005348035 -0.009756846 -0.007024397
0003f0 9d 8a 00 3b 5e 69 b8 bb fe 80 03 3b 08 b4 58 ba
       0.001961387 -0.005627795 0.00200659 -0.0008266573

layer3.fc3.bias f4 [10]
000000 55 37 bf bd 8d 30 e1 be b7 a5 b9 3e f6 18 13 3f
       -0.093367256 -0.43982354 0.36259243 0.5745996
000010 15 8a a8 3e 26 cd 1b b9 e7 47 e8 bd ab db 83 be
       0.32917848 -0.00014858376 -0.11341839 -0.2575353
000020 4b 6a bc be 2b 33 8c bd
       -0.36799845 -0.06845697
