output/models_cifar10_260.pth (torch_old, 248636 bytes, 10 tensors)

layer1.conv1.weight f4 [6, 1, 5, 5]
00000000: 05da dd3b be22 46be 88f5 1c3d 87bc fdbd
00000010: 6695 8fbd 5250 923e a2c0 5bbe 99c4 d73e
00000020: bb8e a4bd 111b 5b3e 5200 c43d 2b13 0dbf
00000030: 0a31 c73e 408f adbe 3985 62bd d9bf af3e
00000040: 9ee8 10bf 69c2 1c3f 6eb7 8cbe 83fc ed3d
00000050: f00c 683e 7316 10bf e945 ec3e 975a 3abe
00000060: 7c2a b5bc 9925 053b 13f1 f4bc 6ba6 03bd
00000070: 9ce5 a43d 4990 edbc cba1 343d 8d1b 163e
00000080: 5535 00bf 0f92 e03d 000c 533e 6f7c 88bd
00000090: 8978 9d3e 9153 cd3e 35dd 7bbf 13aa 923e
000000a0: aa94 b03d f2c1 f8be 90fd 2f3f 742e 0c3e
000000b0: 04f4 bebe 8609 2f3a ec33 703d c477 b1be
000000c0: 5d33 b93e 1f7f 99bd f8a4 1bbd 9df2 bbbb
000000d0: d547 6abd 457c 073e e63e 2a3d 2196 4ebd
000000e0: 22c2 c6bc 87c9 1a3e 2391 463d 8183 63bd
000000f0: 4d6b 9bbe 681d 243c 4a6e 8c3e 85cb dcbd
00000100: b72c 14bd 01a8 b0be cf02 9f3e 2652 4d3e
00000110: 54c9 6cbd 560b 5a3c bb35 eabe aaeb 993e
00000120: a66b 80bc 8b31 533d 2e03 bbbd eb83 d1bd
00000130: 35a2 a1be 593b d2bd 4468 36bd 976d 893d
00000140: e6c2 843e e4aa 3f3f 20a7 d03e f6ea 4b3e
00000150: 5a3e 023b 5fec f2bd 39d6 d1be 9d6f 83be
00000160: d137 4dbd c476 8ebd a39b cc3d 3aef b4bc
00000170: bf42 bfbd 8dbc ac3d 929d 333e 38f0 86bd
00000180: ed90 a6bc e4e3 07bd 9cb6 d5bd a89f 99bd
00000190: 6de2 a3bd d128 d73c e11f 3bbb 2b90 c43d
000001a0: 4316 b0bd cd82 333c 56af b73d 5cb8 553d
000001b0: 5085 04be 22ee e33d 488d 81be d1b6 b5be
000001c0: df86 d8bd ece7 8c3a 7396 8cbe 07c7 503e
000001d0: 80b2 3c3e f97d 20be df38 b8bd 9a14 353e
000001e0: b042 37bd 0f57 083d 285b 153e 27af 0c3d
000001f0: cc9d c2bd 7e21 413d 1e71 68be 6d83 953e
00000200: 05f5 7dbc c2fe 9abd af14 fbbd 2590 b83e
00000210: ef13 b53e 7601 1abf 1b47 a53b d4f4 063e
00000220: 4152 c33e 527b 7abf 1edc 223d d0b2 983e
00000230: a5a6 d5bb 6994 91be 5bf3 cebd 07c4 163f
00000240: d071 4fbe 7f91 d53d 6ccb f5bd aa13 4a3e
00000250: 9aad 10be b432 aa3a
0.0067703747 -0.1934919 0.038320094 -0.12389474 -0.07010917 0.28576905 -0.21460202 0.4214218
-0.08035036 0.21397044 0.095703736 -0.55107373 0.389046 -0.33898354 -0.055302832 0.34326056
-0.56604946 0.61234146 -0.27483696 0.116204284 0.22661185 -0.56284255 0.46147087 -0.1819862
-0.022114985 0.00203166 -0.02990011 -0.03214113 0.08051607 -0.028999465 0.04409961 0.14658947
-0.5008138 0.109653585 0.20610046 -0.06664359 0.30756024 0.4010282 -0.9838441 0.2864538
0.086221054 -0.4858547 0.6874628 0.13689595 -0.37295544 0.00066771393 0.058643267 -0.34661686
0.36172 -0.074949495 -0.037999123 -0.005735709 -0.05719741 0.13230999 0.04156389 -0.050436143
-0.024262492 0.15115939 0.048478257 -0.055545334 -0.30355301 0.010016777 0.27427894 -0.10781006
-0.036175456 -0.34503177 0.3105683 0.20050868 -0.05780919 0.013308367 -0.45744118 0.3006261
-0.01567633 0.05156092 -0.09131466 -0.102302395 -0.31569067 -0.10265226 -0.04453303 0.06710356
0.25929946 0.74870133 0.40752506 0.19913849 0.001987359 -0.118614905 -0.4098375 -0.25671092
-0.05010206 -0.069562465 0.09990623 -0.022086728 -0.09338903 0.08434401 0.17540577 -0.06588787
-0.020332778 -0.033176318 -0.104352206 -0.07501155 -0.08002172 0.02626458 -0.0028552937 0.0959781
-0.08597996 0.010956478 0.089689896 0.052177772 -0.1294148 0.111294046 -0.25303102 -0.3549104
-0.105725996 0.001075027 -0.27458534 0.20388423 0.18427467 -0.15673055 -0.08995222 0.1768364
-0.044741333 0.03328615 0.14585555 0.034346726 -0.095027536 0.04715108 -0.22699401 0.29201832
-0.015500312 -0.075681224 -0.122598045 0.36047474 0.3536677 -0.6015848 0.005043877 0.13179332
0.38148692 -0.9784442 0.0397607 0.29823923 -0.0065201097 -0.2843354 -0.1010501 0.58892864
-0.2025826 0.10428142 -0.1200169 0.19734064 -0.14128724 0.0012985081

layer1.conv1.bias f4 [6]
00000000: 6d3e 99be 84e1 91be 129a 99be 5fed 8dbe
00000010: 2058 8fbe d621 a1be
-0.2993044 -0.28492367 -0.3000036 -0.27720162 -0.27996922 -0.31471127

layer2.conv2.weight f4 [16, 6, 5, 5]
00000000: c3b6 ab3d 255c 9f3c 76ba 5e3d 5e3f 123e
00000010: f2b3 6f3d 5c2f 093d 728c 8bbd 3c10 ab3d
00000020: 58be 083d fcc1 bb3d 1ec4 c8bc 68db 443d
00000030: 7526 51bd 8704 6f3b 360b 753d 86d8 b23d
00000040: 0186 07be 7d78 daba 356a cc3d 1cec 5fbd
00000050: cb7c 82be caaa aabe 95c7 2dbf 54e0 39bf
00000060: 181d afbe 51b7 a53e 3d51 353e a5ae b2ba
00000070: 6ccf 8cbd 75e6 113e d77c 563e f595 373e
00000080: 480c 183e c54e 0d3e 0d47 163e ec7d d33e
00000090: 0faf 303e 2c29 133e 5cc0 c93d 8eee 523e
000000a0: 7e32 9e3e 7e99 843e 2efd 553e 4c0c cd3d
000000b0: 01ba 8bbd fa67 db3e dc01 5b3d 57af 25be
000000c0: 2d0c bdbd b541 f9bc 53f7 283e ae31 253e
000000d0: 4409 59bc 8176 3c3e c5d1 a2bd a343 993d
000000e0: 4d19 4a3d 5b1a 393d 8b4d dcbd 44f4 613e
000000f0: 9c65 1ebe 61a8 a9ba 28a9 3c3d 9958 0c3e
00000100: 34f7 61bd 0a1f 21be b654 acbd c692 b6bd
00000110: fac3 1c3e 34cb 473e 344f fbbd 1205 84be
00000120: 5bc1 e8be aa38 dfbe ae6c 17be fb26 9c3e
00000130: 58ff f3bd 0c9b 34bd d203 26bd dabf 3c3e
00000140: 1f94 583e 6da0 283d 3ff5 1e3e b0c6 a83d
00000150: 5af2 f03c 1062 523d 22b5 953e 92b6 f73d
00000160: 9f0f 6c3e 1675 2c3d 9d60 43be b2e8 513e
00000170: 006e 4d3e 1063 7a3e 4db8 69bd 30eb cbbd
00000180: b4c1 1c3e e350 7d3e 2546 a93e 0581 9e3e
00000190: 2a42 653e 182e a3bc 6a40 403d ea3a 263e
000001a0: 6566 073e 6391 da3e f9d4 8f3d 550c 403e
000001b0: b2a3 c93c 9ffa 863e 5ce6 a03e 4b04 9a3d
000001c0: ce39 8b3e 6d51 933d aa0f b83e db15 1e3e
000001d0: a760 133e 715c 073f 073a 913e 97e4 033d
000001e0: 91f0 a9be 99af fc3e 0909 243f 4ef0 103e
000001f0: 8802 6bbe e35f 2bbd 0450 d1bd 16f3 e93c
00000200: 5d98 843d c3ee 943d 53a8 9abd fce8 20be
00000210: ad39 6dbc 2165 023e 18d5 803e fd8a af3c
00000220: a192 c2bd 9b91 563c 9d95 a53d 89de 233e
00000230: 508e 96bd 50ae e4b9 6c15 afbd 01df 893d
00000240: 4d87 533e 75e3 103d 307d 843d 03b1 dfbd
00000250: 1ac2 6dbb 3220 643e 21f4 9ebd afb3 5e3d
00000260: 6b52 733d 3a5b 1a3e 23f8 10be 02d5 253e
00000270: a943 bcbc b23e da3d 35d5 55be a012 2e3c
00000280: 4442 e73d dd2c a43e 1667 2fbe a2b2 943b
00000290: eae5 bc3c 90c7 42be 75e8 a2be 77dd bf3c
000002a0: 9c45 19bd 9a6e 8cbe 449e c3bd 4a74 043e
000002b0: 9ada 7ebe 0fbb cabe bd53 c6bd d820 413e
000002c0: 0b33 1a3e ccaa 023e ef73 813e 2184 d03d
000002d0: fba2 9e3d b269 cd3c 0ad0 84be 3d2e 973e
000002e0: 84f5 493e 54c6 90be 6ed3 2d3e d108 e8be
000002f0: aaba 813e d42d c43c c36d d93b de78 aabd
00000300: 547c b8be dad1 0fbf 6563 0d3e c83e 7b3e
00000310: 8aff 933e 21d9 093f ad78 e6b9 30ac debe
00000320: d87a 1ebd 41d3 cb3d 0f39 193e dc02 7abd
00000330: 9f29 033e 6427 a23d 92c7 a6be 4a76 513d
00000340: 608b 3a3e 6539 b2be 477b 0f3e 920f c93e
00000350: 0354 3bbe 5d6a 2b3f 3987 173d 5f94 cbbb
00000360: 00ab 3a3e 6b97 313e bdc5 6d3e 345c 873e
00000370: c511 043e 1412 04be e728 bf3d 3262 32bc
00000380: f430 963e b1a3 8e3d d852 fe3d 9d48 17be
00000390: e5de 8bbd 74f3 033e f2df f6bc 6e83 be3d
000003a0: 77cf 7cbe c417 8ebe 6521 183e 97c7 5dbe
000003b0: 392e a9bd e258 26be bbca a7be acad dcbd
000003c0: 38fe d93d 4779 83be b5a5 25be aa4e 8bbe
000003d0: 8319 83be a7ff 383e 6bca d2bd 7397 94bd
000003e0: 2c68 3f3e b8e3 8dbe 9b50 193e 6bbf 243e
000003f0: 37bd c2be de8c ebbd eca6 013e 955b 76be
0.083844684 0.019453118 0.05437704 0.14281985 0.05852122 0.03349243 -0.06813897 0.08352706
0.03338465 0.09167859 -0.024507578 0.048060805 -0.051062066 0.0036471204 0.059825145 0.08732705
-0.13234712 -0.0016667988 0.09981195 -0.05466853 -0.25485834 -0.33333427 -0.67882663 -0.7260792
-0.34201884 0.32366422 0.17706771 -0.001363237 -0.068755 0.14248069 0.2094606 0.17928298
0.14848435 0.1379958 0.14675541 0.41307008 0.1725428 0.14371175 0.09851143 0.20598814
0.30897897 0.25898355 0.20897362 0.10012111 -0.06822587 0.42852765 0.05346857 -0.16180168
-0.09230838 -0.03042684 0.16500597 0.16132233 -0.013246838 0.1840458 -0.079501666 0.07483604
0.049340535 0.04519115 -0.10756978 0.22065836 -0.15468448 -0.0012943858 0.046059757 0.13705672
-0.055167392 -0.15734497 -0.08414595 -0.089147136 0.15309134 0.1951111 -0.12270966 -0.25785118
-0.4546002 -0.4359792 -0.14787552 0.3049849 -0.11913937 -0.044093177 -0.040530987 0.1843256
0.21150254 0.04116862 0.15523241 0.08241022 0.029412437 0.05136305 0.29239756 0.120953694
0.23052834 0.04210385 -0.19079824 0.20498922 0.20061493 0.24451852 -0.05706053 -0.09956968
0.15308267 0.24737887 0.3306133 0.3095781 0.22388521 -0.01991944 0.04693643 0.16233411
0.13222654 0.42689046 0.07023043 0.18754704 0.024614189 0.26363084 0.3142575 0.0752035
0.2719254 0.07193265 0.3594945 0.15438025 0.14392339 0.5287543 0.28364584 0.032200422
-0.3319135 0.4935272 0.64076287 0.14154169 -0.22950184 -0.04183949 -0.1022034 0.028558295
0.064743735 0.07272103 -0.075516365 -0.15713876 -0.014479083 0.1273389 0.25162578 0.02142858
-0.095006235 0.0130962385 0.08085177 0.16002859 -0.07351363 -0.00043617422 -0.08549008 0.06731988
0.20657082 0.03537317 0.0646919 -0.10922434 -0.0036279024 0.22277907 -0.07761408 0.05437058
0.05940477 0.15073863 -0.14157157 0.16194537 -0.022981482 0.106564894 -0.20882113 0.010624558
0.11291936 0.32065478 -0.17129168 0.0045378963 0.02305885 -0.1902144 -0.31817976 0.023421032
-0.0374199 -0.27428132 -0.09551671 0.12934986 -0.24888077 -0.3959584 -0.096839406 0.18860185
0.15058534 0.12760466 0.25283763 0.101814516 0.0774593 0.025074814 -0.2593997 0.29527465
0.19722563 -0.28276312 0.16975185 -0.45319226 0.25337726 0.023947634 0.006635399 -0.08323835
-0.36032355 -0.56179583 0.13807447 0.24535668 0.28905898 0.5384694 -0.0004395893 -0.43490744
-0.03869137 0.09952403 0.14963172 -0.061037883 0.12808846 0.079176694 -0.32574135 0.0511382
0.1821723 -0.34809414 0.1401187 0.39269692 -0.18293767 0.6695917 0.036994193 -0.0062127556
0.18229294 0.17342918 0.23219962 0.26437533 0.12897404 -0.12897521 0.093339734 -0.010887669
0.29334223 0.069648154 0.12418145 -0.14773794 -0.06829623 0.12885839 -0.030136082 0.09302412
-0.24688517 -0.27752507 0.14856489 -0.21658169 -0.082607694 -0.16244844 -0.3277186 -0.10775313
0.106441915 -0.25678465 -0.16176493 -0.27208453 -0.256054 0.18066274 -0.102925144 -0.07255449
0.18692082 -0.27712798 0.14972155 0.16088645 -0.38034984 -0.11501478 0.12661332 -0.24058373

layer2.conv2.bias f4 [16]
00000000: 7108 18bf d183 44bf 7113 20bf b3d3 03bf
00000010: c1cb 32bf 9499 ffbe b982 0abf 4949 b2be
00000020: 7151 38bf 2ca5 20bf e83f f1be 016c c1be
00000030: 33ae a8be 2069 1ebf 5cbf 17bf a960 d2be
-0.5938788 -0.76763636 -0.62529665 -0.514949 -0.69842154 -0.49921858 -0.54105717 -0.34821537
-0.7199927 -0.6275203 -0.4711907 -0.37777713 -0.32945403 -0.6187916 -0.59276366 -0.4108937

layer3.fc1.weight f4 [120, 400]
00000000: b6cd c33c 1d23 c63c ace6 533c 7185 e23b
00000010: 1264 a33c 1c4b 3c3c b9be 5c3c 4458 d33b
00000020: 4a1d 4a3c d137 bb3b 0676 4bbc ce53 8ebb
00000030: ba5d babc 6b26 98bc ec90 40bc 432a 743b
00000040: 6fd9 c3bc d064 93bc 0356 d5b7 73aa 50b9
00000050: 9fa3 0a3b 6c70 50bc 57c8 96bb aa8e f73b
00000060: 28f7 b2bb 17a7 fb3c 0795 033d 1e82 f3ba
00000070: d26a 023c 553e 64bc b11d cb3b 4b91 d73a
00000080: ff3d 193d 7f69 953c db9e 06bc 0e5c b63b
00000090: f8ab 94bb 614d fabc f6f2 f139 939d 8fbc
000000a0: dff3 283b 7449 98bc 8b06 f5ba b168 e33b
000000b0: a34f 82bc 1e47 4bbd 4a0d 99bc 7d59 323c
000000c0: be8c 1d3d 13c5 e4bc 6391 87bc d74b 543a
000000d0: 0a9a 2b3c 8e61 d3ba 53e5 ccbc fe4c 51bc
000000e0: 6423 62bc 083d b1b7 94c4 8dbc cf74 813c
000000f0: 1d6b bc3c 5095 beba 0d74 01bd 3cef 7e3b
00000100: 76b0 aebc b7ce f63c 8c72 c23b 203e 6b3c
00000110: 058c fc3c b37e 233d da09 9bbc 179d b0bc
00000120: f59f c43b 32dc db3c b3e1 203b 5156 503c
00000130: 4db5 933c a0c9 79bb 5877 35bb 3d26 713c
00000140: a748 92ba a731 663c 03ff 0c39 5dcd 0cbc
00000150: cee8 163b 5944 bebb 566a b63b 9000 7c3c
00000160: 3ec0 6a3c e5c0 cb3c 3f7f a63b a797 2c3c
00000170: e37d 3f3c e584 4b3b 82da 703c 0020 ef3c
00000180: 5d2b 143d bf91 933b fde0 e4bc 8578 b83b
00000190: 86ca 533c 8635 23bb 271b 503b 6570 ad3c
000001a0: 5375 83bc e944 713c 67fe c1bb 5659 9e3c
000001b0: 50ee 363c 261b 04bd d81c d13b 7823 143c
000001c0: 19f8 0a3c 2eb9 293c e463 b7bc 7783 0cbc
000001d0: 8c89 a2ba 2878 4dbc 279a 2bbc 4b34 d2bc
000001e0: 3571 bbbc e874 dd3b b96d 9e3c 9e54 a43c
000001f0: 3139 b9bc dbef efbc 6120 05bd b504 3abc
00000200: 6dee 903a e140 9dbb 54c5 9dbc 6080 9bbc
00000210: e1ef 053c 3a24 163c cdb9 24bd 2009 b9bc
00000220: ca64 0f3c 8e3c eebb 30fb 10bb 2569 83bc
00000230: 48ed bb3c 637f 1d3c 85dd 803c 044d 3bbc
00000240: d040 133c a19a 95bc 9e45 de3b 36fa de3c
00000250: 6006 6d3c d7ef b53b 81c9 99bc 4115 17bc
00000260: 2ade 603c 3af4 423c 8838 acbb 0fbe 97bc
00000270: 7ec7 9abb 04d5 c83c bc31 e83b 5a69 f3bb
00000280: b2e6 c53c fba2 11b9 3738 553c 9039 bf3c
00000290: 8a1b 27bc 32fe a73c 6323 f9bb 1c13 d7bb
000002a0: 74fc a2bc f326 9cbb cd5a 863b 10ad 8dbb
000002b0: b325 3d3b 58b7 1d3d 0010 6bbb d455 08bc
000002c0: eaa3 023c 6c94 883c bac2 053d 4a26 db3c
000002d0: f1db 06bc 6184 72bc d726 4a3c 4dcb ad3c
000002e0: 1dfd 663c 8cd0 a13a 1e03 523c 0d30 8ebb
000002f0: de68 3ebc dd58 f63b cf9d 0a3d d906 ce3c
00000300: dbe3 f43b 1dc3 1f3c 1296 613d 895d 89bb
00000310: 8072 153c 0c55 ab3b bdf9 993b fdd8 24bc
00000320: d251 57bb 1e7e 38bc aa30 93bc 73cd 17bc
00000330: 3f22 843c 9d08 9a3c 58a7 0e3c 6260 5cbc
00000340: e6d9 343c bfa9 01bb a5d0 9e3c 779c 6b39
00000350: 5d45 7aba b2d1 973c 5fb5 9bbc 8d70 1c3b
00000360: 1d66 333c 3d08 f9ba baf0 3cbc 3031 10bd
00000370: 274c 2abc f2eb fc3c e06a f53c 7476 723b
00000380: c8c9 70bb 9bbd dbba a30d b93c d242 be3c
00000390: 2a1b 203c aeb5 c03c 0747 1d3c 5cdb 9abc
000003a0: 2046 1dbc 2c7d 8dba fcd9 82bc d5e3 d33c
000003b0: 8e4e b3bb 48aa a33c 3ba0 1d3b c2c1 bebc
000003c0: 5ee0 babb c4dc a8bb 1601 333c 550c 0fbd
000003d0: 02e1 f4bb 66ff e03c a27a 613d f934 863c
000003e0: 0057 1bbc ed52 013c dc3a 79bc 86da 79bb
000003f0: 3de0 c33c 3edb b7bc 22ac da3b 3aee dcbb
0.023901802 0.024186665 0.012933414 0.00691288 0.019945178 0.011492517 0.013473206 0.006449731
0.012336085 0.005713441 -0.012418276 -0.0043434864 -0.02274977 -0.018573007 -0.011753302 0.0037256635
-0.023907391 -0.017992407 -2.5431631e-05 -0.00019899923 0.0021154655 -0.012722116 -0.004601519 0.0075548487
-0.005461592 0.030719323 0.032124545 -0.0018578207 0.007960038 -0.013930877 0.006198608 0.0016446499
0.03741264 0.018238781 -0.008216585 0.005565173 -0.004537102 -0.030554475 0.00046148122 -0.017531192
0.0025780124 -0.018589713 -0.0018693967 0.0069399704 -0.015907114 -0.04962837 -0.018683095 0.0108855935
0.0384643 -0.027926004 -0.016548818 0.0008098459 0.0104737375 -0.0016127096 -0.025011694 -0.012774704
-0.013802383 -2.1128464e-05 -0.01730565 0.015802769 0.023000294 -0.0014540348 -0.031604815 0.003889992
-0.021324378 0.030127866 0.005934065 0.0143580735 0.030828485 0.03991575 -0.018925596 -0.021559281
0.0060005137 0.026838396 0.002454859 0.012715892 0.018030787 -0.0038114563 -0.0027689543 0.014718589
-0.0011160568 0.014049924 0.0001344644 -0.008593884 0.0023026946 -0.0058064875 0.0055668755 0.0153809935
0.014328061 0.024872253 0.005081087 0.010534204 0.011687729 0.0031054553 0.014700534 0.029190063
0.036174167 0.0045034583 -0.027939314 0.0056296014 0.012926703 -0.0024903729 0.0031754465 0.021171758
-0.016047155 0.014725902 -0.0059202197 0.019329708 0.011165217 -0.032252453 0.0063816123 0.0090416595
0.008482003 0.010359092 -0.022386499 -0.008576266 -0.0012400611 -0.0125408545 -0.0104737645 -0.0256597
-0.02288113 0.006758321 0.01933943 0.02005988 -0.022610279 -0.029289177 -0.032501582 -0.011353661
0.0011057385 -0.004798994 -0.019259132 -0.018982112 0.008174867 0.0091639105 -0.040216256 -0.022587359
0.008752057 -0.0072704023 -0.0022122376 -0.016041348 0.022940293 0.009612891 0.015730629 -0.011431936
0.0089876205 -0.01826221 0.0067832014 0.02721892 0.014466852 0.005552273 -0.018772842 -0.009221376
0.013724843 0.011899048 -0.0052557625 -0.018523244 -0.0047234884 0.024515636 0.007086007 -0.0074283304
0.024157856 -0.00013888993 0.013013891 0.023342878 -0.010199437 0.020506952 -0.0076030954 -0.0065635573
-0.01989577 -0.0047653853 0.0041001798 -0.004323609 0.0028861582 0.03850493 -0.003586769 -0.008321244
0.0079736505 0.016672336 0.03265641 0.026751656 -0.008231149 -0.014802069 0.012338362 0.021215105
0.014098433 0.0012345477 0.012818126 -0.004339224 -0.011621682 0.0075179175 0.033841904 0.02514975
0.0074734516 0.0097511085 0.05507476 -0.0041920585 0.009121537 0.0052286442 0.0046989606 -0.0100615
-0.0032855165 -0.011260537 -0.01796754 -0.0092652915 0.016129611 0.018802935 0.00870689 -0.013450714
0.011038279 -0.0019785014 0.019386599 0.00022469634 -0.0009547079 0.018532608 -0.019007383 0.0023870796
0.010949639 -0.0018999648 -0.011532003 -0.03520316 -0.010394133 0.030874226 0.029958189 0.0036996873
-0.0036741365 -0.0016764881 0.02258951 0.023225222 0.009772101 0.023524132 0.009599454 -0.018903427
-0.009599239 -0.001079475 -0.015973084 0.025865475 -0.005472011 0.019978657 0.0024051804 -0.02328575
-0.005703016 -0.0051532704 0.010925552 -0.03492387 -0.007473112 0.027465533 0.055048592 0.016382681
-0.009481192 0.007893306 -0.015211787 -0.0038124635 0.023910636 -0.02244341 0.006673352 -0.006742266

layer3.fc1.bias f4 [120]
00000000: 0c66 88bc ad63 8fbc 774a f2bc 3225 a3bb
00000010: 73d9 473c 34d4 fdbb f7ff 4fbc f84a ba3b
00000020: dc81 593c dc38 1bbc 78d7 80bc e61f 47bc
00000030: 0e5d 093c 014c 913b 812a 843c d2eb d6b8
00000040: 89fd 183c eb99 febb f3bc 423b 6d55 863b
00000050: bc21 aebc 261c cd3b 8ae5 e73b f9a2 3ebc
00000060: 6852 bb3b 0392 a83a ff2a 8b3c 896f 30bc
00000070: 0582 50bc bf32 0a3c ff60 a03c 914f 133c
00000080: 1c02 5e3e 0927 473c 6c28 5b3b 5f25 143c
00000090: e9bf 6ebd 03ce 11be ef68 6bbb 2c84 abbb
000000a0: de5d 1ebb 1bfa 833c 55de 1f3c b353 f63d
000000b0: 6e50 8abc 53b7 98bc 7eb3 813c 7c49 8a39
000000c0: aef5 55b8 deb3 9ebb 562a 0e39 0c34 9cbb
000000d0: ee19 a5bc 0fea b23b 2beb 19bc 002a abba
000000e0: a7a7 9e3b c488 fa3b cb1f c2bb b537 993c
000000f0: 270c 083c c0d6 08bc 0bf5 2abc ea29 013e
00000100: fa3c f9bd ccb4 babc 15f4 273c cc2a a2bc
00000110: ad9b d2bb 2ae2 81bc d3e4 603b 6538 d7bb
00000120: 387a cdbc 0f11 1c3c 31c0 55bb e495 49b9
00000130: d2dc 4e3c fbf3 93bc db78 ebbc 7dfa 5d3c
00000140: 254f 08bb 1fd3 163c e83e c3b8 9a79 813c
00000150: 7765 97bb 87bf fe3c c88e adbb c2cf c03b
00000160: 48cf 8bbc 517a 823b 2fc4 abbc 9aa1 9c3c
00000170: 2a62 73bc bdd9 5cbb dd3c a23c 48a4 76bc
00000180: 324d 0bbb fe65 0b3b 265d d03d 7a28 f6b9
00000190: 4ec2 64ba 4bca 41bc bef5 3d3c 80c9 b3bc
000001a0: a900 b2bc 0c96 fd3b 74c9 27bc 662e 9dbb
000001b0: 1c92 e1ba 8c63 803a 1411 72bb 3d0c fdb9
000001c0: babb c33e 0190 43b9 3924 3fba cb67 45bc
000001d0: bf25 afbc 4852 9abc d685 f9bb 3fba 803e
-0.016650222 -0.017503584 -0.029576523 -0.0049787993 0.01219784 -0.007746244 -0.012695304 0.0056852065
0.01327559 -0.009474006 -0.015727744 -0.012153601 0.008384002 0.004434109 0.016133549 -0.0001024824
0.009337791 -0.0077698133 0.0029714673 0.004099539 -0.02125632 0.006259459 0.0070769237 -0.011635535
0.0057166107 0.0012860898 0.016988276 -0.01076878 -0.012726312 0.00843495 0.019577501 0.008991138
0.21680492 0.012155303 0.0033440841 0.009042113 -0.05828849 -0.14238743 -0.00359207 -0.005234262
-0.0024164836 0.01611047 0.009757598 0.12027683 -0.016884055 -0.018642103 0.015832659 0.0002637616
-5.1011964e-05 -0.004843219 0.00013557947 -0.0047669467 -0.020153966 0.005460031 -0.009394447 -0.0013058782
0.004841763 0.0076456983 -0.0059242 0.018703321 0.008303679 -0.008351982 -0.010434399 0.12613645
-0.121698335 -0.022791289 0.010251065 -0.019795798 -0.0064272494 -0.015854914 0.0034316077 -0.006568002
-0.025082693 0.009525551 -0.0032615776 -0.00019224692 0.01262589 -0.018060675 -0.028744152 0.013548491
-0.0020799127 0.009205609 -9.310042e-05 0.015805054 -0.00462025 0.031097187 -0.005296562 0.0058841417
-0.017066613 0.0039818664 -0.020967571 0.019120026 -0.014854947 -0.0033699118 0.019804412 -0.015053816
-0.0021255729 0.002127051 0.10174017 -0.00046950934 -0.00087264634 -0.011828016 0.011594234 -0.021946669
-0.02172883 0.0077388342 -0.010240901 -0.004796791 -0.0017209682 0.0009795292 -0.003693645 -0.0004826504
0.38229162 -0.00018650295 -0.00072914694 -0.012048672 -0.021380303 -0.018838063 -0.0076148314 0.25142094

layer3.fc2.weight f4 [84, 120]
00000000: 0f1e 743a 27fa 6aba f407 58bb 169d b93a
00000010: 5d96 01bc d3e1 db3b 3c0e a23b 41e0 e1bb
00000020: 2b26 b5ba 4731 3a3b eb04 993b 81e9 6abb
00000030: bfcd cfbb 7948 b13b 4d89 87bc 340a 85bc
00000040: 7ed7 1fbc 765a 723b 9b73 1a3c 4bc2 e6bb
00000050: 0601 10bc cee7 103c 0fd3 0c3b a1ba cebb
00000060: e799 37bb 870c 36bc 9050 edb9 8cb6 853c
00000070: fb7a 373b 2816 ce3b 257b 44bc 6a0f 0c3b
00000080: 0252 6cbc 0322 88bb 43ac 113b ea2a a43b
00000090: 6085 3f3c c85f 39bb 55d9 4c3c 41b8 cb3b
000000a0: 7cf7 b7bb 9ce4 afbb 2eba 7fbc 03cd 6bbb
000000b0: b2a1 213c fb2d 63bb 22cb 0fbc 06c1 dbbb
000000c0: 75c3 063c 2a62 d13a 6f25 b5bb 8799 983a
000000d0: 3717 cb3b f4cc c2bb f155 7a3b 2137 83bc
000000e0: b340 543b c2fd a0bb cd9d eb3b 2dd0 39bb
000000f0: a9e8 17bc 590e 80bc 7bf2 e83b 9647 1e39
00000100: abc8 173c 1e84 703a f20e 6dbc 838a 9f3b
00000110: 78fa 483c 2a06 4e3c 0e74 1abc 0686 b33b
00000120: e980 433c 11bf 033c d693 d7ba 2a1f 8fbb
00000130: 1d5f d9bb 7e8e 813c ff84 82bb 3d2c 5bbc
00000140: 7733 873c 1221 89bc e193 253c 1510 273c
00000150: ac88 a93b 0091 a1bb 62ea 9dba 1154 ca3b
00000160: 26d6 f4bb 908a 3739 0cb2 d13c 54b5 59bb
00000170: 8456 de3b b63b ccbb c41d ba3b 9a52 aa3a
00000180: 6479 cebb b53b 0f3c 2899 62bc 3dc7 fcbb
00000190: 580d ffbb 10de 363c e6ec 46ba ce7c ef3b
000001a0: a9b1 213b 9083 77bc 56a0 233b 53cc 8a3c
000001b0: da29 a93b ac4b 143b c62c 123c 2d30 8a3b
000001c0: 1b89 663b 2a2a f53b 5bd5 76ba fbc0 24ba
000001d0: 5cd1 333c 6886 c73b f23a f2bb 83d4 b43a
000001e0: bdf5 893b 3807 36bc f736 c0bb 8b6c 4d38
000001f0: 4dea 383c 6739 013b 8e86 583b 747b 7a3b
00000200: 7406 6e3a bc67 45bb 1798 b1bb 2688 babb
00000210: 20b9 113b 6aa0 3dbb c667 803c bea8 103c
00000220: ae10 c83b eb1b 1f3b 124d e13b 13a7 573c
00000230: f8d5 b53b 2fc7 19bc 28c2 883b 30c0 1e3c
00000240: e62c 293c a5da 763c 1868 07bb 4595 7abc
00000250: 3829 eab8 280c 013c f3c7 803c 5dbf 673b
00000260: 7cf8 493c 6029 343c dfe1 1a3b dfa2 1cbb
00000270: 1c0e 4abc 3aaf a63c 408c 2dbc ab5a ccbb
00000280: c6aa 583c ec25 acba 5854 823c 91df 4f3b
00000290: e38c 8bbb b1ce 073b f91e 783b 05f0 bf3b
000002a0: c036 8cba 5dd4 50bb 444f af3b d5f0 dabb
000002b0: fe7b 9bbb 882a ed3b 80e5 52b9 c814 a53b
000002c0: a5ef 18bc aecc 813c 622d 8dbb 11f5 653b
000002d0: bd0a 1b3c d864 a03c 29b6 a4bb 85fd 0d3c
000002e0: 9f86 8e3b af6a 873b 122d 393c 4059 29bc
000002f0: 2559 2ebc 4c90 26bc 400a 693b a810 ecba
00000300: 67bf 1cbc 6e2a b53a e418 353c 995b bb3b
00000310: 162c 603c d68e 04bc 706e e6bb 882f 9b3b
00000320: df63 45bb 92ec 7d3c 0165 2ebb 177a 42ba
00000330: 65d5 4ebc 077d e33b 35c3 893b 2e82 a33a
00000340: 0112 41bb 3b1b ff3a 6412 52bc 3b80 e83b
00000350: a24d 1bbb 7dc1 f9bb ea77 54bb c40f 7a3b
00000360: 2e44 1a3b a31a 82bc 3182 533c 11ac 483c
00000370: 0a13 2fbb 0490 62bb 01ac deba 3257 c1bb
00000380: f260 3dbc 1270 fa3b dd77 94bb a668 3dbc
00000390: 03e6 35bc 84e7 b93b 56e1 03bc d953 ef3a
000003a0: 9248 f2bb 77b1 ddbb ebca 6ebb ef34 d6bb
000003b0: 3a6b 3cbc 1cfa ffbb 0f47 703c 7656 ba3b
000003c0: a91f a3bb c980 40bb 209d 20bb 01de 313b
000003d0: 4e35 5abb cf22 bf3a 82df 66bc 1f39 50bc
000003e0: 7689 8d3b 2abf bfbb 1d9c 63ba 730b 113c
000003f0: d04e 2cbc 9ca3 043c 9b8f c93a 7b46 dcbb
0.00093123404 -0.0008963667 -0.0032963725 0.0014161195 -0.007909385 0.00671027 0.0049455445 -0.006893188
-0.0013820579 0.002841072 0.0046697757 -0.0035844746 -0.0063416655 0.0054102507 -0.016544962 -0.016240217
-0.009755967 0.0036980188 0.009426977 -0.0070422045 -0.0087893065 0.008844329 0.0021488105 -0.006308869
-0.0028015317 -0.011111385 -0.00045264186 0.016322397 0.0027996886 0.0062892623 -0.011992251 0.0021371492
-0.014423849 -0.004154445 0.002222792 0.0050099986 0.011689514 -0.002828585 0.012502988 0.006217033
-0.0056142192 -0.0053678285 -0.015608354 -0.003598035 0.009865211 -0.0034664858 -0.008776458 -0.00670636
0.0082253115 0.001597469 -0.005528144 0.0011642434 0.006197836 -0.0059448425 0.0038198198 -0.016017498
0.0032387197 -0.004913063 0.007190442 -0.0028352842 -0.009271779 -0.015631841 0.007108984 0.00015094722
0.009264152 0.00091749604 -0.014468895 0.004868807 0.012266748 0.012574712 -0.009427084 0.0054786233
0.01193259 0.008041159 -0.0016447257 -0.0043677287 -0.006633653 0.015815016 -0.0039831395 -0.013377246
0.016504033 -0.016739402 0.010106058 0.010196705 0.0051737633 -0.0049306154 -0.0012048001 0.0061745723
-0.0074718175 0.00017503859 0.025597595 -0.0033219652 0.006785216 -0.006232704 0.005679818 0.0012994588
-0.006301092 0.008742263 -0.013830461 -0.0077141807 -0.007783573 0.011161342 -0.0007588401 0.007308579
0.0024672544 -0.015107051 0.0024967394 0.016943133 0.00516246 0.0022628112 0.008921808 0.004217169
0.0035176936 0.007481833 -0.0009415948 -0.000628486 0.010975208 0.0060890205 -0.0073922807 0.0013796244
0.0042102025 -0.0111101195 -0.0058659273 4.8976897e-05 0.01128633 0.0019718052 0.0033039185 0.0038220556
0.0009079941 -0.0030121645 -0.005419742 -0.0056924997 0.0022235587 -0.0028934726 0.015674483 0.008829294
0.006105504 0.0024278115 0.0068756426 0.013162392 0.0055491887 -0.009385868 0.004173536 0.009689376
0.010325646 0.015066777 -0.002066141 -0.015294378 -0.00011165667 0.007876433 0.015720343 0.0035361864
0.01232731 0.010996193 0.0023633165 -0.002390079 -0.0123324655 0.020347226 -0.01059252 -0.0062363944
0.013224309 -0.001313386 0.015909359 0.003171895 -0.0042587384 0.0020722563 0.0037860258 0.00585747
-0.0010697469 -0.003186486 0.0053500254 -0.0066815414 -0.0047450056 0.007237736 -0.00020112656 0.0050378777
-0.009334479 0.01584467 -0.0043083886 0.0035088698 0.009463009 0.019579336 -0.005026598 0.008666401
0.004349544 0.0041325907 0.0113022495 -0.01033622 -0.010641371 -0.010166239 0.0035559088 -0.0018010335
-0.009567118 0.0013821849 0.011053298 0.0057177064 0.013682386 -0.008090695 -0.007032208 0.004735891
-0.0030119342 0.015498297 -0.0026610496 -0.00074187055 -0.012624119 0.0069423947 0.0042041787 0.001247471
-0.0029460194 0.0019463071 -0.0128217675 0.0070953644 -0.0023697396 -0.0076219426 -0.0032420107 0.003815637
0.0023539173 -0.015881842 0.012909458 0.012248055 -0.002671423 -0.0034570703 -0.0016988517 -0.005900287
-0.011558758 0.0076427544 -0.0045308904 -0.011560595 -0.011102202 0.0056733508 -0.00804933 0.0018259241
-0.007393905 -0.00676554 -0.0036436867 -0.006537072 -0.011500174 -0.007811798 0.014665379 0.0056865765
-0.0049781394 -0.0029373637 -0.0024507716 0.0027140381 -0.0033295932 0.0014582517 -0.014091374 -0.012708931
0.004319365 -0.005851646 -0.00086826255 0.008852827 -0.010516837 0.008095648 0.0015377881 -0.006722269

layer3.fc2.bias f4 [84]
00000000: 8025 503b 2959 963c a811 673c 6219 c3ba
00000010: 162d a7bd 25e7 b63b 9034 853a 4db5 2bbc
00000020: 4026 883b 1bf5 8ebc dc02 863e 89c5 bfbc
00000030: e1b0 903c b0a4 15bc 4e70 0c3c 3c4d 603c
00000040: 790c 4abc b596 aa36 ca31 e13b 7603 43bc
00000050: 64e3 5a3c 7f92 a0bc 2fbd 0aba f033 11bb
00000060: df02 31bc 6241 2dbd 836f 5cbc e65b 513d
00000070: 1389 16bc ff2a 023c 2296 643c b614 153c
00000080: bbc7 68bc 6352 003c 654e 443c b58d 94bb
00000090: 6bfa 2cba 8690 c13c b624 f5bb d607 3b3c
000000a0: dfd2 b6bb 53a8 963e e357 aa3c a113 93bc
000000b0: 8188 47bc 9cdc 8c3c db0e 4fbc 2286 f2ba
000000c0: b0bb 23bc bd3e 4cbc d6a9 06bc 5209 5b3e
000000d0: 3007 c0bc 925e 5e3c b6b0 1e3c 9b41 a4bb
000000e0: 0d77 50bc 9b98 89bc c59c 91bc f257 093c
000000f0: ad53 b4bc b9f9 ec3b 90af 8c3c 39b0 b03c
00000100: d228 283c 250d 513c a85f 873c 7e4e 333c
00000110: c159 e03b e3bb 203c 16d7 083e 4298 b6bb
00000120: c200 1f3c 66d6 b0bc d531 54bc c6dc 9839
00000130: dd2d 22bc 8abf 24bb 63ac a4bc 335c 02be
00000140: 2555 26bc ca2b d33b eec0 58bb 2344 d7bc
0.0031760633 0.018353062 0.014103331 -0.0014884884 -0.08162896 0.005581754 0.001016276 -0.010480237
0.0041549504 -0.01745086 0.26174057 -0.023409622 0.017662467 -0.009133503 0.008571697 0.013690289
-0.012332075 5.0839394e-06 0.0068723904 -0.011902681 0.013359878 -0.019601105 -0.0005292473 -0.0022156201
-0.010803907 -0.042298682 -0.013454321 0.05111303 -0.0091879545 0.007944821 0.01395181 0.009099176
-0.014207776 0.0078321425 0.011981581 -0.0045334944 -0.00065985945 0.023628484 -0.007481183 0.011415442
-0.005579337 0.29425296 0.02079386 -0.017953696 -0.012178541 0.017195038 -0.012637819 -0.001850311
-0.009993479 -0.01246613 -0.008219203 0.21390274 -0.023440927 0.013572352 0.009685686 -0.0050127036
-0.012723696 -0.0167964 -0.017774949 0.008382784 -0.022012556 0.0072319177 0.017173558 0.021568405
0.010263639 0.012759482 0.016525105 0.010944007 0.006846637 0.009810421 0.13363299 -0.0055723498
0.0097047705 -0.021586608 -0.012951334 0.00029156188 -0.00989863 -0.002513858 -0.020101732 -0.12730484
-0.010152136 0.006444429 -0.003307398 -0.026277607

layer3.fc3.weight f4 [10, 84]
00000000: 4718 903a 9731 08b9 0d11 ef38 1419 a53a
00000010: 4344 303c 46e5 54ba 6100 903b 1b5b 3cbb
00000020: 6776 6a3b 1754 0fbc 936f 52be 3ec6 fabb
00000030: 4cd2 b43b 8e78 833a 568b 2f3b a1b3 69bb
00000040: 2487 c9ba fa91 e13a 9613 d2bb f7d0 b5bb
00000050: 5532 b3b9 9a86 b7bb 35a6 a03b ac90 85bb
00000060: 4bdf 453c 089f 5a3c 6b35 b73a 0722 cf3d
00000070: 404a 033b 8022 a5ba 3afc 483b 8dfa e5bb
00000080: 00d1 cbbb c411 893b ff5b 5939 5731 31bb
00000090: 3078 e13a dc60 083c dae1 da3a 3e47 833b
000000a0: 856c 7b3b 6e70 f53b c5c3 cb3a 4bde a338
000000b0: 3865 4a3a f324 b33a 1961 89b9 f4ba 7d3a
000000c0: 4fa3 aebb b953 4a3b 86a4 14bb 51e6 e53c
000000d0: 1be8 413b 61dc ab3b 2cad cb3b 6c0a 463b
000000e0: 5a68 b23a 99d2 7dbe b5eb 243b 8a24 94bb
000000f0: fbac 97bb 25d4 44bb 7cfb 9e3a 84c9 1cbb
00000100: b21f 173a 11c3 023b d9e0 fcba c796 f5b9
00000110: b412 8ebb ca87 d839 aae5 24be 4a86 953b
00000120: 539a 563b 20a1 7dbb d7a7 c83a 2620 b43b
00000130: dbae 053a 2f5a aa3c 1c40 febb 99be 153e
00000140: df2d cb3a c35e 85ba 7c82 423a 4aaf 3fba
00000150: 8012 89bb 40c9 0fbc 55ff 5c3b d092 dcbb
00000160: eca4 bd3c e64a c93b b641 15bb a316 053b
00000170: 5e50 e03a 93fc 8eba b708 1ebd 2825 113c
00000180: 3578 b139 cd3d 63ba 7137 493b ffa3 5b3b
00000190: 82cb 0cbc 5d9d fa3b d85d da3a 727b 703c
000001a0: 82a5 45b9 7db9 463b 412f 1c3b 1005 a83b
000001b0: b76a b83b 4d10 803e 17f2 52bc 538e f8bd
000001c0: 82b0 67bb fe67 6e3b 2eeb 74bb 9322 3d3c
000001d0: 87a1 b53c 35d8 bbb9 5f39 903b 8aa7 533c
000001e0: d509 223b a97e 18bc f143 ec3a 29a8 e6bb
000001f0: 6ccb cd3c 6221 38be dfb4 283b 6bf6 a6bb
00000200: 0828 fbba dfc3 5c3b faca fb3d 5c71 813b
00000210: a7a9 53bb eaad 083c e602 1fbc 642b adbe
00000220: 8d81 133c 4a0a 98bb a754 8b3a bacd 823c
00000230: 2fb0 cc3b bd19 a73c dde9 f53a 55fc 29bc
00000240: 7671 c43a 046c b83b 3f86 82bc 375b b7bc
00000250: 1366 3ebb e948 55bc f293 d83a 7bc1 b83a
00000260: 5055 a6bb de16 cf3a 64da eebd 21b0 f7bb
00000270: baa0 aabb 72d3 083a 6daf 1f3c 748d a6bc
00000280: f482 70bb b90f f73c b7d8 a8b9 2421 5bbd
00000290: ca02 88bb 84f8 0cb9 c3a0 e33b 493c d1bb
000002a0: f99d 5c38 d96a 823b 595e 4cbb 7012 a53b
000002b0: 12ae 8ebc a07c 21bb 6a10 2fba 64e6 ce3b
000002c0: a2fd 54bb b9be 223c c1d0 bfbd 68b8 6e3b
000002d0: 65f0 12bc 8f74 0c3b 140d debb ac29 59ba
000002e0: 3d01 e03b d101 8dba ca95 fdba 44a9 1cba
000002f0: 526e 02bc 6692 553b 738a 5cbb d94a 83bb
00000300: 5d70 01bb accf 64bd cd7c d43b bc41 343e
00000310: e609 4d3b ea43 d6bb d8f3 9ebb c809 83bb
00000320: a20b 663a 995f 78bb 225f 23bb 075e e5b9
00000330: 1f8b 163c 08a6 b2ba 8565 deba 29e4 cdbb
00000340: 723b bbbb 338d 0e3e be9d d4bb 9707 b83b
00000350: e9ff c43b 2d80 c7bb 906c 203d ed45 f73a
00000360: 7916 a63b 10bc 82bb a77d ed3b b518 173e
00000370: fa22 a0bb 3238 7f3a 2e4c 82bb 6547 9cba
00000380: 00bf 2abb 221f 513d a4a7 363b af06 803b
00000390: 58be b93b 074c 28ba cba8 903b 6f67 e53b
000003a0: 1092 05bb 9f15 823b b54a 10bb cabf c0bb
000003b0: 74d9 923b 021c afba ae54 d1bc 1f34 e239
000003c0: 9f83 d13a 146f 053c 6d92 1cbb 9855 ca3b
000003d0: 6bc4 fe3a 088c 943c 9ada f43b 122f 6cbe
000003e0: cf15 553b 3bc2 8f3b 8d84 56bb a6f1 ba39
000003f0: e8c1 403c 360f cabb 7d0f 72bb c3f5 ccb9
0.0010993563 -0.00012988444 0.00011399584 0.0012595975 0.010758462 -0.00081213226 0.0043945764 -0.0028740827
0.003577614 -0.008748076 -0.20550375 -0.007653027 0.0055182334 0.0010030435 0.0026785932 -0.0035660046
-0.0015375358 0.0017209642 -0.006411026 -0.005548592 -0.0003417904 -0.0056007626 0.004902626 -0.004076084
0.012077163 0.01334358 0.0013977712 0.10113912 0.002003327 -0.0012598783 0.0030667917 -0.0070183934
-0.006219983 0.004183026 0.00020729004 -0.0027037465 0.0017201956 0.008323874 0.0016699389 0.0040062955
0.0038364243 0.0074902093 0.0015546015 7.813851e-05 0.0007720771 0.0013667628 -0.0002620302 0.0009679042
-0.0053295265 0.0030872656 -0.0022681071 0.028063925 0.0029587809 0.005244777 0.006215712 0.0030218614
0.0013611421 -0.24787368 0.0025164906 -0.0045209574 -0.004628775 -0.0030033675 0.0012129392 -0.0023923824
0.0005764916 0.0019952694 -0.0019293084 -0.0004684238 -0.0043357257 0.000412999 -0.16103235 0.0045631276
0.0032745793 -0.0038700774 0.0015308809 0.0054969965 0.0005099603 0.020794956 -0.0077591073 0.14623488
0.0015501342 -0.0010175336 0.00074199564 -0.0007312192 -0.0041831136 -0.008776009 0.0033721526 -0.0067313686
0.02314993 0.006142962 -0.0022774762 0.0020307682 0.0017113795 -0.0010909013 -0.03858253 0.008858956
0.00033849632 -0.0008668572 0.0030703212 0.0033514497 -0.008593442 0.0076481537 0.0016660048 0.014677869
-0.0001884904 0.0030322962 0.0023831876 0.0051275566 0.005627956 0.25012437 -0.0128751015 -0.12136521
-0.003535301 0.0036377902 -0.0037371623 0.011543888 0.022171749 -0.00035828506 0.0044013704 0.012918362
0.0024725099 -0.009307542 0.0018025619 -0.007039089 0.025121413 -0.17981485 0.0025742573 -0.0050952933
-0.001916171 0.0033686084 0.12294574 0.003950281 -0.0032297166 0.008342246 -0.009705281 -0.33822167
0.009003055 -0.0046398984 0.0010630087 0.015967239 0.0062465887 0.020398015 0.0018761713 -0.010375102
0.0014987427 0.005628111 -0.015933154 -0.022382362 -0.002905254 -0.013017871 0.0016523583 0.0014095748
-0.005076088 0.0015799662 -0.116627485 -0.007558838 -0.0052071484 0.0005219496 0.009746415 -0.020331122
-0.0036699148 0.030158864 -0.00032204922 -0.053498402 -0.004150723 -0.0001344402 0.0069466545 -0.0063853604
5.259921e-05 0.0039800224 -0.0031184165 0.0050375983 -0.017416988 -0.0024640933 -0.0006678166 0.006314086
-0.003249981 0.009933167 -0.093659885 0.0036425833 -0.008968447 0.002143178 -0.0067764614 -0.00082841027
0.006836085 -0.0010757988 -0.0019347009 -0.000597615 -0.007960873 0.003258848 -0.0033651858 -0.0040067253
-0.0019750812 -0.055862114 0.006484604 0.176032 0.0031286418 -0.0065388577 -0.004850846 -0.0039989688
0.0008775537 -0.0037898778 -0.002492853 -0.0004374834 0.0091884425 -0.0013629803 -0.0016967511 -0.0062833023
-0.0057138735 0.1392105 -0.006488531 0.005616139 0.006011952 -0.006088278 0.039166033 0.0018865444
0.005068597 -0.003989704 0.007247645 0.14755519 -0.004886982 0.0009735852 -0.0039763665 -0.0011923133
-0.0026053786 0.05105508 0.0027870918 0.0039070467 0.0056684427 -0.00064200204 0.004414653 0.0070008556
-0.002038125 0.0039698626 -0.0022017185 -0.005882238 0.004481489 -0.0013359787 -0.025553074 0.00043144912
0.0015984661 0.008144159 -0.0023890988 0.0061747544 0.0019437199 0.018133178 0.0074723484 -0.23064831
0.003251422 0.0043871677 -0.0032732815 0.00035656727 0.011764981 -0.006166364 -0.0036935501 -0.0003909302

layer3.fc3.bias f4 [10]
00000000: 29eb f4bd 91bb d2be 9388 b53e fd24 103f
00000010: 2bb5 aa3e b422 b1bc 8304 debd 396f 85be
00000020: 96f4 b4be 5678 2fbd
-0.11958916 -0.41158727 0.3545576 0.5630644 0.33341345 -0.021622993 -0.10840704 -0.2606142
-0.35342854 -0.04283937
